CRL/模型集_历代版本最强/1.pth (torch, 370623 bytes, 11 tensors)

critic.0.weight f4 [256, 48]
00000000: 6d79 75be a8b4 b0bd a15f ce3b 2590 c43c
00000010: 0d31 12be 0e10 d7bd 47f0 dc3a 12e4 c73c
00000020: e244 93be 9703 47be 6272 44be dac3 cc3d
00000030: 1dbb 84be e28e bcbd edb8 efb9 a54f b23c
00000040: b19d 5fbe ef38 13be 7559 b93b 25ea c63c
00000050: 3390 0ebe c0d4 eebd 8a08 4cbe 5803 85bd
00000060: f814 24bd 39fa 05bd c200 723c 9f92 293d
00000070: 4518 23bd a192 0abe 43c3 393c dfc6 a03c
00000080: 0ebe 50ba 0fe4 603b 8b38 0dbe 0f6e efbd
00000090: e11a 3bbe e0a6 273d 93d2 6d3d 44e6 c4bb
000000a0: b602 173d 469a 3bbe acf1 0a3b 4eee cabc
000000b0: 748a 34bd 3d0a be3d af69 af3e 8365 bcb9
000000c0: 6dc9 2a3e e2e4 20be 536b a1bd 7b92 c43d
000000d0: a4be 9abd 068b 1bbe fccf ffbc 4151 32bd
000000e0: 58af 37be 0444 70be b420 15bd 7cc5 30bd
000000f0: d060 2c3e 941a 44be f25b cfbd 23aa 1a3d
00000100: d621 9c3d 5442 31be 8e81 57bb bd8b 3b3d
00000110: a8fc 23be 689e c3bc c674 b8bd 540d 153d
00000120: 15ff 403e dee4 f1bd 0b32 17be d0bb ff3c
00000130: 5b20 21be 282f 3abe b14a e53b e227 7d3c
00000140: 5670 4c3d e30c 873d 5cfe ee3b 8901 a83d
00000150: 5c86 9e3d 5daf 003d 5a4c 33be 8aa6 f03d
00000160: 7a62 29be 0259 f6bd 80fa 11bc cfa5 93bd
00000170: 41a3 8ebd 5ff2 8f3e a515 ddbd b299 ff3e
00000180: 58a1 653e 4bc6 9a3d a46b 9e3d 1695 0d3d
00000190: ba64 80bd 59f4 0fbc b6b0 02bc 06bd 94b9
000001a0: 49e2 2fbe 796c bbbe ebaa b63e 3760 143e
000001b0: 1cdf 013e 76a5 3c3d c593 013e 3792 283d
000001c0: 82f5 52be f5a9 ca3c 0823 c9ba c299 e33d
000001d0: 8e3d a43d 900a 23be 90fa 233e f195 82bd
000001e0: ed74 aa3d 3806 3e3e cbab e63d 6152 9b3c
000001f0: 3cc2 46bd 8025 69bd 4dcf 003c 33b1 03bc
00000200: ddd5 fcbc 2510 203d caf7 e93c 5ba2 fbbd
00000210: afaf 763e 3b61 b2bd 3084 e03d 1bc7 1bbd
00000220: 5692 2bbe 776b 04be ca9b 873c c940 8bbe
00000230: 74ab d03d 391a d63d 7f25 eabd d06a f83c
00000240: ee43 5e3e 897f bbbe d442 843c 6ea2 b13d
00000250: 65cd d5bd 4269 d73d c67e b63c 2eda 85ba
00000260: adb4 1dbe 566e 4abf a9f7 2b3c 12b4 d73c
00000270: 2bf6 a23d 3217 babe be9d d33c 4621 823d
00000280: 366e 3fbe 7155 323e dfaa 8d3c da68 203c
00000290: 8894 8c3d 4177 42bf 27e1 d13d 08ef 9e3e
000002a0: efce 8a3c 197d 82be 89bd 463d e9d9 a9bc
000002b0: 05e9 22bd da2a 833c c0a7 333b ca7e 703c
000002c0: 0b71 d8bd 5746 11bf 93f1 503d 918a 7c3e
000002d0: c42b 3c3e 11c0 38be a000 e63c a7c1 f13d
000002e0: f044 8cbd 993d da3d 317e 8dbc 27ec 1ebc
000002f0: 080e 313e c6a3 abbe 3d2c 7a3e 8718 773c
00000300: 3a42 853d 4bc8 00bd 16c8 15bc 81a5 86bc
00000310: 72fd ac3e 5737 b3bd 3d3d b13c 6df9 d33c
00000320: 2617 a33d fdb7 67be 2a9c 03bd 79e7 aabd
00000330: dee6 0abe a42d 14bd c9fa 83bc 4307 5cbb
00000340: e1e9 ab3e 2174 c0bd 911f 373d 1b32 fc3c
00000350: 3a62 893c ed51 7dbd 68d7 4c3e dfc9 303d
00000360: c4f3 08be f09d 5abc fbbd f6bc 93be 913c
00000370: 0107 703e 0779 c1bd ac90 873d 9663 fc3c
00000380: 541d 1c3e ccaa aabd e90a b53e 62c6 8c3d
00000390: c560 c93d 1fc3 87bd 4410 42bd 9a6c 14bc
000003a0: 39ea 5f3e 8d7e 703d 1512 673d a71b babc
000003b0: d66d 943d 2a62 8bbd 3eeb 253f dd36 cbbd
000003c0: cf08 0ebe 45d2 0ebb 8b28 89bc 8f76 f1bc
000003d0: 4c91 e33c d94b 17be 790d 9ebc 4996 3f3c
000003e0: ff03 813d 9e02 a33d 8636 083d 7c12 90bc
000003f0: 4f95 55be b48a 5a3c 146b dfbc e193 63bb
-0.23972102 -0.086282074 0.006298021 0.023994515 -0.14276524 -0.10501109 0.0016856276 0.024400745
-0.2876349 -0.19434963 -0.19184259 0.09998293 -0.25924006 -0.0920694 -0.00045723413 0.021766493
-0.21837498 -0.14377187 0.005656416 0.02428157 -0.13922195 -0.116616726 -0.19925132 -0.064947784
-0.04005906 -0.032709334 0.0147706885 0.041399594 -0.039818067 -0.13532497 0.011338058 0.01962608
-0.00079628907 0.003431562 -0.137911 -0.11690914 -0.18271972 0.04093063 0.058062147 -0.006008895
0.03686782 -0.1832057 0.0021201177 -0.024771836 -0.04407735 0.092792965 0.34260318 -0.00035933786
0.166784 -0.15712312 -0.078817986 0.095982514 -0.07555893 -0.15189752 -0.031227104 -0.04353452
-0.17937982 -0.23463446 -0.03640814 -0.043157086 0.16833806 -0.19150764 -0.10124959 0.03775991
0.07623641 -0.17310458 -0.0032883617 0.04578756 -0.1601435 -0.023879245 -0.09006648 0.036389664
0.18847306 -0.11811231 -0.14765184 0.031217486 -0.15734999 -0.18182051 0.0069974293 0.015451403
0.04991182 0.06594255 0.0072935056 0.08203418 0.07740471 0.03141724 -0.17509595 0.11750515
-0.16541472 -0.12028696 -0.0089098215 -0.0720936 -0.06964732 0.28114602 -0.10795144 0.49921948
0.22424829 0.07557353 0.077353746 0.034566008 -0.06269212 -0.008786284 -0.0079767015 -0.00028369593
-0.17176165 -0.36606196 0.35677275 0.14489828 0.12682766 0.046056233 0.12654026 0.041155066
-0.20601466 0.024739245 -0.0015345523 0.11113311 0.08019553 -0.15921998 0.16013551 -0.06376255
0.08323083 0.1855706 0.11263236 0.01896018 -0.04852508 -0.05692053 0.007861924 -0.008037853
-0.030863697 0.039077897 0.028560538 -0.12286826 0.24090455 -0.087099515 0.10962713 -0.03803168
-0.16755041 -0.1293162 0.016553778 -0.27197865 0.10188952 0.1045422 -0.11432933 0.03032437
0.217056 -0.3662074 0.016145147 0.08673559 -0.104395665 0.10518123 0.022277247 -0.0010212117
-0.15400954 -0.7907461 0.0104960585 0.026330981 0.07957109 -0.36345822 0.025832053 0.06354003
-0.18694386 0.17415406 0.017293392 0.009790624 0.068642676 -0.7596322 0.102480225 0.3104174
0.016944377 -0.25486067 0.0485206 -0.02073379 -0.039773006 0.016011644 0.002741322 0.014678666
-0.10568436 -0.56747955 0.051011633 0.24662234 0.1837607 -0.18042018 0.02807647 0.118045144
-0.06849086 0.1065628 -0.017272087 -0.009699858 0.17290509 -0.33523387 0.24430938 0.015081531
0.06506772 -0.031441014 -0.0091419425 -0.01643634 0.33787113 -0.087507896 0.021635646 0.025875771
0.079633996 -0.2262878 -0.03213135 -0.08344931 -0.13564631 -0.03617634 -0.016110795 -0.0033573664
0.33576873 -0.0939715 0.04470784 0.03078561 0.01677047 -0.06184571 0.20004046 0.04316127
-0.13374239 -0.013343319 -0.030119887 0.017791068 0.23440172 -0.09446912 0.06619391 0.030809205
0.15245563 -0.08333358 0.35359886 0.06873776 0.098329104 -0.06629013 -0.047378793 -0.009059096
0.21866693 0.05871444 0.05641373 -0.022718264 0.07247512 -0.06805833 0.64812076 -0.09922574
-0.13870548 -0.002179281 -0.016742965 -0.029475478 0.027779244 -0.14775027 -0.019293534 0.011693546
0.0629959 0.079594836 0.033255123 -0.017586939 -0.20857738 0.013338733 -0.027272739 -0.0034725594

critic.0.bias f4 [256]
00000000: 4918 473e 08b8 b63e a3a0 873c d87c e93c
00000010: faa3 a9bd 6793 8abe a482 d5bc 7efe 8abd
00000020: a796 8fbd 6f41 5bbe ec7f 9e3d f4fb b53e
00000030: e59c 0a3f de53 073f 0b40 963d 044c 8abe
00000040: c707 82be 1808 063f 76a5 0ebc 1437 743d
00000050: 17c8 f8be 3e62 87be 78b5 32be 7ac9 2d3e
00000060: f4b8 983d df28 c13e 8a46 cfbd 420b 403e
00000070: e95d 2cbc e65b 3bbe 7ec8 983e b0a4 fbbd
00000080: d36f c0be b277 803e 6d46 74bd b1bb 4ebf
00000090: bd6f 813e 5ab0 863e a8f8 e53e 92e2 00bf
000000a0: 5ab7 b23e 4c89 35be ae8c 75be 09d2 0b3f
000000b0: 76bc 88be fc33 933e dda5 e23e af6a 6bbe
000000c0: 69e6 acbd f2cb 6d3e 9e92 0cbf c160 9a3d
000000d0: a359 1cbf eca9 31bf d3ac ef3e 6c79 98be
000000e0: bc93 17bc 67db 11bf 9510 4ebf 964a 3abd
000000f0: 3e71 85be c56a d7bd d74a 27be 5cfb 32bf
00000100: 478d c7bb d434 a8be d816 76be 1092 dabe
00000110: 2863 ce3e 76f7 873d 137d a03d 8782 af3c
00000120: 8561 843d cea8 5abe 8cc7 4cbe 664d f23d
00000130: 837a 64bf 07b2 773e 1e84 b3be 830f d8be
00000140: a285 e8be c2c1 27be 0a25 0d3b d2b3 bcbe
00000150: 889f 323e 0ee9 d0be aa84 20be b72a 21be
00000160: a1cf 80be 1d83 9b3d 0356 a33e 8b01 e83e
00000170: a385 b2bd 6613 ed3d 90f4 d6be d0a8 ecbd
00000180: f46f eebd 394c b1bc dc6d 0f3e 5e6c 293e
00000190: 78df 843e de17 83be 243f e43d 4217 3cbe
000001a0: 9d93 d8bd 65f9 9ebe 0702 fe3c cab7 f93d
000001b0: 936e 94bd e13a 33be 4c78 22bf 32ca b0be
000001c0: 4297 dabc 7b01 a2be 3707 44bd d006 393e
000001d0: 1ee8 adbe c903 c7be 809d 42bc 7ddb 08be
000001e0: 949c dd3d ebfa 53bd c99b ba3d 8cb7 c83d
000001f0: afce 623e e1b3 36bd 21fa 81be 431b 39be
00000200: a7b8 4c3e 4484 383e fa85 0dbe 0f9a 743e
00000210: 344e d3bd 32db e7bc 088e 233d 6194 65bc
00000220: 25b2 7f3b bb3c 75bd 9802 223f 4941 eebe
00000230: f8f4 36be f6ec 95bf 9b7b 15bd 62d8 2c3d
00000240: 02dc 383e ad85 9b3e fdf5 a7be c614 c6bd
00000250: 93b4 1b3f 32a6 98be 607f 8bbe ea16 803d
00000260: 3d4d 00bd 6066 313e af68 f9bd 5e39 ed3c
00000270: 8349 113c 48da 2bbe eb57 98be 5ec9 d7bd
00000280: fd31 2abe f4bd 813e 3d48 753e 53a7 a0be
00000290: 2867 72be b6f3 c2be 17c4 a4be c0ed 80be
000002a0: b0da d0be 1dd3 163e 0771 8f3e 3ffd 1ebe
000002b0: 890c 08bf e14c c23d 963c 083f 1a8e 803e
000002c0: 77ad 7b3e 9f23 f4bd f4ab 1e3e 2aff 35bd
000002d0: 9e1d 293c 1bd4 edbe 268b 8cbe 728b 843e
000002e0: 1328 e43e ae09 f2bc 7c3b 58be fae4 123d
000002f0: b530 973e 1aff bd3e 6970 e93e e210 7f3e
00000300: 1688 bfbe d276 de3d 0d5f d9bd 6dbc d0bd
00000310: 7824 d4bd 014b 3fbe ad9e ea3b c727 d13c
00000320: 4739 d33d dff7 07bf 0312 1bbf e7c6 6fbe
00000330: 33d1 dfbd 207d a4be 8fb7 25be af4e 023d
00000340: 5ef7 b03e 8bdf 843d 1cfa 0e3e 1b1f 793e
00000350: df76 38bd 2b29 123d 3685 babd 8790 253e
00000360: 9363 83be 2976 cd3e be31 bc3d 01ab bdbe
00000370: 7066 1ebe 4a0f a7bb 0406 92bd fe80 743e
00000380: 12c3 4fbe 5e1b dfbd c68e 37bf d625 5fbe
00000390: d540 943d 1a04 32bf 2190 a43e 5ca6 3fbc
000003a0: ad2d 1dbf 5df1 35bd 668d 49be 37e8 f7be
000003b0: 85ca dabd 5329 ac3e c19a 113e 216b ac3d
000003c0: a20a 85bd 6851 fabe a83b 953d e29e 68be
000003d0: 3e06 50bf 7cb1 3f3e 2fa4 f03d 6665 f2be
000003e0: b15f 233f 4373 f3be 8086 32be 48fc a8be
000003f0: 173e fe3d f181 883e e7b0 88bc ba51 ef3e
0.19442858 0.3568728 0.01655609 0.028501913 -0.08283229 -0.27065584 -0.02606327 -0.06786822
-0.070111565 -0.2141168 0.07739243 0.35543787 0.5414565 0.52862346 0.07336434 -0.2701112
-0.2539656 0.523561 -0.008706441 0.05962284 -0.48590156 -0.2644214 -0.17452037 0.16971388
0.07457152 0.37726495 -0.10120876 0.18754295 -0.010520437 -0.18296775 0.29840463 -0.12287271
-0.37585315 0.2509132 -0.059637476 -0.80755144 0.25280562 0.2630642 0.44916272 -0.5034572
0.3490551 -0.17728156 -0.23979446 0.54617363 -0.26706284 0.28750598 0.4426717 -0.22989915
-0.08442385 0.2322233 -0.5491122 0.075379856 -0.61074275 -0.69399905 0.46811542 -0.29780138
-0.009251531 -0.56975406 -0.8049405 -0.045481287 -0.2606296 -0.105184115 -0.16337143 -0.69914794
-0.0060898396 -0.32852805 -0.24032152 -0.42689562 0.40310025 0.06638996 0.07836356 0.021424545
0.06463913 -0.21353456 -0.19997996 0.11831169 -0.8924944 0.24189006 -0.35061735 -0.42199335
-0.45414454 -0.16382506 0.002153697 -0.36855942 0.17443669 -0.40802807 -0.15675607 -0.1573895
-0.25158408 0.07593367 0.3190156 0.45313677 -0.087168954 0.115759656 -0.4198346 -0.11555636
-0.11642447 -0.021642791 0.14006752 0.16545245 0.25951743 -0.25604147 0.111448556 -0.18368247
-0.1057503 -0.31049648 0.031006826 0.12193258 -0.07247653 -0.1750293 -0.6346481 -0.34529263
-0.026683453 -0.31641755 -0.047858443 0.18069005 -0.33966154 -0.38870075 -0.011878371 -0.13364978
0.108208805 -0.051752966 0.09111745 0.09800634 0.22149156 -0.04460514 -0.25386146 -0.18076806
0.19992314 0.18019205 -0.13820639 0.23886894 -0.103176504 -0.028302763 0.039930373 -0.014012427
0.0039016095 -0.05987237 0.6328521 -0.46534184 -0.17866886 -1.171294 -0.036494832 0.042198546
0.18052676 0.30375424 -0.32804862 -0.09671931 0.6082241 -0.29814297 -0.27245617 0.062543705
-0.03132366 0.17324209 -0.1217817 0.028958019 0.008867624 -0.16782486 -0.29754576 -0.105364546
-0.16620632 0.25340235 0.23953338 -0.31377658 -0.23672163 -0.38076562 -0.32180855 -0.2518139
-0.40791845 0.14728971 0.2801592 -0.15526293 -0.5314413 0.0948732 0.53217447 0.25108415
0.2457789 -0.11920857 0.15495282 -0.044432797 0.010322003 -0.46450886 -0.27449912 0.25887638
0.44561824 -0.029545631 -0.21116441 0.0358629 0.29529348 0.3710869 0.45593575 0.24908784
-0.37408513 0.10862507 -0.106138326 -0.10192189 -0.10358518 -0.18680955 0.007160029 0.025531663
0.10313659 -0.53112596 -0.6057436 -0.23415719 -0.109285735 -0.32126713 -0.16183303 0.03181332
0.34563726 0.0648795 0.13962597 0.24328272 -0.04503524 0.035683792 -0.09107439 0.16168414
-0.25661907 0.40129212 0.09189175 -0.37044528 -0.15468764 -0.005098258 -0.07130054 0.23877332
-0.20289257 -0.10893892 -0.7170223 -0.21791777 0.07238928 -0.6953751 0.32141212 -0.011697378
-0.6139782 -0.044419635 -0.19682845 -0.48419353 -0.10683159 0.33625278 0.1421919 0.08418871
-0.06496169 -0.48890233 0.07286769 -0.22716859 -0.81259525 0.18720049 0.117500655 -0.47342986
0.6381789 -0.47548875 -0.1743412 -0.33004975 0.124141864 0.26661637 -0.016685916 0.4674204

critic.2.weight f4 [128, 256]
00000000: 9b72 40bc 103f 6cbd fbb2 2abc 87be 0b3d
00000010: b379 033d b966 05be 5700 a7bc eae8 e5be
00000020: d339 403e f25d a23c 80de c13e a403 30bd
00000030: 0eaf 5fbd 4773 853d 78c5 093d 25ac 2bbd
00000040: 607f 8cbb e831 73be b7e7 403d f744 d33d
00000050: 09f0 d4bc 3798 8e3b 0d8f 3a3d 0f38 4a3c
00000060: 5ff6 31be d26e 803e 93ec aa3d 366b 20bb
00000070: cac1 c83b f333 93bd b84c 3c3d 9534 babe
00000080: 789a 1abe ecb2 17bd 1094 88be 7c7b 88be
00000090: f5c8 88bd 43f7 80be 5e7c e33d 3125 c6bd
000000a0: 31d7 ec3d f703 62bd 00a9 c43c d150 b5bc
000000b0: a878 afbf fcd8 ecbc 58aa 3abb 22ec 32bc
000000c0: d063 763d 5078 61be 0a20 e13c e394 d4bd
000000d0: 5131 b4bd e428 46be 4735 22bd e2d9 043e
000000e0: a9ed 4abe e925 28be 8e56 2ebe dc86 62c0
000000f0: 0428 52be 3195 103e 912a 023e 0a62 a8c0
00000100: d3b2 1fbd e366 d43a 2da7 933d 083f 2fbe
00000110: 7cd7 49bd b712 3abe da8e 4ebe 9cc5 b33d
00000120: 09e5 df3c 4fec a2bd 4f26 3ebd 130b 263e
00000130: e708 bc3d 239e 53be eaef cabc eadd 8dbd
00000140: 488a d1bd 00f3 9e3c b179 72bc 4c3d 3cbc
00000150: fbf1 fb3c 6577 0dbe 37a9 16bc eb66 32be
00000160: e4ed b93d ea92 113e 20ba fcbd 3bfb 293e
00000170: 7cb1 903d 27ec ffbc cd3e a2bd 3bf9 7fbd
00000180: fc23 7cbd 2700 fabd c3d5 22bc e82f 583a
00000190: 7b90 913d f69a 723b 0505 0bbe 7e39 f0bd
000001a0: ea4f 1f3e 05a2 9cbe 7019 6abd f81b eabb
000001b0: f771 363e 7d6b ab3d e4d2 c5bd 5e63 853d
000001c0: 7a56 6f3d 99e9 1ebe 8f57 7ebc b903 31bd
000001d0: 1b64 1ebd 7858 8e3c 1578 093e 066c d8bd
000001e0: 111d 3dbd fcc9 6abb f66c 973d 0cc8 c63e
000001f0: 2706 293e da62 25bc bd1c 92bd 4e99 b4bd
00000200: fa7b 30be 1464 3abe 8b82 29be ed9e 02bd
00000210: a92a dbbc 9bc0 20bc c53a b0bd 081d 70be
00000220: 5e96 c43c 2026 423d 432a 2e3e 0e43 f43c
00000230: b663 bdbc d6fe eebd 3b68 62bd f008 a5bc
00000240: 97a5 1ebe 1346 91bc fe55 d0bb 6131 48be
00000250: 3907 8d3d a98c 59be 8062 a5bd bf28 023d
00000260: 13d2 343e 2e6b 15bd 1d8b 9fc0 c601 debd
00000270: abe2 b5bc 5933 ff3d 5f6c 91bd a585 77bd
00000280: 30d3 93bd 5914 b0bd 599d 85bb ebbe fe3c
00000290: 831b 803e 91e5 613d a607 9bbe 503f 373c
000002a0: 66e1 1bbe a9bc 2ebd aec5 863d a40b 65bd
000002b0: 685c 6e3d 3617 43be dfe3 ef3d 3c59 253d
000002c0: deb4 29bc ce0b 9e3c c169 04be db3d 17be
000002d0: 549d 79bd 2dd8 4b3e c629 7e3e 209d 853d
000002e0: a0cc 1abe 2849 033e f147 503d 4242 91bc
000002f0: 8531 493c bfd5 503b 6dfc 8b3e c7e4 8dbc
00000300: 07fc a53d f91f 063e f601 933d af1e c1bd
00000310: 3750 3cbc cf27 3cbd 9c72 493d 8dee 12bd
00000320: 8fe7 a1bd 8363 083e 114f 3e3d 63ab bdbd
00000330: b23a b43c b3bb c23d 65ee 283e c76e 26be
00000340: 11af a33c bd29 55bd a33f 68bd 77a7 8a3d
00000350: 9e3a b5bc 302f 973c cad8 4ebe e4b4 053e
00000360: 2aa2 b7bd d129 e03b 7172 21bf 8e65 aa3d
00000370: 5ed7 c2b8 1499 f4bd ed32 8bbd e0fb 743d
00000380: 0a2c 23bc 3194 bfbd dbd9 e2bd 6961 29be
00000390: c1aa 0fbe ebc0 ecbd 35e9 11be 01ed a9bd
000003a0: c1ca 733d fbee cdbd 5e1f e63d 88fb 373c
000003b0: 0e87 113c b8c8 e0bd 19e6 c43c a09f e23d
000003c0: 2910 75bd 84ee 87be 734b 0e3d cc73 6a3d
000003d0: b0af 1fbe 82e8 83bd f526 173d c6a9 1e3e
000003e0: de86 dfbc 6ce9 c13c e9dc ecbd a5c6 34bb
000003f0: 0ffb 4f3e 0e32 c33d a674 68be b29a df3d
-0.011746074 -0.05767733 -0.010418649 0.034117248 0.032098483 -0.13027467 -0.020385904 -0.44904262
0.18772058 0.019820187 0.37865067 -0.042972222 -0.054610305 0.06516128 0.033635587 -0.041912217
-0.004287645 -0.23749506 0.04709598 0.103158884 -0.025993364 0.0043516415 0.04554658 0.012342467
-0.1737914 0.2508455 0.08345904 -0.0024477965 0.006126617 -0.07187643 0.045971602 -0.36368242
-0.15097988 -0.037035868 -0.26675463 -0.2665671 -0.066789545 -0.25188646 0.111077055 -0.096750624
0.11564482 -0.055179562 0.024006367 -0.022133263 -1.3708696 -0.02891206 -0.002848288 -0.010920556
0.060153782 -0.22018552 0.027481098 -0.103799604 -0.08798469 -0.19351536 -0.03960159 0.1297374
-0.19817223 -0.16420712 -0.17025205 -3.5394812 -0.20523077 0.14119412 0.1271155 -5.2619677
-0.0389889 0.0016204979 0.072096206 -0.17113888 -0.049277768 -0.18171202 -0.20171681 0.08777925
0.027330892 -0.079552285 -0.046423253 0.16215162 0.091813855 -0.20665793 -0.024772603 -0.069270924
-0.10231453 0.01940298 -0.014799521 -0.011489224 0.030755034 -0.13815077 -0.009195617 -0.17422073
0.09078577 0.142162 -0.12340188 0.16599743 0.070651025 -0.031240536 -0.079221345 -0.062493544
-0.061557755 -0.1220706 -0.00993866 0.00082468847 0.071076356 0.0037018633 -0.13576134 -0.11729716
0.15557829 -0.3059236 -0.057153165 -0.0071444474 0.17816912 0.08370111 -0.09659365 0.065130934
0.05843208 -0.15518798 -0.015523805 -0.04321644 -0.038669687 0.01737617 0.13424714 -0.10567479
-0.046170298 -0.0035825958 0.073938295 0.388245 0.16506253 -0.010094369 -0.07134388 -0.08818303
-0.17234793 -0.1820224 -0.16553704 -0.031889845 -0.02675374 -0.009811546 -0.086049594 -0.23448575
0.023997482 0.04739964 0.17008309 0.02981713 -0.023118835 -0.116697 -0.055275183 -0.020145863
-0.15492855 -0.01773361 -0.0063579073 -0.19550087 0.06886143 -0.21245064 -0.08075428 0.03177714
0.17658262 -0.036479168 -4.9857316 -0.10840182 -0.02220281 0.12460966 -0.07100748 -0.060430188
-0.07218015 -0.08597631 -0.004077595 0.031096896 0.2502099 0.055150572 -0.30279273 0.0111845285
-0.15222701 -0.04266039 0.06580673 -0.055919304 0.058193594 -0.19051823 0.11713385 0.040368304
-0.0103580635 0.019292738 -0.12930967 -0.1476969 -0.060941055 0.19906683 0.24820623 0.0652411
-0.1511712 0.12820876 0.05084986 -0.01773179 0.012279873 0.0031865684 0.27341023 -0.017321004
0.08104711 0.13098134 0.071781084 -0.094296806 -0.011493734 -0.045936402 0.049181566 -0.03587203
-0.079054944 0.1331921 0.046462122 -0.09261205 0.022000644 0.09508457 0.1649719 -0.16253196
0.01998094 -0.052041758 -0.056701314 0.06770223 -0.022122677 0.018455118 -0.20199886 0.13057286
-0.08966477 0.0068409224 -0.6306525 0.08320151 -9.290756e-05 -0.1194326 -0.06796823 0.05981052
-0.00995923 -0.09354437 -0.11076709 -0.16541065 -0.14029981 -0.11560234 -0.14249118 -0.08297158
0.059519533 -0.100553475 0.112364516 0.011229403 0.008882297 -0.10975784 0.0240355 0.11065602
-0.059829865 -0.2654916 0.034739923 0.05723934 -0.15594363 -0.06440832 0.036902387 0.15494451
-0.02728599 0.023670875 -0.11565573 -0.0027584222 0.20310615 0.095310315 -0.22700748 0.10918178

critic.2.bias f4 [128]
00000000: 7676 033e abbe afbd bcf3 81bd cf45 bd3d
00000010: 3d2a ca3d ef8f b13d 6a88 9dbd 4746 58bd
00000020: 08f0 c3bd 328a 3bbc c63d b9be e60f 003e
00000030: 728c ac3d bc81 4a3d 6b1c 543e 5dbe a13d
00000040: b2a5 1abd 6a9c 403d 9ebc 033e 8be4 dcbc
00000050: d814 1d3e 7384 9abd 73dc 0fbe 9924 ecbd
00000060: 408e 6fbd 5a87 fbbd 8bb8 093d c6fe 493d
00000070: 89b2 763d 5393 86bc ebe1 8dbe 812b 90be
00000080: 67ec 613d 365f 1ebc 714c 543c e19a e3bc
00000090: f1aa 453e 514d 143e ed75 9f3d be93 52bc
000000a0: d924 8fbc 8be2 84bd 8ad2 8dbc 92c2 96bd
000000b0: d245 5a3c 5642 a1bd 9d0a c23c f2a7 01be
000000c0: f40b b5bc d024 2f3d 8fb2 073d 2d90 1dbd
000000d0: e31e 73bd 5d72 04bd 4b71 afbd 2d0a f4bd
000000e0: 1ab0 783d f665 073d 276d a33d 5d67 b0bd
000000f0: 43ed 46bd 5b9c 9cbd f03f e2bd c003 8abe
00000100: d259 58be 7056 eebd c936 0b3e b1f3 733c
00000110: d3c5 24be a6d9 c33d 7796 683b 130f 1dbb
00000120: f501 6b3d 7267 953d 078b 1ebc a1e9 6ebd
00000130: b9f5 bd3d 1f00 3fbd ccc9 6e3d 10c7 9bbd
00000140: 924d 14be cea5 96bd 956d 24bd fb0c 8d3d
00000150: d306 b53d 1a45 4c3e d8fb c93d 2983 fcbd
00000160: 6c73 20bc 39c8 fb3c 0126 e9bd a6b3 88bd
00000170: 87c2 0d3e 8139 96bd c2b9 77bd 1fdb 7fbd
00000180: 0f1d ec3d bdd7 a8bd 36d9 3c3d d73a e1bc
00000190: 7327 753d 9b1b 873b 2fd4 d7bd 2d3b aebc
000001a0: 4f2e b2bc d08e 82bc 6f4c 52bd 6887 da3d
000001b0: c8f9 f6bc b78f 7c3d e05e e63d 2abc c83d
000001c0: d6fa 513d 1610 0c3d afa9 eb3d 7463 c53c
000001d0: ec27 723d 5adf 3f3e 987c cf3d 89a0 d4bd
000001e0: 4415 033e 5698 dd3c 2fca 7fbd 033c 683b
000001f0: da2c 25bd 5178 513c bc53 ca3d 44a7 073e
0.12838158 -0.08581289 -0.06345317 0.092418306 0.098713376 0.08670031 -0.076920345 -0.052801397
-0.09567267 -0.011446523 -0.36179942 0.12506065 0.08425225 0.04944013 0.20713966 0.07897637
-0.037755676 0.047024168 0.1286492 -0.026964447 0.15339983 -0.07544794 -0.14048938 -0.11530418
-0.05848527 -0.12281676 0.03362326 0.049315237 0.06022886 -0.016427672 -0.27711424 -0.2815819
0.05515709 -0.009666255 0.012957678 -0.027783813 0.1930349 0.14482619 0.077861644 -0.012852607
-0.017473625 -0.06488522 -0.017312307 -0.0736133 0.0133223105 -0.07873981 0.023686701 -0.12661722
-0.022100426 0.042759717 0.03312927 -0.038467575 -0.059355628 -0.032335628 -0.08566531 -0.119160034
0.06071482 0.033056222 0.079798035 -0.08613465 -0.048566114 -0.0764701 -0.11047351 -0.26955986
-0.21128014 -0.116375804 0.13595118 0.0148896435 -0.16091089 0.095629975 0.0035490075 -0.0023965284
0.057374913 0.07295121 -0.009676701 -0.058328275 0.092753835 -0.046630975 0.058297917 -0.076063275
-0.14482716 -0.073558435 -0.040143568 0.068872415 0.08839192 0.19948235 0.098624885 -0.12329704
-0.009793144 0.030735122 -0.11384202 -0.0667489 0.13843738 -0.07335187 -0.060479887 -0.06246483
0.1152898 -0.08244274 0.046105586 -0.027493877 0.059852075 0.004123164 -0.10538518 -0.021268452
-0.021750597 -0.015937239 -0.051342424 0.10670358 -0.030148402 0.061660495 0.11248565 0.098015144
0.051264606 0.03419503 0.11506974 0.024095275 0.059120104 0.18737546 0.10131186 -0.10382182
0.12801081 0.027050178 -0.062448677 0.003543616 -0.040325977 0.012785033 0.09879252 0.132474

critic.4.weight f4 [1, 128]
00000000: d2ae 903e 5be5 8cbd 1b9e 0f3e 4674 3ebe
00000010: 8ff8 0f3e 058b 43bd 6f45 15be 0d65 cbbe
00000020: 3691 973e 1e7c 26be 0c8f 8fbf 0f81 9bbe
00000030: bd26 c0bd 100e d83d 7c9e 0f3f bdaf e4be
00000040: b106 0d40 985d bc3d 1592 af3e f2cd b13c
00000050: 73d9 993f 73e8 863e c170 0c3e 768d 0ebf
00000060: 4b65 a43e 6e2b 883f 1c24 943e 8ab5 0abe
00000070: 4928 bcbd 05bb 643e 30b1 143f ec0a 093f
00000080: 0b8a d43e c2ac c6be f3fb 2c3f 9d07 b93e
00000090: 6781 0e3e ee96 17be cf98 b0bd 7b63 873f
000000a0: 319b 043e fa3d 983e d65c 5b3e 9db0 c23f
000000b0: f956 b63d 67f2 3c3f 7622 f9bd a6d2 bd3e
000000c0: 0428 8c3f 08cd 36be 5603 313f 10ba 523f
000000d0: 4dc6 bfbe 417d e33d 28e4 113f c3ae 01bf
000000e0: ee34 313f 39f7 f23e 003d 863e f72d 1d3f
000000f0: 445f aabd 71e7 463e b97f 7f3f 9631 873f
00000100: d8ea 663f 9f20 8d3e e847 eebe 007e 723f
00000110: dd95 863e 7729 b73e a65f f03e 6c49 cdbd
00000120: 1251 463e 5273 063f 1829 0d3f 1f66 bd3f
00000130: 90e2 f73e ce4e 55bf 0dfb 1abe 7a27 3b3f
00000140: 1fed 64be c225 c03c 0aa5 b83f 5dee c7bd
00000150: 9756 083f e38b 003f f4cf 3a3f cd6f cd3d
00000160: 7392 9cbd 0940 dabd ebaf f83e 0ac5 06be
00000170: cf10 10bf bb05 bdbf a777 44be bbb6 65bf
00000180: 165a eebe cf67 c3bd f704 0f3f ab3c e4be
00000190: 203c 343f e9cb 2abe a9fa abbe 9a25 133e
000001a0: 5cf9 8a3d 91b5 27be be7c dc3d c929 0ebf
000001b0: 0cbf ff3d 86ac ea3d c4ec c83e c92c 853e
000001c0: cd58 57be f830 e53d 01b6 db3f 38b8 46bf
000001d0: 29d5 c3be 82f1 bb3e db79 debe 783d dc3f
000001e0: fc85 283f ab25 a53d 9705 07be d2a3 6dbf
000001f0: 686f 853d eb67 f33f ffc8 90be 8ea1 24be
0.28258377 -0.068796836 0.14025156 -0.18599042 0.14059661 -0.04774 -0.14577268 -0.39725533
0.29602975 -0.16258284 -1.121553 -0.303719 -0.09382389 0.10549557 0.561012 -0.44665328
2.2035334 0.09197539 0.3429114 0.021704648 1.2019485 0.2634922 0.13714887 -0.556846
0.3210853 1.0638254 0.289338 -0.13545814 -0.09187371 0.22336967 0.58082867 0.5353229
0.41511568 -0.3880368 0.67571944 0.3613862 0.1391655 -0.14803669 -0.08622896 1.0577234
0.12949826 0.29734784 0.21422133 1.5210148 0.089033075 0.73807377 -0.12164776 0.37074775
1.0949712 -0.1785165 0.69145715 0.8231516 -0.3745598 0.11107875 0.56988764 -0.5065729
0.6922139 0.4745424 0.26218414 0.6139826 -0.08318952 0.19424225 0.99804264 1.0562007
0.90202093 0.2756395 -0.46539235 0.9472351 0.26286212 0.35773823 0.46947974 -0.1002377
0.19366863 0.52519715 0.5514083 1.479679 0.4841504 -0.8332337 -0.15134831 0.7310711
-0.2235608 0.023455504 1.4425366 -0.09762261 0.53257126 0.5021345 0.7297356 0.1003109
-0.076451205 -0.10656745 0.48571715 -0.13161102 -0.5627565 -1.4767374 -0.19186269 -0.8973195
-0.46553105 -0.09541284 0.5586695 -0.44577536 0.70404243 -0.16679348 -0.33589676 0.14369813
0.06785843 -0.16377856 0.1076598 -0.5553251 0.12487611 0.114586875 0.39243138 0.2601073
-0.21029969 0.11190981 1.7164918 -0.77624846 -0.38248566 0.36707693 -0.43452343 1.7206259
0.65829444 0.08063825 -0.13185726 -0.92828095 0.0651539 1.9016088 -0.28278348 -0.16077253

actor.0.weight f4 [256, 48]
00000000: 881e 573e 7d6a 003e 374a 1fbe aa9e 7b3d
00000010: 6b48 4a3e 2dfa f1bd d6c5 2f3e 1204 22bd
00000020: e99e 1e3d 598c c13e 1852 e23c fb92 fabd
00000030: 6074 8e3e 1243 333e e7e0 95bd 17e2 31bd
00000040: 5209 b43d e324 c7bd c32a 983e c4e9 83bd
00000050: e3e4 2abd 0c9a 443e b911 5e3e 0dea afbd
00000060: 7a0b 713e ac7c f43c 2824 e3bd 33e2 4ebd
00000070: c0de 203e 088e 38bd acb4 94bd d845 20be
00000080: 8f73 ec3c 13e8 9c3e 17ac cebd 66c3 3ebd
00000090: 7d6f 873e 709e ed3d c790 ccbd 961b debd
000000a0: df0e 733e 8fb7 0cbe 4344 bc3c c65a 23be
000000b0: c115 88be 5aaf 0a3e c92a 28be a8af 963d
000000c0: 48e4 783e b686 9c3e fcdd 2e3e 2024 cdbd
000000d0: d4cf 06bd 8482 3f3d 844a 60bd 5b4e 633b
000000e0: 0b67 fcbd 3e8c 313d a885 c23c 9513 17bd
000000f0: 6e5b 3f3e 58ff a83e 14aa 963e 99ce d23d
00000100: 6202 65be 082f 36be a11c 883c af19 8f3d
00000110: e8f7 0dbe 080b 3bbd a68b febd 96ec 3e3d
00000120: f276 933e cfcb 973e 40bd a13e 79e0 253e
00000130: 2e44 1bbe 9992 d2bd 47e8 95bc 1f36 8d3d
00000140: 1fe8 79be 90c9 a03d 186c 40be 6f7d 2ebd
00000150: a270 cf3e de56 943e e4cd 853e 7b44 f0bc
00000160: 6479 96be c858 f0bc 5e5f ce3c 35e0 1a3d
00000170: 0c26 b3be b83c 203e 324c 17be a37a 3d3e
00000180: 8a33 dbbe f8d5 bc3c 7808 c3bd c1d0 2bbc
00000190: d5e3 e13d 8a95 e63d c64e 5cbd 3702 8a3d
000001a0: 35f1 843d 91ef a0be 83b9 e93c a28a 25be
000001b0: 227c f5be 6aa8 8cbd 4f50 32bd 8c6d 4abe
000001c0: b1fb 983d 2a74 953d 181b 2c3b fcaa cbbd
000001d0: 1242 eb3d 90e1 4bbe f0e2 083e dc58 1abd
000001e0: 4b8d a3be 2409 eabd 695a 923c 4ac1 aebd
000001f0: d645 b43d 4c06 87bc ed8f c03c 97f1 75bd
00000200: a1fb 613e 13d7 dcbe aeaa 78bd 77fa 20be
00000210: dd5c b2be ec5f 4e3d 3a04 0ebe c56b 803d
00000220: bbdd 273c 69ab 39bd 5d21 1e3e d07a 7ebc
00000230: 1bda 943d df81 abbe 9913 f83d e2e8 60be
00000240: fc10 55be 05e4 5abc e7a5 ca3d 8202 62bd
00000250: 1524 073c af50 b4bd 3fcf f3bc 2794 bfbd
00000260: 93f0 613e c70d c3bd e4df bdbd 5cab 573e
00000270: af4d 3ebe c42d bb3d 859a 133d de03 3ebe
00000280: 79fb a4bd 0f4f 0b3e bc85 33bd bd30 17be
00000290: bfaa 753c 0620 93bd 052e c73d 46ea b63e
000002a0: 7580 f1bd 3c47 103d 10d3 363e de93 df3c
000002b0: 5677 0dbe 147f a03d 62fb 623c 212d 5d3d
000002c0: e917 533e 64c9 f93d bb5d 263e d982 b63e
000002d0: b848 b8bd ae51 083e 7947 76bc b62f 4abd
000002e0: 9e65 f2bd a43a 22bc 5995 613e 2d8a 453d
000002f0: 60b0 2f3e ad3e fa3d d5ac b73d dcae 003f
00000300: a69b 6e3d c6c0 c6bd 632f b53d 5094 f03d
00000310: f8cf ffbd 4cd5 993d c74e 023d 6f31 63bd
00000320: 2332 673d c178 e3bd 6e3a 8bbc 2070 d2bc
00000330: 2193 e53d 227d 16be 6869 36bc 14d9 0b3e
00000340: 9840 9a3d 4794 c0bd 24e0 c23c 05a0 963d
00000350: d498 a4bc cb6d 95bd 6dfd 353c bea9 ed3c
00000360: a08f 5abd 16f7 6f3c 5f8b 29bd 7308 4cbc
00000370: 4225 16be f01e 15be 2917 a33c 8243 183d
00000380: 94b9 abbd 3a7e 1bbe 8a46 e63c 5b04 75bc
00000390: e0b5 cbbb 6ebc f23d 3da3 033e 7494 813d
000003a0: 9394 9ebc 611a 003d 534b 283d 8ad5 05be
000003b0: bfa1 c73d a217 5fbc b906 be3d 33bf d93d
000003c0: 380f 423d 36dc d43d 06d3 3a3e bb1c cc3d
000003d0: 79cf b7bb ef3b b7bb ee75 e33d 5f72 65be
000003e0: 6844 8e3e 1241 443e c55e d13d 7011 473d
000003f0: f7c3 5d3d a93c f63b 2b75 8e3e 6cc1 d8bd
0.2100774 0.12540622 -0.15555654 0.06143061 0.19754188 -0.11815295 0.17165312 -0.039554663
0.038725767 0.3780239 0.027627036 -0.122350655 0.27823162 0.17506054 -0.07318287 -0.043428507
0.0879084 -0.097238325 0.29720125 -0.06441072 -0.04172219 0.19199389 0.21686448 -0.085895635
0.23539534 0.029844604 -0.11090881 -0.05050869 0.15709972 -0.045057327 -0.07261023 -0.15651643
0.028863696 0.3064581 -0.10091417 -0.046573065 0.26452246 0.11602485 -0.099885516 -0.10845105
0.23736142 -0.13741897 0.022981768 -0.15952596 -0.26579097 0.13543454 -0.16422571 0.073577225
0.24305832 0.30571526 0.17076868 -0.10016656 -0.032913044 0.04675533 -0.054758564 0.0034684155
-0.123243414 0.043346636 0.023745373 -0.03688391 0.18687221 0.33007312 0.29426634 0.102933116
-0.2236419 -0.17791378 0.016615214 0.06987321 -0.138641 -0.045664817 -0.124289796 0.046612345
0.28801686 0.2964768 0.315897 0.16198911 -0.15162727 -0.102818675 -0.018299235 0.068950884
-0.24404953 0.07850945 -0.18791234 -0.04260009 0.4051562 0.28972524 0.26133645 -0.029329529
-0.2938949 -0.02933921 0.025191959 0.037811477 -0.34989965 0.15648162 -0.1477516 0.18503813
-0.4281276 0.023051247 -0.095231 -0.0104867825 0.11029784 0.11258991 -0.05378606 0.06738704
0.06491319 -0.31432775 0.028530842 -0.16166165 -0.47946268 -0.0686806 -0.04353362 -0.19768351
0.07469881 0.07297547 0.0026261266 -0.09944722 0.11487211 -0.19910264 0.1336782 -0.0376824
-0.31943735 -0.11427525 0.017865377 -0.08532961 0.08802383 -0.016482495 0.02350613 -0.06004485
0.22068645 -0.4313284 -0.060709648 -0.15720545 -0.34836474 0.050384447 -0.138688 0.062705554
0.010245736 -0.045329485 0.15442415 -0.0155322105 0.07268163 -0.3349752 0.12113113 -0.21963838
-0.2080726 -0.013360028 0.098949246 -0.055178173 0.008248349 -0.08804452 -0.029761909 -0.0935443
0.22064428 -0.09524112 -0.092712194 0.21061462 -0.18584321 0.091395885 0.036036033 -0.18556163
-0.08055777 0.13604377 -0.04382871 -0.14764686 0.014994322 -0.07183842 0.097255744 0.3572561
-0.11792079 0.035224184 0.17853951 0.027292188 -0.13815054 0.07836738 0.01385388 0.053998116
0.2061459 0.12196615 0.16246693 0.35646704 -0.08998245 0.13312408 -0.015031689 -0.049361907
-0.11835788 -0.009901676 0.22029628 0.048227478 0.17157125 0.12218986 0.08968512 0.50266814
0.058253907 -0.09704737 0.08846929 0.11747038 -0.12490839 0.07511386 0.03181341 -0.055467065
0.0564443 -0.11107016 -0.016995635 -0.025688231 0.11209703 -0.14696172 -0.011133529 0.13657027
0.075318515 -0.09403282 0.02378852 0.0735474 -0.020092405 -0.07296332 0.011107785 0.029011603
-0.053359628 0.014646312 -0.04139268 -0.012453186 -0.1466265 -0.14562583 0.019908505 0.037173755
-0.083850056 -0.1518487 0.028109808 -0.014954652 -0.0062167495 0.11852346 0.12855239 0.06327143
-0.019357955 0.031275157 0.04108746 -0.1306974 0.097476475 -0.013616474 0.09278626 0.106321715
0.047377795 0.103935644 0.18244562 0.099664174 -0.0056094495 -0.0055918614 0.11106478 -0.2240691
0.27786565 0.19165447 0.10223154 0.048600614 0.054141965 0.0075145555 0.27823767 -0.10583767

actor.0.bias f4 [256]
00000000: 04c1 2abe 472a da3d 31ae 9abd 652b b5bc
00000010: 9195 c6bd 1852 a1bc b4c9 cdbc 425f 653d
00000020: 6a86 dcbd dc8b 38be 9267 a23d f378 793d
00000030: 10d5 4a3e 4b7a f93d 9b15 21bd 2ff3 ccbd
00000040: 305f 63be db25 0abd 226b be3c dc74 85bd
00000050: 5b4d 48be ac00 18bc 9209 c8bd 39f8 28be
00000060: d2c6 1dbe b434 893d 55d3 e6bd 2654 a53d
00000070: c129 673c 2bdd 87be 84c3 afbb a86c cd3d
00000080: ffe6 50bd cfbb 943d fa8c 83bc d0fb 273e
00000090: 3704 b4be d677 d53c aedd 463e cdf7 dd3c
000000a0: 0401 07be 2678 9e3d fc2a 4bbd d243 c6bd
000000b0: af3e 803d cb73 623e 15d5 4e3e 7d30 9bbc
000000c0: 2264 333e 9ed0 523d 2031 c33d 9ec5 89bd
000000d0: e0d1 bebd 985b 233e 9623 8dbc 0033 5bbd
000000e0: a276 06be d217 14bd 075e d63d e9e8 07be
000000f0: 62f2 663e b9d7 82bd c3bc 75bd e7c5 473c
00000100: 478b 043e 51c9 91be 54a1 d33d df33 11be
00000110: f8e4 dabc ba64 193d b118 fdbd c0d6 03bd
00000120: 6c0c 6cbe d34a d73d 5444 8a3d c43e a03d
00000130: 1a0b 103e ee8a e03c 3551 ba3d 3437 863d
00000140: 9877 23bc 5437 2e3d 0d8d d83d b942 82bd
00000150: 8ac8 fe3c 532d 933d fe86 f23c 21a2 e1bd
00000160: 72dd 6abe 415d 11bd 61cb 613d 2414 1abd
00000170: 92ac 06be 4464 833b 8d09 b4bd ae5f 6abd
00000180: 7d86 133e 9e80 173e 2fe5 0a3e c87d 24be
00000190: 3325 e53d 2ab3 ab3d 4b3e cdbd d44f 0abe
000001a0: 55b9 443d d128 483c 1c04 9a3d d3af 3bbd
000001b0: b3a5 3e3e 34a8 1ebc 9358 04be 36b3 613c
000001c0: 2e46 513e ca43 a9bc 7be2 53bd 0684 fdb9
000001d0: e5e9 36be a754 3cbd 4b5b e63d a0eb 23be
000001e0: 370b eb3c e1b4 d9bc d0a6 5e3c 7026 25be
000001f0: 5d4c dabc fe09 293e 955d 39be a66f 41be
00000200: dbe0 0dbe 359f 4fbe 78cd 6e3d 89ad 123e
00000210: d04d c3bd 4f1f 973d 7934 223d 3cc4 793d
00000220: dd50 dcbb 0637 913e 29a1 d43d 5bf3 233e
00000230: fe4e a1bc ebed 92bd 2e57 963d 430e 0a3e
00000240: 2a2f dabc 846a b13d 4710 543e 99fa bd3d
00000250: 68ab 593d d3c3 88bd 8038 b93d c42e 5f3e
00000260: b423 01be 8992 b83d c73e 1dbe 36d6 173d
00000270: 1c74 fabd ad00 87bd 66e9 7b3e ee91 98bd
00000280: d279 673e bdad 1f3c 199a 1b3d b827 563e
00000290: 94b2 bebd 359f 073d 6080 38be 9648 fabc
000002a0: 88c3 c03d 88bc afbc 59bc 3ebe 04b3 17bd
000002b0: 36e5 773c 1929 ce3d e6df 88bd a3d6 4fbd
000002c0: a62f 7a3e 7c0b 663e b365 58be 51eb 20be
000002d0: 8f10 a3bc 7b24 5fbb 8ea5 dcba f009 9fbd
000002e0: 862e 163d 4ad0 e2bc 2c7a 69bd 152c 623e
000002f0: 572d df3d f7ac 78bd d54b e53d 6b0c cdbd
00000300: 03ff 88bc f6c9 873d 1072 01be 2723 fb3d
00000310: 6fd5 23bd 154c 69ba 9b52 803e daa1 393d
00000320: e388 3cbe b313 733e 72c4 29bd 09e8 243e
00000330: 8017 a03c fd61 833e 70e7 44be 87a7 a43d
00000340: 51b0 883d 2960 87bd d1cf 873c 0891 d8bd
00000350: 7210 1cbe 0c29 303e 0044 3abd 6f8a c2bd
00000360: 210e 0bbe ac71 7ebd ce2d 53be e5d2 eabb
00000370: 4d72 773c 540f 0b3e 11b1 653d 8466 a33d
00000380: c716 3cbd 3bd9 bf3d 7160 9fbb 6927 a03d
00000390: 6c4c 44be be95 9ebd 8e38 cd3d f0d3 62be
000003a0: a948 1abe 4821 5fbc 5954 cebd 2d0d 4ebe
000003b0: 6205 a33c 6d4b 17be fc84 bf3d 7a91 a4bd
000003c0: e3fe b93c 7d76 b83c 7300 c63d ae8e ac3d
000003d0: 2d81 9b3d 3fe2 a6bb 8f1e 983d fb11 733d
000003e0: 6e69 833e dcb6 da3c 36ce 713c e5d7 c53d
000003f0: 5de5 15be 596e b2bb 1cf4 de3c 6f14 d13d
-0.16675192 0.10652595 -0.075527556 -0.022115419 -0.09696496 -0.019692466 -0.025120594 0.055999048
-0.10767825 -0.18022102 0.07929911 0.06090636 0.1980784 0.12181529 -0.039327245 -0.10007321
-0.2220428 -0.033727508 0.023244444 -0.0651643 -0.19560759 -0.009277504 -0.097674504 -0.1650094
-0.15407875 0.066995054 -0.11270777 0.08072691 0.014109076 -0.26535925 -0.0053638835 0.1003049
-0.051001545 0.07262384 -0.016058434 0.16404653 -0.35159466 0.026058119 0.19420502 0.0270957
-0.13183981 0.0773776 -0.04960154 -0.096809044 0.06261956 0.22114484 0.20198472 -0.01894402
0.17518666 0.051468484 0.09530854 -0.067271456 -0.09317374 0.15952909 -0.017228883 -0.053515434
-0.13131192 -0.03615553 0.10467153 -0.13272442 0.22553399 -0.06388802 -0.05999447 0.01219318
0.12943755 -0.28473905 0.10333505 -0.14179944 -0.026720509 0.037449576 -0.12358225 -0.032187223
-0.23051614 0.105123185 0.06751314 0.078244716 0.14066735 0.027409997 0.0909752 0.06553498
-0.009977244 0.042533234 0.10573778 -0.063603826 0.031101484 0.07186379 0.029605385 -0.11017252
-0.22936037 -0.035489324 0.055125598 -0.037616864 -0.13151768 0.0040097553 -0.08790884 -0.057220154
0.14406772 0.14795157 0.13563989 -0.16063607 0.11188736 0.08383782 -0.10021647 -0.13507015
0.04802831 0.012216763 0.07520315 -0.045821976 0.18617897 -0.009683657 -0.12924413 0.013775637
0.20436928 -0.020662207 -0.05172966 -0.00048354286 -0.17862661 -0.04597917 0.112478815 -0.16007853
0.028691871 -0.026575508 0.013589576 -0.16127944 -0.026647741 0.16507718 -0.18102105 -0.18890247
-0.13855307 -0.20275576 0.05830142 0.14324011 -0.09536326 0.073790185 0.039600823 0.06097816
-0.006723507 0.28362292 0.10382301 0.16010801 -0.019690987 -0.071742855 0.07340847 0.13482003
-0.026633818 0.08662894 0.20709334 0.09276313 0.05314198 -0.066779755 0.0904398 0.21795183
-0.12611276 0.09012324 -0.15355979 0.03706952 -0.12229177 -0.06591926 0.24600753 -0.07449709
0.22605065 0.009746012 0.037988756 0.20913589 -0.09311405 0.033110816 -0.18017721 -0.03055219
0.094122946 -0.021452203 -0.18626536 -0.037035957 0.015130332 0.100664325 -0.0668333 -0.050741803
0.24432239 0.22465318 -0.21132545 -0.15714766 -0.019905357 -0.0034048844 -0.0016834007 -0.07765567
0.036665462 -0.02768721 -0.057001278 0.22087128 0.1089732 -0.060711827 0.111961044 -0.10012134
-0.016723162 0.06630318 -0.12641168 0.12262564 -0.039998468 -0.0008899582 0.25063023 0.04532037
-0.18411593 0.23737983 -0.04144711 0.1610414 0.019542456 0.25660697 -0.19228911 0.08039766
0.06674255 -0.06610138 0.016578587 -0.105745375 -0.15240648 0.17203158 -0.045475006 -0.0949906
-0.13579609 -0.062120125 -0.20622942 -0.007166254 0.015102935 0.13580066 0.056077067 0.07978538
-0.04592016 0.09367605 -0.0048637916 0.07820017 -0.19169778 -0.07743405 0.100205526 -0.2215116
-0.1506678 -0.013618775 -0.10074682 -0.20122214 0.019900028 -0.14774866 0.09351537 -0.0803556
0.022704547 0.022517437 0.096680544 0.084256515 0.07592998 -0.0050928886 0.074277036 0.05934332
0.25666374 0.026698522 0.014758637 0.09660319 -0.14638276 -0.0054452834 0.02721601 0.102089755

actor.2.weight f4 [128, 256]
00000000: fe6e 56bd 4cbe 1fbe 9a02 03be d17d 23be
00000010: 0033 94b9 fb59 cfbc fdde 8e3e 1c39 093e
00000020: 0820 e53d fc26 eabc 32b8 5ebd 221f de3b
00000030: 2e7e bfbc ca16 993e 3c86 cabd b77c dcbd
00000040: a719 63bd 27c4 45bd abd7 eebe beab 3ebe
00000050: 1295 303c 6c98 233d f7e1 91bd 61db 483e
00000060: 8b4c 363e 32bd 373e af0b bcbd a944 af3c
00000070: fc12 1e3e 04e5 b239 c228 923d 045f 21be
00000080: 3ba4 66be a440 77be a351 143d 0eda 493e
00000090: 94d6 e33d 95e2 b8be 186e 87be fb6a 76bd
000000a0: fadf a13d 897b 3abd cdc0 f33d fb73 f9bd
000000b0: 2eca 833d ad9b 20be 24fc b83d fd0a 453d
000000c0: ecf3 003f 50a6 823d 7870 58be 59ef 6b3c
000000d0: a0d6 ab3c 31f8 6fbe 6948 c4bd 8c2c 81bd
000000e0: 7738 fe3d 1a28 1c3e f94d 133e 22fb 69bd
000000f0: dbe6 80bd b7a5 d93c d601 323e 2402 4abc
00000100: a19e 743d c857 1e3e 3d28 683e b9e5 f4bd
00000110: fb2d d03e df11 5a3d fef8 a23d 608a c43c
00000120: c225 da3d 11ac 3bbe f71d 26be 0729 c03d
00000130: 306e 973a 4602 d83e b556 243e d3a2 bc3d
00000140: d436 87bc b6bf 9f3d 121a 92bd 6d8a 8bbd
00000150: 11e3 523e 6cef 553e c664 6c3e 3f98 84be
00000160: 5921 8fbd 506b 78bd c3a8 b8bd a0ae f5bb
00000170: 3ab9 893e 37b7 42be 67c1 c13d f8e8 623e
00000180: 210e 00be d4fa c8be da77 8c3c 4789 80bd
00000190: 3494 a2bd d9b8 95be ea9d e13d d425 32be
000001a0: 78f6 823d a52a 913d 305e d23c 3251 e8bd
000001b0: 94d1 f63c 7aa2 59bd 3aef 1e3e 82ce 343e
000001c0: 1f4e 1f3e 37a9 d03d 1491 1cbe a05d 343d
000001d0: fb41 0a3c 87a9 9c3d 63b8 3d3e c9c2 ddbd
000001e0: 9192 d63d daf7 703e 25e4 203e fddc 2b3e
000001f0: 29a1 ddbd e64e a7bc 9f6f 843e 6584 013e
00000200: 31b9 123d a9f0 f9bd 3284 073e a14c 10be
00000210: cb55 adbd 6d8e 1dbd 5746 6abf f44c 3cbe
00000220: 341d 093f ff07 a43d 7540 903d c965 003d
00000230: b8ce 80be a841 e3bc b39b de3d b8bd 7b3d
00000240: 48f3 363d 3fe7 943e 55c7 a2bd 9aef 93bd
00000250: d4fc cfbd 6aa5 4ebe 1246 813d 0006 c0bd
00000260: dc15 703d 5cf9 953d 872a 8e3e f7bb babd
00000270: f6f3 683e c40a c4bd 97ce 2e3e c93d 993d
00000280: 6dc9 5e3d c3d1 3c3d db73 19be 7abf 033e
00000290: 82f5 3e3e 214b 56bc d9e8 2c3e 9476 323e
000002a0: d206 c33d c4c5 f1bd cd7d 50bc b9e8 a83d
000002b0: 478d 96be 6813 0c3e 8a36 cbbe b7a7 0b3e
000002c0: 7cb0 cc3d 92d0 d3bc 716e bf3b 10f9 d63d
000002d0: 73b5 783d b3a1 81bd ccc6 f13d b9a2 ee3d
000002e0: ea77 f13a d408 ae3d 6040 1ebd e2e5 473d
000002f0: 3cc4 633e 292e 203e ef16 4a3e 4c34 5f3e
00000300: 0eef 01bd da71 ddbc e6fd 863e 21e7 2abe
00000310: 9fce 66be 82e2 aabe 6242 bbbe aeae 86be
00000320: 54e8 b6bd 1ebc 1dbf 1007 543d fc0a a63d
00000330: 80e5 cebd 8374 e2bd f0ba 82be 17b3 37be
00000340: 591b fe3c 9691 46be 1e08 15be a3d4 3ebe
00000350: b260 413e bf78 2dbe e4f9 343d 2bb0 563c
00000360: 0073 71bd 37fe 323e 43e0 92bd ecc1 913e
00000370: 0d4e 21be 3fec 2e3e 89e8 efbc 7b27 00bd
00000380: d08d f3be 06fe 8abd 9451 ca3d 1527 0a3e
00000390: 3c63 123e 77f8 bc3d aade 133e fec0 0a3e
000003a0: d861 893e 8281 24bc 7a97 663d 64aa df3c
000003b0: 86ed 15be 5614 c53d 792e a23d 6a67 313d
000003c0: f2fd 8f3d c7f4 c9be e2a8 50bc 76f3 79bb
000003d0: 9bf8 f6bc 5e13 e4bd 7358 dfb9 999f 253d
000003e0: 2e8d f7be 4a52 043e 59f2 7abd 79e1 e5bd
000003f0: 81b6 d63d 567d 513d de8b 1bbd 47ff 9cbd
-0.052351944 -0.15599936 -0.12793961 -0.15965964 -0.00028266758 -0.02531146 0.27904502 0.13400692
0.1118775 -0.028583042 -0.05437488 0.0067786137 -0.023375597 0.299002 -0.098888844 -0.10765975
-0.055444386 -0.04828277 -0.46648917 -0.18620202 0.010777729 0.039940283 -0.071231775 0.19614936
0.17802636 0.17943266 -0.09181916 0.021395044 0.1543693 0.00034121436 0.0713668 -0.15758902
-0.22523586 -0.24145752 0.036210667 0.19712088 0.11124912 -0.36110368 -0.26451182 -0.06016062
0.07904048 -0.04552797 0.11902008 -0.12180325 0.06435047 -0.15684386 0.09032467 0.048106182
0.50372195 0.06379378 -0.21136653 0.014400327 0.020976365 -0.23434521 -0.09584124 -0.06307325
0.124131136 0.15249673 0.14385213 -0.057124265 -0.06294032 0.026568277 0.17383513 -0.012329612
0.059721593 0.15463173 0.226716 -0.119578786 0.4066008 0.0532397 0.07957648 0.023991764
0.10651733 -0.18327357 -0.16222368 0.09382825 0.0011553224 0.42189234 0.16048701 0.09210744
-0.016505636 0.07800238 -0.07133879 -0.06813512 0.20594431 0.20892113 0.23085317 -0.25897405
-0.069887824 -0.060649216 -0.09016564 -0.0074976236 0.2689913 -0.19015203 0.09460717 0.22159183
-0.1250539 -0.39253867 0.017146993 -0.062761836 -0.07938424 -0.2924259 0.11016448 -0.17397243
0.063946664 0.07088212 0.025679678 -0.11343612 0.030129232 -0.053133465 0.15520945 0.17656901
0.15557145 0.10188525 -0.15289718 0.0440346 0.0084385825 0.07649522 0.18527369 -0.10828168
0.10477174 0.23532048 0.1571203 0.16783519 -0.108217545 -0.020423364 0.2586641 0.12648161
0.035821144 -0.122041054 0.13234022 -0.14091732 -0.08463629 -0.038465906 -0.9151358 -0.1838873
0.53560185 0.08009338 0.07043544 0.03134707 -0.25157714 -0.027741268 0.10869541 0.061460227
0.044665605 0.29082677 -0.07948176 -0.07223435 -0.10155645 -0.20180288 0.06312193 -0.093761444
0.058614597 0.07322952 0.2776682 -0.09117883 0.22749314 -0.09572366 0.17070995 0.07482488
0.054391313 0.046098482 -0.14985602 0.12866011 0.18648341 -0.013079436 0.168857 0.17428046
0.09522785 -0.11805299 -0.012725306 0.08247513 -0.2940466 0.13679278 -0.39690048 0.13638197
0.09994599 -0.02585629 0.005842023 0.10496724 0.06071992 -0.0632967 0.118054956 0.11652131
0.0018422578 0.084977776 -0.03863561 0.048803218 0.22242826 0.15642609 0.19735311 0.21797293
-0.03172212 -0.027031828 0.26365584 -0.16689731 -0.22539757 -0.33375937 -0.36574084 -0.26305145
-0.08931032 -0.6161517 0.051764548 0.08107564 -0.101023674 -0.11057379 -0.25533247 -0.17939411
0.0310189 -0.19391474 -0.14553878 -0.18635802 0.18884543 -0.16940592 0.044183627 0.013103525
-0.058947563 0.17479788 -0.07171681 0.28468263 -0.1575243 0.17082308 -0.029285686 -0.03128765
-0.47569132 -0.067867324 0.09878841 0.13491471 0.14295667 0.092270784 0.14440408 0.13550183
0.2683246 -0.010040643 0.056296803 0.027302928 -0.14641389 0.096230194 0.0791902 0.043311514
0.07030858 -0.39444563 -0.012735577 -0.0038139499 -0.030147841 -0.111365065 -0.00042599774 0.040435407
-0.483499 0.12922016 -0.061266277 -0.11224646 0.104840286 0.05114492 -0.037975185 -0.07665878

actor.2.bias f4 [128]
00000000: 2a37 8d3d 1349 9abd e475 aabd f2d9 82bb
00000010: dd7b ecbc 9554 94bd 4b33 19bd 0ebb 2ebe
00000020: 8dd0 6fbd 3771 b03d b235 7abc d5c3 8ebd
00000030: e86d 253d 7355 91bd 53d3 ca3c 9fd4 583d
00000040: db7a 8e3d 5b96 113e 5050 d6bb 71d7 013e
00000050: d295 c73d 62c5 c63d 0dfb 81bd d6fd 83bc
00000060: 1a61 95bc 1c64 dbbd 9085 173d 5c4d b03c
00000070: fa70 6ebd f1ae 4fbd 621b d0bd c158 98bd
00000080: 8c49 99bd c856 a7bc 2de7 6dbd 85ac 17bd
00000090: 26c2 95bd 9273 e5bd ccc2 4abd 3656 50bd
000000a0: 88ff 9b3d eb47 9cba 95bd 05be 8bbe c1bb
000000b0: 199b 403d a3de ae3c ef2e fb3d d4b9 a23d
000000c0: 1ed7 5bbd 9bf6 ee3d 96b4 42bc f81a 9dbd
000000d0: 4cac 95bd 6da8 9c3d 81b4 f5bc a9a6 23bd
000000e0: 30a0 8abd a226 493d 623d 6fbd aebf 2c3e
000000f0: 5548 10bd be71 ae3d d292 c93c 66d3 533d
00000100: 6b33 893c 9974 a93d 7120 22be 06d5 5539
00000110: 4503 9d3d 048b 023d ec04 e53d ea83 acbd
00000120: b3fd 8d3c 1ba6 243c e690 723d 5b38 153e
00000130: 6179 46bc e895 8fbd d11d 1d3d 23cc 9e3d
00000140: dc6f e73d b6f4 a63d ada3 11be f994 e9bb
00000150: e3e9 dbbc 4637 b13d ba7f 3dbd c15d 3bbd
00000160: e51e 1b3e 2fd1 11bd cf4c 9dbd 005c 65bd
00000170: de4f 043e 8955 a13d a69e 1d3e 7bc9 723d
00000180: 8a2f 24bc e8c5 693c d752 cdbc f51b 29bc
00000190: 759a 473e 2935 1b3d fa13 a73c 545c 03be
000001a0: 5977 cc3d 65b7 1f3e 2004 0e3d 398d 3cbd
000001b0: 3824 f83d 3848 8dbb b6bf 333d 9942 9abd
000001c0: 395d 1abd 9ff7 82bd 5ee9 e13b 68be 08bd
000001d0: b588 923d 2296 053e 2619 15be 3b45 67bd
000001e0: dde3 e03d 185a 023e e9f0 553d 320a a83c
000001f0: 7c68 1e3e f3d4 c0bd 89ac df3c 8d07 7a3e
0.06895287 -0.07533469 -0.08323267 -0.0039932663 -0.028867656 -0.07242695 -0.037402432 -0.17063543
-0.0585485 0.08615344 -0.015271591 -0.06970946 0.040388018 -0.07096376 0.02475897 0.052937146
0.069570266 0.14217512 -0.0065403357 0.1267984 0.09745373 0.097056165 -0.06346712 -0.01611225
-0.018234778 -0.10712454 0.03699261 0.021521263 -0.05821321 -0.050703947 -0.10161473 -0.074388035
-0.07484731 -0.020427123 -0.058081795 -0.03702976 -0.073124215 -0.11203684 -0.04950218 -0.050863467
0.07617098 -0.0011923289 -0.13060601 -0.005912607 0.047022913 0.021346396 0.12264811 0.079456
-0.05367195 0.1166813 -0.011883875 -0.076711595 -0.07308254 0.07649312 -0.029993298 -0.03995386
-0.067688346 0.04910911 -0.05840815 0.16869995 -0.03522523 0.08517788 0.024606142 0.051715277
0.01674815 0.08274192 -0.15832688 0.0002039262 0.07666639 0.031870857 0.111825794 -0.08423598
0.017332887 0.010049368 0.059220217 0.14572279 -0.0121139 -0.07011014 0.038358513 0.0775378
0.11300632 0.08152144 -0.14222594 -0.0071283546 -0.026844924 0.08653121 -0.046264388 -0.045743708
0.15148504 -0.035599884 -0.07680666 -0.05599594 0.12921092 0.07877643 0.15392551 0.059274178
-0.0100211 0.014268376 -0.025063915 -0.010321607 0.19492514 0.037892494 0.020395268 -0.12828189
0.09983701 0.15597303 0.034671903 -0.046033118 0.12116283 -0.0043115877 0.043884 -0.07532234
-0.03768656 -0.06394886 0.0068942746 -0.03338471 0.07154981 0.13045552 -0.14560375 -0.056462508
0.109809615 0.1272968 0.052231703 0.020512674 0.15469545 -0.09415617 0.02730395 0.24416943
