CRL/模型集_历代版本最强/13.pth (torch, 370623 bytes, 11 tensors)

critic.0.weight f4 [256, 48]
0	0xbe5d22b6	-0.21595272
1	0xbe032c09	-0.12809767
2	0x3d3f1d9c	0.046659097
3	0x3b2a24ee	0.0025961953
4	0xbe352218	-0.17688787
5	0xbe28f5e2	-0.16500047
6	0xbc5e2c06	-0.013560301
7	0x3c78ccfd	0.015185592
8	0xbea048aa	-0.31305438
9	0xbe26cb87	-0.16288577
10	0xbe4a8fe8	-0.19781458
11	0x3dea1e39	0.11431546
12	0xbe6e3c19	-0.23265113
13	0xbe0a3825	-0.1349798
14	0x3d491b37	0.04909822
15	0xbc001823	-0.007818255
16	0xbe8294f9	-0.25504282
17	0xbe4d3c8a	-0.20042625
18	0xbc5aeb21	-0.013361723
19	0x3ca3cede	0.019996103
20	0xbe2c0b32	-0.16801146
21	0xbd9dd1c6	-0.07706027
22	0xbe4ee5ee	-0.20204899
23	0xbc9bcc36	-0.019018274
24	0xbc3a0e88	-0.011356004
25	0xbd976e44	-0.073940784
26	0x3d8a4c16	0.067527935
27	0x3c515fd9	0.0127791995
28	0xbd957de8	-0.07299405
29	0xbe41b4e0	-0.18916655
30	0xbcbb5f39	-0.022872554
31	0x3c298963	0.010347697
32	0xbc81936e	-0.01581737
33	0xbb875772	-0.0041302973
34	0xbe3b5a6c	-0.18296212
35	0xbd927950	-0.07152045
36	0xbe259ed5	-0.16173871
37	0xbad35ed2	-0.0016126281
38	0x3db0b199	0.08627624
39	0xbbc7c9d8	-0.0060970597
40	0x3bba4cb8	0.005685415
41	0xbe76fb60	-0.2411933
42	0xbc9f8a2a	-0.019475061
43	0xbd3f54fc	-0.046711907
44	0xbda93fc8	-0.082641184
45	0x3de52f12	0.111906186
46	0x3ea5f6cb	0.3241485
47	0x3d1faae1	0.038981322
48	0x3e5885b5	0.21144755
49	0xbe35b7c5	-0.17745884
50	0xbd5ff3e8	-0.054675967
51	0x3df56bd7	0.119834594
52	0xbde6463c	-0.11243865
53	0xbe1586d7	-0.14602219
54	0xbc317ecb	-0.010833452
55	0xbbba4fc7	-0.0056857797
56	0xbe84607c	-0.25854862
57	0xbdcd9463	-0.10038068
58	0xbdc167a1	-0.09443594
59	0xbdb2324b	-0.08700999
60	0x3e5a29e0	0.21305037
61	0xbe55d3d3	-0.20881586
62	0xbdad959f	-0.084758036
63	0x3d8b3092	0.067963734
64	0x3d1e2ef7	0.038619008
65	0xbe2893ab	-0.16462581
66	0xbc6e1bc7	-0.01453299
67	0x3d9e42d5	0.07727591
68	0xbe7b2c5b	-0.24528639
69	0x3dd150e9	0.102205105
70	0xbe16699b	-0.14688723
71	0xbd0041bd	-0.031312693
72	0x3e703e32	0.23461226
73	0xbe0706d6	-0.13186201
74	0xbdc27200	-0.094944
75	0x3d752da1	0.05985797
76	0xbe46c033	-0.19409256
77	0xbe2e7595	-0.17037041
78	0x3c09c2af	0.008408233
79	0x3d5371ef	0.051622327
80	0xbd2ba326	-0.041903637
81	0x3e3c4933	0.18387298
82	0xbd6dd055	-0.05806001
83	0xbbbef486	-0.0058274893
84	0x3dfb356b	0.12266048
85	0x3ce023bc	0.02736079
86	0xbdf49e14	-0.119442135
87	0x3e2c5cb0	0.16832232
88	0xbe4ac05b	-0.1979994
89	0xbdd20699	-0.10255165
90	0x3cc8af68	0.024497703
91	0xbcb46a48	-0.022023335
92	0xbe40b2d4	-0.18818218
93	0x3ed0fc74	0.40817606
94	0xbe278a67	-0.1636139
95	0x3ee05022	0.43811136
96	0x3e29c806	0.16580209
97	0x3dbf4002	0.093383804
98	0x3d8ac3a5	0.067755975
99	0xbc5cf715	-0.013486643
100	0xbded74a5	-0.11594514
101	0xbd1f714a	-0.0389264
102	0xbcd1d0df	-0.025612293
103	0x3c91185c	0.01771181
104	0xbe6c53b7	-0.2307881
105	0xbe94b2de	-0.29042715
106	0x3edcfc24	0.43161118
107	0x3e3b9748	0.18319428
108	0x3d87f8fd	0.066392876
109	0x3d835df7	0.06414407
110	0x3d8fb0a1	0.07016111
111	0x3c016638	0.007897906
112	0xbe84a47b	-0.2590674
113	0xbb969bf8	-0.0045962296
114	0xbc80771c	-0.015681796
115	0x3de04e37	0.10952418
116	0x3cd4d0f0	0.025978535
117	0xbdb1c33e	-0.086798176
118	0x3e2373e6	0.1596218
119	0xbde5a1f0	-0.11212528
120	0x3cbc7b09	0.023007886
121	0x3e4f4b2a	0.20243517
122	0x3dac7e07	0.08422475
123	0xbc13476f	-0.008989199
124	0xbdd0f89e	-0.1020367
125	0xbdb08eb3	-0.08620968
126	0xbbf83640	-0.0075748265
127	0x3abd1136	0.0014424685
128	0xbda7b121	-0.081880815
129	0x3dd7fc94	0.10546222
130	0xbceb4825	-0.028720925
131	0xbe497966	-0.19675216
132	0x3e3696d6	0.17830977
133	0xbd8efafb	-0.069814645
134	0x3d97a706	0.07404904
135	0xbd7f510a	-0.062333144
136	0xbe618911	-0.22024943
137	0xbe2367cd	-0.15957566
138	0x3c568121	0.01309231
139	0xbe9deab3	-0.30843124
140	0x3d4b5bc2	0.049648054
141	0x3e2e6320	0.1703
142	0xbe09273c	-0.13393873
143	0x3cec166b	0.028819283
144	0x3e4e8cc2	0.20170882
145	0xbebf090a	-0.37311584
146	0x3c4a0965	0.012331341
147	0x3dd61599	0.10453338
148	0xbdd20300	-0.102544785
149	0x3dbb58e1	0.09147812
150	0x3d6e713f	0.05821347
151	0x3c86d627	0.016459538
152	0xbe17c298	-0.14820325
153	0xbf4c3375	-0.7976602
154	0x3cf70e83	0.030158287
155	0xbb136a1f	-0.0022493673
156	0x3d82384f	0.06358396
157	0xbebd3c7e	-0.36960214
158	0x3d05b121	0.032639626
159	0x3da40b57	0.080099754
160	0xbe3c2db5	-0.18376811
161	0x3e24dacb	0.16099088
162	0x3d233b74	0.03985162
163	0x3d080c11	0.033214632
164	0x3d9983d2	0.07495846
165	0xbf44ed87	-0.7692494
166	0x3dfa25d4	0.122142464
167	0x3e8e1526	0.2775051
168	0x3a26a710	0.0006357292
169	0xbe8562b3	-0.26051864
170	0x3d727f90	0.059203684
171	0xbb52e113	-0.0032177612
172	0xbd1360ca	-0.035980977
173	0x3b4b9a54	0.0031067329
174	0x3caab5be	0.020838615
175	0x3d1a56b1	0.03768033
176	0xbdc69715	-0.09696785
177	0xbf147c9d	-0.58002645
178	0x3d90bd72	0.07067384
179	0x3e551745	0.20809658
180	0x3e2ba991	0.16763903
181	0xbe3ddc47	-0.1854106
182	0x3d04fdea	0.032468714
183	0x3e0c9848	0.13729966
184	0xbd833941	-0.06407405
185	0x3dc05e18	0.09392947
186	0xbba4d81c	-0.005030645
187	0x3c5dd804	0.013540272
188	0x3e3da269	0.18518986
189	0xbeb3b309	-0.3509753
190	0x3e872735	0.263971
191	0xbcfff44c	-0.03124442
192	0x3d545e1f	0.051847573
193	0xbd926e0b	-0.07149895
194	0x3d0803c6	0.033206724
195	0x3d7ae276	0.061251126
196	0x3eb0595d	0.3444318
197	0xbe2ea40d	-0.17054768
198	0x3d23976b	0.039939325
199	0x3de4d084	0.11172584
200	0x3c678ac5	0.014132206
201	0xbe080d32	-0.13286284
202	0xbdaf24ea	-0.08551963
203	0xbd2a0c5e	-0.0415157
204	0xbe19a44b	-0.15004079
205	0xbd9e3fb9	-0.07726998
206	0x3d03fec7	0.032225396
207	0x3d76bed0	0.060240567
208	0x3eaeb49c	0.3412217
209	0xbe364bed	-0.17802401
210	0x3d947fce	0.07250939
211	0x3dbcbe11	0.0921594
212	0xbd612885	-0.054970283
213	0x3ca4185c	0.020031147
214	0x3e095595	0.13411553
215	0x3d97e2d4	0.07416311
216	0xbe190eb7	-0.1494702
217	0xbd68d800	-0.05684662
218	0x3c4c89f2	0.012484061
219	0x3d87f68e	0.066388234
220	0x3e74c0de	0.23901698
221	0xbe398b8c	-0.18119639
222	0x3dcecb53	0.10097375
223	0x3d85da95	0.06535832
224	0x3d996040	0.07489061
225	0xbc45e7c8	-0.012079187
226	0x3e97479c	0.2954682
227	0x3da008ce	0.07814179
228	0x3da64a71	0.08119667
229	0xbde834a5	-0.11338166
230	0xbcadd9a1	-0.021221938
231	0x3d4be455	0.0497783
232	0x3e63d7d3	0.22250299
233	0xbd07aaa5	-0.033121724
234	0x3dd5f137	0.10446399
235	0xbc7bd43f	-0.015370428
236	0xbc52b4f5	-0.012860526
237	0xbc49953b	-0.012303646
238	0x3f1f210f	0.6215982
239	0xbdb6ab1c	-0.08919355
240	0xbd3518b1	-0.044213
241	0xbb75ccdf	-0.0037506146
242	0xbd217666	-0.039419554
243	0xbb91ae28	-0.00444581
244	0xbc4b8565	-0.01242194
245	0xbe609bd9	-0.21934451
246	0x3d468309	0.04846481
247	0x3bbd0dc9	0.0057694656
248	0xbc6f9b16	-0.014624378
249	0xbc9e597f	-0.019329784
250	0x3d93ef71	0.07223404
251	0x3c0fc223	0.008774313
252	0xbdf16bfd	-0.11788175
253	0x3c4c12c4	0.012455646
254	0xbd9a15db	-0.075237
255	0x3bef5d1d	0.007304801

critic.0.bias f4 [256]
0	0x3e3010a3	0.17193846
1	0x3eb9ffff	0.36328122
2	0x3c9e0584	0.01928974
3	0x3c678e50	0.014133051
4	0xbe39e475	-0.18153556
5	0xbe9f9899	-0.3117111
6	0x3c078ee2	0.008273812
7	0xbdf362de	-0.11884092
8	0xbda59ed7	-0.08086937
9	0xbe75f264	-0.24018246
10	0x3dcc6401	0.09980012
11	0x3ed5ee9d	0.4178361
12	0x3f0f6695	0.560159
13	0x3f10e66d	0.566016
14	0x3d54c277	0.05194327
15	0xbeb36147	-0.35035154
16	0xbe8c9980	-0.2746086
17	0x3f139557	0.5764975
18	0xbcc76338	-0.024339303
19	0x3d799972	0.060937352
20	0xbf090bfb	-0.53533906
21	0xbe8a0c81	-0.26962665
22	0xbe6f98bf	-0.23398112
23	0x3e4864ea	0.19569746
24	0x3d8a570a	0.06754883
25	0x3ec52ef9	0.385124
26	0xbe0a8257	-0.13526283
27	0x3e21b7cf	0.15792774
28	0xbd53bb49	-0.05169228
29	0xbe0bec6c	-0.13664407
30	0x3e9cc8cf	0.30621955
31	0xbdb0813a	-0.08618398
32	0xbec743e6	-0.3891899
33	0x3e7c2d5e	0.24626681
34	0xbcb4101f	-0.021980343
35	0xbf56a3ac	-0.83843493
36	0x3e7cc209	0.24683394
37	0x3e653f4a	0.22387424
38	0x3ee00b3d	0.43758574
39	0xbf073b1d	-0.52824575
40	0x3ea4f9d7	0.32221863
41	0xbe6f5414	-0.23371917
42	0xbe970c9f	-0.29501817
43	0x3f101a56	0.56290185
44	0xbea26dd4	-0.31724417
45	0x3ea1b453	0.3158289
46	0x3ef475f0	0.4774623
47	0xbe8fd7fb	-0.28094468
48	0xbdcff6a3	-0.10154464
49	0x3e704b26	0.23466167
50	0xbf12fc0a	-0.5741583
51	0x3c59da2d	0.013296646
52	0xbf25352b	-0.6453425
53	0xbf3e50bb	-0.74341935
54	0x3ee06b66	0.43831939
55	0xbe94d6f9	-0.2907026
56	0xbce18aad	-0.027531946
57	0xbf1371fd	-0.5759581
58	0xbf56707e	-0.837654
59	0xbd7f04a8	-0.0622603
60	0xbea75c81	-0.32687762
61	0xbe358d76	-0.17729744
62	0xbe0fd3df	-0.14045666
63	0xbf340409	-0.7031866
64	0x3d14ebf2	0.036357827
65	0xbeaaa2d1	-0.33327344
66	0xbe729745	-0.23690517
67	0xbee6db27	-0.45089075
68	0x3ed90385	0.42385498
69	0x3d91d51d	0.07120726
70	0x3dd20f5a	0.10256834
71	0x3cf53bd8	0.029935762
72	0x3d8e594a	0.06950624
73	0xbe775695	-0.24154122
74	0xbe4cc78c	-0.19997996
75	0x3debfdaa	0.11522992
76	0xbf6f6c19	-0.9352432
77	0x3e68f55a	0.22749844
78	0xbec7560a	-0.3893283
79	0xbed24ed8	-0.41075778
80	0xbf0c97b7	-0.54919
81	0xbe48c65a	-0.19606915
82	0xbd8c5150	-0.06851447
83	0xbec17961	-0.37787917
84	0x3e5ae3c1	0.21375944
85	0xbef6d429	-0.4820874
86	0xbe39d157	-0.18146263
87	0xbe0191f9	-0.1265334
88	0xbe9a5f8a	-0.30151016
89	0x3e03cdc9	0.1287147
90	0x3eaeeed4	0.34166586
91	0x3f06fbcb	0.52727956
92	0xbd7ad675	-0.06123968
93	0x3dea4d64	0.11440542
94	0xbee96c46	-0.4559042
95	0xbe0a3c6f	-0.13499616
96	0xbe08af09	-0.1334802
97	0xbcb14c39	-0.021642791
98	0x3ddd50b8	0.108064115
99	0x3e41cac4	0.18925005
100	0x3e97d3da	0.29653817
101	0xbe8c94d0	-0.27457285
102	0x3dd49db6	0.103816435
103	0xbe55f4e5	-0.20894201
104	0xbe0b4cc5	-0.13603504
105	0xbed9734c	-0.42470777
106	0x3c76f5ec	0.015073281
107	0x3deea2ff	0.11652183
108	0xbd706baa	-0.058696426
109	0xbe3c679e	-0.18398902
110	0xbf2db08c	-0.67847514
111	0xbec6f9f6	-0.3886258
112	0xbd4e492e	-0.05036276
113	0xbea859ed	-0.32881108
114	0xbdc57cd6	-0.09642951
115	0x3e809ac1	0.25118068
116	0xbed239ed	-0.4105982
117	0xbef38d8a	-0.47568923
118	0xbd434598	-0.04767379
119	0xbe0d59bc	-0.13803762
120	0x3dd2b3f5	0.1028823
121	0xbd839ffd	-0.06427
122	0x3dc68153	0.096926354
123	0x3db9ba26	0.09068708
124	0x3e8a0c9c	0.26962745
125	0xbd36b3e1	-0.04460514
126	0xbe8da961	-0.27668288
127	0xbe4ec193	-0.2019103
128	0x3e79656b	0.24355094
129	0x3e57fb13	0.21091871
130	0xbe30c464	-0.17262417
131	0x3e50685c	0.2035231
132	0xbc4f25a8	-0.012643255
133	0xbc56ae09	-0.013103017
134	0x3cca47dd	0.02469247
135	0xbda782da	-0.08179255
136	0x3d0cf945	0.03441741
137	0xbd767a64	-0.060175315
138	0x3f1cd4e1	0.6126233
139	0xbedcbfa1	-0.4311495
140	0xbe74b8ae	-0.23898575
141	0xbf9bbeb3	-1.2167572
142	0xbd5c54d0	-0.05379182
143	0x3d6abc2f	0.057308372
144	0x3e396617	0.1810535
145	0x3e84c052	0.2592798
146	0xbea7f5fd	-0.32804862
147	0xbe02db19	-0.12778892
148	0x3f18fdd8	0.59762335
149	0xbe99158e	-0.29899257
150	0xbe8b2bbb	-0.271818
151	0x3d03f642	0.03221727
152	0xbdd75e1b	-0.10515996
153	0x3e234d95	0.15947564
154	0xbddcf469	-0.10788805
155	0xbd0b48ff	-0.03400516
156	0xbd23ea86	-0.04001858
157	0xbe8784cb	-0.264685
158	0xbeaedb5a	-0.34151727
159	0xbe18b66b	-0.14913337
160	0xbe3e3aa6	-0.1857706
161	0x3e45ae97	0.19304882
162	0x3e55c085	0.20874222
163	0xbebcedc6	-0.36900157
164	0xbea1c642	-0.3159657
165	0xbec5ba30	-0.38618612
166	0xbebc7193	-0.368054
167	0xbe86bff1	-0.26318315
168	0xbed6de01	-0.4196625
169	0x3dfaa374	0.122382075
170	0x3ea1f360	0.31630993
171	0xbe711802	-0.23544315
172	0xbf19e841	-0.60120016
173	0x3dc05d2b	0.093927704
174	0x3f125985	0.57167846
175	0x3e927d7c	0.28611362
176	0x3e616da8	0.22014487
177	0xbe399fe4	-0.181274
178	0x3e0d3a31	0.1379173
179	0xbc634e58	-0.013873659
180	0xbc7c0dda	-0.015384162
181	0xbf0c9939	-0.549213
182	0xbe9106ae	-0.2832541
183	0x3e8b0357	0.27150986
184	0x3ef34d3f	0.47519872
185	0xbd53c665	-0.051702876
186	0xbe6e19c3	-0.23252015
187	0xbd17936d	-0.03700583
188	0x3e965ccd	0.29367676
189	0x3ebdfc25	0.37106434
190	0x3eea8cf2	0.45810658
191	0x3e79531d	0.24348111
192	0xbebf8816	-0.37408513
193	0x3d9b9dde	0.0759847
194	0xbe150389	-0.1455213
195	0xbdad1d8b	-0.084529005
196	0xbd13c39c	-0.03607522
197	0xbe4188fe	-0.18899915
198	0xbaf85580	-0.001894638
199	0xbc6d0ef1	-0.014468894
200	0x3d7682cc	0.06018333
201	0xbf1d4788	-0.61437273
202	0xbf28b308	-0.6589818
203	0xbe8153ac	-0.2525915
204	0xbdd47520	-0.10373902
205	0xbe8f9229	-0.280412
206	0xbe247119	-0.16058768
207	0x3d1289c8	0.03577593
208	0x3ea5d87e	0.32391733
209	0x3d65f378	0.056140393
210	0x3e0c1f18	0.13683736
211	0x3e56132b	0.2090575
212	0xbdaebf54	-0.08532587
213	0x3ca38523	0.019960945
214	0xbde7f713	-0.113264225
215	0x3e28b18b	0.16473977
216	0xbe85f5a8	-0.26163983
217	0x3ed24cf2	0.4107433
218	0x3dbcdfc0	0.092223644
219	0xbeccaffb	-0.39978012
220	0xbe165804	-0.14682013
221	0x3b91aedd	0.004445894
222	0xbdc49a6a	-0.09599765
223	0x3e50c2c8	0.20386803
224	0xbe37d36a	-0.17951742
225	0xbe0dc2cc	-0.1384384
226	0xbf395c3b	-0.7240636
227	0xbe7c845f	-0.2465987
228	0x3dffcb67	0.12489968
229	0xbf2e8a38	-0.68179655
230	0x3ea0715d	0.3133649
231	0x3cdf674f	0.027270941
232	0xbf35bdb6	-0.709926
233	0xbdb56b76	-0.08858387
234	0xbe71b84e	-0.23605463
235	0xbf0cf0ab	-0.5505473
236	0xbe2a9960	-0.1666007
237	0x3ebc9df5	0.36839262
238	0x3e131542	0.14363578
239	0x3d9d8e0d	0.0769311
240	0xbdbfa83d	-0.09358261
241	0xbf074f45	-0.5285533
242	0x3d75535d	0.059893955
243	0xbe7bed06	-0.24602136
244	0xbf5fc73f	-0.874134
245	0x3e58d6f5	0.2117575
246	0x3d8c62ca	0.0685478
247	0xbf0a276f	-0.5396642
248	0x3f2d268a	0.6763693
249	0xbf059517	-0.5218062
250	0xbe626a5b	-0.22110884
251	0xbeace5e9	-0.33769158
252	0x3e0c9587	0.13728915
253	0x3ea9d54c	0.33170545
254	0xbd61f556	-0.05516561
255	0x3efaaaee	0.48958534

critic.2.weight f4 [128, 256]
0	0xbd13cd87	-0.036084678
1	0xbd936475	-0.07196895
2	0xbe73bf9d	-0.23803563
3	0x3e0ad267	0.13556825
4	0x3e4dc856	0.20095953
5	0xbe46bbbb	-0.19407551
6	0xbd8aa831	-0.06770361
7	0xbed9f97c	-0.42573154
8	0x3e7ca353	0.24671678
9	0x3d1d08ab	0.038338345
10	0x3ee2dade	0.44307607
11	0xbc10bfda	-0.0088348035
12	0xbd0f71a8	-0.0350205
13	0x3d4fb208	0.050706893
14	0x3dc34432	0.095344916
15	0xbdf0222c	-0.11725268
16	0x3de7cae4	0.11317995
17	0xbe5b5f20	-0.21423006
18	0xbcf41c0e	-0.029798534
19	0x3dde88ad	0.108659126
20	0xbd25e948	-0.040505677
21	0xbd43ad99	-0.047772978
22	0x3db2ca10	0.087299466
23	0xbd0d158f	-0.034444388
24	0xbdb12b3b	-0.08650824
25	0x3e83dd38	0.25754714
26	0x3dcd51bd	0.10025356
27	0xbca77b30	-0.020444483
28	0x3d8d2918	0.06892604
29	0xbe333114	-0.1749919
30	0x3cfb241c	0.030656867
31	0xbecf7a4e	-0.40523
32	0xbe718fb5	-0.23589976
33	0xbd17ebd3	-0.037090134
34	0xbe013a36	-0.12619862
35	0xbe45685f	-0.19278096
36	0xbe21df28	-0.15807784
37	0xbec2d8c4	-0.38056004
38	0x3de35ff2	0.111022845
39	0xbe424c27	-0.18974362
40	0x3e096e0c	0.13420886
41	0xbdfe17b3	-0.12406864
42	0x3b422ca6	0.0029628663
43	0x3b9d74c2	0.0048051784
44	0xbf93023d	-1.1485058
45	0x3bc4a78d	0.006001419
46	0xbc9b7a88	-0.018979326
47	0xbceb947b	-0.028757324
48	0x3cf3c78d	0.02975824
49	0xbe2bf42b	-0.16792361
50	0x3d5a6094	0.05331476
51	0xbddbca96	-0.107319996
52	0x3d389264	0.045061484
53	0xbdff53b0	-0.12467134
54	0xbdeb3db0	-0.11486375
55	0x3df71ba0	0.12065816
56	0xbd841804	-0.06449893
57	0xbe9685a5	-0.29398838
58	0xbe19f032	-0.15033033
59	0xc0825e71	-4.0740285
60	0xbe255580	-0.16145897
61	0x3deb05ed	0.1147574
62	0x3e06c8e1	0.13162567
63	0xc0a49c3b	-5.144071
64	0x3c2f9891	0.010717527
65	0xbc4af094	-0.01238646
66	0x3e08c096	0.13354716
67	0xbe19298f	-0.1495726
68	0xbe28da1e	-0.16489455
69	0xbd130ed1	-0.035902802
70	0xbe918c20	-0.2842722
71	0x3e3e6393	0.18592672
72	0x3cc7fbf2	0.02441213
73	0xbe24621d	-0.16053052
74	0xbd3e264f	-0.046423253
75	0x3e463d5b	0.19359343
76	0x3dd4dd20	0.10393739
77	0xbe2a50ac	-0.16632336
78	0xbb65190f	-0.0034957563
79	0x3c1850e8	0.009296633
80	0xbe0e1539	-0.13875283
81	0x3cef5a43	0.029217845
82	0xbe21a16f	-0.15784238
83	0x3e5d84f3	0.21632747
84	0x3c9555a8	0.01822932
85	0xbe8e481a	-0.27789384
86	0xbc7ada76	-0.015310874
87	0xbe7ab0b6	-0.24481472
88	0x3e45cdb1	0.19316746
89	0x3e2c3ea2	0.16820768
90	0xbe44aafe	-0.19205853
91	0x3e8616ca	0.26189262
92	0x3d8c12ae	0.068395
93	0xbd77bf40	-0.060485125
94	0xbd5af27e	-0.053453915
95	0xbc200ba6	-0.009768402
96	0xbe262c4c	-0.16227835
97	0xbdfa0027	-0.1220706
98	0x3bd255ef	0.0064189355
99	0xbdb47b1d	-0.088125445
100	0x3b7b170e	0.0038313302
101	0xbe0018f0	-0.12509513
102	0xbe0b124e	-0.13581201
103	0xbe019832	-0.12655714
104	0x3e0b77bd	0.13619895
105	0xbeb267aa	-0.34844714
106	0x3d48c170	0.0490126
107	0xbd0fd763	-0.03511752
108	0x3e893709	0.267998
109	0x3dab6b7d	0.08370111
110	0xbe058444	-0.13038737
111	0x3dae1f6a	0.085020855
112	0x3d941cce	0.072320566
113	0xbe563978	-0.2092036
114	0xbca9a3b0	-0.020707935
115	0x3c90e903	0.017689234
116	0xbdea1c54	-0.114311844
117	0x3d04094e	0.032235436
118	0x3e56637e	0.20936391
119	0xbdceb301	-0.10092736
120	0xbcd4d780	-0.025981665
121	0xbd86d5d5	-0.06583754
122	0xbdd66b93	-0.10469737
123	0x3edcc02e	0.4311537
124	0x3e32dd7a	0.17467299
125	0xbc2562da	-0.010094369
126	0xbd94df81	-0.072691925
127	0xbe190465	-0.14943083
128	0xbe44d87c	-0.19223207
129	0xbe347efa	-0.17626563
130	0xbe57273d	-0.21011062
131	0xbd151b8b	-0.03640322
132	0x3d34db61	0.04415453
133	0x3cb95aaf	0.02262625
134	0xbd1bfdc9	-0.038083825
135	0xbe586b8d	-0.21134777
136	0xbe29e3ae	-0.16590759
137	0x3da2db03	0.079519294
138	0x3e281339	0.16413583
139	0x3cf55e7c	0.02995228
140	0xbe2317c1	-0.1592703
141	0xbe101957	-0.14072166
142	0xbdb82065	-0.08990554
143	0x3d479022	0.04872144
144	0xbe4f65dd	-0.20253702
145	0xbdfbed45	-0.12301115
146	0xbbd055fe	-0.0063579073
147	0xbeaaed9f	-0.33384416
148	0x3beb5300	0.007181525
149	0xbe5f3f50	-0.21801496
150	0x3cf63fc0	0.030059695
151	0xbd1f30cd	-0.0388649
152	0x3e40bb06	0.18821344
153	0xbd515701	-0.051108364
154	0xc0b23024	-5.5683765
155	0xbe45a284	-0.19300276
156	0x3c90b080	0.017662287
157	0x3e1b777b	0.15182297
158	0x3c938391	0.018007072
159	0xbc26a42e	-0.010170979
160	0xbdef20d1	-0.11676181
161	0xbc903fad	-0.017608488
162	0xbc6578b2	-0.014005827
163	0x3d87c91e	0.06630157
164	0x3e8c062f	0.27348468
165	0x3d9b18e7	0.07573109
166	0xbebdad48	-0.37046266
167	0x3c373f50	0.0111845285
168	0xbdaf1f4c	-0.08550891
169	0xbd508bca	-0.050914563
170	0x3da3cd3a	0.07998128
171	0xbd4807b5	-0.048835475
172	0x3d9c8b7b	0.07643791
173	0xbe8ee236	-0.2790696
174	0x3dd14df9	0.1021995
175	0x3d2b101b	0.041763406
176	0xbc05526d	-0.008137328
177	0xbda5931c	-0.080846995
178	0xbe07718f	-0.13226913
179	0xbe1c598d	-0.15268536
180	0x3bd53ca6	0.006507474
181	0x3e39a667	0.18129884
182	0x3ee3fb52	0.4452768
183	0x3e5429a9	0.20719017
184	0xbe35939a	-0.17732087
185	0x3d209403	0.039203655
186	0x3cced09d	0.025245959
187	0x3d8bc0ea	0.06823905
188	0x3c9fe88b	0.019520065
189	0x3b4d6305	0.0031339538
190	0x3e95cc17	0.2925727
191	0xbc86d6ec	-0.016459905
192	0x3da5fc07	0.08104711
193	0x3e61a60b	0.22035997
194	0x3d9c4c43	0.07631733
195	0xbdfe14ea	-0.12406333
196	0xbd73a81b	-0.05948649
197	0xbe1919b9	-0.14951219
198	0xbcfebb28	-0.031095102
199	0xbda9f2b3	-0.08298244
200	0x3cbab393	0.022790706
201	0x3e2feb12	0.17179516
202	0x3d2d1380	0.042254925
203	0xbcce1046	-0.025154244
204	0x3c963344	0.018334992
205	0x3e171f67	0.14758073
206	0x3e1fd895	0.15609963
207	0xbe39d896	-0.18149027
208	0x3d063a17	0.032770243
209	0xbd786524	-0.06064333
210	0xbc40047a	-0.011719817
211	0xbb841314	-0.0040305946
212	0x3deca0bb	0.115540944
213	0x3d83b4e1	0.06430984
214	0xbe7dbd39	-0.24779214
215	0xbdc69c30	-0.09697759
216	0x3d7e6925	0.062111992
217	0x3cefe05e	0.029281791
218	0xbf2a2928	-0.6646905
219	0x3ddfc3b8	0.10926002
220	0x3c346721	0.011010916
221	0xbdbb823c	-0.091556996
222	0xbe35c4d8	-0.17750871
223	0x3d22c804	0.03974153
224	0x3da6efab	0.08151182
225	0xbda6dbb4	-0.08147374
226	0xbe59c35d	-0.21265931
227	0xbe7f80b4	-0.2495144
228	0xbe25bada	-0.1618456
229	0xbd867cb9	-0.06566758
230	0xbe474be4	-0.19462544
231	0xbdf35691	-0.118817456
232	0x3c3ec3be	0.011643348
233	0x3d08c22e	0.03338831
234	0x3d840d35	0.064478315
235	0xba6f8fbb	-0.0009138544
236	0x3da425d3	0.08015027
237	0xbe16aac6	-0.14713582
238	0x3dc93bc5	0.09825853
239	0x3d1fa404	0.038974777
240	0xbd0b9f12	-0.03408725
241	0xbe6d8d6b	-0.23198478
242	0x3cd034fc	0.02541589
243	0x38a6fb44	7.962299e-05
244	0xbe20ff4a	-0.15722385
245	0xbbde8b07	-0.0067914757
246	0x3d3c0df7	0.045911755
247	0x3dc7c3d6	0.097541496
248	0xba49c55e	-0.00076969515
249	0x3d149ed3	0.03628428
250	0xbcbecf73	-0.023292279
251	0xbb34c6a5	-0.0027584222
252	0x3e2ae4bc	0.16688818
253	0x3dcbdd2a	0.09954293
254	0xbe8d1b40	-0.27559853
255	0x3e27fa5d	0.164041

critic.2.bias f4 [128]
0	0x3e143a2d	0.14475317
1	0xbd9c42d2	-0.076299325
2	0xbd9deb92	-0.07710947
3	0x3db50801	0.08839417
4	0x3dd734fd	0.105081536
5	0x3df2a68a	0.11848171
6	0xbe244345	-0.16041286
7	0xbd332ea9	-0.04374567
8	0xbdc3f008	-0.09567267
9	0xbca18f95	-0.019721786
10	0xbee471bc	-0.44618022
11	0x3e189963	0.14902262
12	0x3d500d88	0.050794154
13	0x3d9e90ea	0.07742484
14	0x3e48529c	0.19562763
15	0x3cf838bd	0.030300492
16	0xbdad35cd	-0.08457527
17	0x3db2b642	0.08726169
18	0x3e381eb6	0.17980465
19	0xbd1d229d	-0.038363088
20	0x3e15d0c5	0.1463042
21	0xbdf9f468	-0.1220482
22	0xbe0aa635	-0.13539965
23	0xbddd651c	-0.10810301
24	0xbdc3b717	-0.09556406
25	0xbdfc28c1	-0.12312461
26	0x3d6b635c	0.057467803
27	0x3c80d629	0.01572712
28	0x3d16fa4f	0.036859807
29	0xbd325c3a	-0.043544985
30	0xbe95a40a	-0.29226714
31	0xbec4e897	-0.38458702
32	0x3dd3c893	0.10340991
33	0x3b8b8660	0.004257962
34	0x3ca3354a	0.019922871
35	0xbd01aadd	-0.03165709
36	0x3e59dcc6	0.21275625
37	0x3df5b278	0.11996931
38	0x3da6a3aa	0.08136685
39	0xbcb6f77e	-0.02233481
40	0xb9eef47c	-0.00045577053
41	0xbd65997f	-0.05605459
42	0x3cb6bdfd	0.02230739
43	0xbdb90c98	-0.09035605
44	0xbc15c62d	-0.009141487
45	0xbdcb7588	-0.09934527
46	0x3d821411	0.063514836
47	0xbdfb6d6c	-0.1227673
48	0xbd512548	-0.051060945
49	0xbb78ade2	-0.003794544
50	0x3bf5543b	0.0074868477
51	0xbd63f0d3	-0.05564959
52	0xbde524c0	-0.1118865
53	0x3ccbf394	0.02489642
54	0xbdc7f1a5	-0.09762887
55	0xbe1c7671	-0.15279557
56	0x3d91da97	0.07121771
57	0x3d772676	0.060339414
58	0x3db805f6	0.08985512
59	0xbd980aca	-0.07423933
60	0xbdca2ef4	-0.09872237
61	0xbdf2fdea	-0.118648365
62	0xbe261cb7	-0.16221891
63	0xbe7eb628	-0.24874175
64	0xbe6e00f5	-0.23242553
65	0xbe32be4e	-0.17455408
66	0x3dc8b501	0.09800149
67	0xbdf95f76	-0.12176411
68	0xbe3bc9eb	-0.18338744
69	0x3dd8043d	0.105476834
70	0xbb8ccb76	-0.0042967154
71	0xbc33068c	-0.010926854
72	0x3d5b1e01	0.05349541
73	0x3da10563	0.078623556
74	0xbc0db258	-0.0086484775
75	0xbd8e6d93	-0.069544934
76	0x3df209e4	0.11818293
77	0xbd0fb47b	-0.03508423
78	0xbc9ed4de	-0.019388612
79	0xbd519131	-0.051163856
80	0xbe168b31	-0.14701535
81	0xbd96a5ce	-0.073558435
82	0xbd102f5b	-0.03520141
83	0x3d7630c4	0.0601051
84	0x3ddd262e	0.10798298
85	0x3e5a0e06	0.21294412
86	0x3dd85cdc	0.105645865
87	0xbdf696fd	-0.120405175
88	0xbd1ee235	-0.038789947
89	0xbba8eaf6	-0.0051549627
90	0xbe1b905e	-0.1519179
91	0xbd357bc4	-0.044307485
92	0x3e2669a7	0.1625124
93	0xbdc37734	-0.095442206
94	0xbd920b85	-0.071311034
95	0xbdb6eaeb	-0.08931526
96	0x3de72681	0.11286641
97	0xbd801abd	-0.062551
98	0x3d14745a	0.036243774
99	0x3d0dc4d9	0.034611557
100	0x3d5388ea	0.051644243
101	0x3be1ddfb	0.006892917
102	0xbddb67a4	-0.10713127
103	0xbd3ea5a7	-0.046544697
104	0x3bb11bf8	0.0054049455
105	0x3bc64d18	0.0060516708
106	0xbce2dc8f	-0.027693061
107	0x3e33d9a7	0.17563497
108	0xbd782855	-0.06058534
109	0x3d050847	0.032478597
110	0x3e0a2ef1	0.13494469
111	0x3db991e7	0.09061032
112	0x3d7b8aa8	0.06141153
113	0x3d06c896	0.032906137
114	0x3df9a4e7	0.12189656
115	0x3c4c48b0	0.012468502
116	0x3d9acefa	0.07559009
117	0x3e4f1957	0.2022451
118	0x3e02e5f7	0.12783037
119	0xbe04fa33	-0.12986068
120	0x3e2e41a3	0.17017226
121	0x3d36b5b0	0.044606864
122	0xbda168af	-0.07881295
123	0xbd07c72c	-0.03314893
124	0xbd8930b9	-0.06698746
125	0xbcc45f3e	-0.023971196
126	0x3db2f18b	0.08737477
127	0x3e08ec97	0.13371502

critic.4.weight f4 [1, 128]
0	0x3eb09357	0.3448741
1	0xbd1b45fb	-0.037908535
2	0x3eb0a011	0.3449712
3	0xbe44d9f0	-0.19223762
4	0x3e84602b	0.2585462
5	0xbcad3b74	-0.021146514
6	0xbe30bf4e	-0.17260477
7	0xbec15b9f	-0.37765214
8	0x3e979136	0.29602975
9	0xbe4e707e	-0.201601
10	0xbf90f374	-1.1324296
11	0xbe97f68c	-0.29680288
12	0xbda9e321	-0.082952745
13	0x3dfe446b	0.124153934
14	0x3ee26a62	0.4422179
15	0xbebc5816	-0.36785954
16	0x400a4a97	2.1608026
17	0x3dd5af15	0.10433785
18	0x3eaf43f7	0.3423154
19	0x3e1758a4	0.14779907
20	0x3f764b57	0.9620871
21	0x3e8fdfe6	0.28100508
22	0x3e5116b5	0.20418818
23	0xbf111552	-0.5667316
24	0x3ec63d1a	0.38718492
25	0x3f871ebc	1.0556254
26	0x3ea41341	0.3204594
27	0xbdd1a26c	-0.10236058
28	0xbd8b4f03	-0.0680218
29	0x3e9667ed	0.29376164
30	0x3f113059	0.567144
31	0x3f0fea85	0.56217223
32	0x3ead7d34	0.33884585
33	0xbe9a5af9	-0.30147532
34	0x3f1e6964	0.61879563
35	0x3eb15b07	0.3463976
36	0x3e30548f	0.17219757
37	0xbdecf0da	-0.11569376
38	0xbe088d75	-0.13335212
39	0x3f844e93	1.0336479
40	0x3da1d992	0.07902826
41	0x3e8d1f5a	0.27562982
42	0x3e679935	0.22617038
43	0x3fc02ec5	1.5014273
44	0x3d6a6b57	0.057231274
45	0x3f394cda	0.7238289
46	0xbd4f433a	-0.05060122
47	0x3eab8d10	0.3350606
48	0x3f8c4940	1.0959854
49	0xbe2aa885	-0.16665848
50	0x3f10e0f0	0.5659323
51	0x3f20ccae	0.62812316
52	0xbeaded7d	-0.33970252
53	0x3d9d2053	0.07672181
54	0x3f1077db	0.56432885
55	0xbef27a68	-0.47359014
56	0x3f2f0649	0.68368965
57	0x3ee0dad9	0.43916968
58	0x3e8099cf	0.25117347
59	0x3f22d6ef	0.6360921
60	0xbde397e5	-0.11112956
61	0x3eb2b6d3	0.3490511
62	0x3f697ca0	0.9120579
63	0x3f89f90a	1.0779126
64	0x3f669875	0.9007638
65	0x3ebc15ea	0.3673547
66	0xbefd5d10	-0.49485064
67	0x3f3aafa4	0.72924256
68	0x3e688c95	0.22709878
69	0x3ea10e38	0.3145616
70	0x3eef3ce4	0.46726143
71	0xbe13288c	-0.14370936
72	0x3e15ce31	0.14629437
73	0x3ee398de	0.44452566
74	0x3f0caa5b	0.5494744
75	0x3fbfd04e	1.4985445
76	0x3f0143f7	0.5049433
77	0xbf5c7e28	-0.8613
78	0xbe24df9c	-0.16100925
79	0x3f5c5ba7	0.8607735
80	0xbe7f0d94	-0.24907523
81	0x3cc025c2	0.023455504
82	0x3fba2970	1.4543896
83	0xbd84424d	-0.06457958
84	0x3f09f977	0.5389628
85	0x3ee3a86b	0.4446443
86	0x3f40b576	0.7527689
87	0x3dbec8b5	0.093156256
88	0xbd8beb73	-0.06832018
89	0xbd94f148	-0.07272583
90	0x3f10dbcb	0.5658538
91	0xbdf329e5	-0.11873225
92	0xbef9f4b2	-0.488195
93	0xbfcabff3	-1.5839828
94	0xbe523e25	-0.20531519
95	0xbf52d5b8	-0.8235736
96	0xbef49d80	-0.47776413
97	0xbdff3bad	-0.12462554
98	0x3ed715a8	0.4200871
99	0xbedb971c	-0.42888725
100	0x3f1885f5	0.595794
101	0xbe24b3e9	-0.16084255
102	0xbe9b84d2	-0.3037477
103	0x3dec443c	0.11536452
104	0x3d2dfe29	0.042478714
105	0xbdd38ad3	-0.10329213
106	0x3dcad4dd	0.09903882
107	0xbf07f30a	-0.53105223
108	0x3dd10426	0.102058694
109	0x3e0d1ed0	0.13781285
110	0x3edf8861	0.43658736
111	0x3e5d27e6	0.21597251
112	0xbe2dbff1	-0.16967751
113	0x3e0727d5	0.13198788
114	0x3fcbe21a	1.5928376
115	0xbf123e45	-0.57126266
116	0xbebfcb81	-0.3745995
117	0x3ea4d818	0.32196116
118	0xbe977fba	-0.29589635
119	0x3fd8255a	1.6886399
120	0x3f1246f4	0.57139516
121	0x3de52e35	0.11190454
122	0xbdcdab9c	-0.100424975
123	0xbf5fe195	-0.87453586
124	0x3c6f0034	0.014587451
125	0x3fe7292e	1.8059442
126	0xbe7ff33d	-0.24995132
127	0xbe02d588	-0.12776768

actor.0.weight f4 [256, 48]
0	0x3e424526	0.1897169
1	0x3dda5d12	0.10662283
2	0xbe013aa0	-0.1262002
3	0x3d8d894f	0.06910955
4	0x3e5145d9	0.20436801
5	0xbdec57dd	-0.11540196
6	0x3e1a2715	0.15053971
7	0xbc851b69	-0.016248422
8	0x3c89ce19	0.016821908
9	0x3ec9ced9	0.39415625
10	0x3d3731bf	0.044725176
11	0xbe0ef634	-0.13961107
12	0x3e8257c4	0.25457585
13	0x3e22d4ad	0.15901442
14	0xbda4dd0f	-0.08049976
15	0xbce2f075	-0.02770255
16	0x3dc2c2ed	0.095098354
17	0xbdb8c170	-0.0902127
18	0x3e866a3c	0.26252925
19	0xbd665e18	-0.05624208
20	0xbd81254b	-0.06305941
21	0x3e46d622	0.19417623
22	0x3e6ded04	0.23234946
23	0xbdef67c1	-0.11689711
24	0x3e55897a	0.20853224
25	0x3c9dcdf0	0.019263238
26	0xbdff3cc2	-0.124627605
27	0xbd22cfd4	-0.03974898
28	0x3e2d76ed	0.16939898
29	0xbd0282de	-0.031863086
30	0xbdcd9ef1	-0.10040081
31	0xbe0681a4	-0.13135391
32	0x3c5ec612	0.013597028
33	0x3e9ea708	0.3098681
34	0xbdc412a2	-0.095738664
35	0xbdc86d07	-0.0978642
36	0x3e7a876b	0.2446572
37	0x3dcd394f	0.10020696
38	0xbddc469f	-0.107556574
39	0xbded7752	-0.11595024
40	0x3e7b2bda	0.24528447
41	0xbe023128	-0.12714064
42	0x3cdda818	0.027057692
43	0xbde97ead	-0.114011146
44	0xbe8fadd3	-0.28062305
45	0x3e2d4988	0.16922581
46	0xbe27fae2	-0.16404298
47	0x3c86a937	0.01643811
48	0x3e739ece	0.23791048
49	0x3ea55e6e	0.32298607
50	0x3e37b866	0.17941436
51	0xbe3d3d20	-0.18480349
52	0xbcece48f	-0.028917579
53	0x3d704c6f	0.058666643
54	0xbdb2092d	-0.086931564
55	0xbd6f0fa7	-0.058364537
56	0xbdf43dab	-0.11925825
57	0x3c62dac3	0.013846102
58	0x3c14e098	0.00908675
59	0xbbe93f44	-0.0071181376
60	0x3e3a471e	0.18191192
61	0x3ead0d8c	0.33799398
62	0x3e8d8c83	0.27646264
63	0x3d057c2e	0.03258913
64	0xbe63aded	-0.22234316
65	0xbe303818	-0.17208898
66	0xbc9834c0	-0.01857984
67	0x3ce496b2	0.027903888
68	0xbe0c8974	-0.13724309
69	0xbd869616	-0.06571595
70	0xbe13b473	-0.14424305
71	0x3d6a35cb	0.057180207
72	0x3e92a8e0	0.28644466
73	0x3e99affc	0.30017078
74	0x3e9d8b8c	0.30770528
75	0x3dea49f1	0.114398845
76	0xbe1d39dc	-0.15354103
77	0xbdcbc50c	-0.09949693
78	0xbd716f08	-0.05894378
79	0x3d1a283f	0.037636038
80	0xbe7a2160	-0.24426794
81	0x3d92a4ab	0.07160314
82	0xbe583329	-0.21113266
83	0xbc1f0ec7	-0.009708113
84	0x3ed00341	0.40627483
85	0x3e94ff57	0.2910106
86	0x3e909b92	0.2824369
87	0xbd62b9a0	-0.055352807
88	0xbe9938f2	-0.29926258
89	0xbcd9d202	-0.026589397
90	0xbc4ccd52	-0.012500124
91	0x3c9876ad	0.018611277
92	0xbeb1a97f	-0.34699628
93	0x3e224328	0.1584593
94	0xbe420658	-0.18947732
95	0x3e79f53c	0.24409956
96	0xbed7ab0b	-0.42122683
97	0x3ca1f50f	0.019770173
98	0xbda62469	-0.081124134
99	0xb9858857	-0.00025469318
100	0x3da22313	0.07916846
101	0x3df39854	0.11894289
102	0xbd6c1104	-0.057633415
103	0x3d41c895	0.04731043
104	0x3d329473	0.043598603
105	0xbe8ce2a9	-0.27516678
106	0x3c8219d5	0.015881458
107	0xbe3cb21a	-0.18427315
108	0xbef3bc72	-0.4760471
109	0xbd8f818e	-0.070071325
110	0x3ae2dfe7	0.001730916
111	0xbe55e5bb	-0.20888416
112	0x3d4ad4d5	0.04951938
113	0x3da1ad86	0.07894425
114	0x3ce9dc46	0.028547417
115	0xbdcedeae	-0.101010665
116	0x3dbe5adf	0.09294676
117	0xbe3139a0	-0.17307138
118	0x3e06cb20	0.13163424
119	0xbd63a729	-0.05557934
120	0xbe9eae95	-0.3099257
121	0xbdf4b2bc	-0.119481534
122	0x3ce98dc9	0.028509991
123	0xbdb096e3	-0.08622529
124	0x3d747079	0.059677575
125	0xbc7a3f11	-0.015273825
126	0xbba84a13	-0.0051357835
127	0xbda31e74	-0.07964793
128	0x3e5409fa	0.20706931
129	0xbeca3161	-0.39490798
130	0xbd7b202d	-0.061309982
131	0xbe1b295a	-0.15152493
132	0xbead67ef	-0.33868358
133	0x3d344226	0.044008397
134	0xbdf6e4ae	-0.12055336
135	0x3dd7a454	0.1052939
136	0xbc96f25d	-0.018426115
137	0xbd4cd0e8	-0.050003916
138	0x3e18e83a	0.14932337
139	0xbd116368	-0.03549519
140	0x3d7be843	0.0615008
141	0xbe8bda3f	-0.27314946
142	0x3e0772be	0.13227364
143	0xbe5801f8	-0.21094501
144	0xbe681619	-0.2266468
145	0xbd13fb2c	-0.036128208
146	0x3dbbb462	0.09165265
147	0xbd3ff82e	-0.046867542
148	0x3c4b6d92	0.01241626
149	0xbda90cb5	-0.08254377
150	0xbd36b36b	-0.0446047
151	0xbd3b5327	-0.045733597
152	0x3e4443d3	0.19166498
153	0xbdc60fb1	-0.09670962
154	0xbdc567d3	-0.096389435
155	0x3e886ba8	0.26644635
156	0xbe51dace	-0.20493624
157	0x3d8a9d17	0.06768244
158	0x3d4d3f08	0.05010894
159	0xbe35e683	-0.17763714
160	0xbd9dce2d	-0.077053405
161	0x3e11f0a1	0.14251949
162	0xbd2bf1ff	-0.041978832
163	0xbdef9da3	-0.11699989
164	0xbc6d5949	-0.014486619
165	0xbd96cbf9	-0.073631234
166	0x3db89dc0	0.090144634
167	0x3ed18875	0.4092442
168	0xbe0ee3fd	-0.13954158
169	0x3c333183	0.0109370975
170	0x3e03e22e	0.1287925
171	0x3d19fa96	0.037592493
172	0xbe0ab2b5	-0.13544734
173	0x3dadc215	0.08484284
174	0xbc6fcbc0	-0.01463598
175	0x3d99bb06	0.07506375
176	0x3e336fb1	0.17523076
177	0x3def0ce9	0.11672384
178	0x3e0efd4f	0.13963817
179	0x3ed20f63	0.41027364
180	0xbde58d96	-0.11208646
181	0x3dd7ff47	0.10546737
182	0xbd4e478d	-0.050361205
183	0xbd336621	-0.04379857
184	0xbdecb1ed	-0.11557374
185	0xbbfc71fb	-0.007704017
186	0x3e4905ea	0.19631162
187	0x3d9e87ee	0.0774077
188	0x3e1bd804	0.15219122
189	0x3e0c3f9c	0.1369614
190	0x3d8f82e4	0.07007387
191	0x3f0a0d63	0.53926677
192	0x3d6e9ba6	0.058253907
193	0xbdc6c0c6	-0.09704737
194	0x3db52f63	0.08846929
195	0x3df09450	0.11747038
196	0xbdffcff8	-0.12490839
197	0x3d99d54c	0.07511386
198	0x3d024ec7	0.03181341
199	0xbd63316f	-0.055467065
200	0x3d673223	0.0564443
201	0xbde378c1	-0.11107016
202	0xbc8b3a6e	-0.016995635
203	0xbcd27020	-0.025688231
204	0x3de59321	0.11209703
205	0xbe167d22	-0.14696172
206	0xbc366968	-0.011133529
207	0x3e0bd914	0.13657027
208	0x3d9a4098	0.075318515
209	0xbdc09447	-0.09403282
210	0x3cc2e024	0.02378852
211	0x3d96a005	0.0735474
212	0xbca498d4	-0.020092405
213	0xbd956dcb	-0.07296332
214	0x3c35fd6d	0.011107785
215	0x3ceda9be	0.029011603
216	0xbd5a8fa0	-0.053359628
217	0x3c6ff716	0.014646312
218	0xbd298b5f	-0.04139268
219	0xbc4c0873	-0.012453186
220	0xbe162542	-0.1466265
221	0xbe151ef0	-0.14562583
222	0x3ca31729	0.019908505
223	0x3d184382	0.037173755
224	0xbdabb994	-0.083850056
225	0xbe1b7e3a	-0.1518487
226	0x3ce6468a	0.028109808
227	0xbc75045b	-0.014954652
228	0xbbcbb5e0	-0.0062167495
229	0x3df2bc6e	0.11852346
230	0x3e03a33d	0.12855239
231	0x3d819474	0.06327143
232	0xbc9e9493	-0.019357955
233	0x3d001a61	0.031275157
234	0x3d284b53	0.04108746
235	0xbe05d58a	-0.1306974
236	0x3dc7a1bf	0.097476475
237	0xbc5f17a2	-0.013616474
238	0x3dbe06b9	0.09278626
239	0x3dd9bf33	0.106321715
240	0x3d471949	0.0486081
241	0x3e053c8c	0.13011378
242	0x3e47e1c7	0.19519721
243	0x3ddd628a	0.108098105
244	0x3c62da82	0.013846042
245	0x3c24699b	0.010034944
246	0x3daab2a7	0.083348565
247	0xbe6038c6	-0.21896657
248	0x3e9f81b8	0.31153655
249	0x3e7d5177	0.24738108
250	0x3dd33459	0.10312719
251	0x3d832dfb	0.064052545
252	0x3d717be1	0.05895603
253	0x3d11d181	0.03560019
254	0x3e962418	0.29324412
255	0xbdc610ce	-0.09671174

actor.0.bias f4 [256]
0	0xbe2a7603	-0.1664658
1	0x3deb8a57	0.115009956
2	0xbd8c9cae	-0.06865822
3	0xbd3a7f15	-0.04553135
4	0xbdc69591	-0.09696496
5	0x3c11f858	0.008909307
6	0xbc6d27b3	-0.014474797
7	0x3d75a81f	0.059974786
8	0xbdad8ac5	-0.08473734
9	0xbe4322b0	-0.19056201
10	0x3da086f9	0.07838244
11	0x3d8b4df5	0.068019785
12	0x3e7129f1	0.23551156
13	0x3e231c71	0.15928818
14	0xbd780e61	-0.060560588
15	0xbda8add7	-0.08236282
16	0xbe6083b4	-0.21925241
17	0xbd87db87	-0.066336684
18	0x3ad6593c	0.0016353498
19	0xbda1399b	-0.078723155
20	0xbe24fd50	-0.16112256
21	0x3c948a20	0.01813227
22	0xbd9375d4	-0.07200208
23	0xbe3105ab	-0.17287318
24	0xbe46ee1b	-0.19426768
25	0x3d8a39f0	0.06749332
26	0xbe043476	-0.12910637
27	0x3dca3361	0.09873081
28	0xbd3a5ffb	-0.04550169
29	0xbe9bd2e4	-0.30434334
30	0xbd1660e0	-0.03671348
31	0x3dccf17f	0.10006999
32	0xbd3c1f7e	-0.04592847
33	0x3dbb9374	0.09158984
34	0x3d058520	0.03259766
35	0x3e0f7180	0.1400814
36	0xbeb8dd73	-0.36106452
37	0x3c146742	0.009057822
38	0x3e4daba3	0.20085005
39	0x3da45568	0.080241024
40	0xbe07e7b0	-0.13271976
41	0x3d817042	0.063202396
42	0xbd365d7d	-0.04452275
43	0xbde25ad9	-0.11052484
44	0x3db5b35d	0.088721015
45	0x3e553965	0.20822676
46	0x3e1bf512	0.15230206
47	0xbc9c8a0b	-0.019108793
48	0x3df34f5f	0.11880373
49	0x3dacac0a	0.08431251
50	0x3dcf3f4b	0.10119494
51	0xbdc2a654	-0.09504381
52	0xbdab0202	-0.08349992
53	0x3e04789d	0.12936635
54	0x3c998b0c	0.01874306
55	0xbd903e89	-0.07043178
56	0xbe1c0610	-0.15236688
57	0xbd49afb9	-0.049239848
58	0x3ddd6dd1	0.108119614
59	0xbe174221	-0.1477132
60	0x3e5d8ce9	0.21635784
61	0x3b20e36c	0.0024549617
62	0xbd21e40c	-0.039524123
63	0xbb55d977	-0.003263084
64	0x3e11852a	0.14210954
65	0xbea0ce1e	-0.31407255
66	0x3da0e820	0.07856774
67	0xbde63651	-0.11240829
68	0x3c3fb00d	0.011699689
69	0x3d308a20	0.043100476
70	0xbde952c9	-0.11392743
71	0xbdb79255	-0.089634575
72	0xbe6c0c6c	-0.23051614
73	0x3dadecd1	0.08492435
74	0x3d852162	0.06500508
75	0x3dd5fd36	0.10448687
76	0x3e04032a	0.12891832
77	0x3d81b263	0.06332853
78	0x3e1676a9	0.14693703
79	0x3de0a7d0	0.10969508
80	0x3cb714a8	0.022348717
81	0x3c576c84	0.013148431
82	0x3e11b37f	0.14228629
83	0xbdb83163	-0.08993795
84	0x3d251323	0.040301453
85	0x3d9114ed	0.070840694
86	0xbce88936	-0.02838574
87	0xbdf83d90	-0.12121117
88	0xbe72a85e	-0.2369704
89	0xbd9687c0	-0.07350111
90	0x3cf0fa85	0.029416332
91	0xbd6a04c7	-0.057133462
92	0xbdb4ec13	-0.0883409
93	0xbcb34d4e	-0.021887448
94	0xbd6c1195	-0.057633955
95	0xbdeb325c	-0.11484215
96	0x3e158c1f	0.14604233
97	0x3e23d5e8	0.15999568
98	0x3dd0ce5e	0.101956114
99	0xbe3e5a23	-0.18589072
100	0x3df0152b	0.117227875
101	0x3dc04a7e	0.09389208
102	0xbdc11728	-0.09428245
103	0xbd64ef95	-0.055892546
104	0x3db4b289	0.088231154
105	0xbccb6197	-0.024826808
106	0x3dc66cab	0.096886955
107	0xbd5f2533	-0.054478835
108	0x3e35e47c	0.17762941
109	0xbc8516aa	-0.016246159
110	0xbded8f4d	-0.11599598
111	0x3ceef2e1	0.029168548
112	0x3e58308f	0.21112274
113	0xbd2ad6a8	-0.04170862
114	0xbdc2d16a	-0.09512599
115	0x3b63ceca	0.0034760707
116	0xbe3f05d1	-0.18654563
117	0xbd3e494e	-0.046456628
118	0x3df2e01c	0.11859152
119	0xbe3d175e	-0.18465945
120	0x3b57c5d2	0.0032924307
121	0xbcc040a2	-0.02346832
122	0x3dc1fa9e	0.094716296
123	0xbe152e7b	-0.14568512
124	0xbcfbd4ba	-0.030741084
125	0x3ddc545f	0.1075828
126	0xbe3c0eb8	-0.1836499
127	0xbe26643c	-0.16249174
128	0xbe01b1b6	-0.12665448
129	0xbe4222fd	-0.1895866
130	0x3db340d2	0.08752598
131	0x3e17413b	0.14770977
132	0xbda84a76	-0.08217327
133	0x3d7ab7e9	0.061210547
134	0x3d09fbae	0.033687286
135	0x3d31fecf	0.043455895
136	0xbc92738b	-0.01787736
137	0x3e9bf9b0	0.30463934
138	0x3c4b7566	0.012418127
139	0x3e10a527	0.141255
140	0xbd0a295e	-0.033730857
141	0xbd846524	-0.064646035
142	0x3d91cfd3	0.071197174
143	0x3e15a5a2	0.14613965
144	0x3b728d91	0.003701065
145	0x3db30d42	0.08742763
146	0x3e24fa27	0.1611105
147	0x3e30cdf7	0.1726607
148	0x3d705849	0.058677945
149	0xbd812d56	-0.06307475
150	0x3da29726	0.079389855
151	0x3e5dafc3	0.21649079
152	0xbddfd8fe	-0.1093006
153	0x3e02d391	0.12776019
154	0xbe1d3ec7	-0.15355979
155	0x3d156820	0.036476254
156	0xbe15e812	-0.14639309
157	0xbd4e0427	-0.05029693
158	0x3e88c5c5	0.26713386
159	0xbdbb10d3	-0.09134068
160	0x3e92d007	0.28674337
161	0x3c2732d8	0.010204993
162	0x3d5dc656	0.054144226
163	0x3e6eda02	0.23325351
164	0xbd7d1f11	-0.061797205
165	0x3d008630	0.03137797
166	0xbe093ae6	-0.13401374
167	0xbd707617	-0.05870637
168	0x3d92d881	0.07170201
169	0xbd411bdb	-0.047145706
170	0xbe6af51f	-0.22945069
171	0xbd3a344f	-0.04546004
172	0x3ca90cd2	0.020635996
173	0x3dc3290e	0.09529315
174	0xbdcdc760	-0.100477934
175	0xbc877bcb	-0.016538521
176	0x3e806af4	0.250816
177	0x3e7c0fff	0.24615477
178	0xbe747af6	-0.23875031
179	0xbe20eb51	-0.15714766
180	0xbbf65193	-0.0075170486
181	0xbd4af319	-0.049548242
182	0xbc913566	-0.017725658
183	0xbdf0255b	-0.11725875
184	0x3d3d85f0	0.04627031
185	0xbd8a359b	-0.06748506
186	0xbdc5f22d	-0.09665332
187	0x3e46d4d5	0.19417126
188	0x3e014eee	0.12627766
189	0xbd9cda3d	-0.07658813
190	0x3df8fe90	0.12157929
191	0xbdd6dbae	-0.10491119
192	0xbd43d374	-0.04780908
193	0x3dcf1e30	0.1011318
194	0xbe1699ea	-0.14707151
195	0x3df73b51	0.120718606
196	0xbb921b39	-0.0044588116
197	0xba694c15	-0.0008899582
198	0x3e7658c6	0.24057302
199	0x3d9325c5	0.07184938
200	0xbe4be3b1	-0.19911076
201	0x3e718b8d	0.2358839
202	0x3c2ac2f5	0.010422458
203	0x3e19e662	0.1502929
204	0xbc420494	-0.011841912
205	0x3e8a79c6	0.2704603
206	0xbe538d36	-0.20659336
207	0x3d831337	0.06400149
208	0x3dbc1374	0.09183398
209	0xbdb0cfe7	-0.08633404
210	0x3b65fef4	0.003509459
211	0xbde1b094	-0.11020008
212	0xbe3570c7	-0.17718802
213	0x3e338b9f	0.1753373
214	0xbd5bee11	-0.053693835
215	0xbd82c8f3	-0.06385984
216	0xbe0f0a5c	-0.13968796
217	0xbd486e32	-0.048933215
218	0xbe57ac44	-0.21061808
219	0xbd80e540	-0.06293726
220	0xbd63e559	-0.055638645
221	0x3e1d8dfa	0.15386191
222	0x3d715f79	0.05892894
223	0x3dafd525	0.08585576
224	0xbd44682c	-0.04795091
225	0x3c3f697d	0.011682865
226	0x3b360436	0.0027773506
227	0x3da2cd99	0.07949371
228	0xbe61d5b2	-0.22054175
229	0xbdf41f46	-0.119200274
230	0x3d77f835	0.060539443
231	0xbe52ef67	-0.20599137
232	0xbe17a361	-0.14808418
233	0x3c86bf30	0.016448587
234	0xbda71d84	-0.081599265
235	0xbe2d4548	-0.1692096
236	0xbd0b72ab	-0.034044903
237	0xbe1ec3e9	-0.15504421
238	0x3d9ebdfa	0.07751079
239	0xbd452937	-0.04813501
240	0x3cde2637	0.027117832
241	0x3d023d6c	0.031796858
242	0x3dbbaec9	0.09164197
243	0x3deac9d4	0.11464277
244	0x3d1d4546	0.038396142
245	0x3cb3cfbd	0.021949643
246	0x3da250da	0.079255775
247	0x3d69eb94	0.05710943
248	0x3e766d63	0.24065165
249	0xbbea9f11	-0.0071600755
250	0xbba85bda	-0.0051379027
251	0x3d85dff6	0.06536858
252	0xbdf1f4ee	-0.11814295
253	0x3c48dce0	0.012259692
254	0x3d5f80b7	0.05456611
255	0x3dc48aba	0.095967725

actor.2.weight f4 [128, 256]
0	0xbcd5f518	-0.026117846
1	0xbe3081db	-0.17237036
2	0xbdfd4c01	-0.12368012
3	0xbe1434b8	-0.14473236
4	0xb9943300	-0.00028266758
5	0xbcf0183d	-0.029308433
6	0x3e9ac75e	0.3023023
7	0x3df61afd	0.12016866
8	0x3db0b577	0.08628362
9	0xbcdd2b0b	-0.026998064
10	0xbd3af966	-0.045648
11	0x3d137aea	0.03600589
12	0xbdd56c39	-0.104210325
13	0x3eaa6575	0.3328053
14	0xbd9552cd	-0.072911836
15	0xbddc439c	-0.10755083
16	0xbd62d94a	-0.055383004
17	0xbd4532f9	-0.048144314
18	0xbedecae0	-0.43514156
19	0xbe322286	-0.17395982
20	0x3c11edbe	0.00890678
21	0xbd3f1fa4	-0.046661034
22	0xbd115942	-0.035485514
23	0x3e78f069	0.24310459
24	0x3e392439	0.18080224
25	0x3e3bfada	0.18357411
26	0xbdbe7b58	-0.0930087
27	0x3d2f0faf	0.042739566
28	0x3e2393db	0.15974371
29	0x3c50f82d	0.012754482
30	0x3d91c887	0.07118326
31	0xbe01e006	-0.12683114
32	0xbe8520f3	-0.260017
33	0xbe1fe6db	-0.15615408
34	0x3cc2882a	0.023746569
35	0x3e5c2e1c	0.21501964
36	0x3dd08166	0.10180931
37	0xbebfc367	-0.37453768
38	0xbe82a062	-0.25512987
39	0xbcc54d18	-0.024084613
40	0x3d745798	0.05965385
41	0xbd44a7e8	-0.04801169
42	0x3e685506	0.22688684
43	0xbe09d157	-0.13458763
44	0x3d97ca1f	0.074115984
45	0xbe093c1f	-0.1340184
46	0x3db8a0d2	0.09015049
47	0x3d93d5d9	0.072185226
48	0x3f03a2c4	0.51420236
49	0x3d6c89d3	0.057748627
50	0xbe4dcbbb	-0.20097248
51	0x3d2f7b54	0.042842224
52	0x3cdb048f	0.026735572
53	0xbe8642c2	-0.26222807
54	0xbdeacdd1	-0.114650376
55	0xbd8baf9c	-0.06820604
56	0x3defaa1f	0.1170237
57	0x3e5e40d7	0.21704422
58	0x3e260f8b	0.16216867
59	0xbd82b40f	-0.06382
60	0xbd80a399	-0.06281204
61	0x3c8d9bd4	0.017286219
62	0x3e402d21	0.18767215
63	0x3c3e01a9	0.0115970755
64	0x3d14b887	0.03630879
65	0x3e2ec600	0.17067719
66	0x3e5a9341	0.21345235
67	0xbdba5c99	-0.09099693
68	0x3eb42abb	0.3518885
69	0x3dc8024f	0.09766065
70	0x3d07f372	0.033191152
71	0x3d958738	0.073011816
72	0x3dda25c2	0.10651733
73	0xbe0fe58a	-0.14052406
74	0xbdae9bce	-0.08525811
75	0x3dac17ca	0.08402975
76	0x3c5e7034	0.013576556
77	0x3f032e2c	0.5124233
78	0x3e0d7618	0.1381458
79	0x3def69f5	0.116901316
80	0x3d4baae6	0.04972353
81	0x3db7dce0	0.089776754
82	0xbd741b4e	-0.059596352
83	0xbda670cd	-0.08126984
84	0x3e7c78a0	0.2465539
85	0x3e6294b0	0.22127032
86	0x3e690e87	0.22759448
87	0xbe7d4bd5	-0.24735959
88	0xbdd554c1	-0.10416556
89	0xbc569010	-0.013095871
90	0xbd367db6	-0.04455348
91	0xbbcfa805	-0.006337168
92	0x3eb2a14c	0.34888685
93	0xbe4b3089	-0.19842733
94	0x3db63d56	0.08898418
95	0x3e6c76e6	0.23092231
96	0xbd988618	-0.07447451
97	0xbed3e033	-0.41381988
98	0x3d7792e8	0.060442835
99	0xbd51b3ea	-0.05119697
100	0xbd8a5926	-0.06755285
101	0xbe967d78	-0.293926
102	0x3dc63669	0.09678347
103	0xbe36ca51	-0.17850615
104	0x3dd35ec6	0.10320811
105	0x3db4aa15	0.08821503
106	0x3d6833c1	0.05668998
107	0xbdc5ff44	-0.09667829
108	0xbc529f83	-0.012855413
109	0xbda2a34c	-0.07941303
110	0x3e281683	0.16414838
111	0x3e4b881c	0.1987614
112	0x3e0a45bf	0.13503169
113	0x3cdbd826	0.026836466
114	0xbdbb46e6	-0.09144382
115	0xbbc66cb7	-0.0060554403
116	0x3d11ed91	0.03562695
117	0x3dc9b701	0.09849358
118	0x3e1ecd2b	0.15507953
119	0xbda81a9e	-0.08208202
120	0x3e02d075	0.12774833
121	0x3e7a7cdb	0.24461691
122	0x3e471c50	0.19444394
123	0x3e2ced4a	0.16887394
124	0xbdb9127f	-0.09036731
125	0x3bf03c22	0.007331387
126	0x3e8a22c6	0.26979655
127	0x3d9a28dc	0.075273246
128	0x3d27db97	0.0409809
129	0xbe08b481	-0.13350107
130	0x3da565f9	0.0807609
131	0xbe1574c1	-0.1459532
132	0xbde7ae6a	-0.11312564
133	0xbdb322ba	-0.08746858
134	0xbf6a0278	-0.91410017
135	0xbe1b1e33	-0.15148239
136	0x3f04a00b	0.51806706
137	0x3dc07105	0.09396557
138	0x3dc80afc	0.0976772
139	0x3e0726c8	0.13198388
140	0xbe55ca7e	-0.20878026
141	0xbdc0d76a	-0.09416087
142	0x3e191787	0.14950381
143	0x3d91abe3	0.07112863
144	0x3ce8ccc7	0.028417958
145	0x3ea0c74f	0.3140206
146	0xbdeb0b30	-0.11476743
147	0xbdb5749d	-0.08860133
148	0xbd1e31b7	-0.03862163
149	0xbe46c438	-0.19410789
150	0x3e15e1d2	0.14636925
151	0xbdc49133	-0.09598007
152	0x3d7e4a14	0.062082365
153	0x3e108bd7	0.14115845
154	0x3e8e2a87	0.2776682
155	0xbdbf7d80	-0.09350109
156	0x3e901ff5	0.2814938
157	0xbdea7749	-0.11448533
158	0x3e2a63f8	0.16639698
159	0x3dbd287f	0.0923624
160	0x3cb528f4	0.022114255
161	0x3d900e85	0.070340194
162	0xbdce5648	-0.100750506
163	0x3e06021c	0.13086742
164	0x3e3f0919	0.18655814
165	0x3aaad339	0.001303292
166	0x3e4267b7	0.18984877
167	0x3e8d834a	0.27639228
168	0x3d98be77	0.07458203
169	0xbe01b17b	-0.1266536
170	0x3bf24dfc	0.0073945504
171	0x3da2c0ca	0.07946928
172	0xbe95ad7c	-0.2923392
173	0x3e011844	0.12606913
174	0xbebc7a13	-0.36811885
175	0x3e2792f4	0.16364652
176	0x3dbe1b79	0.09282584
177	0xbcda800a	-0.026672382
178	0xbc1a910e	-0.009433998
179	0x3dd6f910	0.10496724
180	0x3d3e16cb	0.046408456
181	0xbd2f1776	-0.042746983
182	0x3dd50de3	0.10403039
183	0x3e06516e	0.13117
184	0xbc1e9bea	-0.0096807275
185	0x3d921722	0.071333185
186	0xbd445c54	-0.047939613
187	0x3d16852c	0.036748096
188	0x3e8e7e25	0.27830616
189	0x3e8ef1f2	0.27918965
190	0x3e4eaf40	0.2018404
191	0x3e4d2729	0.2003447
192	0xbcdfcaab	-0.02731832
193	0xbd35c5b8	-0.044378012
194	0x3e9f9d8c	0.31174886
195	0xbdbb9ba2	-0.09160544
196	0xbe774257	-0.241464
197	0xbeaae282	-0.33375937
198	0xbeac64d9	-0.3367069
199	0xbe75321c	-0.23944896
200	0xbda16e83	-0.078824066
201	0xbf1fc4d3	-0.62409705
202	0x3d970e3a	0.073757604
203	0x3db02fef	0.086028926
204	0xbd0c0f21	-0.034194116
205	0xbdfcf030	-0.123505
206	0xbe762eef	-0.24041341
207	0xbe47a87e	-0.19497868
208	0x3d6cf41e	0.057849996
209	0xbe44e66e	-0.19228527
210	0xbe161b68	-0.14658892
211	0xbe57276d	-0.21011133
212	0x3e221c60	0.15831137
213	0xbe65a8d2	-0.22427681
214	0x3ce44671	0.02786562
215	0x3cb1df7b	0.02171301
216	0xbc857f79	-0.016296135
217	0x3e4362b0	0.19080615
218	0xbd71ffd6	-0.059081875
219	0x3ea7a2f5	0.32741514
220	0xbe15e763	-0.14639048
221	0x3e0ca60d	0.13735218
222	0xbbde7081	-0.006788314
223	0xbcb07a7e	-0.021542784
224	0xbefb5fec	-0.4909662
225	0xbd80fe06	-0.06298451
226	0x3d96dd76	0.07366459
227	0x3e293440	0.16523838
228	0x3dfdb9e4	0.123889714
229	0x3cad7091	0.02117184
230	0x3de003ae	0.10938202
231	0x3e00d0bb	0.12579624
232	0x3eb4fb99	0.35348204
233	0xbd0b205e	-0.033966415
234	0x3d02052c	0.031743214
235	0x3e131515	0.14363511
236	0xbe347bac	-0.17625302
237	0x3dd87dc3	0.10570862
238	0x3d01d74b	0.03169946
239	0x3c849699	0.016185092
240	0x3de63262	0.112400785
241	0xbeb71aaf	-0.35762545
242	0xb9a3aac7	-0.00031217022
243	0xbcd90b74	-0.02649472
244	0xbd7135d1	-0.058889214
245	0xbded93e6	-0.11600475
246	0x3ca1cf0a	0.019752044
247	0x3d771f94	0.06033285
248	0xbefb5376	-0.49087113
249	0x3d953971	0.07286347
250	0xbd35a175	-0.04434343
251	0xbdf925de	-0.12165426
252	0x3de08061	0.10961986
253	0x3d54d6f6	0.051962815
254	0xbd8b2896	-0.067948505
255	0xbc2dce9a	-0.01060834
