CRL/想要对抗的模型集/evolution_v3.pth (torch, 370495 bytes, 11 tensors)

critic.0.weight f4 [256, 48]
00000000: 2b90 34be 16f3 57bd aa39 cf3b 6fa5 ad3c
00000010: da74 3abd d3af d8bd 232c 783c 9c1c 2e3d
00000020: a672 8fbe 56e0 b9bd af34 4fbe a9d8 893d
00000030: fa5e 4ebe f116 54bd 140f 0f3c a6c8 87bb
00000040: 73ba d8bd a3a1 11be 8581 8e3c 235d 193d
00000050: 2cce e8bd fa4c 9fbd b552 5fbe ff66 20be
00000060: 1fd9 623c 4c96 ef3b 79fb 693b bb0e 093d
00000070: 5f4e 823d 5cee 0dbe 0fae db3c 923c 0b3d
00000080: cc2c 27bb afcc 363c 98e2 1abe 7fc8 32be
00000090: 99e3 08be bcd7 a03d 2005 b9bb 13cf 28bd
000000a0: 9ee2 0a3e 4372 3bbe 1b08 3f3d 8981 28bc
000000b0: 99d9 08bb 6732 ee3d ecdf 9d3e adf5 92bd
000000c0: b4af 4c3e cdfd 59be d302 86bc 8e32 1a3e
000000d0: 0b14 44bd 3b89 a4bd 0880 273c b8af 6dbd
000000e0: 4157 17bc c254 89bd c431 b3bd 3fb1 3fbd
000000f0: 7e4a 523e 176c 77be 1495 2bbd 1a5c e33d
00000100: 0f68 d53d 3146 d2bd 46cd c13c d198 c33c
00000110: 17ee 0f3c 9e53 033e 1d6e f5bd f706 603d
00000120: 37b3 6a3e e7f0 26be 94d2 78bd 4a76 d03d
00000130: f3fc 05be 6052 e5bd 72de f03c 6739 e73c
00000140: bc43 5a3e 1a47 563e 9497 07bc dc19 783d
00000150: daeb 053e abb7 8ebc 83ce 98bd 7ae3 4b3e
00000160: 9314 14be aefe 6abd a7f3 0e3c 680a 7fbc
00000170: 4055 e73d da57 c93e e83a f1bd 0b01 db3e
00000180: a2f5 363e eac9 ed3d bdf8 f13b ec04 f1bc
00000190: aedc 9abd a98b cf3c bc38 aabc 3820 bcbc
000001a0: 21b4 74ba 2143 f7be 9158 9c3e 4a05 183e
000001b0: a46a a73d 7f65 ac3d 26a7 2fbb a70a c3bc
000001c0: 224c 53be a6e3 5f3d 67f0 babc 0d78 723d
000001d0: c90b 7d3e 8bf9 89be 8d10 3c3d d4f4 37bd
000001e0: 26be 243d 46b3 653e c863 fbba c76d 01bd
000001f0: bdb9 51bd eabe f9bc 3f8c dcbc 2d4a 30bc
00000200: 56a1 113e 32fd 8cbd 4847 9bbd 6793 f0bd
00000210: 7829 473e 4549 45bd 3151 ffbb 005b 55bd
00000220: 2725 2dbe 96e3 c5bd ecf0 fbbc 54b8 39be
00000230: 6b56 8f3e 264d e93c 9cbb 31be 0a0c c53d
00000240: 5ef3 923e 3bdc dabe 87dc 453c f063 1c3d
00000250: 7c00 52bd 0c4e 1d3e cdc6 82bc 6e6e 5ebd
00000260: b1f2 18bd 1df1 2abf e2fc f7bd 2642 37bc
00000270: e8df 1c3e 61b0 d9be da0a a53c 366a 823c
00000280: 3d02 08be 6a0a 653e 8b20 89bc 001e 08bd
00000290: ba7e 373e a6cb 1cbf e72d 27bd 9282 953e
000002a0: e442 bc3d 8fcc a1be f099 193c 3a56 79bd
000002b0: ac65 843c fcd0 893d 5028 a2bc c52c e4bc
000002c0: 0b9d 02bb 287c c9be 4fe1 c2bd 29d3 7e3e
000002d0: e66a 853e 8514 76be 4752 5f3b 5d89 ad3d
000002e0: fd1f 1ebc 0325 233e a59a 82bc 93e7 50bd
000002f0: edd5 893e 74cb 09be f8ea cd3d 3472 253d
00000300: fddb 9d3d 49a6 883c 1ce0 4e3c 7a5f 04bc
00000310: 4225 c63e b7ef 09bc f6e0 003c 01c3 3b3c
00000320: 6b1b f93d 700c cdbd 0e93 f93c ec8d 3cbd
00000330: 7082 f6bd bb0c 883c 5135 a53c 2a19 b23c
00000340: 8594 c43e 3ff1 67bc 5f69 363c 97f1 c23b
00000350: 0c54 693d dab2 8a3d b64a a83e 8fe3 ae3d
00000360: 892a efbd 1c51 373d 6fb4 963c a2dc 0f3d
00000370: d28b 8f3e 6af6 45bc 4433 683c 758c 0a3d
00000380: 7307 423e 916a 0e3d 7c64 063f 95ed b83d
00000390: 22d8 fb3d a6f7 9f3a 123d 863c eb13 253c
000003a0: acde 823e 015c 163e 0dcd 853c edc4 d1bb
000003b0: 8aca c43d 5e61 e6bc 263a 393f 5fac 73bd
000003c0: 5a7a d43b 3b1b e2bb 6b6c d8bc 5628 6ebd
000003d0: 6e1c 083d 38e0 85bd e8b3 c0ba f850 3dbc
000003e0: 63ef 393b 0190 133e 0230 cd3d af0e 0cbd
000003f0: 4dbc 60bd 8220 2c3c 6a5e 2bbd 74fb 1cbd
-0.1763312 -0.05272206 0.0063240128 0.021197049 -0.045521595 -0.10580411 0.015147242 0.042507753
-0.28017157 -0.09075992 -0.20234941 0.06730778 -0.20153418 -0.05177969 0.008731622 -0.004143792
-0.10582437 -0.14221816 0.017395744 0.037442338 -0.11367449 -0.07778354 -0.21808894 -0.1566429
0.013845711 0.007311618 0.0035702868 0.033461314 0.06362604 -0.13860458 0.026816396 0.03399331
-0.0025508879 0.011157199 -0.15125501 -0.17459296 -0.13368072 0.07853648 -0.005646363 -0.041213106
0.1356301 -0.18305306 0.04663859 -0.01028479 -0.0020881651 0.11630707 0.308349 -0.07175765
0.199889 -0.21288224 -0.016358769 0.15058348 -0.047870677 -0.08033987 0.010223396 -0.058028907
-0.009237112 -0.067056194 -0.087497264 -0.046799894 0.20536229 -0.24162327 -0.04189022 0.11101551
0.10420238 -0.10267294 0.023657452 0.02387658 0.008784792 0.12824866 -0.11983893 0.054694142
0.22919928 -0.16302834 -0.060747698 0.10178812 -0.13084774 -0.111973524 0.029402945 0.028225614
0.21314901 0.2092556 -0.008275885 0.060571536 0.13078251 -0.017421564 -0.07461264 0.19910994
-0.14460973 -0.057371788 0.008725083 -0.015566446 0.11295557 0.39324838 -0.117788136 0.42774233
0.17867139 0.11610778 0.0073843882 -0.029421292 -0.075616226 0.02533515 -0.020779006 -0.022964582
-0.00093347026 -0.48293403 0.3053632 0.14845768 0.08174637 0.08417796 -0.002680251 -0.02380879
-0.20634511 0.05466046 -0.02281971 0.05919652 0.24711527 -0.269482 0.04591422 -0.04491122
0.040220402 0.22431669 -0.0019179517 -0.031598832 -0.051202524 -0.030486543 -0.026922343 -0.010759872
0.14221701 -0.06884231 -0.07581955 -0.11746865 0.19449413 -0.04816558 -0.007791661 -0.052088737
-0.16908704 -0.09662549 -0.030754529 -0.18136722 0.2799562 0.02847917 -0.17356724 0.09621437
0.287013 -0.42746148 0.012076504 0.038181245 -0.051269993 0.15361804 -0.015963936 -0.054304533
-0.037340824 -0.6677416 -0.121087804 -0.011185205 0.15319788 -0.4251738 0.020146776 0.015919786
-0.13282104 0.22367254 -0.01673915 -0.033231735 0.17919436 -0.6124824 -0.04081526 0.2920118
0.09192446 -0.31601378 0.0093750805 -0.060873248 0.016161762 0.06729314 -0.019794613 -0.027853379
-0.001993003 -0.39352536 -0.095156305 0.24885239 0.2605812 -0.24031265 0.003407614 0.084734656
-0.009651181 0.15932088 -0.01594288 -0.051002096 0.26921025 -0.13456517 0.10054582 0.040392116
0.07707975 0.016680853 0.012626674 -0.008079404 0.387003 -0.008418969 0.007866135 0.011460067
0.12163433 -0.10012138 0.030465629 -0.046033785 -0.12036598 0.016607633 0.020167025 0.021740515
0.3839456 -0.014156639 0.011133521 0.00594921 0.05696492 0.067723945 0.328695 0.08539497
-0.11678035 0.044755086 0.018396584 0.03512252 0.28036362 -0.0120826755 0.014172379 0.033825357
0.18948154 0.0347696 0.52497077 0.0902969 0.122970834 0.0012204542 0.016386542 0.01007555
0.2556051 0.14683534 0.016333127 -0.006401649 0.09608944 -0.0281226 0.7235435 -0.059490558
0.006484312 -0.006900219 -0.026418885 -0.058143936 0.033230238 -0.06536907 -0.0014702054 -0.011554949
0.0028371445 0.14410402 0.100189224 -0.03419369 -0.054867078 0.010505797 -0.041838087 -0.038325742

critic.0.bias f4 [256]
00000000: 3b46 543e d474 b43e d79b 383d 8d08 c33d
00000010: 0a5c d9bc f919 64be bc0a 933c 6f54 52bd
00000020: e4f5 76bc 39f8 38be 3ad7 013e 630b a73e
00000030: d7e9 253f 97ed 2b3f 7b00 ea3d e391 83be
00000040: 24c0 2ebe dbdd e43e f351 19bd b013 5b3a
00000050: 41ec efbe 8235 53be b478 01be 0718 393e
00000060: 49ec c63d 71fe d03e d19f edbd 7426 653e
00000070: f294 873c 6a6a ccbd 8500 923e 279a 92bd
00000080: 2afd 8abe cd17 aa3e 0920 7f3d 7e60 4ebf
00000090: fded 863e b0ca de3e 645d 093f b21a fbbe
000000a0: abec 9e3e 7ae9 46be 66a9 24be aad2 063f
000000b0: 8936 8dbe bd57 853e 9f58 9f3e 5ca7 73be
000000c0: ecef a0bd d82a 553e 9a8b 0dbf 3a70 ce3c
000000d0: 5008 22bf 0ff5 1cbf 232e e53e e84d 89be
000000e0: 79ab e63d 0db3 13bf dc57 4bbf a0b4 f5bc
000000f0: 71a1 80be 2eb0 bf3d 095a 7cbe ba8f 2bbf
00000100: 1925 f33c f44e 99be f959 eabd 9b21 cdbe
00000110: edd5 d43e 8cab 313e 62af 143e 054a 563d
00000120: c630 d03d 7a6b 21be 90bf b6bd 59e2 283e
00000130: 7f30 5ebf e43b 8d3e e80d 8cbe a292 d6be
00000140: b3ac d8be f82c f8bd 9c87 0b3d 1be9 97be
00000150: fde6 283e 9997 aebe d5c9 13be 6f6a 06be
00000160: 74fd 88be 8484 0f3e 1d9c c43e 317a d23e
00000170: 2e84 3bbd 9c8e b63d c925 a4be 8d26 f8bd
00000180: 7b40 12be e02f 4b3d 62d2 653e da73 813e
00000190: 09fb 303e 624c 52be f144 333e 8505 0fbe
000001a0: c6b4 c83b 06b1 73be 425e 063e 103e 083e
000001b0: 4ccc 11bd 4b40 d2bd 0744 12bf ea8f a2be
000001c0: 1301 3bbd 6fd9 a5be d3c5 edbc 189a 403e
000001d0: ffdd a5be 859f e3be 74f6 5b3d 02c1 fb3c
000001e0: 3422 463e 66e7 68bb 0087 073e aeff c93d
000001f0: 3ad8 473e e1b3 36bd b593 90be ab73 38be
00000200: e68e 293e a564 893e f72e 05be f220 a93e
00000210: 4f7d 60bd f139 453c 76c6 a43d 0e3e d43c
00000220: 1ac7 ae3d 4660 a8bd 2ee7 1c3f 633d bcbe
00000230: 45a4 3dbe db44 99bf 657a 9bbd 443e cf3d
00000240: 0770 503e 1c8b e53e 310a 80be 6af8 65bd
00000250: a626 123f 1abe 94be 4722 58be 28cb ca3c
00000260: 68d6 5a3d bf0b 753e c6ab 43be 5100 4d3d
00000270: 92fc f63d 7557 19be 6714 51be 565d a8bd
00000280: bf39 e4bd 4ffd 933e efed ba3e 6757 2dbe
00000290: e175 43be 22e8 9dbe 5e81 cfbe 0cc3 4dbe
000002a0: 94e5 bfbe 139b 883e 7ed6 8b3e 43b3 c6bd
000002b0: 7515 01bf 0b1a 013e 0fc3 e63e d11c 5d3e
000002c0: eb24 943e 59bf 43bd 0183 9f3d e2e7 6ebd
000002d0: 9cb4 723c c334 ecbe dc33 39be 8dce a03e
000002e0: e57f 043f 5db5 793d 948f 56be fbaf 953d
000002f0: 2515 893e d0f4 c53e 77fe f63e 708d a23e
00000300: 2af5 86be 7180 793e 4aed f3bc 8f6f d2bd
00000310: 48bc e93c e507 2dbe 9ed5 223d af32 473d
00000320: bf5f b53c 44ee f8be 2555 0bbf 87ae 3dbe
00000330: db02 00be e75b 46be 4fc3 f2bd c056 5d3d
00000340: 8d09 b03e a925 9d3d dcdb 063e a134 803e
00000350: c179 13bd 5641 f23d a45c a8bd a480 2d3e
00000360: fb69 26be 31dd d73e fad5 7d3d b408 92be
00000370: 5b64 b5bd 0747 303d 7336 063d c3e7 9e3e
00000380: f713 0ebe da83 dcbd 8692 26bf 562e 73be
00000390: 2052 0f3d 3caf 2bbf 20e1 963e a68e 75bd
000003a0: 5933 0dbf da57 88bd 72d9 26be 8699 cfbe
000003b0: b0ca 66bc 1f24 9c3e b0ae 4b3e b442 713e
000003c0: 9aae 6abd 2acc f6be 2fa7 cb3c 9724 2abe
000003d0: 491b 49bf 6234 843e bf10 323e 7cb1 dfbe
000003e0: 4db2 1d3f ca5b dabe d19e 23be 7b30 80be
000003f0: 4e4e f93d 30d7 7c3e 8321 ad3b 17b6 fe3e
0.20729916 0.35245383 0.045070495 0.09523115 -0.026533145 -0.22275533 0.017949454 -0.051350053
-0.015073273 -0.1806344 0.12679759 0.32625875 0.64809936 0.6715941 0.11425873 -0.2569724
-0.17065483 0.44700512 -0.03743167 0.00083571207 -0.46859935 -0.2062588 -0.12643701 0.18075572
0.097130366 0.40819123 -0.11602748 0.2237795 0.016550515 -0.09981234 0.2851602 -0.071583085
-0.27146274 0.33221284 0.06228641 -0.80615985 0.26353446 0.43514013 0.5365813 -0.49043804
0.31039938 -0.19425002 -0.16080245 0.526652 -0.2758067 0.26043501 0.311223 -0.23794311
-0.078582615 0.20817125 -0.5529114 0.025199998 -0.63293934 -0.6131143 0.44761762 -0.2681725
0.112631746 -0.57695085 -0.7943094 -0.029993355 -0.2512317 0.093597755 -0.2464372 -0.67016184
0.029680775 -0.2994305 -0.11442942 -0.400647 0.41569462 0.17350596 0.14520028 0.052316684
0.10165553 -0.15763655 -0.089232564 0.16492595 -0.8679275 0.27584755 -0.2735436 -0.41908747
-0.4231926 -0.12117952 0.034064874 -0.29670033 0.16494365 -0.34100035 -0.14432462 -0.13126539
-0.2675587 0.14015394 0.38400355 0.4110885 -0.045780353 0.08913919 -0.32060078 -0.12116728
-0.1428241 0.049606204 0.22443536 0.252837 0.17283262 -0.2053695 0.17506768 -0.1396695
0.0061250655 -0.23797998 0.13121894 0.13304925 -0.035595223 -0.10266169 -0.5713505 -0.31750423
-0.04565532 -0.3239245 -0.029024994 0.18808782 -0.32395932 -0.4445764 0.053701833 0.030731682
0.19348985 -0.0035538315 0.13235092 0.0986322 0.19516078 -0.04460514 -0.28237692 -0.18012874
0.16558418 0.26834598 -0.13006197 0.33032948 -0.054807004 0.01203774 0.08045666 0.025908496
0.08534069 -0.08221488 0.6129025 -0.36765584 -0.18519695 -1.1974138 -0.07591704 0.10119298
0.20355235 0.44832695 -0.25007775 -0.05614511 0.5709022 -0.29051286 -0.21106826 0.024755076
0.05342713 0.23930262 -0.19108495 0.05004913 0.12059893 -0.14974768 -0.20417939 -0.082209274
-0.11143827 0.28904197 0.36509654 -0.16927873 -0.19087936 -0.30841166 -0.40528387 -0.20093936
-0.37479842 0.26680812 0.27312082 -0.0970216 -0.50423366 0.12607591 0.45070693 0.21593024
0.28934416 -0.047789905 0.07788659 -0.05832661 0.014813568 -0.46134004 -0.18086189 0.31407586
0.5175765 0.060963977 -0.20953208 0.07308956 0.26773944 0.3866334 0.48241016 0.31748533
-0.2635892 0.24365403 -0.029776234 -0.10275184 0.028532162 -0.16897543 0.039754502 0.04863232
0.022140382 -0.48619282 -0.54426795 -0.18523608 -0.1250109 -0.19370995 -0.118536584 0.05403781
0.34382287 0.07673199 0.13169807 0.25040153 -0.036004785 0.11828868 -0.08220795 0.16943604
-0.16251366 0.42160943 0.061971642 -0.28522265 -0.08857032 0.043036487 0.03276677 0.31036195
-0.13874803 -0.10767336 -0.6506733 -0.23748145 0.03499043 -0.6706426 0.29468632 -0.059950493
-0.55156475 -0.06657381 -0.16293886 -0.40546817 -0.01408641 0.30496308 0.19890857 0.23560601
-0.05729542 -0.4820264 0.024859993 -0.1661552 -0.7855726 0.25821215 0.173892 -0.43690097
0.6160019 -0.42648154 -0.15978552 -0.25036988 0.121731386 0.24691463 0.005283536 0.497483

critic.2.weight f4 [128, 256]
00000000: c493 86bc c875 2f3d 5074 85bc 8fee ae3d
00000010: 2b7e bd3c 464b c6bd 4ac9 53bd ec1d 4f3d
00000020: dc11 b9bc 8612 63bd 0a83 b33e 8039 a73d
00000030: a8e1 193c ce8b 373d dc03 61bc 00af f43a
00000040: e3ee 173d 42b5 71bd 9337 3cbd 93b1 823d
00000050: ae87 7cbd 49e9 d9bd 9f41 133e be24 873c
00000060: a958 d5bb ad99 823e 1ce0 7e3d 5954 8abd
00000070: a3b0 8d3d ed09 3f3d 80ad 2b3c 7e60 b7be
00000080: 7742 44bb 981a 903d 80d2 43bd 808a eebe
00000090: 59c6 7abc 1482 14bd 4b4d c6bd 9f9e 64bd
000000a0: 1117 013d c8e4 81ba f37d bd3c 02be 8cbd
000000b0: 708c 03c0 cc28 283d 2f8a 81bc d891 e5bc
000000c0: e21f d23c 3307 4cbe 9e7c 0fbf 5818 b9bd
000000d0: b2ee 90bc b2ab 2e3d 5ed7 453c 902e b73d
000000e0: c4d5 70bd 65ab 0c3d 8f4a 19be 2231 84c0
000000f0: 286b 023c 0bd8 683d bdd6 1b3e cc8b b4c0
00000100: fdb1 db3d e782 35bd 8132 293c 0c11 12bd
00000110: 6a39 72bd bee6 3bbd 461e 5abe 624c d13d
00000120: 29f5 383d 18a4 63be 6998 19bd d986 d33d
00000130: 4138 873d 8e4a 0cbd ec63 08bd 90da d23c
00000140: 08af ddbd c88a a83d 841a 2b3e 4b5e 8c3d
00000150: 3266 c93d b42c 8abe e139 a73b 6c7d 9ebe
00000160: 8a21 333e e882 883c 59ca d83c 157a babd
00000170: b99c 893d 4ed6 a03d e12e a6bd 6bd9 12bd
00000180: 8a6c 533c 78a1 91bc d399 e5bd 6f72 51bb
00000190: ae78 2c3d 6bf9 4fbc ff36 8cbd 911d e2bc
000001a0: 13a6 4f3e 3962 3cbe ee91 5abd 2342 463c
000001b0: ae85 593e 35b7 c13c 30a1 b1bc 064b 1e3e
000001c0: 320e ae3d de85 ebbd 372a 3ebc ad52 5abd
000001d0: 27a6 42bd 2b7c 49bd a0fa 9b3d a1a4 73bd
000001e0: 7a47 a8bb a69b e03c 55de b83d 2eb7 863e
000001f0: 0361 903e da62 25bc 7121 48bc 8636 753d
00000200: 7af1 82bd cdbc 34be fd24 36be ddf9 9ebd
00000210: 3f74 d63c 0d87 08be 060b f5bc 9682 d0bd
00000220: 0b6d 3dbd 0d34 dcbb ac27 63bd c661 b43c
00000230: 0c16 e8bd b81c b9bd da36 02be 773c 99bd
00000240: 10ce fe3b 85eb 6b3d e824 dc3d caa5 2a3c
00000250: 86e2 1d3d cea6 30be a01b 143e 259a d63c
00000260: a064 9d3c 2f11 763d 5d94 9bc0 556d 2fbd
00000270: dada 49bd 9b21 bb3d 00d3 7ebd 6eef c13c
00000280: 55e1 13be c19a aebc 6a8e b2bb 3747 8e3e
00000290: 17b1 de3d eda8 3e3d 7548 8abe 2632 843d
000002a0: b256 14bf 9da3 1c3d 9e70 d53d d946 1dbd
000002b0: db66 103e 755c 5cbb ffb9 bbbb 1561 003d
000002c0: 8a78 07be 0425 86bc 465f 4bbe ca0a 90bd
000002d0: 79ba 2d3c 0459 6b3e 016d dd3d 18be 853d
000002e0: 3947 94bd 40a0 0d3d 9989 69bc 64ba 0ebd
000002f0: 22b8 efbc 8424 0bbe 4e8a 793e 4d35 143d
00000300: d091 1e3d b10f 0f3d 95f8 843c 93b4 9abd
00000310: aba4 e7bc 462e aabd ed6d 733d 617f edbd
00000320: be1c 28bd eb69 bd3d 3dfd 5f3c 80b6 103d
00000330: e85e cdbc e37a 1f3c 6d54 1b3e 8205 8abd
00000340: 49aa 843c 670a 833d 741d c7bc 0999 4b3d
00000350: c594 8dbd 7660 02bd c783 4ebe 6de5 b73d
00000360: bba2 bbbd d8a1 113e 6413 e6be dfb1 44bd
00000370: 0c9f 5bbd bf78 a5bd 5e45 e83c 493e 593d
00000380: 0a0c 9dbd b7b4 763e 756e 073d 6737 f6bd
00000390: a680 0ebe c6c4 74be 6ada 3abc 2185 b03c
000003a0: 6cfe c5bd f069 87bd 053e ad3d 4322 393d
000003b0: f2eb 0a3c 1a72 973d ae00 0a3d fde8 a93c
000003c0: 057f 66bd 8092 9bbe ba5a eb3d 0823 393d
000003d0: f75c b6bd 2047 adbd 931c 5a3d fbf4 583d
000003e0: c1de 853d e5ca d43c 09bc 1ebd 6ff9 25bd
000003f0: d519 983e 86d5 1bbc 886f 37be 0c3a 1f3e
-0.016427882 0.042836934 -0.016290814 0.08541595 0.02313145 -0.09682326 -0.051705636 0.050565645
-0.022591524 -0.055437587 0.35060912 0.08165264 0.00939218 0.044811063 -0.01373383 0.0018667877
0.037093055 -0.05901075 -0.045951437 0.06381526 -0.06165283 -0.10640199 0.14380501 0.016497012
-0.0065108133 0.2550787 0.062225446 -0.06754369 0.069184564 0.046640325 0.010478377 -0.35815805
-0.0029946843 0.07036322 -0.04780817 -0.46590042 -0.015306079 -0.036256865 -0.09682711 -0.055815335
0.03151614 -0.0009910101 0.023131346 -0.068721786 -2.0554466 0.041054532 -0.015812961 -0.028023645
0.025649969 -0.19924621 -0.56049526 -0.09037846 -0.017691944 0.04264421 0.012075273 0.08944428
-0.058797613 0.034343142 -0.14969848 -4.1309977 0.007960118 0.05684666 0.15218635 -5.642065
0.10727308 -0.04431429 0.0103269825 -0.03566079 -0.059136786 -0.04587435 -0.21300611 0.10219647
0.045155678 -0.22230566 -0.037498865 0.103284545 0.066025265 -0.03425079 -0.033298418 0.025738984
-0.108244 0.082295954 0.16709334 0.068539225 0.09833945 -0.2698723 0.0051033353 -0.30955064
0.17493263 0.016663983 0.026463674 -0.091053165 0.067193456 0.078533754 -0.0811441 -0.035851877
0.012904296 -0.01777719 -0.1121098 -0.0031959077 0.042107277 -0.012693743 -0.06846427 -0.027601989
0.20278196 -0.18396844 -0.053361826 0.012100729 0.21242401 0.02364693 -0.021683306 0.15458307
0.08498801 -0.115001425 -0.0116067445 -0.053301502 -0.047521736 -0.04919068 0.07616162 -0.059483174
-0.005135474 0.027417969 0.090267815 0.2631163 0.28199014 -0.010094369 -0.012215004 0.05986645
-0.06393714 -0.17650147 -0.17787547 -0.077625014 0.026178477 -0.13332768 -0.029912483 -0.10181157
-0.04624657 -0.006720072 -0.055457756 0.022019278 -0.1133233 -0.09038681 -0.12716237 -0.07482236
0.0077760294 0.057597656 0.10749227 0.010415504 0.038546108 -0.17251131 0.14463663 0.026196549
0.01921302 0.06007498 -4.8618608 -0.042828877 -0.04928098 0.09137269 -0.062212944 0.02367374
-0.14441426 -0.021314027 -0.005449106 0.27788708 0.10873621 0.04654782 -0.27008405 0.064548776
-0.57944787 0.03824197 0.10421871 -0.038397644 0.14101736 -0.0033624445 -0.0057289596 0.031342585
-0.13229576 -0.016375072 -0.19860563 -0.07033308 0.010603541 0.22983176 0.108118065 0.06530398
-0.07240147 0.034576654 -0.014253997 -0.034845725 -0.029262606 -0.13588148 0.24369165 0.036183644
0.038713276 0.034927074 0.016231814 -0.07553973 -0.028276762 -0.08309607 0.059431005 -0.11596561
-0.041043036 0.09248718 0.013671217 0.035330296 -0.025069669 0.009733888 0.15168925 -0.06739332
0.01619448 0.063984685 -0.024306037 0.049706493 -0.06913141 -0.031830274 -0.20167457 0.08979306
-0.09161898 0.14221895 -0.4493667 -0.048021194 -0.053618476 -0.08079671 0.02835339 0.053037915
-0.07668312 0.24092375 0.033064324 -0.12022286 -0.13916263 -0.23903188 -0.011404613 0.021547856
-0.09667668 -0.06612003 0.08459095 0.04519869 0.008479105 0.0739481 0.033692054 0.02074098
-0.05627348 -0.30385208 0.11491914 0.045199424 -0.089044504 -0.08460832 0.053249907 0.052968007
0.065366276 0.025975654 -0.038753543 -0.04052108 0.29707208 -0.009511357 -0.1791364 0.15549487

critic.2.bias f4 [128]
00000000: 6f50 e33d a09f 76bd 4033 ccbd fbc2 563d
00000010: 4782 1e3d 23e7 b93d a6c6 b6bd 393b a1bd
00000020: 42d0 b5bd de2a 06bb f7c9 81be a931 b43d
00000030: 2a3a 083d 883e 8b3d 971e 0d3e 1005 3b3d
00000040: 8e79 f43c 011a 853d b8a8 d63d 25d2 753c
00000050: f196 093e 1140 29bc 6c57 00be bec7 85bd
00000060: 61a2 683d c889 7fbd 135d 7f39 868d 083d
00000070: 39cd bb3b 952f cd3d 9eb1 4dbe 5db3 c3bd
00000080: 3af4 85bc 0e44 77bd 7ed6 a1bc dcee 773d
00000090: e576 183e e5a6 043e d01d 9a3d 8aa9 5abc
000000a0: b80b b83c 1aa2 c0bc 9aa3 7cbd eef1 73bd
000000b0: edc2 11bc acb6 72bc bfc3 23bb 2b46 f7bd
000000c0: 51c8 813a 9517 083d 9db4 b23b 797f bfbd
000000d0: f8d4 2b3c 35ce f23b 7e15 9e3c 6ef3 14bd
000000e0: 2240 553d 87e9 293d 74ad 583d 5130 8cbd
000000f0: e56f 383c b4f2 90bd 7f63 e5bd 700c 5fbe
00000100: 2a5c 27be c1ff c6bd 4bc6 5b3d bdad 44bc
00000110: 7653 eebd 6bb1 073d 494b a73b 2b21 93bc
00000120: c009 453d 6c7c 983d 3fc9 873d 2006 a4bc
00000130: 19f9 153e ec87 c1bd 46b8 dd3d cb7c 6abd
00000140: 6b19 efbd c250 8bbd 77db 8dbc bfe7 5b3d
00000150: 672f 013d 15c7 1d3e 0960 bfba a3bd 2fbe
00000160: aaa4 163c 3994 d73c d298 42bc 832a 2fbd
00000170: 7ba1 f23d faf6 d7bc 53ba 4dbd 86b5 e0bd
00000180: 111f a93d 30cd 87bd 2c15 a13d 2961 f53b
00000190: c0ba 923d e201 9e3a 5e96 febd 2d36 52bc
000001a0: 1bf8 16bc 7273 bbbc 5584 b6bd 8721 b73d
000001b0: 494c e83c 74d5 9a3d 8454 be3d 52e7 963d
000001c0: df79 db3c 9714 a23c fb95 b53d 863f 7dbb
000001d0: e9d7 12bc dcfc 093e b311 b43c 2821 d3bd
000001e0: f2f2 fc3c 00eb b6b9 3aaf 94bc 1a93 763c
000001f0: cfab 11bd 33e4 003d 6600 943d c973 013e
0.11099326 -0.060210824 -0.09970713 0.05243204 0.03869846 0.09077289 -0.08924608 -0.07872624
-0.08877613 -0.0020472328 -0.253494 0.087985344 0.033258595 0.06799036 0.137812 0.045659125
0.029843118 0.064991005 0.10481399 0.015003716 0.13436486 -0.010330216 -0.12533349 -0.065322384
0.05679548 -0.062387258 0.00024353368 0.033338092 0.0057312516 0.10018841 -0.20087287 -0.09555695
-0.016351808 -0.060367636 -0.019755598 0.06053053 0.14889105 0.1295429 0.075252175 -0.013346085
0.022466525 -0.023514796 -0.06167946 -0.059556894 -0.008896572 -0.01481406 -0.00249885 -0.1207393
0.0009901618 0.033225615 0.0054536597 -0.09350485 0.010487787 0.0074098357 0.019297358 -0.036364965
0.052063115 0.041482475 0.052899793 -0.06845153 0.0112571465 -0.07077542 -0.11200618 -0.21782088
-0.16343752 -0.0971675 0.053655904 -0.012004313 -0.11637013 0.033128183 0.0051054102 -0.017960152
0.048105 0.074456066 0.066301815 -0.020022452 0.14645804 -0.09449753 0.10826163 -0.057247918
-0.1167477 -0.06802513 -0.017316563 0.053687807 0.031539347 0.15407975 -0.0014600764 -0.17162184
0.009194532 0.026315795 -0.0118772555 -0.04276515 0.11847206 -0.026362885 -0.05022652 -0.10972123
0.082578786 -0.06630933 0.07865366 0.007488389 0.07164526 0.0012055004 -0.12431024 -0.012830299
-0.009214426 -0.022882197 -0.08911959 0.08941942 0.028356688 0.07560244 0.09293464 0.073683396
0.026791511 0.019785209 0.08866497 -0.00386426 -0.00896261 0.13475364 0.021981096 -0.103090584
0.030877564 -0.00034888834 -0.01814996 0.01504972 -0.03556424 0.031467628 0.072266385 0.12641825

critic.4.weight f4 [1, 128]
00000000: 451e 083f b046 57be 679a b33e 3edb a2be
00000010: a355 763c 990c 28be 46f5 57be 68c2 18bf
00000020: cbec 973e 5d85 3ebe 1d06 97bf 46a8 e1be
00000030: 479f 30be c5fb 763e 0776 9e3f ae4e 28bf
00000040: 848c 0540 06ff 143e f6fb ca3e 2825 283e
00000050: 28d8 a63f 6f9b af3e 7ac4 ad3e b4fa 6bbf
00000060: 0182 e33e c453 933f 3ef0 d23e 7643 80be
00000070: a111 6abe bd07 623e 699d 1d3f e544 043f
00000080: 196e cb3e 380c 0fbf 4214 433f b044 ea3e
00000090: 2331 8e3e 654d bfbe 38b6 4dbe a6c4 b03f
000000a0: baed 673e 59dc 1c3f 2819 833e 7155 c43f
000000b0: a69e 4d3e 646c 2f3f 7180 98be 839d 183f
000000c0: 4da6 923f f973 8dbe d4ad 833f 6e13 833f
000000d0: 07f6 01bf e8f3 513e c3d7 353f 41de 1ebf
000000e0: ecc4 493f 840f 0e3f 5b3d f23e 7867 5a3f
000000f0: 7d7c aabe a989 6a3c f6e2 b53f 637f 8b3f
00000100: fb66 823f 2457 be3e f740 06bf 6dd6 873f
00000110: 72cc 133f 52ad fc3e df70 f13e bbd7 1ebe
00000120: db8d 8c3e 89ff 133f a7af 4b3f 1b20 e63f
00000130: 0567 7d3f a72e 8dbf f6ca a2be ca7d 803f
00000140: e17d b0be c35b cb3c cd34 bc3f 7979 66be
00000150: e60d 373f 076f 143f 4b51 803f da47 6f3e
00000160: 7037 09be 043e 43be aece 5d3f ccaa 75be
00000170: 94e3 30bf f6fb c5bf 286b 8fbe 10b6 a5bf
00000180: 4f8d 06bf cb63 2abe 1e66 243f f0e7 12bf
00000190: 007e 853f 968d b1be 124e d6be 83a3 653e
000001a0: 8c78 353e b160 8ebe 56a7 483e d0f1 10bf
000001b0: faa7 8f3e e467 8e3e 8b46 f63e 0088 cc3e
000001c0: 9abb 8bbe 227d 113e 7121 0440 d996 83bf
000001d0: 94eb 12bf 7b8f fe3e 5560 30bf 1c50 1d40
000001e0: 0370 303f c18c 0f3e 0fcd 5ebe 8ba9 8ebf
000001f0: 2b2e fbbb c26c 0440 5892 a7be 5e5d 86be
0.5317119 -0.21023059 0.35078737 -0.31807894 0.015035066 -0.16411056 -0.21089658 -0.5967164
0.29672846 -0.18605562 -1.1798741 -0.44073695 -0.1724826 0.2411948 1.2379769 -0.65745056
2.0867014 0.14550409 0.39645356 0.16420424 1.3034716 0.34298274 0.33938962 -0.9217942
0.44435123 1.1509938 0.41198915 -0.2505147 -0.22858287 0.22073264 0.61568314 0.51667625
0.39732435 -0.5587802 0.76202786 0.4575553 0.27771863 -0.37363735 -0.20089042 1.3810012
0.22649279 0.61273724 0.2560513 1.5338575 0.20080051 0.68524766 -0.29785493 0.59615344
1.1457001 -0.27627543 1.0287423 1.0240304 -0.5076603 0.20503199 0.7103235 -0.6205788
0.78816104 0.55492425 0.47312436 0.8531413 -0.33298102 0.014315047 1.4209888 1.089825
1.0187677 0.37175858 -0.5244288 1.0612313 0.57733834 0.49350983 0.47156426 -0.15511982
0.27451977 0.5781179 0.795649 1.7978548 0.9898532 -1.1029862 -0.31795472 1.0038388
-0.34471038 0.024824029 1.4703614 -0.22507276 0.7150558 0.57981914 1.0024809 0.23367253
-0.13400054 -0.19066626 0.86643493 -0.23990935 -0.69097257 -1.5467517 -0.2801144 -1.2946186
-0.5255937 -0.1663963 0.6421832 -0.5738516 1.0429077 -0.34678334 -0.41856438 0.22425656
0.17721766 -0.27808145 0.19595084 -0.56618977 0.28057843 0.27813637 0.48100695 0.3994751
-0.27291566 0.1420789 2.064541 -1.028041 -0.57390714 0.49718842 -0.6889699 2.4580145
0.68920916 0.14018537 -0.21757911 -1.114549 -0.0076654158 2.069138 -0.3272884 -0.2624311

actor.0.weight f4 [256, 48]
00000000: 8fe7 933e bd7f db3d 6224 dabd 9143 533d
00000010: 7580 183e 8582 30be af81 133e da0b 853c
00000020: 1f44 ba3d f8a3 d53e d186 8b3c 704a 4ebc
00000030: 9190 ba3e 919a 1b3e 371c 45bc 23dd 5cbd
00000040: e1e9 1c3d f5fb 15be 9d83 8e3e f613 eb3a
00000050: c410 823b ee24 753e 66f2 343e cb67 50bd
00000060: 9480 a63e e960 86bb 56cf bebd f409 60bd
00000070: a312 ee3d 5a65 c4bd 2d58 d43b d35f a5bd
00000080: f21f 993d 8f04 b33e 29c2 0bbe 986a 0bbd
00000090: f0c0 b23e 96a5 a93d eef2 efbc 55a6 d4bd
000000a0: a635 503e 2a41 3cbe 60ad 9c3d 6009 fabd
000000b0: e0e4 3abe 197d 743e d3ba 2cbe 52e3 a73d
000000c0: 6346 703e 204e ae3e b62d dc3d 3765 02be
000000d0: f9f8 6abd a132 9a3d ea1b edbc b22b a5bd
000000e0: 5fe6 9dbd ef0d 863c 1187 86bd 5c9e 02be
000000f0: 422d 3a3e d160 bb3e 45ce 0a3e 92e8 9d3d
00000100: cb84 75be fc96 1cbe 84bb 183d c6b6 8bbc
00000110: 3e44 acbd 658f 69bd bbc6 3cbe 918f 55ba
00000120: a423 903e 3df7 a83e 9dc4 5d3e ec75 083e
00000130: 9747 2cbe 8f1f adbd 08de 07bd e129 c8bc
00000140: ddb5 40be 95a5 9f3d d323 61be 7319 48bd
00000150: 1969 cd3e fb3f a63e de89 323e 6269 92bd
00000160: d786 9cbe 0369 5ebc 3ab1 d73c 72ee 31bd
00000170: d058 97be ea1e 1d3e dfe6 0fbe fc7d 4e3e
00000180: fa56 cebe 6682 1e3d 6955 dfbc fd5c 0d3a
00000190: 09a5 0f3e 6fb2 c83d d78d 1abd 3a43 7d3d
000001a0: 7773 34bd 8200 bfbe 66f0 3f3d 1160 25be
000001b0: dc74 e8be 9e01 4fbd 0ddc 6fb9 d6e7 39be
000001c0: 9630 d83d 87a2 693d fe05 623d 097a e2bd
000001d0: 335b 9c3c df70 7bbe 97e0 173e cd7c 9ebd
000001e0: e4e1 94be 93a1 c2bd 2bdf ba3d 8742 a4bd
000001f0: 13d2 f33d 013a 12bd 738a 753d fc7a 94bd
00000200: 9ad6 0c3e 9357 e0be a1e8 7ebd 0ac6 4abe
00000210: 00df a0be 1300 873d 96d7 adbd ff01 743d
00000220: 5e4a 133d 1dea 89bd 7af8 0f3e dcd4 4cbc
00000230: bf5d d2bb 3724 b2be a85f b53d 5677 8bbe
00000240: 1ee0 3fbe d56e 02bd f7a7 9a3d 22ae d8bc
00000250: 8fab 0a3d 6483 00be a2a1 cc3d 6527 a6bd
00000260: 0409 923e afb0 83be 75ae d0bd b082 dfbc
00000270: 454b 29be a0f8 923d ee0c 5a3d 33fe 29be
00000280: 5547 56bd 794c c63d 6c87 db3d 67ab 06be
00000290: 6b8f 9d3d 1408 6abe 55eb fe3d 0be1 093e
000002a0: c1ae ccbd 457b 5c3c 5808 f43d deed 113d
000002b0: 3444 dfbd c154 193d 9e44 cb3d b9a5 9b3d
000002c0: 961e 883e 0334 edbc 4823 423e 9120 1e3e
000002d0: 5e30 99bd 1fc3 e43d 9ff5 98bc 5536 edbc
000002e0: 388c b0bd 029c 51bd daa6 9e3e a08e 5d3d
000002f0: 55d4 6b3e 392d b9bc 85df 053e ea9b 9c3e
00000300: a69b 6e3d c6c0 c6bd 632f b53d 5094 f03d
00000310: f8cf ffbd 4cd5 993d c74e 023d 6f31 63bd
00000320: 2332 673d c178 e3bd 6e3a 8bbc 2070 d2bc
00000330: 2193 e53d 227d 16be 6869 36bc 14d9 0b3e
00000340: 9840 9a3d 4794 c0bd 24e0 c23c 05a0 963d
00000350: d498 a4bc cb6d 95bd 6dfd 353c bea9 ed3c
00000360: a08f 5abd 16f7 6f3c 5f8b 29bd 7308 4cbc
00000370: 4225 16be f01e 15be 2917 a33c 8243 183d
00000380: 94b9 abbd 3a7e 1bbe 8a46 e63c 5b04 75bc
00000390: e0b5 cbbb 6ebc f23d 3da3 033e 7494 813d
000003a0: 9394 9ebc 611a 003d 534b 283d 8ad5 05be
000003b0: bfa1 c73d a217 5fbc b906 be3d 33bf d93d
000003c0: 5f68 d73d 6e02 843d d9bf 413e 17b1 f33d
000003d0: eb16 313b 1a4c 80bc 67ab 783d c1b7 75be
000003e0: 1384 a13e b826 da3d 3705 bc3c 6268 ae3c
000003f0: 6426 023e def0 12bd 4f21 833d ff07 b9bd
0.28887603 0.107177235 -0.10651471 0.05157811 0.14892752 -0.17237289 0.14404939 0.016241003
0.09095024 0.4172666 0.017032059 -0.0125909895 0.3643842 0.15195681 -0.012030653 -0.05392183
0.03830898 -0.14646895 0.27834788 0.0017935026 0.003969284 0.23939869 0.17670593 -0.050880235
0.32519972 -0.004100908 -0.0931689 -0.054696992 0.116246484 -0.09589644 0.006480238 -0.08074918
0.07476796 0.34964415 -0.13648285 -0.034037203 0.34912825 0.08283536 -0.029290643 -0.10383288
0.20332965 -0.18384233 0.07650256 -0.122088194 -0.18251371 0.23875846 -0.16868143 0.08197655
0.2346435 0.3404398 0.10750906 -0.12733923 -0.057366345 0.07529188 -0.028943975 -0.08064975
-0.077099554 0.016364066 -0.065687306 -0.12755722 0.18181327 0.36597303 0.13555248 0.07710375
-0.23976438 -0.15291971 0.037288204 -0.017054927 -0.08411454 -0.057021517 -0.18435185 -0.0008146698
0.28152192 0.33001128 0.21657033 0.13326234 -0.16824184 -0.08453285 -0.03317073 -0.024434032
-0.18819375 0.07795254 -0.21986322 -0.048852395 0.40119246 0.32470688 0.17435405 -0.071490064
-0.30571625 -0.013574841 0.026329625 -0.04344029 -0.29559946 0.15343824 -0.14052914 0.20165247
-0.40300733 0.038698576 -0.027262406 0.00053925795 0.140278 0.097996585 -0.037732925 0.06183169
-0.04405543 -0.37305075 0.04686012 -0.16149928 -0.45401657 -0.05053865 -0.00022874791 -0.18154845
0.10556142 0.057039764 0.055181496 -0.110584326 0.019086456 -0.24554776 0.14831768 -0.077386476
-0.2907859 -0.09503474 0.09124597 -0.080205016 0.11905303 -0.035699848 0.05994649 -0.0725002
0.13753739 -0.43816814 -0.06223357 -0.19802108 -0.31420135 0.06591811 -0.084883854 0.059572216
0.035959594 -0.06734107 0.1405963 -0.0125019215 -0.006419867 -0.34793255 0.088561356 -0.27239484
-0.18737838 -0.03184398 0.07551568 -0.02645022 0.033855017 -0.12550122 0.099917665 -0.08112983
0.28522503 -0.25720736 -0.10189525 -0.027283996 -0.1653262 0.07176328 0.053234987 -0.16600876
-0.05231412 0.09682555 0.10719189 -0.13151322 0.076933704 -0.22854644 0.1244723 0.13464753
-0.09994269 0.013457124 0.11915654 0.03562724 -0.109016806 0.037434343 0.09925197 0.075999685
0.26585835 -0.028955465 0.18958771 0.1544211 -0.074799284 0.11170029 -0.018671809 -0.028956572
-0.086204946 -0.05117417 0.30986673 0.054091096 0.23030217 -0.022604572 0.13073547 0.30587703
0.058253907 -0.09704737 0.08846929 0.11747038 -0.12490839 0.07511386 0.03181341 -0.055467065
0.0564443 -0.11107016 -0.016995635 -0.025688231 0.11209703 -0.14696172 -0.011133529 0.13657027
0.075318515 -0.09403282 0.02378852 0.0735474 -0.020092405 -0.07296332 0.011107785 0.029011603
-0.053359628 0.014646312 -0.04139268 -0.012453186 -0.1466265 -0.14562583 0.019908505 0.037173755
-0.083850056 -0.1518487 0.028109808 -0.014954652 -0.0062167495 0.11852346 0.12855239 0.06327143
-0.019357955 0.031275157 0.04108746 -0.1306974 0.097476475 -0.013616474 0.09278626 0.106321715
0.10517954 0.06445776 0.1892084 0.118990116 0.0027021717 -0.015661288 0.060710337 -0.23995878
0.31546077 0.10651916 0.022951705 0.021290008 0.12709957 -0.03587424 0.064028375 -0.09034728

actor.0.bias f4 [256]
00000000: 3979 47be 3154 123e 9180 cbbd 2fca 85bd
00000010: 9195 c6bd 72a6 9abc c715 89bd 28ee ea3d
00000020: 7dfe 8dbd f916 4ebe 196c 403d 2b3d 753d
00000030: 4c2e 843e 3779 bf3d 6b16 a4bd 5aa2 02be
00000040: 1525 7abe 8dd9 20bd 0d8d fd3c db22 b0bd
00000050: dbe7 28be 0f11 883c 289d 07be b27f 0cbe
00000060: b4d0 3abe 246e 0e3d 22ee 25be 3f83 e83d
00000070: ad15 603d 665f 9abe 72cd 6ebc a82e 813d
00000080: c57a 64bd 840f 9c3d 5b80 b0bc ed34 053e
00000090: be1f 79be 9a72 19bc e5cc 213e 9433 913d
000000a0: 25d1 fbbd c858 b43c f6a0 47bd f17a b9bd
000000b0: aff6 783d 5063 533e cb06 293e 6ad8 6cbd
000000c0: 4581 553e 9b0b ebbb cbab f33d 0443 e2bd
000000d0: 3dd3 39bd ff3f 3c3e b29c b9bc 0116 66bd
000000e0: 4de5 29be f220 d5bc 631b 043e 28d1 c4bd
000000f0: 4fb1 303e 3e1c 923c 6298 c8bd b7f2 fcbb
00000100: 9552 b63d 2764 91be c98e d53d 28e5 0bbe
00000110: 0871 35bc 39dd 01bd 6555 1abe 0a44 a7bb
00000120: 8d46 b3bd 5178 873d 08b5 363d ccf7 763d
00000130: 0dfb f53d a174 c13b 8538 803d d61e c43c
00000140: 5f79 613d 3a08 b33d 37ea 1a3d 27bb 8bbd
00000150: d807 81bc 3ab7 263c 8189 c43c 6fb8 9cbd
00000160: 72e6 6bbe a680 1cba 7aa2 393d 9209 01bd
00000170: 51a5 cfbd e1f8 9c3b 9d70 b5bd 1109 cabc
00000180: 1b77 163e 6451 003e c5f3 153e 99c5 15be
00000190: 92d8 b23d 3a44 083e f984 9dbd 4011 10bd
000001a0: 3551 cb3d 6e23 943c 0fc1 8b3d 37b4 d0bd
000001b0: 39f0 6e3e b017 ab3c d4cf 27be 788d d53c
000001c0: d954 573e 99ba 2e3d 47fa 41bd c29a 343d
000001d0: 8aa9 10be 3536 07bd aace 003e 7954 58be
000001e0: ba6d 463b adc8 93bd e1e9 c03d 2104 dabd
000001f0: bc40 943c b2ac 0f3e 18f3 cabd eee8 25be
00000200: e1a3 36bd bc7d 68be 1fad 843d 03e9 f93d
00000210: 0bef 14bd 03e0 a23d 9840 483d 48ab 933d
00000220: e5cd 21bc 00e4 933e e7d4 ac3d 3e99 3a3e
00000230: 6da1 c3bc 9e9c 41bc 9ec2 ce3d 009e 0d3e
00000240: cdaf 703b 10c8 853d d70d 483e 5893 183e
00000250: 8b3e 873d a099 dabd 6739 313d 4f48 403e
00000260: a7ac eebd 9ec4 1c3d 0067 1dbe d166 e1bb
00000270: e394 0dbe 1e3f a7bd df9d 6b3e 5c8b 9cbd
00000280: 609a 8f3e c2e8 b03b 5a24 c3bc 2a6c 633e
00000290: 82ae b2bd df9a 273d 72dd 30be 64ee 9abd
000002a0: 3365 0b3e 2544 d23c df19 0dbe e416 efbc
000002b0: be59 263d 9532 e43d d0b5 fd3b bf8a 8cbd
000002c0: c092 4e3e 5781 833e 5340 47be 1efb 4cbd
000002d0: b250 1ebd 2385 f9bc 4a7d aabd a4d5 9ebc
000002e0: 0ba8 7cbb 9df4 87bb b6e3 15be 1d4c 603e
000002f0: 1994 ee3d 2459 ffbc 333e df3d 3a51 24be
00000300: 2fb4 82ba 4de1 a63d 2a42 34be 5bce 0e3e
00000310: 2f93 13bb c27a 843b f14e 303e 78ab 023d
00000320: a878 5dbe 42dd 6f3e 8ab8 0c3d ad64 3b3e
00000330: b544 463b d645 973e 367b 3ebe 1c2f 803d
00000340: 1aa4 ad3d 44b5 25be 9fd8 9e3c 67f5 29bd
00000350: 2273 27be f107 233e cb48 a6bd 91df a6bd
00000360: e7cc cebd 6812 8cbd f189 22be c291 d23c
00000370: 8e7d 53bc 85e5 1d3e 2f8d 103b d584 093d
00000380: af2c acbd 762a c43d 955d 91bc 762f 7f3d
00000390: b43c 3dbe 9ecf 9fbd 989e cf3d bc60 56be
000003a0: f74d 18be f14e 95bc d922 8abd 29cb 05be
000003b0: 8610 903d 4c80 43be 28dc 063e cee7 3abc
000003c0: 0eda 3d3d 829e 853c cdfc a33d d144 d43d
000003d0: 0ed4 313d 324f 95bc 1841 443c 151f 873d
000003e0: d256 513e 6a30 253d 56c7 51bb b2b8 e63d
000003f0: effa 12be fee5 e5bc c9b7 2e3d af02 f53d
-0.19479837 0.14289929 -0.099366315 -0.06532704 -0.09696496 -0.018878195 -0.06693607 0.11471206
-0.069333054 -0.20125951 0.04697809 0.059872787 0.25816572 0.09349292 -0.080120884 -0.12757245
-0.24428208 -0.039269973 0.030951047 -0.08600398 -0.16494696 0.016609697 -0.13243544 -0.13720587
-0.18243676 0.034773007 -0.16204122 0.11353158 0.05470817 -0.30150908 -0.014575349 0.06307727
-0.055781145 0.07620147 -0.02154558 0.13008471 -0.24328515 -0.009365702 0.15800817 0.07089916
-0.122957505 0.02201499 -0.04873749 -0.09056652 0.06078213 0.20643353 0.16506498 -0.057823576
0.20850094 -0.0071730143 0.11898001 -0.110479385 -0.04536747 0.18383788 -0.022657726 -0.05617333
-0.16591378 -0.026016686 0.12901072 -0.09610206 0.17255138 0.017835733 -0.0979469 -0.0077193636
0.0890247 -0.28396723 0.10427625 -0.13661635 -0.011074312 -0.031705115 -0.15071638 -0.0051045464
-0.08753691 0.066147454 0.04460624 0.06029491 0.12010775 0.005903796 0.0626078 0.023940485
0.05504739 0.087418035 0.03782102 -0.06822806 -0.01575081 0.010175521 0.023991348 -0.076523654
-0.23037127 -0.0005970098 0.045320965 -0.031503268 -0.101389535 0.004790411 -0.0885937 -0.024662526
0.14693873 0.12531048 0.14643772 -0.14626159 0.08732714 0.13307276 -0.07691378 -0.0351727
0.099275984 0.0180833 0.068239324 -0.10190623 0.23333825 0.020885319 -0.16387874 0.026068434
0.2102846 0.042658422 -0.047357824 0.0440929 -0.14127174 -0.03301068 0.12578836 -0.21125974
0.0030277804 -0.0721601 0.09419609 -0.10645319 0.018097274 0.14030722 -0.09909648 -0.16202137
-0.04458988 -0.22704214 0.06478333 0.122026466 -0.03636078 0.07952883 0.048889726 0.07210404
-0.009875749 0.28884888 0.084390454 0.1822252 -0.023880685 -0.011817126 0.10095714 0.13829803
0.003672588 0.065322995 0.1953653 0.14899957 0.06603726 -0.10673833 0.043267634 0.18777584
-0.116540246 0.038273446 -0.15371323 -0.0068787117 -0.13826327 -0.081663355 0.23009442 -0.07643768
0.28047466 0.0053988406 -0.023821045 0.2220923 -0.08724691 0.04091918 -0.17271975 -0.07565001
0.13612823 0.02566726 -0.137794 -0.02918572 0.04061293 0.1114246 0.007742621 -0.06862401
0.20173168 0.25684616 -0.19458131 -0.05004417 -0.038651176 -0.030458992 -0.08324678 -0.019388981
-0.003855231 -0.004149033 -0.14637646 0.21904035 0.11649341 -0.031170435 0.109005354 -0.1604661
-0.0009971912 0.081484415 -0.17603365 0.13945906 -0.0022518148 0.004042954 0.17217614 0.031901807
-0.21628058 0.23424247 0.034355678 0.18300124 0.0030253355 0.29545468 -0.18601689 0.062589854
0.084785655 -0.16182429 0.019390402 -0.0414938 -0.16352513 0.15920998 -0.08119353 -0.08148111
-0.10097676 -0.06839448 -0.15872933 0.025704268 -0.012908353 0.15419586 0.0022056808 0.033573944
-0.0840696 0.09578411 -0.017744819 0.06230112 -0.18480188 -0.07803272 0.10137671 -0.20935339
-0.14873491 -0.018226119 -0.06744928 -0.1306578 0.070344016 -0.1909191 0.1316992 -0.011407806
0.04635053 0.016310934 0.08007202 0.10364688 0.04341512 -0.01822624 0.01197841 0.06597725
0.20443276 0.040329374 -0.0032009683 0.112656966 -0.14353536 -0.02806377 0.04265574 0.119634025

actor.2.weight f4 [128, 256]
00000000: d4b7 243e a745 5bbe 985e 07be cad5 ecbd
00000010: 0033 94b9 3e05 39be 8393 ab3e 55c7 323e
00000020: 5f19 b93d 4e39 723d 45b4 aabd 9d48 15bd
00000030: 65b4 a2bd c56f 993e 32a3 edbc 4a29 aabd
00000040: 50d4 153d 0097 50bc e02e f2be dbe0 12be
00000050: 0ba1 89bd 37af c53d cc24 6abe 7db2 6d3e
00000060: daf5 473e ada1 1d3e 4fdf 39bc 93a5 e33c
00000070: c439 f33d f879 ac3c 5e23 403d d664 0abe
00000080: 9f6b febd 84be 8dbe 63c8 26be 303e 113e
00000090: dcfc 533e 2680 9ebe d109 91be 23c0 fd3b
000000a0: 1eae 813d b260 37bd c733 21bc c5be 2cbd
000000b0: b130 263d 47b8 29be e34e ad3d 8a96 e13b
000000c0: a163 9a3e 6ddc 3abe b1b8 1fbe bfd9 433b
000000d0: 83cb 92bd 9e19 8ebe 771f 75be e7b9 ffbd
000000e0: cb4b ec3d 40ee 503e ac23 033e 61a3 b4bd
000000f0: 0e72 01be f8eb acbd 5c8f 543e 61db a63c
00000100: f784 853d 2762 e83d c350 233e bff4 a9bd
00000110: 64b2 c43e 6759 9a3d 5c6b 8dbd ec02 673b
00000120: 23f1 0a3e bde9 fdbd 4c82 29be 0db5 903d
00000130: 7467 53bc 4b8c 8b3e f2f1 0c3d f8e3 ddbc
00000140: b6e1 53bd 5c98 be3a 79f0 c1bd 8770 febd
00000150: 9124 ef3d 4fba 193e 2aec 0f3e e1aa 203d
00000160: ef71 ba3c d606 72bd 919a 35bd 88f2 e63b
00000170: aa03 373e 0329 f2be 32af 203e 9b33 4d3e
00000180: 7f19 5dbd f3ca bcbe 2527 a33b 1938 02be
00000190: eab1 edba 8bf6 94be 4c85 b33d 0051 37be
000001a0: bfc7 a639 1600 da3d 7bbc c83a 29d0 94bd
000001b0: 174d c33d 3005 313e 6331 0c3e 9d01 d33d
000001c0: c3d3 af3d ac66 ac3d 6908 2bbe 962e b73c
000001d0: 0565 1ebe b194 cb3d da72 003e 94f8 883c
000001e0: c639 dc3d 8ed9 503e e068 c03d 8073 003d
000001f0: 14d7 2cbd 0444 92bc aa56 173e 0cc8 fb3d
00000200: 1cb6 2d3d 350d 29be 1217 8bbc 2248 1cbe
00000210: 858c 0abe ede6 81bd 0620 63bf 4d32 67bd
00000220: 8578 c13e 50e5 2c3d f024 da3d eb85 3cbd
00000230: 87ac 73be 6eb8 0ebe 3699 5b3e 6c59 5d3d
00000240: 65d9 18bb 701c 773e 39e0 0abe f541 f7bd
00000250: 4508 1abe 0169 debd 4cbd ea3d a155 2dbe
00000260: f240 9f3c 41b5 0ebd 872a 8e3e 8630 84bd
00000270: de08 8b3e c324 56bd 15a7 473e 2cd6 953a
00000280: 2bda 84bd fcca 223c f281 ddbd f09d 3f3d
00000290: cbb1 3e3e 8381 88bd a6d2 e13d cf1e 7b3e
000002a0: d7a2 f2bb b694 a3be 2856 dfbc 838d a43d
000002b0: c717 c5be e070 af3d 433a 08bf 5392 743e
000002c0: f607 2bbc c486 aabd a59d 373d 894a d13d
000002d0: 2860 673d e6d5 57bd 64c1 f03d f8a3 23bd
000002e0: ccb7 f3bd f5eb b53c 5ce8 eabc c6f1 393d
000002f0: 0bfc ca3d c050 ed3d daca 8c3d 3527 8c3e
00000300: 79fa bcbd ce63 b63d 47fd f63e ae2f 50be
00000310: caa4 05be 82e2 aabe 9350 aabe f045 80be
00000320: 07e1 94bc 924e 3fbf 2890 ac3c 481d 06bb
00000330: 978b efbd 7005 2bbe 9ed8 8abe 316f 35be
00000340: aaf2 8f3d 48ed 0cbe 0f2a 9abd 8983 19be
00000350: 257a 393e 405b 42be 5f03 ce3c 09a5 7f3d
00000360: f48d 65bd d261 193e 68a9 0abc b192 783e
00000370: e613 ffbd 72a5 90bc 646d 5c3c 918a 51bd
00000380: 6a16 c0be 66cc 1fbd 7dd2 6c3d 4967 313e
00000390: 633f 063e 8c28 8e3d 8b34 123d 7e90 e13d
000003a0: 1a91 4f3e 5076 42bc ae74 dd3d a45c 4cbd
000003b0: 2e7a afbd 6166 0f3c 33a1 c23d 2a90 18bd
000003c0: 05d1 b53c 45c1 d6be 5513 893d e031 03bd
000003d0: d888 61bd b81d a1bd 708f 01bd 2086 443d
000003e0: 351e cdbe 33fd 413e 8317 08be 503f 41be
000003f0: c7ab 8d3b 0862 da3d 184b f9bc d389 f9bd
0.1608575 -0.21413289 -0.13219678 -0.115642145 -0.00028266758 -0.18068406 0.3351098 0.17458852
0.09038042 0.05913668 -0.08335165 -0.036446203 -0.07944564 0.29968086 -0.029008482 -0.083086565
0.03657943 -0.012731314 -0.47301388 -0.14343588 -0.0672017 0.0965256 -0.228656 0.23212619
0.19527379 0.15393706 -0.011344745 0.027788913 0.11876252 0.021054253 0.04690873 -0.13515028
-0.12422871 -0.27684414 -0.16287379 0.14183879 0.20701927 -0.30957144 -0.28327802 0.0077438517
0.06332038 -0.04476995 -0.009839005 -0.04217412 0.04057378 -0.16574202 0.08462312 0.0068844007
0.30154136 -0.18248148 -0.15597798 0.0029884425 -0.07167723 -0.2775392 -0.23937784 -0.1248663
0.11537894 0.20403385 0.12806576 -0.088202246 -0.12641165 -0.08443445 0.20757812 0.02036828
0.06519502 0.11346846 0.15948777 -0.08298635 0.3841735 0.075365834 -0.06905243 0.0035249544
0.13568549 -0.12398098 -0.1655361 0.07065783 -0.012903083 0.27255473 0.034410425 -0.027086243
-0.051728927 0.0014541256 -0.09469695 -0.12423807 0.11676896 0.15012477 0.14054933 0.039225463
0.022759406 -0.05908855 -0.04433686 0.007047955 0.17872491 -0.47296914 0.15691832 0.20039217
-0.053979393 -0.36873588 0.0049790316 -0.12716712 -0.0018134688 -0.29094347 0.08765659 -0.17901993
0.0003181081 0.10644548 0.0015314961 -0.07266266 0.09536188 0.17287135 0.13690715 0.10303042
0.08585312 0.084180206 -0.16702427 0.022361081 -0.15468223 0.0994047 0.12543812 0.016720094
0.10753207 0.2039549 0.09395003 0.03136015 -0.042197302 -0.017854698 0.14779153 0.12294015
0.04241 -0.16508944 -0.016978774 -0.15261891 -0.13530166 -0.06342874 -0.8872074 -0.056444455
0.37787262 0.042210877 0.106515765 -0.04602615 -0.23796283 -0.13937542 0.21445164 0.054040357
-0.0023322937 0.24131942 -0.13562097 -0.12073127 -0.15042217 -0.10859872 0.11461887 -0.16927196
0.019440148 -0.034840826 0.2776682 -0.064545676 0.27155203 -0.052281152 0.1949733 0.0011431626
-0.06486925 0.009936091 -0.10815801 0.04678148 0.1862251 -0.066653274 0.11026506 0.24523471
-0.007404666 -0.31949395 -0.027262762 0.08034804 -0.38494703 0.08566451 -0.532139 0.23883943
-0.01043891 -0.08326486 0.044828076 0.102192946 0.056488186 -0.052694224 0.11755636 -0.039951295
-0.11900291 0.02220724 -0.02867525 0.04539659 0.09911355 0.115876675 0.06874628 0.27373663
-0.09227461 0.08905755 0.4824011 -0.20330688 -0.13051143 -0.33375937 -0.33264598 -0.25053358
-0.018173708 -0.74729264 0.021064833 -0.002046423 -0.116965465 -0.16701293 -0.2711839 -0.17718197
0.07028706 -0.1376239 -0.07527553 -0.14991583 0.18113 -0.18980122 0.025148092 0.06241325
-0.05604358 0.14978722 -0.008463241 0.24274708 -0.12454967 -0.017657015 0.013453815 -0.051157538
-0.375171 -0.03901329 0.057817925 0.17324556 0.13110118 0.069413275 0.03569464 0.11013888
0.20270196 -0.011869028 0.108132705 -0.049893036 -0.08568226 0.008752436 0.095034026 -0.03724686
0.022194395 -0.41944328 0.066931404 -0.032029986 -0.055062145 -0.078669965 -0.031630933 0.047979474
-0.4006211 0.18944244 -0.13290219 -0.18871808 0.004323456 0.10663229 -0.030431315 -0.12184491

actor.2.bias f4 [128]
00000000: f5e7 3f3d 0aba bbbd a3d5 eebc 79fa c03c
00000010: 2c70 38bd 0cd0 eebd 1d1f 8dbc de3c d6bd
00000020: 08b4 a1bd ad10 d13d b235 7abc a207 8bbd
00000030: 37d2 823d ea15 a4bd feb7 3a3d 7161 193d
00000040: 3174 643d 5717 dc3d 4300 963c 67f6 cf3d
00000050: 387b b63d 6999 b43d e602 1fbd 4067 53bd
00000060: bf2c 2239 1d5e 5bbd 0e4b dc3d 66e8 19bd
00000070: 05d0 8cbc 9d3d 00bd 7c19 5abd 94e6 5bbd
00000080: 1a20 4cbd 5931 39bd 4d2a 6fbb c863 73bd
00000090: 5206 b0bd 118c b7bd e9a5 05bd 73f8 30bd
000000a0: 50e8 0c3d 5115 353d e4e9 cabd ad01 8f3b
000000b0: d872 753d 6436 a83b d5c5 ea3d 4ad5 cf3d
000000c0: 14aa 7ebd 4b71 a83d b46b 703b 3bd9 12bd
000000d0: 9be1 b8bd 8638 6b3d f163 a6bd a842 e33c
000000e0: 6a5c 0abd c8f8 1c3d 854f 89bd c331 f33d
000000f0: f424 c9bd 775d 873d 8705 b4bc 57fa 2f3d
00000100: 003b adbc a1f5 903d 7f27 0cbe 21de 08bd
00000110: fb1b 98bc cba3 993b 8256 f23d 112a 96bd
00000120: d12a 773d 4ddf 8fbc 65fc 983d cc1d 1c3e
00000130: b97e 063c 7b73 06bd 0f36 8e3d df50 6b3d
00000140: 7fc3 0b3e bb56 803c 1ebf 06bd 1c49 13bd
00000150: 11b0 cdbc 9ae2 583d d0f3 eeb9 ac69 e33c
00000160: 1c7f e23d 9c47 adbc 8329 aebd d9cd adbd
00000170: 45f9 c03d 876e 483d 9cd3 c83d bfa2 9b3d
00000180: 2d4d 4fbc f684 fbbb 18bf b83a b8a1 ae3b
00000190: bbf2 2b3e 6f16 193d a971 553d d338 b1bd
000001a0: 16ac 5f3d c7df cf3d a733 873b 5114 7abd
000001b0: 71d3 863d aa54 113d dc40 923d 0722 0bbc
000001c0: 3eff fdbc ce48 91bd 6e4d 0b3c 9f26 65bd
000001d0: 114b 023d 2301 2c3e bb08 febd 48fd d9bd
000001e0: 0cee f63d 5eba b03d 508b e43d 4492 27bc
000001f0: c23a 0c3e d739 f8bd 9492 45bd 8904 673e
0.04685207 -0.091663435 -0.029154604 0.023556935 -0.04502885 -0.116607755 -0.01722675 -0.10460828
-0.07895666 0.10208259 -0.015271591 -0.06788565 0.063877515 -0.08011992 0.045585625 0.037446443
0.05577487 0.10746639 0.018310672 0.101544194 0.08910221 0.08818323 -0.038821124 -0.05161214
0.00015466193 -0.05355655 0.10756503 -0.037575148 -0.017189035 -0.03130876 -0.05324696 -0.053686693
-0.049835302 -0.045213077 -0.003649372 -0.05942133 -0.085949555 -0.089622624 -0.032628927 -0.04320569
0.034401238 0.044209782 -0.09907892 0.0043642134 0.059923977 0.005133437 0.11463515 0.101481035
-0.062173918 0.08224734 0.003668529 -0.0358517 -0.09027406 0.05742695 -0.08124531 0.027741745
-0.03377954 0.038323194 -0.0670462 0.11874726 -0.098215014 0.06609624 -0.021975292 0.042963352
-0.021146297 0.070781 -0.13686942 -0.033414964 -0.01856803 0.004688715 0.11832906 -0.07332242
0.060343567 -0.017562533 0.074700154 0.15245742 0.008208924 -0.032824975 0.069439046 0.05745017
0.13648795 0.015666356 -0.032897107 -0.035958394 -0.025108369 0.05295048 -0.00045576552 0.02776035
0.110594004 -0.02115231 -0.085040115 -0.08486528 0.094225444 0.048933532 0.09805986 0.07599401
-0.0126526775 -0.0076757623 0.0014095036 0.005329337 0.16791813 0.03737491 0.052110348 -0.086534165
0.054607473 0.10150104 0.0041260305 -0.06105453 0.06583298 0.035481133 0.07141277 -0.0084919995
-0.031005498 -0.070939645 0.008502347 -0.055945035 0.03180987 0.16797309 -0.12404009 -0.10644013
0.120571226 0.08629297 0.11159384 -0.010227744 0.1369429 -0.12120407 -0.04823549 0.22560324
