CRL/想要对抗的模型集/slime_ppo_gpu_v4.pth (torch, 371115 bytes, 11 tensors)

critic.0.weight f4 [256, 48]
0.11636074 -0.0005750657 0.0013822401 -0.013602217 -0.34827152 0.033832897 0.008656856 0.008302923
0.22306189 -0.19271533 -0.11498 0.010715986 0.13931003 0.05039109 0.003969996 6.2147315e-05
-0.12600324 -0.16524062 0.0044633048 -0.006424347 0.2052315 -0.14997645 -0.2139214 -0.030050723
0.08784137 0.10162453 0.0028834091 -0.014694978 -0.33864403 -0.18728633 0.0047864253 0.0086244
0.28441584 -0.09255735 -0.075383626 0.11839982 -0.12841174 -0.13810214 0.006316233 -0.033296347
-0.27231506 0.005499743 -0.007757547 -0.008626278 0.19316074 -0.3181401 -0.27850488 0.123943575
-0.12216326 0.16083238 0.0017757217 0.022590693 0.038181763 -0.013617981 0.035151135 0.029940017
-1.2688146 0.14272611 -0.07049015 -0.034205124 0.053099625 -0.028041136 0.007750924 0.017880995
-0.1622169 -0.14493433 0.039042506 0.013087299 -1.2779359 0.024962008 -0.046696667 -0.001965026
0.097220846 0.101554275 0.014227095 0.010582449 0.096456595 0.005440936 0.03585691 -0.009800787
-1.6612031 0.16415457 -0.16623507 0.02450193 0.07064289 -0.11216361 0.013285135 0.005143745
-0.07015961 -0.11958227 0.04090469 -0.01936694 -2.1869447 0.3160566 -0.2704094 0.20147623
-0.054074112 -0.23340741 0.003993731 0.012452298 -0.11056897 -0.0684709 -0.01528379 -0.004024004
-0.18085189 -0.3044842 -0.0826995 0.0008534187 0.12092536 -0.21865864 0.0077726343 -0.0021573124
-0.055770315 -0.030046312 -0.0128784 0.0017563684 -0.23752265 -0.061790407 -0.11645826 -0.017856097
0.069247395 -0.17447056 0.010500884 -0.014041902 -0.07349196 0.040065307 -0.018506495 0.007712269
-0.23318164 0.13368677 0.091518626 -0.03254658 0.17653216 -0.1244496 0.03111989 -0.047410913
-0.20055741 -0.075663865 -0.012188618 -0.011818901 -0.0005127152 0.34654075 0.21219622 -0.19794726
0.14437294 -0.09561744 -0.008142473 0.0077788434 -0.1394519 0.06063797 0.012168265 -0.0031959075
-0.48646846 0.2085344 0.0041406844 0.016753873 0.22225869 0.033651423 -0.0011372642 -0.0012276748
-0.05471269 0.046246447 0.013543437 0.0030036108 -0.48815343 -0.034799974 -0.11492281 -0.006164741
0.025149751 -0.009034021 0.0088814525 0.0048470236 -0.003998987 -0.08393171 0.0066987276 0.005768638
-0.46532136 -0.18725215 -0.42076495 -0.10860093 -0.019338518 0.018482503 0.011879171 -0.0020492575
-0.1899769 -0.14087471 0.009705907 0.014566241 -0.55314255 -0.047415394 -0.22223248 -0.03428264
0.27941474 -0.018245421 0.022832114 -0.057625145 -0.12585548 0.029074647 -0.010754549 0.0012600479
-0.4076361 0.21686867 -0.055108666 0.010006589 0.2681207 -0.027607061 0.022161571 -0.044968586
0.04862841 0.022121994 -0.009988102 -0.0014540816 -0.2958074 0.20938201 -0.043777715 -0.0109899
0.40584728 -0.122298606 0.022294732 -0.17444243 -0.021801217 0.041206926 -0.01804279 0.046754487
-0.3127259 0.06575146 -0.029348291 -0.0203376 0.35421172 -0.13972946 0.027885497 -0.472156
0.06368763 0.025790988 -0.015784709 0.09395047 -0.4659211 0.4807822 -0.0594699 0.5000715
0.018876096 0.19612639 0.008314303 0.005832612 -0.011400686 0.08022412 0.0004577137 -0.0022240493
-0.2444002 0.120125405 0.024252404 0.011547553 0.08057946 -0.12830482 0.0086807655 0.012664929
00000000: 8a4e ee3d 01c0 16ba 482c b53a d5db 5ebc
00000010: a550 b2be 5d94 0a3d 7cd5 0d3c fc08 083c
00000020: 566a 643e 2b57 45be a27a ebbd 1a92 2f3c
00000030: 4aa7 0e3e e366 4e3d bd16 823b 1655 8238
00000040: fe06 01be d634 29be ea40 923b 5483 d2bb
00000050: 3528 523e 6d93 19be 360e 5bbe ef2c f6bc
00000060: 2de6 b33d 8620 d03d 94f7 3c3b 34c3 70bc
00000070: c062 adbe fdc7 3fbe 72d7 9c3b 5b4d 0d3c
00000080: f49e 913e b58e bdbd bb62 9abd 9b7b f23d
00000090: 5e7e 03be a66a 0dbe 67f8 ce3b c061 08bd
000000a0: e16c 8bbe 3037 b43b 0533 febb 3b55 0dbc
000000b0: eecb 453e 42e3 a2be 3198 8ebe 21d6 fd3d
000000c0: bb30 fabd 3eb1 243e 55bf e83a 1e10 b93c
000000d0: 7b64 1c3d f41d 5fbc a3fa 0f3d c444 f53c
000000e0: 8468 a2bf cb26 123e 245d 90bd ac1a 0cbd
000000f0: fe7e 593d 86b6 e5bc 77fb fd3b 2a7b 923c
00000100: 301c 26be aa69 14be 09eb 1f3d 1c6c 563c
00000110: 6793 a3bf 207d cc3c 0145 3fbd aac7 00bb
00000120: b91b c73d b0fb cf3d c318 693c 0262 2d3c
00000130: 098b c53d e149 b23b b2de 123d 7b93 20bc
00000140: 4ea2 d4bf 2318 283e 8739 2abe 46b8 c83c
00000150: 38ad 903d 09b6 e5bd e5a9 593c dc8c a83b
00000160: d7af 8fbd 8de7 f4bd ad8b 273d 6ba7 9ebc
00000170: e7f6 0bc0 2cd2 a13e 1a73 8abe c94f 4e3e
00000180: d17c 5dbd 5a02 6fbe d8dd 823b b904 4c3c
00000190: fc71 e2bd 793a 8cbd dd68 7abc cbdb 83bb
000001a0: 3d31 39be 5ae5 9bbe 5b5e a9bd f6b7 5f3a
000001b0: b7a7 f73d 0de8 5fbe 95b1 fe3b b261 0dbb
000001c0: 6a6f 64bd af23 f6bc edff 52bc f235 e63a
000001d0: 2339 73be f017 7dbd ab81 eebd f346 92bc
000001e0: 94d1 8d3d 69a8 32be e60b 2c3c 0110 66bc
000001f0: f482 96bd 851b 243d ef9a 97bc 34b7 fc3b
00000200: 2bc7 6ebe 2fe5 083e 1e6e bb3d 904f 05bd
00000210: d9c4 343e 6fdf febd 24ef fe3c f231 42bd
00000220: ec5e 4dbe a8f5 9abd c5b2 47bc 10a4 41bc
00000230: bc67 06ba ca6d b13e f749 593e b0b2 4abe
00000240: 80d6 133e 14d3 c3bd 0268 05bc abe5 fe3b
00000250: 7bcc 0ebe 855f 783d 675d 473c 6e72 51bb
00000260: 6512 f9be 0b8a 553e 94ae 873b 6b3f 893c
00000270: c897 633e 13d6 093d 4110 95ba eee9 a0ba
00000280: 6a1a 60bd ea6c 3d3d 4be5 5d3c 3ad8 443b
00000290: 3fef f9be 6b8a 0ebd a65c ebbd 9801 cabb
000002a0: da06 ce3c 6e03 14bc 8383 113c c8d3 9e3b
000002b0: ef09 83bb 63e4 abbd 0081 db3b d806 bd3b
000002c0: 9a3e eebe 07bf 3fbe 816e d7be 2a6a debd
000002d0: d06b 9ebc 9e68 973c dba0 423c d64c 06bb
000002e0: 4e89 42be 7641 10be 8605 1f3c 3ea7 6e3c
000002f0: c09a 0dbf a536 42bd e990 63be f46b 0cbd
00000300: 730f 8f3e 6c77 95bc 6a0a bb3c 5808 6cbd
00000310: 42e0 00be f42d ee3c d933 30bc 3128 a53a
00000320: aeb5 d0be d212 5e3e a0b9 61bd adf2 233c
00000330: 1e47 893e 3428 e2bc 2f8c b53c fb30 38bd
00000340: 952e 473d 2f39 b53c 23a5 23bc e296 beba
00000350: 1174 97be 3d68 563e 4350 33bd fb0e 34bc
00000360: 37cb cf3e b177 fabd 71a3 b63c 09a1 32be
00000370: 7798 b2bc 98c8 283d 79ce 93bc a281 3f3d
00000380: 9c1d a0be b4a8 863d d46b f0bc 0a9b a6bc
00000390: 3d5b b53e 3d15 0fbe 2070 e43c 6ebe f1be
000003a0: a96e 823d 9f47 d33c ef4e 81bc 1b69 c03d
000003b0: 368d eebe 1629 f63e b696 73bd b004 003f
000003c0: 0ba2 9a3c 5bd5 483e b738 083c 7f1f bf3b
000003d0: f1c9 3abc 8b4c a43d 4bf9 ef39 5bc1 11bb
000003e0: 0c44 7abe 4f04 f63d faac c63c f331 3d3c
000003f0: d806 a53d 5762 03be c539 0e3c 9080 4f3c

critic.0.bias f4 [256]
-0.7534062 -0.08818791 0.33571127 -0.34329575 -0.12607312 -0.9904658 0.009051347 0.7086637
-0.34632838 0.095358625 0.31639925 -0.39753458 -0.36405995 -0.34803125 -0.34570196 0.36366585
-0.12151253 -0.564716 -0.37266594 -0.3787627 0.028775224 0.097563654 0.55190015 0.30632588
0.14408022 0.2192558 0.053313915 0.5686553 0.13374758 0.0578671 0.4789446 0.5975691
-1.3099059 0.44379058 0.4438725 0.020539153 0.44602674 0.45793533 -0.8324537 0.5361237
-0.49722305 0.22879267 -0.59952396 -0.47657758 1.0507337 -0.21545087 0.74891585 0.48687804
0.22780436 0.28100476 0.31074655 -0.04095295 -0.49949247 0.108175285 0.58258975 0.15897289
0.05070071 0.26816306 -0.06231278 -0.1703093 -0.13202667 -0.94926006 0.18675002 -0.44591987
-0.062080376 0.063630894 -0.359345 -0.8117365 -0.32941487 -0.13044192 0.32222885 -0.1557727
-0.17329665 0.18613526 0.00043032315 -0.24331549 -0.10521288 -0.09455663 -0.16044831 -0.3302556
0.48796448 0.29848954 0.9064539 0.4031835 -1.541946 -0.27784166 -0.14854103 -0.44624746
-0.16133483 0.11551572 -0.3760324 0.92818016 -0.49339643 -0.70170575 0.3131249 0.11915636
-0.50210166 -0.4645963 -0.06470455 -0.04864485 0.9380755 -0.5214322 -0.20311207 0.6514858
-0.13433214 0.0504683 0.61484784 -0.5056784 0.18783163 -0.19628668 0.5138936 -0.4030705
0.35265929 -0.039913945 0.29007885 -0.20565863 -0.03943592 0.22924712 -1.2172121 -0.007287284
0.5245743 -0.74138105 -0.13113195 0.4612078 -0.4593731 0.1302262 0.29997188 -0.08885479
0.48599845 -0.1719253 0.2056954 0.53598344 0.5507403 -0.08338792 -0.43462792 0.019452635
-0.42779222 0.19773524 0.44487774 -0.25983697 -0.54763883 -0.6729466 0.2984225 0.599111
-0.34327772 0.1177385 0.5078812 0.20101744 -0.0429264 -0.42829907 0.3163289 -0.05768745
-0.021894196 0.5150441 0.15964304 -0.14506648 0.6547907 -0.18754032 -0.14406808 -0.03141676
-0.21450455 0.01520645 0.27568573 0.0940018 -0.055417262 -0.91169965 -0.21275087 0.06296669
-0.7872654 0.697257 -0.6800896 0.6092164 -0.9805191 -0.487289 0.524887 -0.6593772
0.03769234 -1.2322809 0.00035487942 0.81543964 -0.42701885 -0.10373449 0.7748633 -0.9100927
0.2633503 0.35727096 -0.5053058 -0.12649727 -0.3355577 0.34796265 -0.13295965 0.76973546
-1.1290724 0.240793 0.70317936 0.33551085 -0.13409472 0.13601707 0.16513456 0.046376158
-0.39376742 -0.08761139 0.3513791 -0.31220385 0.5717248 -0.3760798 0.20572674 -0.622069
-0.23023432 -0.3990174 -0.12828651 -0.78618705 0.17048857 0.065582484 0.8147511 0.42523533
0.40755776 -0.07297869 0.7046109 0.9648574 0.2492227 0.101264134 -0.26636344 0.12250484
0.8483537 -0.73512495 0.565546 0.17447211 0.10363595 0.21324046 -0.08653816 0.6991976
-0.09000904 -0.1379527 0.6978072 0.38523713 -0.1717775 -0.5484268 0.7186079 -0.99323344
0.43611237 -1.1860769 0.3250463 -0.37197366 0.19590494 0.100385845 -0.25793886 -0.04420882
-0.31878218 -0.88487667 -0.1695225 0.0050447797 -0.36775 -0.47817317 -0.16711937 -0.35425287
00000000: 3bdf 40bf dd9b b4bd 59e2 ab3e 76c4 afbe
00000010: 5019 01be 2b8f 7dbf 1a4c 143c fc6a 353f
00000020: f451 b1be 624b c33d 15ff a13e a789 cbbe
00000030: 1166 babe 2731 b2be d9ff b0be 6932 ba3e
00000040: 90db f8bd 3a91 10bf 12ce bebe 2fed c1be
00000050: 05ba eb3c 74cf c73d 5449 0d3f bfd6 9c3e
00000060: c489 133e 9884 603e b15f 5a3d 6593 113f
00000070: 20f5 083e 0d06 6d3d 3a38 f53e 4afa 183f
00000080: ffaa a7bf 8538 e33e 4243 e33e ba41 a83c
00000090: 9e5d e43e 8076 ea3e b01b 55bf 673f 093f
000000a0: 0594 febe a048 6a3e 677a 19bf fa01 f4be
000000b0: 717e 863f 279f 5cbe f3b8 3f3f 1448 f93e
000000c0: 8c45 693e dbdf 8f3e 2c1a 9f3e 48be 27bd
000000d0: 7abd ffbe 018b dd3d 9a24 153f cac9 223e
000000e0: 8cab 4f3d ab4c 893e b03b 7fbd 9065 2ebe
000000f0: 0032 07be b502 73bf 663b 3f3e 9c4f e4be
00000100: fe47 7ebd ea50 823d 11fc b7be f7cd 4fbf
00000110: 11a9 a8be 9192 05be 2efb a43e e182 1fbe
00000120: ad74 31be 3e9a 3e3e ff9c e139 b227 79be
00000130: da79 d7bd e8a6 c1bd 904c 24be 4317 a9be
00000140: 7bd6 f93e 9fd3 983e 5d0d 683f 116e ce3e
00000150: 7d5e c5bf 4341 8ebe 241b 18be 8c7a e4be
00000160: f534 25be 8193 ec3d 5287 c0be 379d 6d3f
00000170: 759e fcbe fda2 33bf e851 a03e 4008 f43d
00000180: bc89 00bf 91df edbe d283 84bd d23f 47bd
00000190: b725 703f 957c 05bf 9cfc 4fbe c6c7 263f
000001a0: 5d8e 09be d9b7 4e3d ab66 1d3f 2474 01bf
000001b0: ef56 403e 60ff 48be 888e 033f 425f cebe
000001c0: c28f b43e ce7c 23bd 3785 943e 2d98 52be
000001d0: 8f87 21bd c2bf 6a3e 9bcd 9bbf 2bca eebb
000001e0: 804a 063f 26cb 3dbf 7447 06be 6e23 ec3e
000001f0: f332 ebbe 045a 053e ea95 993e 80f9 b5bd
00000200: cad4 f83e 300d 30be d1a1 523e 3636 093f
00000210: 51fd 0c3f 49c7 aabd 8d87 debe 225b 9f3c
00000220: 9507 dbbe 1b7b 4a3e 04c7 e33e 5a09 85be
00000230: 0f32 0cbf 3a46 2cbf d5ca 983e 575f 193f
00000240: 19c2 afbe e220 f13d 8104 023f 84d7 4d3e
00000250: 98d3 2fbd 044a dbbe ddf5 a13e ad49 6cbd
00000260: 755b b3bc eed9 033f 7779 233e 4f8c 14be
00000270: 5da0 273f 920a 40be 9586 13be dcae 00bd
00000280: 15a7 5bbe 7924 793c ae26 8d3e 0484 c03d
00000290: 36fd 62bd 2665 69bf 5ddb 59be aef4 803d
000002a0: 3a8a 49bf 6f7f 323f 5a1a 2ebf 9bf5 1b3f
000002b0: 4d03 7bbf f27d f9be ff5e 063f f2cc 28bf
000002c0: 4863 1a3d 61bb 9dbf 1c0f ba39 a7c0 503f
000002d0: 37a2 dabe c072 d4bd 715d 463f d6fb 68bf
000002e0: dad5 863e 38ec b63e b95b 01bf 8088 01be
000002f0: 38ce abbe 2928 b23e 9326 08be 620d 453f
00000300: 7285 90bf 7192 763e 9003 343f 14c8 ab3e
00000310: 2050 09be 0f48 0b3e 0919 293e edf4 3d3d
00000320: e29b c9be 9a6d b3bd f6e7 b33e 2fd9 9fbe
00000330: 8e5c 123f 888d c0be 08aa 523e ea3f 1fbf
00000340: 8cc2 6bbe 024c ccbe 8a5d 03be 8e43 49bf
00000350: 8e94 2e3e 1c50 863d 8793 503f 72b8 d93e
00000360: 69ab d03e da75 95bd 6161 343f e500 773f
00000370: 3c34 7f3e 9263 cf3d ca60 88be d1e3 fa3d
00000380: b52d 593f 2631 3cbf 9fc7 103f d1a8 323e
00000390: 163f d43d b55b 5a3e eb3a b1bd 9dfe 323f
000003a0: a956 b8bd 7943 0dbe 7ea3 323f cd3d c53e
000003b0: 71e6 2fbe b365 0cbf b0f6 373f 8c44 7ebf
000003c0: 1f4a df3e 5ed1 97bf 786c a63e 5573 bebe
000003d0: 4e9b 483e 1897 cd3d 9010 84be 4f14 35bd
000003e0: 6b37 a3be 4787 62bf 4e97 2dbe ae4e a53b
000003f0: ba49 bcbe 1dd3 f4be 5721 2bbe a260 b5be

critic.2.weight f4 [128, 256]
-0.042565133 0.17152984 0.43747473 -0.19378452 -0.16209303 -1.7526274 -0.91902983 -0.009038357
-0.06957647 -0.014671862 -0.037405785 0.10239921 0.1837226 0.026760092 -0.011344252 -0.07753035
-0.071475565 0.16122219 0.058814667 0.04663609 0.054172266 0.012612629 -0.02658721 0.16021879
0.034965236 0.013020184 0.19829565 0.50868195 0.0029795808 0.018510012 -0.004351571 0.047790725
0.02574015 -0.058521584 -0.03340353 -0.08695571 0.014548914 0.033445403 0.6037222 -0.015576579
-0.12557793 -0.1031231 0.0869058 -0.16170149 0.07105577 -5.577008 0.02409165 0.11374335
-0.08569399 -0.03567157 0.011727867 -0.0007397808 0.3316544 -0.016428154 -0.05855842 0.032143656
-0.12310691 0.08721058 0.04023365 -0.020552158 0.019887835 -0.086857386 -0.05922153 0.19909659
0.12025554 -0.0066653294 -0.24998501 0.019896572 -0.10067069 0.0030844228 -0.1284213 -0.031287108
0.035628617 0.09759276 0.02422381 -0.039150145 0.16052932 -0.010467875 0.050841115 -0.056441218
0.033698983 0.07449959 0.039083906 0.09257506 0.28004017 -1.5789176 -0.25273177 -0.07553285
-0.06356875 0.00950192 0.0055791046 -0.046814665 0.2804872 -0.19729728 -0.07803561 0.038043644
-0.019062197 0.0060643116 -0.054219704 0.1201067 0.077897646 -0.03252187 -0.026405303 0.016487924
-1.8261167 -1.288697 -0.062254697 0.112302564 -0.059703935 -0.0435227 -0.09749279 -0.10214344
0.0027304785 0.096705444 -0.011459705 0.016473422 -0.079204105 -0.07949831 0.2647151 -0.07554782
-0.016102757 -0.12742865 0.10380456 0.036117747 -0.1452457 -0.030840125 0.033095106 -0.05226879
-0.015521146 0.13369235 -0.053741366 0.010041996 0.038308043 0.008866374 0.013374564 0.01501817
0.067667626 0.16785397 0.034265928 0.0457173 0.077822 -0.04461067 -0.09484536 -0.10133844
-0.022883043 -0.13924612 -0.049654968 0.01765807 -0.16950005 -0.068867415 0.47098592 0.03832216
0.064081796 -0.05536124 0.012609215 1.315169 -0.2772282 -0.09310413 0.02731054 -0.005116044
-0.0438407 -1.6715196 -0.07336964 0.35582298 0.055699855 0.035939675 -0.0058343275 0.04175745
-0.061161034 0.08120819 -0.073298246 0.04757365 0.050507553 0.020599868 0.015177208 0.060803063
0.017312191 -0.101343036 -0.3530544 -0.10637584 0.007154896 0.030244956 -0.0140185105 0.31578603
0.020229423 0.019113658 -0.04558538 -0.18384351 0.09242647 0.1294108 0.095951945 0.066189766
-0.49679923 0.15045278 -0.020085523 -0.033968907 0.0784773 0.05496902 -0.054005586 0.005595914
-0.08525076 -0.05138042 0.021578792 0.036949042 -0.08418319 0.094922684 -0.021072948 -0.017837761
-0.14064121 0.06253076 0.09879933 -0.08521268 -0.21834397 -0.012955264 0.079058625 0.10840445
0.045696884 -0.000329019 0.19859163 -0.0050804075 -0.019614952 0.050975535 -0.030376416 0.012018148
-0.062333953 0.03802965 0.113737896 0.06806851 0.35664418 -0.031736884 -0.0350789 0.19880761
-0.925944 0.060038336 -0.014015536 0.012171559 0.084805086 0.040963735 0.25829872 0.014679394
0.0024001736 -0.10338589 0.016491035 0.011897882 -0.023470975 -0.058106255 -0.18523818 0.039476175
0.0029968026 -0.24331123 -0.00096484675 -0.11687495 -0.10860192 0.11274291 0.03086269 -0.07406693
00000000: c758 2ebd 85a5 2f3e b0fc df3e 736f 46be
00000010: b7fb 25be 1856 e0bf 8a45 6bbf 9e15 14bc
00000020: 1c7e 8ebd 4062 70bc cf36 19bd adb6 d13d
00000030: c721 3c3e fb37 db3c 3edd 39bc 3bc8 9ebd
00000040: c861 92bd 6e17 253e a6e7 703d 7c05 3f3d
00000050: bde3 5d3d 33a5 4e3c 6ccd d9bc 6510 243e
00000060: b537 0f3d 9c52 553c 040e 4b3e fb38 023f
00000070: 1245 433b 4fa2 973c a097 8ebb 35c0 433d
00000080: 02dd d23c 54b4 6fbd 24d2 08bd d615 b2bd
00000090: 915e 6e3c 0cfe 083d 8a8d 1a3f e834 7fbc
000000a0: 8097 00be 3432 d3bd abfb b13d 1395 25be
000000b0: b085 913d d976 b2c0 da5b c53c 46f2 e83d
000000c0: 5580 afbd 5a1c 12bd 3d26 403c d9ed 41ba
000000d0: 9bce a93e 5694 86bc f4da 6fbd 11a9 033d
000000e0: 7a1f fcbd 769b b23d 0acc 243d 005d a8bc
000000f0: d0eb a23c 49e2 b1bd 4692 72bd fadf 4b3e
00000100: 8948 f63d d668 dabb 12fc 7fbe 23fe a23c
00000110: 6f2c cebd 0724 4a3b e080 03be e926 00bd
00000120: 50ef 113d b7de c73d 0371 c63c e75b 20bd
00000130: cc61 243e 7381 2bbc c63e 503d e82e 67bd
00000140: f207 0a3d 3e93 983d 7216 203d fe97 bd3d
00000150: 6d61 8f3e f919 cabf 0f66 81be f8b0 9abd
00000160: 5530 82bd f1ad 1b3c ecd0 b63b bcc0 3fbd
00000170: 059c 8f3e 4c08 4abe 22d1 9fbd a7d3 1b3d
00000180: 5328 9cbc 22b7 c63b 7b15 5ebd 80fa f53d
00000190: cd88 9f3d a735 05bd ef4f d8bc af11 873c
000001a0: 31be e9bf 06f4 a4bf c8fe 7ebd e3fe e53d
000001b0: 1d8c 74bd dc44 32bd 4daa c7bd 9430 d1bd
000001c0: d4f1 323b 810d c63d 7dc1 3bbc 45f3 863c
000001d0: c335 a2bd 03d0 a2bd bd88 873e d1b8 9abd
000001e0: eee9 83bc a87c 02be 7c97 d43d 34f0 133d
000001f0: 4abb 14be 6ea4 fcbc bc8e 073d cc17 56bd
00000200: 684c 7ebc a6e6 083e e81f 5cbd 2f87 243c
00000210: e5e8 1c3d 4544 113c fd20 5b3c c50e 763c
00000220: 5395 8a3d e9e1 2b3e 6e5a 0c3d 1042 3b3d
00000230: 2461 9f3d aeb9 36bd 493e c2bd 878a cfbd
00000240: 3875 bbbc 8996 0ebe 0263 4bbd a8a7 903c
00000250: 6c91 2dbe 5c0a 8dbd 1125 f13e b2f7 1c3d
00000260: 513d 833d 78c2 62bd e296 4e3c 7557 a83f
00000270: dbf0 8dbe 61ad bebd 5bba df3c 7da4 a7bb
00000280: 4e92 33bd 5bf4 d5bf d242 96bd 6e2e b63e
00000290: 8825 643d 7b35 133d e32d bfbb dc09 2b3d
000002a0: fe83 7abd 7b50 a63d 641d 96bd 96dc 423d
000002b0: 02e1 4e3d 0ec1 a83c d3a9 783c a20c 793d
000002c0: 4cd2 8d3c f08c cfbd 8cc3 b4be 94db d9bd
000002d0: 9e73 ea3b 45c4 f73c e5ad 65bc b5ae a13e
000002e0: 2db8 a53c 3f94 9c3c bcb7 3abd 7941 3cbe
000002f0: 174a bd3d 4484 043e 7482 c43d 808e 873d
00000300: 785c febe 4b10 1a3e 658a a4bc fb22 0bbd
00000310: b5b8 a03d 3227 613d f634 5dbd ee5d b73b
00000320: f397 aebd 4674 52bd 02c6 b03c e157 173d
00000330: 3c68 acbd d366 c23d 2da1 acbc 7f20 92bc
00000340: 4004 10be 2110 803d 4e57 ca3d fc83 aebd
00000350: 9095 5fbe 5142 54bc 7de9 a13d 2703 de3d
00000360: a82c 3b3d 2f80 acb9 9b5b 4b3e 8c79 a6bb
00000370: 89af a0bc b9cb 503d f6d7 f8bc c4e7 443c
00000380: e351 7fbd fac4 1b3d 6aef e83d 8167 8b3d
00000390: 119a b63e 89fe 01bd e5ae 0fbd 3994 4b3e
000003a0: aa0a 6dbf c2ea 753d 6ba1 65bc 386b 473c
000003b0: 4aae ad3d 97c9 273d bb3f 843e d781 703c
000003c0: 3b4c 1d3b fbbb d3bd 3518 873c 56ef 423c
000003d0: 3446 c0bc d300 6ebd 14af 3dbe c5b1 213d
000003e0: 0166 443b 9426 79be c5ed 7cba 225c efbd
000003f0: af6a debd c1e5 e63d c1d3 fc3c 67b0 97bd

critic.2.bias f4 [128]
0.018086165 0.028818145 -0.10314715 0.04107036 0.06597273 0.025889484 0.013526001 0.12808816
-0.059408683 -0.056833953 0.18371466 -0.016321449 0.10167963 0.06205459 -0.12017629 0.02576756
0.0041309097 -0.03373668 -0.058109716 0.10553732 0.07592743 0.058721207 0.16980338 0.065584674
0.11094016 0.058962934 -0.011957699 -0.279951 0.063235275 0.0854757 0.041037876 0.14176118
-0.063495226 -0.20763388 0.08248099 -0.19343679 -0.06861512 -0.040874038 0.10288227 0.0020830233
0.01147448 0.11737109 0.061967004 0.1353288 0.10485688 -0.040669885 0.0086517 -0.015760597
0.13264817 -0.08671935 0.117131665 0.028604731 -0.009994053 0.07464729 -0.033037532 0.014843286
-0.06958884 0.03444886 -0.045810744 0.053241722 0.015785344 0.032432836 0.099201314 -0.01964249
0.023671791 0.016669903 0.05695458 0.04698119 0.045093756 -0.07150241 0.020523097 -0.039991353
-0.0016998652 -0.04916001 -0.05047881 -0.12522052 -0.06246944 0.10630771 -0.013141612 0.033683084
-0.0876536 -0.015396937 0.0057301535 -0.1682409 0.037508074 0.005507293 0.041145995 0.1305494
0.096329704 0.060594074 0.025420954 0.051967386 0.023427384 -0.038781423 0.12114373 -0.053473696
0.022860084 0.04746652 0.043556698 0.11055955 -0.10706986 0.03120255 0.0895548 0.08753323
0.08311569 -0.049263723 0.061618753 0.011801257 0.04871811 -0.04500674 -0.021634059 -0.35837483
-0.040678855 0.07134936 -0.046603262 -0.08089023 0.052982222 0.044318218 0.003664497 -0.026901964
-0.049275998 0.007596862 -0.09031885 -0.036908254 0.008932618 0.026573604 -0.38492253 0.052124605
00000000: 7029 943c 0814 ec3c d03e d3bd 6539 283d
00000010: b61c 873d 2f16 d43c 299c 5d3c 8b29 033e
00000020: 8556 73bd b8ca 68bd b21f 3c3e 8fb4 85bc
00000030: 693d d03d f42c 7e3d fd1e f6bd 7d16 d33c
00000040: 955c 873b 792f 0abd 7404 6ebd f323 d83d
00000050: d77f 9b3d a685 703d f0e0 2d3e 4251 863d
00000060: 9834 e33d 1e83 713d 3aea 43bc bd55 8fbe
00000070: 7f81 813d e20d af3d 5517 283d d829 113e
00000080: c909 82bd fa9d 54be cbeb a83d 4b14 46be
00000090: 1686 8cbd 896b 27bd f1b3 d23d 5583 083b
000000a0: 75ff 3b3c 4160 f03d 1dd1 7d3d a293 0a3e
000000b0: 34bf d63d 7795 26bd dcbf 0d3c 5e1c 81bc
000000c0: ecd4 073e ea99 b1bd bae2 ef3d 7854 ea3c
000000d0: 19be 23bc aee0 983d 5d52 07bd 4131 733c
000000e0: 9884 8ebd 3f1a 0d3d 0ca4 3bbd fe13 5a3d
000000f0: 4450 813c 4bd8 043d 0f2a cb3d 4ae9 a0bc
00000100: 58eb c13c 528f 883c 3549 693d 596f 403d
00000110: 3bb4 383d db6f 92bd 0e20 a83c f9cd 23bd
00000120: 03ce deba 025c 49bd dec2 4ebd cf39 00be
00000130: f5df 7fbd dbb7 d93d ea4f 57bc 46f7 093d
00000140: bb83 b3bd 6f43 7cbc 03c4 bb3b 5847 2cbe
00000150: 11a2 193d 8676 b43b b488 283d beae 053e
00000160: 8248 c53d 7e31 783d 9b3f d03c c1db 543d
00000170: c9ea bf3c 45d9 1ebd 341a f83d 3c07 5bbd
00000180: 1245 bb3c 416c 423d 8268 323d 0c6d e23d
00000190: 7147 dbbd 7d9c ff3c 8268 b73d 9f44 b33d
000001a0: 8f38 aa3d c2c8 49bd f263 7c3d 0f5a 413c
000001b0: a48c 473d fd58 38bd e939 b1bc e87c b7be
000001c0: df9e 26bd 9d1f 923d 10e3 3ebd c7a9 a5bd
000001d0: e303 593d 0587 353d 0f28 703b 8261 dcbc
000001e0: a1d5 49bd 19ef f83b 17f9 b8bd 1c2d 17bd
000001f0: 1e5a 123c e3b0 d93c 9114 c5be 9c80 553d

critic.4.weight f4 [1, 128]
1.4111592 0.7840623 -0.57366997 -0.57422805 -0.32940435 0.1813331 -0.2607122 0.19426282
1.7311213 0.49428737 0.21962985 -0.65198267 0.8306706 1.4236972 -1.018008 0.08369587
-0.11519464 1.4303006 0.08982028 -0.12783386 -2.434339 -0.23995012 0.5855371 0.146272
-0.16550328 -0.112745926 0.010223947 -0.58965254 0.27788824 -1.9265755 -0.22032413 -1.3384156
-0.3512403 -1.3533466 1.1132656 0.44892827 1.0609031 -1.4884593 -0.26368666 -1.8319802
1.1434282 -0.29956672 1.9592137 -0.105901495 0.5411725 -0.21957098 -0.045468893 0.066075824
-0.2694338 0.59384954 -1.6393551 -0.08248209 1.1817173 -0.13182108 0.27002487 0.2998774
-1.6765515 -0.09838817 0.13567124 0.19808681 0.6011062 -0.5840134 -0.14507614 0.53602535
-0.11315076 0.90257686 -0.2933967 -1.0500264 -0.080707274 0.22323486 -0.54537046 -1.6076797
-0.376892 1.3591832 -2.0286396 -1.7495271 -1.1864322 0.72007114 -1.3221991 0.4544451
0.075533316 0.0846527 0.1705777 0.10030328 0.39929137 0.09211376 -0.084645025 -0.06909434
-0.26472265 0.09862727 -0.12802398 -0.8001549 -0.16361302 -1.2183418 1.6715604 0.6616557
-0.95500326 0.15497033 -0.13222015 0.2356363 -0.62759674 -1.0187776 -0.3173614 -0.14256997
-0.19615188 -0.18707383 -0.68644017 0.14930688 1.4494904 -2.650158 0.09831184 -1.5057788
-0.92983204 -0.25606647 -0.24651593 -0.40621638 -0.27435425 0.10784951 0.36631045 0.110748716
-1.7364092 1.8741266 -1.2389847 1.5755239 0.19652976 0.177498 1.5225524 -0.3359396
00000000: dda0 b43f 4fb8 483f 09dc 12bf 9c00 13bf
00000010: b0a7 a8be 62af 393e 127c 85be d5ec 463e
00000020: 6295 dd3f 3c13 fd3e a6e6 603e 56e8 26bf
00000030: d4a6 543f b63b b63f 164e 82bf be68 ab3d
00000040: 2beb ebbd 1714 b73f b2f3 b73d e1e6 02be
00000050: 36cc 1bc0 7cb5 75be c2e5 153f 54c8 153e
00000060: b179 29be 56e7 e6bd 5882 273c 78f3 16bf
00000070: 5e47 8e3e 079a f6bf a69c 61be 3451 abbf
00000080: c5d5 b3be 763a adbf 7d7f 8e3f edd9 e53e
00000090: accb 873f d685 bebf f001 87be 547e eabf
000000a0: db5b 923f cf60 99be 84c7 fa3f e2e2 d8bd
000000b0: 488a 0a3f 37d7 60be 973d 3abd c352 873d
000000c0: 3af3 89be 8606 183f 63d6 d1bf 5fec a8bd
000000d0: 8342 973f 1bfc 06be b340 8a3e 8889 993e
000000e0: 3d99 d6bf bd7f c9bd 67ed 0a3e 45d7 4a3e
000000f0: 19e2 193f e781 15bf d78e 14be f538 093f
00000100: 96bb e7bd 470f 673f 1838 96be 4467 86bf
00000110: db49 a5bd ae97 643e 669d 0bbf 73c8 cdbf
00000120: fdf7 c0be b7f9 ad3f 3bd5 01c0 81f0 dfbf
00000130: 03dd 97bf 9556 383f d23d a9bf 07ad e83e
00000140: 36b1 9a3d 655e ad3d ecab 2e3e ce6b cd3d
00000150: eb6f cc3e 24a6 bc3d 5f5a adbd 5581 8dbd
00000160: ba89 87be 18fd c93d b818 03be f4d6 4cbf
00000170: 2c8a 27be a0f2 9bbf b1f5 d53f 4562 293f
00000180: 187b 74bf 8bb0 1e3e b864 07be a44a 713e
00000190: 2eaa 20bf 4e67 82bf 327d a2be ddfd 11be
000001a0: 0adc 48be 4890 3fbe 8bba 2fbf e7e3 183e
000001b0: e788 b93f 309c 29c0 b857 c93d 5cbd c0bf
000001c0: 7909 6ebf 251b 83be ac6e 7cbe 98fb cfbe
000001d0: 2978 8cbe 34e0 dc3d 0b8d bb3e 39d0 e23d
000001e0: a842 debf 61e3 ef3f 0d97 9ebf c4aa c93f
000001f0: 193f 493e 09c2 353e ffe2 c23f 4600 acbe

actor.0.weight f4 [256, 48]
-0.04577677 -0.14183088 0.49734354 -0.007238137 -0.25510418 -0.10800031 -0.20075957 -0.24649712
0.07544228 -0.120992176 -0.007298946 0.16886552 0.17877571 -0.03305007 -0.044079266 0.010816737
-0.08892567 0.13769339 -0.10156124 -0.09264067 -0.027890768 -0.3162818 -0.13290794 0.021721935
-0.052775618 -0.074430056 0.27140525 0.15173773 -0.090045795 0.10346322 -0.311312 -0.02927099
0.085000716 -0.37222758 -0.04226277 0.20656429 -0.01035648 0.025533443 0.16550702 0.18362537
-0.026950771 -0.03534719 -0.106993146 -0.0427903 0.000290436 -0.3504969 -0.16682874 0.3893258
-0.5082653 0.03243075 -0.049312245 -0.058315165 0.10013949 -0.11592508 0.066495255 0.0037016582
0.4893846 0.22481777 -0.0110712405 0.21301822 -0.5907591 0.08724317 -0.015020986 0.047602165
0.13898328 0.03914799 0.020867102 0.00932693 0.3586145 0.102567226 -0.023033617 0.1898885
-0.5273928 0.112793185 -0.029236186 0.03531047 0.07290445 0.07295451 -0.023760129 -0.017284038
0.5781013 0.08833702 0.09831627 0.41140825 -0.4426621 0.11197765 -0.079013 -0.12839384
-0.05875971 0.13091676 0.039638493 -0.03625293 0.6219602 0.13859966 0.08205424 -0.0065472987
0.03033061 -0.15272278 0.13273627 -0.14925358 0.025460254 0.04391185 0.046973057 -0.00021450607
-0.31842184 0.5092324 -0.2271718 0.24743347 0.046708677 -0.17467372 0.2421122 0.046119504
0.13721186 0.0789571 -0.003056068 -0.0100695845 -0.40135872 0.38425106 -0.12031512 0.29750925
0.2938897 -0.21768399 0.1791127 0.08616037 0.19197059 0.03567431 -0.08330638 0.13307066
-0.13810705 0.79524356 -0.30888352 -0.17649445 0.048917912 -0.35245013 0.19120046 0.23191743
0.07515787 0.2048766 -0.01713182 -0.055649024 -0.18825695 0.7692088 0.012946396 -0.08480376
0.17198674 -0.10031907 0.10002508 -0.0033183189 -0.68005466 0.023510462 0.17792054 0.13210146
-0.13963221 0.7389316 0.11786757 -0.05091762 0.15509756 -0.20692347 0.2240113 0.0717002
-0.5601313 0.0032794222 0.07637971 0.12774009 -0.338508 0.5787032 -0.13693881 -0.048684016
-0.0248267 -0.24147195 -0.040931255 -0.049111586 -0.5646388 -0.05033147 -0.066988654 0.109097786
-0.18989559 0.68059343 -0.09464305 0.03803866 0.08598978 -0.21685617 0.36608163 -0.17875238
-0.7084771 0.043847855 -0.12587218 -0.017420765 -0.27313706 0.91001576 -0.24765588 -0.21341531
-0.023659065 0.04813367 0.25548849 -0.006881212 0.23176329 0.012024338 0.06657333 0.09560776
0.08561844 0.2492779 0.034582254 -0.18064214 0.013610788 0.15674268 0.15762818 0.049341418
0.23639433 0.2580439 0.26497927 0.05385593 0.015444288 0.059797466 0.14400432 -0.17066525
-0.26265308 -0.0011060255 0.09206144 -0.09461728 0.09680494 0.15370242 -0.20612307 0.14629497
0.19603261 0.16242476 -0.071998335 -0.04328823 -0.18903814 -0.057334263 0.614084 0.05250312
0.19351326 0.043849118 0.12551968 -0.01874756 0.027195893 0.36226797 -0.2139781 -0.03377322
0.101910636 -0.3672366 0.5863359 -0.16380087 0.12831213 0.029818188 0.25128472 -0.1615981
0.19600779 -0.20666608 0.17731622 0.24473155 0.07684527 -0.34902436 -0.09758776 -0.06007613
00000000: 6c80 3bbd 1d3c 11be d0a3 fe3e e52d edbb
00000010: 049d 82be 442f ddbd eb93 4dbe be69 7cbe
00000020: 7b81 9a3d bfca f7bd ff2b efbb 15eb 2c3e
00000030: fb10 373e 835f 07bd 768c 34bd af38 313c
00000040: a91e b6bd 7fff 0c3e 57ff cfbd 64ba bdbd
00000050: 2e7b e4bc b0ef a1be 0519 08be 33f2 b13c
00000060: 3f2b 58bd c96e 98bd a1f5 8a3e 2361 1b3e
00000070: ee69 b8bd 86e4 d33d 4964 9fbe b7c9 efbc
00000080: db14 ae3d 9d94 bebe ba1b 2dbd 9785 533e
00000090: 3aae 29bc 832b d13c ac7a 293e 4a08 3c3e
000000a0: ddc7 dcbc 37c8 10bd 391f dbbd e244 2fbd
000000b0: a945 9839 5474 b3be 27d5 2abe b655 c73e
000000c0: ad1d 02bf 1bd6 043d a3fb 49bd e2db 6ebd
000000d0: ef15 cd3d 216a edbd aa2e 883d 8597 723b
000000e0: 9e90 fa3e a136 663e 2664 35bc 7321 5a3e
000000f0: fd3b 17bf 8cac b23d 951a 76bc 7dfa 423d
00000100: a251 0e3e a559 203d 7cf1 aa3c fbcf 183c
00000110: 529c b73e c40e d23d ffb0 bcbc 2272 423e
00000120: 3703 07bf 1d00 e73d ba80 efbc b6a1 103d
00000130: ee4e 953d 2d69 953d 9aa4 c2bc 4197 8dbc
00000140: 72fe 133f 0aea b43d 0a5a c93d 1aa4 d23e
00000150: 9ba4 e2be 8a54 e53d 91d1 a1bd ad79 03be
00000160: 06ae 70bd 0b0f 063e f95b 223d f47d 14bd
00000170: c938 1f3f 12ed 0d3e 0e0c a83d b98a d6bb
00000180: e677 f83c 5c63 1cbe 04ec 073e eed5 18be
00000190: 0692 d03c e9dc 333d d266 403d 09ed 60b9
000001a0: 3008 a3be 0e5d 023f b99f 68be 335f 7d3e
000001b0: 9951 3f3d abdd 32be 43ec 773e cee7 3c3d
000001c0: 4481 0c3e 43b4 a13d 5048 48bb e6fa 24bc
000001d0: e47e cdbe 8ebc c43e c667 f6bd 2253 983e
000001e0: b678 963e 8de8 5ebe 5269 373e d974 b03d
000001f0: f093 443e 3a1f 123d 899c aabd ad43 083e
00000200: ef6b 0dbe 1595 4b3f fb25 9ebe f6ba 34be
00000210: 265e 483d 5874 b4be 0eca 433e c37b 6d3e
00000220: 5fec 993d 2ccb 513e 0858 8cbc 3bf0 63bd
00000230: 6ec6 40be deea 443f 1f1d 543c 98ad adbd
00000240: 4b1d 303e 1674 cdbd f3d9 cc3d 2778 59bb
00000250: 1018 2ebf 0399 c03c cd30 363e 9b45 073e
00000260: bffb 0ebe 9f2a 3d3f 8d64 f13d ff8e 50bd
00000270: e5d1 1e3e bfe3 53be 3863 653e 8ed7 923d
00000280: c464 0fbf 93eb 563b f76c 9c3d 4cce 023e
00000290: ec50 adbe e525 143f b039 0cbe e468 47bd
000002a0: 5d61 cbbc 6c44 77be 88a7 27bd 3b29 49bd
000002b0: 2b8c 10bf 5f28 4ebd 5931 89bd a96e df3d
000002c0: fd73 42be 5f3b 2e3f 37d4 c1bd 6dce 1b3d
000002d0: 691b b03d 8b0f 5ebe 0d6f bb3e dd0a 37be
000002e0: c15e 35bf cf99 333d a3e4 00be feb5 8ebc
000002f0: 9fd8 8bbe cbf6 683f 8199 7dbe 8b89 5abe
00000300: a8d0 c1bc d027 453d 63cf 823e ca7b e1bb
00000310: 5b53 6d3e bb01 453c 9957 883d 00ce c33d
00000320: b858 af3d b542 7f3e 1fa6 0d3d 41fa 38be
00000330: c8ff 5e3c 2781 203e 4869 213e 3a1a 4a3d
00000340: 5b11 723e 541e 843e 5dab 873e 0998 5c3d
00000350: 0a0a 7d3c 30ee 743d de75 133e dfc2 2ebe
00000360: 777a 86be 0ff8 90ba b58a bc3d b4c6 c1bd
00000370: ab41 c63d 2b64 1d3e ed11 53be 59ce 153e
00000380: c6bc 483e ad52 263e dd73 93bd 004f 31bd
00000390: 3793 41be 55d7 6abd 9c34 1d3f 830d 573d
000003a0: 5728 463e 229b 333d 3b88 003e 7c94 99bc
000003b0: ecc9 de3c 307b b93e 131d 5bbe ca55 0abd
000003c0: 86b6 d03d 7006 bcbe 1c1a 163f 6abb 27be
000003d0: 4164 033e 4645 f43c 64a8 803e f979 25be
000003e0: 44b6 483e 46a0 53be 6292 353e e89a 7a3e
000003f0: 0e61 9d3d 52b3 b2be 17dc c7bd 6312 76bd

actor.0.bias f4 [256]
0.1560534 0.048450403 0.27436766 -0.28404292 0.17144239 0.16363463 0.039913557 0.08485232
-0.20780519 0.22608884 0.121965714 0.06491867 0.31270093 -0.05515731 0.1583601 0.249668
-0.10307716 0.07078065 0.009442904 -0.106533065 0.14435917 -0.087600365 -0.048120905 0.12993015
-0.07134675 -0.08054823 0.07001684 -0.022443503 0.1938467 0.029127408 0.14783509 0.23877354
-0.14828335 -0.11450211 -0.062442053 -0.07916847 -0.20579761 -0.07962272 0.022826726 -0.005555212
0.03913064 0.2154428 -0.10876677 0.026380667 0.028304508 0.06186655 0.1496129 -0.29780647
-0.24934807 0.110853545 0.036064524 0.1872204 0.057080183 0.0811224 -0.22744049 -0.26114044
0.07809261 -0.21661776 0.1565763 0.16041432 0.017660685 -0.011755106 -0.26472488 0.18712367
-0.07134791 -0.08087301 7.378894e-05 -0.065440066 0.028815001 0.26704878 -0.12040904 0.22813025
-0.09860896 0.14159417 0.16924492 0.05196035 -0.059071854 0.101461984 -0.086094685 -0.09412498
0.06807125 0.2435746 0.0469699 0.07250021 -0.18468437 -0.23942527 0.0439783 0.09940503
-0.18855609 0.03043568 -0.044884924 -0.022711692 -0.022082305 0.21165104 -0.19169143 0.20506161
-0.10317941 0.086171106 0.13338597 -0.20948328 0.03191399 -0.16023792 0.09510331 -0.19078214
0.06598539 0.008568432 -0.12161452 0.050410606 0.085606165 0.12706314 0.078838974 -0.078504905
-0.0732804 -0.049718354 -0.106214665 -0.19191356 0.20400387 -0.07899878 0.19977914 -0.24960974
-0.12624033 0.0060152914 -0.07851422 -0.075192764 0.15317178 0.20942488 -0.16169305 -0.015458986
0.16659409 -0.14991504 -0.12017377 0.010597954 0.054374717 0.124889895 -0.3706677 -0.2604297
-0.051817555 0.5010663 -0.14510693 0.2498313 0.11479058 0.11516 0.08935499 0.17812775
0.1224716 0.11897044 -0.18398522 -0.04925544 0.11591738 0.044056546 -0.00712596 0.05425735
-0.04784686 -0.41406178 0.4292416 -0.15543026 0.071777135 0.31120864 0.12767266 -0.14358085
0.23989238 -0.13747466 -0.14562851 -0.083569966 0.07347746 -0.24206766 -0.041480307 -0.42472544
0.2384118 0.17330626 0.15395851 0.10034082 0.017899241 -0.16663353 0.063588984 -0.05746571
-0.11256606 -0.059270877 -0.0707306 0.20743398 -0.15273848 0.071395114 0.12180783 -0.09205539
0.18598011 0.031668384 0.09518293 -0.22874498 -0.14609589 -0.17247841 -0.014573794 0.106394015
0.13608882 -0.11196151 -0.16037646 0.09527836 -0.097543195 -0.28533787 0.04125749 0.15190227
0.04807573 -0.086595014 0.15655737 -0.166546 0.00965803 -0.258862 -0.11776375 0.028419752
-0.040589567 0.36102507 0.053148672 -0.0028413648 -0.14084992 -0.23878835 -0.051080763 0.27796862
-0.08463664 0.06788469 -0.36962712 0.10141203 -0.08917012 0.10809725 0.24891376 0.291736
-0.020875495 0.07843865 -0.10035396 -0.37735143 -0.09499572 -0.15163448 -0.085657254 -0.004123554
-0.32994524 -0.3850665 -0.0226152 -0.17069444 -0.121356554 0.2287703 0.00898206 -0.092383794
0.08673787 0.40676203 0.1756873 -0.2914953 -0.10725743 0.17831978 0.1080051 0.01578522
0.0017052031 0.16274123 0.0043304875 -0.035666846 -0.17349085 -0.19190475 0.113329135 -0.23094462
00000000: 76cc 1f3e ee73 463d eb79 8c3e 136e 91be
00000010: 988e 2f3e d68f 273e 667c 233d 0ec7 ad3d
00000020: e2ca 54be d583 673e 29c9 f93d 14f4 843d
00000030: 561a a03e a2ec 61bd 2629 223e f8a8 7f3e
00000040: 1e1a d3bd 72f5 903d 69b6 1a3c 022e dabd
00000050: e4d2 133e d267 b3bd 6d1a 45bd 690c 053e
00000060: 3f1e 92bd 78f6 a4bd fd64 8f3d 70db b7bc
00000070: c07f 463e 9a9c ee3c 1562 173e 0d81 743e
00000080: 97d7 17be 1580 eabd 3dc3 7fbd 1423 a2bd
00000090: 9cbc 52be 3d11 a3bd 1dff ba3c 7f08 b6bb
000000a0: 7347 203d 0a9d 5c3e 1dc1 debd 451c d83c
000000b0: dbde e73c c867 7d3d 2034 193e 177a 98be
000000c0: 1a55 7fbe 2f07 e33d 65b8 133d b4b6 3f3e
000000d0: e9cc 693d 8023 a63d 29e6 68be 33b4 85be
000000e0: 05ef 9f3d 0cd1 5dbe 8a55 203e a743 243e
000000f0: 24ad 903c 7d98 40bc 058a 87be 599d 3f3e
00000100: da1e 92bd c0a0 a5bd 23bf 9a38 7105 86bd
00000110: 700d ec3c 9eba 883e 0499 f6bd fa9a 693e
00000120: 7ff3 c9bd 10fe 103e 8a4e 2d3e 60d4 543d
00000130: 54f5 71bd 4dcb cf3d 6952 b0bd 99c4 c0bd
00000140: f168 8b3d 9f6b 793e 8363 403d fd7a 943d
00000150: e61d 3dbe e62b 75be 9722 343d dd94 cb3d
00000160: d914 41be 3f54 f93c 41d9 37bd df0d babc
00000170: f3e5 b4bc 0dbb 583e c24a 44be acfb 513e
00000180: ba4f d3bd 7a7a b03d 5596 083e c982 56be
00000190: 3eb8 023d 6915 24be 86c5 c23d 655c 43be
000001a0: 5923 873d 9c62 0c3c 0911 f9bd 5a7b 4e3d
000001b0: 4952 af3d d71c 023e 5476 a13d 2ec7 a0bd
000001c0: 0914 96bd 79a5 4bbd 1387 d9bd fd84 44be
000001d0: 64e6 503e 1dca a1bd e792 4c3e b299 7fbe
000001e0: 2545 01be ec1b c53b 10cc a0bd aafe 99bd
000001f0: 10d9 1c3e 7a73 563e dd92 25be b047 7dbc
00000200: a497 2a3e 5483 19be aa1d f6bd 0aa3 2d3c
00000210: 06b8 5e3d 46c6 ff3d 28c8 bdbe 0b57 85be
00000220: a53e 54bd e245 003f e996 14be c7d3 7f3e
00000230: 5317 eb3d 02d9 eb3d c0ff b63d 1f67 363e
00000240: 64d2 fa3d c6a6 f33d 9f66 3cbe 12c0 49bd
00000250: 1766 ed3d a374 343d e380 e9bb f43c 5e3d
00000260: 12fb 43bd e8ff d3be 8ec5 db3e 1c29 1fbe
00000270: e4ff 923d bd56 9f3e 9fbc 023e dc06 13be
00000280: 59a6 753e 28c6 0cbe a41f 15be bb26 abbd
00000290: 5a7b 963d 96e0 77be 41e7 29bd 9d75 d9be
000002a0: 3922 743e 3277 313e 4da7 1d3e 7d7f cd3d
000002b0: 6ea1 923c fba1 2abe f13a 823d 2a61 6bbd
000002c0: 0989 e6bd 05c6 72bd 34db 90bd 9369 543e
000002d0: 7a67 1cbe 9a37 923d 6276 f93d 8987 bcbd
000002e0: 9271 3e3e b5b6 013d 45ef c23d 203c 6abe
000002f0: 299a 15be 2e9e 30be ecc6 6ebc 1be5 d93d
00000300: de5a 0b3e 134c e5bd ba39 24be 4d21 c33d
00000310: bac4 c7bd ce17 92be 9dfd 283d 458c 1b3e
00000320: 0feb 443d ba58 b1bd 9350 203e 098b 2abe
00000330: b73c 1e3c 8f89 84be 1f2e f1bd 8ad0 e83c
00000340: 3f41 26bd 47d8 b83e 6cb2 593d 3136 3abb
00000350: f63a 10be ef84 74be 103a 51bd e751 8e3e
00000360: fa55 adbd 2107 8b3d c43f bdbe 1cb1 cf3d
00000370: d39e b6bd 1762 dd3d 40e3 7e3e 6c5e 953e
00000380: 1603 abbc 71a4 a03d 6186 cdbd 3534 c1be
00000390: 1e8d c2bd 1246 1bbe 126d afbd e11e 87bb
000003a0: 95ee a8be 7027 c5be 8343 b9bc 86ca 2ebe
000003b0: c989 f8bd c342 6a3e 7d29 133c b733 bdbd
000003c0: a0a3 b13d 1d43 d03e 5fe7 333e df3e 95be
000003d0: c9a9 dbbd 7699 363e c731 dd3d 0150 813c
000003e0: 1f81 df3a a3a5 263e c3e6 8d3b 6617 12bd
000003f0: 96a7 31be ae82 44be 1b19 e83d bf7c 6cbe

actor.2.weight f4 [128, 256]
0.23237374 -0.0812826 0.1924012 -0.22180445 0.097171694 0.10109641 -0.015802369 0.17293988
0.10531608 0.109287255 0.24100704 -0.07217832 0.09416128 -0.23489988 0.06998202 -0.06366369
-0.14730111 0.12340488 0.10323152 0.040359423 -0.14305702 -0.063025415 -0.06134613 0.16641346
0.08827313 -0.04946828 -0.10164737 0.114514366 -0.13404654 -0.49592587 -0.36160678 -0.10635557
0.00068694924 -0.19557065 0.4973164 0.16193238 0.059753355 -0.043343127 -0.14009303 0.009090508
-0.06375453 -0.051499277 -0.5079377 0.10899601 0.13657424 0.026294727 -0.44241852 0.038889226
-0.13186619 -0.15042017 -0.15940043 -0.0049631926 -0.3116898 -0.17351608 -0.10413974 0.12100187
-0.09486353 -0.026595429 -0.08749779 0.22009757 0.15638646 -0.030630186 -0.28322265 0.026014037
-0.29209048 0.0395765 -0.37653893 -0.101952285 -0.51982117 -0.11699156 0.10857533 0.18981808
0.20972662 0.009033622 0.011071093 0.16096036 -0.12710337 0.03946908 0.3930243 0.15717505
0.28687418 -0.3669066 -0.35660622 0.21962507 0.21235391 -0.1820565 -0.44449526 0.13177264
-0.24180743 0.12447898 -0.016980225 -0.08768238 -0.50410366 0.07011152 -0.40532038 0.16217516
-0.23618582 0.08533276 -0.18306993 0.07191096 -0.1968264 -0.03470002 0.29399586 -0.1821505
-0.16082096 -0.022312205 0.26195046 -0.009326248 0.12761244 0.19902024 -0.089321315 -0.20372297
-0.17822587 -0.09758493 -0.036756113 -0.33026856 0.1728335 -0.4325652 0.0005536693 -0.2970596
-0.21863651 -0.029582927 0.22146828 -0.32407978 0.12274636 0.106689095 0.2225254 -0.15848082
-0.12892433 -0.1541702 -0.05547458 0.26528922 0.02519225 -0.24850707 -0.12799856 0.020189356
0.22493589 0.008361012 -0.05243845 0.13602895 -0.28939086 -0.59414744 0.052305065 0.06856896
-0.09282461 -0.0880835 -0.11461221 -0.04922548 0.05116508 -0.23552957 0.32226822 -0.09131338
-0.47219205 0.16838185 0.2686145 -0.34553844 0.14136608 0.014818459 0.18580641 0.10758289
0.006784703 0.23203737 0.095255196 0.20463775 -0.12232629 -0.35835424 -0.03973239 -0.30059138
0.10495646 -0.021976754 0.05483231 -0.2116274 0.110986695 -0.12549943 -0.12728786 -0.16533083
-0.21345384 0.19281118 0.2081905 -0.23066127 0.13948716 -0.19633529 -0.077461734 -0.019763589
0.12248173 -0.23478498 0.1533588 0.23358884 0.029791113 0.3168037 -0.123296045 0.07654473
0.055764742 0.109889366 -0.058815006 -0.0023916268 -0.06609249 -0.17197454 -0.016210912 -0.07497161
0.35919803 -0.17302984 0.0068986565 0.11326177 -0.44440085 0.06631914 -0.4447388 0.007161155
-0.4000351 0.23488106 -0.032895006 -0.06375032 -0.12057482 -0.06643107 0.19199641 -0.13319524
-0.11617629 -0.09925635 -0.02942364 0.18185899 -0.38893968 -0.40416437 0.28265613 0.30023682
-0.14031313 0.2939309 0.099639565 -0.05499773 -0.32266068 0.008873857 -0.3920177 0.17987718
-0.10627625 0.061383948 -0.23236072 0.27060932 -0.1325158 0.28361464 -0.15252185 0.08994726
-0.49847603 0.04478278 -0.07160869 -0.1245323 0.10272134 -0.28318426 -0.34792534 0.1971668
0.07083802 -0.05216483 0.42608476 -0.50386274 -0.21470635 0.077595346 0.19230682 -0.26945037
00000000: 62f3 6d3e 7e77 a6bd d204 453e b520 63be
00000010: f401 c73d a20b cf3d f873 81bc 2717 313e
00000020: f5af d73d ffd1 df3d 8dca 763e 3ad2 93bd
00000030: a1d7 c03d 9889 70be bc52 8f3d 1c62 82bd
00000040: 1ad6 16be b3bb fc3d 0c6b d33d ec4f 253d
00000050: 8a7d 12be 7813 81bd 1446 7bbd 4a68 2a3e
00000060: 8bc8 b43d 409f 4abd 7f2c d0bd 8286 ea3d
00000070: 7f43 09be ffe9 fdbe 8624 b9be f3d0 d9bd
00000080: 6214 343a ac43 48be 41a0 fe3e 9ad1 253e
00000090: efbf 743d 9088 31bd 8c74 0fbe 5bf0 143c
000000a0: bc91 82bd e8f0 52bd 3508 02bf 4d39 df3d
000000b0: 1eda 0b3e 0a68 d73c ae84 e2be 4f4a 1f3d
000000c0: ee07 07be bf07 1abe de39 23be 47a2 a2bb
000000d0: ce95 9fbe 33ae 31be 3747 d5bd d4cf f73d
000000e0: cf47 c2bd a8de d9bc 0b32 b3bd 4261 613e
000000f0: c623 203e 28ec fabc 8f02 91be 641b d53c
00000100: e28c 95be f81a 223d b6c9 c0be 5ccc d0bd
00000110: 0013 05bf 4599 efbd be5c de3d ac5f 423e
00000120: 93c2 563e c201 143c 8863 353c cbd2 243e
00000130: 6327 02be 54aa 213d 7b3a c93e 7ff2 203e
00000140: 2ce1 923e 2fdb bbbe 1795 b6be 65e5 603e
00000150: 4e73 593e 056d 3abe e294 e3be 68ef 063e
00000160: 5e9c 77be d6ee fe3d 1d1a 8bbc d292 b3bd
00000170: f00c 01bf a196 8f3d 2786 cfbe 3f11 263e
00000180: b2da 71be f1c2 ae3d af76 3bbe 0e46 933d
00000190: dc8c 49be 9c21 0ebd a086 963e a985 3abe
000001a0: 40ae 24be 16c8 b6bc 5f1e 863e 1fcd 18bc
000001b0: d6ac 023e f6cb 4b3e 18ee b6bd c19c 50be
000001c0: d880 36be 9cda c7bd 948d 16bd f618 a9be
000001d0: 44fb 303e 3079 ddbe 1e24 113a 3218 98be
000001e0: 40e2 5fbe e557 f2bc 95c8 623e c9ed a5be
000001f0: 7262 fb3d d07f da3d b3dd 633e cc48 22be
00000200: bd04 04be cbde 1dbe 5039 63bd fdd3 873e
00000210: fa5f ce3c a378 7ebe 0e12 03be 2664 a53c
00000220: 9855 663e a0fc 083c b3c9 56bd 2c4b 0b3e
00000230: 0a2b 94be 0c1a 18bf d63d 563d e26d 8c3d
00000240: d41a bebd 1f65 b4bd ceb9 eabd a8a0 49bd
00000250: 7a92 513d aa2e 71be 5700 a53e 8202 bbbd
00000260: 28c3 f1be 4b6c 2c3e d787 893e 6aea b0be
00000270: 45c2 103e 1fc9 723c 0944 3e3e 6b54 dc3d
00000280: 3752 de3b 349b 6d3e 2815 c33d 8f8c 513e
00000290: 3586 fabd 357a b7be 6ebe 22bd 1de7 99be
000002a0: 6af3 d63d 9808 b4bc d897 603d dab4 58be
000002b0: fe4c e33d ec82 00be c057 02be 7c4c 29be
000002c0: a593 5abe 4b70 453e e42f 553e 7832 6cbe
000002d0: b9d5 0e3e 1e0c 49be 42a4 9ebd 40e7 a1bc
000002e0: b4d7 fa3d 796b 70be 170a 1d3e ea31 6f3e
000002f0: 7e0c f43c 1834 a23e a382 fcbd 7cc3 9c3d
00000300: 9269 643d ad0d e13d 01e8 70bd d7bc 1cbb
00000310: 805b 87bd 181a 30be bfcc 84bc b78a 99bd
00000320: cee8 b73e bc2e 31be 200e e23b c9f5 e73d
00000330: 8288 e3be 54d2 873d ceb4 e3be 1fa8 ea3b
00000340: 67d1 ccbe a984 703e eabc 06bd 878f 82bd
00000350: eeef f6bd 030d 88bd b59a 443e 5564 08be
00000360: d6ed edbd ea46 cbbd d809 f1bc 3e39 3a3e
00000370: 1a23 c7be a2ee cebe 4eb8 903e a4b8 993e
00000380: 3fae 0fbe 1c7e 963e d40f cc3d 4d45 61bd
00000390: c833 a5be a763 113c 8bb6 c8be b931 383e
000003a0: 5da7 d9bd bc6d 7b3d f8ef 6dbe 4e8d 8a3e
000003b0: 39b2 07be f035 913e b02e 1cbe 4536 b83d
000003c0: 4038 ffbe 266e 373d 94a7 92bd ca0a ffbd
000003d0: 915f d23d 87fd 90be 4523 b2be 18e6 493e
000003e0: 8613 913d caaa 55bd c827 da3e 26fd 00bf
000003f0: fbdb 5bbe 4fea 9e3d 14ec 443e 66f5 89be

actor.2.bias f4 [128]
-0.0722315 -0.06886017 0.14083281 0.16195513 0.18402542 -0.017017294 -0.1966474 -0.11738577
0.15877922 0.015263341 0.06502668 0.14747135 0.04232246 0.06727246 0.001689513 0.0312498
0.024002625 -0.14445771 0.15932854 0.17028882 -0.040249337 0.01848043 -0.01847326 -0.20493065
-0.1451589 0.01674934 -0.55141884 0.00035663196 0.015989296 0.06025939 -0.1913241 0.21837565
-0.0017359315 0.044769365 0.073791444 0.095814206 0.075840235 0.07469672 0.040582623 -0.029239306
0.006028594 0.26589623 0.0394276 -0.09047185 0.04846757 0.19111004 0.0053690886 0.10684234
-0.14289153 -0.042656623 -0.062094454 -0.11477477 -0.0709849 -0.076548904 0.112373635 -0.011121149
-0.17989261 -0.019938363 0.028766802 0.06021901 0.2661163 -0.030757431 -0.15690424 0.0020410796
0.06338561 -0.0033494576 0.021401783 0.09639434 0.038458515 0.1379343 -0.002129648 -0.07026674
-0.047198657 0.05380854 0.21400417 0.05805596 0.009170008 -0.08682603 0.104937136 0.19564742
0.11024427 0.06880123 -0.0384895 0.17885073 0.03605298 0.116712704 0.022300677 -0.08786524
0.07069542 0.11439645 -0.03145628 0.078555994 0.19695182 0.10087714 0.16875464 -0.11804101
0.006827228 0.004811029 -0.014493947 0.14150696 0.02250419 -0.062112965 0.047988705 0.017953498
0.053647276 -0.04047527 0.04723173 -0.0031066625 -0.23509061 0.017762866 0.16793041 -0.005931132
-0.104841076 0.11121938 0.02330398 0.13601217 0.14448112 0.017406719 -0.08881276 0.10453568
0.039870106 0.18660451 0.0032343513 0.19161902 0.08683335 0.06847663 0.0057338714 0.16629861
00000000: 1cee 93bd 9006 8dbd 7a36 103e 91d7 253e
00000010: 2971 3c3e da67 8bbc f05d 49be f367 f0bd
00000020: 0597 223e 1813 7a3c b52c 853d bb02 173e
00000030: 515a 2d3d 25c6 893d a672 dd3a 95ff ff3c
00000040: 27a1 c43c b9ec 13be 0527 233e 3160 2e3e
00000050: 7ddc 24bd 4564 973c 3c55 97bc 57d9 51be
00000060: 89a4 14be e935 893c c929 0dbf 55fa ba39
00000070: fcfb 823c 8dd2 763d 77ea 43be de9d 5f3e
00000080: 3288 e3ba 1560 373d f81f 973d 3d3a c43d
00000090: 2052 9b3d 98fa 983d f739 263d 4587 efbc
000000a0: 838b c53b 8d23 883e d67e 213d 4e49 b9bd
000000b0: ee85 463d 5ab2 433e 2eef af3b 28d0 da3d
000000c0: 2852 12be b6b8 2ebd c156 7ebd 090f ebbd
000000d0: 8860 91bd acc5 9cbd 2624 e63d 7b35 36bc
000000e0: c535 38be c755 a3bc 5ba8 eb3c 35a8 763d
000000f0: 6540 883e 02f7 fbbc 81ab 20be a2c3 053b
00000100: 51d0 813d 9382 5bbb cb52 af3c 656a c53d
00000110: ad86 1d3d a63e 0d3e 9191 0bbb 02e8 8fbd
00000120: 6153 41bd 5866 5c3d e923 5b3e 16cc 6d3d
00000130: cd3d 163c d8d1 b1bd 48e9 d63d cc57 483e
00000140: bfc7 e13d a9e7 8c3d 2aa7 1dbd a524 373e
00000150: 4aac 133d 1207 ef3d e9af b63c b1f2 b3bd
00000160: c3c8 903d b048 ea3d 4dd8 00bd f7e1 a03d
00000170: bdad 493e ad98 ce3d 04ce 2c3e 7cbf f1bd
00000180: f0b6 df3b d6a5 9d3b 0578 6dbc 33e7 103e
00000190: b55a b83c 2a6a 7ebd ce8f 443d 3713 933c
000001a0: 3fbd 5b3d 66c9 25bd 0f76 413d 2699 4bbb
000001b0: 98bb 70be 6e83 913c f3f5 2b3e f159 c2bb
000001c0: ebb6 d6bd fcc6 e33d fde7 be3c c646 0b3e
000001d0: dcf2 133e 8998 8e3c 77e3 b5bd cd16 d63d
000001e0: d64e 233d 4115 3f3e 69f7 533b c737 443e
000001f0: afd5 b13d 7a3d 8c3d 33e3 bb3b 2f4a 2a3e
