CRL/模型集_selfplay/slime_ppo_1M.pth (torch, 370495 bytes, 11 tensors)

critic.0.weight f4 [256, 48]
0	0xbbfe1b85	-0.0077547454
1	0xbd1f73ae	-0.03892868
2	0xbddea12e	-0.10870586
3	0x3cfc14df	0.03077167
4	0xbc210101	-0.0098268995
5	0xbdca3f0a	-0.09875305
6	0x3ce24256	0.027619522
7	0x3d1d44cb	0.038395684
8	0x3dbd42a9	0.0924123
9	0x3e5ffb42	0.21873191
10	0xbcfff08d	-0.031242633
11	0xbcb2df61	-0.021835031
12	0x3d624263	0.055239093
13	0x3d54ab28	0.05192104
14	0xbd087091	-0.033310477
15	0x3e08ae49	0.13347735
16	0x3d893284	0.06699088
17	0x3d667ca2	0.056271203
18	0xbcde3608	-0.027125373
19	0xbde20f6d	-0.110380985
20	0x3d7681ac	0.06018226
21	0x3e09eb61	0.13468696
22	0x3cb3b51e	0.02193695
23	0xbe08f3dd	-0.13374276
24	0x3dff568f	0.124676816
25	0xbc84e2e2	-0.016221467
26	0x3d7d7b14	0.061884955
27	0x3dacee81	0.084439285
28	0xbe1d72c8	-0.15375817
29	0xbd9422f3	-0.072332285
30	0x3dd0ad40	0.10189295
31	0x3df553c7	0.1197887
32	0x3d335ae7	0.043787863
33	0x3dd9dd51	0.10637916
34	0xbdc0225f	-0.09381556
35	0xbe05514b	-0.13019292
36	0x3dc20bbc	0.094748944
37	0x3df5851d	0.1198828
38	0x3d6cde47	0.057829168
39	0xbd7f8711	-0.06238467
40	0x3db2b7e5	0.08726481
41	0x3d006497	0.03134593
42	0xbce30386	-0.027711641
43	0xbe097e57	-0.13427101
44	0x3d08a947	0.03336456
45	0x3e4b2a1b	0.1984028
46	0xbe09057b	-0.13380997
47	0x3dbc2d1b	0.09188291
48	0x3e04408a	0.12915245
49	0x3aff8984	0.0019495939
50	0x3c9d2438	0.01918231
51	0xbde36ffa	-0.11105342
52	0xbdfa300c	-0.122161955
53	0x3d9f7a0b	0.0778695
54	0x3cb96926	0.022633146
55	0x3da06e4f	0.0783354
56	0xbe8328e7	-0.25617144
57	0x3d9634a9	0.07334263
58	0x3d79d72a	0.060996212
59	0x3e6591a4	0.22418839
60	0x3dc3ca9b	0.09560128
61	0xbd9f257b	-0.07770821
62	0xbc05f94e	-0.008177115
63	0xbdf99535	-0.12186662
64	0x3d890a5e	0.066914305
65	0xbdd0904e	-0.10183774
66	0x3cd76c05	0.026296625
67	0x3ce4e5da	0.027941633
68	0xbe2f26b3	-0.17104606
69	0x3e76e2d1	0.24109961
70	0xbdb8120e	-0.08987819
71	0x3e4a5965	0.19760664
72	0x3e381691	0.17977358
73	0xbd9e2167	-0.07721215
74	0x3b771a84	0.0037705014
75	0x3dd667a8	0.104689896
76	0xbd9af5ce	-0.07566415
77	0xbe009477	-0.12556635
78	0x3cd4b035	0.025962928
79	0xbcdc13fe	-0.026865002
80	0xbdf860fa	-0.12127872
81	0x3e1891c4	0.14899355
82	0xbe013272	-0.126169
83	0x3e0001eb	0.12500732
84	0x3d80cb43	0.06288769
85	0xbcc28b0e	-0.023747947
86	0x3d0ed4cf	0.03487092
87	0xbd002051	-0.03128082
88	0x3d0208c2	0.031746633
89	0xbdee6ba5	-0.11641625
90	0x384ad0cd	4.8355014e-05
91	0x3d312061	0.04324377
92	0xbe36e19c	-0.178595
93	0x3e2c3512	0.1681712
94	0xbd3ceeee	-0.0461263
95	0xbcacf1a2	-0.021111313
96	0xbdb9c9b5	-0.09071676
97	0x3d78adfc	0.0607128
98	0xbbcf59f3	-0.0063278615
99	0x3def61f6	0.116886064
100	0xbe15a925	-0.14615305
101	0x3e09d093	0.13458471
102	0x3c211bd9	0.0098333
103	0xbd6e46dd	-0.05817305
104	0x3d1b3e8e	0.037901454
105	0x3e883ba0	0.2660799
106	0xbbf23879	-0.007391986
107	0xbc060021	-0.008178742
108	0xbd9796a2	-0.07401778
109	0x3d5cb6b6	0.053885184
110	0xbd1f7ff2	-0.038940378
111	0xbd33e6e4	-0.043921366
112	0xbdb8c846	-0.09022574
113	0x3e1f531d	0.15559049
114	0x3ccd0c24	0.025030203
115	0xbd92a4a8	-0.07160312
116	0x3dfd7bc6	0.123771235
117	0x3e5fc618	0.2185291
118	0xbc2811c0	-0.010258138
119	0x3d36a0ea	0.044587053
120	0xbdcfc143	-0.101442836
121	0x3dbc7a80	0.092030525
122	0xbcfdb32d	-0.030969227
123	0x3e070bde	0.1318812
124	0xbdeb9dfd	-0.11504743
125	0x3dd53d80	0.10412121
126	0x3cad0467	0.021120263
127	0xbae0cc9e	-0.0017150824
128	0x3dd9bcbe	0.10631703
129	0x3e891288	0.2677195
130	0x3e3c862e	0.1841056
131	0xbe129de6	-0.14318046
132	0xbe4451bc	-0.19171804
133	0xbc4a5784	-0.012349967
134	0xbcca54a9	-0.024698572
135	0xbd53b3f7	-0.0516853
136	0x3bd7a36d	0.006580761
137	0x3b1f4bfe	0.002430677
138	0xbc3b928b	-0.011448513
139	0xbd7016a6	-0.05861535
140	0x3dd8dd6a	0.105891064
141	0x3e58b35a	0.21162167
142	0xbddb6bce	-0.107139215
143	0xbdcaa8f4	-0.098955065
144	0xbd17357a	-0.036916234
145	0xbc8d2646	-0.017230164
146	0xbb326383	-0.0027219958
147	0x3d5c52e6	0.053789996
148	0xbd0a5905	-0.033776302
149	0x3d4e747c	0.050404057
150	0x3c4c9292	0.012486117
151	0xbc802acb	-0.015645405
152	0x3cba30a3	0.02272827
153	0x3dabff2f	0.08398282
154	0x3e3f84de	0.18703029
155	0xbc5b3018	-0.013378166
156	0x3df1d852	0.11808838
157	0x3d44d080	0.048050404
158	0x3c211b11	0.009833113
159	0xbd330676	-0.043707334
160	0xbd6ccc40	-0.057811975
161	0xbdc91626	-0.098186776
162	0xbb179294	-0.002312814
163	0x3a9eada2	0.001210619
164	0x3e222317	0.15833698
165	0x3d7ae493	0.06125314
166	0x3e5e4eb5	0.21709712
167	0xbca91f9a	-0.020644952
168	0xbe2551b8	-0.16144454
169	0xbdcd2da8	-0.10018474
170	0x3ce56ba6	0.028005432
171	0xbdac9741	-0.08427287
172	0xbbf13b09	-0.007361774
173	0xbdc4d6ec	-0.096113056
174	0xb9a98044	-0.00032329757
175	0x3c277f23	0.010223183
176	0x3e2516c7	0.1612197
177	0xbbe413eb	-0.006960382
178	0x3ef74232	0.4829269
179	0xbdb3bb8d	-0.08776007
180	0x3ce958ca	0.02848472
181	0x3e1cc437	0.15309225
182	0x3c728c16	0.014803907
183	0xbab03644	-0.0013443907
184	0xbca35371	-0.019937249
185	0x3dce288b	0.10066327
186	0xbcea0f20	-0.028571665
187	0xbd5b8ee2	-0.05360306
188	0x3e53aafe	0.20670697
189	0xbdebfe7a	-0.11523147
190	0x3ecc0cb2	0.39853436
191	0xbda56ccf	-0.08077394
192	0x3d69de76	0.05709692
193	0x3d6d69f3	0.05796237
194	0x3bb4b7d1	0.0055150767
195	0xbc3557fb	-0.011068339
196	0xbde4b2cf	-0.111669175
197	0xbd6e10b8	-0.058121413
198	0x3bc695fe	0.006060361
199	0xbd30918b	-0.04310755
200	0xbe016816	-0.12637362
201	0xbe210fd1	-0.1572869
202	0xbdef6705	-0.11689571
203	0xbda265a8	-0.07929546
204	0x3e5035f7	0.20333086
205	0xbddd715e	-0.10812639
206	0x3b77a231	0.0037785883
207	0x3de04ed3	0.109525345
208	0xbd21c5c8	-0.03949526
209	0xbd1c66b6	-0.03818389
210	0x3b25a711	0.0025276581
211	0x3da36189	0.07977588
212	0xbce90ff8	-0.028449997
213	0xbe06c4e7	-0.1316105
214	0xbe804bc7	-0.25057814
215	0xbb04e03a	-0.002027525
216	0x3e721411	0.23640467
217	0x3d4974db	0.049183708
218	0x3c018f0c	0.00790764
219	0xbd6bc6c8	-0.05756262
220	0xbe359a7b	-0.17734711
221	0x3db9cb3b	0.09071966
222	0x3b949684	0.0045345444
223	0xbd25f46f	-0.040516313
224	0xbe15c0d0	-0.14624333
225	0x3d9d1afa	0.07671161
226	0xbe55cd6a	-0.2087914
227	0x3db60ef5	0.088895716
228	0x3e770999	0.24124755
229	0x3a73acda	0.0009295471
230	0x3c416621	0.011804135
231	0xbce03126	-0.027367186
232	0x3d79e03b	0.06100486
233	0xbdedd21c	-0.11612341
234	0x3b72cf4d	0.003704983
235	0xbb34fc93	-0.0027616366
236	0x3d88771b	0.066633426
237	0x3db44b50	0.08803427
238	0xbdb32141	-0.08746577
239	0xbc821c33	-0.015882587
240	0xbe21f3ef	-0.1581571
241	0xbdaa455b	-0.0831401
242	0x3d0651da	0.032792903
243	0x3d6809b3	0.056649875
244	0x3c1a2f56	0.0094107
245	0xbcd92e7e	-0.026511427
246	0xbd4b97fc	-0.04970549
247	0xbe05912d	-0.13043661
248	0x3da9a1b5	0.08282796
249	0xbeab2f81	-0.3343468
250	0xbdc7db8b	-0.097586714
251	0xbe28f7af	-0.16500734
252	0xbe365491	-0.17805697
253	0x3db4b884	0.08824256
254	0xbd88e4a2	-0.06684233
255	0xbdc2d2af	-0.09512841

critic.0.bias f4 [256]
0	0x3e21fdc0	0.15819454
1	0x3d7152e0	0.058916926
2	0xbd89345f	-0.06699442
3	0x3cb0047b	0.021486511
4	0xbdc84f67	-0.0978077
5	0xbd45bf56	-0.048278175
6	0x3dbba645	0.09162573
7	0xbd4164f5	-0.04721542
8	0x3da3cd78	0.079981744
9	0x3b250528	0.0025180075
10	0xbd3a963c	-0.04555343
11	0x3dee98aa	0.11650212
12	0x3cd0f830	0.02550897
13	0xbc7afa47	-0.01531846
14	0xbbf965f0	-0.007611029
15	0xbe0a21be	-0.13489434
16	0xbd768e95	-0.06019457
17	0x3dd7c336	0.105352804
18	0x3dce0cb3	0.10061016
19	0xbe26a06b	-0.16272132
20	0x3da74fe6	0.08169536
21	0x3d29f3c1	0.041492227
22	0x3d4c87e7	0.049934294
23	0xbd90b466	-0.07065658
24	0x3d1f7d17	0.038937654
25	0xbdd79c20	-0.10527825
26	0xbdf40af4	-0.11916152
27	0xbe202759	-0.1564001
28	0x3d5ef7e7	0.054435637
29	0xbaeab427	-0.0017906473
30	0xbde5d033	-0.112213515
31	0x3e2c0622	0.16799214
32	0xbc320a6a	-0.010866741
33	0xbd73f88b	-0.0595632
34	0x3d97e602	0.074169174
35	0xbd4e1d7c	-0.050321087
36	0x3d954d05	0.07290081
37	0xbda2b1d6	-0.07944076
38	0x3cb2b077	0.02181266
39	0x3ded272b	0.11579736
40	0x3e020281	0.12696268
41	0x3b96dc70	0.004603915
42	0xbd3f8882	-0.046761043
43	0xbdaf246e	-0.0855187
44	0x3dafd351	0.08585227
45	0x3cba984a	0.022777695
46	0xbde987aa	-0.11402829
47	0x3be16aac	0.0068791714
48	0x3dba9506	0.09110455
49	0x3cd438a3	0.025905913
50	0xbde58f46	-0.11208968
51	0xbde51626	-0.11185865
52	0x3df77ea8	0.12084705
53	0x3deccab2	0.115620986
54	0x3db232a0	0.08701062
55	0xbe089095	-0.13336404
56	0x3dbe0b04	0.09279445
57	0x3e28350f	0.1642649
58	0x3d467142	0.048447855
59	0x3e00494e	0.12527964
60	0x3cc45c65	0.023969838
61	0x3c447a91	0.011992113
62	0x3d4a505c	0.049393043
63	0xbbebbedd	-0.0071943835
64	0x3e3aa859	0.18228282
65	0x3d9ef09b	0.077607356
66	0xbd9298a6	-0.07158022
67	0xbd95effb	-0.07321163
68	0xbde1e053	-0.110291146
69	0x3dc39ce7	0.09551411
70	0x3e3298d3	0.1744111
71	0x3e482d99	0.19548644
72	0xbe4551c7	-0.19269477
73	0x3e2b21af	0.16712068
74	0xbd8317e7	-0.064010434
75	0xbe03aecb	-0.12859647
76	0x3cb6bb9f	0.022306262
77	0xbdc09535	-0.09403459
78	0x3c616567	0.013757086
79	0xbdf64802	-0.12025453
80	0x3df52927	0.1197074
81	0x3b04eca8	0.002028266
82	0x3df17504	0.11789897
83	0x3d444dd6	0.047925793
84	0xbe350199	-0.1767639
85	0x3dd6b41a	0.104835704
86	0x3d9f2862	0.07771374
87	0xbded0e51	-0.11574996
88	0x3de1b160	0.1102016
89	0xbd3ac282	-0.045595653
90	0x3c9500fb	0.018188944
91	0xbd8050c4	-0.06265405
92	0x3dcc6940	0.09981012
93	0xbe5d1ad9	-0.21592273
94	0xbd75b9c7	-0.059991624
95	0xbd82bd89	-0.06383807
96	0x3cf1f8ab	0.02953752
97	0xbdbeb2d6	-0.09311454
98	0xbc8c5749	-0.017131465
99	0xbc451999	-0.012030029
100	0xbbcece9a	-0.00631125
101	0x3cd88ffc	0.026435845
102	0x3d8194ee	0.06327234
103	0xbca39f74	-0.019973494
104	0xbdb43830	-0.087997794
105	0xbc09ac01	-0.008402825
106	0x3b3f362e	0.002917658
107	0x3d87dfeb	0.06634506
108	0xbd2d0fe7	-0.042251494
109	0xbc7c39c9	-0.015394636
110	0xbe08db34	-0.1336487
111	0x39de9b2b	0.0004245875
112	0x3ddd8d8e	0.10818015
113	0xbd2fef40	-0.042952776
114	0xbd2cbdb8	-0.042173117
115	0x3e05aa48	0.13053238
116	0x3deda827	0.11604338
117	0x3e0cf0a2	0.13763669
118	0xbdfe9c59	-0.12432165
119	0xbe0eb731	-0.1393707
120	0x3de97c31	0.11400641
121	0x3def3825	0.116806306
122	0xbda23f16	-0.07922189
123	0x3d306227	0.043062355
124	0x3e395212	0.18097714
125	0x3d82f955	0.063952126
126	0x3e09c57a	0.13454238
127	0xbdafb7e7	-0.085799985
128	0x3e084434	0.13307267
129	0xbcd498ca	-0.025951762
130	0x3e1cd102	0.15314105
131	0xbdc26bc4	-0.09493211
132	0xbd963bcc	-0.07335624
133	0x3e38a8b9	0.18033113
134	0xbe01e4d6	-0.1268495
135	0xbe45beed	-0.19311114
136	0xbe00a235	-0.12561877
137	0xbda597b8	-0.08085579
138	0xbd6d8ae2	-0.057993777
139	0x3dc2d91e	0.09514068
140	0xbe2fdf63	-0.17175059
141	0x3e2ef397	0.1708511
142	0x3d0f2264	0.034944907
143	0xbdbc8c91	-0.092064984
144	0x3da5b296	0.08090703
145	0xbdd3ec0e	-0.10347758
146	0x3db0ed5e	0.08639024
147	0x3d88873a	0.066664174
148	0xbc548f9b	-0.012973691
149	0xbdcf80d5	-0.10131995
150	0xbe28556f	-0.1643884
151	0xbcac9767	-0.021068288
152	0xbcf51f20	-0.029922068
153	0xbcfe3f34	-0.031035997
154	0x3e5d722e	0.21625587
155	0x3e1c700d	0.15277119
156	0xbe1562e4	-0.14588505
157	0xbd3eb32e	-0.046557598
158	0x3d7db337	0.06193849
159	0x3d54e53f	0.05197644
160	0x3e8626cf	0.26201484
161	0xbc1a3c83	-0.009413841
162	0x3d85cb13	0.06532874
163	0x3df6efce	0.12057458
164	0xbd0fe0f2	-0.035126634
165	0x3e174b81	0.14774896
166	0x3d9a604b	0.07537898
167	0x3c472bcc	0.012156438
168	0x3d26c314	0.040713385
169	0x3dcc670f	0.09980594
170	0x3d944491	0.072396405
171	0x3d1d37cd	0.038383294
172	0x3d2aacb3	0.041668605
173	0x3e0865a7	0.13320027
174	0xbd4aa5de	-0.04947459
175	0xbe20430e	-0.1565058
176	0x3daa1445	0.08304647
177	0xbd3e0fa4	-0.046401635
178	0xbd80aef0	-0.06283367
179	0x3e08885e	0.1333327
180	0xbdd1b98f	-0.102404706
181	0x3dab9ecc	0.083798975
182	0xbe17bf45	-0.14819057
183	0x3df9e247	0.12201362
184	0x3d22a665	0.039709467
185	0xbe54a8cc	-0.20767516
186	0x3e415016	0.18878207
187	0xbbcf3e5f	-0.006324574
188	0x3e298077	0.16552912
189	0xbcb76035	-0.022384742
190	0x3db9b6fc	0.090681046
191	0x3d062f42	0.032759912
192	0x3dc3234f	0.09528219
193	0xbd8e3703	-0.069440864
194	0xbddf1385	-0.10892395
195	0xbde3f5fd	-0.11130903
196	0xbcf0c120	-0.029388964
197	0xbdab4362	-0.083624616
198	0xbd856204	-0.065128356
199	0xbdf87460	-0.12131572
200	0xbde03db7	-0.10949271
201	0x3e111495	0.14168008
202	0xbd1ebc33	-0.0387537
203	0x3e0fae71	0.14031388
204	0x3df99971	0.1218747
205	0x3e4349e3	0.19071154
206	0x3cb16358	0.021653816
207	0x3d5702ee	0.05249303
208	0x3de857d4	0.11344877
209	0x3ce5a03d	0.02803051
210	0x3ddc87bf	0.10768079
211	0x3ddd362e	0.108013496
212	0xbd356265	-0.04428329
213	0x3debb2e1	0.11508728
214	0xbd7a3f65	-0.061095614
215	0x3c8edbb4	0.017438747
216	0x3d44923e	0.04799103
217	0x3dceba4c	0.10094127
218	0x3e2403e8	0.16017115
219	0x3df31947	0.11870056
220	0x3bd68aaa	0.0065472918
221	0xbcb48101	-0.02203417
222	0x3e4240ad	0.18969984
223	0x3ddf55cf	0.109050386
224	0xbdc4c5c8	-0.09608036
225	0xbd2703aa	-0.04077498
226	0x3e003f12	0.1252406
227	0x3e15b809	0.14620985
228	0xbd415fce	-0.047210507
229	0x3db21ef7	0.08697312
230	0x3a85a1d5	0.0010195324
231	0xbe37deb8	-0.17956054
232	0x3e1b02f6	0.15137848
233	0x3e1ec800	0.15505981
234	0xbc90b577	-0.017664654
235	0xbc088566	-0.008332586
236	0x3d2ca6d2	0.04215128
237	0xbdd9dd21	-0.1063788
238	0x3e3b3850	0.182832
239	0x3d5f4acd	0.054514695
240	0x3e40352c	0.18770283
241	0x3e31d4b6	0.17366299
242	0x3e0c66bb	0.13711064
243	0xbd44320a	-0.047899283
244	0x3dcaa7ae	0.098952636
245	0x3e024dbb	0.12724964
246	0x3c5d92e7	0.013523794
247	0x3d0f131a	0.034930326
248	0x3cc1c01d	0.023651177
249	0x3e3cd821	0.18441822
250	0x3e265d2f	0.16246484
251	0x3cfefbf2	0.031125996
252	0xbcf3b856	-0.029750984
253	0x3e3c968c	0.18416804
254	0x3d725ec0	0.059172392
255	0x3ca38c00	0.019964218

critic.2.weight f4 [128, 256]
0	0xbd76eee1	-0.060286406
1	0xbce53b3e	-0.02798235
2	0xbd11615d	-0.035493243
3	0xbc69c28b	-0.014267574
4	0x3d6d0d9f	0.05787432
5	0xbd08a662	-0.0333618
6	0x3cadaa77	0.021199448
7	0x3d0e33a0	0.034717202
8	0x3ce22b6e	0.0276086
9	0xbce9704d	-0.028495932
10	0x3ce17219	0.027520226
11	0x3cdd241e	0.026994761
12	0x3cddd242	0.027077798
13	0xbd3d0ae1	-0.046152953
14	0xbc71bf6b	-0.01475511
15	0x3d5befa9	0.053695355
16	0xbc939064	-0.018013187
17	0x3d55790b	0.05211739
18	0xbd58adde	-0.052900188
19	0xbc8d7fce	-0.017272856
20	0x3ccd653e	0.02507269
21	0x3d5f083d	0.054451216
22	0xbd81c927	-0.06337195
23	0x3cfdb135	0.030968288
24	0x3d28525b	0.041094165
25	0xbcddd6b2	-0.027079914
26	0x3c4454db	0.011983122
27	0x3d0dd5f7	0.03462788
28	0xbb9b4a01	-0.0047390466
29	0xbd95c79b	-0.07313462
30	0xbd5d891a	-0.05408583
31	0x3c6358c0	0.01387614
32	0xbcacca49	-0.02109255
33	0xb97470c3	-0.0002331166
34	0x3c4a3f76	0.012344232
35	0x3c5069da	0.0127205495
36	0xbc56c437	-0.013108305
37	0xbc9d735c	-0.019220047
38	0x3c4ae6c3	0.012384119
39	0xbd19f795	-0.03758963
40	0x3d1f695d	0.03891884
41	0x3afd153e	0.0019308699
42	0x3c711509	0.014714488
43	0x3b536998	0.0032258984
44	0xbd86df31	-0.06585539
45	0xbcd449c2	-0.025914077
46	0x3c7c4434	0.01539712
47	0x3cdbb36d	0.026818955
48	0x3d13ad1c	0.03605376
49	0x3d3f5bba	0.046718337
50	0xbc80a26f	-0.015702454
51	0x3d4609e0	0.04834926
52	0xbd49f9bd	-0.049310435
53	0x3c8bd3d2	0.017068777
54	0xbd323e5f	-0.043516513
55	0xbd4a5f34	-0.0494072
56	0x3ce300b5	0.027710298
57	0xbc9e1917	-0.019299073
58	0xbcc29d09	-0.02375652
59	0x3aa6e9dc	0.001273449
60	0x3d2a8e99	0.041639898
61	0xbd832cc4	-0.06405023
62	0xbc2c4a37	-0.010515741
63	0xbc9cbea3	-0.019133871
64	0xbd3ad1f7	-0.045610394
65	0x3cdfe8bc	0.027332656
66	0xbd070c3e	-0.03297066
67	0x3d323da5	0.04351582
68	0xbd240715	-0.040045816
69	0xbd21a673	-0.03946538
70	0xbba35c94	-0.0049854014
71	0x3c50f905	0.012754683
72	0xbc32f2d8	-0.010922156
73	0xbd45279a	-0.04813347
74	0xbd72ea47	-0.059305456
75	0xbd6da70b	-0.058020633
76	0xbd61dd96	-0.05514296
77	0xbbc1ccde	-0.0059143146
78	0xbd290072	-0.04126019
79	0xbd5a613f	-0.053315397
80	0xbc36b107	-0.011150605
81	0xbd137394	-0.035998896
82	0xbcbe3fa8	-0.023223713
83	0xbd0b6939	-0.034035895
84	0x3d167cc0	0.036740065
85	0xbd71eaab	-0.059061687
86	0xbd864d76	-0.06557743
87	0x3bb85102	0.0056248913
88	0xbaef50fb	-0.0018258387
89	0x3ca3a72c	0.019977175
90	0xba22133c	-0.0006182676
91	0xbd6f2bb6	-0.058391295
92	0x3cdb86dd	0.026797706
93	0x3d8471b3	0.06466999
94	0x3bce30c6	0.0062924353
95	0xbc673e80	-0.014114022
96	0xbd1cfdb1	-0.038327876
97	0xbc724ca5	-0.014788781
98	0x3c3e665f	0.011621087
99	0x3d047168	0.032334715
100	0xbc016d51	-0.007899598
101	0xbce2f381	-0.027704002
102	0x3b5b1519	0.0033429323
103	0x3d414142	0.047181375
104	0x3d384723	0.044989716
105	0x3c8ff432	0.017572496
106	0xbc86eda5	-0.01647074
107	0xbcca4ead	-0.024695719
108	0x3d3597ff	0.044334408
109	0xbc9c9bfb	-0.019117346
110	0x3ce551f1	0.027993174
111	0xbd82b7ec	-0.063827366
112	0x3cc4727e	0.023980375
113	0x3d4d2d84	0.050092235
114	0xbcd036bf	-0.02541673
115	0x3d2ff2bd	0.042956103
116	0x3d717d4d	0.058957387
117	0xbd7813bd	-0.0605657
118	0xbd1274bc	-0.035755858
119	0x3cefe47f	0.02928376
120	0xbd0de73a	-0.034644343
121	0xbd754376	-0.05987879
122	0x3c6cc9b8	0.01445239
123	0x3cd97035	0.026542762
124	0xbcbd7f58	-0.023132011
125	0x3c4387cf	0.011934235
126	0xbc91693d	-0.017750377
127	0xbd36ccc2	-0.044628866
128	0x3c917e36	0.017760377
129	0x3d59af81	0.05314589
130	0xbc466b91	-0.012110607
131	0x3d62b68b	0.055349868
132	0xbd72f51a	-0.05931578
133	0x3d1b2bc0	0.03788352
134	0xbd39338b	-0.04521517
135	0xbd611afd	-0.05495738
136	0xbc226dd7	-0.009913883
137	0xb9b5de40	-0.000346886
138	0xbcf2cdee	-0.02963921
139	0xbd76b317	-0.060229387
140	0x3c2ed0e3	0.01066992
141	0x3c42abc5	0.011881773
142	0xbc3aabc6	-0.011393493
143	0x3d159ac3	0.036524545
144	0xbcec6aaf	-0.028859464
145	0xbc3b6440	-0.011437476
146	0xbd514197	-0.051087942
147	0x3d48a31c	0.04898368
148	0x3d29f9de	0.041498058
149	0xbd064973	-0.03278489
150	0x3d477ec1	0.048704866
151	0xbd8050a8	-0.06265384
152	0xbbf4a114	-0.007465491
153	0x3c71c158	0.014755569
154	0xbd52073d	-0.051276434
155	0xbd656eea	-0.05601398
156	0xbd4d0cfc	-0.05006121
157	0xbcfe70a7	-0.031059576
158	0xbd49d76b	-0.049277704
159	0x3cc3cd36	0.023901563
160	0x3cbc02c2	0.022950534
161	0x3d35de43	0.04440142
162	0xbd50e53d	-0.05099987
163	0xbd651c92	-0.05593545
164	0xbd2db89c	-0.042412385
165	0x3c3ce440	0.011529028
166	0xbb89e76a	-0.004208495
167	0xbcd241cc	-0.02566614
168	0x3d4ccabe	0.049998038
169	0xbd80823e	-0.06274842
170	0xbd86485a	-0.06556769
171	0x3cea9fb1	0.0286406
172	0x3d584468	0.052799612
173	0x3d05da83	0.032679092
174	0xbd0073e4	-0.031360522
175	0x3d3ed88c	0.046593234
176	0xbd0b1a36	-0.033960544
177	0xbd508b46	-0.05091407
178	0xbd351cd0	-0.04421693
179	0x3d2a891c	0.041634664
180	0x3d6d1c1b	0.05788813
181	0x3d24cf47	0.040236738
182	0x3d3aae36	0.045576297
183	0x3d5c6701	0.05380917
184	0xbd4b8644	-0.049688593
185	0x3d63bab9	0.055597994
186	0x3d347d0d	0.04406457
187	0xbb93ac6a	-0.0045066373
188	0x3ca35b9b	0.019941142
189	0xbcff3a41	-0.031155707
190	0xbca81d55	-0.0205218
191	0xbc993844	-0.018703587
192	0xbd75c681	-0.06000376
193	0x3aa0ce00	0.0012268424
194	0x3d675646	0.05647876
195	0x3ce00219	0.02734475
196	0x3d5ccd77	0.053906884
197	0xbb52a41b	-0.0032141272
198	0xbd7ebc2b	-0.06219117
199	0xbd2ae4cc	-0.041722104
200	0xbd76d1c0	-0.060258627
201	0xbd069121	-0.03285325
202	0xb949a402	-0.00019229951
203	0xbd6b59bf	-0.057458635
204	0xbd4ccf26	-0.05000224
205	0x3d48d7c8	0.04903391
206	0xbd0b7cef	-0.034054693
207	0xbd00813b	-0.031373244
208	0x3c4711f0	0.012150273
209	0x3d2bb7aa	0.041923203
210	0x3cb0eb83	0.021596676
211	0xbb805d84	-0.003917398
212	0xbc6dc98a	-0.014513383
213	0xbd5a1472	-0.053242154
214	0x3a8966e1	0.0010482931
215	0xbcbf740f	-0.02337077
216	0x3cd241a0	0.025666058
217	0xbc281ff8	-0.010261528
218	0xbce78c3c	-0.028265111
219	0xbca3bb4a	-0.019986767
220	0xbd4f4db8	-0.050611228
221	0x3cfc01be	0.03076255
222	0x3d600994	0.054696634
223	0x3cb7c048	0.022430554
224	0x3acf270a	0.0015804481
225	0x3cc99016	0.024604838
226	0xbb8f5f1b	-0.004375351
227	0xbca05007	-0.01956941
228	0xbc2cf9c8	-0.010557599
229	0xbca8baa4	-0.02059681
230	0x3ca1a977	0.019734127
231	0xbd821040	-0.06350756
232	0xbc9ba0e8	-0.018997625
233	0xbd44bc74	-0.048031285
234	0xbd006556	-0.03134664
235	0xbd46dea6	-0.048552178
236	0xbc25ae0a	-0.010112295
237	0xbc30e52f	-0.010796829
238	0xbd83a045	-0.06427053
239	0xbd311576	-0.043233357
240	0x3a2efeaf	0.0006675524
241	0xbd18d90c	-0.037316367
242	0xbd8b744a	-0.0680929
243	0xbd5d53f8	-0.054035157
244	0x3c68093f	0.014162361
245	0x3ce3cdf4	0.027808167
246	0xba654a00	-0.00087466836
247	0xbd87152f	-0.06595837
248	0x3cdedf7f	0.02720618
249	0xbd2d0f83	-0.04225112
250	0xbcf576a0	-0.029963791
251	0xbb8b7b84	-0.0042566676
252	0xbd14536b	-0.036212366
253	0xbd639ca2	-0.0555693
254	0x3c894fcc	0.016761683
255	0xbd864c6e	-0.065575466

critic.2.bias f4 [128]
0	0x3b4c52de	0.0031177322
1	0x3cfba950	0.030720383
2	0x3c8aad66	0.016928386
3	0xbd7121db	-0.058870178
4	0x3d1bdbb6	0.03805133
5	0xbb113f66	-0.0022163033
6	0xbcfe447e	-0.031038519
7	0x3ba97cb8	0.0051723383
8	0xbbedf33c	-0.007261662
9	0x3d5da5fe	0.05411338
10	0x3c8a4c42	0.016882066
11	0xbd236130	-0.039887607
12	0x3db324c4	0.08747247
13	0xbd454a3d	-0.048166502
14	0x3d75c54f	0.06000262
15	0xbbea1318	-0.0071433894
16	0x3d7e7248	0.062120706
17	0x3d5391c9	0.051652703
18	0x3d8108ec	0.0630053
19	0x3dc82013	0.09771743
20	0x3be7ad5c	0.0070702266
21	0xbd7bc89c	-0.061470613
22	0x3d2080ba	0.039185263
23	0x3db1d96d	0.08684049
24	0xbd361021	-0.044448975
25	0x3d8899f0	0.06669986
26	0x3ade127a	0.0016942762
27	0x3c824ebe	0.015906688
28	0xbd7b4a9b	-0.061350446
29	0x3d1697f5	0.03676601
30	0xbc7835b7	-0.015149525
31	0x3d889bee	0.06670366
32	0x3b28c0a2	0.0025749584
33	0x3d7d141d	0.06178676
34	0x3c1f08dd	0.009706703
35	0xbc8b7ee0	-0.017028272
36	0x3cf5bd5b	0.029997518
37	0x3d8c10d1	0.06839145
38	0x3ccda9e6	0.025105428
39	0xbcefb490	-0.029260904
40	0x3d0fdf43	0.03512503
41	0x3dd5bc57	0.104363136
42	0x3d4f49e1	0.050607566
43	0xbd4bbca0	-0.049740434
44	0xbc3656df	-0.01112911
45	0x3ddd621b	0.10809728
46	0x3d49c4ab	0.049259823
47	0x3d52ed2d	0.05149572
48	0xbdb5640e	-0.088569745
49	0xbc58da59	-0.013235652
50	0xbcb039d2	-0.021511946
51	0x3d74760c	0.05968289
52	0x3d267073	0.040634584
53	0x3d4d8d4c	0.05018358
54	0x3ccf72d9	0.025323318
55	0x3c6e51ef	0.014545902
56	0xbcefe225	-0.029282639
57	0xbdc2f37c	-0.09519097
58	0xbc88c9a1	-0.016697707
59	0x3ddf47a0	0.10902333
60	0x3d0efa9c	0.03490697
61	0x3d13fd01	0.036129955
62	0x3dc81f93	0.09771647
63	0xbbc0a31a	-0.005878818
64	0x3dcdc586	0.1004744
65	0x3d1074c4	0.035267606
66	0x3d49cbf2	0.049266763
67	0xbcb37338	-0.021905527
68	0x3c1d8042	0.009613099
69	0x3cb34a82	0.021886114
70	0x3d4224c1	0.047398333
71	0x3d3d0da3	0.046155583
72	0x3d7e2707	0.062048938
73	0x3dd2a86e	0.10286032
74	0x3da75ec2	0.081723705
75	0x3d473cf0	0.0486421
76	0xbd1dcebb	-0.03852723
77	0xbb632678	-0.003466038
78	0xbc844cec	-0.01614996
79	0xbcb29e34	-0.021803953
80	0x3dc1a552	0.094553605
81	0xbd718be9	-0.05897132
82	0xbbb45952	-0.005503812
83	0xbc680542	-0.01416141
84	0x3c13054f	0.008973434
85	0x3cb58af9	0.022160994
86	0x3dcd570d	0.10026369
87	0x3d295e07	0.041349437
88	0xbc836891	-0.016041072
89	0x3cbd1da4	0.023085423
90	0x3d336453	0.04379685
91	0xbb420d4e	-0.002960998
92	0xbda6d322	-0.08145739
93	0xbcd4f8ca	-0.025997538
94	0x3c537fec	0.012908917
95	0x3c2ec068	0.01066599
96	0xbd33c1e6	-0.043886088
97	0x3dad5902	0.084642425
98	0x3d7c79b6	0.06163951
99	0x3c539a7f	0.012915253
100	0x3d028fb9	0.031875346
101	0x3d004bff	0.031322476
102	0x3cf128dc	0.029438429
103	0x3b8da6fc	0.0043228846
104	0x3c9cccef	0.019140689
105	0xbc33162f	-0.010930582
106	0x3d583654	0.052786186
107	0x3d8caded	0.06869111
108	0x3d405048	0.046951562
109	0x3d6242c2	0.055239446
110	0xbd084dd8	-0.033277363
111	0xbb9a75f0	-0.0047137663
112	0x3daf603d	0.08563278
113	0xbd70fb02	-0.05883313
114	0xbce56944	-0.028004296
115	0x3d349e5d	0.04409634
116	0x3c5432c6	0.012951558
117	0xbd9cf378	-0.076636255
118	0xbc44c629	-0.012010136
119	0x3d2f45e6	0.04279127
120	0xbd253216	-0.04033097
121	0x3d1e1c21	0.038601045
122	0xbc955077	-0.018226845
123	0x3de5b191	0.11215509
124	0x3d8b7024	0.068084985
125	0xbc55e70e	-0.013055576
126	0xbca6e31d	-0.020371968
127	0xbe1c3686	-0.15255174

critic.4.weight f4 [1, 128]
0	0xbcbcbe8a	-0.023040075
1	0xbd9ed452	-0.07755341
2	0x3e578617	0.21047245
3	0xbde0282a	-0.10945161
4	0xbdde5f50	-0.10858023
5	0x3e49c23e	0.19703004
6	0xbe6efbfa	-0.23338309
7	0xbd96dd34	-0.0736641
8	0x3e9d8132	0.3076263
9	0x3dfa8aa2	0.12233473
10	0xbec85cd1	-0.39133313
11	0xbe018045	-0.12646587
12	0x3e236fa7	0.1596056
13	0xbdfdd139	-0.12393422
14	0xbe2cd801	-0.16879274
15	0xbde8010f	-0.11328327
16	0xbe2c0eaa	-0.16802469
17	0xbe35bd93	-0.17748098
18	0x3e69b092	0.22821262
19	0x3ea71d78	0.3263967
20	0xbeea4085	-0.4575235
21	0xbd853988	-0.06505114
22	0x3dbf9cfc	0.09356114
23	0x3e34ba37	0.1764916
24	0xbe0c4cbf	-0.13701151
25	0x3e2278ea	0.15866438
26	0x3dfc2354	0.12311426
27	0x3dc5fc0d	0.096672155
28	0xbbc61723	-0.0060452386
29	0xbe3bfaae	-0.18357345
30	0xbdf8e932	-0.121538535
31	0x3de06267	0.10956269
32	0x3f126b94	0.571954
33	0xbe003de7	-0.12523614
34	0xbe405c32	-0.1878517
35	0xbdc8c61c	-0.09803411
36	0xbe55af47	-0.20867644
37	0xbe5e92ce	-0.21735689
38	0x3e846238	0.25856185
39	0xbda5935f	-0.080847494
40	0xbe306f88	-0.17230046
41	0x3e15be2f	0.1462333
42	0xbd7676c9	-0.060171876
43	0xbd35920f	-0.044328745
44	0xbe53a88b	-0.20669763
45	0x3e3cde25	0.18444116
46	0x3ef002f7	0.46877262
47	0x3e1ca90f	0.15298866
48	0x3edc48e1	0.43024352
49	0xbe87cad6	-0.2652194
50	0xbef11b97	-0.47091362
51	0x3da50213	0.08057036
52	0x3e4f7c92	0.20262364
53	0x3e524327	0.20533429
54	0xbe85129c	-0.2599076
55	0x3dd1aa8e	0.10237609
56	0xbe1508bc	-0.14554113
57	0x3e973f2b	0.2954038
58	0xbe23479c	-0.15945286
59	0x3e5ab93f	0.21359728
60	0x3da8a503	0.082345985
61	0x3d9949bf	0.07484769
62	0x3e852f1d	0.26012507
63	0x3de17f18	0.11010569
64	0x3e2e253d	0.17006393
65	0x3e176757	0.14785515
66	0x3debb472	0.115090266
67	0xbe86e075	-0.26343122
68	0xbe4edc54	-0.20201236
69	0xbe9b6d14	-0.30356658
70	0xbdb7738d	-0.089575864
71	0xbdd742fd	-0.10510824
72	0xbda6e133	-0.08148422
73	0x3e6af93d	0.2294664
74	0x3db57ca5	0.08861665
75	0x3e3d368a	0.18477836
76	0x3e029659	0.12752666
77	0xbe9552c0	-0.29164696
78	0xbe7ceeb6	-0.24700436
79	0x3d8122b7	0.063054495
80	0x3ea2782a	0.31732303
81	0x3f0f48a7	0.55970234
82	0xbda4f362	-0.08054234
83	0xbe20ced5	-0.157039
84	0xbe283817	-0.16427647
85	0x3de48812	0.11158766
86	0x3e85a86a	0.26105052
87	0x3df068b4	0.117387205
88	0xbe8f80b5	-0.28027883
89	0xbe0cbcac	-0.13743848
90	0xbe3ff206	-0.18744668
91	0x3ea87297	0.32899925
92	0xbf0d3cc0	-0.5517082
93	0xbf0663b7	-0.524959
94	0xbdc6c9d3	-0.09706464
95	0xbe172bab	-0.14762752
96	0xbe3f90be	-0.18707559
97	0xbe6b5b3e	-0.22984025
98	0x3e2c47b0	0.16824222
99	0xbe1bb271	-0.15204789
100	0x3e5e4b37	0.2170838
101	0x3e1bd821	0.15219165
102	0xbe35c5f5	-0.17751296
103	0x3e87aee9	0.26500633
104	0x3e2d71c8	0.16937935
105	0xbe99ec37	-0.3006303
106	0x3e3bd636	0.18343434
107	0xbe8df427	-0.27725336
108	0x3dee1ec5	0.116269626
109	0x3e72555c	0.23665375
110	0xbe906725	-0.28203693
111	0xbd9b1497	-0.075722866
112	0x3e921a6f	0.28535792
113	0x3b0f0bf6	0.0021827198
114	0xbe8d9693	-0.27653942
115	0x3e8c48bb	0.2739924
116	0x3e1a185d	0.15048356
117	0xbe822ed2	-0.25426346
118	0x3d84ab9f	0.064780466
119	0x3e0348d5	0.12820752
120	0xbcdb3902	-0.026760582
121	0xbe969c64	-0.29416192
122	0x3da60365	0.08106116
123	0xbe865863	-0.2623931
124	0xbdb5257e	-0.08845042
125	0xbea2478c	-0.3169521
126	0x3e2308ab	0.15921275
127	0x3ec3ba1b	0.38227925

actor.0.weight f4 [256, 48]
0	0xbe01fdf5	-0.12694533
1	0x3de27b12	0.1105863
2	0xbd8f18e0	-0.069871664
3	0x3c9a8d64	0.018866248
4	0xbe1eee0b	-0.15520494
5	0x3e13417a	0.14380446
6	0xbd8d71da	-0.06906481
7	0x3d9d6efa	0.07687183
8	0x3e1c8907	0.15286647
9	0x3e6caaa0	0.23111963
10	0xbd2137c1	-0.03935981
11	0x3e16561f	0.1468129
12	0xbae38f53	-0.001736144
13	0x3aaac67b	0.0013029122
14	0x3dd7a399	0.10529251
15	0xbdb2d7d6	-0.08732574
16	0xbde7ad7b	-0.11312386
17	0x3e0f3cf2	0.13988093
18	0xbb7bfc96	-0.0038450113
19	0x3e0f74a8	0.14009345
20	0x3c482197	0.01221504
21	0xbca95436	-0.020670038
22	0x3d817d07	0.06322675
23	0x3d954be2	0.07289864
24	0x3ce5a96a	0.028034884
25	0x3d6c87bf	0.057746645
26	0x3cb32271	0.021867009
27	0xbc41c671	-0.011827097
28	0xbd9fc64d	-0.07801495
29	0x3de7cf45	0.113188304
30	0xbc49f3c2	-0.012326183
31	0x3d4f04b1	0.050541583
32	0x3d829a6a	0.063771084
33	0x3cc1a4db	0.02363818
34	0x3dd35567	0.103190236
35	0xbca7ff5b	-0.020507505
36	0xbd809a48	-0.06279427
37	0x3d51e009	0.051239047
38	0x3dfd2176	0.12359898
39	0x3ba9d491	0.0051828106
40	0x3dbe1fa6	0.0928338
41	0xbca17864	-0.019710727
42	0xbdecf5bf	-0.1157031
43	0x3e2513f5	0.16120894
44	0xbd085fba	-0.033294417
45	0x3dbe5713	0.09293952
46	0xbdc05f50	-0.093931794
47	0x3b20019a	0.0024415017
48	0xbd049694	-0.032370165
49	0xbcc702c0	-0.024293303
50	0x3d38f058	0.045151085
51	0xbc44bb23	-0.0120075075
52	0xbdbfaad5	-0.093587555
53	0xbe04adbb	-0.12956898
54	0xbc976de6	-0.01848502
55	0xbdc9fdc2	-0.098628536
56	0xbe283836	-0.16427693
57	0x3ded7966	0.115954205
58	0xbdfba959	-0.1228816
59	0x3d6c5a7a	0.057703473
60	0xbdceeabb	-0.10103365
61	0x3d6553bb	0.055988055
62	0x3c25acfb	0.010112043
63	0x3e1ab649	0.15108599
64	0xbdfd0b45	-0.12355665
65	0x3c77b170	0.015117988
66	0xbbff296b	-0.00778692
67	0x3dda64d0	0.1066376
68	0x3d0ced7e	0.034406178
69	0x3e181cb6	0.14854702
70	0x3d8404ce	0.06446229
71	0xbe438738	-0.1909455
72	0x3d825bf4	0.06365195
73	0xbd790ec7	-0.06080511
74	0x3d6dddd7	0.05807289
75	0x3d84a029	0.064758606
76	0xbda957f7	-0.08268731
77	0xbd97c30a	-0.074102476
78	0xbd903002	-0.07040407
79	0x3cdb1df6	0.026747685
80	0xbdc77162	-0.09738423
81	0x3da8bd11	0.082391866
82	0xbe05891a	-0.13040581
83	0xbe5ed47d	-0.21760745
84	0xbd95a33a	-0.073065236
85	0x3ce62edd	0.028098518
86	0x3c1c112e	0.00952558
87	0x3ddfcfee	0.10928331
88	0x3d5d39c1	0.054010157
89	0x3d97af81	0.074065216
90	0xbd172f78	-0.036910504
91	0x3de8d1d6	0.11368148
92	0xbe5ae664	-0.2137695
93	0xbdd2bc1e	-0.10289787
94	0xbe0df120	-0.13861513
95	0xbe015df5	-0.12633498
96	0x3ddf79da	0.10911913
97	0xbe1f6c01	-0.15568544
98	0x3e3bf761	0.18356086
99	0xbe2f7588	-0.17134678
100	0xbe2e7dac	-0.17040128
101	0xbd033723	-0.032035004
102	0xbd9a1a9a	-0.07524605
103	0xbd925381	-0.07144833
104	0x3d12dc7d	0.035854805
105	0x3dc88a78	0.09792036
106	0xbcb6730f	-0.022271661
107	0x3e273975	0.16330512
108	0xbd124ac9	-0.035715852
109	0xbe0ec79a	-0.1394333
110	0xbd2c9884	-0.042137638
111	0xbe1380a9	-0.14404549
112	0xbe09804a	-0.13427845
113	0x3d645c93	0.05575235
114	0x3e11ae8b	0.14226739
115	0x3d8c0ca7	0.06838351
116	0xbdfb17a7	-0.12260371
117	0xbd8ee0fe	-0.069765076
118	0xbd96ad0e	-0.07357226
119	0x3e3e7e55	0.1860288
120	0x3d13c91e	0.036080472
121	0xbcae4934	-0.02127514
122	0x3daee151	0.085390694
123	0xbe0fe176	-0.1405085
124	0x3b792434	0.0038015964
125	0xbd97bb98	-0.074088275
126	0xbdccfb33	-0.1000885
127	0xbd8e3956	-0.0694453
128	0xbd7dc946	-0.061959527
129	0x3daee92b	0.08540567
130	0x3dbf4785	0.09339813
131	0x3d9b437f	0.07581233
132	0xbe10dc0f	-0.14146446
133	0x3d5d0e24	0.053968564
134	0xbe15fa70	-0.14646316
135	0x3d384078	0.044983357
136	0x3d13781e	0.036003225
137	0x3d1784b4	0.03699179
138	0x3e043426	0.12910518
139	0x3cde7bbd	0.027158612
140	0xbd8d6e7c	-0.06905839
141	0xbd5f5b3a	-0.05453036
142	0xbdef5c92	-0.11687578
143	0x3e279625	0.1636587
144	0xbd978968	-0.07399255
145	0xbc4fea77	-0.012690178
146	0xbcb254d5	-0.021768967
147	0x3da2d09f	0.079499476
148	0xbdb288de	-0.087175116
149	0xbd727afe	-0.059199326
150	0x3d196568	0.037450224
151	0x3cb5bfd7	0.022186203
152	0x3d2bfecb	0.041991036
153	0x3e874130	0.26416922
154	0xbde0dd55	-0.10979716
155	0x3e36541c	0.17805523
156	0x3d3e1c61	0.046413783
157	0xbd30f2e4	-0.04320039
158	0xbc3c2f54	-0.011485893
159	0xbd8893a6	-0.06668787
160	0x3d4dcaa1	0.05024207
161	0xbe0b0614	-0.13576537
162	0x3dcb3a57	0.09923237
163	0x3dcaebb5	0.09908239
164	0x3dbcea9a	0.09224434
165	0x3c3aba15	0.0113969045
166	0xbe16fe06	-0.1474534
167	0x3db75b38	0.089529455
168	0xbd604d70	-0.05476135
169	0xbe1d26e6	-0.1534687
170	0x3d1f3824	0.0388719
171	0x3e0c3a8c	0.13694209
172	0xbe058ca6	-0.13041934
173	0x3e01a744	0.12661463
174	0x3d4b0159	0.049561832
175	0x3e3c1506	0.18367395
176	0x3ce82117	0.028336091
177	0x3e55e404	0.20887762
178	0xbd734764	-0.059394255
179	0x3e3ec5f8	0.18630207
180	0xbe0ba14a	-0.13635746
181	0xbb53b38a	-0.0032303059
182	0xbd8aa391	-0.06769479
183	0xbc38ad06	-0.011271721
184	0xbdf1f6eb	-0.11814674
185	0xbd844122	-0.064577356
186	0x3e0491a4	0.12946182
187	0x3c09dd16	0.008414527
188	0xbe190493	-0.14943151
189	0x3e6a9240	0.22907352
190	0xbe23f092	-0.16009739
191	0xbd14baa2	-0.0363108
192	0x3e1530d1	0.14569403
193	0x3dfe72f2	0.12424268
194	0xbda38a5a	-0.07985373
195	0x3d97844e	0.07398282
196	0xbdc821a2	-0.0977204
197	0xbc1ad817	-0.009450934
198	0xbe0991ea	-0.13434568
199	0x3cfd6872	0.030933592
200	0xbe12db1c	-0.14341396
201	0xbe55c19e	-0.2087464
202	0xbce9915a	-0.028511692
203	0xbdae4ddd	-0.08510945
204	0x3d9c9527	0.07645636
205	0x3e010b3b	0.1260194
206	0x3c3a4e47	0.011371202
207	0xbd9655dc	-0.07340595
208	0x3dd6b9c1	0.104846485
209	0x3d5474ec	0.051869318
210	0x3d8774fd	0.066141106
211	0xbdb1e071	-0.08685387
212	0xbc67cbcf	-0.014147713
213	0xbe93d1d3	-0.2887102
214	0x3cbe0311	0.023194822
215	0xbcaf5289	-0.02140166
216	0x3cadcfc0	0.021217227
217	0xbcf9972c	-0.030467592
218	0x3d92d95d	0.07170365
219	0x3d31dc2a	0.043422855
220	0xbc83c7f9	-0.016086565
221	0xbdee8ff3	-0.1164855
222	0xbd3f4165	-0.046693224
223	0xbdf21d87	-0.11822038
224	0xbdefb03b	-0.11703535
225	0xbe3e6fd5	-0.18597348
226	0xbbec785a	-0.0072164955
227	0x3d7c5b7a	0.061610676
228	0x3d65c03e	0.05609154
229	0x3e04c3c8	0.1296531
230	0x3d91243c	0.07086989
231	0xbd743ca7	-0.059628155
232	0xbe081ef6	-0.1329306
233	0x3e179c57	0.14805733
234	0xbd1e7e31	-0.038694564
235	0x3c8ade07	0.016951574
236	0xbe13fad3	-0.1445115
237	0xbe8c42d5	-0.2739474
238	0xbc5c86c2	-0.013459863
239	0x3defac6f	0.11702811
240	0xbba9db68	-0.005183626
241	0xbe1afea7	-0.15136205
242	0x3d4de227	0.050264504
243	0xbda8cbcb	-0.082419954
244	0xbdc3f41a	-0.09568043
245	0x3d21bb03	0.03948499
246	0xbd92b075	-0.07162563
247	0x3cdf3ff2	0.027252171
248	0xbe2e400b	-0.17016618
249	0x3b271299	0.0025493263
250	0x3e28655b	0.16444914
251	0x3e6d2661	0.23159172
252	0x3d9260eb	0.07147392
253	0x3d6af558	0.057362884
254	0xbc18e4d4	-0.009331901
255	0x3de083ee	0.109626636

actor.0.bias f4 [256]
0	0x3cf00f91	0.029304298
1	0xbb89fb21	-0.004210845
2	0xbd07fa90	-0.03319794
3	0x3d0d4f4f	0.034499463
4	0xbdc12f84	-0.09432891
5	0x3dff725f	0.124729864
6	0xbcde17da	-0.027110983
7	0xbd28ef8d	-0.04124408
8	0x3d036beb	0.03208534
9	0xbdd00a12	-0.10158171
10	0x3de117df	0.10990881
11	0xbc1ee102	-0.009697201
12	0x3de70b41	0.112814434
13	0xbe0eb40b	-0.13935868
14	0xbd450cdd	-0.04810797
15	0x3de36737	0.11103671
16	0xbdcd1938	-0.10014576
17	0xbd2a42b7	-0.04156753
18	0x3bf0a2a4	0.007343607
19	0xbe0021ed	-0.12512942
20	0x3d4f960f	0.050680216
21	0x3d76ebc2	0.06028343
22	0x3dd8794b	0.1057001
23	0xbdd65be6	-0.10466747
24	0x3e1af862	0.15133813
25	0x3ddedebf	0.10882329
26	0xbe0ebbac	-0.13938779
27	0xbd48d78a	-0.04903368
28	0xbe03e061	-0.12878563
29	0xbe05961f	-0.13045548
30	0x3d9e4106	0.07727246
31	0xbd949c90	-0.072564244
32	0x3dce9ab6	0.100881025
33	0xbe042aa8	-0.12906897
34	0x3e0eec5b	0.1395735
35	0xbceeba62	-0.029141609
36	0xbdddb806	-0.10826115
37	0xbc550756	-0.013002237
38	0xbd909269	-0.070591755
39	0xbd4a00a4	-0.049317017
40	0xba5812d7	-0.00082425534
41	0x3e12d58b	0.14339273
42	0x3ae15939	0.0017192728
43	0xbd11c5ea	-0.035589136
44	0xbd636355	-0.055514652
45	0xbdc8be55	-0.09801928
46	0xbce88f43	-0.028388625
47	0xbd31e51d	-0.04343139
48	0x3b2c6cea	0.0026310035
49	0x3cb61b06	0.022229683
50	0xbc5520ed	-0.013008338
51	0xbde60c87	-0.11232858
52	0xbd4e6b4c	-0.050395295
53	0xbc35f47f	-0.011105656
54	0xbd64eb3a	-0.055888392
55	0xbd19c2f2	-0.03753943
56	0xbd443615	-0.04790314
57	0xbdfffd7c	-0.1249952
58	0xbbf12219	-0.007358801
59	0xbdc6b74e	-0.09702931
60	0x3db79e95	0.08965794
61	0xbde59916	-0.112108395
62	0x3d06e72d	0.03293531
63	0xbdcfde12	-0.101497784
64	0xbbfe6dc7	-0.0077645513
65	0xbdb4783a	-0.08811994
66	0x3e0bb064	0.13641506
67	0xbe26112a	-0.16217485
68	0xbc3ba077	-0.011451832
69	0x3bff92b6	0.0077994717
70	0x3e0aafdf	0.13543652
71	0xbd5d7165	-0.05406322
72	0xbc37c837	-0.0112171685
73	0xbdcb3222	-0.099216715
74	0xbc50a7da	-0.012735331
75	0xbdc0fc19	-0.09423084
76	0x3d083687	0.033255126
77	0x3dd8eca2	0.10592009
78	0xbdce5aff	-0.1007595
79	0xbd91d9b8	-0.07121605
80	0x3d941dd3	0.07232251
81	0x3d66f4b1	0.0563857
82	0xbe05b0af	-0.1305568
83	0x3e034cc6	0.12822255
84	0x3c2efc02	0.0106802005
85	0x3cfe8c9f	0.031072913
86	0x3dd5d4f8	0.10441011
87	0x3d8b8762	0.068129316
88	0xbd832e5a	-0.06405325
89	0xbe1b2cd1	-0.15153815
90	0xbbd607f8	-0.0065317117
91	0x3e057dd1	0.13036276
92	0xbe16f71d	-0.14742704
93	0x3e39ec99	0.18156661
94	0x3da7f78e	0.08201514
95	0xbdfb753f	-0.12278222
96	0x3e0d74b8	0.13814056
97	0xbd2d178b	-0.04225878
98	0xbdc89ecd	-0.09795914
99	0x3ce112b6	0.027474742
100	0xbd7db342	-0.06193853
101	0xbdb07d18	-0.0861761
102	0xbd955de0	-0.07293296
103	0xbd9dfc23	-0.07714107
104	0x3df0d48b	0.11759289
105	0x3dc9bedd	0.098508574
106	0xbda1a1d7	-0.078921966
107	0x3da7f261	0.08200527
108	0xbd82efad	-0.06393371
109	0x3e1fb327	0.15595685
110	0x3d724e9c	0.059157
111	0xbd94739f	-0.072486155
112	0xbd977b84	-0.073966056
113	0x3de5522a	0.11197312
114	0x3d83e12d	0.06439433
115	0x3e0e7b18	0.13914144
116	0x3cf83dda	0.03030293
117	0xbde91e25	-0.11382703
118	0xbda8cad1	-0.08241809
119	0x3b574720	0.003284879
120	0xbd092197	-0.0334793
121	0xbd2965de	-0.041356914
122	0x3c794ceb	0.015216093
123	0x3c355649	0.011067935
124	0x3cf5b014	0.029991187
125	0x3dbbebc0	0.09175825
126	0xbd84dbde	-0.06487249
127	0x3e0a46e0	0.13503599
128	0x3d1e5419	0.03865442
129	0xbd26e9d3	-0.040750336
130	0xbe09b212	-0.13446835
131	0xbe0a6d8f	-0.13518356
132	0xbdc80ba1	-0.09767843
133	0xbda08814	-0.07838455
134	0x3db0c145	0.08630613
135	0xbd939d39	-0.07207722
136	0x3c30e976	0.010797849
137	0x3dbf297f	0.093340866
138	0x3cd18dd2	0.02558032
139	0xbd81fdd2	-0.063472405
140	0xbdb7de18	-0.08977908
141	0x3df4c339	0.11951298
142	0x3ce701a1	0.028199019
143	0x3d08bc98	0.033382982
144	0x3d986dc1	0.07442809
145	0xb8d8283b	-0.00010307176
146	0x3cd00e0a	0.02539732
147	0xbd7c0826	-0.06153121
148	0xbdbebaeb	-0.093129955
149	0x3dd728a8	0.105058014
150	0xbc9996bf	-0.01874864
151	0xbd7b3a5e	-0.06133496
152	0xbe015754	-0.1263097
153	0x3de06f56	0.10958736
154	0x3d812f85	0.06307892
155	0x3ddd3c65	0.10802535
156	0x3d482163	0.048859965
157	0x3e0ecc54	0.13945132
158	0xbd4cf27a	-0.05003593
159	0x3dd33364	0.10312536
160	0x3d4f805b	0.05065952
161	0x3e20fe7e	0.15722081
162	0x3cbdbb39	0.023160564
163	0x3d932240	0.07184267
164	0x3b05f4e6	0.002044016
165	0xbd1a5f11	-0.03768832
166	0x3e1a363d	0.15059753
167	0x3dcbd3ab	0.09952482
168	0xbbb3a466	-0.0054822443
169	0xbdcb5ebe	-0.0993018
170	0xbdf9c6bd	-0.121961094
171	0x3e2fd203	0.17169957
172	0xbde4f0fe	-0.11178778
173	0x3d95cdfe	0.073146805
174	0xbdf9af74	-0.12191668
175	0xbdb74157	-0.089480095
176	0x3dee1999	0.11625976
177	0x3d89f4a1	0.067361124
178	0x3bfa6547	0.0076414677
179	0xbe02824e	-0.1274502
180	0x3d818d2b	0.06325754
181	0xbd69ee75	-0.057112176
182	0x3dd8d818	0.105880916
183	0x3e040d86	0.12895784
184	0xbdd4ffa9	-0.10400326
185	0xbd9583e4	-0.07300547
186	0xbd893a6a	-0.06700595
187	0x3d3ae6b5	0.045630176
188	0x3ccc57fe	0.024944302
189	0x3de96023	0.1139529
190	0x3dae9466	0.085243985
191	0x3d52b9bf	0.051446673
192	0xbddb58db	-0.10710307
193	0xbdb2f923	-0.08738925
194	0xbe1259d3	-0.14292078
195	0xbd3c5fc3	-0.045989763
196	0xbd62289f	-0.05521452
197	0xbd6fdfd7	-0.05856308
198	0xbdbab848	-0.0911718
199	0xbd8d0422	-0.06885554
200	0xbde7047f	-0.112801544
201	0xbcc92420	-0.024553359
202	0xbd7f2b8d	-0.062297393
203	0xbae3e60c	-0.0017387285
204	0xbc47e642	-0.012200894
205	0x3dc5f4ac	0.09665808
206	0x3dbd77d9	0.09251375
207	0xbdfd0d9e	-0.12356113
208	0x3e19a564	0.15004498
209	0xbddbb81a	-0.10728474
210	0xbe14948e	-0.14509794
211	0xbdc72088	-0.09723002
212	0xbdce7521	-0.10080934
213	0x3df35e7e	0.11883257
214	0x3dfd0447	0.123543315
215	0xbdb6b45d	-0.0892112
216	0xbc2b1cb9	-0.01044386
217	0xbde7979a	-0.113082126
218	0x3c027234	0.007961798
219	0x3d8fbad4	0.070180565
220	0x3d9f49c7	0.07777744
221	0x3d9c935d	0.07645295
222	0xbd5b8ac5	-0.053599138
223	0xbb235b36	-0.0024926192
224	0x3cc09f3c	0.023513429
225	0x3dcb4fac	0.099273056
226	0x3dee83cd	0.11646233
227	0xbe090c8f	-0.13383697
228	0xbdab136d	-0.083533145
229	0x3d589893	0.05287988
230	0xbc43f66d	-0.011960608
231	0x3d7cca95	0.061716635
232	0x3c0e8108	0.008697756
233	0x3c8a6322	0.016892973
234	0xbd9ada12	-0.07561125
235	0x3cc9f6f6	0.024653893
236	0xbdca73a8	-0.09885341
237	0x3cdd19f9	0.026989924
238	0x3da2ae2b	0.07943376
239	0xbd23e2e4	-0.0400113
240	0x3cc20456	0.023683708
241	0x3dd27e45	0.1027799
242	0x3e141b6d	0.14463587
243	0x3db2f5fb	0.08738323
244	0xbd2ae5bc	-0.041722998
245	0xbdea8219	-0.114505954
246	0x3e1cd29e	0.15314719
247	0xbc40bb31	-0.01176338
248	0xbe0558a4	-0.13022095
249	0xbe0f014c	-0.13965338
250	0x3def5fc6	0.11688189
251	0xbd2f090d	-0.04273324
252	0xbd8af143	-0.06784298
253	0x3d828501	0.06373025
254	0xbd967542	-0.07346584
255	0x3c38ce45	0.011279647

actor.2.weight f4 [128, 256]
0	0x3e005586	0.12532625
1	0x3da9d739	0.082930036
2	0x3d9434e8	0.072366536
3	0x3d6a1735	0.05715104
4	0xbc35ee6f	-0.01110421
5	0x3d84e15a	0.06488295
6	0xbda699c2	-0.08134796
7	0xbdb141f0	-0.08655155
8	0xbe0b73f8	-0.13618457
9	0xbbbc3c30	-0.0057444796
10	0x3ce7b9cd	0.028286839
11	0xbafd7e02	-0.0019339921
12	0xb99c03f0	-0.00029757572
13	0x3b4cacaf	0.0031230857
14	0x3d8dc8e9	0.06923086
15	0x3bb1c4a3	0.0054250523
16	0xbcb7e75d	-0.02244919
17	0xbcc8544b	-0.024454257
18	0x3e1faff5	0.15594466
19	0x3d056f23	0.03257669
20	0x3d1dc60b	0.038518947
21	0x3d024a1d	0.03180896
22	0xbc506395	-0.012719055
23	0xbde8a799	-0.11360092
24	0xbdf1d442	-0.11808063
25	0x3d6e62af	0.05819958
26	0xbc1b13cf	-0.009465172
27	0xbd5b1387	-0.05348542
28	0x3d80fcd2	0.06298222
29	0xbdd89a90	-0.105763555
30	0xbd287adb	-0.04113279
31	0xbd113178	-0.035447568
32	0xbdc7e7e2	-0.09761025
33	0xbceb12ea	-0.028695542
34	0x3d3642c8	0.04449728
35	0x3e1bffd0	0.15234303
36	0xbb15fc7f	-0.0022886095
37	0x3d90b5d7	0.07065933
38	0xbd15d968	-0.036584288
39	0x3d48f051	0.04905731
40	0x3d950ebd	0.07278202
41	0xbcc7b54f	-0.024378447
42	0xbdaed42b	-0.085365616
43	0xbe043f08	-0.1291467
44	0xbca57d75	-0.020201424
45	0xbde2df9b	-0.110778056
46	0xbd87b65c	-0.06626579
47	0x3d815b71	0.06316269
48	0x3d129966	0.035790823
49	0x3cfefe11	0.031127008
50	0xbce16778	-0.027515158
51	0x3d04e197	0.0324417
52	0xbcdb0f50	-0.0267407
53	0x3d70069c	0.058600053
54	0xbe5af9e9	-0.21384396
55	0x3d9d5bd5	0.07683531
56	0xb9e95836	-0.00044506945
57	0x3bd229a3	0.006413655
58	0x3d903215	0.070408024
59	0x3cf7a0be	0.030228015
60	0x3da7305b	0.0816352
61	0x3e73ff30	0.23827815
62	0x3d2c15af	0.042012867
63	0xbd16eced	-0.036847044
64	0x3d3866ca	0.045019902
65	0xbd27c6cc	-0.04096107
66	0x3e39a846	0.18130597
67	0xbcb7ac68	-0.022421077
68	0x3cd957ff	0.026531218
69	0x3d1ad4b2	0.0378005
70	0xbd8fe65a	-0.07026358
71	0xbd3395b9	-0.04384396
72	0x3dcbd7e9	0.09953291
73	0x3c9da4e8	0.019243672
74	0x3d84bd4c	0.06481418
75	0xbd5c2f1b	-0.05375586
76	0xbcc0c50d	-0.023531461
77	0xbd805536	-0.06266253
78	0x3d682176	0.056672536
79	0x3c15f43c	0.009152468
80	0x3cde363b	0.027125468
81	0xbd292a7c	-0.041300282
82	0xbd7ace27	-0.06123176
83	0x3cf5afc7	0.029991044
84	0x3dae0460	0.08496928
85	0xbdcd0f07	-0.10012632
86	0x3d9a717d	0.075411774
87	0xbb58b88b	-0.003306898
88	0x3d8101a2	0.062991396
89	0x3d70dc3f	0.058803793
90	0x3d14d79d	0.036338437
91	0xbd0bb4f5	-0.03410812
92	0xbd8524cf	-0.06501161
93	0x3d914604	0.070934325
94	0x3e25891a	0.16165581
95	0xbd8f05fb	-0.069835626
96	0xbe3ffca6	-0.18748721
97	0x3d42b431	0.047535125
98	0xbdd83069	-0.105561085
99	0x3ccf81c0	0.025330424
100	0x3afc3355	0.0019241372
101	0x3d8306c6	0.06397776
102	0xbdc1c7fd	-0.09461973
103	0xbd0dcdad	-0.034619976
104	0xbd425267	-0.047441866
105	0xbd811deb	-0.063045345
106	0x3dac0c6d	0.084008075
107	0xbd86c0b8	-0.06579727
108	0xbc5042b8	-0.0127112195
109	0xbbe8b2f3	-0.0071014105
110	0xb9e717a0	-0.00044077355
111	0xbd6d3645	-0.057913084
112	0xbd0aebf1	-0.033916418
113	0x3d1796ac	0.037008926
114	0x3cab8042	0.020935182
115	0xbd66d83e	-0.05635857
116	0x3d08121d	0.0332204
117	0xbc405d57	-0.011741004
118	0xbe40b2ee	-0.18818256
119	0x3d031a91	0.032007758
120	0x3d90991c	0.07060453
121	0xbc85ccb9	-0.016332971
122	0x3c693bda	0.014235461
123	0xbc33389d	-0.010938791
124	0xbc976b51	-0.01848379
125	0xbce5477c	-0.027988188
126	0xbe14f18b	-0.14545266
127	0xbcca558e	-0.024698999
128	0x3db97469	0.090554066
129	0x3d035b3e	0.032069437
130	0x3acf97ac	0.0015838048
131	0x3cce43f5	0.025178889
132	0xbc978952	-0.018498097
133	0x3c4f75db	0.012662376
134	0x3d406d93	0.046979498
135	0x3d5755bb	0.052571993
136	0xbd57590c	-0.052575156
137	0xbc67289f	-0.014108806
138	0xbc62191e	-0.013799934
139	0x3d67b0fc	0.05656527
140	0x3cbc6f96	0.023002427
141	0xbcd2dee9	-0.025741057
142	0xbd236d21	-0.039898995
143	0x3c97d9ca	0.018536467
144	0x3cad2302	0.021134857
145	0xbc755321	-0.014973433
146	0x3d297e47	0.041380193
147	0x3d4ac043	0.04949976
148	0x3d28196d	0.041039873
149	0x3c951795	0.018199721
150	0x3d4bf6af	0.049795803
151	0xbd1ad64e	-0.037802033
152	0x3d4ebd93	0.05047376
153	0xbd7ac53f	-0.061223265
154	0x3d1bbe4f	0.03802329
155	0xbd5c93b2	-0.05385179
156	0xbe0d25cf	-0.13783954
157	0x3cb43ea7	0.022002531
158	0x3c712242	0.01471764
159	0xbe171830	-0.1475532
160	0xbdd29da3	-0.10283973
161	0xbd837ea3	-0.064206384
162	0x3d862258	0.06549519
163	0x3e1230ee	0.14276478
164	0x3dcc5a6c	0.09978184
165	0x3c0925da	0.008370841
166	0xbd15ccd1	-0.03657228
167	0xbd0538b2	-0.032524772
168	0x3bb205c3	0.0054328158
169	0x3df48cce	0.11940919
170	0x3daae373	0.08344164
171	0x3af3c374	0.0018597678
172	0xbd9a927a	-0.075474694
173	0xbc880cee	-0.016607728
174	0x3b7e74e6	0.0038827
175	0x3c017b37	0.007902912
176	0x3df113a4	0.11771324
177	0x3cb4514f	0.022011427
178	0xbb3edca7	-0.0029123218
179	0xbe09f2ea	-0.1347157
180	0xbd0fc604	-0.03510095
181	0xbd854486	-0.065072104
182	0x3c9e1f34	0.019301988
183	0x3b257220	0.0025245026
184	0xbde9f346	-0.11423354
185	0xbbda54ff	-0.0066629644
186	0x3d3e145b	0.04640613
187	0x3ce9762d	0.028498733
188	0xbda90252	-0.08252396
189	0xbda07e15	-0.07836548
190	0x3c2dbaf9	0.01060366
191	0xbc05dee4	-0.008170817
192	0xbdc06328	-0.093939126
193	0x3d828d34	0.063745886
194	0x3d87e6ec	0.06635842
195	0xbd061e48	-0.032743722
196	0xbda0fd26	-0.07860784
197	0xbd9fba9c	-0.07799265
198	0x3d2fa064	0.04287757
199	0xbd09fb73	-0.033687066
200	0x3c183bad	0.009291572
201	0xbd221fe3	-0.03958119
202	0x3d9b50bd	0.07583759
203	0x3ce88fab	0.028388819
204	0x3c8f25c3	0.01747406
205	0x3c0d965d	0.008641806
206	0x3cc1283f	0.023578761
207	0x3cec384f	0.028835444
208	0x3dc689f1	0.09694279
209	0xbd99436a	-0.07483561
210	0xbb8efbcb	-0.004363512
211	0xbcb276c9	-0.021785157
212	0xbb4136c5	-0.0029482108
213	0xbd88fd65	-0.06688956
214	0x3daaa675	0.083325304
215	0xbdd1dce5	-0.102472104
216	0x3ba6ad44	0.005086573
217	0x3db47b18	0.08812541
218	0x3e3a215e	0.18176791
219	0xbdac4679	-0.08411879
220	0x3dcd3e9a	0.10021706
221	0xbcc29d79	-0.02375673
222	0x3cb4a2b4	0.02205024
223	0xbca9bece	-0.020720866
224	0x3d3b265a	0.04569087
225	0xbd86efa4	-0.065886766
226	0xbc7d0b36	-0.015444567
227	0x3c5af6b1	0.01336448
228	0xbd2ca665	-0.042150874
229	0x3bb0f964	0.0054008234
230	0x3c6e1d63	0.0145333735
231	0x3ce0ab62	0.027425472
232	0x3c875f29	0.016524868
233	0xbdad1b94	-0.08452526
234	0xbd3b477a	-0.045722462
235	0xbd1f2871	-0.038856927
236	0xbd75f156	-0.06004461
237	0xbd4f969e	-0.05068075
238	0x3c8bea40	0.017079473
239	0x3cbb20ab	0.022842726
240	0xbe126aa4	-0.14298493
241	0x3c39dfdc	0.011344876
242	0x3d7d2eca	0.0618122
243	0xbe3ca534	-0.18422395
244	0x3de3655a	0.11103316
245	0xbc7d732d	-0.015469355
246	0x3db3ece9	0.087854214
247	0x3da3f3cf	0.08005487
248	0xbd704a4c	-0.058664605
249	0x3d0647ff	0.032783505
250	0x3d61fe22	0.055174
251	0x3dafe5b9	0.08588738
252	0x3c54c745	0.012986963
253	0x3c9d73d6	0.019220274
254	0xbe1cdc5a	-0.15318432
255	0x3d004037	0.03131124
