CRL_GPU/模型集_opponent/1/fixed_opponent_current.pth (torch, 370495 bytes, 11 tensors)

critic.0.weight f4 [256, 48]
000000 39 48 54 be 90 09 f9 bd 4d 90 ce 3c 8f 07 76 3a
       -0.20730676 -0.12160027 0.025215292 0.00093852816
000010 19 c0 38 be 49 23 29 be 8b 62 8e bc c3 65 a4 3c
       -0.1804203 -0.16517366 -0.017380973 0.020068055
000020 fc 35 9c be b2 0f 3d be 3e be 4b be 88 ed fd 3d
       -0.30509937 -0.18463019 -0.1989679 0.12398821
000030 24 f4 65 be 12 ba 02 be a8 c9 02 3d e6 a3 3a bc
       -0.22456414 -0.12766293 0.031930596 -0.0113916155
000040 28 5a 84 be b9 5a 4c be fb 4f c1 bc 75 f1 ce 3c
       -0.25850034 -0.19956483 -0.023597708 0.02526162
000050 75 87 23 be 41 a2 cc bd 52 dd 4f be d2 79 73 bc
       -0.15969642 -0.09991885 -0.20299271 -0.014860587
000060 4b 74 64 bb 05 7f 89 bd dd b5 4d 3d 23 d6 e9 3b
       -0.0034859355 -0.0671368 0.050222266 0.007136123
000070 64 35 9e bd fe 73 40 be b3 44 e2 bc bd 92 80 3c
       -0.07725027 -0.18794248 -0.027620649 0.01569497
000080 ea 31 f8 bb 81 08 b4 bc e0 31 3b be 72 23 91 bd
       -0.0075743096 -0.021976711 -0.18280745 -0.07086839
000090 03 75 1c be ed b8 6c 3b 50 b8 a0 3d 20 71 65 bc
       -0.15279011 0.0036120967 0.07847655 -0.014004022
0000a0 ce 0c 92 ba e1 e9 75 be 0c 92 de bc 9d b9 2b bd
       -0.0011142732 -0.24014999 -0.02716925 -0.04192506
0000b0 0b c7 95 bd 76 57 d1 3d 22 cb a5 3e 59 f0 24 3d
       -0.07313355 0.1022176 0.3238154 0.040268276
0000c0 3c 39 54 3e 35 64 45 be d0 27 80 bd c1 50 e7 3d
       0.20724958 -0.19276507 -0.06257594 0.112946995
0000d0 d3 6e d7 bd 14 fd 0f be 0b a8 9a bc 87 d9 4f 3a
       -0.10519185 -0.14061385 -0.018878957 0.00079288374
0000e0 c0 1a 79 be 75 53 03 be 38 d0 a8 bd 82 ef a2 bd
       -0.2432661 -0.12824805 -0.082428396 -0.07955839
0000f0 2a 98 55 3e 85 de 65 be 78 48 b4 bd a2 9c 81 3d
       0.20858827 -0.22448166 -0.08802885 0.063287035
000100 6e 9e 38 3d 82 9f 22 be 49 a5 de bc 02 b4 b4 3d
       0.045072965 -0.1588116 -0.027178423 0.08823396
000110 12 aa 6a be 9f 39 9c 3d 79 97 09 be e0 d0 f4 bc
       -0.22916439 0.07628178 -0.13436688 -0.029884756
000120 97 1b 6b 3e 75 2b 17 be 5c f1 d0 bd 58 e6 6b 3d
       0.22959743 -0.14762671 -0.10202286 0.05759272
000130 c6 dc 40 be 57 00 28 be f6 39 a0 ba bf 3d 7d 3d
       -0.18834218 -0.1640638 -0.0012224305 0.061826464
000140 ce c1 cd bc ff 9c 23 3e 17 c1 33 bd 03 77 58 bb
       -0.025116827 0.15977858 -0.043885317 -0.003302992
000150 3f 00 f0 3d e7 32 3f 3c 62 31 00 be 6d b8 2a 3e
       0.11718797 0.011669851 -0.12518838 0.16671915
000160 7d 62 45 be 62 93 c0 bd 05 e4 54 3c 22 36 8c bc
       -0.19275852 -0.09403111 0.012993817 -0.017115656
000170 75 25 31 be 1e ec c9 3e 63 6d 1c be 9e 05 e3 3e
       -0.17299445 0.39437956 -0.15276103 0.44340223
000180 24 b9 28 3e 59 04 cb 3d b1 1d 9d 3d 7c 75 95 bc
       0.16476876 0.099129386 0.07671679 -0.018244497
000190 22 7c e3 bd 9d 08 11 bd 86 76 01 bd f1 b0 c7 3c
       -0.11107661 -0.035408605 -0.031607173 0.024376364
0001a0 79 de 5f be a0 c6 8e be b7 a0 e1 3e df ae 41 3e
       -0.2186221 -0.27885914 0.44067928 0.18914364
0001b0 c1 4e 86 3d c0 cf 8e 3d 89 8a 9f 3d e4 44 f3 3a
       0.0655799 0.06973219 0.07790095 0.001855996
0001c0 a2 47 82 be 8b 40 20 ba 80 31 cc bc 20 ff e6 3d
       -0.25445276 -0.0006113133 -0.024925947 0.1127913
0001d0 51 b4 1a 3d e0 10 9b bd 1f ee 33 3e 9f 53 ea bd
       0.03776962 -0.07571578 0.17571305 -0.11441731
0001e0 c7 14 b6 3c ca be 54 3e a0 9f b6 3d 44 a3 81 bc
       0.022226704 0.20775905 0.08917165 -0.015824921
0001f0 65 a6 c7 bd 42 04 a8 bd 47 1d 6e bc 5e 5d 81 3a
       -0.09748534 -0.08203937 -0.014533347 0.0009869745
000200 f0 c7 8d bd 02 b4 ed 3d a5 3f 99 bb 42 07 36 be
       -0.06922901 0.116065994 -0.0046767765 -0.17776206
000210 e3 02 36 3e de c4 84 bd 9b 59 ab 3d e8 cb 8d bd
       0.17774539 -0.06482862 0.083667 -0.06923658
000220 da 5b 5d be 9d 0a 1f be 9b 4e 92 3a aa 39 9e be
       -0.2161707 -0.15531392 0.0011162342 -0.3090337
000230 2c 72 80 3d 30 43 3a 3e ad 09 00 be 7a 3f f9 3c
       0.062717766 0.18189692 -0.12503691 0.030425776
000240 c2 8c 4e 3e 0a 09 bf be 65 09 4a 3c 99 15 d6 3d
       0.20170882 -0.37311584 0.012331341 0.10453338
000250 00 03 d2 bd e1 58 bb 3d 3f 71 6e 3d 27 d6 86 3c
       -0.102544785 0.09147812 0.05821347 0.016459538
000260 98 c2 17 be 75 33 4c bf 83 0e f7 3c 1f 6a 13 bb
       -0.14820325 -0.7976602 0.030158287 -0.0022493673
000270 4f 38 82 3d 7e 3c bd be 21 b1 05 3d 57 0b a4 3d
       0.06358396 -0.36960214 0.032639626 0.080099754
000280 b5 2d 3c be cb da 24 3e 74 3b 23 3d 11 0c 08 3d
       -0.18376811 0.16099088 0.03985162 0.033214632
000290 d2 83 99 3d 87 ed 44 bf d4 25 fa 3d 26 15 8e 3e
       0.07495846 -0.7692494 0.122142464 0.2775051
0002a0 10 a7 26 3a b3 62 85 be 90 7f 72 3d 13 e1 52 bb
       0.0006357292 -0.26051864 0.059203684 -0.0032177612
0002b0 ca 60 13 bd 54 9a 4b 3b be b5 aa 3c b1 56 1a 3d
       -0.035980977 0.0031067329 0.020838615 0.03768033
0002c0 15 97 c6 bd 9d 7c 14 bf 72 bd 90 3d 45 17 55 3e
       -0.09696785 -0.58002645 0.07067384 0.20809658
0002d0 91 a9 2b 3e 47 dc 3d be ea fd 04 3d 48 98 0c 3e
       0.16763903 -0.1854106 0.032468714 0.13729966
0002e0 41 39 83 bd 18 5e c0 3d 1c d8 a4 bb 04 d8 5d 3c
       -0.06407405 0.09392947 -0.005030645 0.013540272
0002f0 69 a2 3d 3e 09 b3 b3 be 35 27 87 3e 4c f4 ff bc
       0.18518986 -0.3509753 0.263971 -0.03124442
000300 28 eb 29 3d d5 75 71 bd 13 be be 3c dc 80 27 3d
       0.041484028 -0.058950264 0.023283994 0.040894374
000310 34 d3 b5 3e 35 55 27 be 6b c6 fe 3c 15 37 dc 3d
       0.35512698 -0.16341098 0.031100472 0.107526936
000320 2a 1e 78 3c 93 70 e1 bd 7a 3f 86 bd d1 72 53 bd
       0.01514391 -0.110078 -0.06555076 -0.05162317
000330 21 4a 24 be 9d 4e 85 bd a8 a1 a3 3c d9 1a 25 3d
       -0.16043903 -0.06509135 0.019974545 0.040308807
000340 9f 2c b4 3e f4 9b 2e be 88 66 80 3d 63 47 b6 3d
       0.35190293 -0.17051679 0.06269556 0.08900335
000350 0a e4 58 bd 7d e9 2d 3d b6 0c 1c 3e 82 57 8a 3d
       -0.05295185 0.042459 0.15239224 0.06754972
000360 fd b3 23 be 60 66 38 bd e8 1f de 3a 83 76 43 3d
       -0.15986629 -0.045019507 0.0016946765 0.047720443
000370 3e bd 7f 3e 5a 68 31 be 7e eb be 3d 33 fc 80 3d
       0.24974534 -0.17324963 0.0932226 0.06298103
000380 35 8c 9f 3d 3d 0f 27 3c cd e5 a0 3e 58 f9 92 3d
       0.07790414 0.010196504 0.31425324 0.07176465
000390 04 f4 90 3d 18 8a d0 bd 8a e7 06 bd 84 a3 04 3d
       0.07077792 -0.10182589 -0.032935657 0.032382503
0003a0 b7 fb 6e 3e 68 41 ca bc fc cb cc 3d e2 fa 91 bc
       0.23338209 -0.024689391 0.099998444 -0.017819826
0003b0 d4 75 10 bc ee 71 20 3c 93 ff 23 3f 45 0a c0 bd
       -0.008817155 0.009792788 0.6406185 -0.09376959
0003c0 11 ee 18 bd 0a 6f ef bb 05 87 20 bd 49 80 6d 3b
       -0.037336413 -0.007306938 -0.039191265 0.0036239794
0003d0 53 a2 7f bc 45 b0 5f be 31 26 83 3d 44 7b 27 3c
       -0.015602666 -0.21844585 0.06403769 0.01022226
0003e0 4d 93 09 bc 79 d9 6b bb 1c ae b1 3d 50 49 7a b9
       -0.008396936 -0.0035987778 0.08675787 -0.00023869169
0003f0 b2 b6 e3 bd 6d a6 14 3c a1 ba 95 bd 68 ff 65 3c
       -0.11118831 0.009072882 -0.07310987 0.014037944

critic.0.bias f4 [256]
000000 6d fd 36 3e 81 ad b9 3e 0e 29 ad 3c 50 8e 67 3c
       0.17870112 0.36265185 0.02113774 0.014133051
000010 e9 93 2d be fb f4 a1 be 16 ce 7a 3c 62 88 e2 bd
       -0.16950954 -0.31632218 0.015307924 -0.11061169
000020 49 90 98 bd 09 da 72 be 34 76 ad 3d 0c d3 d5 3e
       -0.07449395 -0.23715986 0.08469811 0.41762578
000030 8f 89 0e 3f bc 4f 11 3f a8 80 61 3d 2c 0b b3 be
       0.5567865 0.5676229 0.055054337 -0.3496946
000040 32 1c 8d be 97 7b 12 3f 9f 6a 6d bc 5c 74 79 3d
       -0.27560574 0.57219833 -0.0144907525 0.060901985
000050 d2 1c 0a bf 7c 6d 8b be 67 14 6e be 86 de 4c 3e
       -0.53950226 -0.27231967 -0.2324997 0.20006761
000060 ce e5 9e 3d 2b fe c7 3e b6 e2 09 be 82 3f 3a 3e
       0.077586755 0.39061102 -0.1346539 0.18188289
000070 21 d3 43 bd d2 37 0c be cb 31 99 3e fb fa c1 bd
       -0.04780877 -0.13693169 0.29920802 -0.09471699
000080 19 08 c7 be 5e 2d 7c 3e 5c ca f0 bc c4 78 59 bf
       -0.38873366 0.24626681 -0.029393367 -0.849499
000090 96 4a 87 3e 58 34 66 3e 3d 0b e0 3e 4d 50 07 bf
       0.26424092 0.22480905 0.43758574 -0.52856904
0000a0 e8 fa a4 3e 2f 7c 67 be 9f 0c 97 be 13 21 12 3f
       0.32222676 -0.22605966 -0.29501817 0.5708172
0000b0 1e 9e a3 be 7e e4 a4 3e 28 08 f5 3e c6 66 8f be
       -0.3195657 0.32205576 0.47857785 -0.28008097
0000c0 4f 88 c3 bd 8c d5 79 3e 5a ab 0e bf fe 03 96 3c
       -0.09547483 0.24397868 -0.5573021 0.01831245
0000d0 33 35 25 bf de 55 3d bf 3d f0 e4 3e 82 a3 97 be
       -0.645343 -0.7395915 0.44714537 -0.29616934
0000e0 34 05 9a bc 8d 53 15 bf 18 d5 56 bf 5d aa 78 bd
       -0.01880131 -0.58330613 -0.83918905 -0.060709346
0000f0 4d aa a2 be c0 3c 47 be 9f ae 10 be f6 dc 33 bf
       -0.31770554 -0.19456768 -0.14129113 -0.70259035
000100 6d e5 20 3d 3e 1a ad be 70 07 76 be 43 ba ee be
       0.039281297 -0.33809084 -0.24026275 -0.4662648
000110 1f 9b d3 3e 76 c1 9f 3d 69 33 d7 3d 57 ea ad 3c
       0.41329286 0.078005716 0.105078526 0.021229906
000120 97 09 81 3d 3d df 6a be 8c c7 4c be 04 37 02 3e
       0.06300657 -0.22936721 -0.19997996 0.127163
000130 33 da 6d bf 93 5e 69 3e 5d a9 c7 be 60 c6 d2 be
       -0.9291107 0.22789983 -0.389964 -0.41166973
000140 0c 56 0b bf b2 3d 42 be b0 94 9f bd be be bf be
       -0.5442817 -0.18968847 -0.07792032 -0.37450212
000150 d7 c8 56 3e 97 5d f0 be 1d 16 46 be 8a 69 ef bd
       0.20975052 -0.46946403 -0.19344373 -0.11690052
000160 ea 29 94 be 8a 24 08 3e b7 77 b3 3e 37 d0 0a 3f
       -0.28938228 0.13295189 0.35052273 0.5422396
000170 ea ed 84 bd d2 f4 df 3d 46 6c e9 be 26 82 0f be
       -0.06490691 0.10935368 -0.4559042 -0.14014491
000180 3e ec 04 be 39 4c b1 bc 83 3f e2 3d ef b7 48 3e
       -0.12980744 -0.021642791 0.1104727 0.19601415
000190 4a 5c 97 3e 78 e5 8d be b6 9d d4 3d e5 f4 55 be
       0.29562598 -0.27714133 0.103816435 -0.20894201
0001a0 25 17 03 be a3 70 d8 be 77 96 93 3c 52 4e 05 3e
       -0.12801798 -0.42273435 0.018016083 0.13018158
0001b0 5e 06 83 bd 9e 67 3c be d3 5d 30 bf 8f e1 c2 be
       -0.06397699 -0.18398902 -0.68893164 -0.38062713
0001c0 75 20 53 bd 99 e2 a6 be 17 fe a6 bd 59 09 7c 3e
       -0.051544625 -0.32594755 -0.081539325 0.24612941
0001d0 26 0f d0 be ed cf f1 be 8e ae 54 bd bc 59 0d be
       -0.40636557 -0.47228947 -0.05192428 -0.13803762
0001e0 87 93 c0 3d a6 e9 62 bd f2 6c af 3d 77 6e ab 3d
       0.094031386 -0.055398606 0.085657015 0.08370679
0001f0 45 ef 8b 3e e1 b3 36 bd 27 ca 89 be 4b ad 5c be
       0.27330986 -0.04460514 -0.26912042 -0.21550481
000200 fe c4 74 3e 78 08 43 3e 64 c4 30 be 99 27 56 3e
       0.23903272 0.190462 -0.17262417 0.20913543
000210 2b 47 85 bc 49 ce 82 bc f9 97 d7 3c 36 6e 98 bd
       -0.016269287 -0.015967505 0.026317583 -0.07442896
000220 02 70 03 3d b7 63 50 bd 55 6b 1b 3f 58 e3 d5 be
       0.03208924 -0.050876345 0.6071065 -0.41775012
000230 c4 cf 68 be 6e 85 9b bf 48 69 50 bd 5b 40 6b 3d
       -0.22735506 -1.2150095 -0.050881654 0.05743442
000240 66 2a 2c 3e 74 42 91 3e fd f5 a7 be f6 95 02 be
       0.16813049 0.28371012 -0.32804862 -0.12752518
000250 24 05 1a 3f 7a a1 98 be ea 22 8e be b5 5a 14 3d
       0.60164094 -0.29810697 -0.27761012 0.036219317
000260 7b 64 af bd aa 42 2a 3e 43 a2 d9 bd 8c 07 c3 bc
       -0.08564087 0.16626993 -0.10626652 -0.02380731
000270 0d 00 17 bd 0e 9e 81 be 81 8e ab be d4 1a 24 be
       -0.036865283 -0.253159 -0.3350716 -0.16025859
000280 c4 b4 44 be 5a 3c 54 3e cf b0 52 3e 3b 6d bb be
       -0.19209582 0.20726147 0.2057526 -0.36606774
000290 57 29 9b be b8 b3 c3 be cf 67 b9 be f1 bf 86 be
       -0.30304977 -0.38223052 -0.36212012 -0.26318315
0002a0 d7 8b d0 be e9 6d 06 3e 07 7f 99 3e f6 35 69 be
       -0.4073169 0.13127865 0.29979727 -0.2277449
0002b0 90 41 1b bf 83 d3 bb 3d 33 cb 13 3f ff 7d 92 3e
       -0.60646915 0.09171202 0.5773193 0.28611752
0002c0 76 11 62 3e fb 15 35 be 97 d1 0d 3e 94 5f bd bc
       0.22076973 -0.17684166 0.13849483 -0.023116864
0002d0 3e a7 d3 bb a6 fb 0a bf cb 44 86 be 54 15 84 3e
       -0.006459146 -0.54290235 -0.2622436 0.25797522
0002e0 52 d1 ee 3e 20 85 67 bd 1c 55 5a be 11 9b 02 bd
       0.46644074 -0.056523442 -0.21321529 -0.031886164
0002f0 ce 9c 98 3e 25 fc bd 3e 3c fe ec 3e 1d 53 79 3e
       0.29807132 0.37106434 0.46287715 0.24348111
000300 16 88 bf be 6c c9 a2 3d 97 da 19 be ca 09 a6 bd
       -0.37408513 0.079485744 -0.15024792 -0.08107336
000310 4d da 54 bd 6e c1 47 be 7c 2b 43 bb 41 0d 44 bc
       -0.051966 -0.19507381 -0.0029780557 -0.011966051
000320 94 21 89 3d f7 72 1c bf c6 d2 25 bf 5e e3 83 be
       0.06695858 -0.6111292 -0.6477474 -0.25759405
000330 0d 96 c6 bd 13 ab 98 be b5 96 2d be 61 b1 12 3d
       -0.09696589 -0.2981802 -0.16952021 0.035813693
000340 b5 b9 a0 3e e8 10 71 3d 96 ee fe 3d ea d0 4c 3e
       0.31391683 0.058854014 0.124478504 0.2000157
000350 cb 86 b6 bd 0f 36 cc 3c ed 00 c6 bd 07 fc 1d 3e
       -0.089124285 0.02492812 -0.09668145 0.15428172
000360 43 15 84 be b1 a3 d2 3e 8b 5a af 3d b7 94 ce be
       -0.2579747 0.41140512 0.085621916 -0.40347835
000370 6c 05 13 be ad d4 96 3c 19 a3 c0 bd 26 ed 50 3e
       -0.14357537 0.018411959 -0.094061084 0.20402965
000380 90 d4 33 be 1e e6 10 be fc 86 3d bf 09 26 80 be
       -0.17561555 -0.14150283 -0.74034095 -0.2502902
000390 81 35 13 3e 86 03 2f bf 8c b4 a0 3e 1a d9 c7 3c
       0.14375879 -0.6836475 0.31387746 0.024395514
0003a0 4e f1 35 bf 91 e1 a4 bd 4e b8 71 be 76 0a 0a bf
       -0.71071327 -0.08050836 -0.23605463 -0.5392221
0003b0 d1 b2 2c be fa 35 bb 3e 1a 84 08 3e 8a be a2 3d
       -0.16865088 0.36564618 0.13331643 0.07946499
0003c0 8a 0f c1 bd ea ff 04 bf 6d 43 7b 3d c0 28 7c be
       -0.09426792 -0.51952994 0.0613436 -0.2462492
0003d0 d1 6b 5f bf ee 67 4e 3e 5e 00 93 3d 6f 27 0a bf
       -0.8727389 0.20156834 0.071778044 -0.5396642
0003e0 ab ce 2c 3f 60 19 05 bf b6 48 5a be e9 e5 ac be
       0.6750285 -0.51991844 -0.213168 -0.33769158
0003f0 01 34 0c 3e 03 5c a9 3e 46 ee 37 bd 1d 44 f6 3e
       0.13691713 0.33078012 -0.04490497 0.4809884

critic.2.weight f4 [128, 256]
000000 8c 89 05 bb ad 3a b1 bd d6 22 80 be 67 d2 0a 3e
       -0.0020376174 -0.0865377 -0.25026578 0.13556825
000010 61 3e 4e 3e 8a 76 46 be 22 cc 55 bd 84 cd d9 be
       0.20140983 -0.19381157 -0.05219663 -0.42539608
000020 ce fd 5e 3e ae 97 31 3c 90 6f e7 3e 96 93 c2 bb
       0.21776506 0.010839386 0.45202303 -0.005938004
000030 24 96 cb bd cc c9 0e 3d 06 8e df 3d 03 82 db bd
       -0.099407464 0.034860417 0.10915761 -0.10718157
000040 64 b2 b3 3d 8b 64 55 be eb e8 be bc 28 d7 a8 3d
       0.0877426 -0.20839135 -0.023304423 0.08244163
000050 94 f9 ad bc e8 57 40 bd d6 31 d7 3d 08 84 b2 bd
       -0.021237172 -0.046958834 0.10507552 -0.08716589
000060 d9 e4 83 bd 3b 54 85 3e 74 75 c5 3d e8 38 3a bd
       -0.064401336 0.26040825 0.09641543 -0.045464426
000070 9f 4e 90 3d 37 ac 32 be b6 0e e3 3c 00 ad c8 be
       0.07046246 -0.17448507 0.027716976 -0.3919449
000080 af 2d 65 be d3 eb 17 bd e5 1a 09 be 4b 98 40 be
       -0.22380708 -0.037090134 -0.13389166 -0.18808095
000090 af 22 2b be 16 82 c5 be f2 5f e3 3d 8c b5 31 be
       -0.1671245 -0.3857581 0.111022845 -0.17354411
0000a0 35 9a 07 3e c1 51 e8 bd a6 2c 42 3b da c5 7c 3c
       0.13242419 -0.11343718 0.0029628663 0.015428031
0000b0 6c 66 94 bf 58 c0 27 3c 56 74 92 3a 01 f9 ab ba
       -1.1593757 0.010238729 0.0011173587 -0.0013120474
0000c0 a9 a4 1c 3c e3 04 26 be 79 b5 4d 3d fb 3a bf bd
       0.009560742 -0.16212802 0.050221894 -0.093374215
0000d0 51 a3 8c 3b e1 e3 39 be 6a 2e a6 bd 4f b7 01 3e
       0.00429193 -0.18153335 -0.081143215 0.12667583
0000e0 04 18 84 bd b9 20 8c be 21 7a 0a be 1c 49 81 c0
       -0.06449893 -0.27368715 -0.13523151 -4.0401745
0000f0 df 8c 27 be 95 98 11 3e d1 d6 1b 3e 78 07 a5 c0
       -0.16362332 0.14218362 0.15218665 -5.1571617
000100 0a ea f2 3c 09 d9 25 bc 4c 5a ec 3d a2 63 1b be
       0.029652614 -0.010122546 0.1154066 -0.15174726
000110 d9 64 44 be 01 f3 20 bd aa 9a 8b be b5 e1 7c 3e
       -0.19179095 -0.039294247 -0.27266437 0.24695475
000120 13 06 29 3d bd ab 27 be 4f 26 3e bd 36 7d 40 3e
       0.04126556 -0.16374107 -0.046423253 0.18797764
000130 dd 2d b2 3d 0f 03 26 be e4 72 fc 3b 1f b9 06 bd
       0.08700154 -0.16212104 0.0077041257 -0.03289139
000140 57 e1 11 be e0 c3 79 3d 53 23 0b be a7 16 66 3e
       -0.14246117 0.060977817 -0.13587694 0.22469579
000150 fc b7 4a bc 33 fc 65 be 42 aa ad 38 17 23 76 be
       -0.012372967 -0.22459488 8.280996e-05 -0.24036823
000160 50 4f 32 3e ba 7c 4d 3e 6b e0 43 be 1a c1 84 3e
       0.17413068 0.2006711 -0.19128577 0.25928575
000170 4a 52 c3 3d 49 91 e9 bd 7e f2 5a bd 99 d5 34 3c
       0.0953718 -0.11404664 -0.053453915 0.011037254
000180 70 54 fd bd 27 00 fa bd e6 a8 38 3c b1 3c ab bd
       -0.12369621 -0.1220706 0.011270737 -0.08361185
000190 d3 70 86 3c 78 2f 14 be 4e 12 0b be 32 98 01 be
       0.01641122 -0.14471233 -0.13581201 -0.12655714
0001a0 a6 a2 15 3e 55 02 ab be ef 28 72 3d 00 bf 94 bc
       0.14612827 -0.33400217 0.05912107 -0.018157482
0001b0 90 30 8b 3e 7d 6b ab 3d df c2 1c be 47 60 a3 3d
       0.27185488 0.08370111 -0.15308712 0.07977348
0001c0 e4 cb be 3d ac b5 38 be 35 9b ff 3b 8d 13 e7 3c
       0.09316233 -0.18038052 0.0078004845 0.028207565
0001d0 78 50 f1 bd 08 34 0d 3d 44 4b 4e 3e 01 b3 ce bd
       -0.11782926 0.03447345 0.20145899 -0.10092736
0001e0 48 87 1a bd 84 24 99 bd 90 52 e6 bd 33 fd e2 3e
       -0.03772667 -0.07477668 -0.11246216 0.443338
0001f0 3f 80 33 3e da 62 25 bc fe ab 91 bd dd b9 1a be
       0.17529391 -0.010094369 -0.07112883 -0.15109964
000200 71 a2 4e be 91 03 55 be 3d 27 57 be 8b 1b 15 bd
       -0.20179154 -0.20802142 -0.21011062 -0.03640322
000210 21 a2 d0 3c 6b 35 14 3d 7a 82 38 bd b6 f9 4d be
       0.025467934 0.036183756 -0.045046307 -0.20114788
000220 35 1a 3a be 45 48 a4 3d 40 93 29 3e 2c ef b0 3c
       -0.1817406 0.08021597 0.16560078 0.021598421
000230 8b 18 30 be d3 ac 30 be ca e4 92 bd f6 93 93 3d
       -0.17196862 -0.17253427 -0.07172544 0.07205956
000240 d6 bb 36 be 45 ed fb bd fe 55 d0 bb 49 7b 9e be
       -0.17845091 -0.12301115 -0.0063579073 -0.30953434
000250 50 7f d8 bb 50 3f 5f be a1 9d cc bb f2 25 83 bd
       -0.0066069737 -0.21801496 -0.006244377 -0.06403722
000260 29 98 5c 3e ba 06 4a bd 5c 2b b1 c0 14 05 56 be
       0.2154242 -0.04932282 -5.536543 -0.20900375
000270 ba 9b 40 bd c9 a8 01 3e bc 61 8e 3c 1c fa 01 bd
       -0.047023512 0.12662043 0.017380588 -0.031732664
000280 22 52 c3 bd 02 d1 eb bc df fb 7c 3c dd 73 c1 3d
       -0.0953715 -0.028786186 0.01544091 0.09445927
000290 bb f3 87 3e 3b ac cc 3d 3f a4 cc be 50 3f 37 3c
       0.2655314 0.09993788 -0.3996906 0.0111845285
0002a0 98 98 b1 bd 68 c2 6b bd f9 46 a4 3d f8 1e 8b bd
       -0.08671683 -0.057558447 0.080213495 -0.06793016
0002b0 51 e6 5e 3d 0d 98 82 be dd 73 ca 3d f0 90 40 3d
       0.054418866 -0.2550663 0.098853804 0.047013223
0002c0 6d 52 05 bc 22 cd ac bd fb ec 09 be 9a 93 37 be
       -0.008137328 -0.084375635 -0.13469307 -0.179274
0002d0 3a 4d 17 3d 28 54 32 3e b8 00 06 3f c7 27 1d 3e
       0.036938883 0.17414916 0.52344847 0.15347205
0002e0 c8 e4 35 be 36 f1 41 3c 84 fb 0f 3d ce 14 a4 3d
       -0.17763054 0.011837294 0.035151973 0.08011781
0002f0 ce c9 ee 3c 05 63 4d 3b 2e 98 a8 3e ec d6 86 bc
       0.029148962 0.0031339538 0.32928604 -0.016459905
000300 07 fc a5 3d 58 d1 58 3e 16 af 00 3e f3 0b f4 bd
       0.08104711 0.21173608 0.1256679 -0.11916342
000310 5e 74 3c bd 5d 25 e8 bd c8 31 78 bc b3 f2 a9 bd
       -0.046009414 -0.113352515 -0.0151485875 -0.08298244
000320 8b c4 75 ba 0d 1d 27 3e d2 11 18 3d d7 97 bc bc
       -0.00093752955 0.16319676 0.03712637 -0.023021622
000330 fd 60 1e 3c cf 3f 54 3e fc 2a 11 3e a5 36 06 be
       0.0096666785 0.20727466 0.14176553 -0.13106783
000340 32 79 b3 3c d9 e2 98 bd 12 c5 1b bc 8e b6 2d 3b
       0.021908376 -0.07465143 -0.009507434 0.0026506516
000350 08 67 26 3e 38 52 87 3d 66 33 6d be ed e4 11 be
       0.16250241 0.06607479 -0.23164138 -0.14247485
000360 e7 f6 fa 3c 11 ca 5b 3d 2b 5d 28 bf e2 c5 17 3e
       0.03063531 0.053659502 -0.65767163 0.1482158
000370 21 67 34 3c ce 0e f7 bd 9f 55 36 be 3c 4d 15 3d
       0.011010916 -0.12063371 -0.178061 0.03645061
000380 9b 74 a3 3d a6 ce c9 bd 59 10 5a be 76 a6 81 be
       0.07981225 -0.09853868 -0.21295299 -0.25322312
000390 fd 04 19 be 8b 83 91 bd 3a f6 55 be 61 06 df bd
       -0.14943309 -0.07105168 -0.20894709 -0.108898886
0003a0 ef 21 39 3c 07 94 b6 3a 35 0d 84 3d dc 35 00 bc
       0.011299594 0.0013929614 0.064478315 -0.007825341
0003b0 6d 7a 2a 3d ad 82 15 be cd bc d2 3d cd 56 07 3c
       0.04162066 -0.1460063 0.10289917 0.008260441
0003c0 93 c9 49 bd 2e 5c 72 be 29 4a 0f 3d 8b 43 6e 3b
       -0.0492645 -0.23667976 0.034982834 0.0036356177
0003d0 d8 65 42 be 81 d8 c9 bc f2 54 0f 3d d6 c3 c7 3d
       -0.18984163 -0.02463937 0.03499312 0.097541496
0003e0 30 b0 a4 bb 91 72 63 3d bf 91 b3 3c a5 c6 34 bb
       -0.005025886 0.05552918 0.021920083 -0.0027584222
0003f0 40 4d 2e 3e 90 f2 ba 3d 57 ca 8e be e3 12 1d 3e
       0.17021656 0.091282964 -0.27888748 0.15339236

critic.2.bias f4 [128]
000000 b6 34 13 3e 04 f4 b7 bd 57 16 9d bd a1 4b b8 3d
       0.14375576 -0.08982089 -0.076702766 0.089988
000010 bb d2 cc 3d 1a 8e f7 3d da f2 13 be 59 32 4c bd
       0.10001131 0.120876506 -0.1444811 -0.049852703
000020 08 f0 c3 bd f1 cc c0 bb f8 5c e0 be d0 03 1f 3e
       -0.09567267 -0.005883806 -0.4382093 0.15528798
000030 18 fe 4c 3d 0e 7f 87 3d 03 b4 42 3e 39 dc 20 3d
       0.05004701 0.06616031 0.19013982 0.03927252
000040 95 22 9d bd aa de b0 3d e1 84 32 3e 0c ce 2f bd
       -0.076726116 0.0863622 0.17433502 -0.04292111
000050 7c 2f 17 3e 6d db e1 bd 9f 1c fb bd 0e 5c 06 be
       0.14764208 -0.1102818 -0.122613184 -0.13121054
000060 c5 c4 cd bd 60 7c e9 bd c2 05 73 3d fa 25 b3 3c
       -0.100472964 -0.11400676 0.059331663 0.021868695
000070 f3 e9 01 3d 5c d3 62 bd 0a a4 95 be 32 db be be
       0.031717252 -0.05537735 -0.29226714 -0.37276608
000080 aa bd e2 3d 36 cd 21 3b d1 6b cc 3c dd aa 01 bd
       0.11071332 0.0024688966 0.024953755 -0.03165709
000090 84 c3 56 3e 78 54 f7 3d 12 a2 87 3d 3f 45 fc bc
       0.20973021 0.12076658 0.06622709 -0.030794738
0000a0 50 89 16 3b a7 eb 81 bd d3 d3 74 3c 98 0c b9 bd
       0.0022970028 -0.06343775 0.014943081 -0.09035605
0000b0 ae ed 86 bc 88 75 cb bd 1d 2d 72 3d 05 3b fa bd
       -0.016470756 -0.09934527 0.059125055 -0.12218288
0000c0 51 07 24 bd 8d 03 3a 3b db 29 8c 3b fa 51 55 bd
       -0.04004604 0.0028383464 0.0042774505 -0.052080132
0000d0 b2 d1 b8 bd 15 7f 70 3c a5 f1 c7 bd 6a 11 20 be
       -0.09024371 0.014678736 -0.09762887 -0.15631643
0000e0 cb b9 8b 3d ea fb 48 3d 42 33 c6 3d 5c 90 97 bd
       0.068225466 0.04906837 0.096777454 -0.07400581
0000f0 ba 66 c4 bd a3 d1 0b be b7 1c 26 be da 71 7c be
       -0.09589906 -0.13654189 -0.16221891 -0.24652806
000100 f5 00 6e be f0 1a 36 be 08 b1 c2 3d 7f 96 f5 bd
       -0.23242553 -0.17783713 0.09506422 -0.119915955
000110 1f ce 37 be 76 f1 cb 3d 76 cb 8c bb a2 c7 a4 ba
       -0.17949723 0.099581644 -0.0042967154 -0.0012571702
000120 b7 01 35 3d f2 66 a0 3d fb bf 68 bb 93 6d 8e bd
       0.04419109 0.07832135 -0.003551482 -0.069544934
000130 53 77 e4 3d 52 17 f4 bc 75 7f 92 bc 57 e8 5a bd
       0.11155572 -0.029796276 -0.017883042 -0.053444233
000140 e2 5f 14 be ce a5 96 bd 5b 2f 10 bd 84 fd a6 3d
       -0.14489701 -0.073558435 -0.03520141 0.08153823
000150 00 f5 d6 3d ed 56 54 3e 72 df d4 3d ad 91 e3 bd
       0.10495949 0.20736285 0.10394181 -0.1111177
000160 f9 21 35 bd c4 96 ea ba de 5d 22 be 3b 3a c3 bc
       -0.044221852 -0.0017897715 -0.1585612 -0.023831477
000170 4f 6e 19 3e 48 99 ce bd 42 1d a4 bd 7b b9 9e bd
       0.14983486 -0.1008783 -0.08013393 -0.07750221
000180 fb 67 e5 3d dc 5c 94 bd ed 10 26 3d c3 95 5b 3d
       0.11201473 -0.07244274 0.040543485 0.05360962
000190 50 c9 5a 3d fd f0 36 bc 81 37 de bd 41 a7 09 bd
       0.053414643 -0.0111658545 -0.1085043 -0.03360677
0001a0 44 b8 c6 38 0f 15 96 3c d0 f5 09 bd 29 7b 2f 3e
       9.475698e-05 0.018320588 -0.03368169 0.17136826
0001b0 18 af 66 bd a0 fd 14 3d 90 ae 07 3e 29 ff ad 3d
       -0.056319326 0.03637469 0.13250184 0.084959336
0001c0 18 0d 75 3d 19 a3 31 3d d5 44 ed 3d d3 4f b4 3c
       0.05982694 0.043368433 0.11585394 0.02201072
0001d0 8c 59 a2 3d 12 6d 49 3e ea c5 11 3e 33 fa 04 be
       0.07927236 0.19670513 0.14235654 -0.12986068
0001e0 7f 57 2f 3e 25 46 74 3d a6 a9 9d bd 49 cb f9 bc
       0.17123221 0.059637208 -0.076983735 -0.030492442
0001f0 70 e9 52 bd 3e 5f c4 bc e7 21 aa 3d 6e 81 04 3e
       -0.051492155 -0.023971196 0.083072476 0.12939999

critic.4.weight f4 [1, 128]
000000 b5 60 b5 3e 35 0a 1c bd 18 a5 b0 3e 50 13 4d be
       0.35425344 -0.03809567 0.34500957 -0.20026898
000010 68 88 85 3e 16 68 d3 bc 48 20 56 be 8f 15 c7 be
       0.26080632 -0.025806468 -0.20910752 -0.38883635
000020 36 91 97 3e 4e 7e 4d be d2 13 91 bf 4a e4 95 be
       0.29602975 -0.20067713 -1.1334174 -0.29275733
000030 a5 23 ac bd 07 d0 06 3e d4 58 e4 3e 85 ea bc be
       -0.08405236 0.13165294 0.4459902 -0.36897674
000040 04 7e 0a 40 0a 4b e7 3d 98 66 b0 3e 9b c8 0b 3e
       2.1639414 0.112936094 0.34453273 0.13650744
000050 fb b0 79 3f 58 c9 8f 3e b9 d2 50 3e 5b f9 05 bf
       0.97535676 0.280833 0.20392884 -0.5233361
000060 93 da c9 3e e0 df 89 3f 39 00 a6 3e 34 10 c5 bd
       0.3942457 1.0771446 0.32422045 -0.09622231
000070 fb 49 85 bd 59 3d 93 3e 59 30 11 3f c2 27 12 3f
       -0.06508251 0.28757742 0.567144 0.57091916
000080 95 37 ba 3e e2 a0 97 be 3a 28 20 3f 07 5b b1 3e
       0.3637053 -0.2961493 0.6256138 0.3463976
000090 fc 8b 1f 3e 2f a5 f1 bd 39 0b 08 be 0e d1 84 3f
       0.15580744 -0.117990844 -0.13285531 1.0376298
0000a0 c8 92 9f 3d c7 23 8c 3e f9 a3 69 3e c5 2e c0 3f
       0.07791668 0.27371046 0.22816457 1.5014273
0000b0 6a 1b 79 3d da 4c 39 3f 74 32 72 bd 45 ff aa 3e
       0.06081716 0.7238289 -0.059130147 0.3339788
0000c0 0b aa 8c 3f 0f ef 2c be 7e f4 0d 3f 46 0d 21 3f
       1.0989393 -0.16888069 0.5545119 0.6291088
0000d0 a3 72 ac be 87 ca a4 3d db 77 10 3f f5 f8 f0 be
       -0.3368121 0.080464415 0.56432885 -0.4706494
0000e0 c8 0d 2f 3f 90 fc e1 3e d0 c6 83 3e 5a dc 22 3f
       0.68380404 0.44138002 0.2573762 0.6361748
0000f0 f4 a3 d7 bd 30 ea ac 3e a0 7c 69 3f e3 ee 8a 3f
       -0.105293185 0.3377242 0.9120579 1.0854152
000100 75 98 66 3f b8 97 c4 3e 34 b5 fd be d5 c7 3a 3f
       0.9007638 0.38397002 -0.4955231 0.7296117
000110 20 74 74 3e e8 aa a7 3e e4 3c ef 3e 90 93 10 be
       0.23872423 0.3274758 0.46726143 -0.1411879
000120 28 29 19 3e 33 0b ea 3e 1d 88 0e 3f 4e d0 bf 3f
       0.14957106 0.4571167 0.5567644 1.4985445
000130 d8 77 01 3f b4 18 5a bf 4a 1d 27 be 24 65 5e 3f
       0.5057349 -0.85193944 -0.16319767 0.8687308
000140 2c 63 7c be c2 25 c0 3c 70 29 ba 3f c0 9a b4 bd
       -0.24647206 0.023455504 1.4543896 -0.08818579
000150 7f 59 0c 3f 8f 22 e3 3e 2c 73 40 3f bd e3 b7 3d
       0.5482406 0.44362304 0.7517574 0.089789845
000160 8b dc 56 bd a9 0c 91 bd 3d 36 1a 3f 6c 89 0a be
       -0.05245642 -0.07082493 0.6023901 -0.13528985
000170 01 11 fe be 9a 8b cb bf 2d 4a 3e be 06 52 55 bf
       -0.49622348 -1.5901978 -0.18582983 -0.8332828
000180 e6 a3 f6 be 40 db 03 be 64 9c d8 3e 14 d4 dd be
       -0.4817192 -0.12876606 0.42306817 -0.43325865
000190 ad a2 1f 3f 6a 49 33 be 10 a7 9c be 9f 81 0e 3e
       0.623576 -0.17508474 -0.3059621 0.13916634
0001a0 66 43 5d 3d 9e 76 d1 bd 52 ab ba 3d ca e0 05 bf
       0.054019354 -0.102277026 0.09114708 -0.52296126
0001b0 3a 45 d1 3d cd cd 0b 3e 69 91 da 3e 3b cb 5d 3e
       0.10218282 0.13652726 0.42689064 0.21659558
0001c0 24 34 35 be bd f2 05 3e bd 56 ca 3f 9b d3 19 bf
       -0.17695671 0.13080879 1.580772 -0.6008851
0001d0 ac 11 c1 be dc cc a1 3e 3e 1f 92 be 5a 25 d8 3f
       -0.37708795 0.31601608 -0.2853946 1.6886399
0001e0 59 d3 13 3f b0 c3 f1 3d 83 0d b4 bd aa c1 60 bf
       0.57744366 0.118049026 -0.0879164 -0.8779551
0001f0 9b a9 76 3c 2e 29 e7 3f a7 c8 82 be bd 62 0a be
       0.0150550855 1.8059442 -0.2554371 -0.13514228

actor.0.weight f4 [256, 48]
000000 57 51 39 3e 5e 30 e6 3d f9 97 05 be 0e a5 8a 3d
       0.18097435 0.11239694 -0.13046254 0.06769763
000010 1b b9 51 3e 3b e6 e7 bd 35 b1 0f 3e 1a 69 8e bc
       0.20480768 -0.1132321 0.14032443 -0.0173841
000020 87 28 6d 3c 63 32 c7 3e 85 75 33 3d bb f3 0e be
       0.0144749945 0.3890563 0.043813247 -0.13960163
000030 11 94 7b 3e db f8 28 3e ba 53 b4 bd 97 18 ee bc
       0.24568202 0.16501181 -0.08805032 -0.02906446
000040 6c 80 c4 3d f8 53 b4 bd 21 9f 85 3e 33 07 65 bd
       0.09594807 -0.08805078 0.26097968 -0.05591507
000050 52 a1 87 bd 38 0f 43 3e 2b 47 6e 3e dd 3c ef bd
       -0.06622566 0.19048774 0.23269336 -0.116815306
000060 fe c2 4c 3e 85 ad cd 3c 62 dc 00 be 07 fd 26 bd
       0.19996259 0.025107155 -0.1258407 -0.04076865
000070 96 f8 2d 3e 1e 5c f1 bc f2 02 e7 bd 16 15 06 be
       0.1698936 -0.02946287 -0.11279859 -0.13093981
000080 56 ed 04 3c 1f c5 9c 3e 01 8c c7 bd 77 ad cd bd
       0.008113226 0.3061914 -0.097435005 -0.100428514
000090 a3 3f 71 3e d0 83 da 3d 7f b5 f1 bd 5f f0 ee bd
       0.23559432 0.106696725 -0.11802196 -0.11666941
0000a0 72 7c 7c 3e 1e 10 fe bd bd dc d7 3c 2e 4d ed bd
       0.24656847 -0.12405418 0.026350373 -0.115869865
0000b0 c9 3e 92 be 41 f3 24 3e 92 ef 28 be 68 45 44 3c
       -0.28563526 0.16108419 -0.16497639 0.011979438
0000c0 7a 78 78 3e 86 09 a0 3e be 03 32 3e c9 19 39 be
       0.24264708 0.31257266 0.1738424 -0.18076243
0000d0 c7 c0 fe bc 5e 6e 61 3d c3 5a 8e bd 3a 10 4c bd
       -0.031097783 0.055036895 -0.06950905 -0.049820162
0000e0 1d 5c 01 be ed 14 d4 3c 35 06 7b 3c 63 1f c2 3b
       -0.12632795 0.025888884 0.015321304 0.0059241517
0000f0 11 ab 3e 3e 1d ad a7 3e a9 aa 8b 3e d5 b8 21 3d
       0.18619944 0.32749262 0.2727864 0.03948291
000100 ee 9c 65 be dc c9 33 be ea a6 0d bc 8a 05 15 3d
       -0.22423145 -0.17557472 -0.008645752 0.036382236
000110 9d 42 13 be ee 39 5c bd 90 f6 0f be dc 02 96 3d
       -0.1438088 -0.053766184 -0.140589 0.07324764
000120 0a c3 94 3e ad 60 94 3e 1e 37 a2 3e e8 05 fa 3d
       0.29055053 0.28980008 0.31682676 0.12208158
000130 82 cd 1e be 4b 7a d2 bd 3a c1 38 bd 52 38 33 3d
       -0.15508083 -0.10277232 -0.04510615 0.043754883
000140 dc 62 80 be aa 4e aa 3d 32 b2 50 be 21 ea d3 3b
       -0.25075424 0.08315785 -0.20380476 0.0064671193
000150 9f 6b d1 3e d1 f6 8f 3e c3 f7 91 3e 95 85 40 bd
       0.4090242 0.28117993 0.2850934 -0.047002394
000160 fa 67 99 be a3 c8 f3 bc 29 78 15 bc 20 83 c6 3c
       -0.2996214 -0.029758757 -0.009122887 0.024232447
000170 27 4e b3 be f6 57 28 3e 33 c5 3b be 8e 02 82 3e
       -0.35020563 0.16439804 -0.18336944 0.25392574
000180 49 68 d5 be b1 b9 cd 3c b2 59 a3 bd 18 9a f2 3a
       -0.41681126 0.025112959 -0.079760924 0.0018509058
000190 15 40 b0 3d 7e 5f eb 3d 97 a6 5b bd 40 ee 29 3d
       0.08605973 0.11492823 -0.05362567 0.04148698
0001a0 0f 89 58 3d 3d 73 8d be 1b 54 81 3c b0 a9 39 be
       0.052865084 -0.27626982 0.015787175 -0.18131137
0001b0 c5 70 f1 be 25 d2 84 bd d6 39 5f 39 a4 be 58 be
       -0.4715635 -0.064853944 0.00021288483 -0.21166474
0001c0 4a cd 66 3d 02 fc 98 3d 03 e2 f8 3c 80 2a db bd
       0.056348123 0.07469942 0.030381208 -0.107014656
0001d0 5f 68 d2 3d 79 97 31 be 0f 83 03 3e 80 d1 56 bd
       0.102738135 -0.17342938 0.12842964 -0.05244589
0001e0 1b 62 9c be a0 15 ea bd af f2 0b 3d af 89 b3 bd
       -0.305436 -0.11429906 0.034166988 -0.087664954
0001f0 3e 13 88 3d 32 89 a1 bc 7d bf ab bb 26 97 a8 bd
       0.06644295 -0.01971874 -0.005241333 -0.08231954
000200 ca 51 5d 3e 53 13 cc be fb 77 85 bd 84 18 1a be
       0.21613231 -0.39858493 -0.06517025 -0.15048414
000210 74 2a ab be e1 c2 4a 3d df cd ec bd f3 9b ce 3d
       -0.33430827 0.049502257 -0.11562704 0.10088339
000220 9a 06 36 bc 91 4f 5c bd de 1f 19 3e 6a 42 18 bd
       -0.011109972 -0.053786818 0.14953563 -0.037172712
000230 61 3c 8e 3d 2f ed 8e be d8 04 05 3e 98 03 5a be
       0.0694511 -0.27915332 0.12990129 -0.21290433
000240 28 9a 66 be 43 a9 e5 bc c6 c7 bc 3d 40 6a 4b bd
       -0.22519743 -0.028034812 0.09217791 -0.049661875
000250 98 a6 a1 3c 17 f0 a5 bd 39 23 6d bd 86 5d 62 bd
       0.019732758 -0.08102434 -0.05789492 -0.055264972
000260 62 c0 3b 3e c2 09 bb bd 94 c2 c7 bd 4f 8b 83 3e
       0.18335107 -0.091327205 -0.0975391 0.25692222
000270 2b 6c 50 be 08 41 9b 3d 9f c5 37 3d 41 2c 39 be
       -0.20353763 0.07580763 0.0448662 -0.18083288
000280 d4 fc 8e bd 64 36 13 3e bb 3a 41 bd 15 9c 00 be
       -0.06981817 0.14376217 -0.04717515 -0.1255954
000290 cc e1 b8 bc 5e 7c 8c bd fd d0 b5 3d 64 f7 cc 3e
       -0.022568606 -0.06859659 0.08877752 0.40032494
0002a0 1e 6b 0d be b1 62 9c 3c 20 b0 00 3e 01 fc 0f 3d
       -0.13810393 0.019090028 0.12567186 0.03515244
0002b0 e4 92 03 be 2e 50 af 3d 51 29 cc bc 10 6b 88 3d
       -0.12849003 0.08560215 -0.024922045 0.066610456
0002c0 07 d9 2a 3e d4 6d fa 3d 9c d5 0c 3e ff 21 ce 3e
       0.16684352 0.12227979 0.1375336 0.40260312
0002d0 09 76 e2 bd 16 0d e9 3d 19 e6 68 bd 65 26 43 bd
       -0.1105767 0.11379449 -0.056860063 -0.047644038
0002e0 4e 38 de bd 38 10 d5 bb 7b ec 47 3e 56 df 8f 3d
       -0.10850583 -0.0065021776 0.19523804 0.0702502
0002f0 4b 90 12 3e c4 2a 0e 3e 87 5d 89 3d 78 7b 07 3f
       0.14312856 0.13883501 0.06707292 0.52922773
000300 a6 9b 6e 3d c6 c0 c6 bd 63 2f b5 3d 50 94 f0 3d
       0.058253907 -0.09704737 0.08846929 0.11747038
000310 f8 cf ff bd 4c d5 99 3d c7 4e 02 3d 6f 31 63 bd
       -0.12490839 0.07511386 0.03181341 -0.055467065
000320 23 32 67 3d c1 78 e3 bd 6e 3a 8b bc 20 70 d2 bc
       0.0564443 -0.11107016 -0.016995635 -0.025688231
000330 21 93 e5 3d 22 7d 16 be 68 69 36 bc 14 d9 0b 3e
       0.11209703 -0.14696172 -0.011133529 0.13657027
000340 98 40 9a 3d 47 94 c0 bd 24 e0 c2 3c 05 a0 96 3d
       0.075318515 -0.09403282 0.02378852 0.0735474
000350 d4 98 a4 bc cb 6d 95 bd 6d fd 35 3c be a9 ed 3c
       -0.020092405 -0.07296332 0.011107785 0.029011603
000360 a0 8f 5a bd 16 f7 6f 3c 5f 8b 29 bd 73 08 4c bc
       -0.053359628 0.014646312 -0.04139268 -0.012453186
000370 42 25 16 be f0 1e 15 be 29 17 a3 3c 82 43 18 3d
       -0.1466265 -0.14562583 0.019908505 0.037173755
000380 94 b9 ab bd 3a 7e 1b be 8a 46 e6 3c 5b 04 75 bc
       -0.083850056 -0.1518487 0.028109808 -0.014954652
000390 e0 b5 cb bb 6e bc f2 3d 3d a3 03 3e 74 94 81 3d
       -0.0062167495 0.11852346 0.12855239 0.06327143
0003a0 93 94 9e bc 61 1a 00 3d 53 4b 28 3d 8a d5 05 be
       -0.019357955 0.031275157 0.04108746 -0.1306974
0003b0 bf a1 c7 3d a2 17 5f bc b9 06 be 3d 33 bf d9 3d
       0.097476475 -0.013616474 0.09278626 0.106321715
0003c0 c5 f0 1b 3d e5 ee 0a 3e a5 be 47 3e a6 fd ce 3d
       0.038071413 0.13567694 0.19506319 0.10106973
0003d0 26 f7 36 3c ca be 31 3c 5b d1 a4 3d 60 40 69 be
       0.011167323 0.01084871 0.08047744 -0.22778463
0003e0 2d 37 a0 3e 61 8a 68 3e b8 47 b8 3d af a0 6b 3d
       0.31292096 0.22709037 0.08998054 0.057526287
0003f0 7b 3e 48 3d e5 ac 27 3d 76 05 9d 3e 96 68 d6 bd
       0.04888771 0.04093637 0.3066823 -0.10469167

actor.0.bias f4 [256]
000000 7b a6 27 be d4 a9 db 3d 1e 4c 8a bd 79 ba 28 bd
       -0.16372101 0.107257515 -0.067527995 -0.04119346
000010 91 95 c6 bd aa f4 3a 3c ec b6 d2 bc 0d c9 55 3d
       -0.09696496 0.0114108715 -0.02572199 0.05219369
000020 64 b7 b3 bd 88 4d 45 be 93 1a a7 3d eb a5 94 3d
       -0.08775213 -0.19267857 0.081593655 0.07258209
000030 d6 92 67 3e a0 d6 1e 3e 96 0e 71 bd 4b 48 b0 bd
       0.22614607 0.1551156 -0.0588518 -0.08607539
000040 ed bc 64 be 7b c8 9f bd bc a3 85 3c 41 c6 c2 bd
       -0.22337694 -0.078019105 0.016313426 -0.0951047
000050 cb 9d 26 be 12 7c 64 3b 20 b2 8f bd be 18 3e be
       -0.1627113 0.003486399 -0.070163965 -0.18564126
000060 16 cc 4e be 31 35 70 3d f1 8b 04 be 8c 30 c3 3d
       -0.2019504 0.058644477 -0.12944008 0.09530744
000070 fe 43 3a bd 81 64 98 be dc b2 2d bd a4 2a d0 3d
       -0.045475 -0.29764178 -0.0424069 0.10164383
000080 c8 41 22 bd cb ca b9 3d 08 82 eb 3c 2b bc 03 3e
       -0.039613515 0.09071883 0.028748527 0.12864749
000090 73 dd b8 be 69 48 1b 3c 93 f5 4e 3e 9e fb 9b 3d
       -0.36106452 0.009477713 0.20210867 0.076163515
0000a0 2b ed fc bd 32 d3 88 3d e5 71 34 bd 7e 8b cc bd
       -0.12349924 0.06680907 -0.04405393 -0.099875435
0000b0 71 9e a7 3d 56 41 56 3e c8 04 26 3e 0e c7 a7 bc
       0.08184517 0.20923361 0.16212761 -0.020480659
0000c0 d3 1e f8 3d 2c 34 a0 3d d6 fa da 3d 66 dc bf bd
       0.12115254 0.07822451 0.106923744 -0.093682095
0000d0 d0 81 aa bd 5a f3 fe 3d bd c2 11 3d 01 76 8a bd
       -0.08325541 0.124487594 0.035586108 -0.06760789
0000e0 0a 38 12 be 91 46 70 bd f7 a5 ec 3d 68 6c 15 be
       -0.1427919 -0.058661047 0.11555093 -0.14592135
0000f0 2e 4e 5c 3e 07 db 94 bb 06 ee 50 bd c4 59 4c 3c
       0.21514198 -0.0045427117 -0.051008247 0.012472574
000100 bd ac 17 3e 5c 70 a7 be 60 d8 ac 3d be 27 e4 bd
       0.14811988 -0.3270291 0.08439708 -0.11140393
000110 43 93 82 3c 81 84 17 3d 00 36 02 be c6 b3 a3 bd
       0.01593936 0.0369916 -0.12715912 -0.079932734
000120 6c 0c 6c be 9b 9a a6 3d 2b 08 86 3d 57 51 c5 3d
       -0.23051614 0.081349574 0.06544527 0.09634655
000130 9d dc 06 3e 12 f5 8d 3d d3 54 13 3e bf 18 e3 3d
       0.13170095 0.06931509 0.14387827 0.11088704
000140 7f ab bd 3c 05 90 a4 3c 9a 89 0d 3e f5 e0 c3 bd
       0.023153065 0.020088205 0.13822022 -0.095643915
000150 d1 6e 01 3d b2 21 8f 3d 3e 1b 4c bd c4 ac e9 bd
       0.031599823 0.06988849 -0.049830668 -0.114099056
000160 7b 0d 6f be 6f aa ab bd d5 1f 13 3d 8d d4 6c bd
       -0.23344986 -0.08382117 0.03591903 -0.05781989
000170 4b 3d c1 bd f4 fb ab bc e8 b1 76 bd 0b 77 0d be
       -0.09435519 -0.020994164 -0.06022826 -0.13814943
000180 67 c5 02 3e f0 87 20 3e 24 a0 ba 3d b3 3f 38 be
       0.12770616 0.15676856 0.09112576 -0.1799305
000190 3a 7a ef 3d 2c 83 b3 3d 96 b1 be bd f6 35 8a bd
       0.11693235 0.087652534 -0.093112156 -0.067485735
0001a0 d1 78 a9 3d 0e f2 db bc c7 80 ca 3d e5 51 66 bd
       0.08274997 -0.02684882 0.098878436 -0.056230444
0001b0 de c5 2c 3e 68 9e 42 bc 97 a7 01 be 86 a2 18 3d
       0.16872355 -0.011878587 -0.12661587 0.03726437
0001c0 9c ce 4a 3e 5b bf d0 bc d7 d8 a1 bd d9 28 5a bb
       0.19805378 -0.02548187 -0.07902687 -0.0033288507
0001d0 fd c8 33 be 33 04 53 bd e9 17 0b 3e 26 3e 3a be
       -0.1755714 -0.051517677 0.1358334 -0.1818777
0001e0 30 db f5 3b aa a5 9d bc 76 93 c5 3d 3f cb 21 be
       0.007502936 -0.019244034 0.096472666 -0.15800188
0001f0 99 e1 f6 bc 03 8f c1 3d f6 cd 30 be 9d e5 1e be
       -0.03013687 0.094511054 -0.17266068 -0.15517278
000200 8a a3 0b be d1 e4 3e be fc 63 c6 3d a5 a8 16 3e
       -0.13636604 -0.18641974 0.09687039 0.1471277
000210 14 32 aa bd 1f f8 8f 3d 67 46 01 3d 32 59 40 3d
       -0.08310333 0.07029747 0.03156128 0.046960063
000220 f4 84 6b ba c6 bc 96 3e d1 ce 4d 3c de e5 fa 3d
       -0.000898435 0.29440898 0.012561516 0.12250875
000230 11 5c f7 bc 9b 0e 69 bd d4 c0 a5 3d 50 22 18 3e
       -0.030195268 -0.056898694 0.0809342 0.14856839
000240 2c b4 06 3c b0 11 a8 3d 69 29 32 3e 7a 2f 2d 3e
       0.008221667 0.082064986 0.17398609 0.16912642
000250 1a f2 6c 3d 1e cc 91 bd a3 86 aa 3d 0f 6f 67 3e
       0.057848074 -0.071190104 0.08326461 0.22600959
000260 be ba ca bd ba a8 0d 3e c7 3e 1d be e2 ab 9d 3c
       -0.098988995 0.13833895 -0.15355979 0.019247
000270 49 70 0d be 3d 12 46 bd ce b8 8a 3e 7b 53 b8 bd
       -0.13812365 -0.048357237 0.2709412 -0.09000298
000280 4c 55 92 3e f5 e1 b3 3b 49 cd 53 3d e1 91 67 3e
       0.285807 0.0054895827 0.051709447 0.22614242
000290 ae bf 8d bd c8 02 24 3d 48 3e fe bd 98 36 6c bd
       -0.069213256 0.040041715 -0.12414223 -0.057669252
0002a0 e0 00 95 3d f7 d1 55 bd 1f f5 6a be d9 0e 38 bd
       0.072755575 -0.05220219 -0.22945069 -0.044936035
0002b0 87 62 4d 3c be f5 cc 3d 47 4e bc bd 25 24 c0 bc
       0.012535698 0.10007809 -0.09194618 -0.023454735
0002c0 df b1 89 3e 9f 1e 7f 3e cd 48 6c be 51 eb 20 be
       0.26893517 0.24914025 -0.23074646 -0.15714766
0002d0 48 d0 18 bc 3f 0b 38 bd 05 a2 ba bc ef 60 e2 bd
       -0.009327002 -0.0449326 -0.022782335 -0.11053645
0002e0 ac 10 43 3d 46 65 67 bd 2c 20 c1 bd e2 84 4b 3e
       0.04762332 -0.056493066 -0.094299644 0.1987491
0002f0 30 f2 f2 3d 26 0c 8a bd 65 dc e7 3d f9 84 ce bd
       0.118626 -0.067405984 0.11321334 -0.10083956
000300 f4 90 32 bd 0e f4 ca 3d f7 46 18 be 3e 40 00 3e
       -0.04359527 0.09909831 -0.14870821 0.12524506
000310 0b 3f 60 bb 15 4c 69 ba 5e 27 73 3e a0 44 8b 3d
       -0.0034217264 -0.0008899582 0.23745486 0.068001986
000320 87 54 46 be b3 f1 72 3e b5 6e 5b 3b 8b 90 07 3e
       -0.19368182 0.23725013 0.0033482735 0.13238733
000330 b3 fe 69 bc 9d 6a 8c 3e 7f a9 4e be 4c f4 31 3d
       -0.014281916 0.2742509 -0.20181845 0.04344587
000340 b5 88 b4 3d 0d d8 95 bd b9 d2 be bb b6 c6 de bd
       0.08815137 -0.07316599 -0.00582346 -0.10877745
000350 54 33 27 be b0 27 35 3e 45 8f 56 bd 89 46 5c bd
       -0.16328174 0.17690921 -0.052382726 -0.053778205
000360 ef 12 14 be b1 88 4e bd 39 ac 57 be ea 3f 90 bd
       -0.14460348 -0.050423328 -0.21061791 -0.07043441
000370 0c 79 3f bd 10 f8 15 3e d9 8b 79 3d 34 2b 9f 3d
       -0.0467463 0.1464541 0.060924385 0.07771912
000380 f5 e6 10 bd 6e 51 6a 3c d6 b8 24 3b d6 16 a0 3d
       -0.035376508 0.014301641 0.0025134585 0.078168556
000390 1e 6e 5b be 06 9a e5 bd c9 8c 79 3d 71 fc 51 be
       -0.21428725 -0.11211018 0.06092528 -0.20506455
0003a0 af 18 34 be e1 5e ce 3c d1 64 a2 bd 27 62 22 be
       -0.17587541 0.025191726 -0.079293855 -0.15857755
0003b0 04 16 10 bd 3e 2f 21 be f0 f5 c1 3d 14 e2 7d bd
       -0.035177246 -0.15740678 0.09470737 -0.061983183
0003c0 4c 41 0a 3d 5d c9 03 3d 7b 46 c7 3d 2e 2a f8 3d
       0.03375368 0.032174457 0.0973024 0.1211742
0003d0 d7 3f 1c 3d 79 4a 4b 3c 81 20 ab 3d 06 2a 8c 3d
       0.03814682 0.012407892 0.08355809 0.06843953
0003e0 fa 0c 74 3e fa 02 89 bb b3 fa fe bb b8 7a 4f 3d
       0.23833075 -0.004181263 -0.0077813505 0.050654143
0003f0 49 8e e7 bd b4 0a 48 3c 8a 7d 55 3d 61 98 d1 3d
       -0.113064356 0.012209583 0.052121677 0.10234142

actor.2.weight f4 [128, 256]
000000 0d 28 fb bc 8c b1 3e be 33 8c 00 be ba ef 0b be
       -0.030658746 -0.18622416 -0.12553482 -0.13665667
000010 00 33 94 b9 18 cb 15 bd 86 77 9b 3e 1c 58 dd 3d
       -0.00028266758 -0.03657064 0.30364627 0.10807821
000020 d1 ce a3 3d a7 11 0c bd ad 71 2a bd 22 72 17 3d
       0.079984315 -0.034196522 -0.041612316 0.03697408
000030 97 17 eb bd 85 e5 ad 3e 23 e8 b2 bd a6 6f c7 bd
       -0.11479109 0.33964172 -0.08735683 -0.09738092
000040 c1 c6 56 bd 5a fb 8b bd f5 ac df be 0a ee 28 be
       -0.05243564 -0.06835051 -0.43686643 -0.16497055
000050 a8 3e b1 3c f6 6d 6d bd 0b c1 2d bd fe 6a 7c 3e
       0.021636322 -0.057966195 -0.04242043 0.2465019
000060 de 50 3c 3e a1 8b 37 3e 63 83 ca bd 7a 2b 2e 3d
       0.18390223 0.17924358 -0.09888341 0.04252193
000070 db 93 23 3e 88 4d 9e 3c 3b 65 a9 3d e0 54 ff bd
       0.15974371 0.01932408 0.08271261 -0.124673605
000080 38 4c 84 be f4 b5 1c be d1 cf 7a 3c 9d 6c 57 3e
       -0.258394 -0.15303785 0.015308336 0.21037526
000090 66 81 d0 3d 02 ab b9 be 54 0f 83 be 97 3d 91 bc
       0.10180931 -0.3626328 -0.25597632 -0.017729564
0000a0 ea df 81 3d 88 80 34 bd 3e 83 7f 3e a9 2f 0a be
       0.06341536 -0.04406789 0.24952409 -0.13494743
0000b0 88 b5 95 3d 7f e6 01 be 08 0c ae 3d b7 e8 9b 3d
       0.07310015 -0.12685584 0.084983885 0.07612746
0000c0 96 68 01 3f 88 8a 35 3d 4d 21 53 be ce 74 1b 3d
       0.5055021 0.044321567 -0.20618172 0.03795319
0000d0 95 54 8a 3c 14 d7 88 be a3 32 02 be 04 04 80 bd
       0.016886035 -0.26726592 -0.12714629 -0.06250766
0000e0 9e 97 de 3d 6c a2 4e 3e 9c 7c 24 3e 45 6c 6f bd
       0.108687624 0.20179147 0.1606316 -0.058452863
0000f0 63 55 85 bd 45 fe ff 3b 22 e1 3f 3e a4 7d 79 3c
       -0.06510427 0.0078122937 0.18738225 0.015227709
000100 5b 2b 16 3d bc 2c 32 3e 35 3c 5c 3e 13 c0 aa bd
       0.03666244 0.17399877 0.21507342 -0.083374165
000110 02 5b b6 3e b9 25 cb 3d 55 b4 09 3d de 89 86 3d
       0.35616308 0.099193044 0.033619244 0.06569265
000120 c2 25 da 3d fa 85 08 be 46 63 9b bd a5 ba ac 3d
       0.10651733 -0.13332358 -0.07587294 0.08434037
000130 57 1d 2d 3c 11 a8 03 3f ca f4 09 3e 07 6e e6 3d
       0.010566077 0.51428324 0.13472286 0.11251455
000140 78 bd 66 3d a5 b2 bf 3d fa 44 1a bd 49 a5 e4 bd
       0.056333035 0.093602456 -0.037663437 -0.11164338
000150 ca ac 7f 3e 8e 02 61 3e 31 c3 5d 3e 2d aa 84 be
       0.24968258 0.21973631 0.21656491 -0.25911084
000160 00 1a c7 bd 0a 10 ab bc e6 80 79 bd 13 40 da bb
       -0.09721756 -0.020881671 -0.060913943 -0.0066604703
000170 b0 74 ad 3e 24 91 4a be 72 3a c7 3d ec b1 78 3e
       0.33878088 -0.19781929 0.097279444 0.24286622
000180 5d 85 a3 bd 0d 16 d6 be fa 8e 5c 3d da 05 65 bd
       -0.079844214 -0.41813698 0.05384729 -0.055913784
000190 39 47 57 bd ad 4f 99 be 2c 62 b1 3d cb b7 28 be
       -0.052558158 -0.299436 0.08661303 -0.16476361
0001a0 3c 8c c4 3d f8 e5 8a 3d 58 57 59 3d 6b 4a e8 bd
       0.0959706 0.06782144 0.053061813 -0.11342319
0001b0 b0 da fc bc e3 64 9e bd b5 99 23 3e a9 94 49 3e
       -0.030865997 -0.07734086 0.15976603 0.19685616
0001c0 9a 8b 02 3e af 2a 98 3c 09 d4 b0 bd c8 a0 4c bc
       0.12748566 0.01857504 -0.086341925 -0.012489505
0001d0 8e 40 27 3d 00 f6 d4 3d 69 c1 24 3e c4 85 a3 bd
       0.04083305 0.10398483 0.16089405 -0.07984498
0001e0 2b 82 f6 3d b1 a4 89 3e 93 22 44 3e 58 77 2c 3e
       0.12036546 0.26883462 0.19153814 0.16842401
0001f0 85 d9 af bd 3b 9d e0 3b bc 1f 8a 3e b8 e0 9d 3d
       -0.085864104 0.006854681 0.26977336 0.07708877
000200 31 b9 12 3d e9 30 00 be 87 c5 a7 3d a1 15 1d be
       0.035821144 -0.12518658 0.08191972 -0.15340282
000210 73 71 e7 bd a2 78 9c bd 28 fe 68 bf 78 d7 16 be
       -0.113009356 -0.076401964 -0.9101281 -0.14730632
000220 e1 a9 04 3f 4d 17 ca 3d fc 0a c8 3d 14 ac 0d 3e
       0.51821715 0.098677255 0.0976772 0.13835174
000230 14 b4 57 be f1 77 bd bd e5 98 22 3e 7b 52 92 3d
       -0.21064788 -0.09251393 0.15878637 0.07144638
000240 2f 97 de 3c c7 12 a2 3e b7 4f f3 bd d8 6c b8 bd
       0.0271717 0.3165495 -0.11880439 -0.09005135
000250 4c bb a5 bc bf 0a 4f be 33 d7 2a 3e 65 f2 d7 bd
       -0.020230912 -0.20218943 0.16683654 -0.1054428
000260 23 be 9d 3d ee 37 0f 3e 87 2a 8e 3e be 8c a5 bd
       0.07702281 0.13986179 0.2776682 -0.08083485
000270 4e 8f 94 3e 7f f9 fa bd 67 e3 2d 3e 58 6b b3 3d
       0.29015583 -0.12254619 0.16981278 0.087607086
000280 3e c3 91 3c 36 a4 8b 3d c8 d0 bb bd fb dd fc 3d
       0.017793294 0.0681843 -0.09170681 0.12347027
000290 4e 23 43 3e cf 89 c6 bb 9a 9a 47 3e 8f 26 8d 3e
       0.19056436 -0.0060589085 0.1949257 0.2756848
0002a0 9f 8a 97 3d a2 00 ec bd fc 4d f2 3b a1 f2 ab 3d
       0.07399487 -0.11523558 0.0073945504 0.08395887
0002b0 5f 16 94 be 09 22 02 3e 13 7a bc be 53 a2 36 3e
       -0.28923318 0.12708296 -0.36811885 0.1783536
0002c0 f4 f9 b4 3d c2 18 fe bc cd c6 4e bc 10 f9 d6 3d
       0.08836737 -0.031017665 -0.01262064 0.10496724
0002d0 87 16 75 3d de 9b 20 bd be 4a bd 3d 23 ff 0c 3e
       0.059835937 -0.039211147 0.092427716 0.13769202
0002e0 cf dd 39 bc b3 68 84 3d e6 83 44 bd f7 ad 2e 3d
       -0.011344387 0.06465282 -0.04797735 0.042646375
0002f0 32 0c 8f 3e ae 7a 8c 3e 26 b2 4d 3e a0 64 45 3e
       0.27938992 0.27437347 0.2008749 0.19276667
000300 3c 12 94 bc ea 2f 3d bd 0d 2f a3 3e 87 ef c8 bd
       -0.018075101 -0.046188273 0.31871834 -0.09811311
000310 0b f9 80 be 82 e2 aa be 86 c1 a8 be 43 a1 7c be
       -0.25190005 -0.33375937 -0.32960147 -0.24670891
000320 20 a5 af bd 09 a2 21 bf 9f 97 ac 3d 67 f6 83 3d
       -0.08576417 -0.6313787 0.08427357 0.06443482
000330 be 83 05 bd 83 d0 f7 bd 93 25 6f be b9 fc 46 be
       -0.032596342 -0.12100317 -0.23354177 -0.19432344
000340 fe 4c 71 3d c7 75 49 be 04 15 26 be 18 15 46 be
       0.058911316 -0.19673835 -0.16218954 -0.19343984
000350 a3 75 26 3e 15 39 69 be eb 3d 03 3d e3 9b 9b 3c
       0.16255812 -0.22775681 0.03204147 0.018995231
000360 68 9f 15 bc 00 b5 40 3e d6 ff 71 bd 1a ef a5 3e
       -0.009132244 0.18819046 -0.059081875 0.32408983
000370 cc 91 14 be da 3c 05 3e 0d ce cc bb 95 50 a9 bc
       -0.14508742 0.13011494 -0.006250149 -0.020668307
000380 56 c0 f1 be 86 9a 83 bd d7 43 9f 3d bb 72 2a 3e
       -0.47217053 -0.064259574 0.07776611 0.16645329
000390 6e fe 03 3e 04 42 be 3c 36 c8 da 3d 88 26 fa 3d
       0.12890026 0.023224838 0.106827185 0.122143805
0003a0 f4 d2 b0 3e 75 8e 24 bd a1 94 07 3d 46 b3 0e 3e
       0.34535944 -0.04017492 0.033100728 0.13935575
0003b0 ac 7b 34 be 46 93 cd 3d ed e2 aa 3c c3 57 28 3d
       -0.17625302 0.10037856 0.02086016 0.04109932
0003c0 ce b8 da 3d a8 77 b5 be 91 99 30 ba c3 e6 05 bd
       0.1067978 -0.35442853 -0.00067367504 -0.032690775
0003d0 16 9d 74 bd 94 e3 e8 bd da bf 80 3c b4 aa 81 3d
       -0.05972012 -0.11371532 0.015716482 0.06331387
0003e0 87 b8 f9 be 0d b8 60 3d 30 30 41 bd 1d eb f5 bd
       -0.48773596 0.054863025 -0.047165096 -0.12007735
0003f0 16 23 cd 3d 07 4e 85 3d 0d 10 89 bd 9b 82 12 bc
       0.10016458 0.06509023 -0.066925146 -0.008942272
