CRL_GPU/模型集_opponent/train_20260125-013011/fixed_opponent_current.pth (torch, 370495 bytes, 11 tensors)

critic.0.weight f4 [256, 48]
0	0xbe703117	-0.23456226
1	0xbd869e59	-0.06573171
2	0xb90b0d71	-0.0001326108
3	0xbc413462	-0.011792274
4	0xbe067803	-0.13131718
5	0xbdff54b5	-0.124673285
6	0xbd7673d8	-0.06016907
7	0xbcbc6469	-0.022997098
8	0xbeaa5e19	-0.33274916
9	0xbe40f606	-0.1884385
10	0xbe72703e	-0.2367563
11	0x3dfac973	0.12245455
12	0xbe80a945	-0.25129142
13	0xbd8e647a	-0.06952758
14	0x3b237163	0.002493941
15	0xbcd4bd43	-0.025969153
16	0xbe5643f8	-0.20924366
17	0xbe221bd5	-0.1583093
18	0xbd8bb6f8	-0.06822008
19	0xbc6e5ddd	-0.014548746
20	0xbe415f77	-0.18884073
21	0xbdd29aaa	-0.10283406
22	0xbe75b84f	-0.2399609
23	0xbc816d40	-0.015799165
24	0xbcf369aa	-0.02971347
25	0xbbeec5c0	-0.007286757
26	0x3c99c553	0.01877085
27	0xbc69d818	-0.014272712
28	0xbce3da5e	-0.027814087
29	0xbe15250b	-0.14564912
30	0xbd8a2aaa	-0.06746419
31	0xbcb00c6b	-0.021490296
32	0xbd1ab466	-0.037769698
33	0xbcc74699	-0.024325656
34	0xbe60d902	-0.21957782
35	0xbd8fa318	-0.070135295
36	0xbe36ca80	-0.17850685
37	0x3d84469c	0.0645878
38	0x3d38d823	0.045128
39	0xbd3fb8cf	-0.046807107
40	0x3d46d332	0.048541255
41	0xbe49319c	-0.1964783
42	0xbd88274b	-0.066481195
43	0xbd983c06	-0.074333236
44	0xbdd55402	-0.10416414
45	0x3dcd3aa1	0.10020948
46	0x3e934259	0.28761557
47	0x3d2a4517	0.041569795
48	0x3e54f778	0.20797527
49	0xbe5679a2	-0.20944837
50	0xbcea0e2f	-0.028571216
51	0x3dcf5215	0.10123078
52	0xbddd15d6	-0.107951805
53	0xbe23d6b8	-0.15999877
54	0xbbe06917	-0.006848465
55	0xb9ecf820	-0.00045198295
56	0xbe93cff5	-0.28869596
57	0xbe19da91	-0.15024783
58	0xbd9c5d89	-0.07635028
59	0xbdb53e9f	-0.08849835
60	0x3e566a95	0.20939095
61	0xbe79f640	-0.24410343
62	0xbd57470e	-0.052557997
63	0x3d5b11cc	0.05348377
64	0x3d2bb25c	0.041918144
65	0xbe38ec10	-0.180588
66	0xbc5058c3	-0.012716475
67	0x3da7bf69	0.081908055
68	0xbe8c7a4f	-0.27437064
69	0x3d5fcf0e	0.054640822
70	0xbe0b5fb1	-0.13610722
71	0xbd1daf60	-0.03849733
72	0x3e6c03cb	0.23048322
73	0xbe2db159	-0.16962184
74	0xbd893384	-0.06699279
75	0x3d6ad0d3	0.057328057
76	0xbe4483e4	-0.19190937
77	0xbe40f0f9	-0.18841924
78	0x3c6fcf0c	0.014636766
79	0x3d5fda26	0.054651402
80	0xbd8fa9c2	-0.070148006
81	0x3e0e046f	0.13868879
82	0xbd72f135	-0.059312064
83	0xbc3a1966	-0.0113585945
84	0x3df0c6c5	0.11756662
85	0xbc3a9bd7	-0.011389694
86	0xbdb59349	-0.08865983
87	0x3e36d86c	0.17855996
88	0xbe497680	-0.1967411
89	0xbdf6a1fd	-0.120426156
90	0x3cc24930	0.02371654
91	0xbcd50287	-0.026002182
92	0xbe5f1614	-0.21785766
93	0x3ebf8cf8	0.37412238
94	0xbe37c19a	-0.17944947
95	0x3ede8ec4	0.43468297
96	0x3ddcfbc4	0.10790208
97	0x3e25f91e	0.16208312
98	0x3d3d93db	0.046283584
99	0xbd2c0629	-0.041998062
100	0xbd5d6da2	-0.054059632
101	0x3ca2405b	0.019806078
102	0xbda7d451	-0.08194793
103	0xbc953b3d	-0.018216724
104	0xbe73a99c	-0.2379517
105	0xbe86a50a	-0.2629779
106	0x3f021c5f	0.5082454
107	0x3e407943	0.18796258
108	0x3c122e27	0.008922136
109	0x3e0842f3	0.13306789
110	0x3d34d6f2	0.0441503
111	0xbcd3a215	-0.025834123
112	0xbe4a6cd0	-0.19768071
113	0x3d5fea3a	0.054666735
114	0xbda4d4a3	-0.0804837
115	0x3d88e2a5	0.06683854
116	0x3ca91686	0.020640623
117	0xbd74575d	-0.05965363
118	0x3e665226	0.22492275
119	0xbde49c54	-0.1116263
120	0xbd0bbd43	-0.03411604
121	0x3e8b196d	0.27167836
122	0x3d71d1e7	0.05903807
123	0xbd54c91b	-0.0519496
124	0xbd2842a6	-0.041079186
125	0xbcda8333	-0.026673889
126	0xbd90523b	-0.07046934
127	0xbd379452	-0.044819184
128	0xbdacbfaf	-0.08434998
129	0x3e079e69	0.13244022
130	0x3c13661f	0.008996516
131	0xbe2cf933	-0.16891937
132	0x3df90703	0.121595405
133	0xba3bba0d	-0.00071612076
134	0x3d3e3044	0.04643275
135	0xbde3f2a8	-0.111302674
136	0xbe2408ea	-0.16019025
137	0xbdcc65b7	-0.09980338
138	0xbd6cd4e8	-0.05782023
139	0xbeb67121	-0.35633186
140	0x3d4a7a70	0.04943317
141	0x3e4be7d8	0.1991266
142	0xbe0ade39	-0.13561334
143	0x3d188a40	0.03724122
144	0x3e4e8cc2	0.20170882
145	0xbebf090a	-0.37311584
146	0x3c4a0965	0.012331341
147	0x3dd61599	0.10453338
148	0xbdd20300	-0.102544785
149	0x3dbb58e1	0.09147812
150	0x3d6e713f	0.05821347
151	0x3c86d627	0.016459538
152	0xbe17c298	-0.14820325
153	0xbf4c3375	-0.7976602
154	0x3cf70e83	0.030158287
155	0xbb136a1f	-0.0022493673
156	0x3d82384f	0.06358396
157	0xbebd3c7e	-0.36960214
158	0x3d05b121	0.032639626
159	0x3da40b57	0.080099754
160	0xbe3c2db5	-0.18376811
161	0x3e24dacb	0.16099088
162	0x3d233b74	0.03985162
163	0x3d080c11	0.033214632
164	0x3d9983d2	0.07495846
165	0xbf44ed87	-0.7692494
166	0x3dfa25d4	0.122142464
167	0x3e8e1526	0.2775051
168	0x3a26a710	0.0006357292
169	0xbe8562b3	-0.26051864
170	0x3d727f90	0.059203684
171	0xbb52e113	-0.0032177612
172	0xbd1360ca	-0.035980977
173	0x3b4b9a54	0.0031067329
174	0x3caab5be	0.020838615
175	0x3d1a56b1	0.03768033
176	0xbdc69715	-0.09696785
177	0xbf147c9d	-0.58002645
178	0x3d90bd72	0.07067384
179	0x3e551745	0.20809658
180	0x3e2ba991	0.16763903
181	0xbe3ddc47	-0.1854106
182	0x3d04fdea	0.032468714
183	0x3e0c9848	0.13729966
184	0xbd833941	-0.06407405
185	0x3dc05e18	0.09392947
186	0xbba4d81c	-0.005030645
187	0x3c5dd804	0.013540272
188	0x3e3da269	0.18518986
189	0xbeb3b309	-0.3509753
190	0x3e872735	0.263971
191	0xbcfff44c	-0.03124442
192	0x3d7d8333	0.0618927
193	0xbd971a0a	-0.073780134
194	0x3d3e2c60	0.046429038
195	0x3d7fd61f	0.06246006
196	0x3ea88a35	0.32917944
197	0xbe3b6d45	-0.18303402
198	0x3d1fb037	0.03898641
199	0x3e046c0a	0.12931839
200	0x3c50c82a	0.012743035
201	0xbdf1234a	-0.11774309
202	0xbd917862	-0.07103039
203	0xbd405533	-0.046956252
204	0xbe0f41bf	-0.13989924
205	0xbda3c788	-0.07997042
206	0x3d332ff0	0.04374689
207	0x3d79743e	0.060901873
208	0x3ea6cd5a	0.32578546
209	0xbe429984	-0.19003874
210	0x3d97e711	0.07417119
211	0x3de619c2	0.11235382
212	0xbd63bdcb	-0.055600923
213	0x3d0f8c9e	0.035046212
214	0x3e183f70	0.1486795
215	0x3d95a803	0.07307436
216	0xbe0e90cf	-0.13922428
217	0xbd7591b4	-0.059953406
218	0x3ccd406f	0.025055138
219	0x3d8a08d3	0.06739964
220	0x3e64be2e	0.22338173
221	0xbe453a34	-0.19260484
222	0x3dc9bddd	0.09850667
223	0x3db7421e	0.08948158
224	0x3d99a685	0.07502464
225	0x3b4aed50	0.0030964203
226	0x3e9c9237	0.30580303
227	0x3da31753	0.07963433
228	0x3dbb4edf	0.09145903
229	0xbdef5d15	-0.11687676
230	0xbc2b1e9f	-0.010444312
231	0x3d47c6ff	0.04877376
232	0x3e53a9e1	0.20670272
233	0xbd33913c	-0.04383968
234	0x3dcb4923	0.09926059
235	0x3b390fb3	0.0028238117
236	0xbc4436f9	-0.011975997
237	0x3b50935a	0.003182611
238	0x3f21eb4a	0.6324965
239	0xbdb0890b	-0.08619889
240	0xbda7d569	-0.08195002
241	0x3d0a0fa2	0.033706315
242	0xbdc9c738	-0.09852451
243	0xbd137280	-0.035997868
244	0x3d01cfa5	0.031692166
245	0xbe2d3ce0	-0.16917753
246	0x3c991030	0.018684477
247	0x3b1d824e	0.0024033966
248	0x38888bbe	6.511014e-05
249	0xbb37e678	-0.0028060954
250	0x3d9651d3	0.073398255
251	0x3ccedcd1	0.025251778
252	0xbe1fe071	-0.15612961
253	0x3d50a409	0.050937686
254	0xbe087eb3	-0.13329582
255	0xbcd3b7d7	-0.025844498

critic.0.bias f4 [256]
0	0x3e70e4d4	0.23524791
1	0x3ea93a59	0.33052328
2	0x3d8aa39f	0.067694895
3	0x3c678e50	0.014133051
4	0xbe444bf7	-0.19169603
5	0xbe84b2b2	-0.25917584
6	0x3d23b2aa	0.03996531
7	0xbda3a024	-0.07989529
8	0xbddee389	-0.10883243
9	0xbe660f5d	-0.22466798
10	0x3e00e357	0.12586723
11	0x3eebdf8b	0.46068987
12	0x3f152c9c	0.58271194
13	0x3f13b84f	0.5770311
14	0x3d06ea73	0.032938432
15	0xbeb2ad05	-0.34897628
16	0xbe8f7f7a	-0.28026944
17	0x3f1a82a1	0.60355574
18	0xbd3984e3	-0.045292746
19	0x3d8e9cce	0.06963502
20	0xbf08eaba	-0.53483164
21	0xbe8e5772	-0.2780109
22	0xbe87a486	-0.2649271
23	0x3e4910c9	0.1963531
24	0x3d96939b	0.07352372
25	0x3ec20a28	0.37898374
26	0xbdf8e8fd	-0.12153814
27	0x3e6ed5dc	0.23323768
28	0xbd1b48e5	-0.037911315
29	0xbdf52a10	-0.119709134
30	0x3eb01342	0.34389693
31	0xbdc26bc6	-0.094932124
32	0xbecddb8c	-0.40206563
33	0x3e7c2d5e	0.24626681
34	0xbcdbf4e4	-0.026850171
35	0xbf53a4f8	-0.826736
36	0x3e92fee4	0.2871009
37	0x3e53e7f8	0.20693958
38	0x3ee00b3d	0.43758574
39	0xbf05ab99	-0.5221496
40	0x3eb3781d	0.35052577
41	0xbe67560a	-0.22591415
42	0xbea33996	-0.31879872
43	0x3f10e4ca	0.56599104
44	0xbe9aca2c	-0.3023237
45	0x3ea814d7	0.328284
46	0x3f0099a2	0.50234425
47	0xbe881030	-0.2657485
48	0xbde96d83	-0.11397841
49	0x3e808c48	0.25107026
50	0xbf134554	-0.5752766
51	0x3d5aa919	0.05338392
52	0xbf236c57	-0.6383719
53	0xbf3388b1	-0.7013045
54	0x3ee11045	0.43957725
55	0xbe8cd542	-0.27506453
56	0xbbda2005	-0.006656649
57	0xbf15ae2d	-0.58468896
58	0xbf539058	-0.82642126
59	0xbd33c1a2	-0.043885835
60	0xbe985625	-0.29753223
61	0xbe2fded5	-0.17174847
62	0xbe0faebb	-0.14031498
63	0xbf38887f	-0.72083277
64	0x3cb7fcd4	0.022459425
65	0xbea31af1	-0.31856492
66	0xbe4b0472	-0.19825915
67	0xbef10efc	-0.47081745
68	0x3ed2cd1e	0.41172117
69	0x3d7d0dd0	0.06178075
70	0x3e013fdd	0.12622018
71	0x39e810d6	0.00044263032
72	0x3da901a9	0.0825227
73	0xbe50b739	-0.20382394
74	0xbe4cc78c	-0.19997996
75	0x3e0becba	0.13664523
76	0xbf71d052	-0.94458497
77	0x3e8d1c3f	0.27560613
78	0xbec8dc77	-0.392307
79	0xbede0ba8	-0.43368268
80	0xbf11a853	-0.5689747
81	0xbe1d0c62	-0.15336755
82	0xbdbf0d2d	-0.09328685
83	0xbec6b41a	-0.38809282
84	0x3e4c115e	0.199285
85	0xbefa8c08	-0.4893496
86	0xbe2fe1e6	-0.17176017
87	0xbe04b9fd	-0.12961574
88	0xbe8e9a39	-0.27852038
89	0x3e225aa6	0.15854892
90	0x3eb48866	0.35260314
91	0x3f11931c	0.56865096
92	0xbd45c39d	-0.048282254
93	0x3dbec3a1	0.09314657
94	0xbee96c46	-0.4559042
95	0xbde994cb	-0.11405333
96	0xbe1fd9b5	-0.15610392
97	0xbd4c36e9	-0.049857054
98	0x3defc724	0.11707905
99	0x3e74e57b	0.23915665
100	0x3ea0c54f	0.31400535
101	0xbe7f82db	-0.24952261
102	0x3dd20ec1	0.1025672
103	0xbe55f4e5	-0.20894201
104	0xbde6d89b	-0.11271783
105	0xbece6fc2	-0.4031964
106	0x3c7265fe	0.014794825
107	0x3dc618d9	0.09672708
108	0xbcd87963	-0.02642507
109	0xbe3c679e	-0.18398902
110	0xbf2afa12	-0.66787827
111	0xbeb5103c	-0.35363948
112	0xbd3c9133	-0.04603691
113	0xbeac845a	-0.33694726
114	0xbd72e15a	-0.059296943
115	0x3e8ba9c5	0.2727796
116	0xbec9d667	-0.39421389
117	0xbefaec81	-0.49008563
118	0xbd01dc62	-0.031704314
119	0xbe09361a	-0.13399544
120	0x3de105c3	0.10987427
121	0xbcfcb77e	-0.030849215
122	0x3d99c42f	0.07508122
123	0x3d9417cf	0.07231104
124	0x3e87ffb6	0.2656228
125	0xbd36b3e1	-0.04460514
126	0xbe874ec0	-0.2642727
127	0xbe42ec65	-0.1903549
128	0x3e92815e	0.28614324
129	0x3e617e85	0.2202092
130	0xbe2a729e	-0.16645285
131	0x3e53300d	0.20623799
132	0xbc2ae362	-0.010430189
133	0xbd438687	-0.047735717
134	0xbab05c05	-0.0013455158
135	0xbd2ad013	-0.04170234
136	0x3cbced48	0.023062363
137	0x3ad1c2b1	0.0016003457
138	0x3f1ad722	0.60484517
139	0xbec87625	-0.39152637
140	0xbe56739d	-0.2094254
141	0xbf9bf733	-1.2184814
142	0xbd49d4fe	-0.04927539
143	0x3d651bae	0.0559346
144	0x3e3e7caa	0.18602243
145	0x3e8b61f2	0.27223164
146	0xbea7f5fd	-0.32804862
147	0xbe168112	-0.14697674
148	0x3f110212	0.56643784
149	0xbe8f2b69	-0.27962807
150	0xbe94776e	-0.28997368
151	0x3d460107	0.048340824
152	0xbde19857	-0.11015385
153	0x3e23875e	0.15969607
154	0xbdc513d9	-0.09622926
155	0x3d0731b9	0.033006404
156	0xbd2252b6	-0.03962966
157	0xbe58cccd	-0.21171875
158	0xbeabb732	-0.33538204
159	0xbe1e2ee8	-0.15447581
160	0xbe398b79	-0.18119611
161	0x3e5577d4	0.20846492
162	0x3e562e78	0.20916164
163	0xbeae0058	-0.33984637
164	0xbead18cf	-0.3380799
165	0xbebacab5	-0.36482778
166	0xbea9d612	-0.33171135
167	0xbe86bff1	-0.26318315
168	0xbed97027	-0.42468378
169	0x3e05d568	0.1306969
170	0x3e94c8cb	0.29059443
171	0xbe68de52	-0.22741058
172	0xbf1ddd16	-0.61665475
173	0x3de52589	0.111888
174	0x3f20578e	0.626336
175	0x3e9ca2d2	0.30592972
176	0x3e5fef97	0.2186874
177	0xbe1b2408	-0.15150464
178	0x3e12c1a2	0.14331678
179	0xbd0ce4ec	-0.034398004
180	0x3ceeca09	0.029149072
181	0xbf0dee88	-0.55442095
182	0xbe781fa6	-0.24230823
183	0x3e8bf2f8	0.27333808
184	0x3f015a81	0.50528723
185	0xbd5279e1	-0.051385764
186	0xbe5de47f	-0.21669196
187	0xbcfc5ad6	-0.030805033
188	0x3ea71562	0.326335
189	0x3ebdfc25	0.37106434
190	0x3eeb08cc	0.4590515
191	0x3e79531d	0.24348111
192	0xbebf8816	-0.37408513
193	0x3df7cec0	0.12099981
194	0xbe08a9f0	-0.13346076
195	0xbd6f67fa	-0.05844877
196	0xbd62cb22	-0.055369504
197	0xbe14226b	-0.14466254
198	0x3c9ad13e	0.018898603
199	0xbc90864e	-0.017642166
200	0x3dbd88f7	0.092546396
201	0xbf188967	-0.5958466
202	0xbf1c63a1	-0.6108952
203	0xbe828967	-0.25495455
204	0xbd890289	-0.06689937
205	0xbe8cb569	-0.27482155
206	0xbe2bf146	-0.16791257
207	0x3cd8f0e1	0.026482048
208	0x3ec86993	0.39143047
209	0x3d779459	0.06044421
210	0x3dd81d3e	0.105524525
211	0x3e568f03	0.20952992
212	0xbdd31107	-0.10305982
213	0x3ce36698	0.027758881
214	0xbd7d786d	-0.061882425
215	0x3e378f9b	0.17925875
216	0xbe894685	-0.26811615
217	0x3ed79f97	0.42113945
218	0x3ddbe375	0.10736743
219	0xbed2c56b	-0.41166243
220	0xbe25fc87	-0.16209613
221	0x3d7e2ea7	0.06205621
222	0xbd645b8c	-0.05575137
223	0x3e83828f	0.25685546
224	0xbe3b883a	-0.18313685
225	0xbe2f3daf	-0.17113374
226	0xbf3ce995	-0.7379392
227	0xbe8f56bb	-0.27995858
228	0x3e30339d	0.17207189
229	0xbf299004	-0.66235375
230	0x3eb6e0ed	0.3571848
231	0x3d45f5dc	0.048330173
232	0xbf31c1e2	-0.69436467
233	0xbd7561dd	-0.059907783
234	0xbe71b84e	-0.23605463
235	0xbf09eedc	-0.53880095
236	0xbe2825eb	-0.16420715
237	0x3ecd912a	0.40149814
238	0x3e625f77	0.2210673
239	0x3d87300a	0.066009596
240	0xbd818af6	-0.06325333
241	0xbf0df9d1	-0.55459315
242	0x3d1e4f0e	0.03864961
243	0xbe917c35	-0.28415075
244	0xbf5d4d1c	-0.86445785
245	0x3e2c1b0f	0.16807197
246	0x3dc443b6	0.09583227
247	0xbf0a276f	-0.5396642
248	0x3f30532b	0.68876904
249	0xbf08a599	-0.5337768
250	0xbe445b49	-0.19175448
251	0xbeac636e	-0.3366961
252	0x3e03f86d	0.12887736
253	0x3ea5f766	0.32415313
254	0xbdb3add3	-0.08773389
255	0x3f076eac	0.52903247

critic.2.weight f4 [128, 256]
0	0xbb2a65a0	-0.0026000515
1	0xbd956a7f	-0.07295703
2	0xbe8fe27d	-0.28102484
3	0x3e0ad267	0.13556825
4	0x3e4dec16	0.20109591
5	0xbe1a7cc8	-0.15086663
6	0x3aabed55	0.0013116995
7	0xbedd2cf1	-0.4319835
8	0x3e739ef6	0.23791108
9	0x3d005393	0.031329703
10	0x3eed2651	0.46318296
11	0xbd0b97ef	-0.034080442
12	0xbde6cd8b	-0.11269673
13	0x3d3c2d9f	0.045941945
14	0x3dcea3ee	0.10089861
15	0xbd86c0d0	-0.06579745
16	0x3da77e32	0.08178367
17	0xbe333ac2	-0.17502883
18	0xbd5ecca1	-0.054394368
19	0x3d10e3c3	0.03537346
20	0xbc922260	-0.017838657
21	0xbd501ae5	-0.0508069
22	0x3e041da9	0.1290194
23	0xbd208dba	-0.03919766
24	0x3af27afa	0.0018499785
25	0x3e8dda2c	0.27705514
26	0x3dc92ff4	0.098235995
27	0xbd27209d	-0.040802587
28	0x3d286b2d	0.041117836
29	0xbe3ec32d	-0.18629141
30	0x3befcaa5	0.0073178583
31	0xbec8ad00	-0.3919449
32	0xbe610b51	-0.21976973
33	0xbd17ebd3	-0.037090134
34	0xbe1f13ca	-0.15534893
35	0xbe769b54	-0.2408269
36	0xbe1e148b	-0.15437524
37	0xbec351b4	-0.38148272
38	0x3de35ff2	0.111022845
39	0xbe23ad1f	-0.15984009
40	0x3def5914	0.11686912
41	0xbdaa5ffa	-0.08319087
42	0x3b422ca6	0.0029628663
43	0x3d379471	0.0448193
44	0xbf923ec7	-1.1425408
45	0xbbbb8afe	-0.0057233563
46	0xbcbc20a9	-0.022964792
47	0x3ccf6ca8	0.025320366
48	0xbcbbb3c4	-0.022912867
49	0xbe3fdfeb	-0.18737762
50	0x3d51a75b	0.051184993
51	0xbd8260d1	-0.063661225
52	0x3c2e7132	0.010647105
53	0xbe387854	-0.18014652
54	0xbd6b982c	-0.05751817
55	0x3e21e498	0.15809858
56	0xbd841804	-0.06449893
57	0xbe827b2f	-0.25484607
58	0xbdb8a71b	-0.09016248
59	0xc082d00e	-4.0878973
60	0xbe5c60b4	-0.21521264
61	0x3e2cd6de	0.1687884
62	0x3e078115	0.13232835
63	0xc0a3a50c	-5.1138973
64	0x3d38347c	0.044971928
65	0xbc96ca0e	-0.018406894
66	0x3e12b694	0.1432746
67	0xbe11734b	-0.14204137
68	0xbe4c0603	-0.19924168
69	0xbbdc8118	-0.0067292564
70	0xbe70d2f1	-0.23517968
71	0x3e746897	0.23868023
72	0x3d822974	0.06355563
73	0xbe26ce8a	-0.16289726
74	0xbd3e264f	-0.046423253
75	0x3e50991d	0.20370908
76	0x3da17577	0.07883733
77	0xbe255d13	-0.16148786
78	0xbcb54727	-0.022128655
79	0xbd2315a8	-0.039815575
80	0xbe2de0ea	-0.16980329
81	0x3dbdee03	0.09273913
82	0xbe0884bc	-0.13331884
83	0x3e680742	0.22659019
84	0x3ce9371f	0.028468667
85	0xbe4100ae	-0.18847916
86	0xbc281961	-0.010259957
87	0xbe793020	-0.24334764
88	0x3dfde560	0.123972654
89	0x3e792433	0.24330215
90	0xbe2a52e5	-0.16633184
91	0x3e730e0c	0.23735827
92	0x3dc690f0	0.096956134
93	0xbe01a5d7	-0.12660919
94	0xbd5af27e	-0.053453915
95	0xbb14446f	-0.0022623797
96	0xbdf4852f	-0.11939465
97	0xbdfa0027	-0.1220706
98	0x3c685cf0	0.014182314
99	0xbdfac4e3	-0.122445844
100	0xbc1fdaa8	-0.009756722
101	0xbe024a0c	-0.12723559
102	0xbe0b124e	-0.13581201
103	0xbe019832	-0.12655714
104	0x3e3f398c	0.18674296
105	0xbeb9a5bd	-0.3625926
106	0x3d444194	0.047914103
107	0xbd1ea7a1	-0.038734082
108	0x3e89dbe9	0.2692559
109	0x3dab6b7d	0.08370111
110	0xbe27e5b7	-0.16396223
111	0x3df37656	0.11887805
112	0x3e00466d	0.12526865
113	0xbe6f7a83	-0.23386578
114	0x3d6ef93f	0.05834317
115	0x3ce888c6	0.028385531
116	0xbe3427d2	-0.17593315
117	0x3d6430ce	0.055710606
118	0x3e8025ed	0.25028935
119	0xbdceb301	-0.10092736
120	0xbcf54bfc	-0.029943459
121	0xbc4822ca	-0.012215326
122	0xbde91767	-0.11381417
123	0x3eec6f4e	0.4617867
124	0x3e3c426c	0.18384713
125	0xbc2562da	-0.010094369
126	0xbda8a35f	-0.082342856
127	0xbe2cd719	-0.16878928
128	0xbe0e6446	-0.13905439
129	0xbe5ec4b1	-0.2175472
130	0xbe57273d	-0.21011062
131	0xbd152c8d	-0.03641944
132	0x3d1231c2	0.035691984
133	0x3d1ae357	0.037814464
134	0xbd2341f2	-0.039857812
135	0xbe75fcef	-0.24022268
136	0xbdf24b4e	-0.118307695
137	0x3d737431	0.05943698
138	0x3e3e91a1	0.1861024
139	0x3d206539	0.039159033
140	0xbe329d83	-0.17442898
141	0xbe4e6a67	-0.20157777
142	0xbd92f868	-0.07176286
143	0x3d845622	0.06461741
144	0xbe3336a5	-0.17501314
145	0xbdfbed45	-0.12301115
146	0xbbd055fe	-0.0063579073
147	0xbe9913d5	-0.29897943
148	0xbc04fc1f	-0.008116751
149	0xbe5f3f50	-0.21801496
150	0xbbe10fff	-0.006868362
151	0xbd63c434	-0.055607036
152	0x3e62bbdb	0.22141974
153	0xbc1dad3a	-0.00962382
154	0xc0b24508	-5.5709267
155	0xbe673471	-0.22578599
156	0xbd9f8565	-0.07789115
157	0x3df4e971	0.11958588
158	0xbc2502b8	-0.010071449
159	0xbd0cc9f9	-0.034372304
160	0xbde7600c	-0.11297616
161	0xbc828e5e	-0.015937027
162	0x3d197ac9	0.037470613
163	0x3de2fb4c	0.11083087
164	0x3e8d6abd	0.27620497
165	0x3da6ade7	0.08138638
166	0xbec47540	-0.38370705
167	0x3c373f50	0.0111845285
168	0xbdc87b0b	-0.097890936
169	0xbd2f517f	-0.04280233
170	0x3d87a55e	0.06623338
171	0xbd110ffb	-0.03541563
172	0x3d84e40a	0.064888075
173	0xbe6c7df5	-0.23094924
174	0x3d824404	0.06360629
175	0x3c370b70	0.0111721605
176	0xbc05526d	-0.008137328
177	0xbd63bd59	-0.055600498
178	0xbe056b40	-0.13029194
179	0xbe1462f7	-0.14490877
180	0x3c159eb0	0.009132072
181	0x3e060cc0	0.13090801
182	0x3f062616	0.52401865
183	0x3dfd947f	0.12381839
184	0xbe2f94cd	-0.17146607
185	0x3cbc7229	0.023003655
186	0x3d9d9faf	0.07696473
187	0x3d997381	0.07492734
188	0x3cdd2bd4	0.026998438
189	0x3b4d6305	0.0031339538
190	0x3ea2625b	0.31715664
191	0xbc86d6ec	-0.016459905
192	0x3da5fc07	0.08104711
193	0x3e81e5ba	0.2537058
194	0x3e06605b	0.13122694
195	0xbe16b7a4	-0.14718491
196	0xbd3cc2b5	-0.046084125
197	0xbdba553a	-0.09098287
198	0x3ce66a78	0.02812694
199	0xbda9f2b3	-0.08298244
200	0x3d15ec83	0.03660251
201	0x3dd9c495	0.10633198
202	0x3cffb271	0.031213017
203	0xbc5cb2ea	-0.013470391
204	0xbd0203ff	-0.031742092
205	0x3e38d51b	0.18050043
206	0x3e01d717	0.12679707
207	0xbde99217	-0.114048176
208	0x3cbacfb4	0.022804119
209	0xbd8c5719	-0.0685255
210	0xbce7bceb	-0.028288325
211	0x3c667d60	0.014067978
212	0x3e20a02a	0.15686098
213	0x3dd4c668	0.103894055
214	0xbe74d55b	-0.23909514
215	0xbdf52c32	-0.1197132
216	0x3d5e5da3	0.054288518
217	0x3da08333	0.07837524
218	0xbf2c31ff	-0.6726379
219	0x3e2e754c	0.17036933
220	0x3c346721	0.011010916
221	0xbddb3dfd	-0.10705183
222	0xbe165f90	-0.14684892
223	0xbbb58596	-0.0055396063
224	0x3da866c7	0.08222728
225	0xbdc57f80	-0.09643459
226	0xbe5c77ac	-0.21530026
227	0xbe842ece	-0.2581696
228	0xbe510b21	-0.20414402
229	0xbdda78c9	-0.10667569
230	0xbe481de8	-0.19542658
231	0xbe146215	-0.1449054
232	0xbb7a4b33	-0.0038191795
233	0x3d2c7f29	0.042113457
234	0x3d840d35	0.064478315
235	0xbcecee6d	-0.028922284
236	0x3d809279	0.062779374
237	0xbe03f03f	-0.12884615
238	0x3dac33f5	0.084083475
239	0xbc5d2c73	-0.013499367
240	0xbcbdd102	-0.023170952
241	0xbe74d920	-0.23910952
242	0x3c731526	0.014836585
243	0xbd0fc0a6	-0.035095833
244	0xbe2a78ba	-0.16647616
245	0xbce102cd	-0.027467156
246	0x3da65fca	0.08123739
247	0x3dc7c3d6	0.097541496
248	0x3cd7eb4a	0.026357312
249	0x3db0127a	0.08597274
250	0x3ce1d9af	0.02756962
251	0xbb34c6a5	-0.0027584222
252	0x3e35f217	0.17768131
253	0x3dc36536	0.09540789
254	0xbe7b825d	-0.24561448
255	0x3e3c3d48	0.18382752

critic.2.bias f4 [128]
0	0x3e1700c1	0.14746381
1	0xbdbeffb7	-0.093261175
2	0xbd9d1657	-0.076702766
3	0x3ddaf0c8	0.10690457
4	0x3dd49b7c	0.10381219
5	0x3db89885	0.09013466
6	0xbdf193be	-0.11795758
7	0xbda873c2	-0.08225204
8	0xbdc3f008	-0.09567267
9	0x3bca2aa8	0.006169636
10	0xbee13320	-0.43984318
11	0x3e0b54d7	0.13606583
12	0x3de64fd1	0.112456925
13	0x3d8a3dfe	0.06750105
14	0x3e616f5a	0.22015134
15	0x3b6c58d0	0.0036063679
16	0xbd9d2295	-0.076726116
17	0x3da06115	0.07831017
18	0x3e43da8a	0.19126335
19	0xbc2f2fcd	-0.010692549
20	0x3e1a1183	0.15045743
21	0xbdcf29f6	-0.10115425
22	0xbdbbfb08	-0.0917874
23	0xbe065c0e	-0.13121054
24	0xbd5dbc17	-0.054134455
25	0xbdd661f4	-0.10467902
26	0x3d9f450c	0.077768415
27	0x3c2c6f9a	0.010524655
28	0x3d220960	0.039559722
29	0xbd952f9b	-0.07284471
30	0xbe95a40a	-0.29226714
31	0xbebee1b1	-0.37281564
32	0x3e262424	0.16224724
33	0xbc94f250	-0.01818195
34	0x3d412e6d	0.047163416
35	0xbd01aadd	-0.03165709
36	0x3e74af7a	0.23895064
37	0x3e020721	0.12698032
38	0x3d67f89d	0.05663358
39	0xbb3a3229	-0.0028411245
40	0x3d091e56	0.033476196
41	0xbd08c332	-0.033389278
42	0x3d6057a8	0.054771096
43	0xbdb90c98	-0.09035605
44	0x3941f6ca	0.0001849785
45	0xbdcb7588	-0.09934527
46	0x3d859f6e	0.065245494
47	0xbdbda3a7	-0.0925973
48	0xbbacdb65	-0.0052751773
49	0xbd113421	-0.035450105
50	0x3d4c64d3	0.04990084
51	0xbc619695	-0.013768812
52	0xbd5323ab	-0.051547688
53	0x3d3d69d5	0.046243507
54	0xbdc7f1a5	-0.09762887
55	0xbe3b7dd8	-0.18309724
56	0x3da912eb	0.082555614
57	0x3db58a1f	0.08864235
58	0x3e0215a9	0.12703575
59	0xbd3161e6	-0.043306254
60	0xbdf18385	-0.117926635
61	0xbe2350dd	-0.15948816
62	0xbe261cb7	-0.16221891
63	0xbe746e82	-0.2387028
64	0xbe6e00f5	-0.23242553
65	0xbe353bb0	-0.1769855
66	0x3da67ac2	0.08128883
67	0xbdf43e00	-0.11925888
68	0xbe38b6dc	-0.18038505
69	0x3dfc84f7	0.123300485
70	0x3b689677	0.0035490075
71	0x3d668939	0.05628321
72	0x3d9b99e1	0.075977094
73	0x3da2794e	0.07933293
74	0x3a2332dd	0.0006225536
75	0xbd8e6d93	-0.069544934
76	0x3dee7b1e	0.116445765
77	0xbd7a2a45	-0.061075468
78	0xbd35173f	-0.044211622
79	0xbd2a2fcc	-0.04154949
80	0xbe0072ef	-0.12543844
81	0xbd96a5ce	-0.073558435
82	0xbd102f5b	-0.03520141
83	0x3d523616	0.05132111
84	0x3e07dfc3	0.13268952
85	0x3e639066	0.22223052
86	0x3e25cb0f	0.16190742
87	0xbe013a03	-0.12619786
88	0xbd9ea3bf	-0.07746076
89	0x3d266ade	0.04062926
90	0xbdfa5b35	-0.122244276
91	0xbb41b508	-0.0029557366
92	0x3e197379	0.14985456
93	0xbdf53c29	-0.11974365
94	0xbdc18685	-0.09449486
95	0xbddd55d3	-0.10807385
96	0x3e032636	0.12807545
97	0xbd8a80f1	-0.06762875
98	0x3da23740	0.07920694
99	0x3d5c2a5b	0.05375133
100	0x3d9798fe	0.07402228
101	0xbd033fbf	-0.032043215
102	0xbe0a0a30	-0.13480449
103	0xbd51201d	-0.051056016
104	0x3d02f488	0.031971484
105	0x3b107a91	0.0022045712
106	0x3beb6b20	0.007184401
107	0x3e1cc6d8	0.15310228
108	0xbcd1d08c	-0.025612138
109	0x3da0e71c	0.078565806
110	0x3e080885	0.132845
111	0x3de783eb	0.11304458
112	0x3de535e7	0.11191922
113	0x3d88408c	0.06652936
114	0x3e15f799	0.14645232
115	0xbb393a33	-0.002826345
116	0x3d64cc7e	0.05585908
117	0x3e6d7199	0.23187865
118	0x3e2eecb9	0.1708249
119	0xbe04fa33	-0.12986068
120	0x3e4d75a4	0.20064408
121	0x3dd9c5f0	0.10633457
122	0xbdd80cca	-0.10549314
123	0xbccfb517	-0.025354905
124	0xbd6cc39b	-0.05780373
125	0xbcc45f3e	-0.023971196
126	0x3d47b9b2	0.048761077
127	0x3e43164c	0.19051474

critic.4.weight f4 [1, 128]
0	0x3ec66b6c	0.3875383
1	0xbd8665d9	-0.06562395
2	0x3eb0a518	0.34500957
3	0xbe9005f7	-0.2812955
4	0x3e940f31	0.2891784
5	0xbd59c86a	-0.053169645
6	0xbe895dc4	-0.2682935
7	0xbec3def9	-0.38256052
8	0x3e979136	0.29602975
9	0xbe819923	-0.25312147
10	0xbf955f3c	-1.1669688
11	0xbe926ab5	-0.28597036
12	0xbe0a3ca3	-0.13499694
13	0x3e2b1d83	0.16710477
14	0x3f015bc3	0.5053064
15	0xbebef2ef	-0.3729472
16	0x400a7e04	2.1639414
17	0x3e04cfae	0.12969849
18	0x3eb8e9ad	0.3611578
19	0x3e4ae706	0.19814691
20	0x3f7a95c8	0.978848
21	0x3e89b8c4	0.26898777
22	0x3e7760f9	0.24158086
23	0xbf05f95b	-0.5233361
24	0x3ed4e187	0.41578314
25	0x3f8b6272	1.0889418
26	0x3eb120e9	0.3459542
27	0xbe0ba056	-0.13635382
28	0xbd8e411f	-0.069460146
29	0x3e8d74b5	0.27628103
30	0x3f113059	0.567144
31	0x3f0fa44c	0.5611007
32	0x3ee0ba7d	0.4389228
33	0xbe8ff511	-0.28116658
34	0x3f3213a8	0.69561243
35	0x3eb15b07	0.3463976
36	0x3e2db89a	0.16964951
37	0xbe112e3d	-0.14177795
38	0xbe24d301	-0.16096117
39	0x3f848b82	1.0355074
40	0x3d9f5171	0.077792056
41	0x3e8f8806	0.28033465
42	0x3e6c331c	0.23066372
43	0x3fc02ec5	1.5014273
44	0x3d8a5e90	0.067563176
45	0x3f394cda	0.7238289
46	0xbd933a58	-0.071888626
47	0x3eaccad3	0.33748493
48	0x3f9260ee	1.143583
49	0xbe367e4f	-0.1782162
50	0x3f1e333b	0.6179692
51	0x3f25b6cb	0.64732045
52	0xbec14ee7	-0.3775551
53	0x3e0d174f	0.13778423
54	0x3f1077db	0.56432885
55	0xbeeb8bcb	-0.4600509
56	0x3f389089	0.72095543
57	0x3ef877f1	0.48529008
58	0x3e87b96b	0.2650865
59	0x3f29ac82	0.6627885
60	0xbde32fc3	-0.11093094
61	0x3ea6adbf	0.32554433
62	0x3f697ca0	0.9120579
63	0x3f8ad6b5	1.0846773
64	0x3f669875	0.9007638
65	0x3ec4bed7	0.3842685
66	0xbf007611	-0.50180155
67	0x3f3b3faf	0.7314405
68	0x3e724971	0.23660828
69	0x3ea7d942	0.32782942
70	0x3ef05fa6	0.46947974
71	0xbe531f7b	-0.20617478
72	0x3e38d055	0.18048222
73	0x3ee87767	0.45403597
74	0x3f0f64ee	0.5601338
75	0x3fbfd04e	1.4985445
76	0x3f01e122	0.5073415
77	0xbf5a53b4	-0.8528397
78	0xbe1ec197	-0.15503536
79	0x3f622449	0.88336617
80	0xbea348a0	-0.31891346
81	0x3cc025c2	0.023455504
82	0x3fba2970	1.4543896
83	0xbdbeb2d7	-0.09311455
84	0x3f0e3230	0.5554533
85	0x3ede881d	0.4346322
86	0x3f54c2d0	0.8310976
87	0x3d869208	0.06570822
88	0xbd4805c7	-0.048833635
89	0xbe0e5a3a	-0.13901606
90	0x3f1bfff7	0.60937446
91	0xbe0df337	-0.1386231
92	0xbf07835c	-0.52934813
93	0xbfc7e863	-1.5617794
94	0xbe276672	-0.16347674
95	0xbf54817a	-0.83010066
96	0xbf03c99e	-0.5147952
97	0xbe18507b	-0.14874451
98	0x3ef22a0a	0.47297698
99	0xbede8845	-0.4346334
100	0x3f2bb924	0.6707938
101	0xbe42ca5e	-0.1902251
102	0xbe9d906e	-0.30774254
103	0x3e09d5cf	0.13460468
104	0x3d89bc65	0.067253865
105	0xbda2e96d	-0.07954679
106	0x3e247b95	0.16062768
107	0xbf076873	-0.5289375
108	0x3dd31d41	0.10308314
109	0x3e434753	0.19070177
110	0x3ed72947	0.4202368
111	0x3e605c65	0.21910246
112	0xbe76f759	-0.24117793
113	0x3e1938da	0.14963093
114	0x3fcdeeaf	1.6088465
115	0xbf15d38e	-0.5852593
116	0xbec14025	-0.3774425
117	0x3ebc829a	0.3681839
118	0xbeaafaa7	-0.33394358
119	0x3fd8255a	1.6886399
120	0x3f24b28f	0.6433496
121	0x3e3b02f0	0.1826284
122	0xbdb8cfd0	-0.09024012
123	0xbf6ae34b	-0.9175307
124	0x3d87230b	0.06598481
125	0x3fe7292e	1.8059442
126	0xbe807005	-0.25085464
127	0xbe509e5c	-0.2037291

actor.0.weight f4 [256, 48]
0	0x3e42e981	0.19034387
1	0x3ddf1386	0.10892396
2	0xbdfa7f46	-0.12231307
3	0x3d9731fc	0.07382581
4	0x3e4a403c	0.19751066
5	0xbdf16088	-0.1178599
6	0x3e1468cd	0.14493103
7	0xbc0cec2e	-0.0086012315
8	0x3cc9ebd1	0.024648579
9	0x3ec7a3c7	0.3899214
10	0x3d1f15e8	0.03883925
11	0xbe0a75db	-0.13521521
12	0x3e82b0e4	0.25525582
13	0x3e252ba1	0.16129924
14	0xbda712bf	-0.081578724
15	0xbcc8d7fb	-0.02451705
16	0x3db4b25a	0.0882308
17	0xbdbde3bb	-0.09271952
18	0x3e84c6a0	0.2593279
19	0xbd3e1b16	-0.04641255
20	0xbd6aa07a	-0.05728195
21	0x3e44ce7e	0.19219396
22	0x3e6d8584	0.23195463
23	0xbdd93899	-0.10606498
24	0x3e565242	0.20929816
25	0x3cae1d72	0.021254275
26	0xbdfd6a59	-0.123738
27	0xbd2b28ba	-0.041786887
28	0x3e26128f	0.16218017
29	0xbd0b5ac9	-0.034022126
30	0xbddc780c	-0.107650846
31	0xbe00c9c6	-0.1257697
32	0x3c92be23	0.01791293
33	0x3e9dc7cc	0.30816495
34	0xbdc58a32	-0.09645499
35	0xbdb8b7a9	-0.090194054
36	0x3e7ab53d	0.244832
37	0x3dd23f77	0.10266011
38	0xbddc9d6a	-0.10772212
39	0xbdec6ff7	-0.11544793
40	0x3e753a78	0.23948085
41	0xbe03f41e	-0.12886092
42	0x3cf0f351	0.029412897
43	0xbdee0883	-0.11622717
44	0xbe8d42a4	-0.27589905
45	0x3e2542a0	0.16138697
46	0xbe2c51d6	-0.16828093
47	0x3c9fa838	0.019489393
48	0x3e7b9fdf	0.24572705
49	0x3e9d5327	0.30727503
50	0x3e39c3bf	0.18141077
51	0xbe36f556	-0.17867026
52	0xbd1c063a	-0.038091876
53	0x3d4fab21	0.05070031
54	0xbd8a6b7f	-0.067587845
55	0xbd1915af	-0.037374195
56	0xbe046930	-0.12930751
57	0x3d028baf	0.031871494
58	0x3cb477c6	0.022029769
59	0x3b81c910	0.003960736
60	0x3e4197e3	0.18905596
61	0x3ea4ecd6	0.3221194
62	0x3e8bfe98	0.27342677
63	0x3d2f5136	0.04280206
64	0xbe6cb395	-0.2311538
65	0xbe37d130	-0.17950892
66	0xbb791a7c	-0.003801017
67	0x3d40ecdd	0.04710089
68	0xbe163404	-0.1466828
69	0xbd44f442	-0.048084505
70	0xbe094655	-0.13405736
71	0x3d9239cc	0.0713993
72	0x3e963d70	0.29343748
73	0x3e9199a8	0.28437543
74	0x3ea7d464	0.3277923
75	0x3e00e080	0.1258564
76	0xbe260b00	-0.16215134
77	0xbdd98f22	-0.106230035
78	0xbd3816b8	-0.04494354
79	0x3d636b78	0.055522412
80	0xbe81ea3d	-0.25374022
81	0x3db4b687	0.08823877
82	0xbe4b38e5	-0.19845922
83	0x3b4f8a21	0.0031668025
84	0x3ed2850d	0.41117135
85	0x3e8d9869	0.27655342
86	0x3e987aa2	0.2978106
87	0xbd29674f	-0.04135829
88	0xbe9c8be5	-0.3057548
89	0xbd051865	-0.032493968
90	0xbaea1124	-0.0017857892
91	0x3d138ebc	0.036024794
92	0xbeb4b2e0	-0.3529272
93	0x3e29a49f	0.16566704
94	0xbe36dc32	-0.17857435
95	0x3e805fe7	0.25073168
96	0xbed86603	-0.4226533
97	0x3cfb6abf	0.030690549
98	0xbdc90d80	-0.09817028
99	0xbba5c486	-0.005058828
100	0x3dbf60a9	0.09344608
101	0x3df050cc	0.11734161
102	0xbd865538	-0.06559223
103	0x3d0905b9	0.033452723
104	0x3d4a6abf	0.049418207
105	0xbe8b0c3a	-0.27157766
106	0x3c815216	0.015786212
107	0xbe39f56f	-0.18160032
108	0xbef48d75	-0.47764173
109	0xbd73ae1f	-0.059492227
110	0xbc249539	-0.010045343
111	0xbe611496	-0.21980509
112	0x3d82fc41	0.0639577
113	0x3d9d6c30	0.07686651
114	0x3cf06c1f	0.029348431
115	0xbdedb7ca	-0.116073206
116	0x3dcbf57b	0.09958931
117	0xbe2bd1ee	-0.167793
118	0x3e0243a9	0.12721123
119	0xbd5e247e	-0.05423402
120	0xbe9f633b	-0.31130394
121	0xbde00d7e	-0.109400734
122	0x3cffbc4b	0.031217715
123	0xbdc1659c	-0.094432086
124	0x3d975e37	0.07391017
125	0xbc94744c	-0.01812186
126	0xbbfa66e2	-0.007641659
127	0xbdba9e01	-0.09112168
128	0x3e59a0d7	0.21252762
129	0xbec8dcf3	-0.3923107
130	0xbd857301	-0.06516076
131	0xbe1ac41f	-0.15113877
132	0xbeae542d	-0.34048596
133	0x3d5d4761	0.05402315
134	0xbe087c46	-0.13328657
135	0x3dbfe8c6	0.0937057
136	0xbb705bb3	-0.003667575
137	0xbd578d40	-0.05262494
138	0x3e15fb68	0.14646685
139	0xbd383ce9	-0.044979963
140	0x3d855688	0.06510645
141	0xbe8c8692	-0.2744642
142	0x3e03b6e4	0.12862736
143	0xbe5e5bd7	-0.21714722
144	0xbe60b839	-0.21945275
145	0xbd07491b	-0.033028703
146	0x3db3c440	0.08777666
147	0xbd43ad76	-0.047772847
148	0x3c80d98f	0.01572874
149	0xbdaa6d7e	-0.08321665
150	0xbd5ba446	-0.05362346
151	0xbd49a035	-0.04922505
152	0x3e3aeb1e	0.18253753
153	0xbdb9bdef	-0.0906943
154	0xbdc4853a	-0.095957235
155	0x3e81ac4d	0.25326768
156	0xbe4a4a29	-0.19754852
157	0x3d90b679	0.07066054
158	0x3d6721bf	0.056428667
159	0xbe37228a	-0.1788427
160	0xbd976354	-0.07391992
161	0x3e110c70	0.14164901
162	0xbd3b7cc6	-0.04577329
163	0xbdf8b07c	-0.12143037
164	0xbcbe7588	-0.023249403
165	0xbd8bbcfb	-0.068231545
166	0x3dbb6e8e	0.09151946
167	0x3ecb6117	0.3972251
168	0xbe07b196	-0.13251337
169	0x3c620d51	0.01379712
170	0x3e03e9c5	0.12882145
171	0x3d1a206c	0.037628576
172	0xbe076bef	-0.13224767
173	0x3daab2da	0.083348945
174	0xbc8cefdb	-0.017204216
175	0x3d90821c	0.070560664
176	0x3e296bd4	0.1654504
177	0x3dfe2b61	0.124106176
178	0x3e0e52bc	0.13898748
179	0x3ecd4317	0.40090248
180	0xbdd6920c	-0.10477075
181	0x3dde5717	0.10856455
182	0xbd604351	-0.054751698
183	0xbd3968cc	-0.045265958
184	0xbde574f0	-0.11203945
185	0xbc07c85f	-0.008287518
186	0x3e4c5db2	0.19957617
187	0x3d9602da	0.07324763
188	0x3e103003	0.14080815
189	0x3e0de126	0.13855419
190	0x3d8dbfe5	0.069213666
191	0x3f0557d3	0.52087134
192	0x3d6e9ba6	0.058253907
193	0xbdc6c0c6	-0.09704737
194	0x3db52f63	0.08846929
195	0x3df09450	0.11747038
196	0xbdffcff8	-0.12490839
197	0x3d99d54c	0.07511386
198	0x3d024ec7	0.03181341
199	0xbd63316f	-0.055467065
200	0x3d673223	0.0564443
201	0xbde378c1	-0.11107016
202	0xbc8b3a6e	-0.016995635
203	0xbcd27020	-0.025688231
204	0x3de59321	0.11209703
205	0xbe167d22	-0.14696172
206	0xbc366968	-0.011133529
207	0x3e0bd914	0.13657027
208	0x3d9a4098	0.075318515
209	0xbdc09447	-0.09403282
210	0x3cc2e024	0.02378852
211	0x3d96a005	0.0735474
212	0xbca498d4	-0.020092405
213	0xbd956dcb	-0.07296332
214	0x3c35fd6d	0.011107785
215	0x3ceda9be	0.029011603
216	0xbd5a8fa0	-0.053359628
217	0x3c6ff716	0.014646312
218	0xbd298b5f	-0.04139268
219	0xbc4c0873	-0.012453186
220	0xbe162542	-0.1466265
221	0xbe151ef0	-0.14562583
222	0x3ca31729	0.019908505
223	0x3d184382	0.037173755
224	0xbdabb994	-0.083850056
225	0xbe1b7e3a	-0.1518487
226	0x3ce6468a	0.028109808
227	0xbc75045b	-0.014954652
228	0xbbcbb5e0	-0.0062167495
229	0x3df2bc6e	0.11852346
230	0x3e03a33d	0.12855239
231	0x3d819474	0.06327143
232	0xbc9e9493	-0.019357955
233	0x3d001a61	0.031275157
234	0x3d284b53	0.04108746
235	0xbe05d58a	-0.1306974
236	0x3dc7a1bf	0.097476475
237	0xbc5f17a2	-0.013616474
238	0x3dbe06b9	0.09278626
239	0x3dd9bf33	0.106321715
240	0x3d21cc3c	0.039501414
241	0x3e0a5346	0.13508329
242	0x3e555752	0.20834091
243	0x3ddad5e0	0.10685325
244	0x3bba3a34	0.005683208
245	0x3c19802c	0.009368937
246	0x3dbd7555	0.09250895
247	0xbe5d0dd3	-0.21587305
248	0x3ea10c9e	0.3145494
249	0x3e6b40c3	0.22973923
250	0x3dab8d5a	0.0837657
251	0x3d8453bc	0.064612836
252	0x3d4da860	0.050209403
253	0x3d25154a	0.040303506
254	0x3e97c4f6	0.29642457
255	0xbdcb8f2a	-0.09939416

actor.0.bias f4 [256]
0	0xbe2ea5bc	-0.1705541
1	0x3dd0b291	0.10190309
2	0xbd849ebd	-0.064755894
3	0xbd377205	-0.044786472
4	0xbdc69591	-0.09696496
5	0x3bff3428	0.0077882
6	0xbceb2aee	-0.028706994
7	0x3d5eabff	0.054363247
8	0xbdb2471e	-0.08704971
9	0xbe4a0179	-0.19727124
10	0x3dbd6bfc	0.09249112
11	0x3d8f32b8	0.06992096
12	0x3e6e94d4	0.23298961
13	0x3e1ac517	0.15114246
14	0xbd794234	-0.06085415
15	0xbdb90545	-0.09034208
16	0xbe66274f	-0.22475933
17	0xbd7f410b	-0.06231789
18	0x3cd80b59	0.026372598
19	0xbdb5a297	-0.08868902
20	0xbe20229f	-0.15638207
21	0x3b740381	0.0037233534
22	0xbda07bda	-0.07836123
23	0xbe3287a6	-0.17434558
24	0xbe49af9c	-0.19695896
25	0x3d659dea	0.0560588
26	0xbdff4bd1	-0.12465633
27	0x3db9d3d3	0.090736054
28	0xbd3a43fe	-0.045475
29	0xbe94ecc4	-0.29086888
30	0xbd57ceb2	-0.052687354
31	0x3dbc37d8	0.09190339
32	0xbd416f88	-0.047225505
33	0x3db9be6d	0.09069524
34	0x3ce24ae1	0.027623596
35	0x3e02dca2	0.12779477
36	0xbeb8dd73	-0.36106452
37	0x3c002705	0.007821803
38	0x3e56edfc	0.20989221
39	0x3d9ad4d0	0.07560122
40	0xbdf676d4	-0.120343834
41	0x3d86e070	0.06585777
42	0xbd1de4a2	-0.03854812
43	0xbdd38b05	-0.1032925
44	0x3d92fa38	0.07176632
45	0x3e4bae26	0.19890651
46	0x3e2516b1	0.16121937
47	0xbd0c7761	-0.034293536
48	0x3e02d6f9	0.12777318
49	0x3da5fac0	0.081044674
50	0x3dcc8d07	0.09987836
51	0xbdd6e8c3	-0.104936145
52	0xbda7534a	-0.08170183
53	0x3df41b83	0.1191931
54	0x3d16e319	0.03683767
55	0xbd93afee	-0.0721129
56	0xbe0f071c	-0.13967556
57	0xbd757988	-0.059930354
58	0x3de0daba	0.10979219
59	0xbe13d849	-0.14437975
60	0x3e5d59b6	0.21616253
61	0xbca7d438	-0.020486936
62	0xbd2b54ce	-0.041828923
63	0x3c81cfc5	0.015846143
64	0x3e175ffc	0.14782709
65	0xbea737e6	-0.32659835
66	0x3db90fec	0.0903624
67	0xbdf07226	-0.11740522
68	0x3c8841a9	0.016632872
69	0x3cf5d371	0.03000805
70	0xbe0060fe	-0.12537
71	0xbdb391b1	-0.08768023
72	0xbe6c0c6c	-0.23051614
73	0x3da91cd1	0.082574494
74	0x3d776efd	0.06040858
75	0x3db82a02	0.08992387
76	0x3e081da9	0.13292564
77	0x3d84df42	0.064878955
78	0x3e0fd503	0.14046101
79	0x3de39667	0.11112671
80	0x3d098063	0.033569705
81	0x3c976d79	0.018484818
82	0x3e02aab0	0.12760425
83	0xbdcebc4a	-0.10094507
84	0x3d2ed4fc	0.042683586
85	0x3d91478f	0.07093727
86	0xbd3441c5	-0.044008035
87	0xbde9ad5c	-0.11410019
88	0xbe6d5cc2	-0.23179916
89	0xbdb4fbce	-0.088370904
90	0x3d2077e1	0.039176825
91	0xbd889d27	-0.066705994
92	0xbdc7edfd	-0.097621895
93	0xbc91fbdf	-0.017820297
94	0xbd8430f0	-0.064546466
95	0xbe1385bc	-0.14406484
96	0x3e054542	0.13014701
97	0x3e18694b	0.14883916
98	0x3dbaf47e	0.091286644
99	0xbe3f6717	-0.1869167
100	0x3ddba1ac	0.10724196
101	0x3db4245e	0.08795999
102	0xbdb50793	-0.08839335
103	0xbd8c70da	-0.06857462
104	0x3da05414	0.07828537
105	0xbd2392ae	-0.039934807
106	0x3dd7a34b	0.105291925
107	0xbd701ed6	-0.058623157
108	0x3e2c4200	0.16822052
109	0xbc875adc	-0.016522817
110	0xbe00797d	-0.12546344
111	0x3d1acb66	0.037791632
112	0x3e53c308	0.20679867
113	0xbd05b7fb	-0.03264616
114	0xbd9f8f64	-0.077910215
115	0xba0919f4	-0.00052300026
116	0xbe2eff0b	-0.17089479
117	0xbd4cd98b	-0.050012153
118	0x3e0c6fb0	0.1371448
119	0xbe4424ba	-0.19154635
120	0x3c1940f9	0.00935387
121	0xbc8f0cc0	-0.017462134
122	0x3dca7c49	0.09886987
123	0xbe20181b	-0.15634196
124	0xbd280be4	-0.041026965
125	0x3dc1abf5	0.09456626
126	0xbe2badc6	-0.16765508
127	0xbe27937e	-0.16364858
128	0xbe0ba38a	-0.13636604
129	0xbe377b8b	-0.17918222
130	0x3dc477e8	0.09593183
131	0x3e213279	0.1574191
132	0xbda5146e	-0.08060537
133	0x3d95ae78	0.07308668
134	0x3d01aecd	0.031660844
135	0x3d3adaec	0.045618936
136	0x3b88c1d5	0.004173497
137	0x3e92a309	0.2864001
138	0x3c3d9892	0.01157202
139	0x3df68dec	0.12038788
140	0xbcb9b735	-0.022670368
141	0xbd4e43f0	-0.05035776
142	0x3da2eff7	0.07955926
143	0x3e0f32c6	0.13984212
144	0x3c42fe1f	0.0119014075
145	0x3d926cac	0.07149634
146	0x3e316a9f	0.17325829
147	0x3e302364	0.17201
148	0x3d74972a	0.059714474
149	0xbd88a7ca	-0.06672628
150	0x3d988cb0	0.07448709
151	0x3e60bc1e	0.21946761
152	0xbdd380c0	-0.103272915
153	0x3e1037ba	0.14083758
154	0xbe1d3ec7	-0.15355979
155	0x3cd7cb60	0.026342094
156	0xbe118909	-0.14212431
157	0xbd37c211	-0.04486281
158	0x3e85ad84	0.26108944
159	0xbdb54397	-0.08850782
160	0x3e922883	0.28546533
161	0x39e29653	0.0004321808
162	0x3d52758e	0.05138164
163	0x3e6577f0	0.22409034
164	0xbd8b6453	-0.06806245
165	0x3d39e1dc	0.045381412
166	0xbdf805ed	-0.12110505
167	0xbd6d9ccf	-0.058010872
168	0x3da770b2	0.08175792
169	0xbd61934d	-0.055072118
170	0xbe6af51f	-0.22945069
171	0xbd5dab51	-0.05411846
172	0x3c1a8892	0.009431975
173	0x3dc858e4	0.097825795
174	0xbdbc4e47	-0.09194618
175	0xbca8e3e8	-0.020616487
176	0x3e88c620	0.26713657
177	0x3e8090ca	0.25110465
178	0xbe6b8f24	-0.23003823
179	0xbe20eb51	-0.15714766
180	0xbc2532e5	-0.010082935
181	0xbd44daea	-0.048060335
182	0xbca13516	-0.019678634
183	0xbde22526	-0.11042242
184	0x3d41be7c	0.0473008
185	0xbd8a5449	-0.06754357
186	0xbdc8a9d5	-0.09798018
187	0x3e511c9f	0.20421074
188	0x3df52c53	0.11971345
189	0xbd8051c1	-0.06265593
190	0x3dd1a135	0.10235826
191	0xbdcc1c74	-0.099663645
192	0xbd0c512d	-0.034257103
193	0x3dbcc464	0.09217146
194	0xbe113ad2	-0.14182594
195	0x3e0ddcd9	0.13853778
196	0xbc094a3f	-0.008379518
197	0xba694c15	-0.0008899582
198	0x3e73ed4b	0.23820989
199	0x3d84ccd0	0.064843774
200	0xbe3dbabe	-0.18528268
201	0x3e758dc4	0.2397986
202	0x3bf6381b	0.0075140125
203	0x3e146e04	0.14495093
204	0xbc9b2d23	-0.018942421
205	0x3e8e5ce1	0.27805236
206	0xbe428f34	-0.1899994
207	0x3d489f81	0.04898024
208	0x3db69102	0.08914377
209	0xbd86a519	-0.06574459
210	0xbc2eb164	-0.01066241
211	0xbdcc775c	-0.099837035
212	0xbe35e8a3	-0.17764525
213	0x3e37b116	0.17938647
214	0xbd7440a6	-0.059631966
215	0xbd6012fb	-0.0547056
216	0xbe120ca5	-0.14262636
217	0xbd5c2196	-0.053742968
218	0xbe57ac39	-0.21061791
219	0xbda9ce6d	-0.08291326
220	0xbd380c9f	-0.04493391
221	0x3e120d1c	0.14262813
222	0x3d8f2fda	0.06991549
223	0x3d99fcb8	0.075189054
224	0xbd100656	-0.035162292
225	0x3c6ba47a	0.014382476
226	0xbb97fe90	-0.0046385005
227	0x3d9133f2	0.07089986
228	0xbe62848c	-0.22120875
229	0xbde60832	-0.11232032
230	0x3d71b7e9	0.05901328
231	0xbe5b9eb0	-0.21447253
232	0xbe3418af	-0.17587541
233	0x3cb6a495	0.022295276
234	0xbdabf526	-0.08396368
235	0xbe1fb91c	-0.15597957
236	0xbd10dc46	-0.03536632
237	0xbe2062b6	-0.15662655
238	0x3dc9b03e	0.09848069
239	0xbd8c741e	-0.06858085
240	0x3d04c793	0.03241689
241	0x3ccce9d0	0.025013834
242	0x3dc91bb8	0.0981974
243	0x3e010ed7	0.12603317
244	0x3d4bbd05	0.04974081
245	0x3bf04597	0.0073325145
246	0x3d9de55c	0.077097625
247	0x3d829b0f	0.06377231
248	0x3e6c63c8	0.23084939
249	0xbba00271	-0.0048831035
250	0xbb5a514d	-0.003331262
251	0x3d62c9c1	0.05536819
252	0xbddbe1a3	-0.10736396
253	0x3c50ae5f	0.012736886
254	0x3d5931bf	0.053025957
255	0x3dbd5354	0.09244409

actor.2.weight f4 [128, 256]
0	0xbcd3d1a9	-0.02585681
1	0xbe479a68	-0.19492495
2	0xbdfb04fe	-0.122568116
3	0xbe07c437	-0.13258444
4	0xb9943300	-0.00028266758
5	0xbd1c8d17	-0.03822049
6	0x3e9ba827	0.30401728
7	0x3de2d5c4	0.11075929
8	0x3dac0b92	0.08400644
9	0xbd0627d6	-0.032752834
10	0xbd359d43	-0.04433943
11	0x3d0c048f	0.034184035
12	0xbdd7782f	-0.1052097
13	0x3ea9fc5f	0.33200356
14	0xbdbca0b6	-0.09210341
15	0xbdd721ba	-0.1050448
16	0xbd4f401b	-0.050598245
17	0xbd794cc2	-0.060864218
18	0xbee2c277	-0.4428899
19	0xbe2f0923	-0.17093329
20	0x3c855f9e	0.016280945
21	0xbd62d05e	-0.055374496
22	0xbd479a61	-0.04873121
23	0x3e7a7edd	0.24462457
24	0x3e3a8fed	0.18218966
25	0x3e3aa792	0.18227986
26	0xbdc37198	-0.09543151
27	0x3d048ec0	0.0323627
28	0x3e2393db	0.15974371
29	0x3c7195cb	0.014745186
30	0x3dbbabc4	0.09163621
31	0xbdf9a34c	-0.121893495
32	0xbe855c86	-0.26047152
33	0xbe1f6300	-0.15565109
34	0x3cbae077	0.022812111
35	0x3e59355c	0.21211761
36	0x3dd08166	0.10180931
37	0xbec1d16f	-0.37855098
38	0xbe83b972	-0.2572742
39	0xbcb2ccf1	-0.02182624
40	0x3d8e1938	0.06938404
41	0xbd2fe70a	-0.042944945
42	0x3e6c748a	0.23091331
43	0xbe0e35c9	-0.13887705
44	0x3d91f5b5	0.07126943
45	0xbe01a24e	-0.1265957
46	0x3dba50fb	0.09097477
47	0x3d95647d	0.07294557
48	0x3f02a9d4	0.5104039
49	0x3d7e726c	0.06212084
50	0xbe509f7e	-0.20373341
51	0x3d1f01ad	0.038819958
52	0x3c96a4c6	0.018389117
53	0xbe889a3d	-0.26680174
54	0xbdef962e	-0.116985664
55	0xbd8cebe1	-0.06880928
56	0x3de7dee5	0.11321811
57	0x3e46a048	0.1939708
58	0x3e231d29	0.15929092
59	0xbd5ec4e2	-0.05438698
60	0xbd82a572	-0.063792124
61	0x3cb5e2f8	0.022202954
62	0x3e3dcd9b	0.18535464
63	0x3c82fd38	0.015989885
64	0x3cfa2f2b	0.03054007
65	0x3e370f16	0.17876849
66	0x3e5836fa	0.21114722
67	0xbdbd4f84	-0.09243682
68	0x3eb80b92	0.35946327
69	0x3dc908bd	0.0981612
70	0x3d31de1e	0.043424718
71	0x3d846e97	0.06466406
72	0x3dda25c2	0.10651733
73	0xbe0e446f	-0.13893293
74	0xbdba222c	-0.09088549
75	0x3db1c589	0.08680255
76	0x3c1fd454	0.009755213
77	0x3f017731	0.50572497
78	0x3e0535d3	0.13008814
79	0x3debb1da	0.11508532
80	0x3d46b8d6	0.048516117
81	0x3db752b8	0.08951324
82	0xbd3d1873	-0.046165895
83	0xbde7797a	-0.11302467
84	0x3e83c3bd	0.25735274
85	0x3e5e3ed2	0.21703652
86	0x3e5c2b49	0.21500887
87	0xbe84aa2d	-0.25911084
88	0xbdd0f4cb	-0.102029406
89	0xbcbb1d07	-0.02284099
90	0xbd6b5b72	-0.057460256
91	0xbc3130ae	-0.010814829
92	0x3ead1155	0.33802286
93	0xbe50b690	-0.20382142
94	0x3dcdb303	0.100439094
95	0x3e798c2e	0.2436988
96	0xbdb02625	-0.086010255
97	0xbed6a776	-0.41924638
98	0x3d54bc74	0.051937535
99	0xbd4a77ff	-0.049430843
100	0xbd5e4814	-0.054267958
101	0xbe9c8ef6	-0.3057782
102	0x3dbcbab1	0.09215296
103	0xbe33842d	-0.1753089
104	0x3dce0f42	0.10061504
105	0x3d88f6fd	0.06687734
106	0x3d519cd7	0.051174965
107	0xbddfdf82	-0.109313026
108	0xbcbe39ea	-0.023220975
109	0xbd9e7abd	-0.07738254
110	0x3e291337	0.16511236
111	0x3e552271	0.2081392
112	0x3dffd5d7	0.124919586
113	0x3cc60270	0.024171084
114	0xbdbbba93	-0.091664456
115	0xbba5ea28	-0.005063314
116	0x3d056717	0.032569017
117	0x3dc749e5	0.09730891
118	0x3e214058	0.15747201
119	0xbda111d3	-0.07864728
120	0x3df1c038	0.11804241
121	0x3e858181	0.26075366
122	0x3e402325	0.18763407
123	0x3e20078b	0.15627877
124	0xbdaa1d00	-0.083063126
125	0x3c1b4f42	0.009479346
126	0x3e89978a	0.26873428
127	0x3da5b0ff	0.080904
128	0x3d12b931	0.035821144
129	0xbe0d2dd4	-0.13787013
130	0x3daf55c5	0.08561281
131	0xbe16cd4a	-0.14726749
132	0xbdd54708	-0.10413939
133	0xbdb57e21	-0.08861948
134	0xbf69c3f4	-0.91314626
135	0xbe25b959	-0.16183986
136	0x3f03bdab	0.51461285
137	0x3dcbcf02	0.09951593
138	0x3dc80afc	0.0976772
139	0x3e0e7b90	0.13914323
140	0xbe5bc655	-0.21462376
141	0xbd9f239c	-0.07770464
142	0x3e1db5d2	0.1540139
143	0x3d931499	0.07181663
144	0x3cf1b772	0.029506419
145	0x3ea0c7b6	0.31402367
146	0xbde50e01	-0.11184312
147	0xbdb0d084	-0.08633521
148	0xbd12b502	-0.035817154
149	0xbe4ef088	-0.20208943
150	0x3e214a7b	0.15751068
151	0xbdcc2c50	-0.099693894
152	0x3d87dc99	0.066338725
153	0x3e109334	0.14118654
154	0x3e8e2a87	0.2776682
155	0xbdb97b49	-0.09056718
156	0x3e93975e	0.28826421
157	0xbdf01f77	-0.117247514
158	0x3e2b7c36	0.16746601
159	0x3dcc32f5	0.09970657
160	0x3cd27c18	0.025693938
161	0x3d8cc17e	0.06872843
162	0xbdc8a553	-0.09797158
163	0x3dff7d83	0.12475111
164	0x3e456319	0.19276084
165	0xbaa2cadb	-0.0012420075
166	0x3e462989	0.19351782
167	0x3e93c19b	0.28858647
168	0x3d97c0ba	0.074098065
169	0xbdf1072c	-0.11768946
170	0x3bf24dfc	0.0073945504
171	0x3da39895	0.07988087
172	0xbe9c01f6	-0.30470246
173	0x3e0ad5e1	0.13558151
174	0xbebc7a13	-0.36811885
175	0x3e2d060e	0.16896841
176	0x3dc4c26b	0.09607395
177	0xbce10411	-0.02746776
178	0xbc277fba	-0.0102233235
179	0x3dd6f910	0.10496724
180	0x3d7c1762	0.061545737
181	0xbd41c183	-0.047303688
182	0x3dc92d3d	0.09823082
183	0x3e0c4d1b	0.13701288
184	0xbc84c331	-0.016206356
185	0x3d6e660f	0.0582028
186	0xbd6b846c	-0.057499334
187	0x3d12f113	0.035874438
188	0x3e89e9cd	0.26936188
189	0x3e8cfae9	0.2753518
190	0x3e447892	0.19186619
191	0x3e4b0b55	0.19828542
192	0xbca79438	-0.020456418
193	0xbd4b9581	-0.049703125
194	0x3ea32baa	0.3186925
195	0xbdc3e4de	-0.09565137
196	0xbe78d2b9	-0.24299134
197	0xbeaae282	-0.33375937
198	0xbea8bdff	-0.32957456
199	0xbe735acb	-0.23765104
200	0xbdbfbd8a	-0.093623236
201	0xbf22ea7a	-0.6363903
202	0x3db17333	0.08664551
203	0x3d86d7a2	0.065840974
204	0xbd3b42d9	-0.045718048
205	0xbdf75a86	-0.12077813
206	0xbe748092	-0.2387717
207	0xbe483142	-0.1955004
208	0x3d6ea1d4	0.0582598
209	0xbe46bd6c	-0.19408196
210	0xbe1ebdab	-0.1550204
211	0xbe30703a	-0.17230311
212	0x3e239f1d	0.15978666
213	0xbe63e5ed	-0.22255678
214	0x3cdca3aa	0.02693351
215	0x3c9a181f	0.01881033
216	0xbcd6798a	-0.026181001
217	0x3e4282aa	0.18995157
218	0xbd71ffd6	-0.059081875
219	0x3ea693d4	0.3253466
220	0xbe163363	-0.1466804
221	0x3e01cdcc	0.12676162
222	0xbc9701e9	-0.018433528
223	0xbc60f5ea	-0.0137305055
224	0xbef260fc	-0.47339618
225	0xbd8399d8	-0.06425828
226	0x3da363dd	0.07978032
227	0x3e2b9528	0.16756117
228	0x3e02dff7	0.12780748
229	0x3d0f79b1	0.035028163
230	0x3dde265a	0.10847159
231	0x3e0104db	0.12599508
232	0x3eb0d2f4	0.34535944
233	0xbd173128	-0.036912113
234	0x3ccd1032	0.025032137
235	0x3e10b400	0.14131165
236	0xbe347bac	-0.17625302
237	0x3dc49f50	0.09600699
238	0x3cde3771	0.027126046
239	0x3d3c564f	0.045980748
240	0x3df46cdd	0.119348265
241	0xbeb4cfd8	-0.35314822
242	0x3b6a147c	0.0035717776
243	0xbce8bca1	-0.028410258
244	0xbd8d7b70	-0.069083095
245	0xbdf7bf8b	-0.12097081
246	0x3c6afe6b	0.0143428845
247	0x3d961c2d	0.07329593
248	0xbef9bfea	-0.4877923
249	0x3d94ca27	0.0726512
250	0xbd309102	-0.04310704
251	0xbdfb51e6	-0.1227148
252	0x3dd6bfb1	0.10485781
253	0x3d7fd7df	0.06246173
254	0xbd64b80b	-0.05583958
255	0xbc86fc8f	-0.016477851
