CRL/模型集_selfplay/run_20260123-181652/slime_ppo_1M.pth (torch, 370495 bytes, 11 tensors)

critic.0.weight f4 [256, 48]
0.00874136 -0.028528638 -0.087524876 0.025485866 0.007945435 -0.10505615 0.022549428 0.040800262
0.09875928 0.2244319 -0.033785723 -0.024790157 0.07386755 0.061070204 -0.025355065 0.124796584
0.08169633 0.051116087 -0.016783483 -0.10893983 0.06094004 0.14865181 0.018255934 -0.14423732
0.14431888 -0.007217878 0.062157054 0.08619145 -0.14160687 -0.076851495 0.089089826 0.12123959
0.04541221 0.11937961 -0.09581912 -0.14227833 0.11387312 0.1299958 0.047395006 -0.0635906
0.10072217 0.028008802 -0.030605432 -0.1316295 0.035543222 0.2079648 -0.13032354 0.06438831
0.17046355 0.024837978 0.015896833 -0.09725338 -0.13558862 0.062219422 0.009476099 0.051634848
-0.28513294 0.056849055 0.07090716 0.14622332 0.13660504 -0.054489642 -0.0022395784 -0.1185999
0.053165782 -0.12058356 0.025955807 0.0032920924 -0.20006049 0.21930565 -0.08202792 0.12133181
0.22297479 -0.056789454 -0.0008294947 0.10113901 -0.09063875 -0.144009 0.0223555 -0.041787833
-0.1505417 0.11462062 -0.12757193 0.0852322 0.10424889 -0.009429478 0.030789446 -0.038269658
0.016807145 -0.13942805 0.016188225 0.028101621 -0.1979371 0.15534225 -0.0480618 -0.08903848
-0.117335826 0.070536844 -0.0030469417 0.10681015 -0.16775247 0.12302011 0.0022494742 -0.042181376
0.016018754 0.24375482 0.02123382 -0.014260706 -0.10033961 0.06601322 -0.028476566 -0.052373197
-0.109963246 0.14595744 0.008922352 -0.04572316 0.106122464 0.19029017 0.027339227 0.031647693
-0.12676877 0.10177801 -0.023354404 0.11241323 -0.13549897 0.09756544 0.014269633 0.019876815
0.094281875 0.23343448 0.22259186 -0.15659742 -0.21815526 -0.005537645 -0.016610667 -0.07493095
-0.013695433 -0.0032822941 -0.002007969 -0.03173005 0.10315079 0.19617262 -0.06349961 -0.117550164
-0.036340658 -0.011919017 -0.008171722 0.039033253 -0.03801745 0.06596359 -0.0006925132 -0.0090157
0.036452133 0.052558523 0.15597278 0.0008255698 0.1190538 0.053908713 0.0016817186 -0.049192097
-0.061538294 -0.08190202 -0.0056718397 -0.0049602776 0.17315115 0.04091888 0.20319803 -0.0144769605
-0.1586511 -0.097274795 0.014968475 -0.07858187 -0.010482049 -0.08400512 -0.005272894 0.012296916
0.17094314 0.012764343 0.5156022 -0.09117454 0.030057061 0.16082744 -0.0026084587 -0.010875516
-0.02289609 0.117169596 -0.03698822 -0.06412233 0.2221805 -0.12805982 0.41303286 -0.069047555
0.06063536 0.06900102 0.0054330416 0.0014736832 -0.12474983 -0.047025036 0.018142525 -0.033938665
-0.1565331 -0.13717106 -0.113530226 -0.087551765 0.20682569 -0.0922252 0.01041307 0.11890079
-0.05193752 -0.024415072 0.018254792 0.06532347 -0.058643688 -0.10871635 -0.25051054 -0.010883556
0.24262181 0.066321395 0.015328933 -0.03247562 -0.19058162 0.10666678 0.013697609 -0.036939792
-0.17873557 0.101134725 -0.21401434 0.08960652 0.24858506 0.018970696 0.027742129 -0.0036875333
0.04754565 -0.10072692 0.014522955 -0.004623889 0.037083805 0.12124249 -0.0953107 -0.018408325
-0.19349144 -0.08578187 0.024859097 0.049831223 0.012760043 -0.008599782 -0.034328043 -0.12550774
0.08305758 -0.3178761 -0.10087469 -0.19154619 -0.21514183 0.08872342 -0.058368724 -0.09734873
00000000: ec37 0f3c e4b4 e9bc 3e40 b3bd bcc7 d03c
00000010: 922d 023c ae27 d7bd 94b9 b83c 2d1e 273d
00000020: 4e42 ca3d 7ad1 653e e662 0abd ba14 cbbc
00000030: df47 973d c024 7a3d 6db5 cfbc 5a95 ff3d
00000040: 6850 a73d 1a5f 513d 847d 89bc d81b dfbd
00000050: 439c 793d 2e38 183e 788d 953c f3b2 13be
00000060: 54c8 133e f383 ecbb 6598 7e3d 2585 b03d
00000070: 6401 11be 5164 9dbd ba74 b63d 764c f83d
00000080: 2702 3a3d 4c7d f43d d13c c4bd 69b1 11be
00000090: 4f36 e93d 9e1d 053e 4421 423d ca3b 82bd
000000a0: 6d47 ce3d b772 e53c 3eb8 fabc e2c9 06be
000000b0: c595 113d b9f4 543e 8973 05be 05de 833d
000000c0: ff8d 2e3e 0479 cb3c 133a 823c c82c c7bd
000000d0: bed7 0abe cbd9 7e3d a441 1b3c 107f 533d
000000e0: f2fc 91be 8eda 683d c637 913d 91bb 153e
000000f0: 31e2 0b3e 8830 5fbd e4c5 12bb 81e4 f2bd
00000100: 5dc4 593d 83f4 f6bd 46a1 d43c 25c0 573b
00000110: a8dc 4cbe a991 603e 41fe a7bd d07c f83d
00000120: 8153 643e 0f9c 68bd 7272 59ba f821 cf3d
00000130: cfa0 b9bd 1877 13be e222 b73c b829 2bbd
00000140: 9a27 1abe 37be ea3d 37a2 02be 388e ae3d
00000150: 7180 d53d 197e 1abc 263a fc3c a5c0 1cbd
00000160: 23af 893c 3ac6 0ebe 2b9d 843c 5f35 e63c
00000170: 06b0 4abe 0a12 1f3e 73dc 44bd ce59 b6bd
00000180: c44d f0bd 9f75 903d 33af 47bb 48bf da3d
00000190: 4ec7 2bbe f8f1 fb3d ea6b 133b 61c6 2cbd
000001a0: c339 833c dd9a 793e 8cf2 ad3c bca5 69bc
000001b0: da7e cdbd f031 873d b047 e9bc 4785 56bd
000001c0: 6934 e1bd de75 153e 0f2f 123c 3548 3bbd
000001d0: bc56 d93d 6ddb 423e 84f6 df3c 03a1 013d
000001e0: accf 01be fd70 d03d bc51 bfbc e838 e63d
000001f0: 3ec0 0abe 64d0 c73d 2ecb 693c b4d4 a23c
00000200: db16 c13d 7309 6f3e 1fef 633e 135b 20be
00000210: 1864 5fbe 2275 b5bb 1813 88bc 6675 99bd
00000220: cf62 60bc c21b 57bb 2198 03bb 5ef7 01bd
00000230: b940 d33d 7ae1 483e 150c 82bd 24be f0bd
00000240: f1d9 14bd fb47 43bc b0e2 05bc 55e1 1f3d
00000250: 30b8 1bbd eb17 873d c689 35ba 96b6 13bc
00000260: d54e 153d 9b47 573d 54b7 1f3e 0d6b 583a
00000270: 7bd2 f33d 62cf 5c3d 1d6d dc3a a77d 49bd
00000280: 940f 7cbd 3fbc a7bd d7da b9bb d389 a2bb
00000290: 894e 313e 8e9a 273d 2513 503e c630 6dbc
000002a0: 6f75 22be 0238 c7bd 563e 753c 88ef a0bd
000002b0: e6bc 2bbc e00a acbd 3ec8 acbb 0179 493c
000002c0: b80b 2f3e 8921 513c 81fe 033f b8b9 babd
000002d0: 3a3a f63c f3af 243e adf2 2abb 382f 32bc
000002e0: 9590 bbbc 9df6 ef3d f680 17bd 9152 83bd
000002f0: 4983 633e 1d22 03be 0b79 d33e ce68 8dbd
00000300: c95c 783d 6850 8d3d a807 b23b 9a28 c13a
00000310: d77c ffbd 539d 40bd a29f 943c 4503 0bbd
00000320: 374a 20be 9276 0cbe 8982 e8bd 574e b3bd
00000330: 1dca 533e 91e0 bcbd 959b 2a3c 4282 f33d
00000340: 70bc 54bd 1e02 c8bc 138b 953c 50c8 853d
00000350: 5d34 70bd ada6 debd eb42 80be f150 32bc
00000360: da71 783e 83d3 873d 3426 7b3c 2805 05bd
00000370: d427 43be 1d74 da3d f06b 603c 2e4e 17bd
00000380: 7506 37be b91f cf3d 9326 5bbe a083 b73d
00000390: 158d 7e3e 6f68 9b3c 7643 e33c 8baa 71bb
000003a0: 3abf 423d ea49 cebd b0f1 6d3c fe83 97bb
000003b0: 30e5 173d fc4d f83d 4232 c3bd 0ecd 96bc
000003c0: 9f22 46be 68ae afbd 4ea5 cb3c d31b 4c3d
000003d0: 800f 513c 1ae6 0cbc 909b 0cbd 1a85 00be
000003e0: 181a aa3d a8c0 a2be 6497 cebd af24 44be
000003f0: 244e 5cbe a0b4 b53d 0b14 6fbd c55e c7bd

critic.0.bias f4 [256]
0.16368878 0.045246232 -0.07066742 0.043913458 -0.09626464 -0.037809644 0.092957325 -0.055861127
0.07706394 -0.009185205 -0.02676706 0.14585616 0.028346539 -0.020668004 0.0037701968 -0.15829772
-0.012406501 0.09193291 0.10499545 -0.15185821 0.06326693 0.026964903 0.083434515 -0.09459705
0.019508647 -0.12209985 -0.12713085 -0.20671071 0.06032942 0.0043254485 -0.1201469 0.16129532
0.04073027 -0.054424196 0.02769947 -0.046320688 0.07656232 -0.061971843 0.030041706 0.123076946
0.11282991 0.02548722 0.021439848 -0.08543537 0.09294046 0.027845168 -0.11751718 0.013551571
0.08734492 0.030750921 -0.12220179 -0.17130911 0.15499078 0.12912312 0.04558201 -0.14021331
0.09754657 0.1175176 0.050452083 0.13407551 0.01654758 0.017994003 0.060650997 0.023980409
0.2060527 0.07931247 -0.07121059 -0.07191264 -0.11955791 0.08326075 0.15418403 0.23175913
-0.20759664 0.16853295 -0.15115458 -0.11299532 0.005298306 -0.10995802 -0.0008807685 -0.14711371
0.14278871 0.016786283 0.10554047 0.06886902 -0.18777439 0.10347874 0.03618416 -0.108376265
0.0999069 -0.06078599 0.0058664256 -0.051179226 0.07292239 -0.27120444 -0.07475291 -0.06220059
0.023168122 -0.09766732 -0.012144026 -0.01315861 -0.0057839127 0.018610654 0.07933673 -0.04199501
-0.09928851 -0.01537443 -0.018863961 0.061387867 -0.06070758 0.015375094 -0.127888 -0.0038068492
0.113241255 -0.043469585 -0.023247654 0.13304555 0.114039145 0.12843125 -0.11117317 -0.14865729
0.11201771 0.10747822 -0.07385456 0.100358844 0.18757929 0.041724935 0.13553151 -0.10552099
0.14208232 -0.024758592 0.16964217 -0.10780118 -0.09977243 0.18751176 -0.12686715 -0.17768179
-0.118880786 -0.09195888 -0.023056755 0.08102424 -0.19704919 0.18831594 0.030716088 -0.07173766
0.07927634 -0.12741739 0.049722705 0.0722328 -0.01903329 -0.07941372 -0.20352808 0.0073290663
-0.03079569 -0.041572545 0.20675074 0.14878108 -0.21926923 -0.029863985 0.088481426 0.025626974
0.2657502 -0.093292005 0.06811802 0.12992162 -0.025863076 0.12960595 0.08094923 0.014059569
0.05093318 0.10534644 0.06527009 0.029970465 0.060896903 0.14845161 -0.04112637 -0.14553851
0.083157755 -0.034880117 -0.068750136 0.12195392 -0.10336639 0.09925414 -0.15344775 0.13975547
0.045017242 -0.2206494 0.23173377 -0.010129639 0.13252978 -0.01612513 0.100364156 0.05016381
0.08424178 -0.07365069 -0.12164674 -0.07933256 -0.016430039 -0.05512952 -0.06592827 -0.11323796
-0.077055424 0.10302214 0.0136732 0.15780002 0.1605155 0.20193514 0.034925047 0.0411194
0.09788521 0.017393075 0.122948624 0.093958355 -0.05396952 0.1307997 -0.0664318 0.0035567903
0.04838191 0.100573055 0.16865133 0.14661375 -0.0021342714 -0.008526457 0.188916 0.11823657
-0.15855967 -0.055858422 0.12328611 0.12712823 -0.051613275 0.07150993 0.0020466794 -0.2153161
0.13365248 0.17464264 -0.040646933 0.027420662 0.048371334 -0.12424077 0.16460378 0.023855915
0.2146873 0.16302936 0.13788216 -0.038221773 0.076532945 0.103379235 -0.0042695464 0.04413339
0.00984183 0.18285418 0.13409613 0.07527871 -0.0013940213 0.17995454 0.04912129 0.034380905
00000000: 089e 273e 1d54 393d 15ba 90bd 99de 333d
00000010: 6526 c5bd 49de 1abd 6960 be3d a3ce 64bd
00000020: b3d3 9d3d 8b7d 16bc 9846 dbbc 515b 153e
00000030: 0037 e83c f24f a9bc 6815 773b cc18 22be
00000040: a344 4bbc 5247 bc3d db07 d73d b880 1bbe
00000050: 1892 813d 80e5 dc3c b7df aa3d 19bc c1bd
00000060: 99d0 9f3c 7c0f fabd 972e 02be f9ab 53be
00000070: fb1b 773d 7ebc 8d3b 940f f6bd 9a2a 253e
00000080: c9d4 263d e8eb 5ebd 00ea e23c c3ba 3dbd
00000090: b5cc 9c3d 30d6 7dbd 061a f63c c40f fc3d
000000a0: 5e13 e73d 93ca d03c 9fa2 af3c bdf8 aebd
000000b0: 9157 be3d 8d1b e43c d9ac f0bd 6907 5e3c
000000c0: e5e1 b23d 5be9 fb3c ef44 fabd a86b 2fbe
000000d0: e7b5 1e3e da38 043e 34b4 3a3d 1494 0fbe
000000e0: 7fc6 c73d 11ad f03d d8a6 4e3d 174b 093e
000000f0: ca8e 873c 2968 933c 2e6d 783d 9072 c43c
00000100: 7bff 523e 946e a23d dcd6 91bd ef46 93bd
00000110: c7da f4bd 9d84 aa3d 6be2 1d3e 4452 6d3e
00000120: 3794 54be e793 2c3e 44c8 1abe 176a e7bd
00000130: 699d ad3b ac31 e1bd 60e3 66ba faa4 16be
00000140: 3437 123e 6383 893c 9a25 d83d 330b 8d3d
00000150: ee47 40be a9ec d33d d735 143d 60f4 ddbd
00000160: fd9b cc3d bbfa 78bd 253b c03b 4fa1 51bd
00000170: 5658 953d 4fdb 8abe 0e18 99bd 0cc6 7ebd
00000180: 13cb bd3c ce05 c8bd bdf7 46bc 3697 57bc
00000190: fa86 bdbb 5f75 983c 4c7b a23d f602 2cbd
000001a0: c657 cbbd 09e5 7bbc 9888 9abc d871 7b3d
000001b0: 83a8 78bd d1e7 7b3c 12f5 02be 557c 79bb
000001c0: 08eb e73d 2a0d 32bd dd71 bebc 183d 083e
000001d0: 5b8d e93d 7b83 033e c2ae e3bd 9e39 18be
000001e0: 8b69 e53d 8a1d dc3d 0f41 97bd f088 cd3d
000001f0: c914 403e c4e7 2a3d c6c8 0a3e 641b d8bd
00000200: 077e 113e 88d2 cabc adb6 2d3e ddc6 dcbd
00000210: 7d55 ccbd 1503 403e 76e9 01be 37f2 35be
00000220: c577 f3bd f054 bcbd 85e1 bcbc 09f0 a53d
00000230: 43c7 49be e5d5 403e 4ea0 fb3c 32eb 92bd
00000240: a25b a23d b479 02be 09aa 4b3d caee 933d
00000250: b4eb 9bbc a9a3 a2bd aa69 50be aa28 f03b
00000260: 3e47 fcbc f947 2abd 77b6 533e 115a 183e
00000270: 1d88 60be 51a5 f4bc c035 b53d a9ef d13c
00000280: 6910 883e e10f bfbd 7681 8b3d 2c0a 053e
00000290: cdde d3bc 6cb7 043e b6c8 a53d 1b5a 663c
000002a0: 4f9f 503d e0bf d73d 53ac 853d 9f84 f53c
000002b0: 086f 793d b303 183e 2074 28bd 0c08 15be
000002c0: 9d4e aa3d 74de 0ebd dfcc 8cbd fac2 f93d
000002d0: c2b1 d3bd c145 cb3d 6821 1dbe 0f1c 0f3e
000002e0: 0064 383d ebf1 61be 9e4b 6d3e c9f6 25bc
000002f0: e3b5 073e d918 84bc b98b cd3d 9178 4d3d
00000300: f486 ac3d 2cd6 96bd ed21 f9bd 1c79 a2bd
00000310: 4a98 86bc 7ecf 61bd 6705 87bd 4ee9 e7bd
00000320: 3ccf 9dbd 46fd d23d 8f05 603c 5496 213e
00000330: 2d5e 243e 16c8 4e3e 910d 0f3d d16c 283d
00000340: 0a78 c83d ec7b 8e3c 7dcc fb3d 3d6d c03d
00000350: 250f 5dbd 5bf0 053e 650d 88bd 0a19 693b
00000360: 1c2c 463d 3ff9 cd3d efb2 2c3e ea21 163e
00000370: 22df 0bbb 8db2 0bbc 3273 413e 0426 f23d
00000380: 775d 22be cdcb 64bd 6e7d fc3d e72d 023e
00000390: 7168 53bd cc73 923d 9521 063b d37b 5cbe
000003a0: 32dc 083e 85d5 323e 667d 26bd 4ca1 e03c
000003b0: 0521 463d f271 febd e58d 283e 7b6d c33c
000003c0: fdd6 5b3e 2bf1 263e fb30 0d3e 6f8e 1cbd
000003d0: 4ebd 9c3d 7eb8 d33d 8de7 8bbb 37c5 343d
000003e0: a03f 213c 203e 3b3e 7f50 093e b92b 9a3d
000003f0: 98b7 b6ba 0146 383e 6833 493d fed2 0c3d

critic.2.weight f4 [128, 256]
-0.060286406 -0.02798235 -0.035493243 -0.014267574 0.05787432 -0.0333618 0.021199448 0.034717202
0.0276086 -0.028495932 0.027520226 0.026994761 0.027077798 -0.046152953 -0.01475511 0.053695355
-0.018013187 0.05211739 -0.052900188 -0.017272856 0.02507269 0.054451216 -0.06337195 0.030968288
0.041094165 -0.027079914 0.011983122 0.03462788 -0.0047390466 -0.07313462 -0.05408583 0.01387614
-0.02109255 -0.0002331166 0.012344232 0.0127205495 -0.013108305 -0.019220047 0.012384119 -0.03758963
0.03891884 0.0019308699 0.014714488 0.0032258984 -0.06585539 -0.025914077 0.01539712 0.026818955
0.03605376 0.046718337 -0.015702454 0.04834926 -0.049310435 0.017068777 -0.043516513 -0.0494072
0.027710298 -0.019299073 -0.02375652 0.001273449 0.041639898 -0.06405023 -0.010515741 -0.019133871
-0.045610394 0.027332656 -0.03297066 0.04351582 -0.040045816 -0.03946538 -0.0049854014 0.012754683
-0.010922156 -0.04813347 -0.059305456 -0.058020633 -0.05514296 -0.0059143146 -0.04126019 -0.053315397
-0.011150605 -0.035998896 -0.023223713 -0.034035895 0.036740065 -0.059061687 -0.06557743 0.0056248913
-0.0018258387 0.019977175 -0.0006182676 -0.058391295 0.026797706 0.06466999 0.0062924353 -0.014114022
-0.038327876 -0.014788781 0.011621087 0.032334715 -0.007899598 -0.027704002 0.0033429323 0.047181375
0.044989716 0.017572496 -0.01647074 -0.024695719 0.044334408 -0.019117346 0.027993174 -0.063827366
0.023980375 0.050092235 -0.02541673 0.042956103 0.058957387 -0.0605657 -0.035755858 0.02928376
-0.034644343 -0.05987879 0.01445239 0.026542762 -0.023132011 0.011934235 -0.017750377 -0.044628866
0.017760377 0.05314589 -0.012110607 0.055349868 -0.05931578 0.03788352 -0.04521517 -0.05495738
-0.009913883 -0.000346886 -0.02963921 -0.060229387 0.01066992 0.011881773 -0.011393493 0.036524545
-0.028859464 -0.011437476 -0.051087942 0.04898368 0.041498058 -0.03278489 0.048704866 -0.06265384
-0.007465491 0.014755569 -0.051276434 -0.05601398 -0.05006121 -0.031059576 -0.049277704 0.023901563
0.022950534 0.04440142 -0.05099987 -0.05593545 -0.042412385 0.011529028 -0.004208495 -0.02566614
0.049998038 -0.06274842 -0.06556769 0.0286406 0.052799612 0.032679092 -0.031360522 0.046593234
-0.033960544 -0.05091407 -0.04421693 0.041634664 0.05788813 0.040236738 0.045576297 0.05380917
-0.049688593 0.055597994 0.04406457 -0.0045066373 0.019941142 -0.031155707 -0.0205218 -0.018703587
-0.06000376 0.0012268424 0.05647876 0.02734475 0.053906884 -0.0032141272 -0.06219117 -0.041722104
-0.060258627 -0.03285325 -0.00019229951 -0.057458635 -0.05000224 0.04903391 -0.034054693 -0.031373244
0.012150273 0.041923203 0.021596676 -0.003917398 -0.014513383 -0.053242154 0.0010482931 -0.02337077
0.025666058 -0.010261528 -0.028265111 -0.019986767 -0.050611228 0.03076255 0.054696634 0.022430554
0.0015804481 0.024604838 -0.004375351 -0.01956941 -0.010557599 -0.02059681 0.019734127 -0.06350756
-0.018997625 -0.048031285 -0.03134664 -0.048552178 -0.010112295 -0.010796829 -0.06427053 -0.043233357
0.0006675524 -0.037316367 -0.0680929 -0.054035157 0.014162361 0.027808167 -0.00087466836 -0.06595837
0.02720618 -0.04225112 -0.029963791 -0.0042566676 -0.036212366 -0.0555693 0.016761683 -0.065575466
00000000: e1ee 76bd 3e3b e5bc 5d61 11bd 8bc2 69bc
00000010: 9f0d 6d3d 62a6 08bd 77aa ad3c a033 0e3d
00000020: 6e2b e23c 4d70 e9bc 1972 e13c 1e24 dd3c
00000030: 42d2 dd3c e10a 3dbd 6bbf 71bc a9ef 5b3d
00000040: 6490 93bc 0b79 553d dead 58bd ce7f 8dbc
00000050: 3e65 cd3c 3d08 5f3d 27c9 81bd 35b1 fd3c
00000060: 5b52 283d b2d6 ddbc db54 443c f7d5 0d3d
00000070: 014a 9bbb 9bc7 95bd 1a89 5dbd c058 633c
00000080: 49ca acbc c370 74b9 763f 4a3c da69 503c
00000090: 37c4 56bc 5c73 9dbc c3e6 4a3c 95f7 19bd
000000a0: 5d69 1f3d 3e15 fd3a 0915 713c 9869 533b
000000b0: 31df 86bd c249 d4bc 3444 7c3c 6db3 db3c
000000c0: 1cad 133d ba5b 3f3d 6fa2 80bc e009 463d
000000d0: bdf9 49bd d2d3 8b3c 5f3e 32bd 345f 4abd
000000e0: b500 e33c 1719 9ebc 099d c2bc dce9 a63a
000000f0: 998e 2a3d c42c 83bd 374a 2cbc a3be 9cbc
00000100: f7d1 3abd bce8 df3c 3e0c 07bd a53d 323d
00000110: 1507 24bd 73a6 21bd 945c a3bb 05f9 503c
00000120: d8f2 32bc 9a27 45bd 47ea 72bd 0ba7 6dbd
00000130: 96dd 61bd decc c1bb 7200 29bd 3f61 5abd
00000140: 07b1 36bc 9473 13bd a83f bebc 3969 0bbd
00000150: c07c 163d abea 71bd 764d 86bd 0251 b83b
00000160: fb50 efba 2ca7 a33c 3c13 22ba b62b 6fbd
00000170: dd86 db3c b371 843d c630 ce3b 803e 67bc
00000180: b1fd 1cbd a54c 72bc 5f66 3e3c 6871 043d
00000190: 516d 01bc 81f3 e2bc 1915 5b3b 4241 413d
000001a0: 2347 383d 32f4 8f3c a5ed 86bc ad4e cabc
000001b0: ff97 353d fb9b 9cbc f151 e53c ecb7 82bd
000001c0: 7e72 c43c 842d 4d3d bf36 d0bc bdf2 2f3d
000001d0: 4d7d 713d bd13 78bd bc74 12bd 7fe4 ef3c
000001e0: 3ae7 0dbd 7643 75bd b8c9 6c3c 3570 d93c
000001f0: 587f bdbc cf87 433c 3d69 91bc c2cc 36bd
00000200: 367e 913c 81af 593d 916b 46bc 8bb6 623d
00000210: 1af5 72bd c02b 1b3d 8b33 39bd fd1a 61bd
00000220: d76d 22bc 40de b5b9 eecd f2bc 17b3 76bd
00000230: e3d0 2e3c c5ab 423c c6ab 3abc c39a 153d
00000240: af6a ecbc 4064 3bbc 9741 51bd 1ca3 483d
00000250: def9 293d 7349 06bd c17e 473d a850 80bd
00000260: 14a1 f4bb 58c1 713c 3d07 52bd ea6e 65bd
00000270: fc0c 4dbd a770 febc 6bd7 49bd 36cd c33c
00000280: c202 bc3c 43de 353d 3de5 50bd 921c 65bd
00000290: 9cb8 2dbd 40e4 3c3c 6ae7 89bb cc41 d2bc
000002a0: beca 4c3d 3e82 80bd 5a48 86bd b19f ea3c
000002b0: 6844 583d 83da 053d e473 00bd 8cd8 3e3d
000002c0: 361a 0bbd 468b 50bd d01c 35bd 1c89 2a3d
000002d0: 1b1c 6d3d 47cf 243d 36ae 3a3d 0167 5c3d
000002e0: 4486 4bbd b9ba 633d 0d7d 343d 6aac 93bb
000002f0: 9b5b a33c 413a ffbc 551d a8bc 4438 99bc
00000300: 81c6 75bd 00ce a03a 4656 673d 1902 e03c
00000310: 77cd 5c3d 1ba4 52bb 2bbc 7ebd cce4 2abd
00000320: c0d1 76bd 2191 06bd 02a4 49b9 bf59 6bbd
00000330: 26cf 4cbd c8d7 483d ef7c 0bbd 3b81 00bd
00000340: f011 473c aab7 2b3d 83eb b03c 845d 80bb
00000350: 8ac9 6dbc 7214 5abd e166 893a 0f74 bfbc
00000360: a041 d23c f81f 28bc 3c8c e7bc 4abb a3bc
00000370: b84d 4fbd be01 fc3c 9409 603d 48c0 b73c
00000380: 0a27 cf3a 1690 c93c 1b5f 8fbb 0750 a0bc
00000390: c8f9 2cbc a4ba a8bc 77a9 a13c 4010 82bd
000003a0: e8a0 9bbc 74bc 44bd 5665 00bd a6de 46bd
000003b0: 0aae 25bc 2fe5 30bc 45a0 83bd 7615 31bd
000003c0: affe 2e3a 0cd9 18bd 4a74 8bbd f853 5dbd
000003d0: 3f09 683c f4cd e33c 004a 65ba 2f15 87bd
000003e0: 7fdf de3c 830f 2dbd a076 f5bc 847b 8bbb
000003f0: 6b53 14bd a29c 63bd cc4f 893c 6e4c 86bd

critic.2.bias f4 [128]
0.0031177322 0.030720383 0.032635864 -0.056425165 0.045567382 -0.006823676 -0.023480467 0.0051723383
-0.022101043 0.05686758 0.029756762 -0.040834952 0.08923258 -0.04221401 0.07322856 -0.0045218775
0.06797138 0.066199206 0.080538094 0.074851446 0.047487345 -0.061470613 0.03259859 0.08217542
-0.04385737 0.06884721 -0.0008526866 0.009076179 -0.061350446 0.043745097 -0.0117469095 0.070618324
0.023109663 0.07185575 0.01243873 -0.013407831 0.044849474 0.075660355 0.017581517 -0.026027637
0.043885853 0.10434875 0.050607566 -0.049740434 0.0027395175 0.10546969 0.048282973 0.046529345
-0.06882489 -0.006631328 -0.03511315 0.05298409 0.03800651 0.044476084 0.03596976 0.0072087604
-0.028401462 -0.10625214 -0.01613568 0.106105134 0.03490697 0.036129955 0.086783506 -0.0038880003
0.09529803 0.027424844 0.046349566 -0.008810566 0.023515949 0.025554717 0.044085734 0.04915809
0.063723415 0.10316592 0.0751045 0.049918815 -0.03984177 0.0067226132 -0.025223734 -0.025127232
0.07816883 -0.0067254645 -0.0023804163 -0.0085110385 0.022887198 0.02803113 0.08940699 0.038858496
1.06477855e-05 0.021734595 0.055518787 -0.010149505 -0.024118928 -0.017244762 0.017562948 0.017961893
-0.0361065 0.096178405 0.05757233 0.014779894 0.004466871 0.025193801 0.0390532 -0.00091309403
0.013537172 0.0011664709 0.055233873 0.08824461 0.049874652 0.059358556 -0.017145095 -0.0035596504
0.056402422 -0.05883313 -0.007641384 0.019108728 0.0105919 -0.064966656 -0.019679775 0.037082396
-0.04033097 0.035246085 -0.019068317 0.123840205 0.07357118 -0.01978138 -0.02282621 -0.16540596
00000000: de52 4c3b 50a9 fb3c 2fad 053d 131e 67bd
00000010: dda4 3a3d 2599 dfbb 1c5a c0bc b87c a93b
00000020: 3f0d b5bc fbed 683d 74c4 f33c 8d42 27bd
00000030: 92bf b63d 99e8 2cbd dbf8 953d 422c 94bb
00000040: 9434 8b3d 7393 873d 28f1 a43d b74b 993d
00000050: 1782 423d 9cc8 7bbd 1986 053d 964b a83d
00000060: c9a3 33bd c4ff 8c3d d486 5fba 41b4 143c
00000070: 9b4a 7bbd 0f2e 333d 1c76 40bc 57a0 903d
00000080: 7a50 bd3c 1c29 933d d1cb 4b3c 85ac 5bbc
00000090: 15b4 373d d1f3 9a3d 1d07 903c e937 d5bc
000000a0: a7c1 333d ccb4 d53d e149 4f3d a0bc 4bbd
000000b0: 7a89 333b 7e00 d83d 5ec4 453d 8e95 3e3d
000000c0: 10f4 8cbd 9c4b d9bb ced2 0fbd d805 593d
000000d0: b7ac 1b3d 8e2c 363d 0755 133d 7737 ec3b
000000e0: 2faa e8bc b99a d9bd f92e 84bc a64d d93d
000000f0: 9cfa 0e3d 01fd 133d 8dbb b13d d2cd 7ebb
00000100: 9d2b c33d 11aa e03c 0bd9 3d3d 315a 10bc
00000110: 85a4 c03c 2058 d13c 3e93 343d fe59 493d
00000120: 6c81 823d a748 d33d 63d0 993d ac77 4c3d
00000130: 2031 23bd 5e49 dc3b 01a2 cebc a0d7 cdbc
00000140: fb16 a03d 4961 dcbb c200 1cbb e271 0bbc
00000150: ef7d bb3c 8aa1 e53c 031b b73d 162a 1f3d
00000160: e4a3 3237 c00c b23c ab67 633d 1c4a 26bc
00000170: 0f95 c5bc e344 8dbc 2ce0 8f3c d224 933c
00000180: 69e4 13bd 2ff9 c43d f7d0 6b3d 5e27 723c
00000190: d45e 923b 3b63 ce3c 40f6 1f3d b45c 6fba
000001a0: 04cb 5d3c 45e4 983a ea3c 623d 97b9 b43d
000001b0: 5d49 4c3d f521 733d df73 8cbc 0649 69bb
000001c0: 3a06 673d 02fb 70bd 9364 fabb e889 9c3c
000001d0: a689 2d3c 3d0d 85bd 7b37 a1bc b6e3 173d
000001e0: 1632 25bd 335e 103d 2935 9cbc ef9f fd3d
000001f0: 7dac 963d 900c a2bc 08fe babc 2e60 29be

critic.4.weight f4 [1, 128]
-0.023040075 -0.07755341 0.26018286 -0.11477916 -0.13572073 0.21776244 -0.23683514 -0.0736641
0.3274706 0.13578708 -0.39795616 -0.13735689 0.17175046 -0.12822968 -0.19244097 -0.12799294
-0.18761565 -0.19908266 0.49660704 0.52188885 -0.80981416 -0.06505114 0.089250155 0.20095551
-0.14557989 0.16828194 0.12858047 0.09452058 -0.0060452386 -0.2325995 -0.13544449 0.11929122
0.9230168 -0.13008535 -0.20962976 -0.10831927 -0.21249005 -0.2589934 0.27151233 -0.08337767
-0.19825065 0.15883401 -0.060171876 -0.044328745 -0.22244088 0.1965899 0.5356346 0.17006133
0.56701 -0.32147062 -0.6036867 0.07725356 0.2682506 0.2555769 -0.31013224 0.09923882
-0.40252754 0.32262865 -0.20995738 0.23207925 0.082345985 0.07484769 0.32739168 0.11905209
0.17880785 0.16281088 0.14427339 -0.33298337 -0.24526 -0.35751727 -0.14486372 -0.12349425
-0.08701185 0.23985007 0.08561651 0.21344529 0.13235548 -0.3069483 -0.3999672 0.05742665
0.36184576 0.6780883 -0.08334039 -0.17130964 -0.17995903 0.11698823 0.33824053 0.12243517
-0.35984048 -0.19610019 -0.21694678 0.3890401 -0.69113415 -0.7080543 -0.10318381 -0.15911825
-0.1966144 -0.259557 0.18420365 -0.1597728 0.3032871 0.15590265 -0.1869233 0.43126175
0.18338591 -0.31720594 0.19553891 -0.3772146 0.13632548 0.31763947 -0.3578763 -0.077409424
0.33686587 0.0021827198 -0.30674648 0.34800363 0.16244638 -0.26117226 0.07796452 0.14248626
-0.026760582 -0.47404173 0.10235697 -0.28986672 -0.09605286 -0.4767453 0.17044613 0.41215304
00000000: 8abe bcbc 52d4 9ebd b036 853e 5611 ebbd
00000010: 60fa 0abe 1efd 5e3e e984 72be 34dd 96bd
00000020: 3aaa a73e c50b 0b3e e9c0 cbbe 49a7 0cbe
00000030: 5adf 2f3e a44e 03be 3f0f 45be 9510 03be
00000040: 511e 40be 53dc 4bbe 4743 fe3e 829a 053f
00000050: fb4f 4fbf 8839 85bd c9c8 b63d 48c7 4d3e
00000060: e512 15be 1a52 2c3e 99aa 033e 0194 c13d
00000070: 2317 c6bb 902e 6ebe f6b1 0abe f54e f43d
00000080: d44a 6c3f 1835 05be 2fa9 56be 7ed6 ddbd
00000090: fe96 59be c89a 84be aa03 8b3e e9c1 aabd
000000a0: 3802 4bbe 62a5 223e c976 76bd 0f92 35bd
000000b0: 8bc7 63be dd4e 493e 591f 093f 8f24 2e3e
000000c0: 9127 113f cc97 a4be 368b 1abf 1d37 9e3d
000000d0: 2558 893e fada 823e a7c9 9ebe b93d cb3d
000000e0: 1718 cebe 952f a53e 11ff 56be 2fa6 6d3e
000000f0: 03a5 a83d bf49 993d e29f a73e 95d1 f33d
00000100: 6819 373e e5b7 263e 67bc 133e cc7c aabe
00000110: 7025 7bbe 810c b7be 2857 14be 8eea fcbd
00000120: 4533 b2bd 429b 753e b557 af3d 6791 5a3e
00000130: 3288 073e 5428 9dbe 80c8 ccbe 3538 6b3d
00000140: d943 b93e 3297 2d3f 5eae aabd cb6b 2fbe
00000150: 2e47 38be 8697 ef3d dd2d ad3e 4abf fa3d
00000160: 033d b8be 7dce 48be 4c27 5ebe 4430 c73e
00000170: 2bee 30bf 0c43 35bf 0952 d3bd e5ef 22be
00000180: 4955 49be a8e4 84be e29f 3c3e 7b9b 23be
00000190: 7248 9b3e f2a4 1f3e d268 3fbe 57ce dc3e
000001a0: 84c9 3b3e d168 a2be 5a3b 483e 4622 c1be
000001b0: e898 0b3e a4a1 a23e 903b b7be d588 9ebd
000001c0: af79 ac3e f60b 0f3b e00d 9dbe 882d b23e
000001d0: 5858 263e 5fb8 85be ddab 9f3d ebe7 113e
000001e0: 0239 dbbc 99b5 f2be 88a0 d13d 6969 94be
000001f0: 5db7 c4bd f617 f4be 6e89 2e3e b905 d33e

actor.0.weight f4 [256, 48]
-0.10514961 0.103872575 -0.049083553 0.013828855 -0.1470284 0.15897678 -0.11220207 0.10060782
0.13210227 0.3647894 -0.027940517 0.15308842 0.0069465684 0.00407095 0.071070306 -0.079732835
-0.10434328 0.16538113 -0.023342794 0.15691298 -0.021414299 0.05697283 0.07924994 0.050057676
0.024735615 0.06292494 -0.022517318 0.008863913 -0.06842527 0.13648245 -0.017754564 0.049312234
0.016487291 0.07045028 0.08918225 -0.0335273 -0.069232315 0.059404626 0.12831292 0.03427377
0.10336086 0.00026966463 -0.133422 0.14408338 -0.08325818 0.16058183 -0.08977131 0.007353165
-0.02524876 -0.035171233 0.03146554 -0.007409663 -0.13223132 -0.15066892 0.018762026 -0.09992281
-0.21126187 0.22056676 -0.13131736 0.02067739 -0.104827 0.05645862 0.032921758 0.15458386
-0.16167912 0.003937681 -0.037886795 0.1065989 -0.021107394 0.21968746 0.052213673 -0.22191317
0.045107525 -0.0637929 0.072132744 0.066434085 -0.119050495 -0.0945602 -0.05346742 0.026383698
-0.15970007 0.14736038 -0.13741796 -0.22463676 -0.101902105 0.015927086 0.0007795747 0.11528911
0.01793511 0.041544225 -0.043026593 0.11990933 -0.27561453 -0.012117539 -0.14058252 -0.10122326
0.11833164 -0.16876708 0.2139085 -0.16923718 -0.16330107 -0.039172392 -0.11333911 -0.059841555
0.0033774583 0.12602986 -0.02480203 0.21816018 -0.023012538 -0.15381156 -0.031188728 -0.14406408
-0.12881419 0.047995456 0.11585108 0.081291005 -0.152824 -0.029044671 -0.076454215 0.25134587
0.054732513 -0.038736362 0.07971032 -0.14117432 0.009453506 -0.0814323 -0.114133395 -0.051694885
-0.08980099 0.14663304 0.09009783 0.15335019 -0.12048196 0.036111917 -0.1605897 0.043299045
0.0395594 0.03291521 0.11040358 0.05001777 -0.100425005 0.01148334 -0.1192086 0.23348089
-0.0865207 -0.03491666 -0.03458479 0.08826299 -0.100737564 -0.047361948 0.037629943 0.029036961
0.0027026876 0.3120365 -0.11489304 0.22140107 0.03448038 -0.06449235 0.013650476 -0.049080506
0.03586106 -0.12356339 0.07178683 0.106521875 0.052761003 0.05492466 -0.15295684 0.1206016
-0.07202799 -0.16944452 0.05212388 0.15751608 -0.14618327 0.13883224 0.048756465 0.18959476
-0.01090649 0.23286283 -0.058858074 0.1895173 -0.16226451 -0.018732078 -0.08209915 0.009877135
-0.1333322 -0.0524935 0.1378622 0.015619788 -0.1764016 0.22923927 -0.15365607 -0.045842174
0.15606447 0.15883327 -0.06569816 0.074785344 -0.079554014 0.0016859447 -0.10421767 0.06402243
-0.14935626 -0.35299262 -0.080601685 -0.15231341 0.08828536 0.16076855 0.034363788 -0.07596136
0.121726036 0.06594109 0.03183106 -0.05156277 -0.021890387 -0.43982524 -0.028594887 -0.093598835
0.0372451 0.0018902499 0.09761945 0.041152943 0.00039200738 -0.10101047 -0.07124339 -0.092103966
-0.122822165 -0.29644212 -0.06650242 0.019652588 0.08196114 0.16701224 0.11326386 -0.070485376
-0.118901394 0.1707762 -0.04687605 0.038184125 -0.15771727 -0.38991588 -0.062104717 0.07339691
-0.0032793041 -0.16210093 0.045214813 -0.07182956 -0.10522519 0.049149744 -0.041471325 0.01987592
-0.16659452 0.06397655 0.19242248 0.29185772 0.073151544 0.04663026 -0.0069222953 0.11916805
00000000: ae58 d7bd 25bb d43d d60b 49bd 6c92 623c
00000010: 9d8e 16be cfca 223e 33ca e5bd 790b ce3d
00000020: d145 073e adc5 ba3e 83e3 e4bc 36c3 1c3e
00000030: 0aa0 e33b 9b65 853b 4f8d 913d f84a a3bd
00000040: eeb1 d5bd ac59 293e 6339 bfbc ccad 203e
00000050: 0a6d afbc 585c 693d cb4d a23d 4709 4d3d
00000060: 58a2 ca3c cade 803d 3d76 b8bc f239 113c
00000070: 8c22 8cbd 0ec2 0b3e 0572 91bc a0fb 493d
00000080: 5b10 873c 3d48 903d 2fa5 b63d ec53 09bd
00000090: acc9 8dbd 4452 733d 7664 033e a762 0c3d
000000a0: dcae d33d c661 8d39 c79f 08be 988a 133e
000000b0: 4483 aabd 906f 243e 05da b7bd d2f2 f03b
000000c0: 7dd6 cebc b60f 10bd 03e2 003d c2cc f2bb
000000d0: a667 07be f448 1abe d2b2 993c 55a4 ccbd
000000e0: 0855 58be 41dc 613e 0f78 06be a163 a93c
000000f0: 8aaf d6bd 2741 673d f7d8 063d 3b4b 1e3e
00000100: 368f 25be aa07 813b 2f2f 1bbd 8650 da3d
00000110: 6ae9 acbc c0f5 603e 01de 553d 353d 63be
00000120: abc2 383d daa5 82bd 55ba 933d 980e 883d
00000130: bfd0 f3bd c7a8 c1bd a700 5bbd a022 d83c
00000140: 6a88 23be a4e5 163e 4bb7 0cbe 2e07 66be
00000150: 0db2 d0bd 8579 823c 5f5c 4c3a b21c ec3d
00000160: a7ec 923c 472a 2a3d a73c 30bd 0693 f53d
00000170: 591d 8dbe a488 46bc ddf4 0fbe 244e cfbd
00000180: dc57 f23d 47d1 2cbe d40a 5b3e 834c 2dbe
00000190: 6538 27be 3b73 20bd 561e e8bd 6b1c 75bd
000001a0: 5958 5d3b f90d 013e a02d cbbc 6265 5f3e
000001b0: ca84 bcbc c780 1dbe 817f ffbc 8985 13be
000001c0: dee7 03be e296 443d 5543 ed3d e67b a63d
000001d0: e57d 1cbe 17ef edbc 0794 9cbd 68b0 803e
000001e0: 332f 603d 05aa 1ebd 2a3f a33d 0090 10be
000001f0: e1e2 1a3c fac5 a6bd c5be e9bd 04be 53bd
00000200: 95e9 b7bd f926 163e 3685 b83d d507 1d3e
00000210: 3fbf f6bd 17ea 133d a071 24be 575a 313d
00000220: 0a09 223d 19d2 063d 461b e23d 6fdf 4c3d
00000230: a0ab cdbd 9e24 3c3c a323 f4bd 9d15 6f3e
00000240: c431 b1bd c604 0fbd c8a8 0dbd 3ac3 b43d
00000250: 7f4f cebd 9afe 41bd db21 1a3d ecde ed3c
00000260: 931f 313b 40c3 9f3e 0b4d ebbd f6b6 623e
00000270: 4d3b 0d3d 9114 84bd 3fa6 5f3c a408 49bd
00000280: 0ce3 123d cd0e fdbd f904 933d 2428 da3d
00000290: ec1b 583d aef8 603d b8a0 1cbe f9fd f63d
000002a0: 6983 93bd dd82 2dbe d97f 553d e54b 213e
000002b0: 11b1 15be 0a2a 0e3e dcb4 473d 2125 423e
000002c0: 22b1 32bc 9873 6e3e 2a15 71bd d310 423e
000002d0: ab28 26be 0474 99bc 9923 a8bd b5d3 213c
000002e0: 3c88 08be 6d03 57bd c02b 0d3e 24ea 7f3c
000002f0: 9fa2 34be b3bd 6a3e 0458 1dbe 01c5 3bbd
00000300: 5dcf 1f3e 30a5 223e c28c 86bd 0f29 993d
00000310: 37ed a2bd ebfa dc3a 1370 d5bd 311e 833d
00000320: d9f0 18be 73bb b4be 7f12 a5bd 0cf8 1bbe
00000330: f4ce b43d 83a0 243e 0bc1 0c3d a191 9bbd
00000340: 804b f93d 1f0c 873d 4961 023d 7c33 53bd
00000350: 7853 b3bc c630 e1be d33f eabc bfb0 bfbd
00000360: 518e 183d 43c2 f73a b5ec c73d fd8f 283d
00000370: 5786 cd39 94de cebd 0ee8 91bd 01a1 bcbd
00000380: 308a fbbd 43c7 97be 6c32 88bd 77fe a03c
00000390: 3edb a73d 4205 2b3e e2f6 e73d a35a 90bd
000003a0: 9382 f3bd f5df 2e3e 1a01 40bd f566 1c3d
000003b0: a380 21be 0ea3 c7be 8461 7ebd 1f51 963d
000003c0: 98e9 56bb c9fd 25be 2b33 393d 601b 93bd
000003d0: 4e80 d7bd 3e51 493d d6dd 29bd d3d2 a23c
000003e0: c197 2abe 2306 833d 660a 453e 606e 953e
000003f0: 7ad0 953d 5fff 3e3d 6cd4 e2bb 610e f43d

actor.0.bias f4 [256]
0.03331919 -0.0144451335 -0.031580295 0.03156357 -0.08565677 0.11360289 -0.056916934 -0.04988116
0.03752475 -0.11227506 0.114207655 -0.00560204 0.089778915 -0.12230095 -0.051124953 0.10485077
-0.08851419 -0.03127707 -0.0073622395 -0.13139507 0.035035457 0.06630595 0.11861414 -0.117867224
0.15319365 0.12162276 -0.13952382 -0.057162073 -0.13181224 -0.108655244 0.08212552 -0.0676948
0.11153697 -0.11778693 0.1184999 -0.016257469 -0.09529887 -0.019396696 -0.07786237 -0.050532613
-0.0046720253 0.14330983 0.0021568267 -0.0028648425 -0.053212333 -0.094288476 -0.033484876 -0.054647833
-0.020616602 0.035229377 -0.012009969 -0.109835275 -0.037941553 -0.013974436 -0.039308954 -0.04274732
-0.06531642 -0.10536466 -0.009275241 -0.092793964 0.08340019 -0.10136183 0.05076341 -0.09907311
-0.0028280157 -0.07880053 0.11791154 -0.17485414 -0.011057775 0.01854526 0.1308269 -0.058239017
-0.039959654 -0.092566706 -0.020392032 -0.09373488 0.04547442 0.11700684 -0.0898555 -0.0646579
0.07514182 0.060173754 -0.12281993 0.13331254 -7.869666e-05 0.05025959 0.13372473 0.053239435
-0.052694764 -0.15946464 -0.011131868 0.12976235 -0.15392996 0.17805192 0.07279864 -0.13295089
0.16552041 -0.020298632 -0.073032886 0.015205623 -0.06742951 -0.08083573 -0.0636936 -0.073574096
0.12197319 0.10833365 -0.08918918 0.063976794 -0.04744834 0.14898703 0.065854736 -0.07609328
-0.07187693 0.117184944 0.07946248 0.1465151 0.04408629 -0.09210189 -0.06922117 -0.004888283
-0.055880442 -0.041494105 -0.006869852 -0.0025010123 0.014572225 0.08656412 -0.083858214 0.13005017
0.03019853 -0.041521315 -0.13883828 -0.13957158 -0.103386305 -0.085521676 0.099478774 -0.07936758
0.0034269188 0.078221194 0.013810723 -0.04992573 -0.082614854 0.12384787 0.028548451 0.038405992
0.05304168 -0.013931613 0.033275403 -0.075861774 -0.09413795 0.09695095 -0.00019466579 -0.04089221
-0.14399509 0.11711497 0.07521644 0.09375821 0.054663315 0.13157415 -0.04998142 0.108345814
0.045334727 0.15462148 0.040218096 0.059626848 0.00864527 -0.026718093 0.14212002 0.092409596
-0.011788395 -0.10538087 -0.1172004 0.17801836 -0.10520708 0.07067376 -0.12947163 -0.07501977
0.09143611 0.061076894 -0.0068097976 -0.12458296 0.064184 -0.055058513 0.10324553 0.110903226
-0.10083803 -0.053345904 -0.051004004 0.057058405 0.027728245 0.12568009 0.08310239 0.033698555
-0.10748583 -0.12140121 -0.15180293 -0.01956662 -0.061123617 -0.051139478 -0.0982833 -0.060822167
-0.13296358 -0.027232895 -0.05465199 -0.02119349 -0.014130106 0.11701928 0.092277795 -0.12513942
0.13216305 -0.11030082 -0.15703343 -0.08969102 -0.10348348 0.117415234 0.10816156 -0.07256735
-0.01042332 -0.11030374 -0.0024046795 0.06376047 0.06863614 0.06822431 -0.021431822 -0.00475802
0.030893857 0.11170148 0.11331439 -0.116812594 -0.09280344 0.047726367 0.015867634 0.052413575
0.008852148 0.022327438 -0.0795392 0.010785334 -0.09664805 0.03326156 0.07665829 -0.03560673
0.038455416 0.12140647 0.11278712 0.08500912 -0.066135734 -0.098412745 0.1568128 -0.003490998
-0.12089128 -0.1586087 0.091969244 -0.042469207 -0.058163002 0.07215705 -0.07794643 0.018371047
00000000: b479 083d 48ab 6cbc 575a 01bd cd48 013d
00000010: d16c afbd a2a8 e83d bb21 69bd 3050 4cbd
00000020: 8db3 193d 77f0 e5bd b4e5 e93d 5191 b7bb
00000030: 02de b73d ec78 fabd 6668 51bd 00bc d63d
00000040: ed46 b5bd 631c 00bd f13e f1bb 6e8c 06be
00000050: 5781 0f3d 6acb 873d f8eb f23d 5f64 f1bd
00000060: ccde 1c3e 5b15 f93d 55df 0ebe c722 6abd
00000070: caf9 06be a486 debd 6d31 a83d 92a3 8abd
00000080: 7f6d e43d 463a f1bd 13b0 f23d 622e 85bc
00000090: 0e2c c3bd d2e5 9ebc 4e76 9fbd 49fb 4ebd
000000a0: ca17 99bb d0bf 123e 8c59 0d3b 15c0 3bbb
000000b0: 2df5 59bd 511a c1bd 7027 09bd 68d6 5fbd
000000c0: 26e4 a8bc ae4c 103d 76c5 44bc 51f1 e0bd
000000d0: 9a68 1bbd 08f5 64bc 6d02 21bd d017 2fbd
000000e0: 9dc4 85bd 6dc9 d7bd 2ef7 17bc c30a bebd
000000f0: b8cd aa3d cb96 cfbd 4bed 4f3d d8e6 cabd
00000100: 3b56 39bb 2c62 a1bd 9b7b f13d f70c 33be
00000110: ab2b 35bc 3bec 973c 7df7 053e 098c 6ebd
00000120: bcac 23bd 9d93 bdbd 310d a7bc 13f8 bfbd
00000130: 6343 3a3d 48a1 ef3d 2906 b8bd 5c6b 84bd
00000140: f4e3 993d c178 763d 0489 fbbd 1583 083e
00000150: f309 a5b8 00dd 4d3d 23ef 083e 9811 5a3d
00000160: 77d6 57bd b34a 23be 7062 36bc 6ce0 043e
00000170: d19f 1dbe 3e53 363e 7417 953d 4724 08be
00000180: 2f7e 293e 5149 a6bc 4492 95bd 0121 793c
00000190: 7c18 8abd 348d a5bd ca71 82bd 04ae 96bd
000001a0: 14cd f93d 08de dd3d d1a8 b6bd 4406 833d
000001b0: 3159 42bd 0e90 183e d9de 863d cbd6 9bbd
000001c0: 3634 93bd a9fe ef3d 3abd a23d 0e08 163e
000001d0: d393 343d ea9f bcbd d4c3 8dbd e42d a0bb
000001e0: e4e2 64bd b9f5 29bd 7f1c e1bb 06e8 23bb
000001f0: 57c0 6e3c 8848 b13d dbbd abbd df2b 053e
00000200: e862 f73c 4112 2abd 9f2b 0ebe daeb 0ebe
00000210: 33bc d3bd fd25 afbd 87bb cb3d 788b a2bd
00000220: 2896 603b 6f32 a03d 5f46 623c ec7e 4cbd
00000230: fa31 a9bd f4a3 fd3d 71de e93c 9a4f 1d3d
00000240: 3c42 593d 6c41 64bc ca4b 083d 6b5d 9bbd
00000250: 66cb c0bd 388e c63d 331f 4cb9 977e 27bd
00000260: 7373 13be f9d9 ef3d 140b 9a3d 4e04 c03d
00000270: a4e6 5f3d 60bb 063e 51b9 4cbd 69e4 dd3d
00000280: e8b0 393d 1855 1e3e bbbb 243d 483b 743d
00000290: e4a4 0d3c e7df dabc e987 113e 3e41 bd3d
000002a0: 1d24 41bc edd1 d7bd c306 f0bd 724a 363e
000002b0: cf76 d7bd 67bd 903d 3694 04be f7a3 99bd
000002c0: db42 bb3d c42b 7a3d b924 dfbb 5a25 ffbd
000002d0: e772 833d 0985 61bd 6472 d33d 3b21 e33d
000002e0: 2b84 cebd 3c81 5abd 93e9 50bd 13b6 693d
000002f0: 5826 e33c 48b2 003e 9631 aa3d 7f07 0a3d
00000300: 8821 dcbd 33a1 f8bd 3a72 1bbe 2d4a a0bc
00000310: c25c 7abd a177 51bd c148 c9bd aa20 79bd
00000320: 9b27 08be 8517 dfbc c4da 5fbd f89d adbc
00000330: f681 67bc cea7 ef3d 24fc bc3d 8c24 00be
00000340: c055 073e 65e5 e1bd 5fcd 20be edaf b7bd
00000350: 26ef d3bd 6677 f03d cf83 dd3d 319e 94bd
00000360: 93c6 2abc ede6 e1bd d497 1dbb d994 823d
00000370: 1b91 8c3d 30b9 8b3d ca91 afbc 2ae9 9bbb
00000380: 1d15 fd3c bfc3 e43d 6011 e83d 713b efbd
00000390: bb0f bebd b97c 433d d7fc 813c 9eaf 563d
000003a0: 9a08 113c 08e8 b63c 73e5 a2bd f8b4 303c
000003b0: 6aef c5bd 463d 083d 06ff 9c3d 5dd8 11bd
000003c0: 6d83 1d3d f5a3 f83d effc e63d 4319 ae3d
000003d0: 2c72 87bd 9f8c c9bd 8993 203e 3ac9 64bb
000003e0: d995 f7bd 526a 22be 5f5a bc3d 31f4 2dbd
000003f0: 543c 6ebd 13c7 933d 61a2 9fbd e17e 963c

actor.2.weight f4 [128, 256]
0.12833075 0.07758736 0.060626257 0.07537234 0.08101247 0.10715614 -0.006914804 -0.071789175
-0.10345685 0.02265366 0.028573424 -0.009517936 0.012426613 0.010406331 0.10323127 0.030263841
0.0037746956 0.0411666 0.15024301 -0.022595463 0.060220666 0.043251242 -0.04512269 -0.14280304
-0.10385152 0.08522076 0.004572693 -0.04668218 0.05815591 -0.088723354 0.01294551 -0.025573319
-0.083580464 0.011089389 0.059878763 0.15398555 0.043088626 0.070138164 -0.035450555 0.071092784
0.10352456 -0.032098006 -0.07319836 -0.15609716 -0.125725 -0.11537904 -0.030717826 0.047692105
0.049385052 0.006887886 -0.07200555 0.043508638 0.00078640616 0.037507884 -0.55715746 0.08915665
-0.029975902 0.0065054353 0.09043048 -0.023575097 0.07326051 0.2411712 0.026290826 -0.02349101
0.037187666 0.0007459156 0.21443026 -0.052155778 0.066477306 0.054254655 -0.047492493 -0.015707506
0.11941933 0.016503645 0.059439037 -0.028941723 -0.00915019 -0.07017053 0.061610945 0.0047591645
0.03357944 -0.055908263 0.084752776 0.058161173 0.091958635 -0.076819316 0.041619115 -0.0021338838
0.07837276 0.10688881 0.01544268 -0.030032309 -0.058541708 0.06394132 0.18470138 -0.049414895
-0.35711363 0.032510884 -0.1992645 0.047168393 0.0231745 0.066174895 -0.084619135 -0.015359128
-0.014829474 -0.09642848 0.101462565 -0.008532562 0.012946972 -0.054328308 0.0053371023 -0.13295716
-0.03828504 0.06269182 0.05680131 -0.09777184 0.03908438 -0.065201774 -0.31100368 0.026092857
0.073854685 0.00995142 0.035963655 -0.017574323 -0.023387592 -0.03659154 -0.1797639 -0.015560374
0.089345075 0.0019342466 0.0128794545 -0.013967702 -0.021072285 0.0371059 0.0818061 0.07837937
-0.102946125 -0.023554655 -0.0077792765 0.07834882 -0.02412648 -0.0048772036 0.013977308 0.09328923
0.040303122 -0.023191063 0.08162133 0.04524687 0.090124674 0.0071789124 -0.005209683 -0.04332204
0.05038402 -0.024297956 -0.021425754 -0.11939795 -0.16370925 -0.00065208366 0.014645511 -0.18656749
-0.10018593 -0.0641585 0.018476695 0.17377917 0.049452983 -0.011953596 -0.03437083 -0.013075494
0.02295336 0.16525553 0.10186983 0.026211815 -0.06469484 0.0013422642 -0.018002506 0.014490695
0.14877088 0.026335869 0.04399872 -0.23150885 -0.109742284 -0.039608613 -0.040876504 0.024757104
-0.1054518 0.008529598 0.07641474 0.06358288 -0.069188416 -0.1358165 -0.038998634 -0.016081793
-0.038533192 0.08435428 0.13941479 0.00937709 -0.07373689 -0.12851512 0.042448822 -0.023290021
0.06264336 -0.033322867 0.06605305 0.034065507 0.035690475 -0.009846505 0.03833216 0.015061055
0.12943141 -0.06498069 0.0011967731 -0.00070147007 -0.017030705 -0.068298616 0.11276263 -0.08391353
-0.022361323 0.11607941 0.19414926 -0.106398724 0.12317142 -0.0468832 0.07176924 -0.006250844
0.09188764 -0.052114982 -0.00057155953 0.040860064 -0.02019401 0.022509245 0.025072996 0.07646156
0.020482106 -0.09299168 -0.026312483 -0.042384464 -0.062661216 -0.042923763 0.0326486 0.030808322
-0.153631 -8.118762e-05 0.08043821 -0.19589312 0.16842778 0.047198955 0.10398891 0.104653254
-0.060963966 0.075843975 0.07714555 0.12693888 -0.0054770783 0.011794473 -0.12238485 0.09070648
00000000: 2369 033e 1fe6 9e3d 3d53 783d d05c 9a3d
00000010: dee9 a53d ae74 db3d 9595 e2bb 3406 93bd
00000020: 2fe1 d3bd 2b94 b93c d012 ea3c 1ef1 1bbc
00000030: fe98 4b3c 517f 2a3c eb6a d33d e0eb f73c
00000040: e260 773b 4f9e 283d 4ed9 193e 1f1a b9bc
00000050: f2a9 763d 3728 313d 92d2 38bd f63a 12be
00000060: 1bb0 d4bd 3988 ae3d 87d6 953b d035 3fbd
00000070: e434 6e3d 97b4 b5bd 6819 543c 237f d1bc
00000080: 3c2c abbd 45b0 353c 6f43 753d 63ae 1d3e
00000090: b37d 303d 99a4 8f3d 9a34 11bd 1899 913d
000000a0: af04 d43d 3379 03bd 06e9 95bd efd7 1fbe
000000b0: 0ebe 00be d94b ecbd f3a3 fbbc cc58 433d
000000c0: fb47 4a3d c7b3 e13b a577 93bd 1d36 323d
000000d0: d326 4e3a dea1 193d dfa1 0ebf c397 b63d
000000e0: 0690 f5bc 8c2b d53b 9e33 b93d 9020 c1bc
000000f0: 9b09 963d 95f5 763e dc5f d73c 3870 c0bc
00000100: 1852 183d 8c89 433a 9b93 5b3e 4ca1 55bd
00000110: 4125 883d 213a 5e3d 7d87 42bd 07ad 80bc
00000120: 1f92 f43d a732 873c 5976 733d 3117 edbc
00000130: aeea 15bc 91b5 8fbd c25b 7c3d c4f2 9b3b
00000140: 988a 093d 1000 65bd dd92 ad3d 693a 6e3d
00000150: cf54 bc3d 7253 9dbd ce78 2a3d a1d8 0bbb
00000160: e681 a03d 85e8 da3d 4b03 7d3c 5106 f6bc
00000170: 6ec9 6fbd abf3 823d 5c22 3d3e 4667 4abd
00000180: 99d7 b6be 222a 053d fe0b 4cbe a533 413d
00000190: 73d8 bd3c b486 873d cc4c adbd daa4 7bbc
000001a0: 52f7 72bc 4c7c c5bd 9bcb cf3d 29cc 0bbc
000001b0: 891f 543c 5c87 5ebd dce2 ae3b ec25 08be
000001c0: c6d0 1cbd 9264 803d 7ea8 683d 9a3c c8bd
000001d0: f116 203d 8288 85bd e03b 9fbe b0c0 d53c
000001e0: 2041 973d 480b 233c a04e 133d 07f8 8fbc
000001f0: 5697 bfbc 03e1 15bd 0714 38be f0f0 7ebc
00000200: 8dfa b63d 8c86 fd3a 5904 533c cad8 64bc
00000210: c99f acbc 5bfc 173d f589 a73d 5d85 a03d
00000220: 6bd5 d2bd b1f5 c0bc 4de9 febb 5975 a03d
00000230: e5a4 c5bc f3d0 9fbb 1401 653c 6c0e bf3d
00000240: e314 253d 2ffb bdbc 1529 a73d c854 393d
00000250: 4993 b83d 153d eb3b fdb5 aabb 7472 31bd
00000260: 795f 4e3d 820c c7bc 1085 afbc ea86 f4bd
00000270: 66a3 27be 98f0 2aba baf3 6f3c 8c0b 3fbe
00000280: 482e cdbd 8865 83bd 705c 973c 2bf3 313e
00000290: 368f 4a3d 04d9 43bc 6dc8 0cbd 993a 56bc
000002a0: af08 bc3c bf38 293e 21a1 d03d 29ba d63c
000002b0: ba7e 84bd eaee af3a fe79 93bc 616a 6d3c
000002c0: 6557 183e 52be d73c 0038 343d a810 6dbe
000002d0: 90c0 e0bd a43c 22bd 1f6e 27bd 69cf ca3c
000002e0: 1df7 d7bd babf 0b3c 557f 9c3d be37 823d
000002f0: a8b2 8dbd 7b13 0bbe 08bd 1fbd f7bd 83bc
00000300: fbd4 1dbd f0c1 ac3d c0c2 0e3e 5ea2 193c
00000310: 5e03 97bd 7899 03be d1de 2d3d b7ca bebc
00000320: 294b 803d 8f7d 08bd d246 873d 4688 0b3d
00000330: 2d30 123d 3c53 21bc 2f02 1d3d a5c2 763c
00000340: ab89 043e 9914 85bd 0bdd 9c3a dce2 37ba
00000350: fa83 8bbc 25e0 8bbd 18f0 e63d dbda abbd
00000360: 182f b7bc 0bbb ed3d 10cf 463e 93e7 d9bd
00000370: 4c41 fc3d 9908 40bd c0fb 923d e1d3 ccbb
00000380: 962f bc3d 8576 55bd b6d4 15ba e25c 273d
00000390: e96d a5bc 4f65 b83c e265 cd3c e197 9c3d
000003a0: 17ca a73c 6c72 bebd 478d d7bc 559b 2dbd
000003b0: 8654 80bd d4d0 2fbd 8aba 053d bc61 fc3c
000003c0: 7251 1dbe 4643 aab8 cabc a43d 3598 48be
000003d0: 5578 2c3e b153 413d 23f8 d43d 7254 d63d
000003e0: 5ab5 79bd 1654 9b3d 7cfe 9d3d 44fc 013e
000003f0: 1079 b3bb 9b3d 413c e9a4 fabd 52c4 b93d

actor.2.bias f4 [128]
-0.05052373 -0.06472848 -0.022740917 0.01070821 0.016740965 0.023395374 -0.054823555 0.027317798
-0.011737823 -0.049725793 -0.018824933 -0.013269872 -0.015464538 -0.057183933 0.008419981 -0.02835689
-0.034795728 -0.03782166 -0.05018218 0.03510162 0.028450472 0.08028153 0.0056099235 -0.03727357
-0.043512356 0.032558642 -0.019998029 0.042743426 0.042817358 -0.00083937764 0.023934878 0.02506669
0.07255714 0.011799295 0.07853597 -0.0032386102 0.017680263 0.055964626 0.06914972 0.03940825
0.0014862652 0.04404348 -0.04450259 -0.043950643 0.022339003 -0.0027246824 0.0330522 -0.042846255
0.030151332 0.035786714 -0.036146685 0.008514804 -0.007237769 -0.01915211 0.08295083 0.05694579
0.027737273 -0.035819475 0.03401579 0.056140497 -0.0050039524 0.007662047 0.04264796 0.051009893
-0.038949005 0.03676093 -0.052981652 -0.02825363 0.022372415 -0.030695524 0.019126698 -0.0073602838
-0.023543565 0.04223587 -0.017568966 0.04223529 0.06035862 0.010366137 -0.021444878 0.026467409
0.037764452 0.051734164 -0.019114334 0.034338776 -0.002741588 0.04013195 -0.05646945 -0.023996187
0.06300137 -0.016224608 0.041175544 0.016107455 -0.022751784 0.020856932 -0.07431136 -0.004827791
-0.01275329 0.021998975 0.06673164 0.011066702 0.07290647 -0.0016530621 -0.037522525 -0.034314543
0.043984335 0.09307137 0.031332 0.07353471 0.063637644 0.065223284 -0.030881105 -0.022128431
0.023017175 0.05009196 0.029634438 -0.0037541704 0.015536983 0.017375018 0.0061128796 -0.004864645
0.03972179 0.037485395 -0.065090254 -0.04427717 0.04140357 0.042070206 0.07605139 -0.043691948
00000000: f9f1 4ebd 5e90 84bd 294b babc 7d71 2f3c
00000010: 5924 893c a8a7 bf3c aa8e 60bd 93c9 df3c
00000020: ff4f 40bc 46ad 4bbd bf36 9abc e169 59bc
00000030: f95e 7dbc b339 6abd f6f3 093c b54c e8bc
00000040: f785 0ebd e3ea 1abd d48b 4dbd b7c6 0f3d
00000050: f710 e93c a56a a43d 73d3 b73b 2cac 18bd
00000060: 033a 32bd 365c 053d e8d2 a3bc bb13 2f3d
00000070: 4161 2f3d ae09 5cba 1413 c43c a958 cd3c
00000080: d698 943d d551 413c 77d7 a03d dd3e 54bb
00000090: 33d6 903c 2a3b 653d 5e9e 8d3d 8c6a 213d
000000a0: c9ce c23a f066 343d 5948 36bd 9705 34bd
000000b0: 4900 b73c 9690 32bb be61 073d 8e7f 2fbd
000000c0: edff f63c 1795 123d 8c0e 14bd ad81 0b3c
000000d0: cf2a edbb e3e4 9cbc 20e2 a93d fd3f 693d
000000e0: 4739 e33c 71b7 12bd 2454 0b3d 94f3 653d
000000f0: 32f8 a3bb e911 fb3b a1af 2e3d c0ef 503d
00000100: fe88 1fbd a192 163d 4a03 59bd 2874 e7bc
00000110: 5b46 b73c 2e75 fbbc 98af 9c3c 892e f1bb
00000120: 6fde c0bc 85ff 2c3d cbec 8fbc e9fe 2c3d
00000130: 9a3a 773d bbd6 293c 2bad afbc 2ed2 d83c
00000140: e6ae 1a3d 34e7 533d aa95 9cbc d1a6 0c3d
00000150: 37ac 33bb 6661 243d 834c 67bd a793 c4bc
00000160: dd06 813d 78e9 84bc b0a7 283d c8f3 833c
00000170: f361 babc 28dc aa3c 8e30 98bd 7232 9ebb
00000180: 2df3 50bc 3237 b43c 99aa 883d 1d51 353c
00000190: fd4f 953d 8fab d8ba 38b1 19bd 688d 0cbd
000001a0: eb28 343d 349c be3d fc55 003d 5e99 963d
000001b0: 7454 823d c993 853d 5ffa fcbc af46 b5bc
000001c0: 848e bc3c 3a2d 4d3d ecc3 f23c 8708 76bb
000001d0: d48e 7e3c 0e56 8e3c 8d4e c83b 9a67 9fbb
000001e0: 51b3 223d 498a 193d 0a4e 85bd fa5b 35bd
000001f0: ca96 293d cf51 2c3d d5c0 9b3d 54f6 32bd
