CRL/模型集_selfplay/run_20260123-181652/slime_ppo_gpu.pth (torch, 370495 bytes, 11 tensors)

critic.0.weight f4 [256, 48]
0	0x3d81b9eb	0.06334289
1	0xbd147b38	-0.036250323
2	0xbc9b87ac	-0.018985592
3	0x3d508f6d	0.05091803
4	0x3ce5449f	0.027986823
5	0xbdb2ba50	-0.087269425
6	0xbacd2589	-0.0015651445
7	0x3c1d8485	0.009614115
8	0x3db80a4a	0.089863375
9	0x3e716faf	0.2357776
10	0xbd6dc3dc	-0.058048114
11	0x3d457de7	0.048215773
12	0x3e0c5633	0.13704757
13	0x3d74c0af	0.05975407
14	0x3c1d12d2	0.009587007
15	0x3df51094	0.11966053
16	0x3dc65c22	0.09685542
17	0x3d9d5f7e	0.07684229
18	0xbc846b8f	-0.01616457
19	0xbe07378e	-0.13204786
20	0x3d7ccef2	0.061720796
21	0x3e1aedf6	0.15129837
22	0xbb460618	-0.0030216035
23	0xbddb687e	-0.1071329
24	0x3e56e67b	0.20986359
25	0xbb97c1d8	-0.0046312623
26	0x3cbf4c1d	0.023351723
27	0x3dee477b	0.116347276
28	0xbdfcccd0	-0.123437524
29	0xbd437352	-0.0477174
30	0x3ccdda55	0.025128523
31	0x3dbb1711	0.09135259
32	0x3d37d7ed	0.044883657
33	0x3de956d9	0.11393518
34	0xbdde2532	-0.10846938
35	0xbe14ebe9	-0.14543118
36	0x3e3ab7c6	0.18234167
37	0x3e10cc4c	0.14140433
38	0x3cc3f67b	0.023921242
39	0xbce16461	-0.027513685
40	0x3df5c7ca	0.12000997
41	0x3d765099	0.060135458
42	0x3b940524	0.0045172144
43	0xbe31676a	-0.17324606
44	0x3d164ffb	0.03669737
45	0x3e1ce786	0.15322694
46	0xbe29683a	-0.16543666
47	0x3d8f81da	0.07007189
48	0x3ea76edf	0.32701775
49	0x3dadc5b5	0.08484975
50	0xba151f7d	-0.0005688591
51	0xbd2e39ca	-0.04253558
52	0xbddad217	-0.10684603
53	0x3dc86876	0.09785549
54	0x3ca51a73	0.020154214
55	0x3ce04045	0.027374396
56	0xbec2aaae	-0.38020843
57	0xbd8921b4	-0.066958815
58	0x3d87741d	0.06613944
59	0x3e48cd58	0.19609582
60	0x3e962831	0.2932754
61	0x3b8d445c	0.0043111276
62	0x3bcb1c78	0.006198462
63	0xbdd1ac5e	-0.102379546
64	0x3da2ca18	0.079487026
65	0xbdb7858f	-0.08961021
66	0x3c93db46	0.018048894
67	0xbc8df62d	-0.0173293
68	0xbe9490e9	-0.29016808
69	0x3dbd741c	0.09250662
70	0xbda5eab1	-0.081014045
71	0x3e044c68	0.12919772
72	0x3ec56350	0.38552332
73	0xbb7a2863	-0.0038171045
74	0x3ca7e699	0.0204957
75	0x3da85c66	0.082207486
76	0xbd892d30	-0.06698072
77	0xbdef5891	-0.116868146
78	0x3cbfe39b	0.02342396
79	0xbd548031	-0.051880065
80	0xbe72165c	-0.23641342
81	0xbbb622a6	-0.0055583296
82	0xbe017437	-0.12641989
83	0xbd87b0f1	-0.06625546
84	0x3e890951	0.2676492
85	0x3d206127	0.03915515
86	0x3cdbcf49	0.02683224
87	0xbc6a193b	-0.014288242
88	0x3d263943	0.040581953
89	0xbdf8ee0c	-0.12154779
90	0x3cb6e6ae	0.022326794
91	0xbc0e0b96	-0.0086697545
92	0xbe9325f7	-0.28739902
93	0x3d7a4baf	0.061107334
94	0xbdad86a5	-0.08472947
95	0xbddba4e3	-0.10724809
96	0xbe0c79a1	-0.13718273
97	0x3dc222d9	0.09479303
98	0xbaee12e2	-0.0018163587
99	0x3ddc620a	0.10760887
100	0xbde01b3a	-0.10942693
101	0x3e04cdda	0.12969151
102	0xbad7842b	-0.0016442587
103	0xbd2750dd	-0.0408486
104	0x3cb19aea	0.021680314
105	0x3e58db5a	0.21177426
106	0x3c8f355b	0.017481497
107	0xbb7014f6	-0.0036633587
108	0xbdd7c241	-0.10535098
109	0x3db18f7b	0.08669945
110	0xbc8f77bd	-0.01751315
111	0xbd04c2e2	-0.032412417
112	0xbd52e915	-0.051491816
113	0x3e13724a	0.14399067
114	0x3bd23ee9	0.006416191
115	0xbce8c8f8	-0.028416142
116	0x3de76073	0.11297693
117	0x3e086c2f	0.13322519
118	0x3d3818f9	0.04494569
119	0x3d2f40bc	0.042786345
120	0xbe06681d	-0.13125654
121	0x3e0565aa	0.13027063
122	0xbc934ef3	-0.017981982
123	0x3e0fa881	0.14029123
124	0xbd9e2c2e	-0.0772327
125	0x3dce7db6	0.10082571
126	0x3c65bcdb	0.014022077
127	0x3ce060f9	0.02738999
128	0x3da8e30c	0.08246431
129	0x3e4c1e19	0.19933356
130	0x3e773dfb	0.24144737
131	0xbe2cd19d	-0.16876836
132	0xbe60572d	-0.21908255
133	0x3cc5fd20	0.024168551
134	0xbbafc05e	-0.005363508
135	0xbd3686ed	-0.04456227
136	0x3d3c4aad	0.045969654
137	0xba6df87d	-0.000907786
138	0x3c0dbbf3	0.008650768
139	0xbc3afeea	-0.011413315
140	0x3dd18e1c	0.10232183
141	0x3e4032b2	0.18769339
142	0xbd4ed2d2	-0.050494023
143	0xbdce663e	-0.10078095
144	0xbcf8db00	-0.030377865
145	0x3bbe51f6	0.0058081103
146	0xbc227dc7	-0.009917683
147	0x3d1d9dba	0.038480498
148	0xbd8c7869	-0.06858904
149	0x3d82b999	0.06383056
150	0xbc14fb43	-0.009093109
151	0x3bae68ad	0.005322537
152	0x3d929462	0.07157208
153	0xbd2c5a94	-0.04207857
154	0x3dc55bf3	0.096366785
155	0xbcb02902	-0.021503929
156	0x3e0053b4	0.1253193
157	0x3d961f9a	0.07330246
158	0xbc9ea1af	-0.019364206
159	0xbd28ae58	-0.041181892
160	0xbdb8cc50	-0.090233445
161	0xbda43af6	-0.080190584
162	0xba98fe23	-0.0011672418
163	0x3c6e7d99	0.014556312
164	0x3e580b02	0.21097949
165	0xbd277ac6	-0.04088857
166	0x3e33a6a5	0.17544039
167	0xbd95e7be	-0.07319592
168	0xbe1d83b8	-0.15382278
169	0xbda100b6	-0.07861464
170	0xbbc0e6e0	-0.0058868974
171	0xbda01d33	-0.07818069
172	0xbd2789b0	-0.040902793
173	0xbdaa6d96	-0.08321683
174	0xbc76d252	-0.015064793
175	0x3d02d2c4	0.031939283
176	0x3e580456	0.21095404
177	0xba384e3c	-0.0007030701
178	0x3efad496	0.48990315
179	0xbde4525d	-0.11148522
180	0x3d150981	0.036386017
181	0x3e3e6ced	0.1859624
182	0xbc7bf6ef	-0.015378698
183	0xbd11620b	-0.03549389
184	0xbd55072f	-0.052008804
185	0x3dfc5e78	0.12322706
186	0xbd09e836	-0.03366872
187	0xbd18cb5e	-0.03730332
188	0x3e83e7ea	0.25762874
189	0xbe1652b6	-0.14679989
190	0x3ed2cde0	0.41172695
191	0xbd94a912	-0.0725881
192	0x3dad1a64	0.08452299
193	0x3d24f274	0.040270284
194	0x3ca78e29	0.02045353
195	0xbbdd7ace	-0.006759024
196	0xbe0401ef	-0.12891363
197	0xbd8e0f80	-0.0693655
198	0x3b59da89	0.003324183
199	0xbce2a62a	-0.027667124
200	0xbe376e6c	-0.17913216
201	0xbdb855dd	-0.09000752
202	0xbde89d8c	-0.11358175
203	0xbdb4b3b3	-0.088233374
204	0x3e6cc5ea	0.23122373
205	0xbde2e0d8	-0.11078042
206	0x3c94b7df	0.018154083
207	0x3dc03cbc	0.09386584
208	0xbd68a5b5	-0.056798656
209	0xbd0c0909	-0.034188304
210	0x3b3490cd	0.0027552128
211	0x3d3b5898	0.045738786
212	0xbdb3ac5e	-0.08773111
213	0xbd505d1d	-0.05087005
214	0xbe84c7d2	-0.259337
215	0xbc8366da	-0.016040254
216	0x3e898bd6	0.268645
217	0x3d456184	0.0481887
218	0x3cc181d8	0.023621485
219	0xbd4326f7	-0.04764458
220	0xbe4d321d	-0.20038648
221	0x3dcc6cb6	0.099816725
222	0x3ba381a6	0.0049898205
223	0xbcf0a976	-0.02937768
224	0xbe5edb13	-0.21763258
225	0x3df24df1	0.118312724
226	0xbe666826	-0.22500667
227	0x3d85bb4d	0.065298654
228	0x3e8b44e1	0.27200988
229	0x3ad990a8	0.0016598897
230	0x3cf1b2e0	0.02950424
231	0xbb8a87c1	-0.004227609
232	0x3d1d6a08	0.038431197
233	0xbddb2843	-0.10701039
234	0xba7351d1	-0.0009281906
235	0xbab4ff01	-0.0013808907
236	0xbc06699c	-0.00820389
237	0x3e02d461	0.12776329
238	0xbdc8e7a8	-0.0980981
239	0xbd8a5e45	-0.06756262
240	0xbe4f3da4	-0.20238358
241	0xbdb1a372	-0.08673753
242	0x3cbc42b5	0.022981027
243	0x3d4b3591	0.04961163
244	0x3c0b0e4f	0.008487298
245	0x3cc133d1	0.023584278
246	0xbc4ae67d	-0.012384054
247	0xbdfac690	-0.12244904
248	0x3e6e1581	0.2325039
249	0xbe8c71af	-0.27430484
250	0xbe193c79	-0.14964475
251	0xbe622e49	-0.22087969
252	0xbe64f8d7	-0.2236055
253	0x3dbcab97	0.09212416
254	0xbd3e02b7	-0.046389308
255	0xbdb05f6e	-0.08611952

critic.0.bias f4 [256]
0	0x3e46c80b	0.19412248
1	0xbc5c23fb	-0.013436313
2	0xbd04d2ea	-0.032427706
3	0x3db807c6	0.08985858
4	0xbdede019	-0.11615009
5	0xbc9cdfa9	-0.019149618
6	0x3d7f9dbf	0.062406298
7	0xbd6c95c4	-0.057760015
8	0x3dbf22a3	0.09332778
9	0x3e0c876e	0.13723537
10	0x3c57731b	0.013150002
11	0x3e26a5af	0.16274141
12	0x3d0d42bb	0.034487467
13	0xbdeaf659	-0.11472768
14	0x3da081c2	0.07837249
15	0xbe438c31	-0.19096448
16	0xb9e64775	-0.00043922258
17	0x3db303d5	0.08740965
18	0xbbf6f6d8	-0.0075367503
19	0xbe27af1a	-0.1637539
20	0xbc4394ff	-0.011937379
21	0x3d09cab0	0.033640563
22	0x3e1d6d47	0.15373717
23	0xbe278e0f	-0.16362785
24	0xbb2bda5b	-0.002622268
25	0xbe26e944	-0.16299921
26	0xbe4472f8	-0.19184482
27	0xbeac2785	-0.336239
28	0x3d0c5885	0.034264106
29	0x3d5bb050	0.05363494
30	0xbdba1458	-0.090859115
31	0x3e43f30a	0.19135681
32	0x3eb6a140	0.356699
33	0xbd684cb7	-0.056713786
34	0xbdcb7e93	-0.099362515
35	0xbdc92d2d	-0.0982307
36	0x3dc477c5	0.09593157
37	0x3d22a450	0.03970748
38	0x3d717398	0.05894813
39	0x3dcf4b76	0.10121815
40	0x3db70853	0.089371346
41	0x3d65747a	0.056019284
42	0x3ec55f4b	0.38549265
43	0xbdc740ef	-0.09729182
44	0x3d90cf4e	0.0707079
45	0x3c83829a	0.016053487
46	0xbdda2b98	-0.10652846
47	0x3ce0d217	0.027443929
48	0x3dce757d	0.10081003
49	0x3d389690	0.045065463
50	0xbe11e7ce	-0.14248583
51	0xbe6f7504	-0.23384482
52	0x3e4d5688	0.2005254
53	0x3e5be091	0.21472384
54	0xbc566635	-0.0130858915
55	0xbe291090	-0.16510224
56	0x3de51aaa	0.111867264
57	0x3de1ce90	0.11025727
58	0x3d1b4760	0.037909865
59	0x3e28197d	0.16415973
60	0xbc28c070	-0.010299787
61	0x3d0cb1b8	0.034349173
62	0x3d958433	0.073006056
63	0x3df02aa3	0.11726882
64	0x3e64adcd	0.22331925
65	0x3dcdeecd	0.10055313
66	0xbd152d8e	-0.036420397
67	0xbdcae799	-0.09907455
68	0xbdfd7c49	-0.12377221
69	0x3d7f46bf	0.062323328
70	0x3e005c65	0.12535246
71	0x3efb62fa	0.4909895
72	0xbea37186	-0.3192255
73	0x3e456437	0.1927651
74	0xbed9049e	-0.42386335
75	0xbd9ee47f	-0.07758426
76	0x3bd9f4c9	0.006651495
77	0xbd9dbc04	-0.07701877
78	0x3c84e920	0.016224444
79	0xbe3f772e	-0.18697807
80	0x3dad5c20	0.08464837
81	0x3d95cc74	0.07314387
82	0x3de529d7	0.11189621
83	0x3daef534	0.085428625
84	0xbe8aa355	-0.27077737
85	0x3e3126ae	0.17299911
86	0xbdfa54e8	-0.12223226
87	0x3d11e1cb	0.035615724
88	0x3e08c895	0.13357766
89	0xbe9d9def	-0.30784556
90	0x3a3048fd	0.0006724743
91	0xbdc93ccc	-0.09826049
92	0xbdd981df	-0.10620474
93	0xbef1b903	-0.47211465
94	0xbdcdce00	-0.10049057
95	0xbda791a5	-0.08182076
96	0x3c8997c3	0.016795998
97	0xbddd57b9	-0.108077474
98	0xbb306fba	-0.0026922063
99	0xbdb13327	-0.08652335
100	0xbe047091	-0.12933566
101	0x3c58c632	0.013230847
102	0x3d859990	0.0652343
103	0xbda58ee0	-0.08083892
104	0xbe090416	-0.13380465
105	0xbc87b726	-0.016566824
106	0xbd7629c0	-0.06009841
107	0x3de7662c	0.112987846
108	0xbcfb5af1	-0.030683013
109	0x3d1d96ca	0.03847388
110	0xbdb65b79	-0.08904166
111	0x3cd31e70	0.02577135
112	0x3dfa950b	0.12235459
113	0xbd5ff63b	-0.054678183
114	0x3d25a20d	0.040437747
115	0x3e1817fa	0.14852896
116	0x3e22cd45	0.15898617
117	0x3e018a12	0.12650326
118	0xbe167440	-0.14692783
119	0xbe38b11b	-0.1803631
120	0x3d97db0a	0.07414825
121	0x3dca6755	0.0988299
122	0xbd9ba7af	-0.076003425
123	0x3e44b52b	0.19209735
124	0x3e4f6cd0	0.20256352
125	0x3cbbad5c	0.022909813
126	0x3e41c067	0.18921052
127	0xbe1c7467	-0.15278779
128	0x3e20e617	0.15712772
129	0xbd803e5c	-0.06261894
130	0x3e3e0747	0.18557464
131	0xbe1f454d	-0.1555378
132	0xbe28c42a	-0.1648108
133	0x3ebbb895	0.36664262
134	0xbe250eec	-0.16118973
135	0xbe26c0b8	-0.16284454
136	0xbe468a1d	-0.19388624
137	0xbdd32aca	-0.10310896
138	0xbc9932f6	-0.018701058
139	0x3c51316e	0.012768133
140	0xbe541c37	-0.20713888
141	0x3e5c4e35	0.21514209
142	0x3cbbadee	0.022910085
143	0xbd51e45a	-0.051243164
144	0x3e04315c	0.12909454
145	0xbe2150ab	-0.15753429
146	0xbd615629	-0.05501381
147	0x3e3f91c5	0.1870795
148	0xbb573712	-0.003283922
149	0xbd2b3b20	-0.041804433
150	0xbee31b26	-0.4435665
151	0x3d529021	0.051406983
152	0xbd0bd397	-0.034137335
153	0xbc9a56f5	-0.018840292
154	0x3eb573a7	0.35439798
155	0x3ebb2301	0.36550143
156	0xbf0c1cc2	-0.5473138
157	0xbaa829e3	-0.0012829866
158	0x3e04803c	0.12939543
159	0x3d4210d9	0.04737935
160	0x3e83fa77	0.25777027
161	0xbe6d752d	-0.2318923
162	0x3dbe60a9	0.0929578
163	0x3e3ac5b8	0.18239486
164	0xbaa4b072	-0.0012564792
165	0x3e02d146	0.12775144
166	0x3d84a99e	0.064776644
167	0x3c925650	0.017863423
168	0x3d68729b	0.05674992
169	0x3de5800e	0.11206065
170	0x3bceb72b	0.0063084564
171	0x3d4f2fd9	0.05058274
172	0x3d9c5ad1	0.07634509
173	0x3e088bbc	0.13334554
174	0xbd0eb4e3	-0.034840476
175	0xbe20233f	-0.15638445
176	0x3af4b0a7	0.0018668369
177	0x3d08e87d	0.033424843
178	0xbd567a6a	-0.052362837
179	0x3dfe08bd	0.124040104
180	0xbddef0a2	-0.10885741
181	0x3e3d180a	0.18466201
182	0xbe046ad1	-0.12931372
183	0x3deb03a4	0.11475304
184	0x3d20157e	0.039082997
185	0xbe8011d8	-0.25013614
186	0x3f049174	0.51784444
187	0x3a7a7db8	0.0009555477
188	0x3e2f0dbf	0.17095087
189	0x3caa7692	0.020808492
190	0x3e3c68a0	0.18399286
191	0x3e504197	0.2033752
192	0x3bb74df4	0.0055940095
193	0xbd83b21e	-0.064304575
194	0xbe32be50	-0.17455411
195	0xbd882277	-0.06647199
196	0x3d206f1c	0.039168462
197	0x3d58d7e1	0.052940253
198	0xbd5e3533	-0.054249953
199	0xbdc393a1	-0.09549642
200	0x3e51a701	0.20473863
201	0x3c624dc9	0.013812491
202	0x3ded7c80	0.11596012
203	0x3e5214a5	0.20515688
204	0x3e5b65a9	0.21425499
205	0x3e6a7678	0.22896755
206	0x3c19477e	0.009355424
207	0x3cb8a837	0.022541149
208	0x3dc5a447	0.09650474
209	0x3d59cf32	0.053176112
210	0x3e8df9e6	0.2772972
211	0x3cfdfc08	0.031003967
212	0xbda7264b	-0.08161601
213	0x3e1fbab8	0.15598571
214	0xbdb4ce29	-0.088283844
215	0xbd2457fe	-0.04012298
216	0x3d534605	0.051580448
217	0x3d84d061	0.064850576
218	0x3e4560b7	0.19275175
219	0x3e677951	0.22604872
220	0xbca4a2cc	-0.020097159
221	0xbd867d57	-0.065668754
222	0x3e58e5bc	0.21181387
223	0x3dd7ad27	0.10531073
224	0xbe94a509	-0.29032162
225	0xbd0bea2a	-0.034158863
226	0x3e67032c	0.22559804
227	0x3e3b0544	0.18263727
228	0xbd7e658e	-0.06210857
229	0xbd91209c	-0.07086298
230	0x3cccf67b	0.025019875
231	0xbe84462d	-0.2583479
232	0x3e9179da	0.28413278
233	0x3e06742f	0.13130258
234	0xbcd095e1	-0.025462093
235	0x3d62e4f2	0.05539412
236	0x3db2bd1e	0.087274775
237	0xbe1022ad	-0.14075728
238	0x3e32955e	0.17439792
239	0x3d63b151	0.055589024
240	0x3e8200c5	0.25391212
241	0x3e13df77	0.14440714
242	0x3e0f8e45	0.14019115
243	0xbd25a793	-0.040443014
244	0x3d9d49ef	0.07680117
245	0x3de6e28a	0.11273678
246	0x3cfad173	0.030617451
247	0x3d65cf5b	0.056105953
248	0x3bb2d72c	0.0054577794
249	0x3eaf72b7	0.34267208
250	0x3e2f9150	0.17145276
251	0x3e8042a3	0.2505084
252	0x3e09c6d6	0.13454756
253	0x3e64ff21	0.22362949
254	0x3d88bc26	0.066765115
255	0x3d5cdfcb	0.053924363

critic.2.weight f4 [128, 256]
0	0xbd76eee1	-0.060286406
1	0xbce53b3e	-0.02798235
2	0xbd11615d	-0.035493243
3	0xbc69c28b	-0.014267574
4	0x3d6d0d9f	0.05787432
5	0xbd08a662	-0.0333618
6	0x3cadaa77	0.021199448
7	0x3d0e33a0	0.034717202
8	0x3ce22b6e	0.0276086
9	0xbce9704d	-0.028495932
10	0x3ce17219	0.027520226
11	0x3cdd241e	0.026994761
12	0x3cddd242	0.027077798
13	0xbd3d0ae1	-0.046152953
14	0xbc71bf6b	-0.01475511
15	0x3d5befa9	0.053695355
16	0xbc939064	-0.018013187
17	0x3d55790b	0.05211739
18	0xbd58adde	-0.052900188
19	0xbc8d7fce	-0.017272856
20	0x3ccd653e	0.02507269
21	0x3d5f083d	0.054451216
22	0xbd81c927	-0.06337195
23	0x3cfdb135	0.030968288
24	0x3d28525b	0.041094165
25	0xbcddd6b2	-0.027079914
26	0x3c4454db	0.011983122
27	0x3d0dd5f7	0.03462788
28	0xbb9b4a01	-0.0047390466
29	0xbd95c79b	-0.07313462
30	0xbd5d891a	-0.05408583
31	0x3c6358c0	0.01387614
32	0xbcacca49	-0.02109255
33	0xb97470c3	-0.0002331166
34	0x3c4a3f76	0.012344232
35	0x3c5069da	0.0127205495
36	0xbc56c437	-0.013108305
37	0xbc9d735c	-0.019220047
38	0x3c4ae6c3	0.012384119
39	0xbd19f795	-0.03758963
40	0x3d1f695d	0.03891884
41	0x3afd153e	0.0019308699
42	0x3c711509	0.014714488
43	0x3b536998	0.0032258984
44	0xbd86df31	-0.06585539
45	0xbcd449c2	-0.025914077
46	0x3c7c4434	0.01539712
47	0x3cdbb36d	0.026818955
48	0x3d13ad1c	0.03605376
49	0x3d3f5bba	0.046718337
50	0xbc80a26f	-0.015702454
51	0x3d4609e0	0.04834926
52	0xbd49f9bd	-0.049310435
53	0x3c8bd3d2	0.017068777
54	0xbd323e5f	-0.043516513
55	0xbd4a5f34	-0.0494072
56	0x3ce300b5	0.027710298
57	0xbc9e1917	-0.019299073
58	0xbcc29d09	-0.02375652
59	0x3aa6e9dc	0.001273449
60	0x3d2a8e99	0.041639898
61	0xbd832cc4	-0.06405023
62	0xbc2c4a37	-0.010515741
63	0xbc9cbea3	-0.019133871
64	0xbd3ad1f7	-0.045610394
65	0x3cdfe8bc	0.027332656
66	0xbd070c3e	-0.03297066
67	0x3d323da5	0.04351582
68	0xbd240715	-0.040045816
69	0xbd21a673	-0.03946538
70	0xbba35c94	-0.0049854014
71	0x3c50f905	0.012754683
72	0xbc32f2d8	-0.010922156
73	0xbd45279a	-0.04813347
74	0xbd72ea47	-0.059305456
75	0xbd6da70b	-0.058020633
76	0xbd61dd96	-0.05514296
77	0xbbc1ccde	-0.0059143146
78	0xbd290072	-0.04126019
79	0xbd5a613f	-0.053315397
80	0xbc36b107	-0.011150605
81	0xbd137394	-0.035998896
82	0xbcbe3fa8	-0.023223713
83	0xbd0b6939	-0.034035895
84	0x3d167cc0	0.036740065
85	0xbd71eaab	-0.059061687
86	0xbd864d76	-0.06557743
87	0x3bb85102	0.0056248913
88	0xbaef50fb	-0.0018258387
89	0x3ca3a72c	0.019977175
90	0xba22133c	-0.0006182676
91	0xbd6f2bb6	-0.058391295
92	0x3cdb86dd	0.026797706
93	0x3d8471b3	0.06466999
94	0x3bce30c6	0.0062924353
95	0xbc673e80	-0.014114022
96	0xbd1cfdb1	-0.038327876
97	0xbc724ca5	-0.014788781
98	0x3c3e665f	0.011621087
99	0x3d047168	0.032334715
100	0xbc016d51	-0.007899598
101	0xbce2f381	-0.027704002
102	0x3b5b1519	0.0033429323
103	0x3d414142	0.047181375
104	0x3d384723	0.044989716
105	0x3c8ff432	0.017572496
106	0xbc86eda5	-0.01647074
107	0xbcca4ead	-0.024695719
108	0x3d3597ff	0.044334408
109	0xbc9c9bfb	-0.019117346
110	0x3ce551f1	0.027993174
111	0xbd82b7ec	-0.063827366
112	0x3cc4727e	0.023980375
113	0x3d4d2d84	0.050092235
114	0xbcd036bf	-0.02541673
115	0x3d2ff2bd	0.042956103
116	0x3d717d4d	0.058957387
117	0xbd7813bd	-0.0605657
118	0xbd1274bc	-0.035755858
119	0x3cefe47f	0.02928376
120	0xbd0de73a	-0.034644343
121	0xbd754376	-0.05987879
122	0x3c6cc9b8	0.01445239
123	0x3cd97035	0.026542762
124	0xbcbd7f58	-0.023132011
125	0x3c4387cf	0.011934235
126	0xbc91693d	-0.017750377
127	0xbd36ccc2	-0.044628866
128	0x3c917e36	0.017760377
129	0x3d59af81	0.05314589
130	0xbc466b91	-0.012110607
131	0x3d62b68b	0.055349868
132	0xbd72f51a	-0.05931578
133	0x3d1b2bc0	0.03788352
134	0xbd39338b	-0.04521517
135	0xbd611afd	-0.05495738
136	0xbc226dd7	-0.009913883
137	0xb9b5de40	-0.000346886
138	0xbcf2cdee	-0.02963921
139	0xbd76b317	-0.060229387
140	0x3c2ed0e3	0.01066992
141	0x3c42abc5	0.011881773
142	0xbc3aabc6	-0.011393493
143	0x3d159ac3	0.036524545
144	0xbcec6aaf	-0.028859464
145	0xbc3b6440	-0.011437476
146	0xbd514197	-0.051087942
147	0x3d48a31c	0.04898368
148	0x3d29f9de	0.041498058
149	0xbd064973	-0.03278489
150	0x3d477ec1	0.048704866
151	0xbd8050a8	-0.06265384
152	0xbbf4a114	-0.007465491
153	0x3c71c158	0.014755569
154	0xbd52073d	-0.051276434
155	0xbd656eea	-0.05601398
156	0xbd4d0cfc	-0.05006121
157	0xbcfe70a7	-0.031059576
158	0xbd49d76b	-0.049277704
159	0x3cc3cd36	0.023901563
160	0x3cbc02c2	0.022950534
161	0x3d35de43	0.04440142
162	0xbd50e53d	-0.05099987
163	0xbd651c92	-0.05593545
164	0xbd2db89c	-0.042412385
165	0x3c3ce440	0.011529028
166	0xbb89e76a	-0.004208495
167	0xbcd241cc	-0.02566614
168	0x3d4ccabe	0.049998038
169	0xbd80823e	-0.06274842
170	0xbd86485a	-0.06556769
171	0x3cea9fb1	0.0286406
172	0x3d584468	0.052799612
173	0x3d05da83	0.032679092
174	0xbd0073e4	-0.031360522
175	0x3d3ed88c	0.046593234
176	0xbd0b1a36	-0.033960544
177	0xbd508b46	-0.05091407
178	0xbd351cd0	-0.04421693
179	0x3d2a891c	0.041634664
180	0x3d6d1c1b	0.05788813
181	0x3d24cf47	0.040236738
182	0x3d3aae36	0.045576297
183	0x3d5c6701	0.05380917
184	0xbd4b8644	-0.049688593
185	0x3d63bab9	0.055597994
186	0x3d347d0d	0.04406457
187	0xbb93ac6a	-0.0045066373
188	0x3ca35b9b	0.019941142
189	0xbcff3a41	-0.031155707
190	0xbca81d55	-0.0205218
191	0xbc993844	-0.018703587
192	0xbd75c681	-0.06000376
193	0x3aa0ce00	0.0012268424
194	0x3d675646	0.05647876
195	0x3ce00219	0.02734475
196	0x3d5ccd77	0.053906884
197	0xbb52a41b	-0.0032141272
198	0xbd7ebc2b	-0.06219117
199	0xbd2ae4cc	-0.041722104
200	0xbd76d1c0	-0.060258627
201	0xbd069121	-0.03285325
202	0xb949a402	-0.00019229951
203	0xbd6b59bf	-0.057458635
204	0xbd4ccf26	-0.05000224
205	0x3d48d7c8	0.04903391
206	0xbd0b7cef	-0.034054693
207	0xbd00813b	-0.031373244
208	0x3c4711f0	0.012150273
209	0x3d2bb7aa	0.041923203
210	0x3cb0eb83	0.021596676
211	0xbb805d84	-0.003917398
212	0xbc6dc98a	-0.014513383
213	0xbd5a1472	-0.053242154
214	0x3a8966e1	0.0010482931
215	0xbcbf740f	-0.02337077
216	0x3cd241a0	0.025666058
217	0xbc281ff8	-0.010261528
218	0xbce78c3c	-0.028265111
219	0xbca3bb4a	-0.019986767
220	0xbd4f4db8	-0.050611228
221	0x3cfc01be	0.03076255
222	0x3d600994	0.054696634
223	0x3cb7c048	0.022430554
224	0x3acf270a	0.0015804481
225	0x3cc99016	0.024604838
226	0xbb8f5f1b	-0.004375351
227	0xbca05007	-0.01956941
228	0xbc2cf9c8	-0.010557599
229	0xbca8baa4	-0.02059681
230	0x3ca1a977	0.019734127
231	0xbd821040	-0.06350756
232	0xbc9ba0e8	-0.018997625
233	0xbd44bc74	-0.048031285
234	0xbd006556	-0.03134664
235	0xbd46dea6	-0.048552178
236	0xbc25ae0a	-0.010112295
237	0xbc30e52f	-0.010796829
238	0xbd83a045	-0.06427053
239	0xbd311576	-0.043233357
240	0x3a2efeaf	0.0006675524
241	0xbd18d90c	-0.037316367
242	0xbd8b744a	-0.0680929
243	0xbd5d53f8	-0.054035157
244	0x3c68093f	0.014162361
245	0x3ce3cdf4	0.027808167
246	0xba654a00	-0.00087466836
247	0xbd87152f	-0.06595837
248	0x3cdedf7f	0.02720618
249	0xbd2d0f83	-0.04225112
250	0xbcf576a0	-0.029963791
251	0xbb8b7b84	-0.0042566676
252	0xbd14536b	-0.036212366
253	0xbd639ca2	-0.0555693
254	0x3c894fcc	0.016761683
255	0xbd864c6e	-0.065575466

critic.2.bias f4 [128]
0	0x3b4c52de	0.0031177322
1	0x3c6ce85c	0.014459696
2	0xbbee6705	-0.0072754645
3	0xbd39ac22	-0.045330174
4	0x3d37da37	0.04488584
5	0xbb6ad76c	-0.0035833968
6	0xbd06eaf6	-0.03293892
7	0xbc2d77da	-0.010587657
8	0x3cd0ae53	0.02547375
9	0x3dc5ec65	0.09664229
10	0x3cf15d4f	0.029463438
11	0xbd3eb3f8	-0.04655835
12	0x3dd8c37a	0.10584159
13	0xbd355434	-0.044269755
14	0x3da8e152	0.082461014
15	0x3b8e05a7	0.00433417
16	0x3d986ffa	0.07443233
17	0x3d8d5454	0.0690085
18	0x3da74bd7	0.08168762
19	0x3db20c96	0.08693807
20	0x3dfa662a	0.122265175
21	0xbd7bc89c	-0.061470613
22	0x3cf1c8c8	0.029514685
23	0x3dadc129	0.08484108
24	0xbd5d6624	-0.054052487
25	0x3db66275	0.08905498
26	0xbbae64d6	-0.005322079
27	0x3bb3011e	0.0054627797
28	0x3c83cd33	0.016089058
29	0x3d513c24	0.051082745
30	0xbce8f02e	-0.02843484
31	0x3dd1870f	0.102308385
32	0x3c6f37a2	0.014600666
33	0x3d9f76c5	0.07786325
34	0x3bf29cb8	0.0074039362
35	0xbce675ff	-0.028132437
36	0x3d631a4c	0.055445
37	0x3d8328bc	0.06404254
38	0x3cbbac8d	0.022909427
39	0xbcb28bea	-0.021795232
40	0x3d388e9f	0.04505789
41	0x3dccb7d2	0.099959984
42	0x3d4f49e1	0.050607566
43	0xbd6b3076	-0.057419263
44	0x3cbc28cd	0.022968674
45	0x3dec8b7d	0.11550043
46	0x3d37d435	0.04488011
47	0x3d1eff6a	0.0388178
48	0xbd7c0248	-0.061525613
49	0xbd48f2f2	-0.049059816
50	0xbd68ee04	-0.056867614
51	0x3d5354f9	0.051594708
52	0x3d9f8aeb	0.077901684
53	0x3d407316	0.046984755
54	0x3cd5e430	0.026109785
55	0x3bb02be0	0.005376324
56	0xbd8fb99c	-0.07017824
57	0xbe07ee01	-0.13274385
58	0xbcc8346a	-0.024439055
59	0x3dc53a7b	0.09630295
60	0x3ce756fd	0.028239721
61	0x3d13fd01	0.036129955
62	0x3dc25341	0.09488536
63	0xbbef3774	-0.0073003117
64	0x3db4a21a	0.08819981
65	0x3cd6e833	0.026233768
66	0x3d5adbf9	0.05343244
67	0x3bab2aaf	0.005223594
68	0x3ce14805	0.027500162
69	0xbbb18848	-0.0054178573
70	0x3c7f55cb	0.0155844195
71	0x3cf36c45	0.029714713
72	0x3d650569	0.055913363
73	0x3dfabdd4	0.12243238
74	0x3d93c025	0.07214383
75	0x3d27e70e	0.040991835
76	0xbd2a53a1	-0.04158366
77	0x3d5e762d	0.05431192
78	0xbce3602a	-0.027755816
79	0xbccdd7a0	-0.025127232
80	0x3d79897e	0.06092214
81	0x3d7e8f71	0.062148515
82	0x3b5d450c	0.003376308
83	0xbc37994a	-0.011205981
84	0x3d1effc7	0.038818147
85	0x3ccfe345	0.025376925
86	0x3de13962	0.10997273
87	0x3d09b1b5	0.03361674
88	0xbb221153	-0.0024729564
89	0x3d413dbb	0.04717801
90	0x3d7e460d	0.062078524
91	0xbc81bb7d	-0.015836472
92	0xbcd3ef17	-0.025870843
93	0xbd2b88ed	-0.04187863
94	0x3cb6be62	0.022307578
95	0x3d0bff5e	0.034179084
96	0xbcf3071a	-0.029666472
97	0x3db943ff	0.09046172
98	0x3d63dc4a	0.055630006
99	0x3aaa839c	0.0013009193
100	0xbcf60213	-0.030030286
101	0x3cf25fc0	0.029586673
102	0x3d2a63f6	0.041599236
103	0xbca140f5	-0.019684294
104	0x3c9910d2	0.018684778
105	0x3d108903	0.035286915
106	0x3dbec4f7	0.09314912
107	0x3d893cc8	0.06701046
108	0x3d8e7931	0.06956709
109	0x3d82fdc2	0.06396057
110	0x3cc90c77	0.024542077
111	0xbbd35c7f	-0.0064502354
112	0x3d89926a	0.067173794
113	0xbd70fb02	-0.05883313
114	0xbc28f90d	-0.010313285
115	0x3d487a7a	0.048944928
116	0xbc766abc	-0.015040096
117	0xbd550ed3	-0.05201609
118	0xbcd59525	-0.026072094
119	0x3d031b26	0.032008313
120	0xbd907bcd	-0.07054863
121	0xbacff198	-0.0015864847
122	0xbd178206	-0.036989234
123	0x3e133d1d	0.14378782
124	0x3dd1b4a1	0.1023953
125	0xbd97e18c	-0.074160665
126	0xbcdb0004	-0.026733406
127	0xbe40faab	-0.18845622

critic.4.weight f4 [1, 128]
0	0xbcbcbe8a	-0.023040075
1	0xbf257158	-0.64626074
2	0x3f231f94	0.6372006
3	0xbe08b122	-0.13348821
4	0xbe2a28c7	-0.16617118
5	0x3e67a8c9	0.2262298
6	0xbe7761c2	-0.24158385
7	0xbf7cc7ac	-0.98742175
8	0x3ec259c0	0.379591
9	0x3e4d3ef0	0.2004354
10	0xbed55280	-0.41664505
11	0xbe0d1595	-0.13777764
12	0x3e70ce50	0.23516202
13	0xbe1d4a0d	-0.1536028
14	0xbe62b5de	-0.2213969
15	0xbe3ff280	-0.1874485
16	0xbe571673	-0.21004657
17	0xbe771301	-0.24128343
18	0x3f684a08	0.9073796
19	0x3f3b5317	0.7317366
20	0xbf8b83d0	-1.0899601
21	0xbd853988	-0.06505114
22	0x3daa6e3f	0.08321809
23	0x3e8a1606	0.26969928
24	0xbea9e9fc	-0.33186328
25	0x3e58da43	0.2117701
26	0x3e1842c8	0.14869225
27	0x3daa401b	0.083130084
28	0xbf637448	-0.88849306
29	0xbeb75c3d	-0.3581256
30	0xbe377172	-0.1791437
31	0x3e2ec0cf	0.17065738
32	0x3fa7a4ae	1.3097131
33	0xbe08dca4	-0.13365418
34	0xbea26380	-0.31716537
35	0xbe2e7355	-0.17036183
36	0xbe81d079	-0.25354365
37	0xbef4808e	-0.4775433
38	0x3eb78f07	0.3585131
39	0xbdc1b09c	-0.09457514
40	0xbe8503bf	-0.2597942
41	0x3e5fdf01	0.21862413
42	0xbd7676c9	-0.060171876
43	0xbd1a8504	-0.03772451
44	0xbe8b31ab	-0.2718633
45	0x3e816d2e	0.2527861
46	0x3f3e253a	0.74275553
47	0x3e4b2b66	0.19840774
48	0x3f56212e	0.8364438
49	0xbefe3a42	-0.49653822
50	0xbf5d4b82	-0.8644334
51	0x3da3d14d	0.07998905
52	0x3ec446d4	0.38335288
53	0x3edc0fa3	0.4298068
54	0xbec6a6bd	-0.38799086
55	0x3db3dea0	0.08782697
56	0xbf576a90	-0.84146976
57	0x3ed8b679	0.42326716
58	0xbe9bdb7a	-0.30440885
59	0x3e9722fb	0.29518875
60	0x3d9c7f32	0.07641448
61	0x3d9949bf	0.07484769
62	0x3f1ae8da	0.60511553
63	0x3dfdf1e1	0.1239965
64	0x3e58a82e	0.21157905
65	0x3e3ac364	0.18238598
66	0x3e333f45	0.17504604
67	0xbf2b7e1e	-0.66989315
68	0xbebefe28	-0.3730328
69	0xbf1b0c7b	-0.6056592
70	0xbf2910a6	-0.6604103
71	0xbe3f98cd	-0.18710633
72	0xbe268a94	-0.16263801
73	0x3e725ccd	0.23668213
74	0x3da26ac9	0.07930524
75	0x3e5f8544	0.2182818
76	0x3e08d5d3	0.13362817
77	0xbeb57cb9	-0.35446718
78	0xbf0c4821	-0.5479756
79	0x3d6b3835	0.05742665
80	0x3f087c4a	0.5331465
81	0x3f865706	1.0495307
82	0xbdbb9b9b	-0.09160539
83	0xbe33daa8	-0.1756388
84	0xbe772c09	-0.24137892
85	0x3e2cd9ad	0.16879912
86	0x3ebef5c3	0.37296876
87	0x3e01d688	0.12679493
88	0xbf0db9e5	-0.5536178
89	0xbe7843b1	-0.24244572
90	0xbe7bdc40	-0.24595737
91	0x3ecb75d4	0.39738333
92	0xbf7ae85e	-0.98010814
93	0xbf1e5d3f	-0.6186103
94	0xbde64f3b	-0.11245581
95	0xbe4563db	-0.19276373
96	0xbe4b653a	-0.19862834
97	0xbe9a5d1d	-0.30149165
98	0x3e701952	0.23447159
99	0xbe5368e5	-0.20645483
100	0x3f369016	0.7131361
101	0x3e26c5e5	0.16286428
102	0xbe422485	-0.18959244
103	0x3f341ac9	0.7035337
104	0x3e50d2fc	0.20392984
105	0xbebb5273	-0.3658634
106	0x3e80bc20	0.25143528
107	0xbef03dc8	-0.46922135
108	0x3e39d3bc	0.18147177
109	0x3f024551	0.5088702
110	0xbf0e2930	-0.555316
111	0xbdaf4225	-0.08557538
112	0x3f0efbcc	0.5585296
113	0x3b0f0bf6	0.0021827198
114	0xbeb92d76	-0.36167496
115	0x3f575b57	0.8412375
116	0x3f1586f0	0.58409023
117	0xbe8b6100	-0.27222443
118	0x3dc242a7	0.09485369
119	0x3e5d1748	0.21590912
120	0xbf5f6d5c	-0.87276244
121	0xbf2e9f27	-0.682116
122	0x3e537883	0.2065144
123	0xbeadd414	-0.33950865
124	0xbe2bbba5	-0.167708
125	0xbf71e4f3	-0.94489974
126	0x3e4ceba7	0.20011769
127	0x3ee2b312	0.44277245

actor.0.weight f4 [256, 48]
0	0xbda1085f	-0.07862925
1	0x3df891af	0.12137162
2	0xbc024f09	-0.007953414
3	0xbbf76091	-0.0075493534
4	0xbe6d74df	-0.23189114
5	0x3e2ed93b	0.17075054
6	0xbe2f7d6d	-0.1713769
7	0x3dbedfbb	0.09320017
8	0x3de3cf2f	0.111235015
9	0x3e959be1	0.2922049
10	0x3d036839	0.032081816
11	0x3df57a46	0.119862124
12	0xba02948e	-0.0004981243
13	0x3c742bc5	0.014903014
14	0x3dc28e55	0.09499804
15	0xbdc25816	-0.09489457
16	0xbe38974f	-0.1802647
17	0x3e2f349c	0.17109913
18	0xbd9e2bd3	-0.077232026
19	0x3e05b4e4	0.13057286
20	0xbd6c955f	-0.05775964
21	0xbd8baa25	-0.06819562
22	0x3dfcd0c2	0.12344505
23	0x3d109959	0.035302494
24	0xbc952faa	-0.018211205
25	0x3d90fe93	0.07079806
26	0xbd4a609e	-0.049408548
27	0xbc7e876d	-0.015535218
28	0xbe0aa3b7	-0.13539015
29	0x3e11ab10	0.14225411
30	0xbd3fe2fd	-0.046847332
31	0x3c57e43e	0.013176976
32	0xbc866709	-0.016406553
33	0xbddfe638	-0.109325826
34	0x3e0c4797	0.13699184
35	0xbdba1e96	-0.09087865
36	0xbdf5c99b	-0.12001344
37	0x3d7f0e78	0.062269658
38	0x3e096ca9	0.13420357
39	0x3c076cb0	0.008265659
40	0x3d1c620b	0.03817944
41	0x3a29f0ee	0.00064827397
42	0xbe08445d	-0.13307329
43	0x3db1abea	0.08675368
44	0xbdd958f4	-0.106126696
45	0xbc9e9835	-0.019359687
46	0xbd48f494	-0.049061373
47	0x3ab21d5a	0.001358907
48	0xbcf3adde	-0.029745992
49	0xbd1b80a9	-0.037964497
50	0xbc4d6050	-0.01253517
51	0xbd178cad	-0.036999393
52	0xbe87d1f8	-0.2652738
53	0xbe14bc83	-0.14525037
54	0x3ca2e598	0.01988487
55	0xbddd4300	-0.10803795
56	0xbec16c77	-0.37778065
57	0x3e6b9905	0.23007591
58	0xbe20031c	-0.15626186
59	0x3d28e6eb	0.041235846
60	0xbe01ee16	-0.12688479
61	0x3d45b081	0.04826403
62	0xbd4ec2e4	-0.05047883
63	0x3def9460	0.11698222
64	0xbe96d1af	-0.2945685
65	0x3b8fb90e	0.004386074
66	0xbd0f5772	-0.034995504
67	0x3db76d49	0.08956391
68	0xbe4479cf	-0.19187091
69	0x3e5baa3f	0.21451662
70	0x3c9daeb7	0.01924835
71	0xbe489e0a	-0.19591537
72	0x3aac3799	0.0013139128
73	0xbd9b087b	-0.07569977
74	0xbc327416	-0.010891935
75	0x3d0662f1	0.0328092
76	0xbe7ee1d8	-0.2489084
77	0xbdc59eb4	-0.09649411
78	0xbd52ea21	-0.051492814
79	0x3bd8ab89	0.0066122455
80	0xbe9c7ec5	-0.30565467
81	0x3e0c1310	0.13679147
82	0xbe2b393e	-0.16721055
83	0xbe461fc1	-0.1934805
84	0xbe25a7f8	-0.16177356
85	0xba901e80	-0.0010995418
86	0xbccd9ec0	-0.025100112
87	0x3dbefc72	0.09325494
88	0xbdd555ac	-0.10416731
89	0x3d075720	0.033042073
90	0xbd3f2b54	-0.04667218
91	0x3dbef92b	0.09324869
92	0xbecdeb0d	-0.40218392
93	0x3c391c14	0.011298198
94	0xbe3145c8	-0.17311776
95	0xbd6414c3	-0.055683862
96	0x3df3070f	0.11866581
97	0xbe4ee29e	-0.20203635
98	0x3e38e553	0.1805623
99	0xbe434c0a	-0.19071975
100	0xbe12d0e8	-0.14337504
101	0xbd4bd5e3	-0.049764525
102	0xbdf0b2a0	-0.1175282
103	0xbdad06d2	-0.084485665
104	0x3cbe415b	0.023224523
105	0x3cc09c13	0.023511922
106	0xbd1d89fc	-0.03846167
107	0x3e39d9d6	0.18149504
108	0xbc174287	-0.00923217
109	0xbe42c0d5	-0.19018872
110	0xbce849b8	-0.028355464
111	0xbe1e5bfd	-0.15464778
112	0xbde1a2e8	-0.110174
113	0x3d09fcff	0.03368854
114	0x3e0c6cec	0.13713425
115	0x3d882421	0.06647516
116	0xbdf5d29b	-0.120030604
117	0xbdc9ea71	-0.09859169
118	0xbdb1bed6	-0.08678977
119	0x3e80fe03	0.25193796
120	0x3dab2330	0.08356321
121	0xbda16774	-0.0788106
122	0x3ca1df0c	0.019759677
123	0xbe213a87	-0.15744983
124	0x3cd46fc3	0.025932198
125	0xbdcc5e68	-0.09978944
126	0xbdb43512	-0.08799185
127	0xbd8148e8	-0.06312734
128	0xbd91f791	-0.07127298
129	0x3e0d7d98	0.13817441
130	0x3d8f2643	0.0698972
131	0x3e5c6d2b	0.2152602
132	0xbda8cc6b	-0.08242115
133	0xbbb30d98	-0.005464267
134	0xbe250727	-0.1611601
135	0x3cf4d99f	0.029888926
136	0x3d51a1b3	0.0511796
137	0x3c6e139b	0.0145310415
138	0x3dbee6aa	0.093213394
139	0x3d32c33f	0.043643232
140	0xbd9e7d52	-0.07738747
141	0x3cbe068f	0.023196487
142	0xbe148b08	-0.14506161
143	0x3e9990ac	0.29993188
144	0xbe3e6462	-0.1859298
145	0xbd25422c	-0.04034631
146	0xbdcf3012	-0.101165906
147	0x3dae81d6	0.08520858
148	0xbe24178c	-0.16024607
149	0xbc742a77	-0.0149027025
150	0x3ccc5a0c	0.024945281
151	0x3d2e3d57	0.042538967
152	0x3c04c570	0.008103713
153	0x3ec77e87	0.3896372
154	0xbe068f57	-0.13140617
155	0x3d76d335	0.060260016
156	0xbd8c6c6e	-0.06856619
157	0xbd926e51	-0.071499474
158	0xbdaa2837	-0.083084516
159	0xbd9a2203	-0.075260185
160	0xbcc4a455	-0.02400414
161	0xbdbb494b	-0.09144839
162	0x3d79790f	0.060906466
163	0x3dda513e	0.10660027
164	0x3d6ecaea	0.058298983
165	0x3defd154	0.11709848
166	0xbe320d33	-0.17387848
167	0xbc930146	-0.017944943
168	0xbe3daa01	-0.18521883
169	0xbe3ef196	-0.18646845
170	0x3c820acc	0.015874289
171	0x3dfd29ae	0.123614654
172	0xbe515ec5	-0.20446308
173	0x3e276e28	0.16350615
174	0x3d8813c9	0.06644399
175	0x3e42440e	0.18971273
176	0x3c4c7802	0.012479784
177	0x3e988ff6	0.29797333
178	0xbd8ef872	-0.06980981
179	0x3e169d9e	0.14708564
180	0xbe98d55e	-0.29850286
181	0xbd40535e	-0.046954505
182	0xbe015f23	-0.12633948
183	0xbc7f5543	-0.015584293
184	0xbe37f178	-0.17963207
185	0xbd188b89	-0.037242446
186	0x3de98344	0.1140199
187	0x3b0f8696	0.0021900288
188	0xbde6da34	-0.11272088
189	0x3ea80184	0.32813656
190	0xbe2abb15	-0.16672929
191	0xbd344e53	-0.04402001
192	0x3e769046	0.24078473
193	0x3e501666	0.20321044
194	0xbc914029	-0.01773079
195	0x3db89fb2	0.090148345
196	0xbd0adcc5	-0.03390195
197	0x3b08ba44	0.0020862976
198	0xbdea6b0a	-0.11446197
199	0x3d85a46c	0.065255016
200	0xbe454189	-0.19263281
201	0xbef8fe93	-0.48631725
202	0xbd9e2aad	-0.077229835
203	0xbdfca108	-0.12335402
204	0x3e3bb693	0.18331365
205	0x3e5484f9	0.2075385
206	0x3d3485d9	0.04407296
207	0xbd772152	-0.06033451
208	0x3e230d18	0.15922964
209	0x3d8a39f7	0.06749337
210	0xb921fd4b	-0.00015448515
211	0xbd1204af	-0.035648998
212	0xbd8c8fb8	-0.0686335
213	0xbf0ae764	-0.54259324
214	0xbcbc742e	-0.023004618
215	0xbd439b0b	-0.047755282
216	0x3e142272	0.14466265
217	0x3d3d7994	0.046258524
218	0x3db77c81	0.08959294
219	0x3d4cf17d	0.05003499
220	0x3d1ad4fd	0.037800778
221	0xbdd148ae	-0.10218941
222	0xbdc2e34f	-0.09516012
223	0xbd95a94b	-0.07307681
224	0xbe24ba20	-0.16086626
225	0xbeaa983e	-0.33319277
226	0xbd8b9785	-0.068160094
227	0x3dc076a1	0.09397627
228	0x3e5537cb	0.20822065
229	0x3e5c7919	0.2153057
230	0x3e05216c	0.1300103
231	0xbda774fe	-0.08176611
232	0xbda9182e	-0.08256565
233	0x3e35bd8f	0.17748092
234	0xbd02d6dd	-0.03194319
235	0x3d6ecbb6	0.058299743
236	0xbe479ba6	-0.19492969
237	0xbed764af	-0.42069003
238	0xbd7a4819	-0.061103914
239	0x3df220d1	0.118226655
240	0xbd22c9bb	-0.039743166
241	0xbe277087	-0.1635152
242	0x3c99a896	0.018757146
243	0xbd7cc02e	-0.061706714
244	0xbdc47d57	-0.09594219
245	0x3d894fa4	0.06704643
246	0xbd47f74e	-0.048819833
247	0x3c97d567	0.018534375
248	0xbe1d91b7	-0.15387617
249	0x3db14ad6	0.08656852
250	0x3e766f89	0.24065985
251	0x3e9ba10e	0.30396312
252	0x3d1a11c3	0.037614595
253	0x3d3a1abf	0.045435663
254	0x3cf522cc	0.029923819
255	0x3e0043ae	0.12525818

actor.0.bias f4 [256]
0	0x3cbc0d3b	0.022955528
1	0xbbb529e3	-0.005528675
2	0xbce64d4e	-0.028113034
3	0x3caaa3b8	0.02083002
4	0xbd90437a	-0.0704412
5	0x3ddb357a	0.10703559
6	0xbd64651c	-0.055760488
7	0xbd937173	-0.07199373
8	0x3cf566d9	0.029956268
9	0xbdf58e5f	-0.11990046
10	0x3ddcf33a	0.10788579
11	0x3c824705	0.015903005
12	0x3dc76ca0	0.097375154
13	0xbe22c3a2	-0.1589494
14	0xbd37c2e4	-0.044863597
15	0x3db302bd	0.08740757
16	0xbdc08d44	-0.09401944
17	0xbcac1466	-0.02100582
18	0x3c8c8be7	0.017156554
19	0xbde80915	-0.11329857
20	0x3cc5d348	0.024148598
21	0x3d923363	0.071387075
22	0x3df1c01c	0.1180422
23	0xbde9fd41	-0.114252575
24	0x3e2c3cc3	0.16820054
25	0x3dd1eb71	0.10249985
26	0xbe18b053	-0.14911012
27	0xbd92134f	-0.07132589
28	0xbdf6270f	-0.120191686
29	0xbdfeeacc	-0.12447128
30	0x3dc5e151	0.09662116
31	0xbd966e59	-0.07345266
32	0x3dc9ff20	0.09863114
33	0xbdf29824	-0.11845425
34	0x3dccffce	0.10009728
35	0xbce9392f	-0.02846965
36	0xbde49797	-0.11161726
37	0xbcab74a0	-0.020929635
38	0xbd8e3200	-0.069431305
39	0xbd0757a1	-0.033042554
40	0xbcafc81d	-0.021457726
41	0x3e28d33e	0.16486832
42	0x3b1edb97	0.0024239772
43	0x3b4e8023	0.003150948
44	0xbd85a4bd	-0.06525562
45	0xbda40bbd	-0.080100514
46	0xbd06db7d	-0.032924164
47	0xbd6fd7b9	-0.05855534
48	0xbc926b9d	-0.01787358
49	0x3c439e8e	0.011939658
50	0xbcfca9ba	-0.03084265
51	0xbe060376	-0.13087258
52	0x3c6f57ad	0.014608306
53	0xbd445319	-0.04793081
54	0xbc9dd05b	-0.01926439
55	0xbce70414	-0.028200187
56	0xbd746c08	-0.05967334
57	0xbe0c3b56	-0.1369451
58	0xbcd1a4a5	-0.025591204
59	0xbdbf02e3	-0.093267225
60	0x3d8c69ab	0.06856092
61	0xbdda4f02	-0.10659601
62	0x3d91e974	0.07124606
63	0xbddcaa70	-0.10774696
64	0xbc9e2b98	-0.019307896
65	0xbd540260	-0.051760077
66	0x3ddc7c9a	0.10765953
67	0xbe335f8a	-0.17516914
68	0xbb1bfed8	-0.0023803022
69	0x3cf58e4f	0.029975085
70	0x3e00338a	0.1251966
71	0xbd877f62	-0.06616093
72	0xbd2cb0bc	-0.042160735
73	0xbdaed2b1	-0.0853628
74	0x3c279d7b	0.010230417
75	0xbde61f30	-0.11236417
76	0x3d6ff73c	0.05858539
77	0x3dd38b53	0.10329308
78	0xbdeddfa9	-0.116149254
79	0xbd841da6	-0.064509675
80	0x3d8b9bb3	0.06816807
81	0x3d571a66	0.05251541
82	0xbe059e2d	-0.1304862
83	0x3e144c70	0.14482284
84	0x3c2e8fb9	0.010654383
85	0x3cfac645	0.03061212
86	0x3e2f48ec	0.17117661
87	0x3ce16443	0.027513629
88	0xbcc61b5f	-0.024182973
89	0xbe08f24a	-0.13373676
90	0xbc5c9a5c	-0.0134645365
91	0x3e0101af	0.12598298
92	0xbe212029	-0.15734924
93	0x3e3e236d	0.18568201
94	0x3de68c80	0.11257267
95	0xbe0cbdbc	-0.13744253
96	0x3e095c6b	0.13414161
97	0xbd2071df	-0.039171096
98	0xbda465a0	-0.08027196
99	0x3c8d75ca	0.01726808
100	0xbddfd62c	-0.10929522
101	0xbda50bae	-0.08058868
102	0xbd6551d9	-0.05598626
103	0xbda2e0b5	-0.07953016
104	0x3de7356d	0.11289487
105	0x3e1dbeb4	0.15404779
106	0xbdc8abdc	-0.097984046
107	0x3d9e5c87	0.07732492
108	0xbd3aa530	-0.04556769
109	0x3e13a577	0.14418589
110	0x3d620046	0.055176042
111	0xbdac3da5	-0.08410195
112	0xbd87d3c2	-0.066321865
113	0x3e0db6db	0.13839285
114	0x3d8b4972	0.06801118
115	0x3e38db2d	0.18052359
116	0x3d74a5ba	0.05972836
117	0xbdbf6130	-0.09344709
118	0xbd3e1415	-0.04640587
119	0xbcbad9d4	-0.022808947
120	0xbd27c1b9	-0.040956233
121	0xbd837553	-0.06418862
122	0xbc123088	-0.008922704
123	0xbd0bf9a5	-0.034173626
124	0x3cfd5f7d	0.030929321
125	0x3d71a831	0.05899829
126	0xbdb6e189	-0.08929736
127	0x3e2338fe	0.1593971
128	0xbc594081	-0.013260008
129	0xbcc5ca6a	-0.02414437
130	0xbe0c3249	-0.13691057
131	0xbde48c28	-0.11159545
132	0xbdcbc2d5	-0.09949271
133	0xbda4d50f	-0.0804845
134	0x3ddcdb00	0.107839584
135	0xbdb022fa	-0.08600421
136	0x3bacb466	0.0052705286
137	0x3dc683bd	0.09693096
138	0xbbb23f2c	-0.0054396596
139	0xbd7d3957	-0.06182226
140	0xbdb2f8ae	-0.08738838
141	0x3d8736b6	0.06602232
142	0x3d303061	0.043014888
143	0x3d8473e6	0.064674184
144	0x3cdde619	0.027087258
145	0x3c83a8cb	0.016071698
146	0x3cf2140f	0.02955058
147	0xbdc6d075	-0.09707729
148	0xbe03a2f4	-0.1285513
149	0x3da9f44c	0.08298549
150	0xbbabe802	-0.0052461633
151	0xbd93b3a4	-0.07211998
152	0xbe1cb899	-0.15304793
153	0x3e034730	0.12820125
154	0x3d9a9f2b	0.0754989
155	0x3da337a1	0.07969595
156	0x3d5adb3a	0.053431727
157	0x3dfb76bc	0.12278506
158	0xbda58e88	-0.08083826
159	0x3e24633a	0.16053477
160	0x3cfffa84	0.031247385
161	0x3de848fc	0.11342046
162	0x3d0bd01f	0.034134027
163	0x3d513d87	0.051084068
164	0xbc2870d7	-0.010280809
165	0xbd0e1231	-0.034685317
166	0x3e01c724	0.12673622
167	0x3d671960	0.056420684
168	0xbd0573e6	-0.032581232
169	0xbe131d76	-0.14366707
170	0xbe040990	-0.12894273
171	0x3e3a5a81	0.18198587
172	0xbdf1a2a4	-0.11798599
173	0x3dbc2b38	0.09187931
174	0xbe0f6393	-0.14002828
175	0xbd907332	-0.07053222
176	0x3dc1d31e	0.094640955
177	0x3d77cec3	0.060499918
178	0xbcfdf9f1	-0.03100297
179	0xbe21daf4	-0.1580618
180	0x3d820670	0.06348884
181	0xbd38ef19	-0.045149896
182	0x3dc2224a	0.09479196
183	0x3e16f6e9	0.14742626
184	0xbdbbf74f	-0.0917803
185	0xbcc2c8ad	-0.02377733
186	0xbdcc99c2	-0.099902645
187	0x3d5ec34e	0.054385476
188	0x3c76baa9	0.015059152
189	0x3dd41604	0.10355762
190	0x3d7c2f00	0.06156826
191	0x3cdbc487	0.02682711
192	0xbdce9a4a	-0.10088022
193	0xbd887ce5	-0.06664447
194	0xbdfa8b65	-0.12233619
195	0xbd3876fe	-0.045035355
196	0xbd9dbbbe	-0.077018246
197	0xbd82b99f	-0.06383061
198	0xbde94e77	-0.11391919
199	0xbd4e4a84	-0.050364032
200	0xbdf414de	-0.119180426
201	0x3c775b47	0.015097446
202	0xbd516cae	-0.051129036
203	0xbc50658f	-0.012719526
204	0xba69ade9	-0.0008914159
205	0x3e1cb1af	0.15302156
206	0x3da6b5a8	0.08140117
207	0xbe129ba6	-0.14317188
208	0x3deb727c	0.114964455
209	0xbdfadf97	-0.12249678
210	0xbe1f0724	-0.15530068
211	0xbd8bdac0	-0.068288326
212	0xbdc39948	-0.095507205
213	0x3df67128	0.120333016
214	0x3dc941c6	0.098269984
215	0xbd817885	-0.063218154
216	0xbd2a281b	-0.041542154
217	0xbdc2cba9	-0.09511501
218	0xbbdc8250	-0.0067294016
219	0x3d9bc3df	0.07605719
220	0x3d3c1bae	0.045924835
221	0x3d7f17ee	0.06227868
222	0xbca00525	-0.019533703
223	0xbbbd21c0	-0.0057718456
224	0x3c6bb85d	0.014387217
225	0x3e0ed489	0.13948263
226	0x3d95d8b3	0.07316723
227	0xbdb61d95	-0.08892361
228	0xbdb51864	-0.08842543
229	0x3d3e4915	0.046456415
230	0x3c10939a	0.008824253
231	0x3d3a641f	0.04550564
232	0x3c156748	0.009118862
233	0x3cac223d	0.02101242
234	0xbda81473	-0.082070254
235	0x3c185256	0.009296974
236	0xbdb50054	-0.08837953
237	0x3cc7f84a	0.024410386
238	0x3d9a64e3	0.07538774
239	0xbd453c57	-0.048153248
240	0x3d8d4abc	0.0689902
241	0x3e00fc7f	0.1259632
242	0x3daf32a7	0.08554583
243	0x3dcd4215	0.1002237
244	0xbdae0696	-0.0849735
245	0xbde9eb29	-0.11421806
246	0x3e249fa5	0.16076525
247	0xbbaf7f0b	-0.005355721
248	0xbdc2e889	-0.09517009
249	0xbe21bb5a	-0.15794125
250	0x3dd8dbe4	0.10588816
251	0xbd6951ea	-0.056962885
252	0xbd8fa910	-0.07014668
253	0x3d78e663	0.06076659
254	0xbd9b5d0c	-0.07586107
255	0x3ae803c4	0.0017701318

actor.2.weight f4 [128, 256]
0	0x3dffd393	0.124915265
1	0x3cd1dc10	0.02561763
2	0x3db22bae	0.086997375
3	0x3d4ba344	0.04971625
4	0x3e8c5e71	0.27415803
5	0x3dde0fd6	0.10842864
6	0xbd564025	-0.052307267
7	0xbcf127ab	-0.02943786
8	0x3d1ee487	0.03879216
9	0x3d70e9b0	0.05881661
10	0x3d004870	0.03131908
11	0x3c1316e0	0.008977622
12	0xbb473842	-0.0030398523
13	0x3c9f9b67	0.019483281
14	0x3d41cb03	0.047312748
15	0x3d43cf83	0.04780532
16	0xbd0bc347	-0.034121778
17	0xbbbfb75a	-0.0058507146
18	0x3dbd21d1	0.092349656
19	0xbd4b874c	-0.049689576
20	0x3dbc6417	0.09198778
21	0x3d461f12	0.048369475
22	0xbcce13d2	-0.025155935
23	0xbdea9bca	-0.11455496
24	0xbe96695c	-0.29377258
25	0x3d7bc162	0.06146372
26	0xbb52b585	-0.003215165
27	0xbb9a17f8	-0.0047025643
28	0x3d6eee43	0.058332693
29	0xbd664ec3	-0.056227457
30	0xbc2d8409	-0.010590562
31	0xbc765f48	-0.015037365
32	0xbe2b7726	-0.1674467
33	0x3d670dcf	0.056409653
34	0x3da24c1a	0.079246715
35	0x3e118e00	0.14214325
36	0x3dba44ed	0.09095178
37	0xbd5c75b7	-0.0538232
38	0xbd84e444	-0.06488851
39	0x3dc0c575	0.09412662
40	0x3d9c9830	0.07646215
41	0xbca07022	-0.01958472
42	0xbe06215c	-0.13098663
43	0xbe90b101	-0.28260043
44	0xbe09b3fc	-0.13447565
45	0xbddeb7f3	-0.10874929
46	0x3cd3c8a9	0.025852518
47	0x3ca45a7e	0.020062681
48	0x3d43fea0	0.04785025
49	0x3c11c7c3	0.008897725
50	0xbdb20da6	-0.086940095
51	0x3d82336b	0.063574634
52	0xbbd6ecc2	-0.0065589854
53	0x3d1c1e8a	0.03811506
54	0xbf1e4930	-0.61830425
55	0x3dbdb0b8	0.09262222
56	0xbe2ba0ef	-0.1676061
57	0xbb3201fc	-0.0027161827
58	0x3d0aedbe	0.033918135
59	0xbdecfe42	-0.11571933
60	0x3c96cc21	0.018407883
61	0x3eaf2ad5	0.34212366
62	0x3d389797	0.045066442
63	0xbd2b486e	-0.04181712
64	0xbd9e608e	-0.0773326
65	0x3bc1abfc	0.0059103947
66	0x3e2ca66d	0.16860361
67	0xbc3b4286	-0.011429435
68	0x3de3e9f8	0.111286104
69	0x3d98d6de	0.07462858
70	0xbda19061	-0.07888866
71	0x3b807206	0.0039198427
72	0x3dc53ea4	0.096310884
73	0xbbc7b45d	-0.006094499
74	0x3e32d068	0.17462313
75	0xbd8ea0ff	-0.06964301
76	0xbd167b51	-0.036738697
77	0xbd0a06e1	-0.033697966
78	0x3dbca67a	0.092114404
79	0x3ae05852	0.0017116165
80	0x3d11f489	0.035633598
81	0xbda284d2	-0.0793549
82	0x3e4689ec	0.1938855
83	0x3db8e01d	0.09027121
84	0x3d5e0724	0.05420603
85	0xbd370ddc	-0.04469095
86	0xbc31c577	-0.010850302
87	0xbdc7a7ca	-0.097488
88	0x3dd2d941	0.10295344
89	0x3d856a50	0.06514418
90	0x3d89ba19	0.067249484
91	0xbc5e888c	-0.01358236
92	0x3c943cb4	0.018095352
93	0x3d7ecd69	0.062207613
94	0x3e5d5883	0.21615796
95	0xbd85740e	-0.06516276
96	0xbf165b22	-0.5873281
97	0x3d39c786	0.045356296
98	0xbe853d79	-0.26023462
99	0x3da0d38f	0.078528516
100	0x3cdc9d2a	0.02693041
101	0x3dc04388	0.093878806
102	0xbe19929d	-0.14997335
103	0x3a942fba	0.0011305728
104	0x3e19f499	0.15034713
105	0xbda03776	-0.07823078
106	0x3dd524a8	0.10407382
107	0xbd4ec9c2	-0.05048538
108	0x3ca2350d	0.019800687
109	0xbc20ca11	-0.009813801
110	0xba5832a8	-0.00082472945
111	0xbee1886c	-0.44049394
112	0xbce13ee7	-0.027495814
113	0x3c97409f	0.01846343
114	0x3c91bcd1	0.01779023
115	0xbdbeb1a6	-0.093112275
116	0x3cc6a03e	0.024246331
117	0xbdad84a5	-0.084725656
118	0xbe5a838a	-0.2133924
119	0x3da5dd64	0.080988675
120	0x3e9dcade	0.30818838
121	0x3c708c80	0.014681935
122	0x3cf8d4ed	0.030374968
123	0x3cafb9d7	0.02145092
124	0xbd360005	-0.044433612
125	0xbdbf3dc8	-0.09337956
126	0xba2528d1	-0.00063003326
127	0xbca717a7	-0.02039702
128	0x3dbf761c	0.093486995
129	0xbccb0864	-0.024784274
130	0x3c7b1220	0.015324146
131	0xbc2eb64a	-0.010663578
132	0x3cce9d5d	0.025221521
133	0x3d368826	0.044563435
134	0x3d451874	0.048119023
135	0x3d7bf2cc	0.061510846
136	0xbe2ff3f2	-0.17182902
137	0xba5023ea	-0.0007939922
138	0xbc174a0d	-0.009233964
139	0x3d66ac54	0.05631669
140	0xbd50feeb	-0.05102436
141	0xbcfc9c0c	-0.030836128
142	0xbd386e2c	-0.045026943
143	0x3e1e9dae	0.15489838
144	0x3cf4dcf7	0.02989052
145	0xbd64c2cd	-0.05584984
146	0x3d8c5b9d	0.06853411
147	0x3dbfb152	0.09359993
148	0x3da99116	0.08279626
149	0xbd983b97	-0.07433241
150	0x3d3789f1	0.044809286
151	0xbd1257ba	-0.035728194
152	0x3ce5a046	0.028030526
153	0xbd6dc0d2	-0.058045216
154	0xba0053d1	-0.0004895302
155	0xbe5743d4	-0.21021968
156	0xbe0d2886	-0.1378499
157	0xbd94eca8	-0.07271701
158	0x3d444309	0.047915492
159	0xbe6853e0	-0.22688246
160	0xbdcc838f	-0.0998603
161	0xbcbd79ef	-0.023129432
162	0xbde51765	-0.11186103
163	0x3e278694	0.16359931
164	0x3d7cc41a	0.061710455
165	0xbaee0fc9	-0.0018162663
166	0xbd6f732b	-0.058459442
167	0xbd0d1561	-0.034444217
168	0x3d0d0db5	0.0344369
169	0x3e025003	0.12725835
170	0x3dd76dd8	0.10518998
171	0x3d533c04	0.051570907
172	0xbe21fe42	-0.15819648
173	0x3ca12180	0.019669294
174	0x3cbb3478	0.022852167
175	0x3d842b30	0.0645355
176	0x3e139aa6	0.14414462
177	0xbc179abf	-0.009253203
178	0x3df684bb	0.12037035
179	0xbea1b091	-0.31580022
180	0xbe176150	-0.14783216
181	0xbd0addb7	-0.03390285
182	0xbdd27534	-0.10276261
183	0xbabc1838	-0.001435048
184	0xbe185509	-0.14876188
185	0x3bd9af8e	0.006643242
186	0x3dba113b	0.09085318
187	0x3d8e5c58	0.06951207
188	0x3d7463e2	0.05966557
189	0xbe260499	-0.16212691
190	0xbe20f5d9	-0.15718783
191	0x3cd0cb33	0.025487518
192	0xbdd672df	-0.10471129
193	0xbd6f1287	-0.05836728
194	0x3e2fc5b4	0.17165262
195	0xbd6dfd73	-0.058103036
196	0xbcd31489	-0.025766628
197	0xbd42fb89	-0.047603164
198	0x3c389671	0.011266337
199	0xbdaea0c9	-0.08526761
200	0x39d3a1db	0.00040365648
201	0xbd30c763	-0.0431589
202	0xbc58d439	-0.013234192
203	0xbd0fe3e7	-0.035129454
204	0x3c8b9cd8	0.017042562
205	0xbc827d5f	-0.015928922
206	0x3d5dc2cb	0.054140847
207	0x3cc6327e	0.024193998
208	0x3e13a3eb	0.14417998
209	0xbdce9da3	-0.100886606
210	0xbd1a4b7c	-0.037669644
211	0x3c8035a5	0.01565058
212	0xbd64ba84	-0.055841938
213	0xbdc21fc4	-0.09478715
214	0x3ded5ccd	0.11589966
215	0xbe4df6a3	-0.20113616
216	0x3c3ed705	0.011647944
217	0x3e18d0fe	0.14923474
218	0x3e51c753	0.20486192
219	0xbe8959f0	-0.2682643
220	0x3e07148d	0.13191433
221	0xbe060e5a	-0.13091412
222	0x3d5f92e9	0.054583464
223	0x3b78ffd3	0.003799428
224	0x3e251edb	0.16125052
225	0xbd8dff6a	-0.06933482
226	0xbb9b361f	-0.0047366763
227	0x3e1c1365	0.15241773
228	0xbc989b83	-0.018628841
229	0x3d1deb09	0.038554225
230	0x3cdab119	0.026695775
231	0x3d36a3ae	0.04458969
232	0x3d526f7c	0.05137585
233	0xbdc2b020	-0.095062494
234	0xbdded6e1	-0.10880829
235	0xbcc30e1e	-0.023810443
236	0xbd89996c	-0.06718716
237	0x3c197531	0.0093663195
238	0x3d2ca945	0.042153616
239	0x3d419323	0.04725946
240	0xbe8d15fa	-0.2755583
241	0x3d05a0b7	0.032623973
242	0x3d9746e8	0.07386571
243	0xbe1e2c71	-0.1544664
244	0x3c88f210	0.016716987
245	0x3d4596f8	0.04823968
246	0x3d89121c	0.06692907
247	0x3dfeee0f	0.1244775
248	0xbde3c5a5	-0.11121682
249	0x3ce20c3d	0.027593726
250	0x3db10387	0.08643251
251	0x3dea3f23	0.114378236
252	0x3c51a801	0.012796403
253	0x3d174e58	0.03693995
254	0xbd736f55	-0.059432346
255	0x3e15b39c	0.14619297
