CRL/模型集_selfplay/run_20260123-181652/slime_ppo_5M.pth (torch, 370495 bytes, 11 tensors)

critic.0.weight f4 [256, 48]
000000 cf c9 85 3d dd ee fd bc 81 35 03 bd d4 b3 5a 3d
       0.065326326 -0.030997688 -0.032033447 0.053394154
000010 3a 15 d2 3c 4d ed b5 bd 09 ea 40 bb cd b6 40 3c
       0.025644887 -0.08883152 -0.002943637 0.011762333
000020 5b 5e b4 3d 53 53 80 3e 4d 94 39 bd 88 3c 43 3d
       0.088070594 0.2506357 -0.045307446 0.04766515
000030 33 ee 0f 3e 3f d9 81 3d c0 e3 32 b8 33 06 ff 3d
       0.1405571 0.063402645 -4.2650616e-05 0.12452354
000040 28 78 be 3d 10 15 95 3d 69 50 44 bc 6e 4c 06 be
       0.09300262 0.07279408 -0.011982062 -0.13115093
000050 c2 e7 74 3d 6f 91 31 3e 12 9d 12 3c 2c a8 d0 bd
       0.059791334 0.17340635 0.008948581 -0.10188326
000060 67 bf 5b 3e 9a 3e 03 bb 79 31 c5 3c b7 6f ef 3d
       0.21459733 -0.0020026327 0.024071442 0.1169123
000070 c2 ab 03 be c8 61 5a bd 98 5d 0f 3d b0 cd c8 3d
       -0.12858489 -0.053315908 0.035001367 0.09804857
000080 be 24 45 3d 3d 8c 10 3e ab 45 d8 bd 89 3b 0b be
       0.048130743 0.14115997 -0.10560163 -0.1359693
000090 3b 83 3e 3e 4b 4c 13 3e 98 8c f4 3c bf 53 0e bd
       0.18604748 0.14384572 0.029852197 -0.034747835
0000a0 9d 48 ea 3d 51 20 66 3d 15 ec 7b ba 33 7a 22 be
       0.11439631 0.056183163 -0.0009610069 -0.15866928
0000b0 c7 9d 2f 3d 57 45 33 3e 22 d4 1f be 1c b0 a1 3d
       0.042875078 0.1750692 -0.15608266 0.07894918
0000c0 c0 f8 93 3e 58 ae 95 3d bb ee 5a bb f0 d0 31 bd
       0.2890072 0.07308644 -0.0033406455 -0.04341215
0000d0 88 bb e5 bd 06 8c c5 3d 1c 07 f3 3c 6b e3 0f 3d
       -0.11217409 0.09645848 0.029666476 0.035128992
0000e0 11 72 c0 be d7 2c 5d bd b2 7a 73 3d 17 1d 3c 3e
       -0.37587026 -0.05399784 0.059443183 0.18370472
0000f0 3e c6 82 3e 89 8a ee bb 22 52 85 3b f2 c3 c7 bd
       0.25541872 -0.0072796983 0.004068629 -0.097541705
000100 09 22 97 3d 11 31 ba bd 28 c9 b0 3c 2a 0f 6c bc
       0.073795386 -0.0909139 0.021580294 -0.014407912
000110 e0 30 93 be e1 f7 e0 3d c8 e9 b5 bd a0 a2 fc 3d
       -0.28748226 0.10984779 -0.08882481 0.12335706
000120 fe f5 b0 3e c5 ce 53 bc 22 0e 8d 3c 19 ef bc 3d
       0.34562677 -0.012927716 0.017218653 0.09225292
000130 ca 6a 93 bd 6c a3 ee bd e7 86 d0 3c 03 b0 45 bd
       -0.07198103 -0.11652264 0.025454951 -0.04826356
000140 d4 c8 74 be 3a be 0e 3b 33 e8 0c be 16 a3 0d bd
       -0.23904735 0.0021780864 -0.13760452 -0.03457936
000150 67 de 67 3e 8c 3d 07 3d ef 70 fd 3c 47 89 37 bc
       0.22643434 0.03301768 0.03093764 -0.011202163
000160 40 c8 19 3d f0 10 f0 bd 0c a4 c2 3c 84 34 95 38
       0.03754449 -0.117219806 0.023759864 7.1146555e-05
000170 92 71 92 be 95 8b 7a 3d d1 46 bd bd 7b 7b b9 bd
       -0.28602272 0.061168272 -0.09242023 -0.09056755
000180 df 9f 0c be c0 eb b4 3d 04 45 0e bc 2e e2 e4 3d
       -0.13732861 0.08834028 -0.008683447 0.11175953
000190 8d 86 e2 bd c5 36 05 3e 38 19 7e bb fe 01 30 bd
       -0.1106082 0.13009174 -0.0038772356 -0.04297065
0001a0 4a 8e d6 3b 22 0d 69 3e 50 f6 94 3c cf 5f 67 3a
       0.006547724 0.22758916 0.018183857 0.0008826227
0001b0 75 5f d9 bd 35 c0 a2 3d 6f 20 e9 bc d6 c9 fc bc
       -0.1061391 0.07946817 -0.028457848 -0.030857962
0001c0 f6 7a 61 bd 3e 93 13 3e 3d 7e ed 3a c8 84 17 bd
       -0.055048905 0.14411637 0.0018119287 -0.036991864
0001d0 13 ec cf 3d c6 f3 17 3e b7 cf 41 3d 8f 6e 38 3d
       0.101524495 0.14839086 0.047317233 0.045027312
0001e0 72 2f 07 be 3c 85 fe 3d db 1b c5 bc 04 7d 0c 3e
       -0.13201693 0.12427756 -0.024061134 0.13719565
0001f0 9b 9c a4 bd 39 be d1 3d 94 21 1f 3c cd ec 86 3c
       -0.080376826 0.1024136 0.0097125955 0.016470337
000200 6f f5 a4 3d 96 1e 56 3e cd 04 78 3e 33 18 22 be
       0.08054625 0.20910105 0.24220581 -0.15829544
000210 36 28 62 be b0 09 9d 3c bd 50 f6 bb 57 c2 3f bd
       -0.22085652 0.019169658 -0.007516949 -0.046816196
000220 2c c9 2c 3d 1e 7c 88 3a 03 40 b5 3b dc f8 bd bc
       0.04218404 0.0010412966 0.0055313124 -0.023189954
000230 bd 7d cb 3d 4f 0c 52 3e 71 99 49 bd ee 28 c5 bd
       0.09936092 0.20512508 -0.0492186 -0.09626947
000240 c0 c8 ad bc 4c 33 f8 ba bf 7c 63 bc 87 f0 1b 3d
       -0.02121389 -0.0018936186 -0.013884722 0.03807118
000250 3d 29 83 bd 1a 1a 87 3d ee ed fc bb b9 dc 0f 3b
       -0.0640435 0.06596775 -0.007718793 0.002195163
000260 6d dd 91 3d 52 37 3f bc d6 ee d2 3d 27 76 8e bc
       0.07122312 -0.011670904 0.102994606 -0.017390324
000270 ae c1 09 3e 77 28 85 3d da 09 a3 bc 8c 2c 33 bd
       0.13452789 0.06501859 -0.019902159 -0.043743655
000280 7d 6f af bd aa 4d a1 bd 56 7a a9 3a 7e c1 68 3c
       -0.085661866 -0.07876141 0.0012930136 0.014206288
000290 dd 00 56 3e f6 c7 9b bc 59 13 47 3e f1 6f 8a bd
       0.20898767 -0.019016247 0.19440974 -0.067596324
0002a0 fa 9d 14 be b5 22 b4 bd a9 f0 91 bb 67 dc 94 bd
       -0.14513388 -0.08795682 -0.0044537378 -0.07268601
0002b0 0b 06 14 bd 7e b1 a9 bd 1d 4b 6e bc cb ab b4 3c
       -0.036138576 -0.08285807 -0.014544276 0.022054574
0002c0 bc 7b 55 3e 56 e7 ba 3c 46 48 01 3f d0 a4 d6 bd
       0.20847982 0.022815388 0.50500906 -0.10480654
0002d0 4d 4b 36 3d 90 25 34 3e b4 34 68 bc 57 6c 06 bd
       0.044505406 0.17592454 -0.014172722 -0.032818165
0002e0 d7 16 3f bd 6d 75 fb 3d 70 68 07 bd 0a a0 46 bd
       -0.04665264 0.122782566 -0.033058584 -0.04849247
0002f0 6e 3d 86 3e 2b b8 fb bd d3 d9 d6 3e 28 58 8e bd
       0.26218742 -0.122909866 0.41963062 -0.06950408
000300 63 0d b2 3d 94 fb 34 3d 6d 38 9c 3c 17 43 70 bb
       0.086939596 0.044185236 0.019069875 -0.0036661082
000310 3b 7d f5 bd e1 b2 83 bd 42 f3 6a 3b 5a 63 c4 bc
       -0.119867764 -0.06430603 0.003585056 -0.023973156
000320 5c 51 27 be 5a 0d a8 bd 0b 31 ea bd 43 1e c4 bd
       -0.1633963 -0.082056716 -0.114351355 -0.095760845
000330 c7 70 6f 3e 55 01 db bd 02 c6 ad 3c c2 8e c3 3d
       0.23382865 -0.106936134 0.021212582 0.09548713
000340 d8 25 43 bd d4 47 f0 bc e7 71 5f 3b fe 11 56 3d
       -0.047643512 -0.029331125 0.003409499 0.052263252
000350 14 fa 91 bd 5a d2 39 bd 3f ec 84 be e4 4b 9d bc
       -0.07127777 -0.045366623 -0.2596149 -0.019201227
000360 d8 18 8b 3e cc 5a 58 3d 6a 9f d1 3c e2 03 48 bd
       0.27167392 0.052820966 0.02558871 -0.048831828
000370 d5 0c 43 be 01 63 d8 3d 92 39 d3 3b 29 74 d6 bc
       -0.19047864 0.105657585 0.006446072 -0.026178436
000380 46 05 4c be 4f ea f8 3d 49 9c 66 be 89 1a 8e 3d
       -0.19923887 0.12154066 -0.22520556 0.06938655
000390 18 4f 8d 3e 11 16 be 3b 05 63 01 3d ef 68 b6 bb
       0.27599406 0.0058009704 0.031588573 -0.0055667083
0003a0 97 23 44 3d 08 97 cf bd 73 d0 92 3b 0f 54 10 bb
       0.047885504 -0.10136229 0.0044804155 -0.002202276
0003b0 39 2a 38 3c fe bc 10 3e b6 65 c6 bd 4c ce 96 bd
       0.011240535 0.14134595 -0.096873686 -0.07363567
0003c0 db a5 4f be 86 6c a9 bd 6a d2 9f 3c d6 1c 4e 3d
       -0.20278113 -0.08272652 0.019509513 0.05032047
0003d0 25 4d 67 3c 98 80 a7 3c 4c 87 5c bc 3c dd 03 be
       0.014117514 0.02044706 -0.013459992 -0.12877363
0003e0 07 ac 51 3e a5 12 94 be 2d 5f 1b be a4 49 66 be
       0.2047578 -0.28920475 -0.15173025 -0.22489029
0003f0 88 ed 66 be aa 97 c3 3d 8c e5 35 bd 03 16 b1 bd
       -0.22551548 0.09550412 -0.044408366 -0.086467765

critic.0.bias f4 [256]
000000 d5 bb 3e 3e ce ed cb ba 5c 39 0c bd cf 16 a6 3d
       0.1862634 -0.0015558542 -0.03423439 0.08109819
000010 4e 94 e1 bd f8 61 90 bc 2a 9d 87 3d 2e 8c 66 bd
       -0.11014615 -0.01762484 0.066217735 -0.05628603
000020 a0 9d c4 3d ac e7 f4 3d 3b a6 9a 3b 4b 7b 24 3e
       0.09600377 0.119582504 0.0047195232 0.16062658
000030 12 83 fb 3c 30 42 c7 bd 92 de 93 3d 9a 26 46 be
       0.030702148 -0.09729421 0.07220186 -0.19350663
000040 bb 19 b5 3a 98 86 b0 3d 34 25 2d 3a 7d 40 2e be
       0.0013816872 0.08619422 0.000660497 -0.17016788
000050 07 56 f2 3b 49 0a 09 3d e7 f2 0e 3e 0e 2d 20 be
       0.007395509 0.033457074 0.13959847 -0.15642187
000060 48 b8 ca ba e4 75 1e be 46 32 3e be a2 33 a9 be
       -0.0015466297 -0.15474659 -0.18573865 -0.33047205
000070 35 8e f6 3c 90 ba 3c 3d 53 f4 b3 bd c3 80 43 3e
       0.030097106 0.046076357 -0.087868355 0.19092087
000080 91 69 91 3e c0 b6 5e bd f1 22 c0 bd b1 40 ca bd
       0.28400853 -0.054373503 -0.093816645 -0.0987562
000090 4f 44 c0 3d 4c 5e 12 3d ba be 74 3d 49 46 e4 3d
       0.09388029 0.03573446 0.059752204 0.11146218
0000a0 89 d1 ad 3d e8 de 8c 3d df 11 9f 3e dc 36 c2 bd
       0.08487231 0.068784535 0.31068322 -0.0948312
0000b0 4d 56 94 3d 1b 8b 91 3c 0a 75 e5 bd a8 b3 db 3c
       0.07243023 0.017766526 -0.11203964 0.026819065
0000c0 6a 60 d0 3d 34 98 27 3d df ec 06 be 5f e6 82 be
       0.101746395 0.040916637 -0.13176297 -0.25566384
0000d0 16 48 55 3e 73 b0 58 3e 22 72 46 bc 58 76 24 be
       0.2082828 0.2116106 -0.012112172 -0.1606077
0000e0 3a db e3 3d bc af d6 3d f6 4c 1c 3d c9 13 30 3e
       0.111257985 0.104827374 0.038159333 0.17195047
0000f0 7d 87 34 bc c9 e8 04 3d f0 4d 9c 3d fd 26 f1 3d
       -0.011018631 0.032448564 0.07632053 0.117750145
000100 45 2d 85 3e d8 06 b7 3d 44 a9 44 bd 63 c1 ba bd
       0.260111 0.08936852 -0.048012987 -0.09118917
000110 1a 4b 02 be 79 cc 72 3d ca c9 fb 3d ab 69 dc 3e
       -0.12723961 0.05927703 0.122943476 0.43049368
000120 bb f9 98 be a6 cb 48 3e 57 1c be be 55 3d a0 bd
       -0.2987803 0.19608936 -0.37130997 -0.07824198
000130 df 87 87 3b 4a f2 9a bd d8 37 f8 3b 46 af 3b be
       0.00413607 -0.07565744 0.0075750165 -0.1832858
000140 15 67 c8 3d 5b cd 93 3d 9a 58 da 3d 60 25 8c 3d
       0.09785286 0.07216903 0.10661431 0.06843066
000150 8f f0 80 be 97 3c 1d 3e 31 41 dd bd ca 93 b2 3c
       -0.25183532 0.15355144 -0.1080345 0.021798987
000160 3a e9 f6 3d 35 84 6a be c0 a7 c5 38 39 24 b4 bd
       0.12056203 -0.22901995 9.424938e-05 -0.087959714
000170 a0 83 af bd 4f f4 da be 59 0f be bd 52 26 8b bd
       -0.08570027 -0.42764518 -0.09280271 -0.067944184
000180 c4 ce 9a 3c b2 6b e3 bd 23 2e ad bb dc a6 ae bd
       0.018897422 -0.111045256 -0.005285041 -0.0852792
000190 99 92 dc bd ad 83 18 3c 1a 3a 7d 3d 1b 01 9d bd
       -0.10770149 0.009308738 0.061822988 -0.076662265
0001a0 13 6a 02 be cb 17 aa bc 77 37 92 bd 59 fb bf 3d
       -0.12735777 -0.020763298 -0.07139485 0.09374113
0001b0 07 9e 2c bd 25 51 8e 3d 80 2c b8 bd 66 77 c1 3c
       -0.042142894 0.06949071 -0.08992863 0.023616504
0001c0 e5 c7 d8 3d fe d6 4d bd ac 20 12 3d a4 57 14 3e
       0.10585002 -0.05025386 0.03567569 0.14486557
0001d0 56 88 22 3e f0 97 f6 3d d1 d6 01 be 26 09 2b be
       0.1587232 0.120406985 -0.12679602 -0.16702709
0001e0 6d 8e 9d 3d 05 d3 c0 3d 06 a2 9e bd eb e6 3a 3e
       0.07693181 0.09415249 -0.07745747 0.1825215
0001f0 31 89 46 3e 00 c3 f6 3c 1b b5 37 3e c5 bc 10 be
       0.19388272 0.03012228 0.1794018 -0.1413451
000200 66 35 19 3e c8 aa 5c bd b5 75 45 3e 37 0e 0e be
       0.14961776 -0.053873807 0.19283183 -0.1387261
000210 13 ac 19 be f9 68 ae 3e 7d c8 29 be d5 cb 27 be
       -0.15007047 0.34064463 -0.16580386 -0.1638635
000220 0c 7c 43 be 06 b8 cd bd 09 62 a5 bc de 1f b2 3b
       -0.19090289 -0.10044865 -0.020188348 0.005435928
000230 e8 16 4b be 4d ae 5e 3e 20 28 a1 3c 11 07 48 bd
       -0.19832957 0.21746178 0.019672453 -0.048834864
000240 bb 37 dd 3d 60 3f 14 be 3d 61 64 bd 6b d3 24 3e
       0.10801645 -0.144773 -0.055756796 0.16096275
000250 85 cd bf bb bd c9 54 bd f6 18 c7 be 24 74 26 3d
       -0.0058533573 -0.051950205 -0.3888623 0.040638104
000260 fe 32 20 bd b7 46 2c bd 5a a0 a7 3e 37 30 a8 3e
       -0.03911113 -0.042059626 0.32739526 0.32849285
000270 da df f2 be 80 04 2d bb e0 ab 19 3e b9 0d 11 3d
       -0.4743641 -0.0026400387 0.15006971 0.035413478
000280 f7 99 86 3e dd ab 4c be 11 8c a1 3d 78 4c 2d 3e
       0.2628934 -0.19987436 0.07888044 0.16923702
000290 58 0e 8f bb f1 28 07 3e 4a 83 a4 3d bc fd e9 3c
       -0.0043657236 0.13199212 0.08032854 0.028563373
0002a0 8e c1 5b 3d fd d4 f8 3d ef 03 0b bc d5 41 6b 3d
       0.053651385 0.12149999 -0.008484825 0.05743583
0002b0 7c 46 9c 3d c6 87 01 3e 93 71 1b bd 14 41 1a be
       0.07630631 0.1264945 -0.03795011 -0.15063888
0002c0 f4 67 c3 3b aa b1 27 3d f6 e8 79 bc 26 5b ec 3d
       0.00596332 0.040940918 -0.015253296 0.11540823
0002d0 80 8c e4 bd 3b 55 30 3e ff 40 08 be 91 de ec 3d
       -0.11159611 0.17220013 -0.13306044 0.11565889
0002e0 75 83 18 3d 4b dc 7a be ce 1d e7 3e fa 8d 80 3b
       0.037234742 -0.24498098 0.45139927 0.003923175
0002f0 da ac 23 3e d3 f8 8f 3c 23 c9 3f 3e 97 f5 39 3e
       0.15983906 0.017574703 0.18729071 0.18160091
000300 f6 8c 58 3c 81 76 71 bd 38 94 25 be 05 db 87 bd
       0.013217201 -0.058950905 -0.16169822 -0.066335715
000310 98 16 c5 3c 5f 5d 23 3d 2b 8c 74 bd 72 b7 c8 bd
       0.024058625 0.039883967 -0.059703987 -0.098006144
000320 5c 18 0b 3e c3 4c a3 3c ce d7 00 3e f7 9d 4f 3e
       0.13583511 0.019934064 0.12582323 0.20275103
000330 c0 2e 58 3e 95 7c 63 3e 87 9b 0f 3c 98 a2 b6 3c
       0.21111584 0.22215493 0.008765108 0.022294328
000340 48 fc c8 3d 6e 18 18 3d 24 f5 86 3e 12 e0 fd 3c
       0.09813744 0.037132673 0.26358902 0.030990634
000350 68 c7 a8 bd 5b 95 20 3e a8 97 a4 bd 8b fa 36 bd
       -0.08241159 0.15681975 -0.08036739 -0.04467253
000360 72 3b 5b 3d a8 fa 8e 3d a1 10 45 3e e4 97 65 3e
       0.05352349 0.06981403 0.19244625 0.22421223
000370 1b 33 a8 bc 7e 84 17 bd e1 de 56 3e 59 2b de 3d
       -0.020532181 -0.03699159 0.20983459 0.10848112
000380 f9 e6 8d be 61 67 1c bd 27 e0 4e 3e 6c 17 29 3e
       -0.2771528 -0.038184527 0.20202695 0.16512841
000390 70 4e 4f bd 6d 20 f2 bc b1 e8 96 3c a0 31 85 be
       -0.050611913 -0.029556477 0.018421503 -0.26014423
0003a0 d5 fe 77 3e 5c df 07 3e 4a 40 0a bd 30 17 84 3d
       0.24218304 0.13268799 -0.033752717 0.06449735
0003b0 17 21 bd 3d 1f 78 12 be 4f 53 2c 3e de de 4e 3d
       0.09234827 -0.14303635 0.16828655 0.05050551
0003c0 ef 54 74 3e 28 e4 14 3e 85 2e 11 3e e6 15 22 bd
       0.23860525 0.1454016 0.14177902 -0.039571665
0003d0 5a 6d 94 3d fa f7 dd 3d 27 37 b7 3b a4 42 5e 3d
       0.0724742 0.108383134 0.0055912915 0.054262772
0003e0 8e 75 c9 3b 60 90 a4 3e 8e 42 22 3e fa e9 63 3e
       0.006148047 0.321414 0.15845701 0.22257224
0003f0 f0 81 fa 3d 8a 74 57 3e 21 a4 6d 3d 5d 84 8c 3d
       0.12231815 0.2104055 0.058017854 0.06861184

critic.2.weight f4 [128, 256]
000000 e1 ee 76 bd 3e 3b e5 bc 5d 61 11 bd 8b c2 69 bc
       -0.060286406 -0.02798235 -0.035493243 -0.014267574
000010 9f 0d 6d 3d 62 a6 08 bd 77 aa ad 3c a0 33 0e 3d
       0.05787432 -0.0333618 0.021199448 0.034717202
000020 6e 2b e2 3c 4d 70 e9 bc 19 72 e1 3c 1e 24 dd 3c
       0.0276086 -0.028495932 0.027520226 0.026994761
000030 42 d2 dd 3c e1 0a 3d bd 6b bf 71 bc a9 ef 5b 3d
       0.027077798 -0.046152953 -0.01475511 0.053695355
000040 64 90 93 bc 0b 79 55 3d de ad 58 bd ce 7f 8d bc
       -0.018013187 0.05211739 -0.052900188 -0.017272856
000050 3e 65 cd 3c 3d 08 5f 3d 27 c9 81 bd 35 b1 fd 3c
       0.02507269 0.054451216 -0.06337195 0.030968288
000060 5b 52 28 3d b2 d6 dd bc db 54 44 3c f7 d5 0d 3d
       0.041094165 -0.027079914 0.011983122 0.03462788
000070 01 4a 9b bb 9b c7 95 bd 1a 89 5d bd c0 58 63 3c
       -0.0047390466 -0.07313462 -0.05408583 0.01387614
000080 49 ca ac bc c3 70 74 b9 76 3f 4a 3c da 69 50 3c
       -0.02109255 -0.0002331166 0.012344232 0.0127205495
000090 37 c4 56 bc 5c 73 9d bc c3 e6 4a 3c 95 f7 19 bd
       -0.013108305 -0.019220047 0.012384119 -0.03758963
0000a0 5d 69 1f 3d 3e 15 fd 3a 09 15 71 3c 98 69 53 3b
       0.03891884 0.0019308699 0.014714488 0.0032258984
0000b0 31 df 86 bd c2 49 d4 bc 34 44 7c 3c 6d b3 db 3c
       -0.06585539 -0.025914077 0.01539712 0.026818955
0000c0 1c ad 13 3d ba 5b 3f 3d 6f a2 80 bc e0 09 46 3d
       0.03605376 0.046718337 -0.015702454 0.04834926
0000d0 bd f9 49 bd d2 d3 8b 3c 5f 3e 32 bd 34 5f 4a bd
       -0.049310435 0.017068777 -0.043516513 -0.0494072
0000e0 b5 00 e3 3c 17 19 9e bc 09 9d c2 bc dc e9 a6 3a
       0.027710298 -0.019299073 -0.02375652 0.001273449
0000f0 99 8e 2a 3d c4 2c 83 bd 37 4a 2c bc a3 be 9c bc
       0.041639898 -0.06405023 -0.010515741 -0.019133871
000100 f7 d1 3a bd bc e8 df 3c 3e 0c 07 bd a5 3d 32 3d
       -0.045610394 0.027332656 -0.03297066 0.04351582
000110 15 07 24 bd 73 a6 21 bd 94 5c a3 bb 05 f9 50 3c
       -0.040045816 -0.03946538 -0.0049854014 0.012754683
000120 d8 f2 32 bc 9a 27 45 bd 47 ea 72 bd 0b a7 6d bd
       -0.010922156 -0.04813347 -0.059305456 -0.058020633
000130 96 dd 61 bd de cc c1 bb 72 00 29 bd 3f 61 5a bd
       -0.05514296 -0.0059143146 -0.04126019 -0.053315397
000140 07 b1 36 bc 94 73 13 bd a8 3f be bc 39 69 0b bd
       -0.011150605 -0.035998896 -0.023223713 -0.034035895
000150 c0 7c 16 3d ab ea 71 bd 76 4d 86 bd 02 51 b8 3b
       0.036740065 -0.059061687 -0.06557743 0.0056248913
000160 fb 50 ef ba 2c a7 a3 3c 3c 13 22 ba b6 2b 6f bd
       -0.0018258387 0.019977175 -0.0006182676 -0.058391295
000170 dd 86 db 3c b3 71 84 3d c6 30 ce 3b 80 3e 67 bc
       0.026797706 0.06466999 0.0062924353 -0.014114022
000180 b1 fd 1c bd a5 4c 72 bc 5f 66 3e 3c 68 71 04 3d
       -0.038327876 -0.014788781 0.011621087 0.032334715
000190 51 6d 01 bc 81 f3 e2 bc 19 15 5b 3b 42 41 41 3d
       -0.007899598 -0.027704002 0.0033429323 0.047181375
0001a0 23 47 38 3d 32 f4 8f 3c a5 ed 86 bc ad 4e ca bc
       0.044989716 0.017572496 -0.01647074 -0.024695719
0001b0 ff 97 35 3d fb 9b 9c bc f1 51 e5 3c ec b7 82 bd
       0.044334408 -0.019117346 0.027993174 -0.063827366
0001c0 7e 72 c4 3c 84 2d 4d 3d bf 36 d0 bc bd f2 2f 3d
       0.023980375 0.050092235 -0.02541673 0.042956103
0001d0 4d 7d 71 3d bd 13 78 bd bc 74 12 bd 7f e4 ef 3c
       0.058957387 -0.0605657 -0.035755858 0.02928376
0001e0 3a e7 0d bd 76 43 75 bd b8 c9 6c 3c 35 70 d9 3c
       -0.034644343 -0.05987879 0.01445239 0.026542762
0001f0 58 7f bd bc cf 87 43 3c 3d 69 91 bc c2 cc 36 bd
       -0.023132011 0.011934235 -0.017750377 -0.044628866
000200 36 7e 91 3c 81 af 59 3d 91 6b 46 bc 8b b6 62 3d
       0.017760377 0.05314589 -0.012110607 0.055349868
000210 1a f5 72 bd c0 2b 1b 3d 8b 33 39 bd fd 1a 61 bd
       -0.05931578 0.03788352 -0.04521517 -0.05495738
000220 d7 6d 22 bc 40 de b5 b9 ee cd f2 bc 17 b3 76 bd
       -0.009913883 -0.000346886 -0.02963921 -0.060229387
000230 e3 d0 2e 3c c5 ab 42 3c c6 ab 3a bc c3 9a 15 3d
       0.01066992 0.011881773 -0.011393493 0.036524545
000240 af 6a ec bc 40 64 3b bc 97 41 51 bd 1c a3 48 3d
       -0.028859464 -0.011437476 -0.051087942 0.04898368
000250 de f9 29 3d 73 49 06 bd c1 7e 47 3d a8 50 80 bd
       0.041498058 -0.03278489 0.048704866 -0.06265384
000260 14 a1 f4 bb 58 c1 71 3c 3d 07 52 bd ea 6e 65 bd
       -0.007465491 0.014755569 -0.051276434 -0.05601398
000270 fc 0c 4d bd a7 70 fe bc 6b d7 49 bd 36 cd c3 3c
       -0.05006121 -0.031059576 -0.049277704 0.023901563
000280 c2 02 bc 3c 43 de 35 3d 3d e5 50 bd 92 1c 65 bd
       0.022950534 0.04440142 -0.05099987 -0.05593545
000290 9c b8 2d bd 40 e4 3c 3c 6a e7 89 bb cc 41 d2 bc
       -0.042412385 0.011529028 -0.004208495 -0.02566614
0002a0 be ca 4c 3d 3e 82 80 bd 5a 48 86 bd b1 9f ea 3c
       0.049998038 -0.06274842 -0.06556769 0.0286406
0002b0 68 44 58 3d 83 da 05 3d e4 73 00 bd 8c d8 3e 3d
       0.052799612 0.032679092 -0.031360522 0.046593234
0002c0 36 1a 0b bd 46 8b 50 bd d0 1c 35 bd 1c 89 2a 3d
       -0.033960544 -0.05091407 -0.04421693 0.041634664
0002d0 1b 1c 6d 3d 47 cf 24 3d 36 ae 3a 3d 01 67 5c 3d
       0.05788813 0.040236738 0.045576297 0.05380917
0002e0 44 86 4b bd b9 ba 63 3d 0d 7d 34 3d 6a ac 93 bb
       -0.049688593 0.055597994 0.04406457 -0.0045066373
0002f0 9b 5b a3 3c 41 3a ff bc 55 1d a8 bc 44 38 99 bc
       0.019941142 -0.031155707 -0.0205218 -0.018703587
000300 81 c6 75 bd 00 ce a0 3a 46 56 67 3d 19 02 e0 3c
       -0.06000376 0.0012268424 0.05647876 0.02734475
000310 77 cd 5c 3d 1b a4 52 bb 2b bc 7e bd cc e4 2a bd
       0.053906884 -0.0032141272 -0.06219117 -0.041722104
000320 c0 d1 76 bd 21 91 06 bd 02 a4 49 b9 bf 59 6b bd
       -0.060258627 -0.03285325 -0.00019229951 -0.057458635
000330 26 cf 4c bd c8 d7 48 3d ef 7c 0b bd 3b 81 00 bd
       -0.05000224 0.04903391 -0.034054693 -0.031373244
000340 f0 11 47 3c aa b7 2b 3d 83 eb b0 3c 84 5d 80 bb
       0.012150273 0.041923203 0.021596676 -0.003917398
000350 8a c9 6d bc 72 14 5a bd e1 66 89 3a 0f 74 bf bc
       -0.014513383 -0.053242154 0.0010482931 -0.02337077
000360 a0 41 d2 3c f8 1f 28 bc 3c 8c e7 bc 4a bb a3 bc
       0.025666058 -0.010261528 -0.028265111 -0.019986767
000370 b8 4d 4f bd be 01 fc 3c 94 09 60 3d 48 c0 b7 3c
       -0.050611228 0.03076255 0.054696634 0.022430554
000380 0a 27 cf 3a 16 90 c9 3c 1b 5f 8f bb 07 50 a0 bc
       0.0015804481 0.024604838 -0.004375351 -0.01956941
000390 c8 f9 2c bc a4 ba a8 bc 77 a9 a1 3c 40 10 82 bd
       -0.010557599 -0.02059681 0.019734127 -0.06350756
0003a0 e8 a0 9b bc 74 bc 44 bd 56 65 00 bd a6 de 46 bd
       -0.018997625 -0.048031285 -0.03134664 -0.048552178
0003b0 0a ae 25 bc 2f e5 30 bc 45 a0 83 bd 76 15 31 bd
       -0.010112295 -0.010796829 -0.06427053 -0.043233357
0003c0 af fe 2e 3a 0c d9 18 bd 4a 74 8b bd f8 53 5d bd
       0.0006675524 -0.037316367 -0.0680929 -0.054035157
0003d0 3f 09 68 3c f4 cd e3 3c 00 4a 65 ba 2f 15 87 bd
       0.014162361 0.027808167 -0.00087466836 -0.06595837
0003e0 7f df de 3c 83 0f 2d bd a0 76 f5 bc 84 7b 8b bb
       0.02720618 -0.04225112 -0.029963791 -0.0042566676
0003f0 6b 53 14 bd a2 9c 63 bd cc 4f 89 3c 6e 4c 86 bd
       -0.036212366 -0.0555693 0.016761683 -0.065575466

critic.2.bias f4 [128]
000000 de 52 4c 3b 6f 82 c1 3c 91 f0 67 3a e7 22 44 bd
       0.0031177322 0.023621766 0.0008847798 -0.047884848
000010 30 42 2d 3d 57 3e 86 bb a5 0c fa bc 04 ec da bb
       0.04229945 -0.004096787 -0.030523608 -0.0066809673
000020 e8 88 c3 3c f0 60 af 3d 5d 81 0f 3d 14 95 35 bd
       0.023868993 0.08563411 0.03503548 -0.044331625
000030 d1 cc cf 3d 08 d8 23 bd 01 96 a9 3d 2f 83 2a 3b
       0.101464875 -0.040000945 0.08280564 0.0026018133
000040 f1 ac 9e 3d 37 a1 8d 3d d6 ce ab 3d eb 1f a6 3d
       0.0774783 0.06915515 0.0838906 0.081115566
000050 bd e0 f4 3d 9c c8 7b bd d5 90 f5 3c 99 32 a9 3d
       0.11956928 -0.061470613 0.029976288 0.08261604
000060 c4 37 5c bd 18 b1 a3 3d 73 e6 84 bb ad 89 aa 3b
       -0.05376412 0.07992762 -0.004055792 0.0052044005
000070 7c b6 82 3c 3d 1a 3c 3d 9e 25 d5 bc f7 4f bc 3d
       0.015956156 0.04592346 -0.026018914 0.091949396
000080 f8 0d 99 3c de 61 9f 3d 04 ef 34 3c 3c 1f c3 bc
       0.018683419 0.077823386 0.011043314 -0.023818605
000090 bd 17 67 3d 31 56 83 3d e9 ba 9e 3c ca ec a6 bc
       0.056419123 0.06412924 0.019376235 -0.020376582
0000a0 d6 d7 30 3d 8b 8b d9 3d e1 49 4f 3d 76 30 6b bd
       0.043174587 0.10622319 0.050607566 -0.057419263
0000b0 f0 54 c6 3c de 30 e8 3d 00 78 46 3d 67 f5 0b 3d
       0.024210423 0.11337446 0.048454285 0.03416958
0000c0 57 ec 70 bd 86 8a 40 bd e9 38 75 bd 81 2c 48 3d
       -0.05881914 -0.047007106 -0.059868727 0.048870567
0000d0 6f 19 91 3d 38 08 45 3d 05 a7 00 3d 87 e1 b8 3b
       0.07084929 0.04810354 0.031409282 0.0056421193
0000e0 c1 c4 7b bd c3 8b 01 be 63 01 c0 bc c3 65 c4 3d
       -0.061466936 -0.12650971 -0.023438161 0.09589722
0000f0 fd 56 e7 3c 01 fd 13 3d 67 fe c3 3d 24 25 c4 bb
       0.028239721 0.036129955 0.09570008 -0.005985873
000100 b5 c7 b7 3d d8 8e c7 3c 8d 97 5e 3d 0f 46 48 ba
       0.08973638 0.024360105 0.05434375 -0.0007639834
000110 68 bd f6 3c 8a 0a 38 bb 37 49 9b 3c 6b fe 08 3d
       0.030119613 -0.0028082454 0.01895581 0.033445757
000120 f9 16 69 3d 2c 04 ed 3d 17 1f 95 3d 20 5d 39 3d
       0.056906674 0.11573061 0.072813205 0.045254827
000130 9c 67 2d bd 3d 0b 32 3d 59 4c ab bc a0 d7 cd bc
       -0.042335138 0.04346775 -0.020910429 -0.025127232
000140 6c 9a 83 3d 82 22 8d 3d 50 51 a2 3b 26 48 32 bc
       0.06425938 0.068913475 0.004953541 -0.010881459
000150 df a9 00 3d 43 27 d5 3c 6d d4 d7 3d e4 87 16 3d
       0.031412 0.026019698 0.10538564 0.03675069
000160 23 da e6 bb 89 0d 3e 3d f9 71 74 3d aa 63 12 bc
       -0.007045047 0.046399627 0.059679005 -0.008934895
000170 7a 2a 7c bc ec 78 16 bd e3 02 b0 3c 6c 60 07 3d
       -0.015390987 -0.036736414 0.021485751 0.03305094
000180 1b 9f f1 bc 10 18 c1 3d ba b9 58 3d fa 29 b7 3b
       -0.029494813 0.09428418 0.052911498 0.005589721
000190 c8 cb ed bc bb 2b f8 3c 00 02 2a 3d da 40 71 bc
       -0.029027835 0.03029429 0.041505814 -0.0147249345
0001a0 ce 83 96 3c a8 fc e5 3c bc 85 aa 3d 9b c7 88 3d
       0.018373396 0.028074577 0.08326289 0.06678697
0001b0 98 ec 82 3d 13 4a 80 3d 27 08 d3 3c e3 16 d0 bb
       0.06392783 0.062641285 0.025760723 -0.0063503846
0001c0 b5 3e 81 3d 02 fb 70 bd de 97 8d bb 3b c5 1b 3d
       0.063107885 -0.05883313 -0.0043210825 0.03802989
0001d0 b5 f7 df bb da a5 4d bd fa 99 c8 bc 14 e9 da 3c
       -0.006834949 -0.050206997 -0.024487484 0.026722468
0001e0 e3 dd 91 bd 81 be 00 3a d3 11 19 bd 06 03 10 3e
       -0.071224 0.00049112 -0.037370514 0.14063653
0001f0 47 71 cc 3d 6a 07 8f bd cf 8a cb bc 74 87 42 be
       0.099825434 -0.06983836 -0.024846463 -0.18996984

critic.4.weight f4 [1, 128]
000000 8a be bc bc 4b dd 26 bf ff b6 0f 3f bd b3 08 be
       -0.023040075 -0.65181416 0.56138605 -0.13349815
000010 f9 77 30 be 99 9e 6e 3e f8 50 78 be b9 bc 68 bf
       -0.17233266 0.23302688 -0.24249637 -0.9091297
000020 8e 8f c0 3e 91 20 40 3e 0f 36 d7 be c0 d7 0f be
       0.37609524 0.18762423 -0.4203343 -0.14047146
000030 b0 e8 5a 3e 15 16 1a be 47 4e 59 be 77 b2 3f be
       0.21377826 -0.15047486 -0.21221267 -0.18720423
000040 19 77 59 be 25 b1 71 be 60 20 5e 3f 20 fc 3c 3f
       -0.21236838 -0.23602732 0.8676815 0.7382221
000050 60 02 89 bf 88 39 85 bd 04 f2 ae 3d 95 85 81 3e
       -1.070385 -0.06505114 0.085422546 0.25297228
000060 39 6c 9a be fb 94 4b 3e 41 17 1c 3e cf c6 b3 3d
       -0.30160692 0.1988105 0.15243246 0.08778154
000070 4e ee 3f bf de 3a ab be b7 6b 2d be 60 58 22 3e
       -0.74973 -0.3344335 -0.16935621 0.15854025
000080 d3 f6 a3 3f a9 c9 08 be 7f 3d 9b be 45 31 23 be
       1.28097 -0.13358177 -0.30320355 -0.15936764
000090 8b a5 81 be 45 a8 e2 be ef 7c b7 3e 8c 45 ba bd
       -0.25321612 -0.44269004 0.35837504 -0.09095296
0000a0 54 88 7c be f4 34 68 3e c9 76 76 bd 04 85 1a bd
       -0.2466138 0.2267645 -0.060171876 -0.03772451
0000b0 af 7a 88 be 8b 91 67 3e 08 d5 3e 3f 6c 7f 46 3e
       -0.266561 0.22614114 0.7454381 0.19384545
0000c0 8d 31 4d 3f ff 86 ed be 65 81 5d bf e2 c3 a0 3d
       0.80153733 -0.46392056 -0.86525565 0.07849862
0000d0 08 27 bc 3e 4e f9 bf 3e 26 d1 c0 be 4a 1e b8 3d
       0.36748528 0.37494892 -0.37659568 0.08990152
0000e0 7e 36 4a bf af a6 ce 3e 3d ff 95 be 78 57 8e 3e
       -0.789894 0.40361544 -0.29296294 0.27801108
0000f0 32 7f 9c 3d bf 49 99 3d 81 3c 18 3f 9b 46 01 3e
       0.07641448 0.07484769 0.5946732 0.1262459
000100 fb de 58 3e 12 66 3b 3e 45 1a 33 3e d4 f4 23 bf
       0.2117881 0.18300655 0.1749049 -0.64045453
000110 50 77 b0 be 5a cf 10 bf 62 f3 1b bf 7d 9c 33 be
       -0.34466028 -0.56566393 -0.6091825 -0.17540164
000120 8c ff 1a be 7f 51 6f 3e ae 3d a6 3d c2 2d 64 3e
       -0.15136546 0.23370932 0.08117233 0.2228308
000130 0a c3 0a 3e 8d 16 b1 be 8e e9 fd be 35 38 6b 3d
       0.13550964 -0.34587517 -0.4959225 0.05742665
000140 32 4a f8 3e cd c4 80 3f 27 a5 be bd 3c b1 36 be
       0.48494107 1.0060059 -0.09308844 -0.17841047
000150 0d 85 6c be 2a 96 29 3e 66 e0 b2 3e a2 a8 02 3e
       -0.2309763 0.1656119 0.34936827 0.12759641
000160 71 33 0a bf 04 d4 7d be 46 83 77 be d9 e7 d5 3e
       -0.53984743 -0.24787909 -0.2417117 0.41778448
000170 6f 7e 71 bf e2 0e 24 bf 34 34 e3 bd 53 a4 42 be
       -0.9433355 -0.6408521 -0.11093941 -0.19007997
000180 c0 ea 4b be 48 f9 96 be 49 2f 59 3e 9e 1f 47 be
       -0.19913769 -0.29487062 0.21209444 -0.19445655
000190 de 0e 2a 3f 34 75 29 3e ce f9 42 be 22 ea 32 3f
       0.66428936 0.16548616 -0.19040605 0.6988851
0001a0 ec 74 51 3e 3e a3 b6 be 0a 82 75 3e 43 18 e4 be
       0.20454758 -0.3567142 0.23975387 -0.4454976
0001b0 19 f1 2d 3e 7c f1 f3 3e 90 4d 08 bf 81 21 b1 bd
       0.16986503 0.47645175 -0.5324335 -0.086489685
0001c0 ac cc 0a 3f f6 0b 0f 3b 41 ae b0 be 0a a4 34 3f
       0.54218554 0.0021827198 -0.34507945 0.70562804
0001d0 27 ec 0c 3f 65 a3 8c be e1 64 c5 3d b3 8b 44 3e
       0.5504784 -0.2746841 0.09638382 0.19193916
0001e0 bc 1c 51 bf 1e 56 2d bf a8 0e 53 3e 41 51 a9 be
       -0.8168447 -0.6770953 0.2061106 -0.33069804
0001f0 ed 38 26 be 98 f0 64 bf 68 ec 4b 3e 48 d1 e6 3e
       -0.16232653 -0.89429617 0.199144 0.45081544

actor.0.weight f4 [256, 48]
000000 27 ee b7 bd 65 cd fb 3d 88 a2 b7 bc de 0d f1 bb
       -0.08980971 0.12295035 -0.022416368 -0.0073563894
000010 fc fe 66 be 09 1a 30 3e cf 91 2b be 79 0a c0 3d
       -0.22558206 0.17197432 -0.1675484 0.093769975
000020 e1 3f dc 3d 06 e5 ac 3e a8 1b b5 3c 4c 20 19 3e
       0.107543714 0.3376848 0.022107914 0.14953727
000030 ea 1c 41 bc 2f 0b 92 3c c8 12 a0 3d 79 33 cb bd
       -0.011786679 0.017827598 0.07816082 -0.09921927
000040 bc 52 31 be 6f a3 31 3e 25 37 b7 bd e6 23 07 3e
       -0.17316717 0.17347501 -0.08946065 0.13197288
000050 59 cc 80 bd 8c dd 83 bc 83 6f eb 3d 19 85 73 3d
       -0.06288976 -0.016096853 0.114958785 0.059453104
000060 79 1c ed bc 8d ea 96 3d 5e 16 5a bd 15 4b 56 bc
       -0.02894424 0.07368956 -0.053243987 -0.013079424
000070 d2 b5 04 be c8 e6 13 3e 11 08 48 bd f5 af 87 3c
       -0.12959984 0.14443505 -0.048835818 0.016563395
000080 8b 72 01 bd ba 90 84 bd 03 22 fb 3d 69 67 8b bd
       -0.031603377 -0.06472917 0.122623466 -0.06806833
000090 b6 42 07 be 72 3d 87 3d b9 27 d1 3d 86 6a 6d 3c
       -0.13209042 0.06603517 0.102126546 0.014490729
0000a0 b8 bc 32 3d 57 2c 42 3b 19 9a 13 be 45 1b b6 3d
       0.043637007 0.002962848 -0.14414252 0.0889192
0000b0 aa 2a fd bd 56 ad e2 3c 10 f7 7d bd e6 bc a0 3c
       -0.12361653 0.027670544 -0.062003195 0.019621324
0000c0 b3 a9 22 bd 57 9e 0d bd 5f 57 0d bc bc e8 1b bd
       -0.03971262 -0.034574833 -0.008626788 -0.03806375
0000d0 db 67 83 be 6f 22 0d be 4e 71 da 3c 0d d7 e5 bd
       -0.25665173 -0.13782667 0.026665356 -0.11222658
0000e0 db 21 bb be 67 d4 53 3e 2a 86 16 be c1 78 df 3c
       -0.36549267 0.20686494 -0.14699617 0.02727926
0000f0 68 f7 0b be 73 ec 54 3d 24 8c 56 bd 16 08 f1 3d
       -0.13668597 0.051983308 -0.052379742 0.117691204
000100 20 30 92 be 62 ed 3f 3c 1d 0b 2b bd 21 ab b2 3d
       -0.2855234 0.011714311 -0.041758645 0.087240465
000110 cc ec 32 be ae ce 56 3e 41 b9 db 3c 51 46 5c be
       -0.17473143 0.2097728 0.026821734 -0.21511199
000120 ee af ad bb 52 56 96 bd c5 d0 eb bb e9 f6 ff 3c
       -0.0053005135 -0.07340683 -0.007196518 0.031245666
000130 7f de 76 be 86 a9 b9 bd 50 16 37 bd 11 9c 41 3b
       -0.24108313 -0.09065537 -0.044699013 0.0029542486
000140 45 4b 94 be f9 17 14 3e 22 b4 24 be e4 55 52 be
       -0.28963676 0.1446227 -0.1608434 -0.20540577
000150 5c b0 2c be f2 e6 fe 3a d1 74 dd bc 89 27 b1 3d
       -0.16864151 0.0019447489 -0.027033241 0.08650119
000160 a2 99 c5 bd b5 b5 21 3d 4c f2 12 bd 7c 80 b7 3d
       -0.09648444 0.03947993 -0.035875604 0.08960053
000170 58 8a c7 be bc a5 8a 3c 23 88 2b be 1b 97 6d bd
       -0.38972735 0.016924731 -0.16751151 -0.058005434
000180 70 b6 ed 3d 08 c4 49 be 9f e0 35 3e 1e e0 3d be
       0.11607063 -0.19703686 0.17761467 -0.18542525
000190 d7 ad 12 be 65 09 39 bd 65 f9 fb bd b3 f6 b7 bd
       -0.14324127 -0.045174975 -0.123034276 -0.08982601
0001a0 98 5d c5 3b 8b 44 34 3c 12 bc 15 bd 89 c1 35 3e
       0.00602312 0.01100267 -0.03655631 0.17749609
0001b0 17 c1 51 bc 45 4a 3c be c5 cb 51 bd c6 ce 17 be
       -0.012802384 -0.18387707 -0.05121972 -0.14824972
0001c0 78 41 e1 bd 7c 00 1e 3d 41 0e 07 3e 4f 9e 76 3d
       -0.10998815 0.03857468 0.13189031 0.06020957
0001d0 b4 30 0b be 37 86 e7 bd e8 71 ab bd e8 05 7d 3e
       -0.13592798 -0.11304896 -0.08371335 0.24709284
0001e0 e9 df a5 3d ce 19 94 bd 55 04 cf 3c bd 2a 1a be
       0.08099348 -0.07231484 0.02527062 -0.15055366
0001f0 ba db d1 3c 47 45 c5 bd fc 59 d8 bd 73 28 8b bd
       0.02561747 -0.09632354 -0.10564038 -0.067948245
000200 f4 f2 a5 bd d1 4a 07 3e dd bc 96 3d 72 d8 5f 3e
       -0.0810298 0.13212134 0.073602416 0.21859911
000210 79 53 b2 bd 2e 25 20 3b b5 b4 2d be 7a a0 11 3d
       -0.087073274 0.0024436223 -0.16963466 0.035553433
000220 13 6b 52 3d 6b 27 95 3c bb c9 ce 3d e8 42 1a 3d
       0.051371645 0.018207273 0.10097071 0.037661463
000230 8a 0c b4 bd e1 f9 9d 3c 59 1c 15 be 80 97 a3 3e
       -0.08791454 0.01928419 -0.14561595 0.31951523
000240 0a 22 2a be d2 3a 41 bd f7 1d bc bd a8 1b a1 3d
       -0.16614547 -0.047175236 -0.09185403 0.07866603
000250 e6 e3 1c be 00 ba c2 bc a6 e2 31 3d 23 f6 29 3d
       -0.15321311 -0.023770332 0.04342904 0.0414945
000260 75 8a f5 bc 31 3d be 3e 53 0f 06 be bc 5a 83 3d
       -0.029973248 0.3715606 -0.13091783 0.064137906
000270 e5 0a 46 bd c9 be a1 bd 92 9b 86 bd 81 76 8e bd
       -0.048350234 -0.078977175 -0.065726414 -0.069561966
000280 72 be 8b bc 5c 39 ce bd fb 34 93 3d 38 1c de 3d
       -0.017058585 -0.10069534 0.071878396 0.10845226
000290 a4 db 9b 3c ad 79 d2 3d b8 aa 32 be a9 d0 04 bc
       0.019025631 0.10277114 -0.17447937 -0.008106389
0002a0 1f a7 28 be f2 14 47 be 60 33 9d 3c f2 4c 0c 3e
       -0.16470002 -0.19441584 0.019189537 0.13701227
0002b0 ee 33 4a be 53 0c 1d 3e 0e 91 c0 3d 21 35 48 3e
       -0.19746372 0.15336733 0.09402667 0.19551517
0002c0 63 2c 00 bd ff 3b 96 3e 71 5c 94 bd 9f 5a 1d 3e
       -0.03129233 0.29342648 -0.07244194 0.153666
0002d0 1f 0e 8f be 2d 85 59 bd c2 1a e8 bd 64 bd 89 bb
       -0.2794046 -0.053105522 -0.11333229 -0.0042034853
0002e0 47 32 32 be 00 83 41 bd 6e 44 f6 3d 95 18 2e 3c
       -0.17401992 -0.047244072 0.12024771 0.010625978
0002f0 70 0e 21 be af d8 a4 3e 7f 2d 2a be 01 f2 c4 bc
       -0.15728164 0.32196566 -0.16618918 -0.024041178
000300 94 6a 6f 3e a9 04 3d 3e c6 ec 38 bb 82 85 bb 3d
       0.233805 0.18458809 -0.00282173 0.09156324
000310 de 5d 07 bd 0a c0 d5 bb c1 c8 ca bd 57 27 93 3d
       -0.033048503 -0.006523137 -0.09901572 0.07185238
000320 14 6e 4c be cf c8 fb be 70 0c af bd 86 3c fb bd
       -0.19963866 -0.49176642 -0.08547294 -0.12267403
000330 7a 56 33 3e 4d fb 40 3e 9f 86 26 3d c0 47 72 bd
       0.17513457 0.18845864 0.04065573 -0.059150457
000340 a4 ee 23 3e f1 e6 71 3d e3 ef 23 3c e4 c1 10 bd
       0.16009003 0.059058134 0.010005924 -0.03534116
000350 1a fc 9e bd 83 7f 0e bf bb 1c f0 bc e0 36 3f bd
       -0.07762928 -0.5566332 -0.029310575 -0.046683192
000360 8d f9 09 3e 1e 60 e2 3c c6 08 a7 3d 3c 1c 45 3d
       0.13474102 0.027633723 0.0815597 0.04812263
000370 5d 02 24 3d 5f 5d e1 bd a9 09 96 bd f5 a8 9d bd
       0.040041316 -0.11004137 -0.07326061 -0.076982416
000380 dc 67 2f be 81 c5 b5 be a3 49 99 bd a8 2d b9 3d
       -0.17129463 -0.35502246 -0.07484748 0.09041911
000390 d3 c2 49 3e 38 da 48 3e 8c 8d dd 3d 0a 08 93 bd
       0.19703226 0.19614494 0.108180135 -0.07179268
0003a0 a6 c8 a4 bd 4c 70 2d 3e 6d 38 aa bc a8 91 86 3d
       -0.08046083 0.16937369 -0.020778859 0.065707505
0003b0 04 95 55 be 4e 3f e3 be 08 93 8a bd a9 4a ef 3d
       -0.20857626 -0.44384235 -0.06766325 0.11684162
0003c0 b8 f7 30 bd ee de 27 be d0 cd 86 3c 3f e0 80 bd
       -0.043204993 -0.16393635 0.01645556 -0.062927715
0003d0 75 d8 aa bd 75 9a 83 3d 37 af 87 bd 38 12 d8 3c
       -0.08342067 0.06425945 -0.066252165 0.026375875
0003e0 ff 1e 3a be 0d 56 75 3d 11 51 75 3e 68 e8 8d 3e
       -0.18175887 0.059896518 0.23956706 0.27716374
0003f0 65 17 0c 3d 6a d0 38 3d 7d 50 05 3d e2 25 02 3e
       0.034202 0.045120634 0.032547463 0.12709764

actor.0.bias f4 [256]
000000 c3 e6 e5 3c d4 7d 30 bb 56 cb ca bc ac a8 7b 3c
       0.028064137 -0.0026930468 -0.024755161 0.015360039
000010 9c da 9e bd ee 1a de 3d 75 13 8d bd b6 e7 5b bd
       -0.0775654 0.1084498 -0.06888477 -0.053687774
000020 a5 69 03 3d 72 04 02 be 02 dc c2 3d a0 07 2b 3c
       0.032083172 -0.12697008 0.095146194 0.01043883
000030 7e f5 b9 3d a3 e7 28 be b7 99 51 bd ee d8 b1 3d
       0.09080027 -0.16494612 -0.051171985 0.08683954
000040 8b ed c9 bd c0 2b 8a bc 24 05 9f 3c df c4 f3 bd
       -0.09859761 -0.016866565 0.01941163 -0.119027846
000050 5d 5e bb 3c 8e c1 7d 3d 02 f4 dd 3d 61 80 f0 bd
       0.022872144 0.061952166 0.108375564 -0.11743236
000060 68 9e 1f 3e 44 5b d4 3d a5 63 0f be 44 fb 7e bd
       0.15587771 0.1036897 -0.14002855 -0.062251344
000070 1a 25 ee bd 3f 10 04 be 1c ca b9 3d 46 94 96 bd
       -0.1162817 -0.12896822 0.090717524 -0.073525
000080 c3 85 de 3d f6 87 03 be 64 8e e5 3d 5f ff cb bc
       0.10865357 -0.12844834 0.112087995 -0.024902044
000090 a1 cd db bd 27 85 c2 bc 9a 38 a9 bd dd 08 04 bd
       -0.1073258 -0.023745133 -0.08262749 -0.032235015
0000a0 85 bc c9 bc bc ba 2d 3e 46 61 61 3b 8e ee 39 bb
       -0.024626026 0.16965765 0.0034390255 -0.002837095
0000b0 07 29 78 bd 77 0f b2 bd c2 a4 0a bd 07 e5 7a bd
       -0.060586 -0.08694356 -0.03384853 -0.061253574
0000c0 59 3d 8e bc 68 0f c2 3c 7c dd ff bc 29 e8 02 be
       -0.017363237 0.023688987 -0.031233542 -0.12783875
0000d0 5b e3 93 3c d2 8f 45 bd 3e ab b5 bc 9e e3 a5 bc
       0.018052747 -0.04823286 -0.022176381 -0.020250138
0000e0 12 cc 88 bd 80 c1 0a be a3 ba b8 bc cd 5a ae bd
       -0.06679548 -0.13550377 -0.022549933 -0.085134126
0000f0 da 6f 87 3d 4f e0 c9 bd 7f 36 9a 3d b8 54 d4 bd
       0.06613131 -0.098572366 0.075299256 -0.10367721
000100 26 b7 ba bc b1 3a 85 bd 46 9a e7 3d 3c a1 2b be
       -0.02279241 -0.06505335 0.11308722 -0.16760725
000110 fe cd 86 3b dc e5 db 3c 13 63 0b 3e e5 a2 84 bd
       0.0041139117 0.026843004 0.13612013 -0.06476382
000120 88 cf 38 bd 8c 6f bf bd 34 f6 67 bc c8 0f f1 bd
       -0.045119792 -0.09347448 -0.0141578205 -0.11770588
000130 ad a9 5b 3d e8 88 eb 3d 9f c5 e3 bd 1e 49 8b bd
       0.053628612 0.11500722 -0.111216776 -0.06801055
000140 f7 79 88 3d bd 1c 4b 3d 68 bf fe bd 39 bd 13 3e
       0.06663888 0.049587954 -0.124388516 0.14427651
000150 07 b3 c2 3b 07 ca 28 3d 59 56 39 3e aa 16 fa 3c
       0.005941752 0.041208293 0.18099345 0.030528385
000160 39 76 05 bd 4c f5 12 be 24 7e 01 bc a9 b8 06 3e
       -0.03258345 -0.14351386 -0.007903609 0.1315638
000170 90 c4 23 be e9 cc 3f 3e 79 26 d2 3d 12 c6 10 be
       -0.15992951 0.18730511 0.10261244 -0.14138058
000180 2c d0 0c 3e 37 18 0e bd 10 90 a9 bd f8 4c ac 3c
       0.13751286 -0.03469106 -0.08279431 0.021032795
000190 7a b7 b1 bd 25 19 c9 bd 4c 9e 54 bd 89 77 93 bd
       -0.086775735 -0.09819249 -0.051908776 -0.07200534
0001a0 f6 6e f8 3d 7d ca 22 3e ab 2c c4 bd 59 15 9f 3d
       0.12130539 0.15897556 -0.09578832 0.077677436
0001b0 45 84 fa bc 2c af 11 3e 99 9a 8d 3d 7b d9 b2 bd
       -0.03058065 0.14226979 0.06914253 -0.08732887
0001c0 68 b8 81 bd 4b 22 07 3e 9b 44 97 3d 1b b1 37 3e
       -0.06334001 0.13196675 0.07386132 0.17938654
0001d0 8f 4e 5a 3d 8d e3 bb bd 42 2a 2d bd ec 2b d0 bc
       0.053297576 -0.09174261 -0.04227663 -0.025411569
0001e0 d7 a1 28 bd 17 98 79 bd 58 d5 82 bb 02 ac f3 bc
       -0.041169968 -0.06093606 -0.0039927177 -0.029745106
0001f0 a3 dc ef 3c de 57 73 3d 2c fa af bd de b7 21 3e
       0.029280012 0.05940997 -0.085926384 0.15792796
000200 bc 61 8b bb 51 d9 b3 bc 83 9b 11 be bb 2c f0 bd
       -0.004253594 -0.02195421 -0.1421948 -0.11727282
000210 fc 53 d4 bd c5 6d a0 bd d4 73 df 3d ad 6f b0 bd
       -0.10367581 -0.07833437 0.10910764 -0.086150505
000220 b5 70 88 3b 38 5e c4 3d 39 24 97 3b 9b ba 5e bd
       0.0041638264 0.09588283 0.0046124724 -0.05437718
000230 02 e3 b0 bd f6 ef 8c 3d 5e ca 1b 3d 4f 5e 85 3d
       -0.08637048 0.068817064 0.03803479 0.065121286
000240 d0 05 0d 3d 7f 5c 17 3c 49 55 10 3d d9 58 a6 bd
       0.03442937 0.009238361 0.035237584 -0.08122415
000250 47 64 05 be 2a ce bc 3d cb 38 c1 bb 34 54 92 bd
       -0.13026534 0.0921901 -0.005896663 -0.07144967
000260 ad c5 1a be 4d 45 02 3e 0d 58 8b 3d 64 f9 a3 3d
       -0.1511447 0.12721749 0.06803904 0.08006552
000270 95 f8 51 3d 5a e6 fa 3d c1 0d 92 bd e6 4c 1a 3e
       0.051262457 0.12250967 -0.071315296 0.15068397
000280 c9 7b f4 3c 86 81 e5 3d c7 b7 fe 3c 47 70 7b 3d
       0.029844182 0.11206345 0.031093491 0.061386373
000290 f9 5a c8 bb d3 3e ea bc 5a 45 08 3e 88 b1 8a 3d
       -0.0061143604 -0.02859441 0.13307706 0.06772143
0002a0 cc 9f 03 bd 98 6b 0d be 95 40 f9 bd 36 19 3c 3e
       -0.032134816 -0.13810575 -0.12170521 0.18368992
0002b0 a4 8a e8 bd 62 dc b2 3d e3 f6 14 be ff 72 8a bd
       -0.113545686 0.08733441 -0.14547305 -0.06760215
0002c0 84 a0 c4 3d 2f ea 71 3d 1b ff ec bc 90 d1 19 be
       0.096009284 0.059061226 -0.028930238 -0.15021348
0002d0 8b 39 8d 3d 04 01 27 bd e3 20 d3 3d 7b ba 12 3e
       0.06895741 -0.040772453 0.10309007 0.14328949
0002e0 6c 2d bd bd 47 81 cf bc 7c f2 cb bd 5b b5 74 3d
       -0.09237179 -0.025330199 -0.099583596 0.059743267
0002f0 7e d7 ad 3b 14 54 e1 3d ee 37 84 3d ba f3 06 3d
       0.0053052297 0.11002365 0.0645598 0.03294728
000300 20 48 cb bd 7e 75 97 bd 29 d7 0d be 99 1c 3c bd
       -0.09925866 -0.07395457 -0.13851608 -0.04592571
000310 c0 99 9a bd 28 67 52 bd 37 3d e8 bd 75 14 73 bd
       -0.07548857 -0.05136791 -0.11339801 -0.05934568
000320 34 57 f0 bd 84 da 75 3a d7 1b 4a bd 91 c1 51 bb
       -0.11735383 0.00093785697 -0.049342956 -0.0032006244
000330 3e a0 b6 bb 9b be 13 3e b2 b1 b4 3d e9 d0 02 be
       -0.0055733016 0.14428179 0.08822955 -0.12775005
000340 fd 99 06 3e f1 80 fb bd c7 5f 26 be d0 a2 a2 bd
       0.1314468 -0.12280453 -0.16247474 -0.0794121
000350 df 45 d1 bd 0f 13 f1 3d 8d 33 c2 3d 03 f2 92 bd
       -0.10218405 0.11771213 0.09482489 -0.07175066
000360 44 db 20 bd 40 2d bf bd 46 19 f6 bb 2a 6c 91 3d
       -0.039271608 -0.09334803 -0.007510337 0.07100709
000370 52 fb 05 3d 90 ae 82 3d 16 49 98 bc cf 0a e4 bb
       0.03271038 0.063809514 -0.018589538 -0.0069592963
000380 94 16 e5 3c 9e 52 0a 3e 57 bb a9 3d 48 e7 bb bd
       0.027964868 0.13508078 0.08287685 -0.09174973
000390 09 e4 c0 bd 2b 6b 47 3d 89 23 1a bb 77 9a 51 3d
       -0.09418494 0.048686188 -0.0023519716 0.0511727
0003a0 d1 23 8a 3c a3 14 a2 3c 53 13 a0 bd 5b ca 81 3c
       0.016862782 0.019785231 -0.07816186 0.01584356
0003b0 1c 7f b7 bd 15 cb f4 3c bc df 9a 3d ba 63 55 bd
       -0.08959791 0.029881993 0.07562205 -0.05209706
0003c0 81 a4 7b 3d 04 ef ec 3d 94 64 b1 3d 47 22 da 3d
       0.06143618 0.11569026 0.08661762 0.10651069
0003d0 c7 d4 cb bd 0c 3c db bd b7 85 1f 3e 61 ad b3 3a
       -0.099526934 -0.107048124 0.15578352 0.0013708287
0003e0 10 0c d5 bd b9 fb 24 be 05 08 de 3d f9 ff 44 bd
       -0.10402691 -0.1611165 0.10841373 -0.048095677
0003f0 a2 04 6b bd cc 97 8d 3d 52 b2 95 bd 0f 7f 57 3c
       -0.057377465 0.069137186 -0.073094025 0.013152852

actor.2.weight f4 [128, 256]
000000 7e 04 f7 3d 08 24 2e 3d b9 4a b1 3d 9e 62 68 3d
       0.12061404 0.04251483 0.0865683 0.056734674
000010 01 a6 7d 3e 02 96 ea 3d d2 90 94 bd 28 04 9b bc
       0.24770357 0.11454393 -0.07254185 -0.01892288
000020 df 59 5c 3b eb dc 86 3d 49 85 00 3d 56 ff 7c 3c
       0.0033622903 0.065851055 0.03137711 0.015441736
000030 e1 b1 ad ba a4 c2 94 3c 8e 8f 70 3d 50 b5 3b 3d
       -0.0013251865 0.018159218 0.058730654 0.04582721
000040 c6 11 ea bc ba b3 20 bb d2 c1 ea 3d e3 db 58 bd
       -0.028572928 -0.0024521188 0.114627495 -0.052944075
000050 2d cb 9d 3d 09 2a 47 3d c6 a6 84 bc 51 3b e9 bd
       0.07704768 0.048624072 -0.016192805 -0.11388267
000060 c9 c3 8c be 99 b8 89 3d bc e9 e1 3b dc 01 35 bb
       -0.27493122 0.06724662 0.0068943184 -0.0027619516
000070 45 9a 55 3d 84 7b 80 bd c7 3b 48 bc 9f 1a da bc
       0.052149076 -0.06273559 -0.012221283 -0.026624022
000080 17 8e 1d be e0 5a 48 3c ad 16 a9 3d fc 81 18 3e
       -0.15386234 0.012228698 0.08256278 0.14893335
000090 ba 93 9d 3d 34 13 e0 bb a2 68 7c bd 99 e2 c0 3d
       0.07694192 -0.0068382267 -0.061623223 0.0941822
0000a0 2e 7e c0 3d b5 fd 9a bc f8 07 ff bd f2 3c 10 be
       0.09399067 -0.018919805 -0.12452692 -0.14085749
0000b0 73 d6 14 be 3b 77 fc bd fe 6d ef 3c 94 da fe 3c
       -0.14534931 -0.12327429 0.029227253 0.031110086
0000c0 f3 77 57 3d 9a 94 82 3a e0 78 7a bd f3 d1 75 3d
       0.052604627 0.00099625 -0.06115043 0.060014676
0000d0 89 4f 8e bb 31 f5 03 3d 2f ad 24 bf 6b fb cc 3d
       -0.0043429774 0.032216255 -0.6432676 0.10008892
0000e0 05 50 32 be 57 6e 20 bc ce 64 37 3d 30 e9 f9 bd
       -0.17413338 -0.009791932 0.04477387 -0.1220268
0000f0 ba ca 41 3d 7e db 96 3e ab 26 28 3d 9b d7 b8 bc
       0.047312476 0.29464334 0.0410525 -0.022563746
000100 fa a7 41 bd 02 4e 8c bc d8 0b 1e 3e 4d a1 02 3c
       -0.047279336 -0.01712704 0.15434206 0.007973027
000110 1b cf b3 3d c7 02 9e 3d 1f c9 81 bd 4e fb eb 3b
       0.087797366 0.077153735 -0.06337189 0.0072015887
000120 07 ee ea 3d fa 30 a0 3b 5a f4 35 3e 3d bc 0b bd
       0.11471181 0.004888651 0.17768994 -0.034115065
000130 f8 d8 11 bd 00 a2 07 bd a7 17 b8 3d a7 19 af 3a
       -0.03560731 -0.03311348 0.08988886 0.0013359085
000140 86 0c 35 3d 74 82 be bd d4 0e 35 3e 50 12 b3 3d
       0.044201396 -0.09302226 0.17681438 0.08743727
000150 fa 56 7f 3d c2 8f 35 bd e0 75 6a bc f1 c7 89 bd
       0.062338807 -0.04432655 -0.01431033 -0.06727589
000160 42 fb c0 3d e7 77 88 3d 4b fc 9d 3d 13 49 25 bc
       0.094229236 0.066634946 0.07714137 -0.010088223
000170 9a e2 66 3c da 58 87 3d e2 79 5a 3e 81 3a 8b bd
       0.014092112 0.06608744 0.21335557 -0.06798268
000180 b9 86 13 bf c3 08 61 3d 16 f2 90 be 46 79 a4 3d
       -0.57627445 0.054939996 -0.28309697 0.080309436
000190 e9 33 d7 3c e6 ce 65 3d 86 e1 0f be 90 53 fa ba
       0.02626987 0.056105517 -0.14050874 -0.001909839
0001a0 73 7f 09 3e a3 13 93 bd f1 7d d9 3d b0 33 2a bd
       0.13427524 -0.0718148 0.106197245 -0.0415532
0001b0 49 8d 6d 3d a2 cb e6 bb f4 e7 96 3c ef cf d5 be
       0.05799607 -0.007043318 0.01842115 -0.41760203
0001c0 fb 61 b3 bc ed 47 e3 3c f3 0f 09 3d 07 82 9e bd
       -0.021897307 0.027744258 0.033462476 -0.077396445
0001d0 97 66 04 3d 0f 38 c2 bd a2 f8 87 be 5b 8c a0 3d
       0.0323244 -0.094833486 -0.2655688 0.07839271
0001e0 bc 04 60 3e 17 46 f6 3c 80 26 08 3d 73 b6 97 3c
       0.21876806 0.030062718 0.03323984 0.018519616
0001f0 e0 4b 73 bd 5d cc 94 bd f3 84 01 bd d9 35 99 bc
       -0.059398532 -0.07265542 -0.03162093 -0.018702434
000200 42 9f d3 3d 08 40 b9 bc 0c da 94 3c 66 ac a2 bc
       0.103331104 -0.02261354 0.01817038 -0.019857597
000210 46 7f e5 3c 58 86 72 3d 0e f1 5e 3d 0a ae 81 3d
       0.02801479 0.05921015 0.054429106 0.063320234
000220 e8 28 15 be 6a 2b 2b bb 39 51 04 bb bb ca 71 3d
       -0.14566386 -0.0026118406 -0.0020190014 0.05903123
000230 0b 81 cf bc 0c bf ad bc 40 f1 78 bc eb c6 14 3e
       -0.025330087 -0.021209262 -0.015194237 0.14529006
000240 0c 6f 0e 3d 00 d2 50 bd 12 83 96 3d d8 70 b0 3d
       0.03477387 -0.05098152 0.073492184 0.08615273
000250 27 68 96 3d 2a 26 f4 bc 5a 45 26 3d b0 fd 06 bd
       0.07344084 -0.029803354 0.040593483 -0.03295678
000260 e9 33 34 3d d7 46 54 bd 78 cb 52 bc 6c 93 43 be
       0.043994818 -0.05182537 -0.012865894 -0.19099206
000270 28 7e 0f be 31 13 98 bd 26 9e 30 3d 7e 60 77 be
       -0.14012969 -0.074255355 0.043119572 -0.24157903
000280 ed d7 bc bd 0a 43 08 bd 4e e4 9f bd b1 df 2e 3e
       -0.09220872 -0.03326706 -0.078072175 0.17077519
000290 2a 1b 8b 3d 77 05 03 bc 3b 57 84 bd 15 6f ce bc
       0.067922905 -0.007996908 -0.064619504 -0.025199452
0002a0 b4 f0 32 3d 3b b4 02 3e e8 20 dd 3d 1a e0 2f 3d
       0.043686584 0.12764065 0.10797292 0.04293833
0002b0 7e 44 2a be 3a fa 94 3c 18 3b 92 3c 40 cc 4c 3d
       -0.1662769 0.018185724 0.017850444 0.049999475
0002c0 d1 64 19 3e 1f 63 30 3c 08 bf b7 3d 2c a1 94 be
       0.14979865 0.01076582 0.08971983 -0.29029214
0002d0 7a 03 0d be fa 31 7c bd 37 e0 b8 bd 4d e1 d8 b9
       -0.13770857 -0.0615711 -0.090271406 -0.00041366593
0002e0 fb a4 0f be bb 36 f7 3b 8b 79 b3 3d 46 f5 99 3d
       -0.14027779 0.007544366 0.08763417 0.07517485
0002f0 7b eb 82 3d 99 de 12 be c3 81 0b be 6c a4 d5 3c
       0.063925706 -0.14342727 -0.13623719 0.026079379
000300 47 93 af bd 26 13 65 bd 53 00 31 3e c5 72 7c bc
       -0.08573013 -0.055926464 0.1728528 -0.015408223
000310 50 72 3a bd b2 42 e2 bc 49 f9 c9 3b 14 a9 95 bd
       -0.045519173 -0.027619693 0.0061637503 -0.0730764
000320 b8 0f 86 3c 24 35 51 bd 62 3a fc 3b cc 4d 9d bc
       0.016364917 -0.05107607 0.0076973895 -0.019202136
000330 8e c7 8c 3c 30 01 b8 ba 18 bb 61 3d db 1a e3 3c
       0.017184999 -0.001403844 0.055110067 0.027722767
000340 0a 2c 13 3e 48 c4 9b bd f5 b4 ba bc 10 b0 cc 3c
       0.14372268 -0.07605797 -0.022791365 0.024986297
000350 2f c3 35 bd 53 68 a1 bd 86 34 fa 3d ad 4c 3a be
       -0.044375595 -0.078812264 0.12217049 -0.18193312
000360 d3 d7 f6 bb 18 62 05 3e cf c1 3e 3e ce 94 5a be
       -0.0075330525 0.13025701 0.1862862 -0.21345827
000370 ed 40 13 3e f3 24 fd bd 97 92 65 3d d6 0f f2 3b
       0.14380236 -0.12360563 0.056048002 0.0073871417
000380 51 d4 0f 3e f1 4e 90 bd 92 06 ce bc e2 39 09 3e
       0.14045836 -0.07046307 -0.025149617 0.13400987
000390 b9 2a c3 ba ca 82 4a 3d 9d a0 23 3d 3f d6 42 3d
       -0.0014890052 0.049441136 0.039948095 0.047567602
0003a0 a4 70 62 3d dc 3c c9 bd 2e 2e d2 bd 1d 89 96 bc
       0.055283204 -0.09826061 -0.10262714 -0.018375928
0003b0 df 92 5d bd 55 3c 15 39 bc 4f 2b 3d 0e 8c 46 3d
       -0.054095145 0.00014232223 0.041824088 0.04847341
0003c0 4c de 7e be 48 c6 70 3c 83 9e ad 3d 6c fa 0b be
       -0.24889487 0.014695711 0.08477499 -0.13669747
0003d0 9e f8 20 3e 85 63 52 3d 94 f5 a0 3d 27 03 fd 3d
       0.1571984 0.05136444 0.0785934 0.12354117
0003e0 6b aa e7 bd 8e 71 11 3d 74 e5 ab 3d df 51 f6 3d
       -0.113118015 0.035508685 0.08393374 0.120273344
0003f0 e0 92 32 3d a4 00 14 3d 6a 59 96 bd a3 6f 19 3e
       0.043597102 0.036133423 -0.07341273 0.14983992
