CRL/模型集_selfplay/run_20260123-185640/slime_ppo_1M.pth (torch, 370495 bytes, 11 tensors)

critic.0.weight f4 [256, 48]
00000000: 530d b0bd 1150 15bd 07eb 843c 13f2 393d
00000010: f319 c5bd 46e5 aa3d 6621 c8bc e38a c63d
00000020: 9535 1cbe addf 91be 0162 eebd cfe3 17bd
00000030: 2c0f 01be 96d1 c7bc 8f6e 8e3d b96b a43c
00000040: 60e1 24be ed36 363d c42d 303c 8368 6cbd
00000050: 9aac 9c3a 3ec8 9abe 249f aebd 1dae 57be
00000060: 7060 d43d c61d 4f3d 8589 54bc 50a2 ee3d
00000070: 23ed 073c a72b 503d c9e1 dabd 7139 5c3d
00000080: 84da 0f3e 8113 98be 912a 0ebd cbba 3bbe
00000090: c8e0 e7bc dc98 b03d 5bd1 823d 621a abbd
000000a0: 3178 ad3d 76e4 d6bc c651 1a3d 4907 3dbd
000000b0: a5b1 ff3d e476 58be a2bb 5f3e f2c0 95bd
000000c0: 7abb 793d f630 71ba 6690 7ebd a899 283d
000000d0: ff08 133d b549 8cbc 3c73 3dbd 8ec6 15be
000000e0: b5f3 d7bd fdc6 183d 3558 a0bd 5246 903c
000000f0: 1fa1 793d 32d5 21bd 57dd df3c abb4 8abd
00000100: 0a3a 373e 5da3 1cbd dabd 99bc c708 a43d
00000110: 5835 81bd ff6d 3a3e e6f3 e4bd df8b 313d
00000120: e6ce a03d 1267 ce3c 462e 88bd 623b f6bd
00000130: 4f2a 60bd 09d5 3ebd 0add fc3b aacf 0d3d
00000140: 191b 103e e7ae 823e 6159 653d be45 783c
00000150: 5f16 353c bb0f e53d bebf 61bd 0a77 953c
00000160: b97d b2bd f801 02bd 5066 04bd 21aa b6bc
00000170: 34fa 873c ba45 ae3e 09d5 1ebd ba24 593e
00000180: c6aa f83d 9c63 14bd e79f cabd da37 19bd
00000190: 4d8b 463d f296 7fbc 56d5 5fbd 5096 d4bd
000001a0: 53c4 cfbd bce2 39be 6db1 f93d 4142 2e3e
000001b0: 623e 7a3c b1c9 86bd 750d a9bc b4d3 a7bc
000001c0: 2106 adbd 4fd8 a53c 3793 343d 6f40 d93d
000001d0: f165 203e 0bef 02bd e888 33bd 66a4 10be
000001e0: 1c3e 26bd 1fc4 923d b6e7 40bd 6a5b 153b
000001f0: a59a 883d cb61 90bd c414 083d dfab d9ba
00000200: 24e7 063c 7fae ef3d 9973 dcbd 5cb1 21be
00000210: 7e5a d23d 3f2d 4bbe ba80 02be a69a e9bb
00000220: 4b47 69bd 0063 03be 2fee 873d 1163 f3bd
00000230: 1ff9 d03d 5a1c 073e 99d4 0ebe 7ab9 0abd
00000240: b725 d63d aa6d 06be 3bef c8bd a66b 28bd
00000250: 7311 0d3c 6df2 fa3d 511b 0fbe 8407 86bd
00000260: 915f e8bd 98e1 78bd 55b8 29be d065 0bbe
00000270: 2aa6 16bd c44b 07be 9bef d9bd ec43 abbd
00000280: c32f 8dbd 9e76 3b3e 5b9c 013d b402 ad3a
00000290: 630d bc3d 31bc 88bb 6fe2 a3bd 506f 9b3c
000002a0: b6ba cbbd acfe 06bd 706d e0bc 841a 0abe
000002b0: 6ba6 923d 18ba a63c 124a 343d 0f0e 033e
000002c0: 1f30 c6bd b58a 2d3e 2e34 41bd b16e efbc
000002d0: f2be 703d 6c8e 2d3d 190e 5cbd 1642 d63d
000002e0: 38af 5a3d 5d27 e83d 3e3d fd3d 72c7 a23d
000002f0: 4d86 183e 80d2 ac3e f936 c63d 661b 91bd
00000300: cdde 563d ccc8 823d 037c 0c3d 1cd6 e5bd
00000310: 6db2 5f3e 2519 ffbd d3b2 583d 222c f3bd
00000320: a402 4e3d 9800 0bbd 101a 6a3e c82f 42bd
00000330: 01da 16be f7ce 713d 9a87 28bd 44a3 ba3c
00000340: 67cb 583e fa4f 0dbe cafb 7cbb e30e d7bd
00000350: 22f9 723b 8e1d f43d b18f 383e 8d0d c33d
00000360: d1d5 11be b316 ac3d 774e 1e3d 46ab 743d
00000370: f5ea a83d c0ce 18be 40f8 f13c 4a19 99bc
00000380: 23a9 183e 3a49 473d 4cf4 853e 4d41 d63d
00000390: 43ca 533d 7974 543d 1b82 04bd c887 0ebc
000003a0: 3510 1d3d cc77 113d 1788 1bbd 2a14 db3b
000003b0: 2ab6 133b 89d2 a83d 8b70 a23e dc31 d1bc
000003c0: cc4a 6ebd 59be 55bd 2755 e0bd 403c 62bd
000003d0: 1b82 5a3d 58df 23be e440 2d3c ba37 8c3d
000003e0: 33a9 8fbc 9c9e 8c3e 7a4c a53d 9be4 0dbe
000003f0: fa52 edbd ea3b 39bd a70a e5bd f683 7abc
-0.085962914 -0.03645331 0.016225351 0.045396876 -0.0962409 0.08344512 -0.024429988 0.09694459
-0.15254815 -0.28490964 -0.116397865 -0.03708249 -0.12603444 -0.02439193 0.06954681 0.020070897
-0.16101599 0.044485975 0.010753099 -0.057716858 0.0011953295 -0.30230898 -0.085264474 -0.21062513
0.103699565 0.050565504 -0.01297224 0.116520524 0.008296284 0.05082288 -0.10687596 0.053765718
0.14048201 -0.2970238 -0.034708563 -0.18332975 -0.028305426 0.086229056 0.06387588 -0.083546415
0.0847019 -0.026231986 0.03767564 -0.046149526 0.12485055 -0.21139103 0.2184892 -0.07312192
0.060969807 -0.0009200716 -0.062149428 0.041162163 0.03589725 -0.01712499 -0.046252474 -0.14626524
-0.1054453 0.037299145 -0.07829324 0.017611656 0.060944673 -0.03950996 0.027327223 -0.06772741
0.17893234 -0.038241733 -0.018767286 0.08009487 -0.06309003 0.18206023 -0.111793324 0.043346282
0.07851963 0.025195632 -0.06649451 -0.12023045 -0.05472785 -0.046589885 0.0077167796 0.034621872
0.14072837 0.25524065 0.05599344 0.015153347 0.011052697 0.11184641 -0.0551145 0.018245239
-0.08715386 -0.03174016 -0.032324135 -0.02229792 0.016598798 0.34037572 -0.038777385 0.21205416
0.121419474 -0.036227807 -0.0989378 -0.03740678 0.04847269 -0.015599953 -0.054646812 -0.10380232
-0.10144868 -0.18152899 0.121920444 0.17017461 0.015273662 -0.06581438 -0.0206363 -0.02048669
-0.084484346 0.020244746 0.044085708 0.10607993 0.15663888 -0.03196625 -0.043831736 -0.14125213
-0.040586576 0.071663134 -0.047095977 0.0022790083 0.06670121 -0.070499025 0.03322293 -0.0016607008
0.008233819 0.11703204 -0.10764236 -0.15790313 0.10271166 -0.19841479 -0.12744418 -0.0071290312
-0.056952756 -0.12830734 0.06637227 -0.1188413 0.10203766 0.13194409 -0.13948287 -0.03386829
0.10456412 -0.13127771 -0.098112546 -0.041118287 0.008610117 0.1225327 -0.13975264 -0.06544402
-0.11346353 -0.060762018 -0.16574223 -0.13613057 -0.03677956 -0.13212496 -0.10641404 -0.083625644
-0.068938754 0.18306968 0.031643253 0.0013199658 0.09182241 -0.004172825 -0.08002173 0.018973976
-0.09947722 -0.032957718 -0.027395934 -0.13486677 0.07160648 0.020352408 0.04401595 0.12798332
-0.09677147 0.16947444 -0.047168903 -0.029227586 0.05877585 0.042372152 -0.053724382 0.10461824
0.053389758 0.11335633 0.12365197 0.079481974 0.14894982 0.3375435 0.09678454 -0.07085304
0.052458573 0.06385955 0.034297954 -0.11222479 0.21845408 -0.12455968 0.052904915 -0.11873652
0.050295487 -0.033936113 0.22861505 -0.04740885 -0.147316 0.059035268 -0.041144945 0.02278293
0.21171342 -0.1380004 -0.0038602226 -0.10500886 0.0037074764 0.119196996 0.18023564 0.09524069
-0.1424172 0.08402767 0.03864905 0.05973365 0.082479395 -0.14922619 0.02953732 -0.018688817
0.1490827 0.04865382 0.26162946 0.10461674 0.051706564 0.05186889 -0.03235064 -0.008699365
0.038345534 0.035514638 -0.037971582 0.0066857534 0.0022538998 0.082432814 0.31726488 -0.02553647
-0.0581768 -0.052183483 -0.109537415 -0.05523324 0.053346734 -0.16003168 0.010574553 0.068465665
-0.017536735 0.2746476 0.08071227 -0.13856737 -0.11588092 -0.045223154 -0.111836724 -0.015290251

critic.0.bias f4 [256]
00000000: 5203 243e f828 403e ae78 0bbd 95de 3ebc
00000010: 6727 89bd 4fe3 38be ad85 343d 139c b53c
00000020: e29b 4d3d b045 663b 706d 613e c5e9 473e
00000030: d922 ed3d c973 d93d c4c3 003e 4a31 fdbd
00000040: c778 dabd bec5 533e df73 d93c 2da2 f63d
00000050: e33b fabd e4bf 04bd 605b cdbd 21a8 ec3c
00000060: 9b32 e13d 3665 1d3e b832 9dbd 0839 433d
00000070: 8c55 bfbd 1f84 e1bd 75bb 363e 6683 243d
00000080: 4fae 11be b8ab a13d 7d45 b13d 68a4 d4bd
00000090: eae3 d53d 4148 243d 93ff 873e cf78 95bc
000000a0: 1875 0f3e 49d6 0fbe 9f06 91bd 8d1d 583e
000000b0: 2669 1b3e df87 303e f465 fa3d 9962 85bb
000000c0: 8603 2a3b aad3 283e 0c8c 56be 35e8 413d
000000d0: 004a 18be 84c6 b3bd 4474 853e b99d 0dbd
000000e0: d0ed 6ab8 0b7f f6bd 3b5a b1be 3128 09be
000000f0: 60fe a9bd fe2f 9cbc 0053 40be 38e7 90be
00000100: 1243 0c3c 81f7 87bd 420e c0bd b62c f6bd
00000110: 0d50 283e cefc 313e af21 9c3d d157 72bd
00000120: 3d9c c3bb ae85 bbbd 3797 f2bd 3d12 053e
00000130: 89b8 bebe fb41 d33c 00ba 42bc c567 8abd
00000140: 7246 61be adbd 68bd 7e8a 70bb eb76 57bd
00000150: a4ad 063e e9a3 9cbd 5797 ddbd 7d22 37bd
00000160: d5d1 aabd 57fd c13d 7a04 273e 11e1 14bd
00000170: d728 86bd 081b d53d 20c8 32be 7767 13be
00000180: 63e4 63bd 4a85 623c b1d9 453c 4d04 2a3e
00000190: 18a6 a13d eeb9 c2bd d5f1 c63d 029b 6bbc
000001a0: 9070 d53d 6795 c2bd 68f4 4cbd ab7e 563d
000001b0: a52b e9bd 9988 c6bd 0c3f 73bd 8570 5bbe
000001c0: 9636 8f3d 0c25 19bc add8 533c af9e 29bd
000001d0: 2293 a73c 8d45 0bbe 4338 a53d ba76 e3bd
000001e0: 9c3c 273e cd48 12bc 31c7 c2bc 21f4 b3bd
000001f0: 2fbe a6bd a257 02bd ad51 05bd dfb8 d4bd
00000200: 1fe8 283e 3a31 51bc ebda b63c 91e0 3a3e
00000210: f735 cebd 0e30 3abd 0ea8 293d ba48 683d
00000220: 8e24 81bd 86ce 083c fd9d 173e d8ba d2bd
00000230: 7e78 b7bd 2472 86be 4391 423d 7072 90bc
00000240: dd79 523d 3bb6 423e 2f27 c3bd f80e d23d
00000250: bcc0 823e de4a b4bd 56c1 fbbd f9f2 df3c
00000260: 61f4 ee3d 23e4 c13d 9c09 04bc 62ac edbd
00000270: 1d1a 5c3d 923e 923d eb44 1abe ef0e eebd
00000280: db5d 1b3d d94d 503e 9d88 1c3e 5981 09be
00000290: 8412 093c 04eb b3bc d099 29be 85a1 98bd
000002a0: ab34 cbbd 42af b93d 9ce1 303e aa4f a2bc
000002b0: fcc0 f0bd 2e57 083b 356b 353e 7320 5a3e
000002c0: 9e64 103e 5dbc c73d 119a 79bc cae0 6dbd
000002d0: cdda 3e3d 28ff bdbd 6069 cebd 72c6 883d
000002e0: 2f0d 4e3e e4cd 22bd 9550 3ebb 5810 b13d
000002f0: 0226 013e 4192 313e 07d4 603d d07b 263e
00000300: f4a6 93bd 0a3e 193e 539e abbc 96b8 84bb
00000310: 4f4d 09bd 9285 81bd c775 24bd 7390 043e
00000320: 3140 913d 0d6f f3bd cb65 8d3c 1cbe bf3a
00000330: cd5a 66bd 9c66 0abe 3291 01be c5cb 3a3d
00000340: a599 453e e44a ccbd 551b d03d 5028 a7bd
00000350: 4027 b4bd 6d30 1e3d ccb5 a8bd d716 003e
00000360: 0a93 5dbd f2dc 99bd e753 f63d eb99 d23d
00000370: ffa4 e3bc 1969 febd b755 18bd 8a47 c93d
00000380: b94a 2bbe 1c1d f53c b0ad fabd 58ba ecbd
00000390: 2bc4 c83d bd7b c0bd 3792 123e 3e96 7d3d
000003a0: a655 64be bbff c13c 655a e03c 4237 1fbe
000003b0: ad6e abbc 6630 153e d689 9e3d fd6a 603e
000003c0: 4f9d 68bd 1cbf 3dbe 3fa7 b03d 52ca 21bc
000003d0: 18bc 63bd 6ec1 1e3e 9be8 443e dd05 1cbe
000003e0: dfda 293e 5ead ad3d a0a3 32bd ef06 24be
000003f0: ec21 68bd 2c4c 003d 99bf adbd 9f24 113e
0.16016892 0.18765628 -0.034050636 -0.011649747 -0.066969685 -0.18055461 0.044072796 0.022169149
0.05019749 0.0035136752 0.22014403 0.1952277 0.11578912 0.106177874 0.12574679 -0.12362917
-0.10667568 0.20680901 0.02654451 0.12042651 -0.12218454 -0.032409564 -0.10027194 0.028888764
0.1099598 0.1537064 -0.076756895 0.04766181 -0.09342489 -0.11011528 0.17844947 0.040164374
-0.1422665 0.07894081 0.08655832 -0.103829205 0.10443862 0.04010797 0.26562175 -0.018246083
0.14009511 -0.14046587 -0.07081341 0.21105023 0.1517683 0.1723933 0.12226477 -0.0040705916
0.0025942042 0.16486993 -0.20951861 0.04734059 -0.14871979 -0.08778098 0.26065266 -0.034574244
-5.6011428e-05 -0.1203595 -0.34639153 -0.13394238 -0.08300471 -0.019065853 -0.18781662 -0.28301406
0.008560913 -0.066390045 -0.093777195 -0.12020247 0.16436787 0.17381594 0.07623612 -0.05916578
-0.005969553 -0.09156357 -0.11845248 0.12995239 -0.37250164 0.025788298 -0.011885166 -0.06758074
-0.21999529 -0.056821514 -0.0036703642 -0.052603643 0.13152176 -0.07648451 -0.108198814 -0.044710625
-0.083408035 0.09472149 0.16310301 -0.036347453 -0.06550758 0.104055464 -0.17459154 -0.14394937
-0.05563773 0.013825724 0.012075827 0.16603203 0.07893008 -0.095081195 0.097140945 -0.014380218
0.1042186 -0.095011525 -0.05003777 0.052366894 -0.11385278 -0.09694023 -0.059386298 -0.21429642
0.06992833 -0.009347212 0.0129300775 -0.041411098 0.0204559 -0.1360075 0.08067372 -0.1110663
0.16331714 -0.00892849 -0.023776622 -0.08786798 -0.081417434 -0.031821854 -0.032548595 -0.10386824
0.16494797 -0.012768084 0.022321185 0.18249728 -0.10068887 -0.045455985 0.041420035 0.056709982
-0.063058004 0.00835002 0.14806361 -0.10289544 -0.08958529 -0.26258957 0.047501814 -0.017632693
0.05138575 0.19014828 -0.09528958 0.10256761 0.2553767 -0.08803342 -0.12292735 0.027337538
0.11667705 0.09467342 -0.008058932 -0.11605145 0.05373584 0.071408406 -0.15065353 -0.11623942
0.037931304 0.20342197 0.15286489 -0.13428248 0.008366231 -0.02196265 -0.16562581 -0.074526824
-0.09922155 0.09066631 0.17273563 -0.019813377 -0.11755559 0.0020803916 0.17716677 0.21301441
0.14100882 0.09752724 -0.015234486 -0.058075704 0.046595383 -0.09277183 -0.100786924 0.066784754
0.20122217 -0.039747134 -0.002903973 0.086456954 0.12612155 0.17340948 0.054889705 0.16258168
-0.07209578 0.14965072 -0.020949518 -0.0040503247 -0.033520993 -0.06324305 -0.040151384 0.12945728
0.07092322 -0.11886416 0.017260453 0.00146288 -0.056238938 -0.13515705 -0.12653044 0.045604486
0.19296892 -0.09975222 0.10161463 -0.08161986 -0.08796549 0.0386204 -0.082378 0.12508713
-0.054095306 -0.07512845 0.12027722 0.10283264 -0.027788637 -0.124223895 -0.03719112 0.09828098
-0.16727723 0.029921107 -0.122401595 -0.1155898 0.09803041 -0.09398601 0.14313589 0.06191086
-0.22298297 0.023681512 0.027386853 -0.15548423 -0.020926798 0.14569244 0.07741134 0.21915813
-0.056790646 -0.18529934 0.0862565 -0.009874897 -0.055599302 0.15503475 0.19229357 -0.15236612
0.16587399 0.08480333 -0.043613076 -0.1601827 -0.056672975 0.031322643 -0.0848381 0.14174126

critic.2.weight f4 [128, 256]
00000000: 3d14 10bd 6ca1 353b 2a81 60ba 1d87 45bd
00000010: fce7 0e3c 8002 96bd 2c12 47bd 542a b0bd
00000020: 9dbc 97bc c6bf 19bd 29e4 d13d 036f ae3d
00000030: 5fe2 9d3a 9aa1 913d f747 8bbc 6ba4 373c
00000040: 6f0d 8c3b 4546 bbbd db29 46bd 7400 963b
00000050: 8a2b cdbc 9dd4 7ebd ed18 733d ef61 f43d
00000060: e083 883d b70e 9e3d fc3b de3c 3394 65bd
00000070: 2b3f a03c b55f 243d 1957 51bd 18e3 07bf
00000080: 6e48 93bd c845 2a3d 7ba9 edbd cd04 2b3d
00000090: f8c5 c43c b56b 113a 0179 fe3c 26e1 81bd
000000a0: 6e5e 8dbc e524 003c 5fdc 213b ddf4 efbc
000000b0: 454c f5bf a655 44bb 938a 113d f3c0 f13b
000000c0: 7011 1abb 6be9 22bd 6e18 73bc 49d5 2d3d
000000d0: ebe3 7e3d a5ee 283d c42d 6bbd 6743 613c
000000e0: 7ed5 693d 7f76 25bd c197 083c fe93 6abf
000000f0: b413 57bd 0a63 d53b b4ff e63d 2309 1dc0
00000100: ba49 e6bc 4cda fdbc 3614 073d 0a4b a83c
00000110: 8fc7 103d 4559 21bd 44d0 e9bd ac86 853c
00000120: 0103 283d 8f25 883b 8b38 e13c 9999 773d
00000130: e6ea 683d 65db a4bc 0ac1 f93c 2116 4dbb
00000140: 4355 4dbd 2070 5fbc f9ed 6fbd 81f3 0ebc
00000150: 989d ba3d 6c92 31bd c8b0 5cbb 9bdc 6fbd
00000160: f162 53bd 3d53 653d c238 62bd b518 813c
00000170: a6bd f53c fc2c 2c3d b514 9dbd 7041 97bc
00000180: fcda 0dbc f5ab c93b 76d2 a13c 1c6a ca3d
00000190: 9cbe df3c f98e 1e3d 8e15 893c f522 8cbd
000001a0: 0a40 dd3c 418f dcbd 6034 073c 3f19 0f3d
000001b0: 2129 96bd 1e3f e83c 023b df3c 80e2 013d
000001c0: 2a42 943d d718 9a3d 1212 23bb 7548 0f3d
000001d0: 8048 91bd 918f 35bc 5f52 33bd 8abc 71bd
000001e0: 0e98 d33c 95b5 0b3d 1ec8 993c d249 363e
000001f0: dd44 69be a0b4 3cbc 57f7 cc3c fbf4 d5bc
00000200: 15a6 b6bc 1f12 9fbd 249e c2bd d6dc 773d
00000210: 5039 e73c c0dc 023d 2f19 073d b07b f73d
00000220: 1d21 01bd 83e8 52bd 87fd b23c 206b b23d
00000230: 6e9b f63d fce9 54bd d487 dc3d 102c cdbc
00000240: 9980 85bd 1574 993d 44ce 093e 4bc3 d3bc
00000250: 352c 02bd 6f48 ffbd 2b9c 0f3d f1a2 bf3c
00000260: 3fef 9a3d 26a5 6b3b 40b7 fbbf 2286 92bb
00000270: bc77 893c 7450 493d 0568 bdbd 2c24 4c3d
00000280: d265 693d 7f89 35bd a9cf f5bc f3ff 3c3c
00000290: 43ec 843d ac6f eabb 380e ea3b 5550 ec3d
000002a0: 8fc3 62bd d142 623d b010 9e3d eb9b 5abd
000002b0: 1191 2bbe 70ac 343d df6d 5a3d 9b68 94bc
000002c0: 9370 adbc 9e25 2dbd cf9c d33b 8853 2abe
000002d0: c4a4 a3bd 9952 8abb 81cb e43d 75f4 733c
000002e0: bc1a 7dbc f305 243d 9e01 5ebc be0a d9bc
000002f0: 04bf abbc 7184 45bd e622 fa3c ed0d 103d
00000300: 3cea 963c ade0 933c c5f9 423d b04f 62bb
00000310: 29f2 8abd 33c8 30bd 23e5 a23c f03f 08be
00000320: c1ce 08bd 08f5 9ebd 3522 81bb c055 863d
00000330: 59e2 933d 568c 703d a019 563d e7cf 9ebd
00000340: ccbd 4ebc bbce eebb 2181 82bd f1d0 293d
00000350: 0cba 913c 3f76 013c 6bc1 b73d b70a 893c
00000360: 1bf1 94bb b91d b53c 2f25 16bf 9f49 cfbd
00000370: ba60 073d 7337 a8bd 5f33 d3bb 55f6 093d
00000380: bbf8 c93c 04a6 f9bd 99fa 47b9 e22d b5bc
00000390: 98cb e43c 80d7 50bd 76db 823c 84ea 31bd
000003a0: 054e 91bc 4b62 9abc 03ef d0bb e31f 593d
000003b0: 8b7a 21bd 94df 293d c21b f93b 275a 953d
000003c0: 3e1f 4fbd c664 16bd 79eb 42b8 accd 16bc
000003d0: 60dd 8ebc 9b97 70bd caf9 bf3c 6f1c ae3c
000003e0: f48e 583d 22b9 2cbc 1c41 2c3e 18ff a43c
000003f0: b1ac 843e 0700 6a3d 15b0 63be 686d d43d
-0.03517555 0.0027714623 -0.0008564169 -0.048224557 0.008722302 -0.073246956 -0.048601314 -0.086018234
-0.018522555 -0.037536405 0.10248596 0.085172676 0.0012045613 0.07110901 -0.017002089 0.011208634
0.0042740623 -0.09144262 -0.04837976 0.0045776907 -0.025045175 -0.062214483 0.059349943 0.11932742
0.06665778 0.077176504 0.027128212 -0.056049537 0.01956137 0.040130336 -0.051108453 -0.5308089
-0.07191549 0.041570455 -0.116045915 0.041752625 0.02402018 0.00055473606 0.031063559 -0.06341772
-0.017256942 0.007821296 0.0024698002 -0.029291565 -1.9163901 -0.0029958277 0.035532545 0.0073777377
-0.0023508929 -0.039773386 -0.014837367 0.042439733 0.06222908 0.041243214 -0.057416692 0.01374898
0.057088368 -0.04039621 0.008336962 -0.9163207 -0.052509025 0.0065120505 0.1127924 -2.4536827
-0.028111327 -0.030987881 0.03297826 0.020543594 0.035346564 -0.039391775 -0.11416677 0.016299568
0.04101849 0.004154868 0.027492782 0.060449217 0.05686464 -0.020124147 0.030487556 -0.0031293707
-0.05013014 -0.0136375725 -0.058576558 -0.008725048 0.0911209 -0.04335253 -0.0033674706 -0.058559995
-0.05160803 0.055987585 -0.05522991 0.015758852 0.029997658 0.042035088 -0.07669965 -0.01846382
-0.008658167 0.006154532 0.019753676 0.0988352 0.02731257 0.038710568 0.01673391 -0.06842605
0.027008075 -0.10769511 0.008252233 0.034936186 -0.073320635 0.02835041 0.027249817 0.031710148
0.07239182 0.07524269 -0.0024882597 0.03498121 -0.070939064 -0.011081592 -0.043779727 -0.059017695
0.025829341 0.034108717 0.018772181 0.17801598 -0.22780176 -0.011517674 0.025020285 -0.026117792
-0.022295991 -0.07767128 -0.09502819 0.06051334 0.02822557 0.031948805 0.032983 0.120841384
-0.03152572 -0.05149127 0.021849407 0.08711839 0.120413646 -0.051980957 0.10768095 -0.025045425
-0.06518669 0.07492844 0.1345759 -0.025849959 -0.03178044 -0.124649875 0.035061043 0.023393126
0.07565164 0.003595659 -1.9665298 -0.0044715563 0.016780727 0.04914899 -0.09248356 0.049839184
0.05698187 -0.04432058 -0.030006247 0.011535632 0.06490376 -0.0071544256 0.0071428083 0.115387596
-0.05536228 0.055239502 0.07718027 -0.05337135 -0.16754557 0.04410976 0.053327437 -0.018116286
-0.021171844 -0.042272203 0.006457902 -0.16633427 -0.07990411 -0.004221272 0.11171628 0.014889826
-0.0154482685 0.040044736 -0.01355019 -0.02649438 -0.020965107 -0.04822201 0.030534219 0.03516953
0.018422239 0.01805147 0.04760148 -0.003453236 -0.0678447 -0.043159675 0.019884652 -0.1330564
-0.0334003 -0.0776158 -0.0039408454 0.06559324 0.07220907 0.058727585 0.05227053 -0.07754498
-0.012618493 -0.007287828 -0.06372286 0.041459028 0.01778891 0.007901727 0.089724384 0.016728742
-0.0045453436 0.0221089 -0.5865049 -0.10121464 0.03305123 -0.08213701 -0.006445333 0.033682186
0.024654737 -0.12189868 -0.00019071474 -0.022116605 0.027929112 -0.050986767 0.015973788 -0.043436542
-0.017737398 -0.018845698 -0.0063761487 0.053008925 -0.039423507 0.041472986 0.007602186 0.07292586
-0.050566904 -0.0367172 -4.6472505e-05 -0.009204309 -0.017439544 -0.058738332 0.023434538 0.021253793
0.052870706 -0.010542186 0.16821712 0.02014117 0.25913003 0.057128932 -0.22235139 0.1037243

critic.2.bias f4 [128]
00000000: a4c3 823d 2794 92bc 4d60 b3b7 c760 22bc
00000010: 4782 1e3d 904e 9d3d b2fc f2bc 141a 2dbd
00000020: 3312 a6bd ca20 923c 24cc 87bc f195 ff3c
00000030: 0fbd ad3c 12bb 573d 35d8 df3c b8d0 623d
00000040: c457 093d 65a0 2c3d 0f8b 303d 6895 a5bc
00000050: b218 553d ce9a f43b 6864 bbbc be90 2e3d
00000060: f0ad fb3c b81d bb3b 2004 c73b 12a1 063d
00000070: 2bd8 6f3d 2d33 873c 5c84 60bd 38ba 00bd
00000080: 65db ccbc 2d5c debc 470d cc3d f7b4 b23c
00000090: f8a1 c93d fb78 d43d 4ec0 7e3d b69d 233d
000000a0: 8f0b d7bc 55bb 03bc 0b21 87bd 8698 0b3b
000000b0: 1e65 93bc 2dba 363d 04e9 d63c 7d01 99bd
000000c0: 7e42 ae3d 2157 423d 550e f83c bb2a 3abd
000000d0: 5ae4 853d d819 b53c 5902 ffba 59f9 febc
000000e0: 71e7 1f3d efd3 e8bc ec62 df3c b57e 39bd
000000f0: 99b0 5bbc c910 78bd 1932 3fbd 09e9 4abd
00000100: 013b 01bd d809 363a 9478 263d 82ee 83bd
00000110: dac1 efbb 6284 8cbc af3c aa3c 3164 d13c
00000120: e2ce ac3c 3a0a d43d fc37 053e 0e75 2c3d
00000130: c880 a43b b12a 6dbd 930f ce3c dc8d 8dbd
00000140: 49fa c93b c250 8bbd fa80 56bc 8a5e 623d
00000150: 3417 2d3d 88e4 ee3d 9c6f c63c 6498 09bc
00000160: 86b1 d73c e8d6 86bc ad43 c7bc cd96 a5bc
00000170: 072a d33d 478d 6e3d 4a06 60bc 30fb 75bd
00000180: 8330 cb3d 15c4 0c3c 2c79 e23c 45a9 3a3c
00000190: 5ad3 2f3d e60d 8b3c fd8d 20bc 91f8 0cbd
000001a0: be80 273c 0eeb b53c f294 3cbd 0614 04bc
000001b0: 18db afbb 1b41 4c3c 6f2b d63c 4d2b 903d
000001c0: 1a24 193d 9428 4e3c 67ee d63d 1fee 4fbb
000001d0: 186b 28bd 7c82 bd3d 872a b03b 5ec0 00bd
000001e0: f298 f0bc 87bd b0bc 50c9 863c a9dd 873c
000001f0: 0048 dfbc fb53 1cbc 89ba 623d f426 0c3e
0.06384972 -0.01789291 -2.1383306e-05 -0.009910769 0.03869846 0.07681 -0.02966151 -0.0422612
-0.0810894 0.0178379 -0.016576834 0.031199427 0.021208314 0.05266864 0.027324775 0.05537483
0.033530965 0.04214515 0.043101367 -0.020212844 0.052025504 0.007464743 -0.022875026 0.042618506
0.030722588 0.00571033 0.00607349 0.032868452 0.058555763 0.016503895 -0.054813728 -0.031427592
-0.02500696 -0.027143562 0.0996347 0.021814806 0.09845346 0.10374638 0.062195115 0.039945327
-0.026250629 -0.008040269 -0.06598099 0.0021300628 -0.017992552 0.044611145 0.026234157 -0.07470987
0.08508776 0.047446374 0.030280272 -0.045450907 0.06537695 0.02210705 -0.0019455656 -0.031124758
0.03903908 -0.02842137 0.02726885 -0.045286853 -0.013408803 -0.060562883 -0.046678636 -0.049538646
-0.03155041 0.0006944216 0.040642336 -0.06441976 -0.00731681 -0.017152969 0.02078089 0.02556047
0.021094743 0.10353513 0.13009638 0.04210382 0.0050202347 -0.05790204 0.02515391 -0.06911823
0.0061638695 -0.06802513 -0.013092274 0.05526594 0.042258456 0.116646826 0.024223141 -0.008398149
0.026329767 -0.016459897 -0.024324263 -0.020213509 0.103107505 0.0582402 -0.013673374 -0.060054004
0.09921362 0.0085916715 0.02764567 0.011392896 0.04292617 0.0169744 -0.009799478 -0.03441674
0.010223566 0.02220681 -0.046040483 -0.008061415 -0.005366694 0.012466694 0.026143758 0.07039509
0.037387945 0.012582917 0.104946904 -0.0031727625 -0.041117758 0.092534035 0.0053761634 -0.031433456
-0.029369805 -0.021574749 0.016453415 0.016585188 -0.027256012 -0.009541507 0.055353675 0.13686734

critic.4.weight f4 [1, 128]
00000000: e16b 9b3e 77e0 2fbe beb8 343e 37f4 bdbd
00000010: a355 763c 6412 32be 6666 a8bd bbfb 3ebe
00000020: fcbf 993e bb41 f3bd 874e 2dbf c859 18bf
00000030: dc3e d0bd 998a d63d bae1 283f 1ad1 12bf
00000040: 1349 003f 8ab4 ab3d 2534 bc3e 76e2 143e
00000050: 7ee9 283f 264c 093e cf26 d63e c092 79be
00000060: 7911 a23e fb19 333e deac 5d3e 3a6e 98be
00000070: e3d7 b3bd c875 453e a4db 013f d5d5 4f3e
00000080: de4b 123e a9e5 44be 128a 393f 09c6 953e
00000090: 5ecb 123e 35fb b6be 8451 1fbe 6b5b 383f
000000a0: a256 9f3e a2f2 3f3f 7c84 3e3e b45c f53e
000000b0: 7b20 603c ca08 983e c9a5 18be e3f6 1b3f
000000c0: 320c 363f 7e36 74be 8b21 7a3f 86d9 1b3f
000000d0: 6cfb e7be 887c f93d f04a e73e a4a6 d5be
000000e0: 5442 ee3e 4b90 103f 11c0 fe3e bfc3 3d3f
000000f0: d7f1 febd 6d20 023c 0798 963f d671 423f
00000100: c541 4a3e 173e 903e 3813 81be 4ad9 213f
00000110: 9617 d73e ce04 f43e 3646 f63e 887e 69bd
00000120: 2c71 723e e2d2 1d3f 5b9f 223f 5d8f 0e3f
00000130: 2847 173f 68b7 94be c3dc a3be 43d8 9c3e
00000140: e3e0 9cbd c35b cb3c d257 483f 8544 59be
00000150: 9cc3 cd3e 2a8d 043f b000 763f cb5a f03e
00000160: 480c 57bd d42d 21be a112 723d eff0 c2bd
00000170: 721a 40bf f5fc 8bbe 48c8 77be 58ab ecbe
00000180: e095 cbbe 0894 d6bd 703c 0c3f d08e 58bf
00000190: e5d3 773f 892d 80bd 0a28 c8bc 1da4 243e
000001a0: ea6f 583e c869 6bbe cd1e 2b3e 0ff7 85be
000001b0: 22cc 863e 319c 993e e551 f83e 915f 9d3e
000001c0: f811 ebbd 33d0 123d 1a10 853f 4578 cdbe
000001d0: e167 10bf fe89 fe3e 0faa 00bf 99e0 6c3f
000001e0: b809 113f 2beb 133d 1ff3 50be 7aba 53bf
000001f0: a438 9dbc f67e 403f 1eaa fdbd ee25 b0be
0.30355743 -0.1717547 0.17648599 -0.09275096 0.015035066 -0.17389828 -0.08222656 -0.18650715
0.30029285 -0.118777715 -0.6769795 -0.59511995 -0.101682395 0.10475654 0.6596943 -0.57350314
0.501115 0.083840445 0.36758533 0.14539513 0.6598128 0.13407955 0.41826484 -0.24372387
0.31653956 0.1749038 0.21647975 -0.29771596 -0.087814115 0.19283211 0.5072577 0.20296414
0.14286754 -0.19228233 0.72476304 0.2925265 0.14335391 -0.3573853 -0.1555844 0.7201449
0.31120783 0.74979603 0.18605226 0.4792229 0.013679619 0.29694206 -0.14906992 0.60923594
0.7111236 -0.23848912 0.9770743 0.6087879 -0.45309007 0.121819556 0.4517436 -0.417287
0.4653498 0.56470174 0.4975591 0.7412681 -0.12448471 0.007942301 1.1765145 0.7595495
0.19751652 0.2817237 -0.25209975 0.6322218 0.42010182 0.47659916 0.48100442 -0.057005435
0.23675984 0.61649907 0.6352441 0.55687505 0.5909295 -0.29046178 -0.32004365 0.30633745
-0.07660081 0.024824029 0.78259003 -0.21217544 0.401883 0.517779 0.960948 0.4694427
-0.052501947 -0.15740138 0.059099797 -0.09518611 -0.7504035 -0.27341428 -0.24197495 -0.46224475
-0.39762783 -0.104774535 0.5477972 -0.84592915 0.968077 -0.06258685 -0.024433155 0.16078229
0.21136442 -0.22989571 0.16710968 -0.26165053 0.26327616 0.30001977 0.4849998 0.30736974
-0.11478037 0.035843085 1.0395539 -0.4013082 -0.56408507 0.49714655 -0.5025949 0.9253021
0.56655455 0.036112946 -0.20405243 -0.82706416 -0.019192047 0.75193727 -0.12385963 -0.34403938

actor.0.weight f4 [256, 48]
00000000: e1a6 d7bc 3420 233d 3d8b 90bd eb61 803d
00000010: 6abb d23c 6a87 07be 4c2b 193d c767 92ba
00000020: f223 04be e037 223e 205c 88bd a0b8 893d
00000030: b7a2 1c3d 4352 cb3d a00d e1bd 6fb8 66bd
00000040: c482 a3bd 84a6 bebd 0fe9 b43d 66be 41bd
00000050: 9166 45be 3156 50bd 3e8a f63d 907d 2e3d
00000060: cd3e 693c 48fd 66bd f18b 55bd aa7b 8ebd
00000070: 0f8b 58bc 8b51 5abd 98ed 653b 78bf 0cbe
00000080: 43ea a8bd 3cc7 603d acd0 d1bd fd8f ee3c
00000090: 5c1d 6e3d 0cea fd3b 909b bebd 9fe1 0dbe
000000a0: 2330 b33d 1718 1abe 7705 b23d 1867 0abe
000000b0: da2d 86be 937a b03c c608 09be c280 253e
000000c0: 28b1 983d 4a7d 263e 21ef 073e 6f27 0cbe
000000d0: 0652 973d a9fe ea3d 3748 00bd 3595 0bbd
000000e0: d273 d5bc 3b75 d33c b6ec 85bc 04ec 0a3d
000000f0: e6ed 443c 7026 313e 01a6 b53d 948e 163d
00000100: c7ad cbbd 7817 f3bd dd10 19bd 2fa8 db3c
00000110: 985b 163d ca51 b2bc f5a0 02be 4161 d23d
00000120: 3f73 f23d f504 013e f061 783e 34f5 4e3d
00000130: 0f58 a8bc f52d 35bd cdb4 423d 5d93 bd3c
00000140: 69dc 58bd 6008 b13d d694 15be 0104 0f3c
00000150: 5550 6d3e 9859 de3d 322a 803d ed94 0cbe
00000160: b841 16be 0471 d83c 54f6 703d fd23 c6bc
00000170: 16f9 b0bd 16f7 273e 8f4f 36bd 244a 0a3e
00000180: ee2b 51bd 1fe2 9d3c 0656 3cbe 817b 0a3d
00000190: a0e3 193e 5a75 1d3e 5ba8 83bd 8901 dd3d
000001a0: 011d fb3d 2a4c 56bd 5924 d53c 767b 85bd
000001b0: 514e d9bd 9ec3 46bd 4889 f4bd 03f6 3abe
000001c0: 826d e43d 6725 093e d9a0 e73d 11e4 d5bc
000001d0: 35c7 133e 9168 e13a f711 e13d f39b 643c
000001e0: 5d39 653d f6ad babd b05d 7b3d cb4d bcbd
000001f0: 4782 f73d 3e96 4a3d dc96 103d da1d 82bd
00000200: f713 803e ffe7 5cbe c02d e2bd bb9f 26be
00000210: 4d90 003d e702 a33d 34e1 b4bd 8cf5 b93d
00000220: 8df5 e73c 7580 a73c 073f 643d e4ee 25bd
00000230: a870 c93d a8e6 09be 1abd 413d ef49 92bd
00000240: 09b9 35be e772 55bd 6066 263e f725 fd3c
00000250: d080 353d 857b eebd f892 5cbd 38d7 4cbd
00000260: dca5 e43d e7c8 aebd 9d72 1abe 9002 823d
00000270: 131d 23be 6ef8 5b3d 40d9 f43c b51f 32be
00000280: 1a14 27bd e1bf dd3d bbc6 a83d 5c47 f2bd
00000290: 441f b8bd 5081 b1bd aa09 293d 8635 493e
000002a0: 4394 b8bd 28a3 4cbb ba5f 123e be72 343d
000002b0: 1bb5 cdbd 4de2 553d b29e 52bc 7368 613d
000002c0: 1606 d23d b152 7d3d f4f6 073e 7437 053e
000002d0: f189 86bd c5e1 c03d ed0f 99bd e253 9ebc
000002e0: 794c a4bd 220e 12bd 0189 f13d 7ebb 153d
000002f0: d4d7 ee3d 1c6d 923d 5191 8f3d 6e54 7b3e
00000300: a69b 6e3d c6c0 c6bd 632f b53d 5094 f03d
00000310: f8cf ffbd 4cd5 993d c74e 023d 6f31 63bd
00000320: 2332 673d c178 e3bd 6e3a 8bbc 2070 d2bc
00000330: 2193 e53d 227d 16be 6869 36bc 14d9 0b3e
00000340: 9840 9a3d 4794 c0bd 24e0 c23c 05a0 963d
00000350: d498 a4bc cb6d 95bd 6dfd 353c bea9 ed3c
00000360: a08f 5abd 16f7 6f3c 5f8b 29bd 7308 4cbc
00000370: 4225 16be f01e 15be 2917 a33c 8243 183d
00000380: 94b9 abbd 3a7e 1bbe 8a46 e63c 5b04 75bc
00000390: e0b5 cbbb 6ebc f23d 3da3 033e 7494 813d
000003a0: 9394 9ebc 611a 003d 534b 283d 8ad5 05be
000003b0: bfa1 c73d a217 5fbc b906 be3d 33bf d93d
000003c0: da21 0a3d e13d be3d 24eb 393e 7e53 e03c
000003d0: 3199 593d b9df 42bd fdba 0b3d 6130 20be
000003e0: c811 4ebd 928a dabd c4bf 763d d9e8 803d
000003f0: be0c 6c3d 4278 90bc dd24 77bd f904 03be
-0.026324691 0.039825633 -0.070578076 0.06268676 0.025724132 -0.1323525 0.037394807 -0.0011169844
-0.12904337 0.15841627 -0.066581964 0.067246675 0.038241114 0.099277996 -0.10988927 -0.056328233
-0.07983926 -0.09309104 0.08833515 -0.04730072 -0.19277407 -0.05086345 0.12038086 0.042600214
0.014236164 -0.05639389 -0.05213541 -0.06957181 -0.013216748 -0.05330042 0.0035084244 -0.13744915
-0.08247807 0.054877505 -0.10244879 0.029121393 0.058133468 0.007748848 -0.09307015 -0.13855599
0.08749416 -0.15048252 0.086924486 -0.1351589 -0.26206857 0.021542823 -0.13382253 0.16162398
0.07455665 0.16258731 0.13274814 -0.13686918 0.073886916 0.11474354 -0.03131887 -0.03407784
-0.026056204 0.025812736 -0.016348224 0.03391649 0.01201961 0.17299819 0.08869553 0.036757067
-0.09945255 -0.11869711 -0.037369598 0.026813595 0.036708444 -0.021767516 -0.12756713 0.10272456
0.11838388 0.12599547 0.2425611 0.050526813 -0.020549802 -0.04423328 0.047535706 0.023141557
-0.052944575 0.086441755 -0.14607558 0.008728982 0.23175175 0.108569324 0.06258048 -0.13728686
-0.14673507 0.026421078 0.058828667 -0.024187082 -0.08641259 0.1640285 -0.044509467 0.13504845
-0.051067285 0.019272862 -0.1839219 0.03380919 0.15028238 0.15376797 -0.06428596 0.107913084
0.122613914 -0.05231873 0.026018308 -0.06517689 -0.10610641 -0.0485264 -0.11940247 -0.18257909
0.111536995 0.13393174 0.11309976 -0.026109727 0.1443146 0.0017197301 0.10989755 0.013953197
0.05596291 -0.09115212 0.061368644 -0.09194525 0.12085395 0.04945969 0.03530012 -0.0635335
0.25015232 -0.21572874 -0.11043882 -0.1627187 0.031387616 0.07959538 -0.088320166 0.090800375
0.02831533 0.020446995 0.05572417 -0.040511027 0.098359406 -0.13466895 0.047299482 -0.07143008
-0.17746367 -0.052111533 0.1624999 0.030901892 0.0443123 -0.11644653 -0.053851098 -0.050009936
0.11164448 -0.08534413 -0.15082784 0.06348145 -0.1592906 0.053703718 0.02988875 -0.17394908
-0.040790655 0.108276136 0.0824103 -0.11830017 -0.089903384 -0.086672425 0.041268982 0.19649324
-0.09012654 -0.0031225178 0.1429433 0.04405474 -0.10044309 0.05221777 -0.012855219 0.05503125
0.10255067 0.06184644 0.13277799 0.13009435 -0.06569279 0.09418062 -0.07473741 -0.019327108
-0.080223985 -0.03565801 0.117937095 0.03655576 0.1166226 0.07149717 0.07010139 0.24543926
0.058253907 -0.09704737 0.08846929 0.11747038 -0.12490839 0.07511386 0.03181341 -0.055467065
0.0564443 -0.11107016 -0.016995635 -0.025688231 0.11209703 -0.14696172 -0.011133529 0.13657027
0.075318515 -0.09403282 0.02378852 0.0735474 -0.020092405 -0.07296332 0.011107785 0.029011603
-0.053359628 0.014646312 -0.04139268 -0.012453186 -0.1466265 -0.14562583 0.019908505 0.037173755
-0.083850056 -0.1518487 0.028109808 -0.014954652 -0.0062167495 0.11852346 0.12855239 0.06327143
-0.019357955 0.031275157 0.04108746 -0.1306974 0.097476475 -0.013616474 0.09278626 0.106321715
0.03372369 0.09289146 0.18156105 0.027383562 0.05312461 -0.04757664 0.034113873 -0.15643455
-0.050309926 -0.106709614 0.060241476 0.06294412 0.05762934 -0.017635468 -0.06033789 -0.12794866

actor.0.bias f4 [256]
00000000: d243 cfbd 02ae ea3d 5296 8abd 6739 86bd
00000010: 9195 c6bd 8114 92bd 41e3 903d 88ac e83d
00000020: 1377 cdbd 4afa 18bd 6b2e c93d 4880 7b3d
00000030: 4514 cd3d da9e 093e 19c6 50bd 8ed4 aebb
00000040: e0be 16be 88be d83a 312e 9cbc ae10 afbc
00000050: 8769 0cbe a0a1 0bbe 5651 aabd 729f 02be
00000060: 403c 0ebe 4933 263d 1bd8 83bd f689 a93d
00000070: f985 333d 88b2 0bbe 1bd9 b73c d414 513d
00000080: 279c 9abd f7af 243d 52b6 87bd c538 3e3d
00000090: 3d20 15be 086c 33bd d7e5 693d 2fe6 423d
000000a0: 5bde e1bd b459 1e3c 2cc7 3ebc 9b28 043d
000000b0: 8b4e 943d 50ad 1c3e 5124 a13d 48db a6bd
000000c0: 72dd c03d 0bf6 c93d 2f53 403c 2dbf bc3b
000000d0: f9c5 bbbd 7e84 123e 822a cdbd 009a ffbd
000000e0: 74fe 0cbe 5dde 84bd eec9 f53d d32c 33be
000000f0: f358 0a3e bc02 fc3b 1f9e 873b c595 14bd
00000100: d5e9 e63d 87f5 17be 150e c03d ffeb f4bd
00000110: 0596 333d 54d9 78bd d014 cebd 162c 27bd
00000120: a023 473c 5da9 9ebc 4e46 2fbd 93d3 97bd
00000130: 65af 643d 9208 d53d 3e55 063e 8062 f23c
00000140: ff3f 933c cbcb 113d 2d62 cf3d 25d4 493d
00000150: df22 b33d 084c 243d dae4 c93d b9c6 a4bd
00000160: 5a4f 8cbd 3e7d e6bc 1fb2 8a3d c48a 233d
00000170: bc54 ca39 90dd 35bb 7f4a 93bd 3df3 98bc
00000180: 1d8b d13d 17f1 a13d 77e8 013e c6db 2bbe
00000190: adb3 463d 6a8e d03d ae98 8fbd f526 73bd
000001a0: 271b 103c 6cbc a83d dbfa aa3d df3f a4bc
000001b0: 6202 2a3e 6e14 283d b4d9 2ebd f11e 6f3d
000001c0: 0fc6 163e c670 b13c b362 ec3c 7447 7f3d
000001d0: eb90 00be 406c 85bd 27c6 f73d 7a75 c3bd
000001e0: ae9d b83d 6545 e6bc 0e16 783d 01fa 9ebd
000001f0: f4ba 1bbd 20e8 003e 0c42 c63c 3ccd 4cbd
00000200: f132 873d c3cf f8bd 81ad e13d 5bc1 953d
00000210: 64c1 92bd a4b4 32bb b385 27bd 7f54 bd3c
00000220: 6506 8bbd b135 1a3e a27f de3d 14cd 1e3e
00000230: d8f8 9cbd 9976 ddbd 2935 d03c 7277 bd3d
00000240: b3be 453d 1c59 6b3d ed7c 103e 1215 ff3d
00000250: f396 a93d 0764 dfbd f56c 813d a9a2 e53c
00000260: 4a52 c8bd 9e84 e73d 6615 7dbd 4deb 82bd
00000270: adf8 4cbd bb6e 363c af7c 153e 4a38 92bd
00000280: 63ab 0e3e 70e6 8f3d a5c0 0b3d ccc8 ec3d
00000290: 16c9 b0bd 51a8 653b 29da c0bd 6939 073d
000002a0: 1a1b 3b3e 01a7 d6bc 559b e8bd 128f d63c
000002b0: 3466 ebbc 6bff 013d e2c0 b83c 5bc1 0abd
000002c0: 14c3 333e 9218 c53d d2c5 a8bd 23ea 51bd
000002d0: 2b6f 5fbd 36bd acbd 4ea1 683d 545c dcbd
000002e0: c08c c13c 406e a3bd 545d bebd 9e23 0e3e
000002f0: 3073 403d e9b2 c03b e420 d93b e4ba 66bd
00000300: 2daa 01be a50a 703d 10c7 cabd 42f8 7639
00000310: e06f dd3b e1ac 6e3d 8ee5 183e c977 0dbd
00000320: 71de f1bd c112 343e 2a69 5f3d b74e 0c3e
00000330: dcfa 313b a688 253e 9d93 b0bd 05ff 003e
00000340: 1147 003d 07a3 cebc e1a5 483d 661a 0abd
00000350: 1795 22bd 893f 083e 20e5 98bd 155f 9dbd
00000360: 4a7c 0ebe a902 89bb 7b1b b8bd 6eab 4c3a
00000370: 721c db3c e2b2 853d 9ca6 2f3d 2868 ea3c
00000380: cbb6 5abd ae2f e63c 7c2a 1abd e44e 45bb
00000390: 1cf8 9bbd 3a94 95bd 5d66 ae3d eaff 02be
000003a0: 2e46 b5bd 9008 89bd f217 45bd dc35 87bd
000003b0: 6e79 21bd 31dc a4bc f6c7 aa3d 2357 68bd
000003c0: d1aa 593b e085 63bc d99f e53d 5076 f23d
000003d0: a6bb 273e 014c dcbc 08cc 1ebd caaa ad3c
000003e0: 71e0 2b3e b961 c53d e97a 77bd a6af b33d
000003f0: 13c9 d9bd 8963 613c a553 0f3d 2b2b 203e
-0.101203576 0.114589706 -0.067669526 -0.065539174 -0.09696496 -0.07132817 0.07074595 0.11361033
-0.10032477 -0.03734807 0.09823307 0.061401635 0.10013632 0.13439503 -0.05097017 -0.005335397
-0.1472125 0.0016536275 -0.019064995 -0.021370258 -0.1371213 -0.13635874 -0.08316295 -0.12756136
-0.13890171 0.040576253 -0.06437703 0.08278267 0.04382894 -0.13642323 0.022442391 0.051045254
-0.07549315 0.040206876 -0.06626572 0.04644086 -0.14563079 -0.0438042 0.057103958 0.0475828
-0.11028739 0.009664942 -0.011644166 0.032265287 0.072415434 0.15300488 0.07868255 -0.08147293
0.09417237 0.09861382 0.0117385825 0.0057600946 -0.0916862 0.14308354 -0.10017873 -0.12480545
-0.13768941 -0.06487725 0.12001406 -0.17497568 0.13510494 0.0076907557 0.0041387226 -0.036275644
0.11275069 -0.14839755 0.09377686 -0.11959075 0.04384424 -0.060754135 -0.100625634 -0.040813528
0.01215449 -0.019367868 -0.042791657 -0.074134015 0.05583133 0.10402025 0.13118455 0.029587984
0.017974852 0.035594743 0.101261474 0.049274582 0.087468855 0.04011157 0.09858103 -0.08045716
-0.068510726 -0.028135892 0.06772255 0.03992726 0.00038591574 -0.002775047 -0.071919434 -0.018670673
0.10231612 0.07907312 0.12686335 -0.16783056 0.048511196 0.10183413 -0.07011543 -0.059363324
0.008795536 0.082390636 0.08348628 -0.020049987 0.16602471 0.04103511 -0.042688087 0.058379117
0.14723991 0.02166022 0.028855657 0.062324002 -0.12555282 -0.06514788 0.120983414 -0.09543891
0.0901445 -0.028109262 0.060567908 -0.07762528 -0.03802009 0.12588549 0.024201415 -0.050000414
0.06601513 -0.121490024 0.11019421 0.0731227 -0.071657926 -0.0027268315 -0.04089899 0.02311158
-0.06788329 0.15059544 0.10864188 0.15507919 -0.07664651 -0.10813636 0.025415974 0.09251298
0.048277568 0.05745803 0.14110155 0.12455191 0.082807444 -0.109077506 0.0631961 0.028031664
-0.097813204 0.113045916 -0.061787985 -0.06392536 -0.050041843 0.011134799 0.14598344 -0.071396425
0.13932566 0.07026374 0.034119267 0.115617365 -0.08632104 0.0035042951 -0.09416611 0.033013735
0.18272057 -0.02620268 -0.11357752 0.026191268 -0.028735258 0.031737726 0.022552911 -0.033875804
0.17554885 0.09623827 -0.08240856 -0.05124868 -0.054549377 -0.084345266 0.056794457 -0.10759798
0.023626685 -0.07980013 -0.09295145 0.13880774 0.04698485 0.0058807028 0.0066262353 -0.056330577
-0.12662573 0.0586039 -0.099012494 0.00023552871 0.0067577213 0.05827034 0.14931318 -0.034538064
-0.118100055 0.17585279 0.05454365 0.13701902 0.002715758 0.16165408 -0.08621905 0.12597282
0.031317774 -0.025224222 0.04898632 -0.03371658 -0.039692964 0.13305487 -0.07465577 -0.07684151
-0.139146 -0.0041812253 -0.089896165 0.00078075274 0.026746962 0.0652826 0.0428835 0.028614119
-0.05339698 0.028098907 -0.037638173 -0.0030106837 -0.076156825 -0.073036626 0.08515618 -0.12792936
-0.08851276 -0.06691086 -0.04811854 -0.0660207 -0.039422445 -0.020124527 0.08338921 -0.056723725
0.0033213387 -0.013886899 0.11212129 0.118389726 0.16380176 -0.02689171 -0.038768798 0.021199603
0.16784836 0.0963778 -0.06041995 0.08773737 -0.10634055 0.013756641 0.03499188 0.15641467

actor.2.weight f4 [128, 256]
00000000: 63bf 7e3d 5f85 23bd f5fd 0bbe 8771 3cbe
00000010: 0033 94b9 9564 a2bd c2be 9a3d eba1 0f3d
00000020: f559 273d e225 8cbd 0e18 163d a684 25be
00000030: ed9c 48bd d0a7 283e bef5 b33d bfc1 c33d
00000040: f176 1a3d ff62 52bd 634d 8fbe 77b3 54bd
00000050: 2bc0 4d3d 3250 6a3d 5bd8 ef3b 8fa3 fb3d
00000060: 428f 813d 7468 8dbc 483e fb3c 708c ce3c
00000070: b10a 183d 7117 a43c b6d4 f13d 0969 a3bd
00000080: d0af efbd 92bb 663c 510a 16be e1f2 203e
00000090: 486d cebc c89d c13c 05eb 4bbe f0c3 133e
000000a0: ef17 c93b efbb 26bd dca0 d83d 1035 343d
000000b0: a207 39bd 43a9 fabd 2157 723d 9d9d 96ba
000000c0: ad08 803d 23b5 37be 861b a8bd ca57 aabd
000000d0: 6c10 90bd f051 edbd ab30 f4bd 0aba e5bd
000000e0: db9e 8d3d 7fd2 be3d 18d6 7a3d f36d 343d
000000f0: 2261 a6bd 0893 c43d 320d 9d3d 1b45 babc
00000100: 6b20 2b3d e498 fd3d a3a7 033e e2c1 a3bc
00000110: 71b3 4f3e 21a9 21bd 1538 a8bd fd96 a53c
00000120: ce16 bd3c 576b 6e3d 68c7 60bd 9a6b 263d
00000130: 50ef d9ba 4294 de3d 71b6 2e3d c2c9 6ebc
00000140: c542 81bd c5f8 cb3d 6dec 0bbd f51d b23d
00000150: 56d5 143e 0ae1 8dbd 2775 e73d 526d 6bbe
00000160: b693 663c 23a6 f63c 1b71 04bb 108b 873d
00000170: a4b8 053e 3fd9 9dbe c704 5dbd a2e2 fc3b
00000180: 9b77 5e3d 2fa5 d5be edf1 3a3e 29fe 363d
00000190: 7350 d5bb 5ff0 21be dcda ba3d 7ee2 d7bd
000001a0: 3f27 10bd 6db9 4c3d 0c17 d6bd 1084 c0bd
000001b0: 41c4 a5bd db97 3bbe 6d8e b93d e576 13bd
000001c0: dd9c 9c3d 3a42 ea3c 1f70 163d e754 af3c
000001d0: 5dc7 44be 1a6d 173e a3d9 8fbb 457e 1cbd
000001e0: b4fa a6bb 3e2c 2c3e 9dbb b53d 1fc0 bbba
000001f0: cdd7 823c 3147 b93d dc1a 803d c58d c73b
00000200: aeaa 203c ad5c 2cbd 5157 51bd 60e9 36bc
00000210: abdc 10be d1dc 8fbd e02e 17be fd57 20bd
00000220: 57a3 723d 15d4 7f3d 3853 6e3d 5a4b a9bd
00000230: 180e bfbb 9a21 33bd 01d1 1c3e 7506 113c
00000240: 1357 2ebe 3b96 283e 77ca bebd 00e3 cfbd
00000250: 2f91 0d3d 6553 52bd 0c2d 063e 5599 4fbe
00000260: 3fcc 63bc d81c b63d 4abc debc d17c 01bd
00000270: efde a53d 31c5 3fbd eb32 433c 359d e23d
00000280: 5eaf 8cbd f117 5d3d b3d7 c03d 70dc 95bc
00000290: 07ce 9a3d 5095 35bd 179d 113d dd67 a73c
000002a0: eb39 143d f3c2 2abe 9e97 e43d fca9 3c3d
000002b0: 2e40 9cbe 2951 563a b6c9 36be 51d6 263e
000002c0: 475c d93c 4879 34bd 605d 20be 7127 de3d
000002d0: 6c3f ed3d 1f1e 6bbd bfe4 b63b 277d a2bd
000002e0: 8e09 da3c f2a1 1e3e a84e 1e3c 9f8b 773d
000002f0: 4803 273e 1587 4dbd 4ae6 4d3d 5cea 7fbc
00000300: 9450 9abd b67a d23c 651e d5bd 40b7 4c3c
00000310: cc85 3ebe 5239 89be a61d d5bd 9dcd c6bd
00000320: bc29 02bc 0d4b 97be db3b 3c3d 7630 f9bd
00000330: c840 1d3c 5df9 ebbd e5d4 f9b9 1fa7 2e3d
00000340: d0b8 813c 0b84 b93c 8fa1 19be 425a a9bd
00000350: 027e e13d 449e 13bd d853 d93c dcb4 88bd
00000360: 0cf6 8e3d 23ca 043e af41 f23d ac2d 1f3e
00000370: a1c3 103d e355 d33b 0bf2 a93d fa90 29bd
00000380: 4999 8c3d e0c8 66bd caa2 4cba 5493 c33d
00000390: 137f 473c 9ed8 a33d 363f 7a3d 70c9 8c3d
000003a0: e9aa 27bd 9613 b8bd f495 fb3c 652a b63d
000003b0: a6cb dcbd 0266 e13d c4f4 b6bd 671a e5bd
000003c0: 2bdf cdbd c948 c2bc 4e40 153c 1eda 2abd
000003d0: 5d5d bdbd b7b3 ad3c e155 b63d b6ba 0d3c
000003e0: 1abb d5bd 6d4a 7c3d 3c6a 9ebc d273 5cbd
000003f0: 2cb7 abbd 6a47 0a3e 063f bfbc 18cf 0fbd
0.06219424 -0.039922114 -0.13671096 -0.18402682 -0.00028266758 -0.07929341 0.075559154 0.035066526
0.040857274 -0.06843163 0.036644034 -0.16163883 -0.04897778 0.16470265 0.08787106 0.095584385
0.037711088 -0.05136394 -0.2798873 -0.051928964 0.050232094 0.057205386 0.0073194928 0.12287056
0.063261524 -0.017261721 0.030669346 0.02521345 0.03711957 0.020030709 0.118081495 -0.07979018
-0.117034554 0.014082806 -0.14652373 0.15717651 -0.025198594 0.023634806 -0.19913872 0.14430213
0.0061368863 -0.04070657 0.105775565 0.043995917 -0.045173295 -0.12239315 0.059165124 -0.0011491064
0.06251655 -0.17940192 -0.08208375 -0.08317526 -0.07034382 -0.11587894 -0.11923345 -0.11217125
0.06915065 0.09317493 0.061239332 0.04405017 -0.08123995 0.095983565 0.076685324 -0.02273803
0.041778963 0.12382677 0.12856917 -0.019989911 0.20283295 -0.039467935 -0.08213822 0.020213598
0.023082163 0.058207836 -0.05487767 0.04062996 -0.0016627107 0.10868122 0.04265446 -0.01457447
-0.063115634 0.099595584 -0.03416102 0.0869712 0.14534506 -0.069276884 0.11301642 -0.22990921
0.014073303 0.030108517 -0.0020209018 0.06618321 0.13058716 -0.30829808 -0.053959634 0.0077174464
0.054313283 -0.41727588 0.1825635 0.04467598 -0.0065098344 -0.1581435 0.09123775 -0.10541247
-0.035193678 0.049981523 -0.104536146 -0.09400189 -0.08094073 -0.18319647 0.09060369 -0.03600206
0.07647107 0.028596032 0.03672802 0.02140279 -0.19216676 0.14787713 -0.004389958 -0.038206358
-0.005095804 0.16813752 0.08873675 -0.0014324224 0.015972042 0.09046782 0.06255123 0.0060898983
0.009806318 -0.04208057 -0.051108662 -0.011164039 -0.14146678 -0.07024539 -0.14763975 -0.039146412
0.059237804 0.062458117 0.058184832 -0.08266325 -0.0058305375 -0.043733217 0.15314104 0.008851637
-0.17025404 0.16463558 -0.09315961 -0.10150719 0.034562286 -0.051349062 0.13103122 -0.20273335
-0.0139036765 0.0889222 -0.027189393 -0.031613175 0.08099162 -0.046818916 0.011913995 0.11065141
-0.06869386 0.05397791 0.09416141 -0.01829359 0.07558828 -0.04433185 0.035550203 0.020435268
0.036188047 -0.1667593 0.11161731 0.046060547 -0.30517715 0.0008175546 -0.17850384 0.16292693
0.02653326 -0.044060975 -0.1566062 0.108473666 0.115843624 -0.057401773 0.005581468 -0.07934027
0.026615884 0.15491465 0.009662308 0.060435887 0.16309845 -0.050177652 0.05026845 -0.0156198405
-0.075349 0.025693279 -0.10406188 0.012494862 -0.18605727 -0.26801544 -0.104060456 -0.09707186
-0.007944521 -0.29549447 0.04595552 -0.12167446 0.009597965 -0.11522172 -0.000476516 0.042639848
0.015835196 0.02264597 -0.15003036 -0.082691684 0.11010362 -0.036039606 0.026529238 -0.06675121
0.069805235 0.12967734 0.118289344 0.15544766 0.035342816 0.0064494475 0.08298119 -0.041398026
0.06865174 -0.056343913 -0.000780624 0.09549585 0.012176293 0.08000301 0.06109544 0.06874359
-0.040934477 -0.08988111 0.030711152 0.08894805 -0.1078103 0.110057846 -0.08933404 -0.111866765
-0.100523315 -0.023716347 0.00910957 -0.04171192 -0.09246323 0.021203859 0.08903099 0.008650472
-0.104360774 0.061594415 -0.019337766 -0.053821392 -0.08384547 0.13503805 -0.023345482 -0.03510961

actor.2.bias f4 [128]
00000000: 13ec 603c 8bd6 08bd b509 a4bd 3bb1 1c3d
00000010: dcdf f5bc a109 f7bc f2da 0a3d 55f2 9fbd
00000020: 494b 4e3c 69bd a53c 60b7 733d 4e03 fe3a
00000030: 535d 993c 546d f339 c913 27bc c0a9 983c
00000040: 6ea0 a13c dd75 243d e1de 56bd 8255 8d3c
00000050: 28ef a43d c5c5 0b3d 8567 64bc 1ec7 c33c
00000060: 850b 193d 1011 f1bc 605e 963d 285c e6bb
00000070: 84c7 2b3d 47c0 9b3c a249 503d 7649 0abc
00000080: b237 eabc 8bf0 4d3c daf5 9bb9 1592 203d
00000090: 30b3 6bbd 64f8 0a3c 0126 c4bc 4eaa 33bc
000000a0: 3ffb 1cbc f133 673d 7fff 75bd 6531 a2bc
000000b0: da4e 2b3d 0344 27bc dd63 943d 757f 193d
000000c0: e1ae 3dbd 0a11 8f3d d5c8 753d 931e 9f3b
000000d0: ee79 85bd c0f0 903d e0ea 85bc 4fa7 c73c
000000e0: 6288 643c 7cdd 18bd f36c 01bc 7a48 293d
000000f0: ce4b b13c 492c 443d 41e2 f13c 6be1 c4bc
00000100: f99f 1c3d c498 fcbb 309f a0bc 60a2 a73d
00000110: b5aa 233d 72b2 92bc ee58 283d e813 7cbd
00000120: c4e9 463a 6642 4cbd 1828 b03c 547a 6a3d
00000130: 1f3d 1d3d 7cca 57bc 2b83 6d3c b61e 533c
00000140: c7d7 6b3d 3b6e 473d b175 1f3b a040 d9bb
00000150: afc8 1f3b 24eb 7b3d 1ae8 963c d5ad 1f3d
00000160: 3b3e f93c 0287 cbbc c6d1 90bd fb28 10bd
00000170: bf04 a53d 1c15 15bd 87fd fb3c 68d7 793d
00000180: 7dd1 3e3d e01c 9cbc 5781 133d ddea c0bb
00000190: f611 6c3d 7943 35bd 9296 543d 66c7 b5bc
000001a0: db18 8d3c 0edc 083d 514a 533c 70ec 29bb
000001b0: 4692 053d 58f5 97bc 608b 823d 7c19 69bd
000001c0: d6c6 cb36 d268 4cbd f47f a43c c9f2 28bd
000001d0: d4c9 2f3c e47d aa3d 1af6 35bd f555 f13c
000001e0: c212 0dbd 15fb 5d3c beac 413d 261c fc3c
000001f0: 01f5 3e3d 67ad 9bbb 737c b43d 1040 afbb
0.0137281595 -0.03340773 -0.08009664 0.038254958 -0.030013971 -0.030155959 0.03390021 -0.07809893
0.012591192 0.02023192 0.059501052 0.0019379647 0.018721258 0.00046430028 -0.010197588 0.01863563
0.01972982 0.040151466 -0.052458648 0.017252687 0.08053428 0.034124155 -0.013940697 0.023898657
0.0373645 -0.029427081 0.07342219 -0.007030029 0.04193832 0.019012583 0.05085147 -0.008440366
-0.02859101 0.012569557 -0.00029747077 0.039201815 -0.057543933 0.0084820725 -0.023943903 -0.010965897
-0.009581386 0.05644602 -0.060058113 -0.019798944 0.041823246 -0.010209086 0.0724561 0.037475068
-0.046309356 0.06985672 0.06000598 0.0048559397 -0.06517397 0.070771694 -0.016347349 0.024371771
0.013948532 -0.0373206 -0.007899511 0.041328885 0.021642592 0.047893796 0.029526832 -0.024033269
0.0382385 -0.007708641 -0.019607157 0.081852674 0.03995772 -0.017907355 0.041100435 -0.06154242
0.00075879344 -0.04986801 0.021503493 0.057245567 0.038388368 -0.013170835 0.014496605 0.01288574
0.05757883 0.04868911 0.0024331624 -0.0066300184 0.0024381091 0.061503544 0.018421222 0.03898414
0.030425182 -0.02484465 -0.07071261 -0.035195332 0.08057546 -0.036397085 0.03076054 0.060996443
0.046586502 -0.019056737 0.03601202 -0.005887373 0.057634316 -0.0442538 0.051901408 -0.022189807
0.017223766 0.033412986 0.012896136 -0.0025928281 0.0326102 -0.018549606 0.0637424 -0.05690907
6.073019e-06 -0.049904652 0.020080544 -0.041247163 0.010729272 0.08324793 -0.044424154 0.029459933
-0.034441717 0.013548632 0.04728388 0.030775141 0.046620373 -0.004750896 0.08812799 -0.005348213
