CRL/模型集_selfplay/run_20260123-185640/slime_ppo_8M.pth (torch, 370495 bytes, 11 tensors)

critic.0.weight f4 [256, 48]
-0.20510353 -0.08565414 0.051588774 0.030878574 -0.08636789 0.018454585 -0.0102843465 0.04864375
-0.14854209 -0.44940868 -0.13724293 -0.16162902 -0.23584576 -0.07878827 0.04325121 0.068562664
-0.15338749 -0.027502274 -0.01000379 -0.057828363 0.013379212 -0.43472952 -0.13693064 -0.27793086
-0.002084197 -0.0050313803 0.025620291 0.11233816 0.021701787 -0.018052476 -0.047853373 0.03240776
0.14631869 -0.41534603 -0.09671987 -0.24646339 -0.14443967 0.04611456 0.048625518 -0.053420812
0.11150302 -0.07921991 0.027028471 -0.03013187 0.13055037 -0.29666737 0.21220522 -0.18494944
0.06876503 -0.0068561756 -0.037743803 0.032610103 0.04338017 -0.027674539 -0.038063344 -0.13160369
-0.09810411 0.012820929 -0.07506146 0.030302187 0.069768034 -0.046411134 0.017977811 -0.06932629
0.18733032 -0.04629421 0.002256737 0.07353077 -0.05382764 0.16575216 -0.105763964 0.06029189
0.087460555 0.020170664 -0.055563886 -0.12053958 -0.047944333 -0.054509267 0.0015562022 0.021262836
0.15077166 0.23539776 0.07116226 0.02815631 0.019000404 0.111671396 -0.048259273 0.017156685
-0.075453855 -0.03593753 -0.033758424 -0.04198292 0.028327625 0.3456961 -0.026838453 0.27254698
0.10489577 -0.03680988 -0.08496533 -0.045559227 0.054671124 -0.00611483 -0.048255965 -0.120051004
-0.08731744 -0.22164874 0.13592042 0.14232792 -0.0017022326 -0.06634411 -0.033484776 -0.026281118
-0.07961359 0.027907731 0.028973643 0.0722837 0.17167781 -0.07331012 -0.035818424 -0.14548162
-0.05750975 0.07182699 -0.05366256 -0.011544221 0.07048166 -0.06395378 -0.010346832 -0.045989763
0.03378709 0.08168176 -0.11074179 -0.14787135 0.083541885 -0.19702713 -0.1010635 -0.031233735
-0.050146613 -0.12151836 0.061205644 -0.15545377 0.13293096 0.101102784 -0.1576464 0.006272173
0.12482075 -0.12656021 -0.05333775 -0.03268116 -0.0012509816 0.09135623 -0.121257946 -0.075660415
-0.080020726 -0.11104867 -0.1795624 -0.1239219 -0.016747026 -0.13132857 -0.072356954 -0.08091392
-0.08365962 0.15507688 0.031154184 -0.0062437304 0.12205024 -0.052580673 -0.07747452 0.039813742
-0.07924238 -0.03135893 -0.017029388 -0.14280002 0.0579311 -0.0031098658 0.034208044 0.11016589
-0.06619196 0.11641731 -0.04536129 0.0029504255 0.07861461 0.044989713 -0.06390634 0.097138666
0.04171906 0.09076441 0.10231342 0.09110854 0.17518373 0.30007932 0.09581882 -0.0032345473
0.066588886 0.051662315 0.00048049772 -0.049653985 0.2853012 -0.11857579 -0.011959062 -0.042070743
0.059207056 -0.07915884 0.23332043 -0.0540504 -0.13140306 0.050576217 -0.018456811 0.036309008
0.2789198 -0.12712656 -0.008140811 -0.063982315 0.012855643 0.07527123 0.26484308 0.07833417
-0.12914358 0.08167648 0.0073150946 0.08613118 0.1552347 -0.1315601 -0.015884558 0.024413396
0.15378079 -0.012922613 0.26053002 0.0600943 0.069840215 0.053536944 -0.016529486 0.025472172
0.11574066 0.048247263 0.008469239 -0.011408059 0.030058146 0.032261286 0.34787744 -0.11150338
-0.055670604 -0.048965555 -0.089448676 -0.05630244 0.055080596 -0.13938935 0.001106404 0.050961703
-0.00014790334 0.2867361 0.06900801 -0.12795453 -0.10767946 -0.04202691 -0.09527292 -0.025219005
00000000: a906 52be 706b afbd c04e 533d 10f5 fc3c
00000010: a6e1 b0bd 122e 973c ad7f 28bc ab3e 473d
00000020: 6b1b 18be e518 e6be 6989 0cbe 1482 25be
00000030: 8d81 71be bf5b a1bd 2e28 313d 956a 8c3d
00000040: 9c11 1dbe 734c e1bc f0e6 23bc 6fdd 6cbd
00000050: 7b34 5b3c de94 debe 8c37 0cbe f44c 8ebe
00000060: 0697 08bb 47de a4bb a5e1 d13c 8d11 e63d
00000070: f2c7 b13c c9e2 93bc e601 44bd 00be 043d
00000080: 91d4 153e 3ca8 d4be 1115 c6bd e660 7cbe
00000090: fee7 13be 9fe2 3c3d 8d2b 473d c8cf 5abd
000000a0: b25b e43d 0c3e a2bd d06a dd3c 1dd7 f6bc
000000b0: ffae 053e c9e4 97be 534c 593e 6363 3dbe
000000c0: aed4 8c3d c5a9 e0bb 3f99 1abd 2c92 053d
000000d0: 68af 313d b7b5 e2bc 4fe8 1bbd 1ec3 06be
000000e0: cfea c8bd e00e 523c d3b9 99bd 4b3c f83c
000000f0: 8be2 8e3d 9a19 3ebd 3446 933c f1fa 8dbd
00000100: 85d3 3f3e ff9e 3dbd c4e5 133b 4d97 963d
00000110: 5f7a 5cbd efba 293e c79a d8bd a1f4 763d
00000120: 851e b33d f33c a53c f596 63bd 75dd f6bd
00000130: 4761 44bd 1c45 5fbd 7bf9 cb3a 662f ae3c
00000140: e363 1a3e 1c0c 713e 85bd 913d 10a8 e63c
00000150: bca6 9b3c f9b3 e43d 84ab 45bd 2d8c 8c3c
00000160: 8d87 9abd 3b33 13bd 4646 0abd 48f6 2bbd
00000170: 560f e83c 14ff b03e 51dc dbbc 478b 8b3e
00000180: 98d3 d63d f5c5 16bd 4e02 aebd 509c 3abd
00000190: d4ee 5f3d e95e c8bb 0ca8 45bd 4ddd f5bd
000001a0: 7cd3 b2bd e3f7 62be b92e 0b3e 69be 113e
000001b0: 731d dfba 6cdf 87bd 5527 09bd 804b d7bc
000001c0: 730c a3bd c19e e43c 225a ed3c 7a09 943d
000001d0: 4fcc 2f3e 9e23 96bd 57b6 12bd 22f9 14be
000001e0: 588f 6bbd 071a 933d 46cd 5bbd f923 3dbc
000001f0: b058 903d 33fa 82bd c285 29bc c35f 3cbd
00000200: 5564 0a3d c448 a73d 97cc e2bd 966b 17be
00000210: 0218 ab3d 7bc1 49be 61fa cebd e4dd ffbc
00000220: 8966 4dbd 9ede f8bd c5b2 7a3d 462f 1fbe
00000230: 0e1f 083e fa0e cf3d 0f6e 21be cd86 cd3b
00000240: 05a2 ff3d 0099 01be af78 5abd aedc 05bd
00000250: faf7 a3ba fa18 bb3d 1656 f8bd d9f3 9abd
00000260: e8e1 a3bd 7c6d e3bd 35df 37be c4ca fdbd
00000270: 0f31 89bc ff7a 06be e22f 94bd 33b6 a5bd
00000280: bc55 abbd 79cc 1e3e 0f37 ff3c 3598 ccbb
00000290: 7af5 f93d d55e 57bd f6aa 9ebd bc13 233d
000002a0: d449 a2bd 3972 00bd 3781 8bbc 2b3a 12be
000002b0: 2949 6d3d e4ce 4bbb bc1d 0c3d a79e e13d
000002c0: a68f 87bd 336c ee3d c3cc 39bd ed5b 413b
000002d0: b200 a13d 2247 383d 54e1 82bd a3f0 c63d
000002e0: 9be1 2a3d b1e2 b93d b389 d13d 1d97 ba3d
000002f0: 5d63 333e ffa3 993e a83c c43d b3fa 53bb
00000300: c15f 883d dd9b 533d 50eb fb39 fa61 4bbd
00000310: 0013 923e ddd7 f2bd f1ef 43bc 5f52 2cbd
00000320: 1983 723d 081e a2bd 8deb 6e3e f463 5dbd
00000330: 868e 06be 0229 4f3d bd32 97bc c1b8 143d
00000340: 93ce 8e3e 772d 02be 0961 05bc 2909 83bd
00000350: 7aa0 523c cd27 9a3d 8399 873e aa6d a03d
00000360: 373e 04be 0046 a73d 76b3 ef3b 8b65 b03d
00000370: d8f5 1e3e b1b7 06be 5520 82bc 9afe c73c
00000380: b678 1d3e 5eb9 53bc 3164 853e 7125 763d
00000390: 6308 8f3d 8e49 5b3d d868 87bc 04ab d03c
000003a0: 7009 ed3d ec9e 453d 90c2 0a3c dee8 3abc
000003b0: 803c f63c 6924 043d fe1c b23e e25b e4bd
000003c0: dc06 64bd 1b90 48bd de30 b7bd 639d 66bd
000003d0: 319c 613d 15bc 0ebe c204 913a 38bd 503d
000003e0: 8016 1bb9 13cf 923e 1254 8d3d 8306 03be
000003f0: 0c87 dcbd 6924 2cbd 731e c3bd 1698 cebc

critic.0.bias f4 [256]
0.19535202 0.20959012 -0.03373155 -0.011227673 -0.03878409 -0.16774367 0.04317152 0.023679199
0.06885776 -0.015264878 0.1975573 0.20323321 0.21397187 0.20022936 0.12311995 -0.18598178
-0.12531213 0.26727858 0.05314796 0.11992249 -0.15573978 -0.053006694 -0.104030564 0.07755765
0.093728736 0.1979482 -0.08635138 0.092006505 -0.046734106 -0.09607402 0.19969031 0.019765845
-0.13247739 0.13364986 0.0834691 -0.1130863 0.15260035 0.0729339 0.33596262 -0.13029811
0.16518363 -0.14383364 -0.100243606 0.24707878 0.1684641 0.2237743 0.12914094 -0.122329675
0.013579892 0.17565554 -0.32480982 0.091655545 -0.17632346 -0.16508727 0.33342838 -0.08115069
-0.002825985 -0.20110975 -0.4724442 -0.22450134 -0.09847635 0.016719894 -0.1923462 -0.36240613
-0.002677711 -0.091313876 -0.10980713 -0.13502318 0.18130289 0.1761349 0.08803752 -0.05104661
0.03851808 -0.10014673 -0.099632055 0.14464998 -0.4652122 0.078536496 -0.039195478 -0.08284535
-0.24665044 -0.08986937 -0.003252414 -0.062367532 0.14170481 -0.089794785 -0.12077092 -0.056947146
-0.1027981 0.13823302 0.16191827 -0.038766786 -0.07024945 0.14698987 -0.24584658 -0.19461739
-0.07732635 0.017705405 0.004292178 0.21717481 0.08072195 -0.08663351 0.106593326 -0.014282601
0.11292927 -0.07937287 -0.06599081 0.076540485 -0.17119026 -0.15539117 -0.09082557 -0.25840896
0.014432722 -0.018382339 0.0022286298 0.031490535 0.025045102 -0.13671017 0.08733557 -0.114172615
0.119378075 0.0054232315 0.027608149 -0.093939334 -0.027424935 -0.031821854 -0.0636337 -0.12328386
0.1284886 -0.0017752943 0.009638403 0.20319279 -0.08924199 -0.038798098 0.02050103 0.06591577
-0.0632253 -0.020862382 0.20150736 -0.10549784 -0.024654608 -0.38831222 0.08340906 0.003434685
0.044996683 0.20683794 -0.12799211 0.109728694 0.26785663 -0.10485913 -0.13832016 0.023526207
0.10547874 0.15914772 -0.059089843 -0.061081443 0.06568907 0.072039224 -0.12677576 -0.12973587
0.035597634 0.14662813 0.1859775 -0.15015866 -0.04732644 -0.05247844 -0.20967552 -0.10931466
-0.12097216 0.11453652 0.20732757 0.0014630536 -0.12571475 0.0019220735 0.20577721 0.23566167
0.14657965 0.09719881 0.0020197993 -0.057976644 0.049136065 -0.10028346 -0.095033586 0.14482272
0.1987114 -0.053509567 0.027376559 0.09695685 0.12924704 0.20049146 0.068089046 0.19913253
-0.15230966 0.18532662 -0.03097995 -0.027543949 -0.023673175 -0.1124854 -0.04208372 0.013949096
0.07069972 -0.17304164 -0.077343464 0.034781653 -0.066994995 -0.1455023 -0.12658377 0.05224151
0.22327094 -0.09098022 0.09366507 -0.08810431 -0.093818866 0.033067808 -0.10063725 0.12250243
-0.04875681 0.0023418495 0.049279872 -0.013431031 -0.025780873 -0.12924403 -0.04501335 0.12019013
-0.19209482 0.07688434 -0.16653676 -0.15937747 0.08486941 -0.21581823 0.16355838 0.040510733
-0.25303626 0.048482325 0.028406125 -0.19228421 0.0013480606 0.1528154 0.09517499 0.26737973
-0.07698015 -0.23872449 0.10109209 -0.02167488 -0.14125106 0.14404634 0.09956893 -0.18468046
0.22920135 0.06754856 -0.039919462 -0.09094494 -0.07413397 0.026779523 -0.08528008 0.1883784
00000000: 5c0a 483e cb9e 563e 182a 0abd 46f4 37bc
00000010: 11dc 1ebd ffc4 2bbe 9fd4 303d e1fa c13c
00000020: 4c05 8d3d 8a19 7abc 764c 4a3e 5e1c 503e
00000030: 711b 5b3e ed08 4d3e 5026 fc3d 0272 3ebe
00000040: d351 00be bdd8 883e adb1 593d ec99 f53d
00000050: 407a 1fbe 8c1d 59bd fa0d d5bd 8cd6 9e3d
00000060: daf4 bf3d efb2 4a3e fed8 b0bd e86d bc3d
00000070: 436c 3fbd 75c2 c4bd 9e7b 4c3e fbeb a13c
00000080: 27a8 07be 82db 083e d9f1 aa3d ca99 e7bd
00000090: 4443 1c3e 5e5e 953d 4b03 ac3e de6c 05be
000000a0: e625 293e 2049 13be 854c cdbd 3802 7d3e
000000b0: da81 2c3e 1725 653e 863d 043e fb87 fabd
000000c0: 327e 5e3c 0cdf 333e 794d a6be e7b5 bb3d
000000d0: 238e 34be a30c 29be 20b7 aa3e 5532 a6bd
000000e0: 2934 39bb b7ef 4dbe 35e4 f1be aee3 65be
000000f0: f8ad c9bd 29f8 883c 67f6 44be 4c8d b9be
00000100: 897c 2fbb c502 bbbd 90e2 e0bd 8443 0abe
00000110: 77a7 393e b55c 343e 044d b43d 4016 51bd
00000120: 22c5 1d3d bb19 cdbd e40b ccbd 201f 143e
00000130: 4b30 eebe bed7 a03d 708b 20bd d3aa a9bd
00000140: ef91 7cbe 6f0d b8bd 7426 55bb 1975 7fbd
00000150: 111b 113e 54e6 b7bd be56 f7bd 6941 69bd
00000160: cf87 d2bd f58c 0d3e e7cd 253e ecc9 1ebd
00000170: f2de 8fbd 8384 163e 35bf 7bbe c849 47be
00000180: 475d 9ebd ed0a 913c 66a5 8c3b 1363 5e3e
00000190: 8d51 a53d e96c b1bd 9a4d da3d 9201 6abc
000001a0: 7647 e73d 3e8e a2bd 3126 87bd 42c1 9c3d
000001b0: 804c 2fbe dd1e 1fbe c202 babd 2e4e 84be
000001c0: 3977 6c3c 8f96 96bc 340e 123b 38fc 003d
000001d0: 632b cd3c c0fd 0bbe fedc b23d 55d3 e9bd
000001e0: 7e7c f43d 5db5 b13b 7c2a e23c 4463 c0bd
000001f0: 42aa e0bc a257 02bd 6352 82bd 407c fcbd
00000200: 8492 033e feb0 e8ba 64ea 1d3c c511 503e
00000210: 81c4 b6bd c1ea 1ebd c7f1 a73c d9fe 863d
00000220: 447c 81bd 96e7 aabc f257 4e3e 400f d8bd
00000230: 76f8 c9bc dcd0 c6be 5fd2 aa3d 7418 613b
00000240: 714e 383d 53cd 533e 5d10 03be 70b9 e03d
00000250: 8124 893e 62c0 d6bd cda3 0dbe 08ba c03c
00000260: 3d05 d83d 9ff7 223e 3108 72bd 8930 7abd
00000270: fe87 863d 4d89 933d 81d1 01be 7bd9 04be
00000280: d3ce 113d af25 163e e370 3e3e 31c3 19be
00000290: 5fd9 41bd a2f3 56bd 2eb5 56be 5de0 dfbd
000002a0: 40c0 f7bd 1f92 ea3d ae4d 543e efc3 bf3a
000002b0: 5ebb 00be 16ee fb3a 43b7 523e 4b51 713e
000002c0: fa18 163e 2b10 c73d 9c5e 043b eb78 6dbd
000002d0: e642 493d 6a61 cdbd f8a0 c2bd 684c 143e
000002e0: 007b 4b3e d92c 5bbd ce44 e03c 5091 c63d
000002f0: 5659 043e a24d 4d3e 4572 8b3d 66e9 4b3e
00000300: 10f7 1bbe 43c6 3d3e aac9 fdbc d9a3 e1bc
00000310: 3fee c1bc bf5e e6bd fb5f 2cbd c08a 643c
00000320: 04cb 903d d431 31be 4066 9ebd 3577 0e3d
00000330: ac34 89bd 8efe 14be 2d9f 01be 32fb 553d
00000340: 23a1 643e d653 babd 79d3 bf3d 0870 b4bd
00000350: 1b24 c0bd 1c72 073d e71a cebd 8ee2 fa3d
00000360: 39b5 47bd b779 193b b1d9 493d d40d 5cbc
00000370: 6932 d3bc 8c58 04be eb5f 38bd 3e26 f63d
00000380: 81b4 44be 8975 9d3d 9d88 2abe d933 23be
00000390: 03d0 ad3d 74ff 5cbe d97b 273e 95ee 253d
000003a0: f88d 81be 6795 463d f6b3 e83c 27e6 44be
000003b0: 68b1 b03a a47b 1c3e 1beb c23d ffe5 883e
000003c0: c5a7 9dbd 3174 74be 5f09 cf3d 858f b1bc
000003d0: 1ea4 10be e280 133e ccea cb3d e01c 3dbe
000003e0: c2b3 6a3e e656 8a3d 9782 23bd 5741 babd
000003f0: 8dd3 97bd bb60 db3c 53a7 aebd 44e6 403e

critic.2.weight f4 [128, 256]
-0.055146165 -0.0075563886 0.041204743 -0.061189845 0.022306945 -0.05349851 -0.048666235 -0.1268441
-0.014434485 -0.17696685 0.13456795 0.09368233 0.00955888 0.07627082 -0.012220295 0.058016155
0.0059618135 -0.09483856 -0.060088407 -0.0054565594 -0.017498113 -0.07908575 0.06650852 0.17081785
0.10780227 0.065285906 0.050848946 -0.034849357 0.009910059 0.024515036 -0.027976763 -0.4196672
-0.045454796 0.03996927 -0.09515635 0.12736605 -0.014657784 0.0109313065 0.017975561 -0.067603655
0.002944179 0.028922377 0.0019933023 -0.026382323 -2.2177696 -0.024233961 0.036070276 0.04235205
0.0044845026 -0.13760632 -0.02232769 0.008129535 0.05586074 0.113232136 -0.061649688 -0.3885998
0.060219754 -0.055959318 0.014789189 -1.283393 -0.028684564 0.01544405 0.03810051 -3.9157841
0.0030363884 -0.017397309 0.016642429 0.03304093 0.019297807 -0.035638772 -0.1292643 0.022169244
0.03980206 -0.014566685 0.018463453 0.05513704 0.137236 -0.012084824 0.024210706 -0.015928049
-0.14234127 -0.0028549465 -0.06357659 -0.004103765 0.08828173 0.0044647586 0.0105902925 -0.11410936
-0.06416574 0.05811651 -0.011702406 -0.0041840626 0.04820714 0.044567123 -0.08439761 -0.014713948
-0.11087802 0.0002617853 0.033587568 0.12878935 0.04798959 0.035948012 0.031480357 -0.04184617
0.008214287 -0.03250438 -0.046767738 0.03170519 -0.009092365 0.037339047 0.011216657 0.039050788
0.10658374 0.040887322 0.005920623 0.041054048 -0.06471737 -0.018980954 -0.06314951 -0.047579434
0.033203762 0.01419978 0.051600683 0.23413429 -0.30686086 -0.011517674 0.043347605 0.0092189815
0.01949069 -0.054493356 -0.1184493 0.05597157 0.021777028 0.03414351 0.01766046 0.14659576
-0.011458897 -0.055324167 0.03725306 0.14059202 0.28684777 -0.050635174 0.1299134 -0.008925893
-0.028388944 0.082618676 0.2515175 0.02315574 -0.02497207 -0.12806481 0.03650263 -0.0029552723
0.068853974 -0.0038971177 -3.0203269 -0.029231075 0.011221065 0.052620698 -0.11754821 0.05154729
0.039566964 -0.0480165 -0.026321124 0.007891716 0.063115776 0.0014997306 0.0025178872 0.07931632
-0.040707458 0.065103784 0.0687977 -0.03828113 -0.10814068 0.050860588 0.06475149 -0.025757743
-0.001249019 -0.0664507 -0.0038967317 -0.1709806 -0.08966765 0.06718319 0.11485946 0.023072602
-0.03008025 0.0018204714 -0.014076389 -0.042155795 -0.026003595 -0.03917577 0.09113329 0.044021305
0.016778745 -0.011304949 0.011493917 -0.041293193 -0.055083238 -0.02485314 0.022954008 0.011880718
-0.02393533 -0.040575553 0.012123366 0.06524126 0.043891516 0.069889724 0.038662586 -0.07250465
-0.010998399 -0.014086437 -0.024960278 0.04430336 0.029790433 0.0014032875 0.09379387 0.028203228
-0.03429072 -0.0097457515 -0.45641643 -0.095471725 0.029006189 -0.091054246 -0.085363224 0.055554815
0.01856813 -0.15776283 0.050680723 -0.02006307 -0.021642473 -0.049492996 0.022418974 -0.10501359
0.12843908 0.0061262734 0.0009519566 0.059035793 -0.043980006 0.03332683 -0.03968513 0.062361155
-0.063957155 -0.20467453 -0.033061013 0.03148566 0.08320118 -0.06381177 0.006166298 0.00809941
0.06312137 0.052694153 0.117501244 0.029534372 0.30221224 0.058137607 -0.16926126 0.1014071
00000000: f2e0 61bd 959b f7bb 4ec6 283d 34a2 7abd
00000010: 0ebd b63c 4121 5bbd 3f56 47bd 6be3 01be
00000020: 9e7e 6cbc cc36 35be 2ecc 093e 85dc bf3d
00000030: d99c 1c3c e033 9c3d a237 48bc 59a2 6d3d
00000040: 515b c33b b83a c2bd 431f 76bd f0cc b2bb
00000050: 3458 8fbc b6f7 a1bd 9e35 883d e0ea 2e3e
00000060: 70c7 dc3d 9eb4 853d fc46 503d 33be 0ebd
00000070: cd5d 223c c2d3 c83c 862f e5bc 9fde d6be
00000080: cf2e 3abd d1b6 233d 55e1 c2bd 3f6c 023e
00000090: 3427 70bc 3919 333c 7c41 933c c973 8abd
000000a0: 21f3 403b 9fee ec3c 10a2 023b be1f d8bc
000000b0: f0ef 0dc0 4d86 c6bc 6dbe 133d 5879 2d3d
000000c0: bcf2 923b ace8 0cbe 8fe8 b6bc be31 053c
000000d0: 3bce 643d 40e6 e73d 6284 7cbd 8ef6 c6be
000000e0: fda8 763d 9935 65bd 5b4e 723c 3946 a4bf
000000f0: e4fb eabc 0a09 7d3c 480f 1c3d 359c 7ac0
00000100: 25fe 463b cd84 8ebc b455 883c ed55 073d
00000110: 6f16 9e3c f6f9 11bd dc5d 04be 469c b53c
00000120: 7c07 233d 1ba9 6ebc ab40 973c 60d7 613d
00000130: 9887 0c3e 6dff 45bc 8855 c63c 8a7b 82bc
00000140: e9c1 11be 0e1a 3bbb 7134 82bd e078 86bb
00000150: 0dcd b43d 1c4d 923b e882 2d3c 2bb2 e9bd
00000160: 5469 83bd 940b 6e3d 73bb 3fbc 761a 89bb
00000170: da74 453d 048c 363d a7d8 acbd c512 71bc
00000180: 0414 e3bd 3a40 8939 1e93 093d 5be1 033e
00000190: bb90 443d 393e 133d 8cf1 003d e466 2bbd
000001a0: 3895 063c 5023 05bd 878f 3fbd 4ddd 013d
000001b0: 25f8 14bc d4f0 183d 12c6 373c b8f3 1f3d
000001c0: 9348 da3d 7779 273d c901 c23b 4a28 283d
000001d0: 8a8a 84bd f27d 9bbc 8854 81bd a7e2 42bd
000001e0: ab00 083d 32a6 683c 3d5b 533d e6c0 6f3e
000001f0: de1c 9dbe a0b4 3cbc 428d 313d 360b 173c
00000200: f1aa 9f3c 6d34 5fbd 8c95 f2bd 7242 653d
00000210: bd65 b23c 11da 0b3d abac 903c 331d 163e
00000220: 19be 3bbc 989b 62bd aa96 183d 5bf7 0f3e
00000230: b6dd 923e d466 4fbd 0508 053e e93d 12bc
00000240: ee8f e8bc fb33 a93d e7c6 803e 1bb1 bd3c
00000250: 3a92 ccbc 6c23 03be c883 153d 3ead 41bb
00000260: 5003 8d3d c966 7fbb 094d 41c0 0276 efbc
00000270: 8fd8 373c cd88 573d 1ebd f0bd 4023 533d
00000280: f810 223d f3ac 44bd 669f d7bc 424c 013c
00000290: d842 813d 9c92 c43a 2303 253b 9870 a23d
000002a0: ddbc 26bd 2255 853d cfe5 8c3d adcc 1cbd
000002b0: dc78 ddbd 3153 503d 6e9c 843d e701 d3bc
000002c0: 20b6 a3ba 4e17 88bd 4f60 7fbb 8a15 2fbe
000002d0: aca3 b7bd 5797 893d 703b eb3d c102 bd3c
000002e0: db6a f6bc e29c ee3a a8a0 66bc 8eab 2cbd
000002f0: 7e05 d5bc c676 20bd 17a4 ba3d af4f 343d
00000300: 9473 893c 6538 39bc fb50 3c3c 0d23 29bd
00000310: f69e 61bd d098 cbbc 0b0a bc3c 58a7 423c
00000320: 0614 c4bc 8d32 26bd 15a1 463c 369d 853d
00000330: 97c7 333d 5822 8f3d a95c 1e3d 517d 94bd
00000340: a132 34bc cdca 66bc 7f79 ccbc 7177 353d
00000350: 110b f43c 84ee b73a 0017 c03d 750a e73c
00000360: 6d74 0cbd a5ac 1fbc 6aaf e9be ae86 c3bd
00000370: 639e ed3c a67a babd ead2 aebd 728d 633d
00000380: 311c 983c 948c 21be 9796 4f3d 4f5b a4bc
00000390: 8e4b b1bc 2bb9 4abd ffa7 b73c 5d11 d7bd
000003a0: 8985 033e e8be c83b ba8c 793a 84cf 713d
000003b0: 6124 34bd b781 083d e08c 22bd 696e 7f3d
000003c0: f8fb 82bd 3396 51be fc6a 07bd 1bf7 003d
000003d0: 6165 aa3d bfaf 82bd a80e ca3b 63b3 043c
000003e0: c745 813d d3d5 573d 7ea4 f03d 11f2 f13c
000003f0: 90bb 9a3e b321 6e3d d352 2dbe 87ae cf3d

critic.2.bias f4 [128]
0.06531475 -0.02352032 -0.008927675 0.012092602 0.03869846 0.08659583 -0.029565955 -0.00864983
-0.0810894 0.021298395 -0.028248796 0.03828394 0.03351366 0.025849473 0.062849976 0.05175905
0.031290185 0.034018207 0.055182453 -0.01075734 0.06131833 -0.011317425 -0.016107682 0.040518407
0.023824193 -0.0054037874 0.008242616 0.03739856 0.05367285 0.034050945 -0.03069589 -0.11024372
-0.030391479 -0.048387174 0.06573271 0.034181464 0.10860119 0.11288201 0.071000054 0.043705788
-0.03684328 -0.020613851 -0.070540816 -0.014098167 -0.016552217 0.010702599 0.008634166 -0.10091413
0.05289754 0.049574386 0.017854447 -0.0912708 0.08841076 0.0037797105 0.005719493 -0.04786343
0.03738232 -0.01616048 0.023979636 -0.041436993 -0.0039508636 -0.060562883 -0.1047902 -0.08737368
-0.03214066 -0.01382428 0.040701002 -0.07837676 -0.03901875 0.004101628 0.0122383805 0.027349615
0.021980012 0.113077454 0.107131466 -0.013852417 0.009378127 -0.102881074 0.05961963 -0.07273113
0.009483418 -0.06802513 -0.010394976 0.06014536 0.023029592 0.12022133 0.040351573 0.0047968556
0.029008456 -0.012972555 -0.024324263 -0.016218053 0.10042352 0.044566225 -0.015861819 -0.040621955
0.090103045 -0.00147279 0.06204013 0.013218239 0.047285493 0.020006223 -0.049250774 -0.024062298
-0.0071710837 0.00888027 -0.06449673 0.046061832 -0.013689492 0.03197028 0.03727387 0.058689862
0.022898298 0.021645809 0.11264179 -0.061000336 -0.044116713 0.098845266 0.012540799 -0.039571702
-0.008143057 -0.021574749 0.028719643 0.026575308 -0.027256012 0.04576258 0.07158273 0.15162134
00000000: bdc3 853d b0ad c0bc 6245 12bc 0d20 463c
00000010: 4782 1e3d 2859 b13d 4d34 f2bc 04b8 0dbc
00000020: 3312 a6bd f979 ae3c 056a e7bc 9fcf 1c3d
00000030: 9f45 093d 46c2 d33c 7db7 803d 4c01 543d
00000040: 232a 003d ad56 0b3d ff06 623d 8e3f 30bc
00000050: ee28 7b3d b96c 39bc 42f4 83bc a1f6 253d
00000060: f42a c33c 4112 b1bb 0a0c 073c 3c2f 193d
00000070: 10d8 5b3d 0179 0b3d f275 fbbc 76c7 e1bd
00000080: 8df7 f8bc a131 46bd df9e 863d dd01 0c3d
00000090: 4d6a de3d af2e e73d 7a68 913d d704 333d
000000a0: fbe8 16bd 61de a8bc b477 90bd 00fc 66bc
000000b0: 8498 87bc f459 2f3c 5176 0d3c 11ac cebd
000000c0: 17ab 583d 830e 4b3d 7d43 923c 2fec babd
000000d0: b310 b53d 05b5 773b 966a bb3b 720c 44bd
000000e0: 341e 193d fc62 84bc f170 c43c d6b9 29bd
000000f0: 3f76 81bb c910 78bd 3f9c d6bd f9f0 b2bd
00000100: eda5 03bd 3c7f 62bc 18b6 263d ff83 a0bd
00000110: 20d2 1fbd f366 863b 7d83 483c 4d0c e03c
00000120: 6d0f b43c 2795 e73d be67 db3d 3ff5 62bc
00000130: b7a6 193c 50b3 d2bd b733 743d 0ff4 94bd
00000140: 5760 1b3c c250 8bbd b04f 2abc fb5a 763d
00000150: 8ea8 bc3c 9a36 f63d b147 253d f12e 9d3b
00000160: 24a3 ed3c d78a 54bc ad43 c7bc b9db 84bc
00000170: d9aa cd3d 138b 363d a5f0 81bc 3563 26bd
00000180: f287 b83d a20a c1ba cb1d 7e3d 5091 583c
00000190: 6fae 413d 17e4 a33c 2ebb 49bd 4c1e c5bc
000001a0: 69fb eabb 8d7e 113c dd16 84bd 55ab 3c3d
000001b0: e449 60bc 45f3 023d 7cac 183d c864 703d
000001c0: 3695 bb3c 8d52 b13c bdb0 e63d 7ddb 79bd
000001d0: bab3 34bd 636f ca3d ec77 4d3c f015 22bd
000001e0: 756a 05bc 87bd b0bc 7545 eb3c 76b4 d93c
000001f0: 0048 dfbc 8b71 3b3d f799 923d a042 1b3e

critic.4.weight f4 [1, 128]
0.35109606 -0.19137132 0.17355151 -0.15641397 0.015035066 -0.16991854 -0.08218258 -0.35528412
0.30029285 -0.13807929 -0.8006015 -0.58038086 -0.11382627 0.15878576 0.65485746 -0.6306807
0.5440006 0.08305584 0.37186214 0.14035212 0.63448703 0.18593049 0.38145152 -0.36391395
0.31538406 0.26636058 0.23395011 -0.30211493 -0.0906996 0.21368188 0.58402723 0.31309804
0.154963 -0.459323 0.80939144 0.26902398 0.14940666 -0.37350088 -0.15008888 0.88626343
0.27262297 0.7131295 0.19935778 0.47725707 0.1367969 0.31780845 -0.24639556 0.63194346
0.9320812 -0.24730502 0.9875467 0.83863133 -0.45478016 0.16027696 0.50676936 -0.5906431
0.53797007 0.53405803 0.4691695 0.7773296 -0.18600874 0.007942301 1.1029869 0.7843424
0.18652445 0.27735427 -0.28076664 0.7016424 0.45872027 0.46748388 0.47156832 -0.054287117
0.2260647 0.5947431 0.69230425 1.0782362 0.5545854 -0.40722927 -0.43663123 0.38792622
-0.06935397 0.024824029 0.8466962 -0.22460477 0.45568392 0.5478831 1.1977813 0.44991735
-0.037519645 -0.17525706 0.059099797 -0.111229494 -0.7400937 -0.4618766 -0.24517687 -0.95831764
-0.42080706 -0.11261076 0.59330857 -0.69698167 1.0782114 -0.03914052 -0.17401089 0.18717968
0.23254769 -0.2910065 0.16809085 -0.45706615 0.26354906 0.3070125 0.5546232 0.34872922
-0.19356562 0.022467574 1.4416444 -0.835421 -0.5283984 0.45091623 -0.6454131 1.51559
0.55378044 0.036112946 -0.20274754 -0.9782332 -0.019192047 1.1849412 -0.15383412 -0.3564323
00000000: ddc2 b33e d8f6 43be 7db7 313e fc2a 20be
00000010: a355 763c 20ff 2dbe 574f a8bd cde7 b5be
00000020: fcbf 993e a864 0dbe 38f4 4cbf d793 14bf
00000030: bf1d e9bd bc98 223e bda4 273f 4a74 21bf
00000040: a043 0b3f 2e19 aa3d b764 be3e 77b8 0f3e
00000050: be6d 223f 9064 3e3e 9d4d c33e ee52 babe
00000060: 057a a13e 6a60 883e 9e90 6f3e cfae 9abe
00000070: b6c0 b9bd 6ccf 5a3e cf82 153f 634e a03e
00000080: 9fae 1e3e 622c ebbe 4734 4f3f 83bd 893e
00000090: 0ffe 183e 823b bfbe e6b0 19be 29e2 623f
000000a0: 3d95 8b3e a88f 363f 7224 4c3e 0a5b f43e
000000b0: 7d14 0c3e cab7 a23e 1e4f 7cbe 0cc7 213f
000000c0: e09c 6e3f 873d 7dbe dccf 7c3f 8bb0 563f
000000d0: f2d8 e8be a51f 243e a3bb 013f 6334 17bf
000000e0: 68b8 093f 07b8 083f fc36 f03e 13ff 463f
000000f0: 1379 3ebe 6d20 023c ad2e 8d3f aaca 483f
00000100: 4400 3f3e 6101 8e3e a5c0 8fbe d69e 333f
00000110: 62dd ea3e 0c5a ef3e 6771 f13e 2b5c 5ebd
00000120: 817d 673e 1541 183f da3a 313f a503 8a3f
00000130: 4ff9 0d3f 5b80 d0be 218e dfbe 449e c63e
00000140: 7409 8ebd c35b cb3c 15c1 583f cbfe 65be
00000150: 674f e93e 1142 0c3f e650 993f 915b e63e
00000160: 33ae 19bd 9676 33be a112 723d 4acc e3bd
00000170: c876 3dbf 177b ecbe a50f 7bbe 4e54 75bf
00000180: 0674 d7be 78a0 e6bd 12e3 173f 646d 32bf
00000190: d502 8a3f cf51 20bd e92f 32be 08ac 3f3e
000001a0: fb20 6e3e cefe 94be 0220 2c3e 9304 eabe
000001b0: e7ef 863e be30 9d3e c9fb 0d3f a38c b23e
000001c0: 1136 46be eb0d b83c ce87 b83f 27de 55bf
000001d0: 1e45 07bf 7ede e63e cb39 25bf dafe c13f
000001e0: 8ec4 0d3f 2beb 133d 0d9d 4fbe 7e6d 7abf
000001f0: a438 9dbc 27ac 973f b186 1dbe 4b7e b6be

actor.0.weight f4 [256, 48]
-0.0041925088 0.09233799 -0.12210011 0.08660879 0.046561994 -0.12508649 0.060625263 -0.00283139
-0.10032603 0.22776406 -0.06568291 0.0518635 0.058075294 0.1557249 -0.15263751 -0.045717448
-0.057512727 -0.08439956 0.06539737 -0.07137988 -0.16642454 0.017662022 0.12509003 0.007010529
0.036720235 0.00052153144 -0.027613537 -0.055410728 0.0056575313 -0.0480802 -0.032364257 -0.14738487
-0.062560916 0.12780477 -0.11024617 0.050201252 0.08170323 0.06530745 -0.115795955 -0.1273092
0.10453653 -0.14652781 0.06564114 -0.13582224 -0.25282934 0.109618925 -0.14431098 0.20808484
0.090021156 0.24622208 0.12984484 -0.15217532 0.056930214 0.090863265 -0.03458994 -0.028058333
-0.01933859 -0.05494636 -0.044206586 -0.017419277 0.0356904 0.2549042 0.14845702 0.014843791
-0.11564981 -0.14245641 -0.07116672 0.047712933 0.058966402 -0.053904705 -0.1491082 0.08973632
0.14638528 0.21182473 0.32557493 0.0053341812 -0.032833047 -0.061139107 0.03895911 0.03651048
-0.029696845 0.063640155 -0.17508872 -0.00026276917 0.26078683 0.19836979 0.06656683 -0.19881338
-0.1579792 0.018547017 0.0054927478 0.003500411 -0.07440969 0.13775179 -0.075957984 0.15019345
-0.1566219 0.003376621 -0.13289265 0.03211873 0.17710714 0.15126269 -0.06687737 0.09896205
0.09208472 -0.10083043 0.045196965 -0.0657787 -0.21238519 -0.06704139 -0.09530456 -0.18975264
0.13518764 0.12645496 0.10266978 -0.042066824 0.1150447 -0.05110372 0.13581657 -0.014103998
-0.05295074 -0.1129861 0.041955937 -0.0830922 0.13970003 0.03781869 -0.009492837 -0.07364349
0.21427771 -0.27651277 -0.071967356 -0.17763673 -0.07906841 0.053502142 -0.08987 0.073807985
0.04553967 0.005346207 0.068218485 -0.05371812 0.073442586 -0.18399659 0.09391766 -0.17035271
-0.22372769 -0.054425467 0.14242809 0.024668895 0.07125109 -0.082561314 -0.024403252 -0.062747605
0.1466482 -0.1036385 -0.121089004 0.091682225 -0.20531182 0.052868035 0.025956647 -0.1655726
-0.014129144 0.14277516 0.04369487 -0.1225718 -0.054907136 -0.10020641 0.055037223 0.23086923
-0.13758424 0.0003294829 0.10594989 0.056482628 -0.07445887 0.08847125 -0.039893545 0.06215079
0.14085595 0.047261637 0.14402667 0.15951718 -0.11359347 0.09503601 -0.11089091 -0.007398559
-0.053430427 0.003052739 0.07111177 0.061743714 0.15464313 0.06715809 0.099855565 0.3015306
0.058253907 -0.09704737 0.08846929 0.11747038 -0.12490839 0.07511386 0.03181341 -0.055467065
0.0564443 -0.11107016 -0.016995635 -0.025688231 0.11209703 -0.14696172 -0.011133529 0.13657027
0.075318515 -0.09403282 0.02378852 0.0735474 -0.020092405 -0.07296332 0.011107785 0.029011603
-0.053359628 0.014646312 -0.04139268 -0.012453186 -0.1466265 -0.14562583 0.019908505 0.037173755
-0.083850056 -0.1518487 0.028109808 -0.014954652 -0.0062167495 0.11852346 0.12855239 0.06327143
-0.019357955 0.031275157 0.04108746 -0.1306974 0.097476475 -0.013616474 0.09278626 0.106321715
0.030371547 0.095306955 0.13659264 0.023382613 0.04378679 -0.04251386 -0.0062240725 -0.13169743
0.07520725 -0.05887842 0.0954691 0.017903237 0.057453603 -0.019961668 -0.0071020103 -0.14423722
00000000: 5061 89bb b31b bd3d 9f0f fabd f35f b13d
00000010: cab7 3e3d ac16 00be 3252 783d d78e 39bb
00000020: bc77 cdbd fb3a 693e c384 86bd d26e 543d
00000030: 5ce0 6d3d 5976 1f3e 024d 1cbe 3842 3bbd
00000040: 7792 6bbd add9 acbd 0eef 853d 9d2f 92bd
00000050: 326b 2abe f2af 903c 9a17 003e 94b8 e53b
00000060: f567 163d 62b7 083a c935 e2bc 5cf6 62bd
00000070: d062 b93b beef 44bd 6290 04bd 0fec 16be
00000080: f01f 80bd 41df 023e bec8 e1bd d49f 4d3d
00000090: 0654 a73d eabf 853d 6e26 edbd 585d 02be
000000a0: 4017 d63d 630b 16be dd6e 863d fc14 0bbe
000000b0: d972 81be e37f e03d 42c6 13be 3114 553e
000000c0: 035d b83d a421 7c3e 0cf6 043e d9d3 1bbe
000000d0: a82f 693d 8516 ba3d 2eae 0dbd 97da e5bc
000000e0: f66b 9ebc 6f0f 61bd f711 35bd dfb2 8ebc
000000f0: 1930 123d ce82 823e 1e05 183e 5f33 733c
00000100: cfd9 ecbd 18e0 11be dbbf 91bd a36e 433d
00000110: c186 713d 2ecb 5cbd d2af 18be adc7 b73d
00000120: 06e6 153e 95e8 583e c2b1 a63e 5bca ae3b
00000130: f27b 06bd 006d 7abd 9693 1f3d 038c 153d
00000140: cc46 f3bc c555 823d 754a 33be 48c4 89b9
00000150: da85 853e 7321 4b3e 3154 883d bc95 4bbe
00000160: 4dc5 21be eaef 973c 82fc b33b 2767 653b
00000170: 1c64 98bd ce0e 0d3e dc8f 9bbd 50cc 193e
00000180: 7e61 20be 4d4a 5d3b 0315 08be ee8e 033d
00000190: 935b 353e 9be4 1a3e 01f7 88bd 9eac ca3d
000001a0: ea96 bc3d 2f80 cebd 7420 393d fcb6 86bd
000001b0: 817b 59be ff4c 89bd 0a2f c3bd 844e 42be
000001c0: a16e 0a3e 697d 013e 8944 d23d 434e 2cbd
000001d0: 8e9c eb3d 2252 51bd 8013 0b3e 7514 67bc
000001e0: e0e2 58bd 4265 e7bd fdd9 2b3d 3e2c aabd
000001f0: 860d 0f3e c5e7 1a3d d887 1bbc 66d2 96bd
00000200: 9e6b 5b3e 1593 8dbe 9f63 93bd 67e6 35be
00000210: 9eee a1bd 1025 5b3d c30d b8bd a428 973d
00000220: ce87 3a3d 3c2f af3b 22b6 8b3d 8807 5cbd
00000230: 1169 963d 9a69 3cbe e757 c03d f170 2ebe
00000240: df18 65be 3ded 5ebd abd8 113e 6c16 ca3c
00000250: 17ec 913d e815 a9bd 54e9 c7bc d181 80bd
00000260: f22a 163e 6c40 d4bd 83fd f7bd e4c3 bb3d
00000270: 433d 52be 278c 583d 09a3 d43c dd8b 29be
00000280: ed7d 67bc a733 123e 64f9 323d ed06 fbbd
00000290: 4ee6 60bd 0539 cdbd b66e 613d fc68 6c3e
000002a0: e2e2 0cbe 72be ac39 42fc d83d 545a 673d
000002b0: e47d 98bd 6a30 b53d 6a67 23bd d491 7e3d
000002c0: 8b3c 103e 6b95 413d ba7b 133e 7958 233e
000002d0: b1a3 e8bd 3da2 c23d c61a e3bd 9c6f f2bb
000002e0: ddd9 5abd 7610 483b 0ca3 913d fae6 7c3d
000002f0: c55a 1e3e 2e8a 893d 1381 cc3d 3862 9a3e
00000300: a69b 6e3d c6c0 c6bd 632f b53d 5094 f03d
00000310: f8cf ffbd 4cd5 993d c74e 023d 6f31 63bd
00000320: 2332 673d c178 e3bd 6e3a 8bbc 2070 d2bc
00000330: 2193 e53d 227d 16be 6869 36bc 14d9 0b3e
00000340: 9840 9a3d 4794 c0bd 24e0 c23c 05a0 963d
00000350: d498 a4bc cb6d 95bd 6dfd 353c bea9 ed3c
00000360: a08f 5abd 16f7 6f3c 5f8b 29bd 7308 4cbc
00000370: 4225 16be f01e 15be 2917 a33c 8243 183d
00000380: 94b9 abbd 3a7e 1bbe 8a46 e63c 5b04 75bc
00000390: e0b5 cbbb 6ebc f23d 3da3 033e 7494 813d
000003a0: 9394 9ebc 611a 003d 534b 283d 8ad5 05be
000003b0: bfa1 c73d a217 5fbc b906 be3d 33bf d93d
000003c0: c0cd f83c 4b30 c33d f1de 0b3e e58c bf3c
000003d0: c759 333d 0323 2ebd 4ef3 cbbb b1db 06be
000003e0: 4206 9a3d 802a 71bd 4e85 c33d cfa9 923c
000003f0: 7854 6b3d a786 a3bc fbb7 e8bb ecb2 13be

actor.0.bias f4 [256]
-0.09395361 0.16485846 -0.1158744 -0.047880214 -0.09696496 -0.043960463 0.045854006 0.10471258
-0.095357776 -0.082485266 0.121386915 0.0625359 0.14255181 0.111925915 -0.06053081 -0.04829151
-0.19125427 0.0033100399 0.01065441 -0.0849673 -0.12934715 -0.11943276 -0.059258863 -0.15334484
-0.14772408 0.056987174 -0.055300258 0.091359556 0.06188912 -0.1965281 0.021064127 0.05507821
-0.06437686 -0.0034591416 -0.053141456 0.071619734 -0.1343071 0.002894688 0.052116547 0.050651688
-0.10223494 -0.015314217 -0.031969804 0.004281379 0.058805823 0.15999664 0.07933104 -0.09330393
0.09646614 0.0985582 0.081711695 -0.013245183 -0.07212023 0.17119226 -0.08188237 -0.11442504
-0.16733535 -0.04526105 0.10943134 -0.11736728 0.13857664 -0.0063532377 -0.013784264 -0.025998823
0.14278337 -0.1936451 0.14483042 -0.12466826 0.046666995 -0.040409338 -0.10476826 -0.043571923
-0.0040826355 -0.0295216 -0.031497948 -0.053559467 0.13016622 0.10093753 0.14315474 0.050934847
0.0578825 0.03142446 0.08321174 -0.0049473234 0.08046313 0.06915737 0.07802777 -0.09632008
-0.118950434 -0.053618655 0.060942847 0.017051423 -0.03236584 0.06528973 -0.04478118 -0.021000002
0.07965084 0.09328383 0.10199452 -0.16678542 0.053359218 0.13140021 -0.072006166 -0.08221342
0.028696544 0.0820613 0.06785936 -0.035489682 0.21134435 0.04217489 -0.05850128 0.050392743
0.13411109 0.031877436 -0.020212427 0.055397425 -0.06426194 -0.073694065 0.12610333 -0.1325876
0.066534124 -0.03648267 0.043455224 -0.051463965 -0.00020541366 0.13419077 0.005017222 -0.08722159
0.053437784 -0.15438741 0.10686821 0.10023676 -0.065797575 0.00421028 -0.010682529 0.02436759
-0.0571689 0.17947695 0.06732759 0.15382318 -0.07488405 -0.07934155 0.03572411 0.056498505
0.03373496 0.05888047 0.15163468 0.1630691 0.040894262 -0.07277011 0.07388549 0.062974
-0.13269016 0.08673027 -0.054723322 -0.068838306 -0.048949096 -0.021339675 0.19837405 -0.07276051
0.17677905 0.019371254 0.013112681 0.1514937 -0.104190305 -0.00056808745 -0.11832139 -0.0155519275
0.17967366 -0.031840425 -0.14679986 -0.010223081 -0.011107195 0.056494016 0.040248472 -0.043818783
0.19256116 0.08862982 -0.09086767 -0.060677644 -0.08530075 -0.072793685 0.033321872 -0.09984888
0.018107302 -0.05540039 -0.110896215 0.13663363 0.05810023 -0.0047397804 0.013631507 -0.08771486
-0.12690262 0.03524079 -0.12136334 0.0051401197 0.0133924065 0.06915858 0.13982831 -0.0029623362
-0.14974175 0.23589355 0.06044986 0.17445707 -0.008905448 0.19820283 -0.15604015 0.1369227
0.027763389 -0.037644733 0.07040228 -0.02453498 -0.108029716 0.16092326 -0.089973584 -0.05655317
-0.12201687 -0.027954072 -0.11036453 0.002222887 -0.0013287539 0.08151732 0.04169164 0.026340717
-0.05164199 0.066219546 -0.05259328 -0.022617921 -0.09628163 -0.0673075 0.064549394 -0.15793784
-0.09272273 -0.07792405 -0.04722899 -0.07962656 -0.014569063 -0.06016518 0.118891165 -0.037702918
-0.016011562 0.03023129 0.12374398 0.09612261 0.1363905 0.005007473 -0.022465294 0.04953656
0.21357587 0.10264802 -0.06715849 0.101495184 -0.10077687 -0.019338878 0.052690335 0.16218136
00000000: c06a c0bd a8d0 283e 8f4f edbd 0b1e 44bd
00000010: 9195 c6bd e30f 34bd 69d1 3b3d 8d73 d63d
00000020: f04a c3bd 09ee a8bd b499 f83d d212 803d
00000030: 1af9 113e 6a39 e53d 28ef 77bd 52cd 45bd
00000040: 29d8 43be 41ed 583b d68f 2e3c 5603 aebd
00000050: 9473 04be 2a99 f4bd 6cb9 72bd 6e06 1dbe
00000060: fb44 17be 626b 693d 8682 62bd b81a bb3d
00000070: 727f 7d3d aa3e 49be ad8e ac3c b099 613d
00000080: 04d8 83bd c4b2 62bb dbaa 59bd 5ead 923d
00000090: cd87 09be ceb4 3d3b 2978 553d 2578 4f3d
000000a0: 8d60 d1bd 7be8 7abc c5f2 02bd cf4a 8c3b
000000b0: 60de 703d 29d6 233e 5078 a23d 2116 bfbd
000000c0: 0a90 c53d e2d8 c93d 7658 a73d 5302 59bc
000000d0: c5b3 93bd 064d 2f3e f2b1 a7bd ad57 eabd
000000e0: f559 2bbe a763 39bd 8a1d e03d 425e f0bd
000000f0: 09e7 0d3e d22e d0bb 65d7 61bc 7cfb d4bc
00000100: ce35 123e e74a 46be 6d4e 143e 1352 ffbd
00000110: e425 3f3d 4384 25bd be90 d6bd 7978 32bd
00000120: a1c7 85bb 48d7 f1bc fe03 01bd 2c61 5bbd
00000130: 4b4a 053e 56b8 ce3d 2897 123e 0fa1 503d
00000140: 3316 6d3d efb6 003d eb6a aa3d 281d a2bb
00000150: dac9 a43d 61a2 8d3d 06cd 9f3d 7643 c5bd
00000160: 499c f3bd 3c9f 5bbd 359f 793d 6daf 8b3c
00000170: 0b92 04bd 9fb6 853d 786c 37bd 3208 acbc
00000180: fb1f a33d 980b bf3d 81e2 d03d ccc9 2abe
00000190: 328f 5a3d c78d 063e f877 93bd 825f a8bd
000001a0: 0415 eb3c c10f a83d d9f9 8a3d a15d 11bd
000001b0: a76a 583e 94bf 2c3d 0a9f 6fbd 9f68 4e3d
000001c0: 6b54 093e ea91 023d 8894 a5bc 69e8 623d
000001d0: c49b 83bd eaec 96bd 3b21 013e 0bc5 07be
000001e0: 0b43 883d da6e 15bd 1bfe 313d e1cb 52bd
000001f0: 4f64 57b9 4e69 093e 8267 a43b 3ca1 b2bd
00000200: 94e1 5a3d bc17 1ebe b8dd da3d ee48 cd3d
00000210: e1c0 86bd 63f6 893b c605 2fbc 8a9e c73c
00000220: f029 6abd cec8 373e 0ce3 893d d383 1d3e
00000230: cf5c 99bd d37d a2bd 7253 123d fa6a 673d
00000240: ab2d 0a3d a62c 713d 1f46 1b3e 96fb 263e
00000250: be80 273d 7f08 95bd 4751 973d 83f8 803d
00000260: eedf 07be a49f b13d 9025 60bd 19fb 8cbd
00000270: d97e 48bd 8bd0 aebc 9122 4b3e 7603 95bd
00000280: 9105 353e 77b0 9e3c 92d6 563c 2a21 1b3e
00000290: ba61 d5bd b4eb 14ba 7c52 f2bd 83cd 7ebc
000002a0: 5ffc 373e 1b6b 02bd b452 16be b67e 27bc
000002b0: f4fa 35bc 4566 673d 95db 243d 537b 33bd
000002c0: c12e 453e 8d83 b53d d418 babd 1f89 78bd
000002d0: 29b2 aebd db14 95bd 847c 083d 927d ccbd
000002e0: c455 943c 85eb 62bd 8e1d e3bd b0e9 0b3e
000002f0: 82fa 6d3d 2950 9bbb af56 5f3c d9a3 b3bd
00000300: c3f2 01be a658 103d 588d f8bd 736e a83b
00000310: d36b 5b3c 03a3 8d3d 272f 0f3e c123 42bb
00000320: e755 19be 148e 713e 469a 773d e0a4 323e
00000330: 28e8 11bc aff5 4a3e fdc8 1fbe 7735 0c3e
00000340: 0c70 e33c 5d31 1abd 122f 903d 95fd c8bc
00000350: af3e ddbd 11c9 243e 1244 b8bd 4ca4 67bd
00000360: fbe3 f9bd f0ff e4bc cc06 e2bd dbad 113b
00000370: 9529 aeba 8df2 a63d dac4 2a3d 7dc8 d73c
00000380: 8d86 53bd 1d9e 873d 0d6c 57bd 3849 b9bc
00000390: 4e2f c5bd 84d8 89bd 7932 843d 75ba 21be
000003a0: 6ae5 bdbd a596 9fbd 2f73 41bd 4013 a3bd
000003b0: 14b3 6ebc c46f 76bd 367d f33d 606e 1abd
000003c0: ae2a 83bc 9ca7 f73c 7c6d fd3d eedb c43d
000003d0: f4a9 0b3e ba15 a43b 2309 b8bc d9e6 4a3d
000003e0: a2b3 5a3e 2039 d23d 648a 89bd b5dc cf3d
000003f0: 1b64 cebd 916c 9ebc d2d1 573d df12 263e

actor.2.weight f4 [128, 256]
0.023718394 -0.09583994 -0.08945455 -0.20100303 -0.00028266758 -0.09344011 0.12984511 0.13049251
0.09681151 0.002501073 0.022226898 -0.13140696 -0.015474821 0.19128051 0.07770906 0.09711816
0.07878703 5.794821e-05 -0.38200396 0.009973404 0.032106202 0.14831726 0.008057697 0.14572169
0.07261468 0.061337892 0.08140194 -0.0435143 -0.01943978 0.04268228 -0.011585585 -0.12808466
-0.19568907 -0.056614794 -0.15059449 0.1623034 -0.051956516 0.028339082 -0.21305966 0.2507893
-0.015469749 -0.10362535 0.1216226 0.049869087 -0.0038999254 -0.2701542 0.12909327 -0.05820306
0.06110307 -0.12556733 -0.132147 -0.124152884 -0.076950535 -0.14720955 -0.13543513 -0.105238214
0.100792 0.09798629 0.059226293 -0.07972737 -0.14118037 0.11932079 0.19972526 -0.11622277
-0.028454863 0.12511876 0.15854296 -0.0068867235 0.255721 -0.0060942126 -0.11521923 0.07076305
-0.017423501 0.05875943 -0.078396104 0.013011442 -0.039557274 0.13018282 -0.05490945 -0.047807056
-0.14418428 0.046055593 -0.16183132 0.06757525 0.0142400395 -0.029894736 0.14054573 -0.07958537
0.03216016 0.057713047 0.04539609 -0.030113209 0.12754068 -0.31830773 -0.06466855 -0.02219853
0.02822815 -0.22671463 0.2186532 -0.12665537 -0.004954622 -0.14452429 0.040004574 -0.062331937
-0.026736306 0.093589015 -0.13217305 -0.048082683 -0.118657514 -0.15297258 0.108048946 -0.0043993406
0.10905441 0.07232615 0.056299668 -0.048080243 -0.30699828 0.15184937 0.1518307 -0.0437098
0.022402806 0.15963545 0.03921075 0.0024531751 -0.056541376 0.099426515 -0.039683077 0.07612714
0.047448885 -0.01784742 -0.112963766 0.020350568 -0.15110475 -0.10642212 -0.25151208 -0.05362428
0.12867756 0.07761396 0.04547102 -0.062362686 0.0439257 -0.13646667 0.16613795 0.009517279
-0.1329764 0.14774336 -0.058786523 -0.188081 -0.02346283 -0.10335759 0.20756732 -0.32826507
-0.011220502 0.09905736 -0.05987779 -0.03344249 0.058474943 -0.05687895 -0.040489633 0.23054889
-0.116861574 0.099911354 0.11857499 -0.07004116 0.08070288 -0.03264948 0.047552217 0.17424108
-0.0045415955 -0.25876206 0.026872518 0.037090436 -0.35927218 0.082749255 -0.1566771 0.1817361
-0.034620352 -0.11661718 -0.0902304 -0.037219584 0.05472682 -0.009624127 0.061056826 -0.07516209
0.031607315 0.034294102 -0.056472562 -0.024997769 0.20708218 -0.05983597 0.05460801 -0.0397235
-0.08393216 -0.15023775 -0.043212686 0.039466307 -0.16517624 -0.31829128 -0.13322592 -0.21286792
-0.0029958293 -0.32372084 0.047168616 -0.051370114 -0.019155398 -0.21837686 -0.03758797 -0.020455368
0.045151245 -0.04460222 -0.25516653 -0.1934009 0.09232227 -0.07454638 0.036706388 -0.018008806
0.094407775 0.13282701 0.07185428 0.14293781 0.047589023 0.037962973 0.06294573 -0.07446472
0.056578245 -0.09022932 -0.015975343 0.1238888 0.052605398 0.12879516 0.058700364 0.08380316
-0.14927062 -0.17642045 0.11440056 -0.030832136 -0.19938637 0.12539525 -0.2526019 -0.050326414
-0.05209751 -0.30417162 0.045820344 -0.0481873 -0.14140722 -0.07114094 0.14661963 -0.036612745
-0.12559383 -0.012098259 -0.045894954 -0.1577216 -0.075339325 0.094053894 -0.038484577 -0.019989124
00000000: 144d c23c bb47 c4bd f233 b7bd bdd3 4dbe
00000010: 0033 94b9 875d bfbd 1ef6 043e d49f 053e
00000020: 1d45 c63d 0be9 233b 2f15 b63c 8c8f 06be
00000030: 1b8a 7dbc 0adf 433e ed25 9f3d e3e5 c63d
00000040: 185b a13d 6b0d 7338 0696 c3be 7d67 233c
00000050: cb81 033d 7be0 173e 6e04 043c 1138 153e
00000060: 01b7 943d 713d 7b3d 0fb6 a63d 0d3c 32bd
00000070: 2c40 9fbc 9dd3 2e3d 77d1 3dbc a028 03be
00000080: b762 48be eae4 67bd 7135 1abe dd32 263e
00000090: 5bd0 54bd 5d27 e83c 502c 5abe 7567 803e
000000a0: d574 7dbc 8739 d4bd 4515 f93d 8743 4c3d
000000b0: e495 7fbb a751 8abe 0731 043e 5566 6ebd
000000c0: 3647 7a3d b994 00be 8b51 07be de43 febd
000000d0: 3e98 9dbd 1abe 16be 82af 0abe 2287 d7bd
000000e0: 096c ce3d 09ad c83d 4597 723d 1a48 a3bd
000000f0: 9691 10be 755e f43d c784 4c3e 3406 eebd
00000100: 2c1a e9bc 221f 003e 1659 223e 06aa e1bb
00000110: dded 823e f6b1 c7bb 0ff8 ebbd 38ec 903d
00000120: bbbb 8ebc baad 703d 238e a0bd f12d 553c
00000130: cf06 22bd a54e 053e bbe8 60bd 55d1 43bd
00000140: 0ba5 13be caa4 3c3d 1cb7 25be e564 8a3d
00000150: 0e4f 693c cee5 f4bc 38eb 0f3e a8fd a2bd
00000160: 5fba 033d 8464 6c3d 40f1 393d faaf f6bc
00000170: 069a 023e 3bf9 a2be f270 84bd b1d9 b5bc
00000180: b93e e73c e127 68be a0e6 5f3e f2b1 01be
00000190: 625a a2bb 2dfe 13be d6db 233d c64f 7fbd
000001a0: 1906 dbbc 99ab bf3d 5f58 07be 59f2 44bd
000001b0: b602 f3bd d8a4 1cbe c448 dd3d 5828 90bb
000001c0: eb57 df3d bc1f 943d 7b9a 663d caef 44bd
000001d0: e12e 9dbe 677e 1b3e 8279 1b3e 0c09 33bd
000001e0: 1786 b73c 7a77 233e 749b 203d 73c5 203b
000001f0: ee97 67bd 21a0 cb3d b98a 22bd 8ce8 9b3d
00000200: c359 423d c134 92bc 8c59 e7bd 3cb6 a63c
00000210: 34bb 1abe d7f3 d9bd 31c6 80be 22a5 5bbd
00000220: 0dc4 033e 11f4 9e3d d23f 3a3d 0470 7fbd
00000230: 6feb 333d ebbd 0bbe 1120 2a3e 5dee 1b3c
00000240: f72a 08be 094a 173e 23ca 70bd 4e98 40be
00000250: 1f35 c0bc 25ad d3bd 878c 543e 5c12 a8be
00000260: 32d6 37bc 96de ca3d 6a42 75bd fefa 08bd
00000270: 6c83 6f3d e7f9 68bd 75d8 25bd 0215 6c3e
00000280: 1f55 efbd 539e cc3d 72d7 f23d bd71 8fbd
00000290: 8d47 a53d 76bb 05bd 1dc6 423d 416c 323e
000002a0: aad1 94bb 767c 84be c123 dc3c 24ec 173d
000002b0: 86f2 b7be 7178 a93d f66f 20be 0719 3a3e
000002c0: 12ce 0dbd fdd4 eebd b7ca b8bd 9073 18bd
000002d0: 3b29 603d 84ae 1dbc b916 7a3d 95ee 99bd
000002e0: ac76 013d f977 0c3d c64f 67bd 1fc8 ccbc
000002f0: 5a0d 543e 9016 75bd a6ac 5f3d 1cb5 22bd
00000300: a0e4 abbd edd7 19be c9ff 30bd 6ca7 213d
00000310: f623 29be 13f7 a2be 606c 08be 0cfa 59be
00000320: ad55 44bb bdbe a5be e133 413d 7869 52bd
00000330: c8eb 9cbc 2f9e 5fbe d8f5 19bd 0492 a7bc
00000340: 83f0 383d d1b0 36bd 30a5 82be e30a 46be
00000350: 7513 bd3d c6ab 98bd 7059 163d 3487 93bc
00000360: dd58 c13d ce03 083e 5628 933d 4a5e 123e
00000370: b5ec 423d 107f 1b3d b1e9 803d f680 98bd
00000380: 97be 673d 26ca b8bd b9de 82bc 69b9 fd3d
00000390: c278 573d e1e2 033e cb6f 703d fea0 ab3d
000003a0: 66da 18be 90a7 34be d74a ea3d ad93 fcbc
000003b0: f12b 4cbe 9d67 003e 0955 81be 1223 4ebd
000003c0: 3364 55bd 62bc 9bbe 1dae 3b3d 0c60 45bd
000003d0: 0ecd 10be 57b2 91bd 7523 163e 3ff7 15bd
000003e0: ab9b 00be c737 46bc 59fc 3bbd c581 21be
000003f0: 814b 9abd 549f c03d 01a2 1dbd 3bc0 a3bc

actor.2.bias f4 [128]
0.0077003096 -0.03810645 -0.08946553 0.064212516 -0.035035525 -0.026464123 0.073240995 -0.091533445
0.046038784 0.068774804 0.045370936 -0.010046438 0.0026255413 -0.01942673 0.011016148 0.02333676
0.028174028 0.055189572 -0.03520746 0.021638865 0.07766888 0.07130971 -0.008080078 0.021023953
0.0033798967 -0.023777606 0.091382235 0.0022195943 0.041715212 0.00918457 0.038938448 0.004098009
-0.04874784 0.015130223 0.012284297 0.036208823 -0.047314733 -0.004149906 -0.028324462 -0.0250129
-0.015508169 0.030831104 -0.059451774 -0.041957065 0.088336766 -0.010209086 0.061056484 0.04850099
-0.027674973 0.07510001 0.05114569 0.0033446269 -0.08284658 0.073796466 -0.04220089 0.021790965
0.017050507 -0.05915959 0.0014336744 0.025357097 0.002520762 0.06384782 0.015336477 0.033780273
0.062957 0.0077157384 -0.04435424 0.064869955 0.0343305 -0.017907355 0.0838392 -0.07262507
-0.024905419 -0.063730344 0.00036555927 0.049195725 0.058700424 0.0061641345 -0.002230592 0.032851074
0.080505684 0.07263774 0.02103309 -0.0073245266 -0.0071923044 0.06773922 0.024530226 0.0627317
0.014274054 -0.016478622 -0.030953227 -0.041583315 0.07329243 -0.006618214 0.03509606 0.050054405
0.03329864 -0.009801482 0.05975648 -0.00040867462 0.084304936 -0.03126406 0.06936978 -0.017391494
0.06431225 0.018165618 -0.0010140056 -0.0029872237 0.022236196 -0.037012227 0.06383482 -0.05268082
0.0053126263 -0.034908466 0.007387214 -0.01907088 0.007378476 0.08491429 -0.06369277 0.06844948
0.015378701 0.013525713 0.039074223 0.041966885 0.04304228 -0.029369352 0.09468519 0.045920692
00000000: e152 fc3b 8215 1cbd b439 b7bd da81 833d
00000010: 6981 0fbd 4acb d8bc 60ff 953d e375 bbbd
00000020: 2a93 3c3d ced9 8c3d e0d6 393d d199 24bc
00000030: 4611 2c3b ce24 9fbc 137d 343c bc2c bf3c
00000040: 38cd e63c 760e 623d b335 10bd fd43 b13c
00000050: dd10 9f3d d30a 923d 4e62 04bc 6d3a ac3c
00000060: 4281 5d3b 41c9 c2bc 9c26 bb3d 9d76 113b
00000070: 92dd 2a3d e17a 163c ec7d 1f3d 9748 863b
00000080: d1ab 47bd c1e4 773c 1344 493c b44f 143d
00000090: 18cd 41bd effb 87bb b408 e8bc dae7 ccbc
000000a0: fa15 7ebc 8391 fc3c b483 73bd 2cdb 2bbd
000000b0: e8e9 b43d 0344 27bc 5d16 7a3d f9a8 463d
000000c0: a0b6 e2bc 09ce 993d 257e 513d 8731 5b3b
000000d0: 78ab a9bd 9a22 973d d7da 2cbd f782 b23c
000000e0: 81ad 8b3c 5451 72bd 21ea bb3a b0b9 cf3c
000000f0: 5e33 253b a5c2 823d d945 7b3c 2f5d 0a3d
00000100: 9aef 803d 4ed4 fc3b cbac 35bd 8ada 843d
00000110: 239e 0c3d 72b2 92bc e3b3 ab3d 74bc 94bd
00000120: 7306 ccbc 0e85 82bd 89a8 bf39 7581 493d
00000130: db6f 703d 82fc c93b 202f 12bb d98e 063d
00000140: 2ae0 a43d 18c3 943d 964d ac3c 9502 f0bb
00000150: 6cad ebbb dcba 8a3d 9df3 c83c 7a79 803d
00000160: b9dd 693c 2dfe 86bc 9f91 fdbc 4453 2abd
00000170: 571a 963d 9add d8bb e3c0 0f3d d905 4d3d
00000180: 2864 083d 6596 20bc 36c3 743d 6143 d6b9
00000190: 11a8 ac3d be0e 00bd be11 8e3d 9b78 8ebc
000001a0: 24b6 833d 10d0 943c 62e8 84ba 4cc5 43bb
000001b0: af28 b63c 229a 17bd d5bb 823d d8c7 57bd
000001c0: 8a15 ae3b 2efc 0ebd 7110 f23b 893a 9cbc
000001d0: 25c7 f13b 8be7 ad3d 5b71 82bd 3e2f 8c3d
000001e0: f2f6 7b3c f49a 5d3c 4b0c 203d 78e5 2b3d
000001f0: 1a4d 303d ff97 f0bc 4fea c13d 5617 3c3d
