CRL/模型集_selfplay/run_20260123-185640/slime_ppo_9M.pth (torch, 370495 bytes, 11 tensors)

critic.0.weight f4 [256, 48]
0	0xbe4f206d	-0.20227213
1	0xbdde476c	-0.108534664
2	0x3d39d372	0.045367666
3	0x3cb189b7	0.021672113
4	0xbd9a2fd4	-0.07528654
5	0x3c52946a	0.0128527675
6	0x3bd8dc60	0.0066180676
7	0x3d2a6440	0.041599512
8	0xbe0cb60b	-0.13741319
9	0xbedda57b	-0.43290314
10	0xbe122ef7	-0.14275728
11	0xbe32b087	-0.17450152
12	0xbe6efa39	-0.2333764
13	0xbdd313d9	-0.1030652
14	0x3cdf7be7	0.02728076
15	0x3d91dfc1	0.07122756
16	0xbe12ab38	-0.14323127
17	0xbd0dbc13	-0.03460319
18	0xb93c9574	-0.00017984753
19	0xbd604ffa	-0.05476377
20	0x3ca65277	0.020302994
21	0xbed3a5c4	-0.41337407
22	0xbe0fc376	-0.14039406
23	0xbe948a28	-0.29011655
24	0xba14b6b3	-0.0005672976
25	0xbcf141ee	-0.029450383
26	0x3c390f04	0.011295084
27	0x3df8292f	0.1211723
28	0x3d0335f6	0.032033883
29	0xbccefc0f	-0.025266675
30	0xbd2a264d	-0.041540433
31	0x3cfb1bc7	0.030652894
32	0x3e1ab058	0.15106332
33	0xbec90576	-0.3926198
34	0xbdc63648	-0.09678322
35	0xbe856507	-0.2605364
36	0xbe14b04d	-0.14520378
37	0x3cc70b3c	0.02429735
38	0x3d1ad91a	0.0378047
39	0xbd1ed59b	-0.03877793
40	0x3dfc3fa9	0.1231683
41	0xbdad00ab	-0.08447393
42	0x3cb8132e	0.022470083
43	0xbd15ef2a	-0.036605038
44	0x3e082ce4	0.13298374
45	0xbe8ac98e	-0.271069
46	0x3e573145	0.21014889
47	0xbe45827c	-0.19288057
48	0x3d8e8184	0.06958297
49	0xbc23cfc4	-0.009998266
50	0xbd12ac1e	-0.035808675
51	0x3d18b06c	0.037277624
52	0x3d25c301	0.040469173
53	0xbcd73a08	-0.026272789
54	0xbd0db56f	-0.034596857
55	0xbe08f568	-0.13374865
56	0xbdd18204	-0.10229877
57	0x3c7fec87	0.015620357
58	0xbd9e4788	-0.07728487
59	0x3cd56f62	0.026054088
60	0x3d91420a	0.07092674
61	0xbd4c337e	-0.049853794
62	0x3c91667f	0.01774907
63	0xbd87fa1e	-0.06639503
64	0x3e3cd241	0.1843958
65	0xbd3993e4	-0.045307055
66	0x3b9ae97c	0.0047275405
67	0x3d9312a8	0.07181293
68	0xbd667c4c	-0.056270882
69	0x3e2cc36e	0.16871426
70	0xbdda8c24	-0.10671261
71	0x3d5afb07	0.053462055
72	0x3db559f3	0.08855047
73	0x3c8abba4	0.016935177
74	0xbd579f32	-0.052642055
75	0xbdf12b00	-0.1177578
76	0xbd519a1b	-0.051172357
77	0xbd5b2db0	-0.053510368
78	0x3bae9bef	0.0053286473
79	0x3c9e14ea	0.019297082
80	0x3e17a15a	0.14807644
81	0x3e7247da	0.23660222
82	0x3d8ec7cd	0.06971703
83	0x3cc40fe4	0.023933358
84	0x3ca1686f	0.019703118
85	0x3de0912f	0.109651916
86	0xbd3deb56	-0.046367012
87	0x3ca95462	0.02067012
88	0xbda02309	-0.078191824
89	0xbd0cfe1c	-0.034422025
90	0xbd063f8d	-0.03277545
91	0xbd38b891	-0.04509789
92	0x3cd4d9ae	0.025982704
93	0x3eb17d6f	0.3466601
94	0xbce4700d	-0.027885461
95	0x3e8a0817	0.26959297
96	0x3de5e6d5	0.11225668
97	0xbd18ffe9	-0.03735343
98	0xbda7d74c	-0.081953615
99	0xbd33d603	-0.04390527
100	0x3d5e15b6	0.054219924
101	0xbbe80d0e	-0.0070816344
102	0xbd41f18e	-0.047349505
103	0xbdf71980	-0.120654106
104	0xbd9e9420	-0.07743096
105	0xbe66b2d5	-0.22529157
106	0x3e0db403	0.138382
107	0x3e106b65	0.14103468
108	0x3bb75de7	0.005595911
109	0xbd892186	-0.06695847
110	0xbd0baaa9	-0.0340983
111	0xbcb1aef1	-0.021689864
112	0xbda438c1	-0.080186374
113	0x3cda68ac	0.02666124
114	0x3ce0249a	0.027361203
115	0x3d94149e	0.07230495
116	0x3e3963dc	0.181045
117	0xbd9ce990	-0.07661736
118	0xbd06d066	-0.032913588
119	0xbe1688ef	-0.14700674
120	0xbd4d3fc9	-0.05010966
121	0x3d91e3c1	0.07123519
122	0xbd5a7341	-0.05333257
123	0xbbaa5561	-0.0051981662
124	0x3d8ebfb3	0.069701575
125	0xbd862938	-0.065508306
126	0xbc80d0e6	-0.01572461
127	0xbd3b73b1	-0.04576463
128	0x3d31ce84	0.04340984
129	0x3da1e36e	0.07904707
130	0xbdde8522	-0.10865237
131	0xbe17510d	-0.14777012
132	0x3db9c3da	0.09070559
133	0xbe4a243f	-0.1974039
134	0xbdcea871	-0.100907214
135	0xbcc5201d	-0.024063164
136	0xbd51ad5c	-0.05119072
137	0xbdfc1423	-0.12308528
138	0x3d5a1d32	0.0532505
139	0xbe1d8bbb	-0.15385334
140	0x3e1123e4	0.14173847
141	0x3dce7c9c	0.10082361
142	0xbe1fd545	-0.156087
143	0x3bedf154	0.0072614346
144	0x3e0065c8	0.12538826
145	0xbe04b936	-0.12961277
146	0xbd5f0491	-0.054447714
147	0xbcf94bb4	-0.030431606
148	0xbbcee1c6	-0.0063135354
149	0x3dbfd637	0.0936703
150	0xbdf2d428	-0.11856872
151	0xbd9cae8c	-0.0765048
152	0xbda4592f	-0.08024823
153	0xbde675c6	-0.11252932
154	0xbe356a58	-0.17716348
155	0xbdfa56b9	-0.12223572
156	0xbc80c409	-0.015718477
157	0xbe0a0806	-0.13479623
158	0xbd8b36ff	-0.06797599
159	0xbda4d779	-0.08048911
160	0xbdb4b216	-0.0882303
161	0x3e2126bd	0.15737434
162	0x3cfaf929	0.030636387
163	0xbb935cfb	-0.004497168
164	0x3dfabfee	0.12243639
165	0xbd560b50	-0.052256882
166	0xbd9ace7a	-0.075589135
167	0x3d2b0c5d	0.041759837
168	0xbd9efd11	-0.07763112
169	0xbd113c48	-0.03545788
170	0xbc3cf2bf	-0.011532485
171	0xbe0fc5a0	-0.14040232
172	0x3d575f52	0.05258114
173	0xba94e510	-0.001135977
174	0x3cd3fec3	0.025878316
175	0x3de76bb3	0.11299839
176	0xbd898d83	-0.06716444
177	0x3df004ca	0.117196634
178	0xbd449851	-0.047996823
179	0x3c059f46	0.0081556495
180	0x3da439ba	0.08018823
181	0x3d299eac	0.041411087
182	0xbd7bdb75	-0.061488587
183	0x3dcea9e4	0.10090998
184	0x3d158997	0.03650817
185	0x3dbeb52e	0.09311901
186	0x3dc3ecd9	0.095666595
187	0x3dbcc556	0.09217326
188	0x3e33a139	0.1754197
189	0x3e9a6cad	0.30161038
190	0x3dc1e1a1	0.094668634
191	0x3a38718c	0.0007035963
192	0x3d9c318e	0.07626639
193	0x3d4a51dd	0.049394477
194	0xba5f2884	-0.0008512812
195	0xbd1ce9d0	-0.03830892
196	0x3e94b05f	0.2904081
197	0xbdf78ce7	-0.12087422
198	0xbcb0eda9	-0.0215977
199	0xbcf9360b	-0.030421278
200	0x3d32857c	0.043584332
201	0xbda403d5	-0.080085434
202	0x3e6326d8	0.22182786
203	0xbd8a2905	-0.06746105
204	0xbdf8e5cf	-0.121532075
205	0x3d4a5834	0.049400523
206	0xbc707984	-0.014677409
207	0x3d259964	0.040429488
208	0x3e9141f8	0.28370643
209	0xbe03fccb	-0.12889402
210	0xbcb1649e	-0.021654423
211	0xbd6cbb12	-0.05779559
212	0xbb4c6cb9	-0.0031192733
213	0x3d975f68	0.07391244
214	0x3e84e43d	0.25955382
215	0x3d928bd9	0.0715558
216	0xbdf448ad	-0.11927924
217	0x3da7f77e	0.08201502
218	0x3bfa02b5	0.0076297172
219	0x3dc37f79	0.09545798
220	0x3e23eacc	0.16007537
221	0xbe07a9eb	-0.13248412
222	0xbcf6717d	-0.030083412
223	0x3ce6d830	0.028179258
224	0x3e0ddb45	0.13853176
225	0xbc95d83f	-0.01829159
226	0x3e7beb05	0.24601372
227	0x3d58d1aa	0.052934326
228	0x3da4f9f4	0.08055487
229	0x3d5eee3c	0.054426417
230	0xbc52c1be	-0.012863575
231	0x3cfdff46	0.031005513
232	0x3df94a25	0.12172345
233	0x3d43d18e	0.04780727
234	0x39a5f495	0.0003165348
235	0xbb7f01bc	-0.0038910946
236	0x3c797c83	0.01522744
237	0x3cd85b76	0.0264108
238	0x3ea6a422	0.32547098
239	0xbdecb33e	-0.11557625
240	0xbd6bd225	-0.057573456
241	0xbd425647	-0.04744556
242	0xbdb56a0b	-0.08858117
243	0xbd6c9274	-0.057756856
244	0x3d5c58db	0.053795677
245	0xbe0c6acd	-0.13712616
246	0x3a407751	0.0007341998
247	0x3d483784	0.04888107
248	0x3a34b2df	0.0006893109
249	0x3e933f18	0.28759074
250	0x3d8c7bce	0.06859551
251	0xbe019147	-0.12653075
252	0xbde0471a	-0.109510615
253	0xbd272be2	-0.040813334
254	0xbdc0fb52	-0.094229355
255	0xbcd9642c	-0.026537023

critic.0.bias f4 [256]
0	0x3e43c96c	0.19119805
1	0x3e565f3b	0.20934765
2	0xbd17bf44	-0.03704764
3	0xbc404122	-0.011734279
4	0xbd0a1bad	-0.0337178
5	0xbe2b867f	-0.16750525
6	0x3d349c77	0.04409453
7	0x3cea65eb	0.028613051
8	0x3d8f6e09	0.070034094
9	0x3b3e28db	0.002901605
10	0x3e5075a1	0.20357372
11	0x3e509e49	0.20372881
12	0x3e5d4c3b	0.21611111
13	0x3e5f79a3	0.21823744
14	0x3dfde111	0.12396444
15	0xbe4447e8	-0.19168055
16	0xbdfee98b	-0.124468885
17	0x3e928393	0.28616008
18	0x3d5e1c4b	0.0542262
19	0x3df86537	0.1212868
20	0xbe1e7f3b	-0.15478222
21	0xbd71e9fc	-0.059061036
22	0xbdd5714b	-0.104219995
23	0x3da164a8	0.07880527
24	0x3dd201da	0.102542594
25	0x3e50cdce	0.20391008
26	0xbdb8d0ea	-0.09024222
27	0x3dca62d2	0.0988213
28	0xbd26c93a	-0.04071925
29	0xbdc3bca7	-0.09557467
30	0x3e4df07a	0.20111266
31	0x3c9103d4	0.01770202
32	0xbdf9ea66	-0.12202911
33	0x3e095b08	0.13413632
34	0x3d9a2cb7	0.0752806
35	0xbe076142	-0.13220695
36	0x3e1ba39f	0.15199135
37	0x3d9a3b7f	0.07530879
38	0x3eaf30ab	0.34216818
39	0xbe11e70d	-0.14248295
40	0x3e2b5ef7	0.16735445
41	0xbe171290	-0.14753175
42	0xbdc4b3a1	-0.09604574
43	0x3e820d6b	0.25400862
44	0x3e32228c	0.17395991
45	0x3e66123e	0.22467896
46	0x3e060c75	0.1309069
47	0xbe081e2d	-0.13292761
48	0x3b3dd08f	0.0028963422
49	0x3e34cffc	0.17657465
50	0xbead7d10	-0.33884478
51	0x3dba5b99	0.09099502
52	0xbe3bd3fe	-0.18342587
53	0xbe2e3ffc	-0.17016596
54	0x3ea9c6c1	0.3315945
55	0xbda47eb2	-0.08031978
56	0xbbf9f5ed	-0.0076281936
57	0xbe58a5e1	-0.21157028
58	0xbef373b8	-0.47549224
59	0xbe7433b1	-0.23847844
60	0xbdcefd45	-0.10106901
61	0x3ca629d1	0.020283611
62	0xbe38b315	-0.18037064
63	0xbeb8e195	-0.36109605
64	0xbb5f8189	-0.0034104309
65	0xbdb9eeef	-0.09078776
66	0xbde88ba2	-0.11354758
67	0xbe0fe5f4	-0.14052564
68	0x3e390e67	0.180719
69	0x3e33c834	0.1755684
70	0x3db5c6d8	0.08875817
71	0xbd625c1a	-0.055263616
72	0x3cdb1045	0.026741156
73	0xbdd1aabb	-0.102376424
74	0xbdc66fa1	-0.0968926
75	0x3e157108	0.14593899
76	0xbef2daab	-0.47432455
77	0x3d9df796	0.07713239
78	0xbd1b321c	-0.037889585
79	0xbda642c4	-0.08118203
80	0xbe7ccdf8	-0.24687946
81	0xbdaa021c	-0.083011836
82	0xba0ec9d0	-0.00054469425
83	0xbd850373	-0.064947985
84	0x3e1246d6	0.14284834
85	0xbdb1ca3a	-0.0868115
86	0xbdfc94f0	-0.12333095
87	0xbd66bd38	-0.056332797
88	0xbdd50713	-0.1040174
89	0x3e12512e	0.1428878
90	0x3e249399	0.16071929
91	0xbd1b16e9	-0.037863646
92	0xbd8e4eeb	-0.06948646
93	0x3e2122c3	0.15735917
94	0xbe85c72c	-0.2612852
95	0xbe484b1a	-0.19559899
96	0xbd9cbc41	-0.07653094
97	0x3c8efc6c	0.017454349
98	0x3b923cb7	0.004462804
99	0x3e5f2b72	0.21793917
100	0x3da08a91	0.078389294
101	0xbdb509b3	-0.088397406
102	0x3dde7285	0.108616866
103	0xbc9a29dd	-0.01881879
104	0x3ddb1ea5	0.10699204
105	0xbda9a1b1	-0.08282793
106	0xbd82f9f3	-0.0639533
107	0x3d9cdb52	0.076590195
108	0xbe3a7ce2	-0.18211702
109	0xbe248513	-0.16066389
110	0xbdc84f40	-0.09780741
111	0xbe85ed48	-0.26157594
112	0x3c3ae17b	0.011406298
113	0xbcc50306	-0.024049293
114	0x3ba66b13	0.005078682
115	0x3d2abbb0	0.0416829
116	0x3cd8738c	0.026422285
117	0xbe0d63ab	-0.13807552
118	0x3db320a2	0.087464586
119	0xbdec1287	-0.11526971
120	0x3df6f40c	0.12058267
121	0x3c6c6c84	0.014430169
122	0x3d119c4b	0.035549443
123	0xbdbc369d	-0.09190104
124	0xbc71e455	-0.014763911
125	0xbd0257a2	-0.031821854
126	0xbd8a0f87	-0.06741243
127	0xbe032396	-0.12806544
128	0x3dfc137c	0.12308404
129	0x3b2748df	0.0025525612
130	0x3b85b128	0.0040799566
131	0x3e52e5aa	0.20595422
132	0xbdbbb12a	-0.09164651
133	0xbd17ce49	-0.037061963
134	0x3c950f8a	0.018195886
135	0x3d8f3bb5	0.0699381
136	0xbd7525cc	-0.0598505
137	0xbd250879	-0.040291283
138	0x3e5025c8	0.20326912
139	0xbdda72e2	-0.106664434
140	0xbcd74c1e	-0.026281413
141	0xbed072c7	-0.40712568
142	0x3dad8211	0.08472074
143	0x3ab68da9	0.0013927716
144	0x3d420be6	0.04737463
145	0x3e509f1c	0.20373195
146	0xbe01b0fd	-0.12665172
147	0x3de06172	0.10956086
148	0x3e8ad325	0.27114215
149	0xbddbb048	-0.10726982
150	0xbe19001d	-0.1494145
151	0x3ca8762e	0.020564165
152	0x3dd5b14a	0.10434206
153	0x3e26d11e	0.1629071
154	0xbd87afd5	-0.06625334
155	0xbd4a9550	-0.0494588
156	0x3d8950c3	0.06704857
157	0x3d90ac58	0.07064122
158	0xbe01940c	-0.12654132
159	0xbe038a27	-0.1284567
160	0x3d13828f	0.036013182
161	0x3e136b0d	0.14396305
162	0x3e3f0daf	0.18657564
163	0xbe16e16d	-0.1473443
164	0xbd4d3a72	-0.050104566
165	0xbd68b2ff	-0.05681133
166	0xbe5e1ee4	-0.21691471
167	0xbdf0d98f	-0.11760246
168	0xbe021edf	-0.12707089
169	0x3df6acb0	0.12044656
170	0x3e58dc1d	0.21177717
171	0x3b34d603	0.0027593381
172	0xbdfcbd3d	-0.12340782
173	0x3b511f48	0.0031909514
174	0x3e4c4090	0.19946504
175	0x3e72b2ac	0.2370097
176	0x3e1495b8	0.14510238
177	0x3dc83dce	0.09777413
178	0x3bf76bbf	0.007550686
179	0xbd6545dc	-0.055974826
180	0x3d318a42	0.043344744
181	0xbdd32d3e	-0.10311364
182	0xbdcfabed	-0.10140214
183	0x3e19ef5e	0.15032718
184	0x3e4b735f	0.1986823
185	0xbd57477b	-0.052558403
186	0x3d034034	0.03204365
187	0x3dcd27ef	0.10017382
188	0x3e04a82a	0.12954774
189	0x3e51ac21	0.20475818
190	0x3d86e728	0.06587058
191	0x3e4db25f	0.20087574
192	0xbe21da73	-0.15805988
193	0x3e4866f4	0.19570524
194	0xbcf84ffe	-0.03031158
195	0xbd17f7f6	-0.03710171
196	0xbc64b0ff	-0.013958215
197	0xbde1518c	-0.11001882
198	0xbd0e8a9e	-0.034800164
199	0x3b92c429	0.0044789505
200	0x3d959fc4	0.073058635
201	0xbe3c9f6f	-0.18420194
202	0xbda5d464	-0.08097151
203	0x3d0e331c	0.03471671
204	0xbd8c4740	-0.06849527
205	0xbe1e57ee	-0.1546323
206	0xbdfbb9a1	-0.12291265
207	0x3d54e3cc	0.051975057
208	0x3e66af94	0.22527915
209	0xbdb3ccbd	-0.08779285
210	0x3dd76acf	0.10518419
211	0xbdb30968	-0.087420285
212	0xbdc33122	-0.09530856
213	0x3d077dc0	0.03307891
214	0xbdd2d40d	-0.10294352
215	0x3dfec681	0.12440205
216	0xbd4ca786	-0.04996445
217	0x3b4208d0	0.0029607303
218	0x3d127fab	0.035766285
219	0xbc62101e	-0.013797788
220	0xbccbb228	-0.024865225
221	0xbe0a4d37	-0.13506018
222	0xbd4b5df6	-0.049650155
223	0x3e1046d1	0.14089514
224	0xbe4b559e	-0.19856879
225	0x3dae413e	0.08508538
226	0xbe2d4240	-0.16919804
227	0xbe21717c	-0.15765947
228	0x3da3a3ca	0.07990225
229	0xbe640469	-0.22267307
230	0x3e27a878	0.1637286
231	0x3d0e5232	0.034746356
232	0xbe8208ef	-0.2539744
233	0x3d5bf20a	0.053697623
234	0x3ce4e360	0.027940452
235	0xbe485781	-0.1956463
236	0x3bc5d3b5	0.0060372003
237	0x3e1afaec	0.15134782
238	0x3dc702ff	0.09717368
239	0x3e877a7f	0.26460645
240	0xbd9f2254	-0.077702194
241	0xbe774282	-0.24146464
242	0x3dc5b711	0.09654058
243	0xbd1135cb	-0.03545169
244	0xbe17698f	-0.14786361
245	0x3e17d86d	0.14828654
246	0x3df4e72c	0.11958155
247	0xbe3f3528	-0.18672621
248	0x3e6ff61a	0.23433724
249	0x3d91832e	0.07105099
250	0xbd1922a9	-0.03738657
251	0xbdbc5927	-0.09196692
252	0xbd9b67c7	-0.07588153
253	0x3d03630f	0.03207689
254	0xbdb4f2fe	-0.088354096
255	0x3e491a2a	0.19638887

critic.2.weight f4 [128, 256]
0	0xbd3abc29	-0.0455896
1	0xbc22ca4f	-0.009935929
2	0x3d389243	0.04506136
3	0xbd7ebd28	-0.062192112
4	0x3cad3654	0.02114407
5	0xbd5b9863	-0.053612124
6	0xbd4b955c	-0.049702987
7	0xbdffbb29	-0.1248687
8	0xbc4d31ab	-0.012524049
9	0xbe24d298	-0.1609596
10	0x3e0a7efc	0.13525003
11	0x3dc16e30	0.09444845
12	0x3c42f7e0	0.011899918
13	0x3d996b9a	0.074912265
14	0xbc2c7e7a	-0.010528201
15	0x3d64e4bb	0.055882197
16	0x3bcdfa60	0.0062859505
17	0xbdc1eae9	-0.09468634
18	0xbd80782a	-0.062729195
19	0xbba01ce5	-0.004886257
20	0xbc3d69c3	-0.01156086
21	0xbd9bd848	-0.07609612
22	0x3d85a74a	0.065260485
23	0x3e32a4c7	0.1744567
24	0x3dd24638	0.102672994
25	0x3d8d6600	0.069042206
26	0x3d3686a5	0.044562
27	0xbd040ba9	-0.032237682
28	0x3c5231d0	0.012829259
29	0x3cc5e451	0.024156721
30	0xbce440bb	-0.027862897
31	0xbebe6641	-0.3718739
32	0xbd19ad81	-0.03751898
33	0x3d2d5d1a	0.042325117
34	0xbdcde1f7	-0.10052865
35	0x3def89f3	0.116962336
36	0xbca4a9e3	-0.02010054
37	0x3c2ea91c	0.010660436
38	0x3c8b4d08	0.017004505
39	0xbd5be0dc	-0.05368124
40	0x3ba08228	0.0048983283
41	0x3cecdd00	0.028913975
42	0x3b7dab2b	0.003870676
43	0xbcc73367	-0.024316503
44	0xc00e45c0	-2.2230072
45	0xbcf7c122	-0.03024346
46	0x3d1ae867	0.037819292
47	0x3d320630	0.043462932
48	0x3b368d02	0.0027855043
49	0xbdfe8da4	-0.124293596
50	0xbcc96378	-0.024583563
51	0x3c012582	0.007882478
52	0x3d6756f0	0.056479394
53	0x3df3fad5	0.11913077
54	0xbd753817	-0.059867945
55	0xbeb9abe6	-0.3626396
56	0x3d7a47d3	0.061103653
57	0xbd627933	-0.055291366
58	0x3d0651ca	0.032792844
59	0xbfab80c8	-1.3398676
60	0xbcd3cb8e	-0.025853898
61	0x3ca23b85	0.019803772
62	0x3d33d28c	0.043901965
63	0xc07f10a6	-3.9853911
64	0x3b3201d7	0.002716174
65	0xbc985121	-0.018593373
66	0x3ca5d859	0.020244764
67	0x3d1d1268	0.03834763
68	0x3c6a096d	0.014284474
69	0xbd0cdc3f	-0.03438973
70	0xbe044f6b	-0.1292092
71	0x3cc40ba8	0.02393134
72	0x3d1b911c	0.037980184
73	0xbc836ec5	-0.01604403
74	0x3c559821	0.013036759
75	0x3d694611	0.056951586
76	0x3e0e90b9	0.13922395
77	0xbc550bde	-0.013003318
78	0x3cc9e463	0.024645036
79	0xbc67bd10	-0.014144197
80	0xbe10bcc6	-0.14134511
81	0xbb3ab0fb	-0.0028486836
82	0xbd7d3233	-0.06181545
83	0xbb0f70e5	-0.0021887359
84	0x3dab2730	0.08357084
85	0x3cb8b6da	0.022548128
86	0x3c75658e	0.014977826
87	0xbdf46b1c	-0.11934492
88	0xbd87b4e6	-0.066263005
89	0x3d75a180	0.05996847
90	0xbc3127bf	-0.010812699
91	0x3bdca950	0.006734051
92	0x3d4ac99e	0.049508683
93	0x3d25e50f	0.04050165
94	0xbda437d4	-0.08018461
95	0xbc5e8709	-0.013582
96	0xbdb1e709	-0.086866446
97	0xbb87761a	-0.004133952
98	0x3d0ddb46	0.034632944
99	0x3e03706d	0.12835856
100	0x3d3be4fc	0.045872673
101	0x3d176ff7	0.036972012
102	0x3cde15af	0.027109949
103	0xbd0e0af7	-0.034678426
104	0x3c8c391d	0.017117077
105	0xbcd9efaf	-0.026603548
106	0xbd4ef332	-0.050524898
107	0x3d0566ff	0.032568928
108	0xbc5e733d	-0.01357728
109	0x3d150349	0.036380086
110	0x3c2a3aa8	0.010389961
111	0x3d1cdf8b	0.038299125
112	0x3dd2b6ba	0.102887586
113	0x3d1f98e8	0.038964182
114	0x3b95aeba	0.004567948
115	0x3d274f7a	0.04084728
116	0xbd838459	-0.06421728
117	0xbc87daad	-0.016583765
118	0xbd7226f6	-0.059119187
119	0xbd4274ed	-0.04747479
120	0x3cd752dd	0.02628463
121	0x3c949266	0.018136214
122	0x3d5b822b	0.053590935
123	0x3e76a6db	0.24087088
124	0xbea8c10b	-0.3295978
125	0xbc3cb4a0	-0.011517674
126	0x3d2549f6	0.040353738
127	0x3b978964	0.0046245325
128	0x3c71c976	0.014757505
129	0xbd5848fc	-0.05280398
130	0xbdf489bf	-0.119403355
131	0x3d58d9a0	0.05294192
132	0x3c9bbada	0.019009996
133	0x3d1aef86	0.037826084
134	0x3c9b4cf7	0.018957598
135	0x3e132287	0.1436864
136	0xbc726bf7	-0.014796249
137	0xbd730d6f	-0.059338983
138	0x3d264881	0.04059649
139	0x3e1a65e4	0.1507793
140	0x3e8a0e5e	0.26964086
141	0xbd4c5703	-0.04988767
142	0x3e05bd82	0.13060573
143	0xbbff4ab0	-0.007790886
144	0xbd00c283	-0.0314355
145	0x3daabf28	0.083372414
146	0x3e6165b8	0.22011459
147	0x3cf0a163	0.02937383
148	0xbcdf0ccb	-0.02722778
149	0xbe067b51	-0.13132979
150	0x3d1c0adb	0.03809629
151	0xbb996f72	-0.004682475
152	0x3d8a5c29	0.067558594
153	0xbad5f3b9	-0.0016323245
154	0xc0466762	-3.10006
155	0xbd07420e	-0.03302198
156	0x3c609c38	0.01370912
157	0x3d52e5de	0.05148875
158	0xbde1e406	-0.1102982
159	0x3d4eee92	0.050520487
160	0x3d1ddc48	0.038540155
161	0xbd4481bf	-0.047975298
162	0xbcca4ba0	-0.024694264
163	0x3bcbb1a6	0.0062162457
164	0x3d7a49af	0.061105426
165	0xba6a0f7b	-0.00089286984
166	0x3b130f5f	0.0022439582
167	0x3da14b43	0.07875683
168	0xbd236b79	-0.039897416
169	0x3d871660	0.065960646
170	0x3d8a317e	0.06747721
171	0xbcd9aa61	-0.0265705
172	0xbdbc5392	-0.09195627
173	0x3d4e2618	0.050329298
174	0x3d814228	0.063114464
175	0xbcd00cd2	-0.025396738
176	0xbb0a480e	-0.0021100077
177	0xbd88bd66	-0.0667675
178	0xbaabf678	-0.0013119718
179	0xbe2d5dbc	-0.16930288
180	0xbdbe50d5	-0.09292761
181	0x3d8084ec	0.06275353
182	0x3de9e3b3	0.11420383
183	0x3ce2fa7d	0.027707333
184	0xbcef41cd	-0.029206181
185	0x3c08e78f	0.008355989
186	0xbc39e4c8	-0.01134605
187	0xbd2febcf	-0.042949494
188	0xbcd2bede	-0.025725778
189	0xbd0dfe6f	-0.034666475
190	0x3dba676d	0.09101758
191	0x3d2679a8	0.040643364
192	0x3c8a3ab0	0.016873688
193	0xbb3fe3ff	-0.0029280183
194	0x3c4d14e2	0.012517186
195	0xbd34e79b	-0.04416619
196	0xbd09a9c0	-0.03360915
197	0xbccfa261	-0.025345983
198	0x3ce69ffd	0.02815246
199	0x3cbe77cd	0.023250485
200	0xbcd07390	-0.02544573
201	0xbd21db18	-0.039515585
202	0x3c3a7560	0.011380523
203	0x3d82d8a7	0.063889794
204	0x3d3f2e74	0.04667516
205	0x3d8fa6a2	0.070142046
206	0x3d2ebf07	0.042662647
207	0xbd8e25f9	-0.069408365
208	0xbc134549	-0.008988687
209	0xbcad6e60	-0.021170795
210	0xbccb7094	-0.024833955
211	0x3d37b461	0.044849757
212	0x3cefdee7	0.029281093
213	0x3b50fb82	0.0031888192
214	0x3dbc0b45	0.09181837
215	0x3d018015	0.03161629
216	0xbd03b74e	-0.032157235
217	0xbb78a18f	-0.0037938093
218	0xbee79af2	-0.452354
219	0xbda2c63d	-0.07947967
220	0x3ce4c8d2	0.02792779
221	0xbdae2ba3	-0.08504417
222	0xbd8f128b	-0.06985959
223	0x3d51a003	0.05117799
224	0x3c27b575	0.010236134
225	0xbe249862	-0.16073754
226	0x3d9138a4	0.070908815
227	0xbcab0ccb	-0.020880124
228	0xbc8dc054	-0.017303623
229	0xbd4402a2	-0.047854073
230	0x3ccf602e	0.025314417
231	0xbde68e94	-0.11257663
232	0x3ddd40c5	0.108033694
233	0x3b703dcc	0.0036657928
234	0x3c00d6d0	0.007863715
235	0x3d6fb4ad	0.058521915
236	0xbd2cf0ac	-0.04222171
237	0x3d021883	0.031761657
238	0xbd1b6a87	-0.03794339
239	0x3d799900	0.060936928
240	0xbd81b486	-0.0633326
241	0xbe57809f	-0.21045159
242	0xbd39d024	-0.045364514
243	0x3d01d794	0.031699732
244	0x3dc0d05b	0.09414741
245	0xbd804354	-0.06262842
246	0x3cc836d7	0.024440212
247	0x3c0889e8	0.008333661
248	0x3d81358f	0.063090436
249	0x3d653892	0.055962153
250	0x3dea17cf	0.114303224
251	0x3ce8ac04	0.028402336
252	0x3e845804	0.258484
253	0x3d72698f	0.0591827
254	0xbe2ac3de	-0.1667628
255	0x3df21afe	0.118215546

critic.2.bias f4 [128]
0	0x3d898f78	0.067168176
1	0xbcce4659	-0.025180029
2	0xbc176069	-0.009239295
3	0x3c6c9cc5	0.014441674
4	0x3d1e8247	0.03869846
5	0x3db2c52a	0.08729012
6	0xbcfe32cd	-0.031030083
7	0xbbb24d2d	-0.005441329
8	0xbda61233	-0.0810894
9	0x3cc82d86	0.02443577
10	0xbd1da386	-0.038486026
11	0x3d1b4d35	0.037915427
12	0x3d0f69a2	0.03501285
13	0x3cbf75cb	0.023371598
14	0x3d89c5b0	0.06727159
15	0x3d455cc1	0.04818416
16	0x3d00448b	0.031315368
17	0x3d0a886c	0.03382151
18	0x3d6a73e1	0.057239417
19	0xbc3cb78f	-0.011518373
20	0x3d6ce50d	0.057835627
21	0xbc2bc34f	-0.010483577
22	0xbc80b091	-0.015709193
23	0x3d08fbac	0.033443138
24	0x3cc5f014	0.02416233
25	0xbbad6ddf	-0.0052926387
26	0x3c228112	0.009918468
27	0x3d179a3b	0.03701232
28	0x3d53fd92	0.051755495
29	0x3d1290d2	0.035782643
30	0xbcbfad81	-0.023398163
31	0xbdebcb0f	-0.1151334
32	0xbcf4801f	-0.02984625
33	0xbd6a7c21	-0.057247285
34	0x3d84d9c7	0.0648685
35	0x3cec7ec1	0.028869035
36	0x3de25078	0.110505044
37	0x3de73c23	0.11290767
38	0x3d8dd2fa	0.06925006
39	0x3d3a016d	0.045411516
40	0xbd15b863	-0.036552798
41	0xbcb1ded6	-0.021712702
42	0xbd8d7b47	-0.06908279
43	0xbc82887d	-0.015934223
44	0xbc982e21	-0.018576683
45	0x3c452b03	0.012034181
46	0x3c470bdb	0.012148823
47	0xbdd1cb6b	-0.10243877
48	0x3d641568	0.055684477
49	0x3d4c7f93	0.04992635
50	0x3c915d6f	0.017744748
51	0xbdbc14ba	-0.09183641
52	0x3db9066c	0.09034428
53	0x3ba4dc2d	0.00503113
54	0x3be56902	0.0070010433
55	0xbd7502d2	-0.059817143
56	0x3d19a8d8	0.037514538
57	0xbc65fabf	-0.014036833
58	0x3ccec6c4	0.025241263
59	0xbd2d2a5c	-0.042276725
60	0xbb916522	-0.004437105
61	0xbd7810c9	-0.060562883
62	0xbdfbf4e4	-0.123025686
63	0xbdc9f26b	-0.09860691
64	0xbd076985	-0.033059616
65	0xbc717a8f	-0.014738693
66	0x3d21733e	0.039416544
67	0xbd9216f0	-0.07133281
68	0xbd1ff2c5	-0.039049882
69	0x3bfa9f02	0.0076483497
70	0x3c48837d	0.0122383805
71	0x3cf060b4	0.029342987
72	0x3cc00a37	0.02344237
73	0x3de5453e	0.111948475
74	0x3dcf50fd	0.10122869
75	0xbc492d7a	-0.012278909
76	0x3c48a73b	0.012246902
77	0xbddc5969	-0.10759241
78	0x3d69c8f3	0.057076406
79	0xbd931535	-0.07181779
80	0x3c10634d	0.008812738
81	0xbd8b50c2	-0.06802513
82	0xb8075a85	-3.227081e-05
83	0x3d7a2023	0.061065804
84	0x3cc1817b	0.023621311
85	0x3df5e985	0.12007431
86	0x3d4d336e	0.050097875
87	0x3b70df41	0.0036754163
88	0x3ce7fa7d	0.028317684
89	0xbc5644b1	-0.013077901
90	0xbcc743ad	-0.024324263
91	0xbc8c30e7	-0.017113162
92	0x3dcd8482	0.100350395
93	0x3d3469ad	0.044046093
94	0xbc8a50c3	-0.016884213
95	0xbd3f4951	-0.04670078
96	0x3daf9428	0.085731804
97	0xbaabd3cf	-0.0013109389
98	0x3d804283	0.06262686
99	0x3c110a0f	0.008852496
100	0x3d3e5145	0.046464223
101	0x3c937309	0.017999189
102	0xbd573e6d	-0.05254977
103	0xbcae7157	-0.021294279
104	0xbbd369e0	-0.0064518303
105	0x3ba97ebe	0.0051725795
106	0xbd848875	-0.064713396
107	0x3d5fb640	0.054617167
108	0xbc53d334	-0.012928773
109	0x3d06caf4	0.032908395
110	0x3d2ba82e	0.041908436
111	0x3d75ba5a	0.05999217
112	0x3cab9b59	0.020948099
113	0x3cba99ad	0.022778356
114	0x3de278d7	0.110582046
115	0xbd86e648	-0.065868914
116	0xbd38e608	-0.04514125
117	0x3dcdead6	0.10054557
118	0x3c5b9b0b	0.013403664
119	0xbd42ba96	-0.047541223
120	0xbc208acf	-0.00979872
121	0xbcb0bd87	-0.021574749
122	0x3cedda7e	0.02903485
123	0x3ce3a4e8	0.027788594
124	0xbcdf4800	-0.027256012
125	0x3d7f82c6	0.062380575
126	0x3d947f33	0.07250824
127	0x3e1e4dbc	0.15459341

critic.4.weight f4 [1, 128]
0	0x3eb14f28	0.34630704
1	0xbe4563af	-0.19276308
2	0x3e317e81	0.17333414
3	0xbe21e351	-0.1580937
4	0x3c7655a3	0.015035066
5	0xbe2c9d56	-0.16856894
6	0xbda6e0c3	-0.08148339
7	0xbebb0914	-0.36530364
8	0x3e99bffc	0.30029285
9	0xbe13abce	-0.14421007
10	0xbf511d0a	-0.81684935
11	0xbf13daab	-0.57755536
12	0xbdec3a8c	-0.115346044
13	0x3e274dfd	0.16338344
14	0x3f2dfe3f	0.67966074
15	0xbf20f634	-0.62875676
16	0x3f0bef8b	0.5466239
17	0x3da96def	0.08272921
18	0x3ebd5643	0.36979875
19	0x3e0f0c8d	0.13969631
20	0x3f253a16	0.6454176
21	0x3e3fa4a1	0.18715145
22	0x3ec150e9	0.37757042
23	0xbeb7ddc2	-0.35911375
24	0x3e9e8463	0.30960378
25	0x3e8c7b59	0.27437857
26	0x3e6f68a5	0.23379762
27	0xbe9a6c30	-0.30160666
28	0xbdb93896	-0.09043996
29	0x3e5b8bb2	0.21440008
30	0x3f12c737	0.5733523
31	0x3ea78c8b	0.32724413
32	0x3e1fb74c	0.15597266
33	0xbef8b9be	-0.4857921
34	0x3f4fc32d	0.8115719
35	0x3e855128	0.2603848
36	0x3e173027	0.14764462
37	0xbec1005f	-0.37695596
38	0xbe1b4df3	-0.15166454
39	0x3f66b14b	0.9011428
40	0x3e8a8be3	0.2705985
41	0x3f32111b	0.6955735
42	0x3e4d14fa	0.20027533
43	0x3ef1d51e	0.47232908
44	0x3e0f9b83	0.14024167
45	0x3ea1a182	0.31568533
46	0xbe7ac829	-0.24490418
47	0x3f205883	0.6263506
48	0x3f754ba6	0.95818555
49	0xbe7ccdd0	-0.24687886
50	0x3f79b6cf	0.9754457
51	0x3f5c7f31	0.8613158
52	0xbee6593e	-0.4498996
53	0x3e22872c	0.15871876
54	0x3f006a03	0.5016176
55	0xbf1e5d93	-0.6186153
56	0x3f0af0c3	0.54273623
57	0x3f076f1b	0.5290391
58	0x3eef3765	0.4672195
59	0x3f47e0b5	0.7807725
60	0xbe41eadd	-0.1893725
61	0x3c02206d	0.007942301
62	0x3f758f83	0.95922107
63	0x3f4f3edc	0.8095529
64	0x3e3ce92f	0.18448327
65	0x3e8ce137	0.27515575
66	0xbe8ede1f	-0.2790384
67	0x3f32cae6	0.6984085
68	0x3ee50d25	0.4473659
69	0x3eedd9f7	0.46455356
70	0x3ef17167	0.47156832
71	0xbd5f20b0	-0.054474533
72	0x3e65c221	0.22437336
73	0x3f115de3	0.56783885
74	0x3f38a69b	0.7212922
75	0x3f942c49	1.1576015
76	0x3f0e073d	0.55479795
77	0xbedd5996	-0.4323241
78	0xbee37bbf	-0.44430348
79	0x3ec87447	0.39151213
80	0xbd8c4caf	-0.06850564
81	0x3ccb5bc3	0.024824029
82	0x3f610226	0.87893903
83	0xbe650bab	-0.22367732
84	0x3ee77f42	0.45214278
85	0x3f0ca38f	0.5493707
86	0x3f988217	1.19147
87	0x3ee68080	0.45019913
88	0xbd163fa4	-0.036681786
89	0xbe3487d6	-0.17629942
90	0x3d7212a1	0.059099797
91	0xbddfb579	-0.10923285
92	0xbf3dc09b	-0.7412202
93	0xbef1fd64	-0.47263634
94	0xbe7b4097	-0.24536358
95	0xbf7b1a4e	-0.9808701
96	0xbed89351	-0.42299893
97	0xbde87fa7	-0.11352473
98	0x3f144dcf	0.57931226
99	0xbf238d3f	-0.638874
100	0x3f896f46	1.0737083
101	0xbd199cc2	-0.03750301
102	0xbe46fcbf	-0.19432352
103	0x3e3f46d7	0.18679367
104	0x3e69194d	0.22763558
105	0xbe9675ed	-0.29386845
106	0x3e2be2f3	0.16785793
107	0xbef31c89	-0.47482708
108	0x3e86650b	0.26248965
109	0x3e9b26ec	0.30303133
110	0x3f0cc8d6	0.5499395
111	0x3eb40ff5	0.35168424
112	0xbe600ede	-0.21880671
113	0x3cc2e708	0.023791805
114	0x3fc0848f	1.5040454
115	0xbf6e7447	-0.93146175
116	0xbf0562fd	-0.5210417
117	0x3ee5ec5b	0.44906887
118	0xbf22b2c4	-0.63554025
119	0x3fc38be9	1.5277072
120	0x3f0d1a2c	0.5511806
121	0x3d13eb2b	0.036112946
122	0xbe4fae02	-0.20281222
123	0xbf79d4d4	-0.97590375
124	0xbc9d38a4	-0.019192047
125	0x3f9caf17	1.2240933
126	0xbe1ce40b	-0.15321366
127	0xbeb66a15	-0.3562781

actor.0.weight f4 [256, 48]
0	0xbc027f3d	-0.007964906
1	0x3dbfc58e	0.093638524
2	0xbdecd405	-0.11563877
3	0x3da4b289	0.080418654
4	0x3d2c56f5	0.042075116
5	0xbdfdaaf1	-0.1238612
6	0x3d3720bf	0.044708963
7	0xbb6a9150	-0.003579218
8	0xbde44c27	-0.111473374
9	0x3e79d164	0.24396282
10	0xbd8bc4a7	-0.06824618
11	0x3d20ff5b	0.039306026
12	0x3d611569	0.05495206
13	0x3e200a86	0.15629014
14	0xbe18864b	-0.14894979
15	0xbd498c9d	-0.049206365
16	0xbd7fa2de	-0.06241118
17	0xbdab8ab2	-0.083760634
18	0x3d4cc75c	0.04999481
19	0xbd93f9e3	-0.072253965
20	0xbe36806f	-0.17822431
21	0x3d0e243c	0.034702525
22	0x3df5ee10	0.120082974
23	0x3b56d5fd	0.0032781356
24	0x3d07d6f5	0.033163983
25	0x3b178143	0.0023117817
26	0xbd0b11b6	-0.033952437
27	0xbd697f2f	-0.057006057
28	0x3aac867e	0.001316264
29	0xbd3e01c1	-0.04638839
30	0xbd044d93	-0.032300543
31	0xbe1913ea	-0.14949003
32	0xbd940ea6	-0.072293565
33	0x3e0fe255	0.14051183
34	0xbdeb930c	-0.11502656
35	0x3d294c48	0.041332513
36	0x3da259c9	0.079272814
37	0x3d8a38be	0.06749104
38	0xbdcc5f21	-0.09979082
39	0xbe09df0d	-0.13463993
40	0x3dcdf90e	0.10057269
41	0xbe1416d6	-0.14461836
42	0x3d916e56	0.07101123
43	0xbe089875	-0.13339408
44	0xbe855eda	-0.26048928
45	0x3ded1f93	0.11578288
46	0xbe1c79ae	-0.15280792
47	0x3e48669b	0.19570391
48	0x3dc1f571	0.09470642
49	0x3e7f5a20	0.24936724
50	0x3deeb0d7	0.11654823
51	0xbe1532b2	-0.1457012
52	0x3d7035f7	0.058645215
53	0x3db5345d	0.08847878
54	0xbcef00fd	-0.029175276
55	0xbc722a47	-0.0147805875
56	0xbcf69263	-0.0300991
57	0xbd30701e	-0.043075673
58	0xbd38437a	-0.044986226
59	0xbcc2e2bf	-0.023789762
60	0x3d288db9	0.041150782
61	0x3e841988	0.2580073
62	0x3e2543e2	0.16139176
63	0x3cd54a9b	0.026036551
64	0xbdeb2bb7	-0.11482947
65	0xbe145878	-0.14486873
66	0xbd6043ed	-0.05475228
67	0x3d6bf3a0	0.057605386
68	0x3d4bf83b	0.049797278
69	0xbd37fc5d	-0.044918407
70	0xbe1953fa	-0.14973441
71	0x3daf7ed3	0.08569112
72	0x3e1ad802	0.15121463
73	0x3e5c0fa5	0.21490343
74	0x3e9d51d7	0.307265
75	0x3c427fa9	0.011871257
76	0xbd037378	-0.03209254
77	0xbd820e8c	-0.06350431
78	0x3d3b8a32	0.04578609
79	0x3d3d142a	0.046161808
80	0xbd21a8d8	-0.039467663
81	0x3d9d78d4	0.07689062
82	0xbe3b0184	-0.18262297
83	0xba559a8a	-0.0008148333
84	0x3e877b44	0.26461232
85	0x3e4ee113	0.20203047
86	0x3d8b5401	0.06803132
87	0xbe49de04	-0.19713598
88	0xbe204028	-0.15649474
89	0x3c8d3e5d	0.017241651
90	0x3c8c02cb	0.017091176
91	0x3bf3e6fb	0.0074433065
92	0xbdac81ed	-0.08423219
93	0x3e18910d	0.14899082
94	0xbdae4fc6	-0.08511309
95	0x3e16127c	0.14655489
96	0xbe2bc839	-0.16775598
97	0x3b7af389	0.003829213
98	0xbe0668b4	-0.13125879
99	0x3d067b97	0.03283271
100	0x3e2c7526	0.16841564
101	0x3e1d6f7f	0.15374564
102	0xbd8f88e7	-0.07008534
103	0x3db87780	0.09007168
104	0x3dd41e13	0.10357299
105	0xbdcd6b89	-0.10030276
106	0x3d2d49f6	0.042306863
107	0xbd914947	-0.07094055
108	0xbe64e90d	-0.22354527
109	0xbd8725a1	-0.06598974
110	0xbdbb551a	-0.09147091
111	0xbe3b8d37	-0.18315588
112	0x3e01f22c	0.12690037
113	0x3e041a19	0.1290058
114	0x3dc4df6c	0.09612927
115	0xbd31050f	-0.043217715
116	0x3e0005b9	0.12502183
117	0xbd5a8230	-0.053346813
118	0x3e08acc2	0.13347152
119	0xbc9c4844	-0.019077428
120	0xbd8251b7	-0.06363242
121	0xbde51e63	-0.111874364
122	0x3d405fec	0.04696648
123	0xbda2bf28	-0.079466164
124	0x3e0661ba	0.13123217
125	0x3d251283	0.040300857
126	0xbc81fd31	-0.015867801
127	0xbd9421a0	-0.07232976
128	0x3e66f982	0.22556117
129	0xbe901eba	-0.28148443
130	0xbd9714ae	-0.07376991
131	0xbe38062b	-0.17971103
132	0xbdb8995b	-0.09013625
133	0x3d612350	0.054965317
134	0xbdb97982	-0.09056379
135	0x3d967ea4	0.073483735
136	0x3d1973ee	0.037464075
137	0x3c0d2745	0.00861532
138	0x3d98b22c	0.074558586
139	0xbd4c3e3f	-0.04986405
140	0x3db1b674	0.08677378
141	0xbe40938a	-0.18806282
142	0x3dc4bd03	0.096063636
143	0xbe3745dc	-0.17897743
144	0xbe66c8f8	-0.22537601
145	0xbd704b21	-0.0586654
146	0x3e1033b0	0.14082217
147	0x3cfbaa26	0.030720782
148	0x3d91e203	0.071231864
149	0xbdac267f	-0.0840578
150	0xbc9a1136	-0.018807035
151	0xbd85568f	-0.0651065
152	0x3e0ac5de	0.13552043
153	0xbddeb930	-0.108751655
154	0xbe07ca88	-0.13260853
155	0x3dcbb226	0.099460885
156	0xbe543c28	-0.20726073
157	0x3d4888de	0.04895865
158	0x3c3fef1e	0.011714725
159	0xbe1b36b6	-0.1515759
160	0xbc65548e	-0.01399721
161	0x3e104e34	0.14092332
162	0x3d4db1f6	0.050218545
163	0xbdfa51a8	-0.12222606
164	0xbd8826e6	-0.06648044
165	0xbdd5aa34	-0.10432854
166	0x3d40846a	0.04700128
167	0x3e754513	0.23952131
168	0xbe0ee837	-0.1395577
169	0xbb3603a7	-0.0027773173
170	0x3ddcee78	0.10787672
171	0x3d8e4be1	0.069480665
172	0xbd9878a7	-0.074448876
173	0x3db0c538	0.086313665
174	0xbd369ab2	-0.044581123
175	0x3d7b498f	0.061349448
176	0x3e03952a	0.1284987
177	0x3d34dac1	0.044153932
178	0x3e0bc659	0.13649882
179	0x3e281ad1	0.1641648
180	0xbdec57c1	-0.11540175
181	0x3dbd09de	0.09230398
182	0xbdbec715	-0.09315316
183	0x3ab8aa99	0.0014088928
184	0xbd5bb66d	-0.05364077
185	0x3a271673	0.00063738896
186	0x3d86f7f6	0.065902635
187	0x3d70bba5	0.0587727
188	0x3e10bb0b	0.14133851
189	0x3d828656	0.06373279
190	0x3dc33bc7	0.09532886
191	0x3ea38689	0.3193858
192	0x3d6e9ba6	0.058253907
193	0xbdc6c0c6	-0.09704737
194	0x3db52f63	0.08846929
195	0x3df09450	0.11747038
196	0xbdffcff8	-0.12490839
197	0x3d99d54c	0.07511386
198	0x3d024ec7	0.03181341
199	0xbd63316f	-0.055467065
200	0x3d673223	0.0564443
201	0xbde378c1	-0.11107016
202	0xbc8b3a6e	-0.016995635
203	0xbcd27020	-0.025688231
204	0x3de59321	0.11209703
205	0xbe167d22	-0.14696172
206	0xbc366968	-0.011133529
207	0x3e0bd914	0.13657027
208	0x3d9a4098	0.075318515
209	0xbdc09447	-0.09403282
210	0x3cc2e024	0.02378852
211	0x3d96a005	0.0735474
212	0xbca498d4	-0.020092405
213	0xbd956dcb	-0.07296332
214	0x3c35fd6d	0.011107785
215	0x3ceda9be	0.029011603
216	0xbd5a8fa0	-0.053359628
217	0x3c6ff716	0.014646312
218	0xbd298b5f	-0.04139268
219	0xbc4c0873	-0.012453186
220	0xbe162542	-0.1466265
221	0xbe151ef0	-0.14562583
222	0x3ca31729	0.019908505
223	0x3d184382	0.037173755
224	0xbdabb994	-0.083850056
225	0xbe1b7e3a	-0.1518487
226	0x3ce6468a	0.028109808
227	0xbc75045b	-0.014954652
228	0xbbcbb5e0	-0.0062167495
229	0x3df2bc6e	0.11852346
230	0x3e03a33d	0.12855239
231	0x3d819474	0.06327143
232	0xbc9e9493	-0.019357955
233	0x3d001a61	0.031275157
234	0x3d284b53	0.04108746
235	0xbe05d58a	-0.1306974
236	0x3dc7a1bf	0.097476475
237	0xbc5f17a2	-0.013616474
238	0x3dbe06b9	0.09278626
239	0x3dd9bf33	0.106321715
240	0x3ca12f69	0.019675927
241	0x3ddbbc69	0.10729296
242	0x3e0c1ea0	0.13683558
243	0x3c809b22	0.015698973
244	0x3d8253f1	0.06363667
245	0xbd131a32	-0.035913654
246	0xbc34e859	-0.011041724
247	0xbe0db7d4	-0.13839656
248	0x3dc15386	0.09439759
249	0xbd8f9f3c	-0.070127934
250	0x3d92d183	0.071688674
251	0x3b9f0456	0.004852812
252	0x3d3d060d	0.04614835
253	0xbc1137fe	-0.008863447
254	0xbd181666	-0.037130736
255	0xbe15a534	-0.14613801

actor.0.bias f4 [256]
0	0xbdc616be	-0.096723065
1	0x3e25d028	0.16192687
2	0xbdebe007	-0.11517339
3	0xbd4db618	-0.050222486
4	0xbdc69591	-0.09696496
5	0xbd049cfd	-0.03237628
6	0x3d1a226d	0.037630487
7	0x3dccd7a2	0.10002066
8	0xbdbcea5e	-0.092243895
9	0xbdad1186	-0.08450608
10	0x3ddd0441	0.10791827
11	0x3d7951f0	0.060869157
12	0x3e105cf5	0.1409796
13	0x3dec19af	0.11528336
14	0xbd5e9f3f	-0.054351088
15	0xbd59f7fd	-0.053215016
16	0xbe3f4eff	-0.18682478
17	0xb8feba62	-0.0001214638
18	0x3c70201d	0.014656094
19	0xbdbabad3	-0.09117665
20	0xbe06e1f7	-0.13172136
21	0xbdfa9e52	-0.122372285
22	0xbd6e7030	-0.05821246
23	0xbe165209	-0.14679731
24	0xbe1955e0	-0.14974165
25	0x3d4f28bb	0.050575953
26	0xbd883e33	-0.066524886
27	0x3dbd0559	0.092295356
28	0x3d7e56f0	0.06209463
29	0xbe4bd07d	-0.1990375
30	0x3ca42e62	0.020041648
31	0x3d552d62	0.052045234
32	0xbd9036a8	-0.07041675
33	0x3cdcc8cd	0.026951218
34	0xbd3e6195	-0.04647978
35	0x3d91d230	0.07120168
36	0xbe0d90ae	-0.13824722
37	0x3b00cc9f	0.0019653214
38	0x3d2bfe2a	0.041990437
39	0x3d4d1409	0.050067935
40	0xbde55916	-0.111986324
41	0xbc73dbb6	-0.014883926
42	0xbd1492a7	-0.03627267
43	0x3bc38f35	0.0059679993
44	0x3d6256b0	0.055258453
45	0x3e22a3f7	0.1588286
46	0x3db05bfe	0.08611296
47	0xbdb4fbc2	-0.088370815
48	0x3ddbb707	0.10728269
49	0x3dcca324	0.09992054
50	0x3d98844e	0.0744711
51	0xbc190734	-0.009340096
52	0xbd8e0731	-0.069349654
53	0x3e2b8691	0.16750552
54	0xbda44176	-0.08020298
55	0xbdee7efc	-0.11645314
56	0xbe2ec18b	-0.17066018
57	0xbd5a09d9	-0.053232048
58	0x3df2222b	0.11822923
59	0xbdde7389	-0.1086188
60	0x3e073000	0.13201904
61	0xbb81598c	-0.0039474424
62	0xbcb7daf2	-0.022443268
63	0xbc7db74c	-0.015485596
64	0x3e0c63e0	0.13709974
65	0xbe47f204	-0.19525915
66	0x3e0f3973	0.13986759
67	0xbe00a4bb	-0.1256284
68	0x3d3d4c54	0.04621537
69	0xbd32d384	-0.04365875
70	0xbddad9ff	-0.10686111
71	0xbd310a87	-0.04322293
72	0xbbed4d24	-0.007241862
73	0xbc522673	-0.01282655
74	0xbcd8e71d	-0.02647739
75	0xbd3bfcbd	-0.045895327
76	0x3e0aa18f	0.13538192
77	0x3dd2fed9	0.103025146
78	0x3e1fdf69	0.15612568
79	0x3d65f796	0.05614432
80	0x3d68689e	0.056740396
81	0x3d529c74	0.051418737
82	0x3d9a6d14	0.07540336
83	0xbb1f075e	-0.0024265866
84	0x3d913cbc	0.07091662
85	0x3d834bb1	0.06410921
86	0x3daffbe4	0.08592966
87	0xbdc48992	-0.09596552
88	0xbe00c164	-0.12573773
89	0xbd64ed1d	-0.05589019
90	0x3d743022	0.059616216
91	0x3c03696a	0.008020738
92	0xbd412395	-0.047153074
93	0x3d89e499	0.06733055
94	0xbd3b0d5b	-0.045667034
95	0xbcd96a21	-0.026539864
96	0x3d9b42a3	0.07581069
97	0x3dbeb46f	0.09311759
98	0x3ddd8b63	0.108176015
99	0xbe348ae8	-0.17631114
100	0x3d417544	0.047230974
101	0x3e03a5db	0.12856238
102	0xbda6186e	-0.08110128
103	0xbdac6e0a	-0.08419426
104	0x3cc19cf5	0.023634413
105	0x3d9b418d	0.07580862
106	0x3d932f0d	0.071867086
107	0xbd072f29	-0.03300396
108	0x3e575127	0.21027051
109	0x3d302d9f	0.043012258
110	0xbd859e6a	-0.06524356
111	0x3d2ba554	0.041905716
112	0x3e135388	0.14387333
113	0x3cc84174	0.024445273
114	0xbcc43b82	-0.023954157
115	0x3d3a241b	0.04544459
116	0xbd8e6272	-0.06952371
117	0xbd84f4c8	-0.06492001
118	0x3e043f53	0.12914781
119	0xbe094fd8	-0.13409364
120	0x3d9488be	0.07252644
121	0xbd1af6ad	-0.037832905
122	0x3d4c6680	0.04990244
123	0xbd631ae1	-0.055445556
124	0xbb418ad3	-0.0029532209
125	0x3e014427	0.12623654
126	0x3c082fc5	0.00831217
127	0xbdb2a83a	-0.08723493
128	0x3d742694	0.059607103
129	0xbe1e1687	-0.15438281
130	0x3de0355a	0.10947676
131	0x3de43284	0.111424476
132	0xbd7c7112	-0.06163127
133	0xbaa882b8	-0.001285634
134	0xbc765aa4	-0.015036259
135	0x3cdbb349	0.026818888
136	0xbd812b66	-0.06307106
137	0x3e3d34c2	0.18477157
138	0x3d8abd7d	0.06774423
139	0x3e231aa2	0.15928128
140	0xbdad3473	-0.084572695
141	0xbd98e62e	-0.07465778
142	0x3d2a9725	0.04164805
143	0x3d7f45a5	0.062322278
144	0x3d02ae63	0.03190459
145	0x3d53885c	0.051643714
146	0x3e1f7fc3	0.15576081
147	0x3e2e8d49	0.17046084
148	0x3cfb1f53	0.030654585
149	0xbd96271b	-0.073316775
150	0x3d8e7ad2	0.0695702
151	0x3d8c37a6	0.068465516
152	0xbe01a7f8	-0.12661731
153	0x3da03090	0.078217626
154	0xbd4e2d3c	-0.050336108
155	0xbd8923c6	-0.06696276
156	0xbd3513ff	-0.044208523
157	0xbce7bed0	-0.028289229
158	0x3e55ab37	0.20866095
159	0xbd9b7f8c	-0.07592687
160	0x3e3c2f70	0.18377471
161	0x3cfd59ca	0.030926604
162	0x3bcc32db	0.0062316484
163	0x3e149f4f	0.14513896
164	0xbdd32789	-0.10310275
165	0xbba69a30	-0.0050842986
166	0xbdf9108c	-0.12161359
167	0xbc29dc76	-0.010367503
168	0x3e354ebf	0.1770582
169	0xbd38a08a	-0.045074977
170	0xbe12871c	-0.14309353
171	0xbc8642af	-0.01638922
172	0xbba9289d	-0.005162312
173	0x3d4da368	0.050204664
174	0x3ccd2f7a	0.025047053
175	0xbd30260f	-0.043005046
176	0x3e3447fe	0.17605588
177	0x3db891ea	0.09012206
178	0xbdb32dfb	-0.087490045
179	0xbd8472ca	-0.06467207
180	0xbdbb8bca	-0.09157522
181	0xbd964b5a	-0.07338591
182	0x3cbc72b9	0.023003923
183	0xbdbe9bc1	-0.093070515
184	0x3b842672	0.0040329034
185	0xbd644561	-0.055730227
186	0xbdcfa740	-0.10139322
187	0x3df56b00	0.11983299
188	0x3d61c96c	0.05512373
189	0x3aa36a5f	0.0012467614
190	0x3c742479	0.014901274
191	0xbdcc4056	-0.099732086
192	0xbdfa8979	-0.12233252
193	0x3d1fedf2	0.03904528
194	0xbdfe6052	-0.124207154
195	0x3b1ed4b4	0.0024235668
196	0x3c9ef9c7	0.019406212
197	0x3d55f629	0.05223671
198	0x3e0f4e21	0.13994648
199	0x3a86bf45	0.0010280391
200	0xbe1cb421	-0.15303089
201	0x3e6b6f19	0.22991599
202	0x3d73930a	0.0594664
203	0x3e2eb7f3	0.17062359
204	0xbc9fac82	-0.019491438
205	0x3e50c18a	0.2038633
206	0xbe1db4ad	-0.15400954
207	0x3e0b398b	0.1359617
208	0x3cbf0b11	0.023320707
209	0xbd71f5bd	-0.059072245
210	0x3d94c69f	0.072644465
211	0xbc815cd5	-0.015791336
212	0xbdd98d95	-0.10622708
213	0x3e3372c6	0.17524251
214	0xbdbc71ca	-0.09201391
215	0xbd625993	-0.055261206
216	0xbdf7b788	-0.12095553
217	0xbcc561a6	-0.024094414
218	0xbddff019	-0.10934467
219	0xbb45df43	-0.0030192889
220	0xbc072f26	-0.008250987
221	0x3da520e2	0.080629125
222	0x3d39f0a7	0.04539552
223	0x3cc2f76d	0.023799622
224	0xbd4f9191	-0.050675932
225	0x3d7da012	0.061920233
226	0xbd3f49b3	-0.046701144
227	0xbc8582e4	-0.016297765
228	0xbdca379f	-0.0987389
229	0xbd940a6d	-0.07228551
230	0x3d900167	0.070315175
231	0xbe211a71	-0.15732743
232	0xbdbbd0cc	-0.09170684
233	0xbd922afc	-0.07137105
234	0xbd3a10d1	-0.045426194
235	0xbda83d6a	-0.08214839
236	0xbbd32486	-0.006443563
237	0xbda4655b	-0.080271445
238	0x3de2165d	0.11039422
239	0xbd371f6b	-0.044707697
240	0xbc629616	-0.013829729
241	0x3cce72fd	0.025201315
242	0x3dfcc1b2	0.12341632
243	0x3dc59682	0.09647848
244	0x3e098658	0.13430154
245	0x3bf83a30	0.007575296
246	0xbcd9a620	-0.026568472
247	0x3d809b0a	0.06279571
248	0x3e5d7bbf	0.21629237
249	0x3dea81ff	0.11450576
250	0xbd802ae8	-0.06258184
251	0x3dd0ea77	0.102009706
252	0xbdc081cd	-0.093997575
253	0xbc8b96c7	-0.01703967
254	0x3d5abf45	0.053405065
255	0x3e37e09f	0.1795678

actor.2.weight f4 [128, 256]
0	0x3cefd00d	0.029274011
1	0xbdd6f59b	-0.10496064
2	0xbdb02d83	-0.08602431
3	0xbe4042c2	-0.18775466
4	0xb9943300	-0.00028266758
5	0xbdf33a73	-0.11876383
6	0x3e0bf221	0.13666584
7	0x3e0194e8	0.1265446
8	0x3dbf57c4	0.09342912
9	0x3bc83615	0.0061099627
10	0x3c9b4554	0.018953957
11	0xbe07529d	-0.13215108
12	0xbc6525d4	-0.01398607
13	0x3e6802a7	0.22657262
14	0x3da4dcc8	0.08049923
15	0x3dab938d	0.083777525
16	0x3d90f032	0.070770636
17	0xbac24e50	-0.0014824364
18	0xbec1feb2	-0.3788963
19	0x3ae5ed84	0.0017542099
20	0x3d0c7d79	0.034299348
21	0x3e17bff6	0.14819321
22	0x3c6d98f2	0.014501797
23	0x3e0b3b21	0.13596775
24	0x3d903a34	0.07042351
25	0x3d307c2c	0.04308717
26	0x3d90c8ee	0.07069574
27	0xbd223437	-0.039600577
28	0xbc8343ab	-0.016023478
29	0x3d262d1e	0.04057037
30	0xbc3a101a	-0.011356378
31	0xbe05116e	-0.1299493
32	0xbe4781c7	-0.194831
33	0xbd9b4a37	-0.07582515
34	0xbe1e28be	-0.1544523
35	0x3e279cd3	0.16368417
36	0xbc88aeb2	-0.016684864
37	0xbc8a04cb	-0.016847989
38	0xbe607001	-0.21917726
39	0x3e836c84	0.25668728
40	0xbbd9b2ce	-0.0066436296
41	0xbdcbf68e	-0.09959136
42	0x3de85c6d	0.11345754
43	0x3d1eb943	0.038750898
44	0xbbcaabc3	-0.0061850264
45	0xbe81903d	-0.25305358
46	0x3e05f2da	0.13080922
47	0xbd8a0c9a	-0.06740685
48	0x3d954102	0.0728779
49	0xbdf73b4a	-0.12071855
50	0xbe033ba7	-0.12815724
51	0xbdff4a80	-0.124653816
52	0xbdad4083	-0.0845957
53	0xbe13fb5b	-0.14451353
54	0xbe0a3cb9	-0.13499726
55	0xbde13636	-0.10996668
56	0x3dcb4187	0.09924608
57	0x3d8fbe54	0.07018724
58	0x3d71b4ad	0.059010196
59	0xbd8e3c99	-0.06945152
60	0xbdeaa3f5	-0.114570536
61	0x3dfcbd64	0.12340811
62	0x3e4cd01e	0.20001265
63	0xbdb6e32f	-0.089300506
64	0xbd1220e0	-0.035675883
65	0x3de5c1ec	0.11218628
66	0x3e014a04	0.12625891
67	0x3b986e26	0.0046518026
68	0x3e942132	0.28931576
69	0xbbad2583	-0.0052840128
70	0xbddd8916	-0.10817163
71	0x3d88b391	0.066748746
72	0xbc5052ee	-0.0127150845
73	0x3cb5b1ac	0.022179447
74	0xbdca90ce	-0.098909006
75	0x3c5de050	0.01354225
76	0xbd636f2e	-0.05552595
77	0x3e02c289	0.12769522
78	0xbcc77e09	-0.02435209
79	0xbd737697	-0.059439268
80	0xbe04727e	-0.129343
81	0x3d1e9db1	0.038724605
82	0xbe230b42	-0.15922263
83	0x3d93b249	0.072117396
84	0x3cf22e30	0.02956304
85	0xbcd6c8b7	-0.026218755
86	0x3e013135	0.12616427
87	0xbd914c3c	-0.07094619
88	0x3cfa60ce	0.030563738
89	0x3d88cf4f	0.06680166
90	0x3d6d1e84	0.05789043
91	0xbcb6589e	-0.022259053
92	0x3dfc44a6	0.12317781
93	0xbead57cb	-0.33856043
94	0xbd62311e	-0.055222623
95	0xbb6f303e	-0.003649726
96	0x3cb7e2b6	0.022446971
97	0xbe59b1d7	-0.21259247
98	0x3e441da1	0.19151928
99	0xbe171571	-0.14754273
100	0x3b9b5163	0.0047399267
101	0xbe2556f1	-0.16146447
102	0x3d3bfe9c	0.04589711
103	0xbd9dc1ea	-0.07703002
104	0xbcfd77ae	-0.030940857
105	0x3db7f3a7	0.0898202
106	0xbdec9e73	-0.11553659
107	0xbd3455b5	-0.04402705
108	0xbda3404a	-0.079712465
109	0xbe06558e	-0.13118574
110	0x3ddbd21c	0.107334346
111	0xbb679d1e	-0.0035341452
112	0x3ddb3ecc	0.10705337
113	0x3d95b682	0.07310201
114	0x3d53aaed	0.05167668
115	0xbd3224a9	-0.043491993
116	0xbe92a6da	-0.28642923
117	0x3e14b656	0.1452268
118	0x3e3ef2e1	0.18647338
119	0xbd2b4dc7	-0.04182222
120	0x3c986508	0.018602863
121	0x3e20b205	0.15692909
122	0x3d453067	0.048141863
123	0xbb6846bc	-0.0035442552
124	0xbd5d4787	-0.054023292
125	0x3d8f901f	0.07009911
126	0xbc3502c5	-0.011048024
127	0x3dadfbc9	0.0849529
128	0x3d3f49ac	0.04670112
129	0xbc7e5ef7	-0.015525571
130	0xbdd7c04f	-0.10534727
131	0x3caed4db	0.021341732
132	0xbe127d1b	-0.14305536
133	0xbe022169	-0.12708057
134	0xbe98b292	-0.29823738
135	0xbd4d6c68	-0.050152212
136	0x3e052f78	0.13006389
137	0x3da88e8c	0.08230314
138	0x3d4d045e	0.050052993
139	0xbd64e8b5	-0.05588599
140	0x3d4da856	0.050209366
141	0xbe05225e	-0.13001391
142	0x3e1fcb5f	0.15604924
143	0x3c1bff0b	0.009521256
144	0xbdfd55a1	-0.12369848
145	0x3e28e0c4	0.16491991
146	0xbd4b2b47	-0.04960182
147	0xbe2fa8dc	-0.17154258
148	0xbd05ac05	-0.032634754
149	0xbdc97fb0	-0.098388076
150	0x3e50da18	0.20395696
151	0xbeb438f6	-0.35199708
152	0x3a7b2ce4	0.00095815794
153	0x3db7876c	0.089613765
154	0xbda6f408	-0.08152014
155	0xbd141583	-0.036153328
156	0x3d7eb13e	0.06218075
157	0xbd6aa7f9	-0.057289097
158	0xbd13c1c9	-0.03607348
159	0x3e6abe93	0.22924261
160	0xbdf60e2a	-0.1201442
161	0x3dc6ab76	0.09700672
162	0x3de7f37e	0.11325739
163	0xbd35c3e9	-0.044376288
164	0x3d8f5195	0.069979824
165	0xbcaf3433	-0.021387195
166	0x3d26b259	0.04069743
167	0x3defdf9b	0.11712571
168	0xbc022da7	-0.007945455
169	0xbe912fae	-0.2835669
170	0x3d1a96bb	0.037741404
171	0x3d080616	0.03320893
172	0xbebb9c3e	-0.3664264
173	0x3d978fa2	0.07400443
174	0xbe1e05ce	-0.15431902
175	0x3e43a940	0.19107533
176	0xbcee8e11	-0.029120477
177	0xbe068d79	-0.13139905
178	0xbdbd8027	-0.09252959
179	0xbd161ea5	-0.03665032
180	0x3d37a00d	0.04483037
181	0x3c82d6d6	0.015971582
182	0x3d74c4e5	0.059758086
183	0xbd8711e7	-0.065952115
184	0x3ccc7821	0.024959626
185	0x3d298a1f	0.04139149
186	0xbd848b3a	-0.06471868
187	0xbd318dab	-0.043347996
188	0x3e5d6f5c	0.21624511
189	0xbd4de9b9	-0.050271723
190	0x3d76f494	0.06029184
191	0xbc8dd5f0	-0.017313927
192	0xbdccac0b	-0.09993752
193	0xbe1246d6	-0.14284834
194	0xbd13ffee	-0.036132745
195	0x3d60cd41	0.054883245
196	0xbe0f3bd3	-0.13987665
197	0xbea79288	-0.32728982
198	0xbe09f201	-0.13471223
199	0xbe7316e2	-0.23739198
200	0xbb12bfd6	-0.0022392175
201	0xbeb6ebaa	-0.35726672
202	0x3d3cc321	0.046084527
203	0xbd53c784	-0.051703945
204	0xbc5d51b2	-0.013508247
205	0xbe712d60	-0.23552465
206	0xbd07828b	-0.03308348
207	0x3bf23ebd	0.007392733
208	0x3d55cced	0.052197386
209	0xbd1935de	-0.037404887
210	0xbe6fcd5f	-0.23418187
211	0xbe4dd645	-0.20101269
212	0x3dc9c264	0.0985153
213	0xbd9b21c2	-0.07574798
214	0x3cf3ad5b	0.029745748
215	0xbd54cebb	-0.051954966
216	0x3daa18d5	0.083055176
217	0x3e0a8bee	0.13529941
218	0x3d94f5de	0.07273458
219	0x3df40616	0.11915223
220	0x3d39c3e7	0.045352843
221	0x3d56c7e1	0.052436713
222	0x3d68da8a	0.05684904
223	0xbd9be771	-0.07612503
224	0x3d5aab42	0.05338598
225	0xbddc0c3a	-0.107445195
226	0xbc9fc0f8	-0.019501194
227	0x3dedecbd	0.1161742
228	0x3d922db5	0.07137624
229	0x3e0b3046	0.13592634
230	0x3db010b1	0.08596934
231	0x3dadb124	0.084810525
232	0xbe12c7d2	-0.14334038
233	0xbe52789d	-0.20553823
234	0x3dc7e677	0.097607546
235	0xbcf0bc6a	-0.029386718
236	0xbe62e896	-0.22159037
237	0x3dec2286	0.11530022
238	0xbe649f5f	-0.2232642
239	0xbda6a459	-0.081368156
240	0xbe061152	-0.13092545
241	0xbe98d8f0	-0.2985301
242	0x3d672ed6	0.05644115
243	0xbd52e5d9	-0.05148873
244	0xbe0ab0f1	-0.1354406
245	0xbd8944b3	-0.067025565
246	0x3e025410	0.1272738
247	0xbcbbec2b	-0.022939762
248	0xbe262a9c	-0.16227192
249	0x3c52cf86	0.01286686
250	0xbcf4cc2c	-0.029882513
251	0xbe333ccf	-0.17503665
252	0xbda8cff9	-0.08242793
253	0x3dc760f6	0.09735291
254	0xbd3a1248	-0.04542759
255	0xbcb3b639	-0.021937476
