CRL/模型集_selfplay/run_20260123-185640/slime_ppo_5M.pth (torch, 370495 bytes, 11 tensors)

critic.0.weight f4 [256, 48]
0	0xbe4a3ccf	-0.19749759
1	0xbce216ce	-0.027598765
2	0x3d7ad204	0.061235443
3	0x3d11c94f	0.035592373
4	0xbdbdd682	-0.0926943
5	0x3d5630dc	0.05229269
6	0x3b94fe23	0.004546897
7	0x3d6c8bd8	0.057750553
8	0xbe2a592a	-0.16635576
9	0xbee2fdea	-0.44334346
10	0xbdebf0a8	-0.11520511
11	0xbe177d78	-0.14793956
12	0xbe6e256e	-0.23256466
13	0xbc8ee17f	-0.01744151
14	0x3d514b72	0.05109734
15	0x3d0ff788	0.035148174
16	0xbe1e6ae6	-0.15470466
17	0x3c304232	0.01075797
18	0x3c567a74	0.013090719
19	0xbd8b5459	-0.068031974
20	0x3a763b1a	0.0009392962
21	0xbee279ef	-0.44233653
22	0xbdc1a0d7	-0.09454506
23	0xbe8e654f	-0.27811667
24	0x3b9c0523	0.0047613545
25	0x3d563a80	0.052301884
26	0x3ca40b8b	0.020025035
27	0x3dc6234d	0.09674702
28	0x3c8b5c18	0.017011687
29	0x3c8cc05b	0.017181566
30	0xbd0ff277	-0.035143342
31	0x3ca24029	0.019805985
32	0x3e0b1c11	0.13584925
33	0xbed75991	-0.4206052
34	0xbdbd3bd0	-0.09239924
35	0xbe76749c	-0.2406792
36	0xbe0975b1	-0.13423802
37	0x3dc95b6b	0.0983189
38	0x3cea01bc	0.02856528
39	0xbd924f5f	-0.07144045
40	0x3dd3aae3	0.103353284
41	0xbd4c1e4b	-0.049833577
42	0x3d0e4014	0.03472908
43	0xbd4e7f0a	-0.050414123
44	0x3dfd400d	0.12365732
45	0xbe9c928c	-0.30580556
46	0x3e4cfb52	0.20017746
47	0xbe4d2da7	-0.20036946
48	0x3d8aff8d	0.06787024
49	0xbc55ea30	-0.013056323
50	0xbd4fbfad	-0.050719906
51	0x3d2f75c7	0.04283693
52	0x3d1f31f0	0.038865983
53	0xbcfc64a3	-0.030809706
54	0xbd27108d	-0.04078727
55	0xbe103f13	-0.14086561
56	0xbdcfb26a	-0.10141452
57	0x3ca8b836	0.020595651
58	0xbda9b219	-0.082859226
59	0x3cef30a8	0.029198006
60	0x3d8b6951	0.06807197
61	0xbd551127	-0.05201831
62	0x3ca29d02	0.019850258
63	0xbd82119a	-0.063510135
64	0x3e3b7187	0.18305026
65	0xbd4deed9	-0.05027661
66	0x3b057917	0.0020366365
67	0x3d8d0622	0.06885935
68	0xbd6f47d3	-0.058418106
69	0x3e2fa119	0.17151298
70	0xbddba52a	-0.10724862
71	0x3d814342	0.063116565
72	0x3daf08de	0.08546613
73	0x3c83a051	0.016067656
74	0xbd78d8e9	-0.060753737
75	0xbde85569	-0.11344416
76	0xbd4e6d43	-0.05039717
77	0xbd6d0987	-0.057870414
78	0x3b2d10ff	0.0026407836
79	0x3c9cfd33	0.019163704
80	0x3e172670	0.14760756
81	0x3e766661	0.24062492
82	0x3d8b1caf	0.0679258
83	0x3d1bd6c3	0.03804661
84	0x3c8db660	0.017298877
85	0x3ddcc27e	0.10779284
86	0xbd51d50b	-0.051228564
87	0x3ce0a392	0.027421746
88	0xbda32195	-0.0796539
89	0xbd2680e7	-0.040650275
90	0xbd087fca	-0.033324994
91	0xbd26bdcf	-0.04070836
92	0x3cb630da	0.022240091
93	0x3eaf4e8d	0.34239617
94	0xbcd85f4a	-0.026412625
95	0x3e8c65d2	0.27421433
96	0x3def8f3b	0.11697241
97	0xbd004586	-0.031316303
98	0xbdbc277f	-0.09187221
99	0xbd39124e	-0.045183472
100	0x3d3bdc8b	0.045864623
101	0xbbede7b6	-0.007260288
102	0xbd4f5b01	-0.050623897
103	0xbdf2eb55	-0.11861292
104	0xbd8d1be0	-0.06890082
105	0xbe565446	-0.20930585
106	0x3e074e12	0.13213375
107	0x3e172918	0.1476177
108	0x3c2283d9	0.00991913
109	0xbd7bae8f	-0.06144577
110	0xbd1ed4ba	-0.03877709
111	0xbcf6c12b	-0.030121407
112	0xbdb4288b	-0.087967955
113	0x3cdd3791	0.027004035
114	0x3d08dd56	0.033414207
115	0x3da31ada	0.07964106
116	0x3e478c60	0.19487143
117	0xbd6e188c	-0.05812888
118	0xbd37a40e	-0.04483419
119	0xbe14d6cc	-0.14535064
120	0xbd4004a4	-0.046879426
121	0x3d9d791f	0.07689118
122	0xbd71a023	-0.05899061
123	0xbc3d8adf	-0.011568754
124	0x3d7ee29c	0.06222783
125	0xbd829f29	-0.06378014
126	0xbb8fe158	-0.0043908767
127	0xbd15ce6a	-0.036573805
128	0x3d4d1acd	0.050074387
129	0x3dba9e44	0.09112218
130	0xbde8ab0d	-0.1136075
131	0xbe1a083f	-0.15042208
132	0x3dc303c6	0.09522204
133	0xbe45239a	-0.19251862
134	0xbdee599f	-0.116381876
135	0xbcc35b3e	-0.023847219
136	0xbd6ea1ae	-0.05825966
137	0xbdf933da	-0.12168093
138	0x3d8bc361	0.06824375
139	0xbe138399	-0.1440567
140	0x3e1896aa	0.14901224
141	0x3dd8afd5	0.10580412
142	0xbe235b27	-0.1595274
143	0x3b5ae9f1	0.00334036
144	0x3e00aebf	0.1256666
145	0xbe0687af	-0.13137697
146	0xbd813ab7	-0.06310027
147	0xbd066250	-0.0328086
148	0xbb3fa181	-0.002924055
149	0x3dd541ae	0.10412918
150	0xbe077abd	-0.13230415
151	0xbda31fed	-0.07965074
152	0xbdc3715a	-0.095431045
153	0xbdd8b044	-0.10580495
154	0xbe36fef3	-0.17870693
155	0xbe03ca1f	-0.12870072
156	0xbc969384	-0.018380888
157	0xbe085e4c	-0.13317221
158	0xbdab72c0	-0.08371496
159	0xbd9f8e3b	-0.077908
160	0xbda94329	-0.08264763
161	0x3e2bda4f	0.16782497
162	0x3cd08fcd	0.025459195
163	0xbc48e008	-0.012260444
164	0x3ddcb20c	0.10776147
165	0xbd41814f	-0.04724246
166	0xbda3cefa	-0.07998462
167	0x3cc17fb7	0.02362047
168	0xbda2f343	-0.07956555
169	0xbd064f59	-0.032790516
170	0xbc96eb6c	-0.018422805
171	0xbe0c4008	-0.13696301
172	0x3d7217f7	0.059104886
173	0x3c0d670a	0.008630523
174	0x3d28e010	0.041229308
175	0x3dddc265	0.108280934
176	0xbda4a93d	-0.08040092
177	0x3dfced63	0.123499654
178	0xbd33ca23	-0.043893944
179	0xbc94cb7b	-0.018163433
180	0x3da2685b	0.079300605
181	0x3d366857	0.0445331
182	0xbd80ac64	-0.06282881
183	0x3dccc739	0.09998936
184	0x3d31b26b	0.043383043
185	0x3dd21316	0.102575466
186	0x3de851e8	0.113437474
187	0x3da82bad	0.082114555
188	0x3e225d7c	0.15855974
189	0x3e9be4d4	0.3044802
190	0x3dc75f82	0.097350135
191	0xbcaa2aa7	-0.020772291
192	0x3d71cfb7	0.059035983
193	0x3d4ca8f1	0.049965803
194	0x3c3a40e4	0.01136801
195	0xbdac2b2c	-0.08406672
196	0x3e7a8a54	0.2446683
197	0xbdd8a282	-0.10577871
198	0x3b818573	0.003952676
199	0xbdbf1bae	-0.09331451
200	0x3d854176	0.06506626
201	0xbd5894af	-0.05287617
202	0x3e5e3cfa	0.21702948
203	0xbd0ba921	-0.03409684
204	0xbe0ee657	-0.13955055
205	0x3d40b031	0.04704303
206	0xbc83abaf	-0.016073076
207	0x3cf528c7	0.02992667
208	0x3e742f06	0.23846063
209	0xbdf169ad	-0.11787734
210	0x3bcbfd4e	0.0062252646
211	0xbdd41d09	-0.103571005
212	0x3c97be5c	0.018523388
213	0x3dd08780	0.101820946
214	0x3e634c74	0.22197133
215	0x3da91aa0	0.082570314
216	0xbe0aaad7	-0.13541733
217	0x3d9a3e91	0.07531465
218	0x3cfcbc37	0.030851467
219	0x3d981cb9	0.074273534
220	0x3de5a397	0.11212843
221	0xbe0201d6	-0.12696013
222	0x3bc24cbf	0.005929559
223	0xbca80094	-0.020508088
224	0x3e21ba05	0.15793617
225	0x3c8e59ff	0.017376898
226	0x3e71ae38	0.23601615
227	0x3d882e34	0.066494375
228	0x3d7b2a36	0.061319552
229	0x3d34d8b8	0.04415199
230	0x3a87154a	0.0010306027
231	0x3c8922f2	0.016740296
232	0x3d8fea0a	0.07027061
233	0x3d51de1e	0.051237218
234	0x3ada0ef3	0.0016636535
235	0xbcf168f9	-0.029469
236	0x3d0cfd38	0.034421176
237	0x3d71309b	0.058884244
238	0x3eb5911e	0.35462278
239	0xbda91f8a	-0.08257969
240	0xbd702357	-0.058627453
241	0xbd4b03ba	-0.0495641
242	0xbdb87237	-0.0900616
243	0xbd5802a9	-0.052736912
244	0x3d7006b9	0.05860016
245	0xbe16e17b	-0.14734451
246	0x3b5c1732	0.0033583161
247	0x3d5904dc	0.05298315
248	0xbb98b5c0	-0.004660338
249	0x3e97d7b2	0.2965675
250	0x3d92db6e	0.07170759
251	0xbe0078fb	-0.1254615
252	0xbde401f9	-0.11133189
253	0xbd2f1dd8	-0.04275307
254	0xbdc9b48e	-0.09848891
255	0xbca5f203	-0.020257002

critic.0.bias f4 [256]
0	0x3e516946	0.20450315
1	0x3e51f217	0.20502506
2	0xbd059a42	-0.032617815
3	0x3b015a73	0.001973775
4	0xbd6049a1	-0.054757718
5	0xbe2d3a69	-0.16916813
6	0x3d159478	0.036518544
7	0x3d100fc7	0.035171296
8	0x3d8210f5	0.063508905
9	0x3b366eab	0.002783696
10	0x3e513a89	0.20432486
11	0x3e4c08d7	0.19925247
12	0x3e29a4fd	0.16566844
13	0x3e1de7b1	0.15420415
14	0x3e0211d5	0.12702115
15	0xbe2a1a44	-0.16611582
16	0xbdf8cc9b	-0.121484004
17	0x3e6ca3b0	0.23109317
18	0x3d38adf3	0.045087766
19	0x3e0173f2	0.12641886
20	0xbe19609a	-0.14978257
21	0xbcfba97b	-0.030720463
22	0xbdd780c7	-0.10522609
23	0x3d5c0840	0.053718805
24	0x3df4d1c0	0.11954069
25	0x3e374b71	0.17899872
26	0xbd99c350	-0.07507956
27	0x3d70fd9e	0.05883562
28	0xbd6d0775	-0.05786844
29	0xbdca43da	-0.09876223
30	0x3e48ab64	0.1959663
31	0x3d262a84	0.04056789
32	0xbe0ee3c1	-0.13954069
33	0x3dfa60f6	0.12225525
34	0x3ddc68a3	0.10762145
35	0xbdea7f59	-0.11450071
36	0x3e0368e9	0.12832989
37	0x3d552fb3	0.052047443
38	0x3ea473a5	0.3211948
39	0xbdca13f1	-0.09867085
40	0x3e20cfe3	0.15704302
41	0xbe12e912	-0.14346722
42	0xbdd4f4a9	-0.10398228
43	0x3e6dc3f8	0.23219287
44	0x3e2fa63d	0.17153259
45	0x3e59ed7a	0.21281996
46	0x3e058364	0.13038403
47	0xbdbfc2a3	-0.09363296
48	0x3c21f966	0.009886121
49	0x3e36bc1c	0.17845196
50	0xbe8fbce5	-0.28073803
51	0x3d948fac	0.07253966
52	0xbe2b65b5	-0.16738017
53	0xbe073b30	-0.13206172
54	0x3ea8fa8c	0.33003652
55	0xbd8682f1	-0.06567944
56	0xb9ff45b5	-0.00048689326
57	0xbe3cee79	-0.18450345
58	0xbee458b9	-0.4459894
59	0xbe3aec65	-0.1825424
60	0xbdbcccd4	-0.09218755
61	0x3ba62ff0	0.0050716326
62	0xbe45bb1e	-0.19309661
63	0xbeb789db	-0.35847363
64	0x3c09712b	0.008388798
65	0xbda4dd93	-0.080500744
66	0xbddfba88	-0.1092425
67	0xbe0ced07	-0.13762294
68	0x3e3d677c	0.18496507
69	0x3e36280b	0.17788713
70	0x3db33291	0.08749879
71	0xbd62499f	-0.05524599
72	0x3d22d68e	0.039755397
73	0xbdbb0d3f	-0.09133386
74	0xbdf4d5fa	-0.11954875
75	0x3e07c762	0.13259652
76	0xbee1d044	-0.44104207
77	0x3d993328	0.074804604
78	0xbbba2630	-0.005680822
79	0xbdab6ece	-0.08370744
80	0xbe80ef9e	-0.25182813
81	0xbdb38519	-0.08765621
82	0xbb44dcf9	-0.0030038937
83	0xbd448ad4	-0.04798396
84	0x3e131afd	0.14365764
85	0xbda493a8	-0.08035976
86	0xbdec5363	-0.11539342
87	0xbd67ef57	-0.056624737
88	0xbdc8d6fb	-0.09806629
89	0x3e07a338	0.13245857
90	0x3e25932c	0.16169423
91	0xbcb02054	-0.02149979
92	0xbd91d834	-0.071213156
93	0x3e108faa	0.14117303
94	0xbe4e0e9f	-0.20122765
95	0xbe30ad02	-0.17253497
96	0xbd9ca6a0	-0.07648969
97	0x3c9f2567	0.019427015
98	0x3c1e001c	0.009643581
99	0x3e5a479a	0.21316376
100	0x3da58f5f	0.080839865
101	0xbdbc9bd6	-0.09209411
102	0x3dce4340	0.10071421
103	0xbc241e2a	-0.010016957
104	0x3dd8e36e	0.10590254
105	0xbd9d53c4	-0.07681993
106	0xbd77eecd	-0.060530473
107	0x3db28afa	0.08717914
108	0xbe1f3578	-0.1554774
109	0xbdf2d142	-0.11856319
110	0xbd9e4241	-0.07727481
111	0xbe79dc2d	-0.24400397
112	0x3d06c57b	0.032903176
113	0xbc26a2b2	-0.0101706255
114	0xb8588767	-5.1624516e-05
115	0x3b4b9690	0.0031065084
116	0x3d1835b8	0.037160605
117	0xbe0f3fbe	-0.1398916
118	0x3da8c061	0.08239818
119	0xbdeeb7da	-0.11656161
120	0x3deb0b3d	0.11476753
121	0xbc25b237	-0.0101132905
122	0x3cb0fbaf	0.021604387
123	0xbdc0539b	-0.093909465
124	0xbcfb7bcc	-0.03069868
125	0xbd0257a2	-0.031821854
126	0xbd6c603f	-0.057708975
127	0xbdde3cae	-0.108514175
128	0x3e0b3227	0.1359335
129	0xbbf68b5f	-0.0075239385
130	0x3be8058d	0.00708074
131	0x3e43efdf	0.19134472
132	0xbdaa919d	-0.08328555
133	0xbd1d7af5	-0.03844734
134	0x3c855fa2	0.016280953
135	0x3d995c30	0.074882865
136	0xbd8222ef	-0.06354319
137	0x3ac46a96	0.0014985378
138	0x3e383881	0.17990305
139	0xbdc5d50c	-0.09659776
140	0xbd48fba3	-0.049068104
141	0xbea80a09	-0.32820156
142	0x3d77aa82	0.060465343
143	0xbbc347d5	-0.005959491
144	0x3d48669a	0.048925973
145	0x3e50b6bf	0.20382212
146	0xbdd125b3	-0.10212269
147	0x3dd96fb4	0.10617009
148	0x3e831eda	0.25609475
149	0xbdb4c967	-0.08827477
150	0xbe189a8b	-0.14902703
151	0x3c3bcb76	0.011462083
152	0x3ddbbbcf	0.10729181
153	0x3e0b6a08	0.13614666
154	0xbccde700	-0.025134563
155	0xbda1b1ce	-0.07895242
156	0x3d7a997b	0.061181527
157	0x3d94eba4	0.072715074
158	0xbe03a625	-0.12856348
159	0xbdfe91a6	-0.12430124
160	0x3d16a037	0.036773887
161	0x3e258d49	0.16167177
162	0x3e2e8d6c	0.17046136
163	0xbe1fe752	-0.15615585
164	0xbcbfad06	-0.023397934
165	0xbd4c3594	-0.049855784
166	0xbe390b68	-0.18070757
167	0xbdb82326	-0.08991079
168	0xbdec0cf0	-0.11525905
169	0x3de24744	0.11048749
170	0x3e3e00ed	0.1855504
171	0xbc8a4264	-0.01687736
172	0xbdf8ad40	-0.1214242
173	0x3a772d62	0.0009429065
174	0x3e58cf1e	0.21172759
175	0x3e6d9309	0.2320062
176	0x3e0becc2	0.13664535
177	0x3db9e867	0.0907753
178	0xbc52168b	-0.0128227575
179	0xbd82af01	-0.063810356
180	0x3d6e8067	0.058227923
181	0xbdbb18c2	-0.091355816
182	0xbdc513ef	-0.09622943
183	0x3e05f618	0.13082159
184	0x3e50773d	0.20357986
185	0xbd6c032a	-0.057620205
186	0x3c3aa9c4	0.011393014
187	0x3da2f087	0.07956033
188	0x3e03fa93	0.12888555
189	0x3e435f48	0.19079316
190	0x3da4db79	0.080496736
191	0x3e3af867	0.1825882
192	0xbe0a3911	-0.13498332
193	0x3e31bb84	0.17356688
194	0xbd377f30	-0.04479903
195	0xbb62df73	-0.003461805
196	0xbd15257e	-0.03641271
197	0xbde7992c	-0.11308512
198	0xbd2acd52	-0.041699715
199	0x3d29a8b4	0.041420653
200	0x3d9616df	0.07328581
201	0xbe0eff0d	-0.13964482
202	0xbd406db9	-0.04697964
203	0x3ccb3ccd	0.024809266
204	0xbd757382	-0.05992461
205	0xbe1218e4	-0.14267308
206	0xbdfc8d47	-0.12331634
207	0x3d4c4d17	0.049878206
208	0x3e568f38	0.20953071
209	0xbddc5921	-0.107591875
210	0x3dc977d4	0.098373085
211	0xbda7031b	-0.08154889
212	0xbdb3d762	-0.087813154
213	0x3d04e7c0	0.032447577
214	0xbdc02f67	-0.09384041
215	0x3e00b9bd	0.12570854
216	0xbd54a35c	-0.051913604
217	0xbd42ac73	-0.04752774
218	0x3d9416b7	0.07230895
219	0x3ce06bda	0.027395178
220	0xbcd88e80	-0.026435137
221	0xbde38e0c	-0.11111078
222	0xbd1f9839	-0.03896353
223	0x3def5275	0.11685649
224	0xbe3c8518	-0.18410146
225	0x3d8c8f00	0.068632126
226	0xbe02e17a	-0.12781325
227	0xbe1d34e9	-0.15352215
228	0x3dc6fea0	0.097165346
229	0xbe417cf2	-0.18895319
230	0x3e149347	0.14509307
231	0x3d548add	0.051890243
232	0xbe7ed254	-0.24884921
233	0x3d43a831	0.04776782
234	0x3d05c6a4	0.03266014
235	0xbe3a3cbd	-0.18187232
236	0xbb69996d	-0.0035644427
237	0x3e24130a	0.16022888
238	0x3db1210e	0.08648883
239	0x3e833efa	0.25633985
240	0xbd8e218b	-0.069399916
241	0xbe6ce137	-0.23132788
242	0x3dc28959	0.09498853
243	0xbb4e2d55	-0.0031460125
244	0xbdd8aeed	-0.105802394
245	0x3e15c38b	0.14625375
246	0x3df51bb1	0.11968172
247	0xbe3552c3	-0.17707352
248	0x3e50b542	0.20381644
249	0x3d841676	0.064495966
250	0xbd075742	-0.0330422
251	0xbdf26898	-0.11836356
252	0xbda46062	-0.08026196
253	0x3cfc5e05	0.03080655
254	0xbda7bde8	-0.081905186
255	0x3e36b149	0.17841066

critic.2.weight f4 [128, 256]
0	0xbd8906f9	-0.06690783
1	0xbaeae2b0	-0.0017920341
2	0x3d283af4	0.041071847
3	0xbd7451b7	-0.05964824
4	0x3c9c8d2d	0.019110287
5	0xbd6bb6f1	-0.057547513
6	0xbd51a919	-0.051186655
7	0xbdfcef51	-0.123503335
8	0xbc97edb1	-0.018545957
9	0xbde689f8	-0.11256784
10	0x3e0de01a	0.13855019
11	0x3db85399	0.0900032
12	0x3aa5d6bd	0.0012652498
13	0x3d9f0fc7	0.07766681
14	0xbc83cbe3	-0.016088432
15	0x3d4d3243	0.05009676
16	0x3bb48380	0.00550884
17	0xbdc23ede	-0.09484647
18	0xbd65df1e	-0.056120984
19	0xbb02ba21	-0.0019947367
20	0xbc85db69	-0.016339974
21	0xbd7dd98a	-0.06197504
22	0x3d795d03	0.06087972
23	0x3e2d7760	0.16940069
24	0x3dbd5293	0.092442654
25	0x3d63d9ae	0.055627517
26	0x3d416ba9	0.047221813
27	0xbd2933d5	-0.041309197
28	0x3c5a037c	0.013306495
29	0x3ce38867	0.027775003
30	0xbd0e9323	-0.03480829
31	0xbf2ad0ae	-0.6672467
32	0xbd529291	-0.051409308
33	0x3d13e359	0.036105487
34	0xbe1fa6c5	-0.15590961
35	0x3d0ccfbe	0.034377806
36	0xbb12da54	-0.0022407966
37	0x3ba646e9	0.005074371
38	0x3ca30ab8	0.019902572
39	0xbdb818d0	-0.089891076
40	0xbbd372a4	-0.006452875
41	0x3ceca498	0.028887078
42	0xbb98f0fe	-0.0046674004
43	0xbcdd7700	-0.027034283
44	0xc00d6213	-2.209111
45	0xbca7d4dd	-0.020487243
46	0x3cea216c	0.02858039
47	0x3d0dbdf5	0.034604985
48	0xbc6d2dbd	-0.014476237
49	0xbdf0be40	-0.11755037
50	0xbc1775a6	-0.009244358
51	0x3c0f1400	0.008732796
52	0x3d86cee3	0.06582429
53	0x3dc58082	0.096436515
54	0xbd8fba0d	-0.07017908
55	0xbe37515d	-0.17902131
56	0x3d67e1b7	0.056611743
57	0xbd5d6341	-0.054049734
58	0x3d2e1c86	0.04250767
59	0xbf9d8256	-1.23054
60	0xbccb433e	-0.024812337
61	0x3b8c6941	0.004285008
62	0x3d40895d	0.047006
63	0xc05fcc38	-3.4968395
64	0xbadea3a5	-0.0016986026
65	0xbca3d55a	-0.019999195
66	0x3cf60f13	0.030036485
67	0x3d066474	0.032810643
68	0x3caa3c39	0.02078067
69	0xbd199538	-0.03749582
70	0xbe0205f7	-0.12697588
71	0x3c84a194	0.016190328
72	0x3d14659c	0.036229715
73	0xbc035d7b	-0.008017893
74	0x3d1dd3f2	0.038532205
75	0x3d666018	0.056243986
76	0x3e135676	0.14388451
77	0xbc873519	-0.016504811
78	0x3ce5eac1	0.028066041
79	0xbbd02d57	-0.006353061
80	0xbdfcf4fe	-0.12351416
81	0xbb52dc7e	-0.003217488
82	0xbd85a37c	-0.06525323
83	0xbc41ce88	-0.011829026
84	0x3dcdfeb1	0.10058344
85	0xbc773ffe	-0.0150909405
86	0x3c4c384b	0.012464593
87	0xbdf48b73	-0.1194066
88	0xbd667416	-0.056263052
89	0x3d54dfde	0.05197131
90	0xbcca648d	-0.02470615
91	0x3c67e016	0.014152547
92	0x3d3f07b3	0.046638202
93	0x3d3eedb5	0.046613414
94	0xbdaa512a	-0.08316262
95	0xbc93bf2f	-0.0180355
96	0xbd8c8a04	-0.06862262
97	0x3b148b14	0.0022665905
98	0x3ce79776	0.028270464
99	0x3e093919	0.13400687
100	0x3d10bfdd	0.035339225
101	0x3d07465a	0.033026077
102	0x3cce4ade	0.025182184
103	0xbd3c7f24	-0.04601969
104	0x3d3a7f91	0.045531813
105	0xbd74a8de	-0.059731357
106	0xbd0775ab	-0.0330712
107	0x3d03c227	0.03216758
108	0xbc99cf98	-0.018775746
109	0x3d067290	0.0328241
110	0x3ca73873	0.02041266
111	0x3d1cb117	0.038254824
112	0x3dc9f369	0.0986088
113	0x3d305cd9	0.043057296
114	0x3a5cc4bd	0.000842165
115	0x3d1aae52	0.0377639
116	0xbd8b6ee2	-0.068082586
117	0xbcb88af1	-0.02252719
118	0xbd805515	-0.06266228
119	0xbd4f78d4	-0.05065234
120	0x3cf31496	0.029672902
121	0x3c9dac14	0.019247092
122	0x3d4aec61	0.049541835
123	0x3e79374f	0.24337505
124	0xbe56f803	-0.20993046
125	0xbc3cb4a0	-0.011517674
126	0x3d16f773	0.03685708
127	0xbc0d9e19	-0.00864365
128	0x3b987bca	0.0046534287
129	0xbd80ed29	-0.06295235
130	0xbdf35343	-0.11881115
131	0x3d62d4ca	0.055378713
132	0x3ca9b8b9	0.020717965
133	0x3cfb3c61	0.03066844
134	0x3ce5b221	0.02803904
135	0x3e150f7d	0.1455669
136	0xbca566e0	-0.020190656
137	0xbd5dc64c	-0.05414419
138	0x3cd9fd6a	0.026610095
139	0x3dee8241	0.11645938
140	0x3e41790f	0.18893836
141	0xbd5c65ba	-0.05380795
142	0x3e033d8d	0.12816449
143	0xbc8a7d8c	-0.016905569
144	0xbcd2db43	-0.025739318
145	0x3d972c7c	0.073815316
146	0x3e625c9e	0.22105643
147	0x3c05edf9	0.008174413
148	0xbcc025b9	-0.023455488
149	0xbe0679b5	-0.13132365
150	0x3d28fbf3	0.041255902
151	0x3b19548c	0.002339634
152	0x3d8579f7	0.065174036
153	0xbb5da135	-0.003381801
154	0xc0220a2e	-2.5318713
155	0xbc88b7e6	-0.016689252
156	0x3c187586	0.0093053635
157	0x3d6389e1	0.055551413
158	0xbdd26060	-0.10272288
159	0x3d487020	0.048935056
160	0x3d436971	0.04770798
161	0xbd477fe9	-0.04870597
162	0xbcf657ba	-0.030071128
163	0x3c0fc156	0.008774122
164	0x3d80fb4a	0.062979296
165	0x3a9df5a1	0.0012051353
166	0x3c041173	0.008060801
167	0x3daef7bb	0.085433446
168	0xbd204f3d	-0.039138068
169	0x3d885f7f	0.066588394
170	0x3d96d2a5	0.07364396
171	0xbd2818b2	-0.041039176
172	0xbe14abf6	-0.14518723
173	0x3d48a518	0.04898557
174	0x3d9365c3	0.07197144
175	0xbcc744b0	-0.024324745
176	0xbb92297c	-0.0044605117
177	0xbd8d9cb5	-0.06914655
178	0xbb84da2a	-0.0040543275
179	0xbe32a717	-0.17446552
180	0xbdaa496d	-0.08314786
181	0x3d659709	0.05605224
182	0x3de3e903	0.11128428
183	0x3c64f5c8	0.013974614
184	0xbd020840	-0.03174615
185	0x3b3cb318	0.0028793272
186	0xbc48e482	-0.012261512
187	0xbd35832d	-0.044314552
188	0xbce4a33a	-0.027909864
189	0xbd41664d	-0.047216702
190	0x3db36b56	0.08760707
191	0x3d1c8f64	0.038222685
192	0x3c9da02e	0.019241419
193	0xbbceb22c	-0.006307861
194	0x3c8972ff	0.016778467
195	0xbd0339e8	-0.032037646
196	0xbd911250	-0.07083571
197	0xbd15fe81	-0.036619667
198	0x3cafaa43	0.021443492
199	0xbc947a38	-0.018124685
200	0xbcc1d31c	-0.023660235
201	0xbd257e86	-0.040403865
202	0x3c34a78e	0.011026276
203	0x3d7ccac6	0.061716817
204	0x3d3d5a11	0.046228472
205	0x3d8b1077	0.0679025
206	0x3d32b34c	0.043628022
207	0xbd9f36da	-0.07774134
208	0xbc6b73bc	-0.014370855
209	0xbd246460	-0.040134788
210	0xbd2bca59	-0.04194102
211	0x3d2e0e7a	0.042494275
212	0x3cd46be3	0.02593035
213	0x3a81a9cd	0.0009892524
214	0x3dc37667	0.09544068
215	0x3c992144	0.01869262
216	0xbd3344e7	-0.043766882
217	0xbc0c4602	-0.008561613
218	0xbef479b7	-0.4774911
219	0xbe02c16e	-0.127691
220	0x3d01e888	0.0317159
221	0xbdb30dc6	-0.087428614
222	0xbcc31b0b	-0.023816606
223	0x3d8a323a	0.06747861
224	0x3cee5107	0.029091371
225	0xbe0a68e5	-0.13516577
226	0x3cd1d579	0.025614487
227	0xbc9e9409	-0.019357698
228	0xbc1e696a	-0.009668687
229	0xbd85e94d	-0.06538639
230	0x3c94d01f	0.018165646
231	0xbdc8bd20	-0.09801698
232	0x3dc41be4	0.09575632
233	0x39b64e2c	0.00034771988
234	0x3b68d38e	0.0035526487
235	0x3d82266d	0.063549854
236	0xbd5649d9	-0.05231652
237	0x3d200712	0.039069243
238	0xbd2c5138	-0.042069644
239	0x3d7be224	0.06149496
240	0xbd7db5b3	-0.06194086
241	0xbe61be17	-0.2204517
242	0xbd076752	-0.03305752
243	0x3cc36a3f	0.023854373
244	0xbb485759	-0.0030569641
245	0xbd85baa1	-0.06529737
246	0xbbebc410	-0.0071950033
247	0x3c0f41a4	0.008743677
248	0x3d6ad576	0.05733248
249	0x3d20e2c9	0.03927878
250	0x3df21791	0.11820901
251	0x3ccd7b0b	0.025083086
252	0x3ec6580c	0.3873905
253	0x3d7de58f	0.061986502
254	0xbe39e421	-0.1815343
255	0x3e05f2b9	0.13080873

critic.2.bias f4 [128]
0	0x3d76026c	0.060060903
1	0xbcaf23ff	-0.021379469
2	0xbc017524	-0.007901464
3	0x3bb49138	0.0055104755
4	0x3d1e8247	0.03869846
5	0x3dab5642	0.08366062
6	0xbcd81ee5	-0.02638192
7	0xbcbf98bf	-0.023388265
8	0xbda61233	-0.0810894
9	0x3ca3c09a	0.0199893
10	0xbcbe14cb	-0.023203274
11	0x3d18b3a9	0.037280712
12	0x3cf7244b	0.030168673
13	0x3cec6b30	0.028859705
14	0x3d2f8424	0.04285063
15	0x3d770007	0.06030276
16	0x3d08cb21	0.033396844
17	0x3d08d557	0.03340658
18	0x3d5f090a	0.05445198
19	0xbc8845bb	-0.016634813
20	0x3d490d29	0.049084816
21	0xbc0d7e8d	-0.008636129
22	0xbc910986	-0.017704736
23	0x3d0c92d3	0.03431971
24	0x3caceb29	0.021108227
25	0xbc0a2db8	-0.008433752
26	0x3bb4e8d5	0.00552092
27	0x3d1482fb	0.036257725
28	0x3d650c4b	0.055919927
29	0x3cd62e62	0.026145164
30	0xbd594aec	-0.053049967
31	0xbdac7712	-0.08421148
32	0xbd0d2b83	-0.034465324
33	0xbd08ba61	-0.03338087
34	0x3db055f5	0.08610145
35	0x3cbf9007	0.023384107
36	0x3ddb614f	0.107119195
37	0x3ddc32e9	0.10751898
38	0x3d8702ae	0.06592308
39	0x3d1476bb	0.036246043
40	0xbd144c85	-0.036205787
41	0xbc906d0e	-0.017630126
42	0xbd9ab07f	-0.07553195
43	0xbc481bda	-0.012213672
44	0xbca02ad6	-0.019551676
45	0x3c80cf1e	0.015723761
46	0x3cd68b29	0.026189404
47	0xbdbb2d95	-0.091395535
48	0x3d8c9d7d	0.06865976
49	0x3d46272e	0.04837721
50	0x3d24b947	0.040215757
51	0xbd80f166	-0.06296043
52	0x3da88920	0.082292795
53	0x3b8c0c3f	0.004273921
54	0xba28226c	-0.00064138207
55	0xbd06b29a	-0.03288517
56	0x3d1868ab	0.037209194
57	0xbcb0b1b1	-0.021569105
58	0x3ca57c38	0.020200834
59	0xbd2712ec	-0.04078953
60	0xbbf10116	-0.007354866
61	0xbd7810c9	-0.060562883
62	0xbd906d3e	-0.07052086
63	0xbd8cb68c	-0.068707556
64	0xbcfd83fa	-0.03094672
65	0xbc043099	-0.008068227
66	0x3d2e31cb	0.042527955
67	0xbda1a484	-0.07892707
68	0xbd31f34c	-0.043444917
69	0x378acf8c	1.6547529e-05
70	0x3caa3caf	0.02078089
71	0x3cf9b3f6	0.03048132
72	0x3ca3db8f	0.020002155
73	0x3ddb1d93	0.10699
74	0x3df577cc	0.1198574
75	0x3c819b10	0.01582101
76	0x3adc6821	0.0016815701
77	0xbdacc673	-0.08436289
78	0x3d255134	0.040360644
79	0xbda4e05d	-0.080506064
80	0x3c335c38	0.01094728
81	0xbd8b50c2	-0.06802513
82	0xbbe24c1b	-0.006906045
83	0x3d69970a	0.057028808
84	0x3d01d88c	0.031700656
85	0x3df4c711	0.119520314
86	0x3d1b3924	0.03789629
87	0x3ac195fe	0.0014769433
88	0x3cfc2950	0.030781418
89	0xbc42b818	-0.011884712
90	0xbcc743ad	-0.024324263
91	0xbc8072ac	-0.01567968
92	0x3dd260a6	0.102723405
93	0x3d69a319	0.057040308
94	0xbc5f7a43	-0.013639989
95	0xbd759d6c	-0.059964582
96	0x3dc3be5b	0.09557792
97	0xb9d15a75	-0.00039930982
98	0x3d57baa3	0.052668225
99	0x3b2c97c4	0.0026335577
100	0x3d47674a	0.04868249
101	0x3cb19bb6	0.021680694
102	0xbd19c5e4	-0.03754224
103	0xbce2d095	-0.02768735
104	0xbb806958	-0.003918808
105	0x3c82378a	0.015895624
106	0xbd8199b8	-0.06328148
107	0x3d042ef2	0.032271333
108	0xbc4f6c2e	-0.012660069
109	0x3cec39a0	0.028836071
110	0x3ceaa3ff	0.028642653
111	0x3d6d5a50	0.057947457
112	0x3cf3997e	0.029736277
113	0x3ca0b135	0.019615749
114	0x3def7918	0.11693019
115	0xbd3479c6	-0.044061445
116	0xbd13271b	-0.035925966
117	0x3dc5ab00	0.09651756
118	0x3c3ee279	0.011650675
119	0xbd2ea24b	-0.042635243
120	0xbbc07d42	-0.005874307
121	0xbcb0bd87	-0.021574749
122	0x3cf80712	0.030276809
123	0x3ce31aa8	0.027722672
124	0xbcdf4800	-0.027256012
125	0x3cc67bd2	0.024228964
126	0x3d83d172	0.06436433
127	0x3e175caa	0.14781442

critic.4.weight f4 [1, 128]
0	0x3eb440c5	0.35205665
1	0xbe389d48	-0.18028748
2	0x3e2e071c	0.169949
3	0xbe218d82	-0.15776637
4	0x3c7655a3	0.015035066
5	0xbe2f6751	-0.17129256
6	0xbda05577	-0.07828801
7	0xbe9a57a0	-0.30144978
8	0x3e99bffc	0.30029285
9	0xbdf9e1b6	-0.12201254
10	0xbf47844a	-0.7793623
11	0xbf196848	-0.59924746
12	0xbdd95321	-0.10611559
13	0x3e1f5fa3	0.15563826
14	0x3f1f134c	0.6213882
15	0xbf247b08	-0.6425023
16	0x3f055822	0.52087605
17	0x3da5ca55	0.080952324
18	0x3ec10855	0.3770167
19	0x3e0e53a9	0.13899101
20	0x3f273236	0.6531099
21	0x3e3b669d	0.18300863
22	0x3ece8a6c	0.40339983
23	0xbe9da665	-0.3079101
24	0x3ea1d79f	0.31609818
25	0x3e6c253c	0.23061079
26	0x3e6f25b0	0.2335422
27	0xbe9bb46c	-0.30411088
28	0xbdb6394b	-0.088976465
29	0x3e58fecf	0.21190952
30	0x3f10405c	0.56348205
31	0x3e9655ef	0.29362437
32	0x3e1f4211	0.15552546
33	0xbeaf26ee	-0.34209388
34	0x3f47e9ef	0.7809133
35	0x3e8fe3c5	0.28103462
36	0x3e19dc41	0.15025426
37	0xbebdec2a	-0.3709424
38	0xbe1be0c0	-0.15222454
39	0x3f5ab67c	0.854347
40	0x3e9415a3	0.28922758
41	0x3f41d64b	0.7571761
42	0x3e46da36	0.19419178
43	0x3f0208aa	0.5079447
44	0x3df4d45f	0.11954569
45	0x3e9e679d	0.30938426
46	0xbe532bd4	-0.20622188
47	0x3f22d603	0.63607806
48	0x3f5b31e5	0.8562301
49	0xbe7ca82c	-0.24673527
50	0x3f7d375d	0.989126
51	0x3f399ec9	0.7250791
52	0xbeee8e29	-0.46592835
53	0x3e1be114	0.15222579
54	0x3f027ba4	0.5096991
55	0xbf162728	-0.586535
56	0x3f066637	0.5249972
57	0x3f0e1012	0.5549327
58	0x3ef54201	0.4790192
59	0x3f46f9f0	0.77725124
60	0xbe31e281	-0.1737156
61	0x3c02206d	0.007942301
62	0x3f8cf9c2	1.101372
63	0x3f473afa	0.77824366
64	0x3e443025	0.1915899
65	0x3ea884f3	0.32913932
66	0xbe8cb119	-0.27478865
67	0x3f40e78d	0.7535332
68	0x3ef2ab81	0.47396472
69	0x3ef40d57	0.47666427
70	0x3ef64636	0.48100442
71	0xbd667076	-0.056259595
72	0x3e6c79ad	0.2309329
73	0x3f2679ff	0.650299
74	0x3f29e4db	0.6636483
75	0x3f5ababe	0.85441196
76	0x3f0f896b	0.5606906
77	0xbeb977b9	-0.36224154
78	0xbecdf1a2	-0.40223414
79	0x3ec27bb3	0.37985
80	0xbd96e783	-0.07368376
81	0x3ccb5bc3	0.024824029
82	0x3f451b74	0.76995015
83	0xbe61b2dc	-0.22040886
84	0x3ee8a8e2	0.45441347
85	0x3f0a1eeb	0.5395343
86	0x3f937365	1.1519591
87	0x3ed6c491	0.41946843
88	0xbd2d10b0	-0.042252243
89	0xbe2f6108	-0.17126858
90	0x3d7212a1	0.059099797
91	0xbde0e4e5	-0.10981158
92	0xbf3f1b29	-0.7465082
93	0xbed3d493	-0.4137312
94	0xbe7c598f	-0.24643539
95	0xbf568ca2	-0.8380834
96	0xbed18110	-0.4091878
97	0xbdedd066	-0.116120145
98	0x3f1918d2	0.598035
99	0xbf4faf04	-0.8112643
100	0x3f8f20ae	1.1181848
101	0xbd433852	-0.047661133
102	0xbda39707	-0.079877906
103	0x3e4a4983	0.19754605
104	0x3e779ef7	0.24181734
105	0xbe92d656	-0.2867915
106	0x3e28f457	0.16499458
107	0xbed59595	-0.41715685
108	0x3e82b424	0.2552806
109	0x3ea5eeb3	0.32408676
110	0x3f1636dd	0.58677465
111	0x3eaa1dcd	0.3322586
112	0xbe17dac1	-0.14829542
113	0x3ce343fd	0.02774238
114	0x3fa9f404	1.3277593
115	0xbf25739e	-0.6462954
116	0xbf0fe173	-0.56203383
117	0x3ef1eb6b	0.47249922
118	0xbf209e15	-0.62741214
119	0x3fbc1b82	1.4695895
120	0x3f113050	0.56714344
121	0x3d13eb2b	0.036112946
122	0xbe54b167	-0.20770799
123	0xbf783541	-0.9695626
124	0xbc9d38a4	-0.019192047
125	0x3f7f321d	0.9968584
126	0xbe12c594	-0.14333183
127	0xbeb652b7	-0.3560998

actor.0.weight f4 [256, 48]
0	0xbd4e5d3b	-0.05038188
1	0x3db33351	0.08750022
2	0xbdd6b578	-0.10483831
3	0x3daca823	0.08430507
4	0x3d01bb94	0.03167303
5	0xbe0244ab	-0.12721507
6	0x3d2c12af	0.042010006
7	0x3b906062	0.004406021
8	0xbde3ab61	-0.11116672
9	0x3e5c1164	0.21491009
10	0xbd987855	-0.074448265
11	0x3d1f22a5	0.0388514
12	0x3c58146c	0.013188463
13	0x3e191531	0.1494949
14	0xbe07e3d1	-0.13270499
15	0xbd3d7979	-0.046258423
16	0xbd945509	-0.07242782
17	0xbdb19144	-0.08670285
18	0x3da6502f	0.081207626
19	0xbd67da1c	-0.05660449
20	0xbe2d954d	-0.16951485
21	0x3c08e782	0.008355977
22	0x3df51942	0.11967708
23	0x3ad44568	0.0016195001
24	0xbc0c8d74	-0.008578647
25	0xbb9f223c	-0.004856376
26	0xbc91a5b9	-0.017779218
27	0xbd7aefc3	-0.06126381
28	0xbc0252d2	-0.007954316
29	0xbd416fdd	-0.04722582
30	0xbcc45d65	-0.023970315
31	0xbe07b2c8	-0.13251793
32	0xbd80dfff	-0.06292724
33	0x3def6ee1	0.1169107
34	0xbdd1dd53	-0.10247292
35	0x3cc71e63	0.024306482
36	0x3d144963	0.0362028
37	0x3d750cb7	0.05982658
38	0xbdd20025	-0.10253934
39	0xbe0622f4	-0.13099271
40	0x3dbc6077	0.09198087
41	0xbe1300db	-0.14355795
42	0x3d845302	0.06461145
43	0xbe049ac8	-0.1294967
44	0xbe80b668	-0.25139165
45	0x3dbedbae	0.09319244
46	0xbe124ac2	-0.1428633
47	0x3e3ea577	0.18617807
48	0x3d7bb0a0	0.06144774
49	0x3e6120cc	0.21985167
50	0x3e0a7e41	0.13524725
51	0xbe17cb7b	-0.14823715
52	0x3d77c4ed	0.060490537
53	0x3dc4b76e	0.09605299
54	0xbd002273	-0.031282853
55	0xbd059c8f	-0.03262001
56	0xbcbfc3e8	-0.023408845
57	0xbd340262	-0.043947585
58	0xbd344280	-0.04400873
59	0xbcd4d97f	-0.025982616
60	0x3be77fbb	0.007064787
61	0x3e6a439a	0.2287735
62	0x3e17fdbf	0.1484289
63	0x3c7738cb	0.015089224
64	0xbde4fffa	-0.11181636
65	0xbe0db436	-0.13838276
66	0xbd494dda	-0.04914651
67	0x3d24ed5d	0.04026543
68	0x3d52c158	0.05145392
69	0xbd42bc91	-0.047543112
70	0xbe16375b	-0.14669554
71	0x3d9eb5d5	0.077495255
72	0x3dec9edf	0.1155374
73	0x3e3e3e3d	0.1857843
74	0x3e8e026d	0.27736226
75	0x3ce7962e	0.028269853
76	0xbce73a35	-0.028225997
77	0xbd6b68d8	-0.057473034
78	0x3d91b27a	0.0711412
79	0x3d52f40d	0.051502276
80	0xbd05e8d2	-0.032692738
81	0x3d82798e	0.06370841
82	0xbe2b7c2e	-0.1674659
83	0xbbe98a34	-0.007127071
84	0x3e6b78e2	0.22995332
85	0x3e30850b	0.17238252
86	0x3dae50c1	0.08511496
87	0xbe2fcbaf	-0.17167543
88	0xbe1da014	-0.15393096
89	0x3cac9ea3	0.021071738
90	0x3c7dd8a2	0.015493544
91	0x3c3fad54	0.0116990395
92	0xbd9845f7	-0.0743522
93	0x3e1766f0	0.14785361
94	0xbd925c90	-0.07146561
95	0x3e1918b8	0.14950836
96	0xbddd9ec7	-0.108213
97	0x3c79a528	0.01523713
98	0xbe27fc0f	-0.16404746
99	0x3d067162	0.032822974
100	0x3e1f812b	0.15576617
101	0x3e0797ab	0.1324145
102	0xbd890196	-0.066897556
103	0x3ddab045	0.10678152
104	0x3da0a2e1	0.07843567
105	0xbdcc064c	-0.099621385
106	0x3d229ccb	0.03970031
107	0xbd8227a8	-0.0635522
108	0xbe28b1df	-0.16474102
109	0xbd5b6954	-0.053567246
110	0xbdf3cff3	-0.119048975
111	0xbe45f739	-0.19332589
112	0x3dec1390	0.11527169
113	0x3dde88a4	0.10865906
114	0x3df43464	0.11924055
115	0xbd074845	-0.033027906
116	0x3dcaabc0	0.0989604
117	0xbd472563	-0.04861964
118	0x3e00268d	0.12514706
119	0xbc5ed7b8	-0.013601236
120	0xbb886973	-0.004162961
121	0xbdcc25cb	-0.09968146
122	0x3d7f0988	0.06226495
123	0xbdcc378b	-0.099715315
124	0x3df7e155	0.121035255
125	0x3caef917	0.02135901
126	0x3c8bd687	0.017070068
127	0xbd8586ce	-0.065198526
128	0x3e4a2abd	0.19742866
129	0xbe8a617f	-0.2702751
130	0xbda94c70	-0.082665324
131	0xbe325407	-0.17414866
132	0xbcf83784	-0.03029991
133	0x3d8bef30	0.06832731
134	0xbdafd6aa	-0.08585866
135	0x3d92f2ad	0.07175193
136	0x3ce57fe2	0.02801508
137	0xbc1d28d2	-0.009592252
138	0x3d916a31	0.071003325
139	0xbd2abe5b	-0.041685443
140	0x3d571308	0.052508384
141	0xbe414f5a	-0.18877926
142	0x3dac692d	0.08418498
143	0xbe142ea7	-0.14470921
144	0xbe5fad3e	-0.2184343
145	0xbd59c705	-0.053168315
146	0x3e07424a	0.13208881
147	0x3cfc4060	0.030792415
148	0x3d3d5507	0.046223667
149	0xbdc05ff6	-0.09393303
150	0xbca5a087	-0.020218147
151	0xbd57c03f	-0.052673575
152	0x3e0fde3d	0.14049621
153	0xbdd69bb0	-0.10478914
154	0xbdf3d805	-0.11906437
155	0x3dc32376	0.09528248
156	0xbe4cd42f	-0.20002817
157	0x3d5ab60a	0.053396262
158	0x3ccd288a	0.025043745
159	0xbe2b98f0	-0.1675756
160	0xbd215ea7	-0.039396908
161	0x3e06a36c	0.13148278
162	0x3d6de2ce	0.058077626
163	0xbdf63375	-0.120215334
164	0xbd79b76a	-0.060965933
165	0xbdd004a9	-0.10157139
166	0x3d71c12b	0.05902211
167	0x3e6c70fa	0.23089972
168	0xbe06afbc	-0.13152975
169	0xbad8400a	-0.0016498577
170	0x3e041465	0.12898405
171	0x3d49228e	0.04910522
172	0xbdcb8747	-0.099379115
173	0x3d9d1f41	0.07671977
174	0xbcdcce64	-0.026953883
175	0x3d80e135	0.06292955
176	0x3e0a07e9	0.1347958
177	0x3d450f38	0.048110217
178	0x3e137ab8	0.14402282
179	0x3e2bd270	0.16779494
180	0xbddb2f0c	-0.10702333
181	0x3dc21c8e	0.094781026
182	0xbdad9176	-0.0847501
183	0xbc703344	-0.01466066
184	0xbda160b8	-0.07879776
185	0xbc177da9	-0.009246268
186	0x3d95eb5c	0.07320282
187	0x3d5538e3	0.052056205
188	0x3e16c5ee	0.14723942
189	0x3d783dc2	0.06060577
190	0x3dc436aa	0.09580739
191	0x3e937aa6	0.2880451
192	0x3d6e9ba6	0.058253907
193	0xbdc6c0c6	-0.09704737
194	0x3db52f63	0.08846929
195	0x3df09450	0.11747038
196	0xbdffcff8	-0.12490839
197	0x3d99d54c	0.07511386
198	0x3d024ec7	0.03181341
199	0xbd63316f	-0.055467065
200	0x3d673223	0.0564443
201	0xbde378c1	-0.11107016
202	0xbc8b3a6e	-0.016995635
203	0xbcd27020	-0.025688231
204	0x3de59321	0.11209703
205	0xbe167d22	-0.14696172
206	0xbc366968	-0.011133529
207	0x3e0bd914	0.13657027
208	0x3d9a4098	0.075318515
209	0xbdc09447	-0.09403282
210	0x3cc2e024	0.02378852
211	0x3d96a005	0.0735474
212	0xbca498d4	-0.020092405
213	0xbd956dcb	-0.07296332
214	0x3c35fd6d	0.011107785
215	0x3ceda9be	0.029011603
216	0xbd5a8fa0	-0.053359628
217	0x3c6ff716	0.014646312
218	0xbd298b5f	-0.04139268
219	0xbc4c0873	-0.012453186
220	0xbe162542	-0.1466265
221	0xbe151ef0	-0.14562583
222	0x3ca31729	0.019908505
223	0x3d184382	0.037173755
224	0xbdabb994	-0.083850056
225	0xbe1b7e3a	-0.1518487
226	0x3ce6468a	0.028109808
227	0xbc75045b	-0.014954652
228	0xbbcbb5e0	-0.0062167495
229	0x3df2bc6e	0.11852346
230	0x3e03a33d	0.12855239
231	0x3d819474	0.06327143
232	0xbc9e9493	-0.019357955
233	0x3d001a61	0.031275157
234	0x3d284b53	0.04108746
235	0xbe05d58a	-0.1306974
236	0x3dc7a1bf	0.097476475
237	0xbc5f17a2	-0.013616474
238	0x3dbe06b9	0.09278626
239	0x3dd9bf33	0.106321715
240	0x3cb9b62a	0.02266987
241	0x3dc772aa	0.09738667
242	0x3e2ff258	0.1718229
243	0x3cd76ebb	0.026297918
244	0x3d6b5095	0.057449896
245	0xbcedbec6	-0.029021632
246	0xbc429ce7	-0.011878229
247	0xbe17e56b	-0.1483361
248	0x3d7ae438	0.061252803
249	0xbd7c57b3	-0.061607074
250	0x3dee113b	0.1162438
251	0x3d061ed2	0.032744236
252	0x3d485580	0.048909664
253	0xbc86b158	-0.016441986
254	0xbcfe31a7	-0.031029535
255	0xbe052252	-0.13001373

actor.0.bias f4 [256]
0	0xbdace76c	-0.08442578
1	0x3e1f36d8	0.15548265
2	0xbde1194d	-0.10991154
3	0xbd5ea460	-0.05435598
4	0xbdc69591	-0.09696496
5	0xbd1dc857	-0.038521137
6	0x3d70e8ca	0.058815755
7	0x3de66e96	0.11251561
8	0xbdc0eb1d	-0.09419844
9	0xbd9db9d3	-0.07701459
10	0x3e024da9	0.12724937
11	0x3d87285f	0.06599497
12	0x3e059584	0.13045317
13	0x3e04daf6	0.12974152
14	0xbd7e8f1e	-0.062148206
15	0xbd31e73b	-0.04343341
16	0xbe29aad6	-0.16569075
17	0xbb871a6e	-0.0041230237
18	0x39885e78	0.00026010326
19	0xbd8b5879	-0.06803984
20	0xbe0e2b29	-0.13883652
21	0xbe004440	-0.12526035
22	0xbd9443df	-0.07239508
23	0xbe15c733	-0.1462677
24	0xbe159159	-0.14606227
25	0x3d47aad5	0.048746902
26	0xbd89015b	-0.06689712
27	0x3dd27a72	0.10277261
28	0x3d6e77df	0.058219787
29	0xbe39d855	-0.1814893
30	0x3c8e5075	0.01737235
31	0x3d56c8d5	0.052437622
32	0xbd8b13e9	-0.06790907
33	0xbabfd8e2	-0.001463678
34	0xbd32a812	-0.043617316
35	0x3d8fc6a6	0.07020311
36	0xbe0e7348	-0.13911164
37	0xbb6eef8a	-0.0036458694
38	0x3d42a26a	0.04751817
39	0x3d246b66	0.040141486
40	0xbddcbab0	-0.10777795
41	0xbc3284e0	-0.010895938
42	0xbd019eba	-0.031645514
43	0x3cc79c15	0.024366418
44	0x3d89540f	0.06705486
45	0x3e17bd8a	0.14818397
46	0x3d9d0ae3	0.07668092
47	0xbdb08ab3	-0.08620205
48	0x3dbc2394	0.091864735
49	0x3dc92f3f	0.098234646
50	0x3d6c4bda	0.057689525
51	0xbaea09c3	-0.0017855692
52	0xbd8dd61d	-0.069256045
53	0x3e28850d	0.16457005
54	0xbdb0f699	-0.08640785
55	0xbdffbbf0	-0.12487018
56	0xbe1e981b	-0.15487711
57	0xbd346a8b	-0.04404692
58	0x3decc9e0	0.11561942
59	0xbdf3587c	-0.118821114
60	0x3e09b141	0.13446523
61	0xbc32ac15	-0.010905285
62	0xbb9913de	-0.004671558
63	0xbd0ae9ae	-0.03391426
64	0x3e0992ed	0.13434954
65	0xbe359761	-0.17733528
66	0x3e0c9482	0.13728526
67	0xbe07e66c	-0.13271493
68	0x3d401b64	0.04690112
69	0xbd28579d	-0.04109918
70	0xbdd1c2f5	-0.10242263
71	0xbd39f936	-0.04540368
72	0xbc651885	-0.013982897
73	0xbcc7fa7f	-0.024411438
74	0xbd3b95f6	-0.04579731
75	0xbd721395	-0.059100706
76	0x3dee22dc	0.11627743
77	0x3dcafde7	0.09911709
78	0x3e077a0d	0.13230152
79	0x3d48d4b9	0.049030993
80	0x3d4e7a40	0.050409555
81	0x3d26869f	0.04065573
82	0x3db6615e	0.0890529
83	0x3cd0a7c9	0.025470631
84	0x3d967c18	0.07347888
85	0x3d631519	0.055440042
86	0x3d919325	0.07108144
87	0xbdbb7465	-0.0915306
88	0xbdc11fd9	-0.094299026
89	0xbc818e5d	-0.015814954
90	0x3d8a73e0	0.06760383
91	0x3cf777ea	0.030208547
92	0xbc528f70	-0.012851581
93	0x3d437f12	0.047728606
94	0xbd31e6ae	-0.043432884
95	0xbc97d1e6	-0.018532705
96	0x3da082df	0.07837462
97	0x3db1fa7c	0.08690354
98	0x3df322d6	0.11871879
99	0xbe24e003	-0.16101079
100	0x3d31ab75	0.043376405
101	0x3dee4e5a	0.11636038
102	0xbd97d9a6	-0.0741456
103	0xbda30aae	-0.07961021
104	0x3c3be091	0.011467115
105	0x3d916b84	0.07100585
106	0x3d946eb3	0.07247677
107	0xbd2b3813	-0.041801523
108	0x3e538e3d	0.20659728
109	0x3d45c641	0.048284773
110	0xbd5e2630	-0.054235637
111	0x3d29a60d	0.041418124
112	0x3e112b4e	0.14176676
113	0x3ccad184	0.024758108
114	0xbbba64a4	-0.005688267
115	0x3d922d09	0.07137496
116	0xbda51d2f	-0.08062207
117	0xbd90ee90	-0.07076752
118	0x3df17150	0.11789191
119	0xbdfad3e6	-0.12247448
120	0x3d9173f8	0.071021974
121	0xbc9e9cf0	-0.019361943
122	0x3d0cffb9	0.034423564
123	0xbd709a02	-0.058740623
124	0xbb77f6da	-0.0037836344
125	0x3dfaf29c	0.12253305
126	0x3c3bf768	0.01147256
127	0xbd99826c	-0.07495579
128	0x3d75db7a	0.060023762
129	0xbe121cd7	-0.14268814
130	0x3ddb4786	0.107070014
131	0x3dcfa12c	0.10138163
132	0xbd990ed3	-0.074735306
133	0x3b1d3d98	0.0023993012
134	0xbcec5477	-0.02884887
135	0x3cb3c797	0.021945758
136	0xbd9721a3	-0.073794626
137	0x3e34f649	0.17672075
138	0x3d9cb8bf	0.07652425
139	0x3e1e52be	0.15461251
140	0xbd9f896a	-0.077898815
141	0xbdc14324	-0.09436634
142	0x3d306b33	0.043070983
143	0x3d81efea	0.06344588
144	0x3d207d6c	0.03918211
145	0x3d6ca5a4	0.057775155
146	0x3e16fda1	0.14745189
147	0x3e18ec13	0.14933805
148	0x3d883406	0.06650548
149	0xbda1cc8c	-0.07900342
150	0x3d9899c9	0.07451207
151	0x3d3fe9cc	0.046853825
152	0xbdf1aec4	-0.11800912
153	0x3dc90e6e	0.09817205
154	0xbd5e8b7e	-0.05433225
155	0xbd8d2454	-0.06891695
156	0xbd781748	-0.060569078
157	0xbc1bdc41	-0.009512962
158	0x3e357906	0.17721948
159	0xbd9de84d	-0.077103235
160	0x3e23b752	0.159879
161	0x3d260c57	0.040539112
162	0x3c8b10ff	0.016975878
163	0x3e1ae6c5	0.15127094
164	0xbdcc0092	-0.09961046
165	0x3b005d67	0.0019586922
166	0xbddcd6f2	-0.10783185
167	0x3b3b6d9c	0.0028599268
168	0x3e3da5c2	0.18520263
169	0xbd298633	-0.041387748
170	0xbe0fc550	-0.14040112
171	0x3b3d6281	0.0028897824
172	0xbc3169a4	-0.010828409
173	0x3d5900fd	0.052979458
174	0x3c9214cd	0.017832184
175	0xbd46d6ec	-0.04854481
176	0x3e3c8ea1	0.18413784
177	0x3dd15df4	0.10222998
178	0xbdb3a9b4	-0.08772603
179	0xbd4493f8	-0.047992676
180	0xbd8ed04a	-0.06973322
181	0xbd859597	-0.065226726
182	0x3d384083	0.0449834
183	0xbde84f8d	-0.11343298
184	0x3c281a79	0.010260218
185	0xbd5b61a6	-0.05355992
186	0xbde812a6	-0.11331682
187	0x3e1157cd	0.1419365
188	0x3d029061	0.03187597
189	0xb88d7558	-6.745261e-05
190	0x3ad18cd0	0.00159874
191	0xbd8616b5	-0.065473
192	0xbe034dd8	-0.12822664
193	0x3d1aff4f	0.037841137
194	0xbe05e27d	-0.1307468
195	0x3b85cb4a	0.004083072
196	0x3cbd9696	0.023143094
197	0x3d8001e2	0.06250359
198	0x3e291296	0.16510996
199	0xbc10f94a	-0.008848498
200	0xbe05baa2	-0.13059476
201	0x3e5e3335	0.21699221
202	0x3d2c1ed6	0.042021595
203	0x3e2d66f1	0.169338
204	0xbbb4e5a7	-0.0055205408
205	0x3e3a6556	0.18202719
206	0xbddc1f6d	-0.107481815
207	0x3e186e89	0.14885916
208	0x3d067021	0.03282178
209	0xbcab690d	-0.020924116
210	0x3d7ce93d	0.06174587
211	0xbd0647ec	-0.032783434
212	0xbdbea8d3	-0.093095444
213	0x3e18cebc	0.14922613
214	0xbdaf5a3b	-0.08562132
215	0xbd68b739	-0.05681536
216	0xbe152016	-0.14563021
217	0xbc90f21f	-0.017693577
218	0xbdcd55d2	-0.100261346
219	0xbb2af6a0	-0.0026086941
220	0x3c0e8b56	0.008700212
221	0x3dada47a	0.08478637
222	0x3d14fe9e	0.036375634
223	0x3c656f99	0.014003658
224	0xbd7125c3	-0.058873903
225	0x3d58f3a8	0.052966744
226	0xbd52c476	-0.05145689
227	0xbc3f9a2e	-0.011694474
228	0xbdb63431	-0.088966735
229	0xbda44203	-0.08020403
230	0x3d961c78	0.07329649
231	0xbe14176b	-0.14462058
232	0xbdb54ed7	-0.08852928
233	0xbdae615c	-0.085146636
234	0xbd418227	-0.047243264
235	0xbdaba251	-0.08380569
236	0xbbef9276	-0.0073111607
237	0xbd5e1818	-0.054222196
238	0x3dea4c4d	0.114403345
239	0xbd66adfe	-0.056318276
240	0xbd034074	-0.03204389
241	0x3c8dfcc8	0.01733245
242	0x3e0b25a8	0.13588583
243	0x3de33e64	0.110958844
244	0x3e25e957	0.16202293
245	0x34813b13	2.4071105e-07
246	0xbd17d9d9	-0.03707299
247	0x3d1f5979	0.038903687
248	0x3e450ab3	0.19242363
249	0x3ddb301c	0.107025355
250	0xbdad65fd	-0.08466718
251	0x3dded041	0.10879565
252	0xbdd0a166	-0.10187034
253	0xbc919865	-0.017772863
254	0x3cdb3306	0.026757728
255	0x3e1d9172	0.15387514

actor.2.weight f4 [128, 256]
0	0x3d6be1a0	0.05758822
1	0xbd833ad8	-0.06407708
2	0xbdd97635	-0.10618249
3	0xbe5c476a	-0.21511617
4	0xb9943300	-0.00028266758
5	0xbdd06ebd	-0.10177372
6	0x3de89933	0.113573454
7	0x3dd3e638	0.10346645
8	0x3d9f238c	0.07770452
9	0xbca498e9	-0.020092444
10	0x3c49f20b	0.012325774
11	0xbdf1b934	-0.11802903
12	0xbda13ea6	-0.07873277
13	0x3e562b75	0.20915015
14	0x3dbef6dc	0.093244284
15	0x3dcc31b2	0.09970416
16	0x3d8852e2	0.06656434
17	0xbd106f9f	-0.0352627
18	0xbeb47b36	-0.35250252
19	0x3bd14d7d	0.006387411
20	0x3d94f1bc	0.0727267
21	0x3ded318c	0.11581716
22	0x3bbead67	0.005819011
23	0x3e0b39d3	0.13596277
24	0x3da8237b	0.08209892
25	0x3c7612cf	0.015019133
26	0x3d8b1665	0.06791381
27	0xbc91f23e	-0.017815705
28	0x3cd47c54	0.02593819
29	0x3d37bb47	0.044856336
30	0x3cc076b0	0.023494095
31	0xbe0702c8	-0.13184655
32	0xbe47ca75	-0.19510825
33	0xbd0de313	-0.034640383
34	0xbe227fc4	-0.15869051
35	0x3e07aa3a	0.1324853
36	0xbd3e9b4f	-0.046534833
37	0x3d53a517	0.051671114
38	0xbe560200	-0.208992
39	0x3e8c29a6	0.27375525
40	0xbcb7e165	-0.022446344
41	0xbd83af6a	-0.06429942
42	0x3dff4ff9	0.124664254
43	0x3d1a8b2a	0.037730373
44	0xbc5f195b	-0.013616885
45	0xbe67cf4f	-0.22637676
46	0x3dc32b80	0.09529781
47	0xbd01423a	-0.0315573
48	0x3d430367	0.047610667
49	0xbe279b4f	-0.1636784
50	0xbde0b782	-0.10972501
51	0xbddb85da	-0.107188895
52	0xbdae74a5	-0.08518342
53	0xbe4033ab	-0.1876971
54	0xbe34be8b	-0.17650811
55	0xbdcbb7ff	-0.09947204
56	0x3da6f19d	0.08151553
57	0x3dc58885	0.0964518
58	0x3d7ed306	0.062212966
59	0x3cde9c86	0.027174246
60	0xbdcd48e2	-0.10023667
61	0x3e0c4380	0.13697624
62	0x3e280f35	0.16412051
63	0xbd78a92b	-0.060708206
64	0xbc0b9815	-0.008520146
65	0x3e0e90d5	0.13922437
66	0x3de940b7	0.113892965
67	0xbc5432ae	-0.012951536
68	0x3e6a487b	0.22879212
69	0xbcaeb238	-0.021325216
70	0xbde681d1	-0.11255229
71	0x3d6718b8	0.056420058
72	0x3d647e0a	0.055784263
73	0x3dbeebbc	0.093223065
74	0xbd5e834c	-0.054324433
75	0x3c1baa28	0.009501018
76	0xbae081a6	-0.0017128482
77	0x3dfb396f	0.12266814
78	0xbd83449f	-0.06409573
79	0xbcf41115	-0.029793302
80	0xbe2128c1	-0.15738203
81	0x3d273346	0.040820383
82	0xbe1cf0b2	-0.15326193
83	0x3dbfa6cc	0.09357986
84	0x3dbb1f61	0.091368444
85	0xbd20b8bd	-0.03923868
86	0x3dee9632	0.11649741
87	0xbe0ae2ab	-0.1356303
88	0x3c743297	0.01490464
89	0x3ce83f59	0.028350519
90	0x3cacc4cb	0.021089932
91	0x3cb7e136	0.022446256
92	0x3decfbe8	0.11571485
93	0xbe944f10	-0.2896657
94	0xbdf246ef	-0.11829936
95	0xbd2c0511	-0.04199702
96	0x3d08bc18	0.033382505
97	0xbea4366e	-0.32072777
98	0x3e3a9763	0.18221812
99	0xbd5b4a95	-0.053537924
100	0xbcce7a5d	-0.025204832
101	0xbdfd654d	-0.12372837
102	0x3d691fe8	0.056915194
103	0xbda05090	-0.07827866
104	0xbce83a3e	-0.028348085
105	0x3dd2778c	0.10276708
106	0xbe1f4d2b	-0.15556781
107	0xbd9f1371	-0.0776738
108	0xbdde48bf	-0.10853719
109	0xbe2410f0	-0.16022086
110	0x3de8f213	0.11374297
111	0xbc65e02f	-0.0140305
112	0x3db9d33e	0.090734944
113	0x3d32ca93	0.04365022
114	0x3d4efe0f	0.050535258
115	0xbdcf1ec5	-0.10113291
116	0xbe9c5c24	-0.30539048
117	0x3e1a6796	0.15078577
118	0x3ddeca94	0.108784825
119	0xbd0a2d1c	-0.033734426
120	0x3c276787	0.010217554
121	0x3e17284f	0.1476147
122	0x3d828e57	0.063748054
123	0x3b9694fa	0.004595396
124	0xbdb4b8ed	-0.08824334
125	0x3de576af	0.11204278
126	0xbd3573d0	-0.0442999
127	0x3d80e001	0.06292725
128	0x3c80a494	0.015703477
129	0xbd1cdf78	-0.038299054
130	0xbdb2357d	-0.08701608
131	0xbc27f531	-0.010251329
132	0xbe312a27	-0.17301236
133	0xbdbfd58b	-0.09366902
134	0xbe3638e8	-0.17795146
135	0xbd6d6266	-0.05795517
136	0x3e2a8850	0.16653562
137	0x3da1a7e2	0.07893349
138	0x3ce2a877	0.02766822
139	0xbd97a511	-0.07404531
140	0x3d09aa47	0.033609655
141	0xbdd0a878	-0.10188383
142	0x3e076184	0.13220793
143	0xba36d576	-0.0006974557
144	0xbe169fa6	-0.14709339
145	0x3e1a8e31	0.15093304
146	0xbda64ce5	-0.08120135
147	0xbe27a538	-0.1637162
148	0x3ce10d16	0.02747206
149	0xbe04ed93	-0.12981252
150	0x3e4f14de	0.20222804
151	0xbe8b292e	-0.27179855
152	0xbd47c717	-0.04877385
153	0x3dd81da8	0.105525315
154	0xbcc495f9	-0.023997294
155	0xbcf6f1be	-0.030144569
156	0x3d56928d	0.052385855
157	0xbd73ae66	-0.05949249
158	0xbd689203	-0.056779873
159	0x3e86b3c6	0.2630903
160	0xbd9b29a1	-0.075762995
161	0x3dbd5757	0.092451744
162	0x3dff51a4	0.124667436
163	0xbdc4b599	-0.096049495
164	0x3dc437ef	0.09580981
165	0xbd624e80	-0.055250645
166	0x3d1f9d31	0.03896827
167	0x3d5c1154	0.053727463
168	0x3d09044a	0.033451356
169	0xbe0b588b	-0.13607995
170	0x3d7d6287	0.06186154
171	0x3d348095	0.044067938
172	0xbea71038	-0.3262956
173	0x3da12793	0.07868876
174	0xbe29bac3	-0.1657515
175	0x3e0cda5e	0.13755175
176	0xbc6cb3a8	-0.01444713
177	0xbda109d5	-0.078632034
178	0xbddc61d2	-0.10760845
179	0x3cb2474d	0.021762514
180	0x3d4343b2	0.04767198
181	0x3c2f028f	0.010681762
182	0x3cf20bfe	0.029546734
183	0xbe057988	-0.13034642
184	0x3cd83c91	0.026396068
185	0x3cd69930	0.026196092
186	0xbd4e59d5	-0.05037864
187	0xb9d9e8a2	-0.0004156279
188	0x3e1a9b55	0.15098317
189	0xbd782baa	-0.060588516
190	0x3d21c78c	0.039496943
191	0xbd7c4ce0	-0.06159675
192	0xbdaa31d0	-0.08310282
193	0xbd630773	-0.055427026
194	0xbd5f6b4c	-0.054545686
195	0x3cdc18f8	0.026867375
196	0xbe404b92	-0.18778828
197	0xbea67a71	-0.3251529
198	0xbe0b4ad3	-0.13602762
199	0xbe7238fd	-0.23654552
200	0xbbd58458	-0.0065160207
201	0xbe918b01	-0.28426364
202	0x3d84de6d	0.06487737
203	0xbd8f97fa	-0.07011409
204	0xbc85b206	-0.01632024
205	0xbe253432	-0.16133192
206	0xbd06f038	-0.032943934
207	0xbcc7656f	-0.02434036
208	0x3b50545e	0.0031788568
209	0xbd4366da	-0.04770551
210	0xbe8732ad	-0.2640585
211	0xbe2f2800	-0.17105103
212	0x3db73cc7	0.08947139
213	0xbd635f8a	-0.055511035
214	0x3cee9cd1	0.02912751
215	0xbcf509f0	-0.029911965
216	0x3da83b7f	0.08214473
217	0x3e02a011	0.12756373
218	0x3dd28181	0.10278607
219	0x3dca1648	0.09867531
220	0x3d2f64a6	0.042820595
221	0x3d20bf50	0.03924495
222	0x3d9af67a	0.07566543
223	0xbda27b83	-0.07933714
224	0x3d07a140	0.033112764
225	0xbdd52501	-0.104074486
226	0xbd357b3c	-0.04430698
227	0x3dcbd20e	0.09952174
228	0x3d26aece	0.04069405
229	0x3dcd1b0d	0.10014925
230	0x3c883df6	0.016631108
231	0x3d933c4a	0.071892336
232	0xbe38a3aa	-0.18031183
233	0xbdbaf762	-0.09129216
234	0x3e0400df	0.12890957
235	0xbc3195c6	-0.010838931
236	0xbe4cbad3	-0.19993143
237	0x3decdc81	0.11565495
238	0xbe05a14c	-0.13049811
239	0xbd02373a	-0.03179095
240	0xbe0cb8dc	-0.13742393
241	0xbe38688e	-0.18008634
242	0x3cb8333f	0.022485374
243	0xbd78eeb8	-0.060774535
244	0xbe04f000	-0.12982178
245	0xbc95b3e2	-0.018274251
246	0x3e01af0a	0.12664428
247	0xbcc06fdb	-0.023490837
248	0xbe339702	-0.17538074
249	0x3b6969cf	0.0035616045
250	0xbdb929ca	-0.09041174
251	0xbde2a02e	-0.11065708
252	0xbd8d900c	-0.069122404
253	0x3dbdccdf	0.09267592
254	0xbd2ab22f	-0.041673835
255	0x3c064bd4	0.00819679
