CRL/模型集_selfplay/run_20260123-185640/slime_ppo_gpu.pth (torch, 370495 bytes, 11 tensors)

critic.0.weight f4 [256, 48]
-0.19284414 -0.11377562 0.026139949 0.025330784 -0.07336033 0.0028532625 0.011420439 0.06096323
-0.134869 -0.44463772 -0.1614764 -0.17425562 -0.22294535 -0.10818373 0.02448017 0.059174683
-0.14154413 -0.04360055 0.011331053 -0.03742908 0.015997387 -0.41170293 -0.15721627 -0.2856134
0.0111931395 -0.035154305 0.0153722055 0.10885895 0.034381952 -0.033307645 -0.0134217255 0.033390075
0.14083178 -0.38213655 -0.11147042 -0.26578775 -0.13376579 0.020586725 0.03630895 -0.037790805
0.12723309 -0.088932514 0.033161346 -0.025524352 0.12105014 -0.25937262 0.21040663 -0.17835735
0.068854325 -0.008894274 -0.028863113 0.04348609 0.035796233 -0.03276306 -0.03708647 -0.12358208
-0.10902651 0.011801164 -0.0760976 0.031571858 0.0706575 -0.049460303 0.01876053 -0.057196494
0.17907904 -0.052141815 0.0041924943 0.07977364 -0.063972354 0.16664557 -0.104324184 0.059126846
0.08784635 0.017608318 -0.0461481 -0.1120524 -0.05677373 -0.059843622 0.008647074 0.029723724
0.142082 0.23198761 0.06817218 0.031865478 0.018457264 0.11113393 -0.04136953 0.020838242
-0.08294554 -0.039904054 -0.031406675 -0.035802256 0.021013383 0.3476899 -0.022121785 0.2871083
0.11481548 -0.04129071 -0.07821084 -0.03997165 0.056355648 -0.007294598 -0.045816526 -0.11570932
-0.07572111 -0.23480941 0.13708799 0.14671779 0.008749803 -0.07093443 -0.032842014 -0.017693242
-0.07801515 0.026820106 0.020738903 0.07713254 0.18398628 -0.083232574 -0.029731108 -0.13840939
-0.046171196 0.06745428 -0.051271085 -0.002370095 0.071491435 -0.065178625 -0.024383605 -0.045685
0.046953425 0.076085776 -0.106394306 -0.13887665 0.09383314 -0.19998452 -0.0987149 -0.021866571
-0.04887875 -0.12136646 0.03695642 -0.15139636 0.1466956 0.10353134 -0.15635581 0.019756896
0.13200614 -0.14027384 -0.038371753 -0.040257417 -0.0011064623 0.08799686 -0.11584259 -0.061016124
-0.10268201 -0.12212756 -0.16678303 -0.13827857 -0.0068058292 -0.14677519 -0.046671238 -0.089177914
-0.08224142 0.1523108 0.024662863 0.010476923 0.103202716 -0.0638108 -0.06529801 0.034593824
-0.067629516 -0.048254598 -0.0007153895 -0.14517376 0.058036007 -0.0054281154 0.010197138 0.12982024
-0.08799022 0.106858484 -0.049238015 0.0037936906 0.08939985 0.029571246 -0.06547655 0.094360314
0.042465776 0.091178924 0.084562674 0.11433487 0.15632893 0.2929914 0.11407438 -0.019818645
0.07469378 0.056357734 0.0036671644 -0.03510322 0.33800808 -0.11481792 0.0037875432 -0.025750639
0.017865965 -0.079954825 0.24435575 -0.07692463 -0.122154824 0.05834209 -0.0039100647 0.03167874
0.33308986 -0.12104076 0.00734115 -0.051384885 -0.02842237 0.076682396 0.31423017 0.044342425
-0.12074853 0.09388874 0.0047792015 0.077434994 0.21404447 -0.11994387 -0.010439458 0.026088057
0.11276426 -0.029352516 0.30412704 0.04080035 0.08189096 0.06513456 -0.005826519 0.025578545
0.17749457 0.059601817 0.008789839 -0.016125618 -0.0121509805 0.02405754 0.3847214 -0.12999617
-0.058223683 -0.04977474 -0.080454245 -0.0589581 0.05064349 -0.13612726 0.0025794713 0.051512532
0.010072419 0.28208384 0.06997051 -0.12576392 -0.11020863 -0.043470416 -0.08609055 -0.025542876
00000000: ef78 45be 3103 e9bd 7223 d63c 8182 cf3c
00000010: f13d 96bd cdfd 3a3b cb1c 3b3c 94b4 793d
00000020: 191b 0abe 8ea7 e3be 125a 25be 1170 32be
00000030: c94b 64be 6e8f ddbd a38a c83c 2761 723d
00000040: f2f0 10be 7e96 32bd e2a5 393c 3c4f 19bd
00000050: f40c 833c baca d2be 4dfd 20be eb3b 92be
00000060: 6e63 373c f6fd 0fbd b4db 7b3c 71f1 de3d
00000070: 17d4 0c3d 996d 08bd cce6 5bbc 08c4 083d
00000080: 3536 103e 67a7 c3be 9b4a e4bd 5515 88be
00000090: e6f9 08be 7ea5 a83c b2b8 143d 88ca 1abd
000000a0: 6449 023e 4022 b6bd 31d4 073d 7218 d1bc
000000b0: 23e9 f73d 7dcc 84be d674 573e 4fa3 36be
000000c0: 7f03 8d3d 4ab9 11bc 5672 ecbc 781e 323d
000000d0: 129f 123d 8f32 06bd fbe7 17bd 9a18 fdbd
000000e0: 4a49 dfbd ab59 413c 0fd9 9bbd 7e51 013d
000000f0: e1b4 903d e396 4abd afaf 993c df46 6abd
00000100: 7f60 373e a892 55bd 3161 893b 5d60 a33d
00000110: f003 83bd 23a5 2a3e eba7 d5bd fe2e 723d
00000120: cae8 b33d 523f 903c ca05 3dbd bb7b e5bd
00000130: 928b 68bd 961e 75bd 75ac 0d3c 2b7f f33c
00000140: f27d 113e 298e 6d3e db9d 8b3d 6085 023d
00000150: b033 973c 309a e33d 1973 29bd f6b4 aa3c
00000160: 5adf a9bd 6f72 23bd 49a4 00bd 63a5 12bd
00000170: 4224 ac3c 6904 b23e bf38 b5bc dcff 923e
00000180: 6124 eb3d 7320 29bd 012d a0bd 50b9 23bd
00000190: 2ed5 663d 8607 efbb 1caa 3bbd 02f9 ecbd
000001a0: ab13 9bbd e171 70be cb60 0c3e 303d 163e
000001b0: 555b 0f3c 1246 91bd 5985 06bd 6bf1 90bc
000001c0: 68c6 9fbd d7b5 db3c a2e4 a93c aaf7 9d3d
000001d0: e666 3c3e d775 aabd a78e f3bc 31bb 0dbe
000001e0: 021e 3dbd 7825 8a3d a101 52bd 9953 1bbb
000001f0: 1a6a 923d 5f7c 85bd 20c0 c7bc 3220 3bbd
00000200: 3c52 403d dcd2 9b3d 42e5 d9bd ae35 0ebe
00000210: 972b c03d bec8 4cbe 0a2b cabd 8621 b3bc
00000220: 1635 48bd fb8e f8bd 9d5f 173d a607 1bbe
00000230: 5f37 163e 3d08 d43d bd1b 20be 37d9 a13c
00000240: 9e2c 073e f2a3 0fbe b32b 1dbd f6e4 24bd
00000250: b706 91ba b337 b43d e13e edbd 0bec 79bd
00000260: f24a d2bd 041e fabd 2cc9 2abe e698 0dbe
00000270: 6f03 dfbb 3c4c 16be 572a 3fbd e9a2 b6bd
00000280: 316e a8bd 5df7 1b3e c609 ca3c 66a7 2b3c
00000290: f25b d33d 3daf 82bd f7ba 85bd 41b2 0d3d
000002a0: 5881 8abd 9da6 45bd fa88 3bba 6ea8 14be
000002b0: 2ab7 6d3d 55de b1bb e611 273c 99ef 043e
000002c0: 3734 b4bd 9fd8 da3d cdad 49bd 919f 783b
000002d0: 4517 b73d 663f f23c 9218 86bd fb3f c13d
000002e0: 98f0 2d3d 04bc ba3d 322f ad3d 6628 ea3d
000002f0: b114 203e f802 963e d49f e93d b65a a2bc
00000300: 0df9 983d 5ed7 663d cf54 703b 65c8 0fbd
00000310: 650f ad3e a825 ebbd 6e38 783b 01f3 d2bc
00000320: a55b 923c 5bbf a3bd 6538 7a3e a98a 9dbd
00000330: 4f2c fabd 1ef8 6e3d 0020 80bb 91c1 013d
00000340: c18a aa3e 38e4 f7bd 088e f03b f578 52bd
00000350: 08d6 e8bc a90b 9d3d c7e2 a03e 67a0 353d
00000360: 014b f7bd bd48 c03d d99a 9c3b 3d96 9e3d
00000370: 792e 5b3e 22a5 f5bd 430a 2bbc 9fb6 d53c
00000380: f3f0 e63d b074 f0bc 8ab6 9b3e 451e 273d
00000390: 73b6 a73d 4565 853d 62ec bebb 198a d13c
000003a0: 23c1 353e 0921 743d 4203 103c df19 84bc
000003b0: e814 47bc 5114 c53c 34fa c43e b71d 05be
000003c0: f57b 6ebd 99e0 4bbd 32c5 a4bd 0c7e 71bd
000003d0: 8c6f 4f3d f264 0bbe 590c 293b cefe 523d
000003e0: ca06 253c 4b6d 903e b34c 8f3d 42c8 00be
000003f0: 10b5 e1bd 090e 32bd 3e50 b0bd 4b3f d1bc

critic.0.bias f4 [256]
0.2037146 0.202026 -0.034999494 -0.0037123105 -0.0027835171 -0.17594709 0.05859854 0.032091722
0.06612708 -0.0047684484 0.19690157 0.2061485 0.22796252 0.26398373 0.1295319 -0.18967572
-0.12804843 0.30212864 0.052520078 0.11265936 -0.17009507 -0.048294414 -0.093597375 0.08244902
0.11215006 0.19998969 -0.08380255 0.109578304 -0.040926766 -0.103364944 0.19009191 -0.009500039
-0.1103917 0.14582819 0.061555516 -0.18705723 0.14374423 0.08682684 0.34652132 -0.14495715
0.16134068 -0.14362301 -0.09023779 0.25562298 0.13330828 0.21156083 0.161514 -0.15726496
-0.010578702 0.17192116 -0.33536956 0.11136374 -0.19823754 -0.18771046 0.34163085 -0.08093246
-0.015414523 -0.2199578 -0.5013064 -0.25625128 -0.10311663 0.026507111 -0.16395573 -0.3695917
-0.01058802 -0.107373804 -0.10836506 -0.14086217 0.19150336 0.16985475 0.08182056 -0.039626792
-0.014335613 -0.1024145 -0.098357655 0.14273833 -0.49585995 0.0852493 -0.06937899 -0.08331789
-0.2464702 -0.07372816 -0.004133729 -0.055977196 0.13223334 -0.0840192 -0.1347672 -0.05548958
-0.10067679 0.14201011 0.16958372 -0.02492042 -0.068015814 0.15202093 -0.27415732 -0.19240439
-0.06871561 0.044400826 0.007950918 0.20078634 0.081154115 -0.08544663 0.10554438 -0.017105578
0.10153242 -0.08688633 -0.046960797 0.07742051 -0.19536778 -0.16256987 -0.12444801 -0.24505948
-0.0142536275 -0.032179665 0.009369163 0.044892993 0.011079767 -0.13099617 0.08548518 -0.117659405
0.13146098 0.025057215 0.023465065 -0.08357086 0.0001475721 -0.031821854 -0.06908786 -0.11985655
0.105452776 0.028418154 0.0077961837 0.20419273 -0.08445563 -0.035737712 0.028924124 0.058974177
-0.04114936 -0.058993325 0.22113611 -0.13012946 -0.017550318 -0.4623402 0.09818963 0.017001769
0.06846829 0.2110597 -0.13430776 0.10582626 0.26928353 -0.124141425 -0.14568682 0.041649494
0.10124261 0.16024284 -0.10621187 -0.028607437 0.066483855 0.071266845 -0.12433861 -0.13253318
0.021828722 0.14512451 0.19990852 -0.14050086 -0.09173387 -0.05921698 -0.2139795 -0.12208229
-0.14254887 0.13848023 0.207696 0.0073231207 -0.13745917 -0.00023833214 0.20687121 0.23236784
0.16532364 0.08826779 0.023262354 -0.046088442 0.028977288 -0.12426306 -0.09271976 0.17626394
0.20593609 -0.041415177 0.030704996 0.09292507 0.1329918 0.19843933 0.057854716 0.2010397
-0.16503589 0.20324038 -0.023439616 -0.06690756 0.0020236056 -0.10048022 -0.03303726 0.0019131269
0.073458895 -0.19213215 -0.10006605 0.027852312 -0.07099669 -0.1603888 -0.115303524 0.056470953
0.23732275 -0.08417255 0.09848547 -0.07285812 -0.09378794 0.035356835 -0.08522572 0.12484195
-0.052251425 0.02731977 0.0034706632 -0.008511393 -0.025256844 -0.14623556 -0.056580205 0.15525524
-0.20319475 0.08023152 -0.22022069 -0.13912508 0.04839363 -0.24751464 0.16792856 0.028067645
-0.25146118 0.06416882 0.02136165 -0.1983831 0.015898617 0.15082712 0.105526164 0.25445065
-0.06685947 -0.2538444 0.091347285 -0.042454418 -0.16730587 0.14808805 0.12399065 -0.21110247
0.25122672 0.019336188 -0.06633199 -0.13012032 -0.093154415 0.048246235 -0.08533595 0.21654284
00000000: 8f9a 503e e7df 4e3e a15b 0fbd 3c4a 73bb
00000010: ab6b 36bb 792b 34be 0605 703d 9c72 033d
00000020: a26d 873d a540 9cbb 91a0 493e 9818 533e
00000030: 026f 693e e028 873e 03a4 043e 5a3a 42be
00000040: 211f 03be 9bb0 9a3e 4b1f 573d f3b9 e63d
00000050: 672d 2ebe 5dd0 45bd fbaf bfbd 08db a83d
00000060: eeae e53d 19ca 4c3e aca0 abbd 976a e03d
00000070: d3a2 27bd 00b1 d3bd 74a7 423e 0da6 1bbc
00000080: 0b15 e2bd fc53 153e a321 7c3d ee8b 3fbe
00000090: b031 133e 45d2 b13d 3e6b b13e a66f 14be
000000a0: 7e36 253e e911 13be 97ce b8bd 04e1 823e
000000b0: f781 083e 67a3 583e ed63 253e 110a 21be
000000c0: 4b52 2dbc 1a0c 303e 8fb5 abbe ac12 e43d
000000d0: c8fe 4abe 2c37 40be 3dea ae3e ebbf a5bd
000000e0: 328d 7cbc 9e3c 61be 9e55 00bf 5e33 83be
000000f0: d02e d3bd 7125 d93c 03e4 27be 203b bdbe
00000100: 6079 2dbc cce6 dbbd 80ee ddbd 2c3e 10be
00000110: 7519 443e 67ee 2d3e 8a91 a73d b44f 22bd
00000120: ebdf 6abc b2be d1bd bd6f c9bd ff29 123e
00000130: 5be1 fdbe 2f97 ae3d 9216 8ebd 92a2 aabd
00000140: af62 7cbe cafe 96bd 3b74 87bb 5848 65bd
00000150: 2d68 073e 4212 acbd 6a00 0abe 0b49 63bd
00000160: a22f cebd 196b 113e 5ba7 2d3e e925 ccbc
00000170: e04b 8bbd 60ab 1b3e 595e 8cbe a805 45be
00000180: c5ba 8cbd a4dd 353d 9144 023c ef9a 4d3e
00000190: 2134 a63d a5fe aebd a727 d83d ff20 8cbc
000001a0: 3bf0 cf3d 76f1 b1bd f759 40bd a58e 9e3d
000001b0: 7e0e 48be b778 26be 99de febd dff0 7abe
000001c0: 0c88 69bc d3ce 03bd 1e81 193c b7e1 373d
000001d0: e987 353c dc23 06be db12 af3d 6af7 f0bd
000001e0: b59d 063e ca44 cd3c cf39 c03c 3327 abbd
000001f0: 95bd 1a39 a257 02bd f07d 8dbd 5a77 f5bd
00000200: a0f7 d73d 30cd e83c 2177 ff3b e617 513e
00000210: 13f7 acbd b561 12bd 49f2 ec3c e88e 713d
00000220: 3b8c 28bd fca2 71bd 8171 623e a840 05be
00000230: afc5 8fbc dbb7 ecbe a517 c93d 4b47 8b3c
00000240: 1a39 8c3d 0920 583e f987 09be 70bb d83d
00000250: 88df 893e dc3d febd ed2e 15be a998 2a3d
00000260: 4958 cf3d b316 243e 9c85 d9bd 255a eabc
00000270: b028 883d 5af4 913d 3ea5 febd c7b6 07be
00000280: 26d2 b23c 859b 143e d2b4 4c3e 75df 0fbe
00000290: f8de bbbd 818d 72bd 711d 5bbe 4806 fabd
000002a0: 55f8 11be c3cd 0d3e 43ae 543e caf6 ef3b
000002b0: 19c2 0cbe cce8 79b9 0cd6 533e d6f1 6d3e
000002c0: 9a4a 293e bec5 b43d b190 be3c 3cc7 3cbd
000002d0: c761 ed3c a27d febd dce3 bdbd 897e 343e
000002e0: e9e0 523e f6a2 29bd 0b89 fb3c 804f be3d
000002f0: 012f 083e ae33 4b3e 11f9 6c3d 5add 4d3e
00000300: 2bff 28be 3f1e 503e 7004 c0bc d506 89bd
00000310: 789e 043b 93c8 cdbd 1452 07bd e3c1 fa3a
00000320: 9e71 963d 4abe 44be 6eef ccbd 882a e43c
00000330: b666 91bd f63c 24be 4124 ecbd 164e 673d
00000340: bc04 733e a862 acbd c0b2 c93d a336 95bd
00000350: e413 c0bd 54d2 103d d38a aebd 23ad ff3d
00000360: 9705 56bd b6cd df3c 1174 633b 5f73 0bbc
00000370: 71e7 cebc c6be 15be a5c0 67bd 3bfb 1e3e
00000380: 4912 50be 6c50 a43d 8881 61be ce76 0ebe
00000390: 6638 463d 7a74 7dbe 77f5 2b3e 1eee e53c
000003a0: 85bf 80be f16a 833d a1fe ae3c f024 4bbe
000003b0: d13d 823c 6d72 1a3e 1a1e d83d 5b47 823e
000003c0: 9eed 88bd e5f7 81be 4914 bb3d afe4 2dbd
000003d0: 3b52 2bbe 65a4 173e cfee fd3d 3f2b 58be
000003e0: caa0 803e ed66 9e3c 11d9 87bd 433e 05be
000003f0: bec7 bebd d89d 453d 9dc4 aebd 68bd 5d3e

critic.2.weight f4 [128, 256]
-0.052112043 -0.013402936 0.035880577 -0.06202212 0.02216701 -0.051521663 -0.04808316 -0.12265478
-0.020232353 -0.17748696 0.13087076 0.096559994 0.009181754 0.07584758 -0.011272757 0.048972424
0.0053096483 -0.096659645 -0.066672795 -0.003950386 -0.029959999 -0.08662617 0.06404938 0.18299128
0.10131937 0.07506325 0.043824974 -0.039303258 0.012708788 0.019942187 -0.031675387 -0.3348364
-0.04776194 0.039733116 -0.105483085 0.0121595785 -0.024387948 0.013320712 0.030851016 -0.06418488
0.0037505766 0.029848328 0.0006868368 -0.036014482 -1.9458638 -0.028483577 0.044780586 0.044762462
0.012008072 -0.11898144 -0.034238532 -0.0033401258 0.040627513 0.043973338 -0.06406715 -0.29015377
0.05613394 -0.05150267 0.017058117 -1.3481715 -0.031548202 0.022903735 0.04603084 -3.9676816
0.0027860797 -0.022777092 0.015381116 0.035147954 0.016789503 -0.034266237 -0.13552718 0.027510365
0.044261307 -0.013365898 -0.0059078564 0.05601363 0.1322141 -0.010122046 0.037429865 -0.009433044
-0.14185457 -0.0019297268 -0.061782565 -0.004624176 0.0833828 0.022856751 -0.002333183 -0.110723585
-0.060890373 0.05996994 -0.0066314237 0.024583748 0.045743577 0.04929826 -0.086705364 -0.030751709
-0.08995097 0.0001216112 0.029062625 0.13148095 0.05108571 0.034097146 0.014163151 -0.038498063
0.018140348 -0.027166545 -0.04484963 0.033738647 -0.010897219 0.034201924 0.01438176 0.0356595
0.1093707 0.037938435 0.005908584 0.039018404 -0.066007264 -0.013873795 -0.054626342 -0.04728477
0.032446895 0.016690886 0.047878362 0.24730112 -0.31254 -0.011517674 0.03709663 0.001690351
0.007144535 -0.04822858 -0.11839576 0.04612692 0.020173617 0.04121182 0.016820708 0.13880004
-0.016578272 -0.0629702 0.04416675 0.13835761 0.2776198 -0.052268848 0.13261399 -0.0075054346
-0.030406713 0.08388418 0.22322942 0.0264543 -0.031574544 -0.13509092 0.02715834 -0.004008085
0.06773714 -0.006056735 -3.2356515 -0.03137639 0.012148383 0.046640094 -0.08763325 0.055381026
0.032439347 -0.049652044 -0.025524022 0.00511894 0.04847051 0.004873152 0.020117542 0.07324844
-0.039554406 0.07669686 0.07307658 -0.03030442 -0.08150883 0.052182395 0.083047025 -0.023890454
-0.0044369106 -0.057647645 -0.009940126 -0.15573901 -0.08575288 0.05854838 0.11631245 0.026681475
-0.027335849 -0.0028444328 -0.01637885 -0.044887155 -0.025274875 -0.0317276 0.07424017 0.030252194
0.016451655 -0.006889854 0.011617243 -0.047476206 -0.025791727 -0.024017278 0.025150944 0.0038757224
-0.026714984 -0.033450667 0.013324589 0.06621357 0.041454054 0.070233986 0.05614574 -0.07283548
-0.003639267 -0.0054254364 -0.017038183 0.049362537 0.032719597 0.001050141 0.086741395 0.025613748
-0.034775622 -0.008671805 -0.43183643 -0.107284985 0.028421152 -0.08069141 -0.07900628 0.051384527
0.0036782802 -0.11929871 0.02632461 -0.021198746 -0.05001458 -0.04127007 0.01859388 -0.12397465
0.060784068 0.005325162 0.005591181 0.058176316 -0.050790984 0.029801695 -0.039149225 0.06274708
-0.06666872 -0.22462375 -0.042252887 0.040110063 0.10527411 -0.0602781 0.020614794 0.006849156
0.06633205 0.062594734 0.11494759 0.031051163 0.17577872 0.0667019 -0.15442382 0.13099566
00000000: 7073 55bd fd97 5bbc 83f7 123d e80a 7ebd
00000010: 9797 b53c 6108 53bd d9f2 44bd 6e32 fbbd
00000020: 52be a5bc 24bf 35be fc02 063e 3fc1 c53d
00000030: 116f 163c fa55 9b3d 5fb1 38bc 4f97 483d
00000040: 8ffc ad3b 7ef5 c5bd bf8b 88bd 3d72 81bb
00000050: ac6e f5bc 1069 b1bd 522c 833d 1162 3b3e
00000060: 8880 cf3d c3ba 993d d181 333d 74fc 20bd
00000070: 8538 503c cc5d a33c 0dbe 01bd ad6f abbe
00000080: 06a2 43bd 31bf 223d 8407 d8bd f838 473c
00000090: 3cc9 c7bc 1e3f 5a3c 45bb fc3c 5d73 83bd
000000a0: 3ccc 753b 7b84 f43c d60c 343a ec83 13bd
000000b0: 1112 f9bf 6456 e9bc d96b 373d d858 373d
000000c0: 81bd 443c 8bac f3bd b43d 0cbd 03e6 5abb
000000d0: 0969 263d 631d 343d a335 83bd 098f 94be
000000e0: b4ec 653d 77f4 52bd 77bd 8b3c e290 acbf
000000f0: b038 01bd 9da0 bb3c d68a 3c3d 7fee 7dc0
00000100: a996 363b 0697 babc 1401 7c3c 4df7 0f3d
00000110: 248a 893c c15a 0cbd a3c7 0abe 6b5d e13c
00000120: 584b 353d a4fc 5abc b196 c1bb 8c6e 653d
00000130: 2263 073e f0d6 25bc 0f50 193d 0e8d 1abc
00000140: 5342 11be e3ee fcba b70f 7dbd 6686 97bb
00000150: 9ac4 aa3d 153e bb3c 51e8 18bb 0cc3 e2bd
00000160: 2f68 79bd 0aa3 753d 6a4c d9bb db63 c93c
00000170: 9e5d 3b3d f9ec 493d 9592 b1bd 02eb fbbc
00000180: 3738 b8bd 8409 ff38 be14 ee3c f1a2 063e
00000190: 403f 513d 73a9 0b3d 900c 683c 25b0 1dbd
000001a0: 119b 943c 608c debc 3fb4 37bd 8931 0a3d
000001b0: 408a 32bc 5117 0c3d 79a1 6b3c b20f 123d
000001c0: bffd df3d 5565 1b3d cc9c c13b c3d1 1f3d
000001d0: d12e 87bd ea4e 63bc dfbf 5fbd adad 41bd
000001e0: 09e7 043d 53bb 883c 1a1c 443d 813c 7d3e
000001f0: 3e05 a0be a0b4 3cbc a3f2 173d c58e dd3a
00000200: b41c ea3b 558b 45bd 7a79 f2bd 95ef 3c3d
00000210: 2443 a53c bacd 283d 95cb 893c 9921 0e3e
00000220: 28cf 87bc 85f6 80bd 32e8 343d 9ead 0d3e
00000230: 2f24 8e3e dc17 56bd f6cb 073e 26f0 f5bb
00000240: 8017 f9bc 78cb ab3d 4196 643e b0b6 d83c
00000250: 4f54 01bd 4655 0abe 2b7b de3c 4156 83bb
00000260: c5b9 8a3d 9377 c6bb ea14 4fc0 8884 00bd
00000270: 030a 473c af09 3f3d 1079 b3bd 37d7 623d
00000280: 1fdf 043d f15f 4bbd c117 d1bc c8bc a73b
00000290: 0389 463d f6ae 9f3b 8bcd a43c 4703 963d
000002a0: cd03 22bd 3e13 9d3d 2da9 953d fa40 f8bc
000002b0: 1aee a6bd 35bd 553d 8f14 aa3d eab5 c3bc
000002c0: 8163 91bb f01f 6cbd e9db 22bc 0c7a 1fbe
000002d0: 359f afbd 6dd0 6f3d 3935 ee3d 1c93 da3c
000002e0: 6eef dfbc aa69 3abb f02c 86bc 98db 37bd
000002f0: 410d cfbc cdf4 01bd 3b0b 983d 73d3 f73c
00000300: 9fc5 863c 49c4 e1bb 4056 3e3c 6976 42bd
00000310: 2c49 d3bc e2bf c4bc 5a09 ce3c d5ff 7d3b
00000320: 62d9 dabc 9103 09bd 604f 5a3c fb9a 873d
00000330: bacb 293d d6d6 8f3d 13f9 653d c52a 95bd
00000340: c580 6ebb dcc7 b1bb a993 8bbc 5f30 4a3d
00000350: fc04 063d e3a4 893a 79a5 b13d ecd3 d13c
00000360: e270 0ebd 3014 0ebc aa19 ddbe 3bb8 dbbd
00000370: 7ad3 e83c 8a41 a5bd 0bce a1bd 9578 523d
00000380: 4d0f 713b e252 f4bd b5a6 d73c fea8 adbc
00000390: 17dc 4cbd ce0a 29bd 3152 983c 6ce6 fdbd
000003a0: b7f8 783d b27e ae3b 3a36 b73b 4a4a 6e3d
000003b0: 350a 50bd af22 f43c f05a 20bd 8b81 803d
000003c0: 9c89 88bd c503 66be 5d11 2dbd 734a 243d
000003d0: f499 d73d 2be6 76bd 5be0 a83c e36e e03b
000003e0: 19d9 873d ab31 803d a469 eb3d 025f fe3c
000003f0: 56ff 333e 019b 883d 4721 1ebe ba23 063e

critic.2.bias f4 [128]
0.06734156 -0.025703838 -0.008779432 0.018668573 0.03869846 0.08342493 -0.03999229 -0.011483752
-0.0810894 0.016660307 -0.078012615 0.042330477 0.03048866 0.029117975 0.111797966 0.054992914
0.06514321 0.03532695 0.05135844 -0.0051694084 0.06343288 -0.0037002747 -0.012917965 0.018693388
0.028102834 -0.0030091433 0.007337579 0.039446197 0.050483808 0.039348003 -0.054684427 -0.11873445
-0.02552085 -0.06536064 0.045501094 0.036810692 0.10890327 0.11919528 0.06931812 0.03846016
-0.03711706 -0.024851736 -0.06412578 -0.014379704 -0.0156892 0.012510267 -0.009092237 -0.09885077
0.04773846 0.047383808 0.028245939 -0.08450993 0.08770013 0.008266859 0.013964288 -0.0635726
0.043329522 -0.012767188 0.02719817 -0.051153492 -0.009044649 -0.060562883 -0.119719334 -0.13511477
-0.038609836 -0.014572259 0.039914317 -0.06334694 -0.011967164 0.009778976 0.0122383805 0.023416795
0.021279596 0.11198366 0.073433995 -0.016371302 0.024484 -0.111033954 0.047659896 -0.072236784
0.0068323473 -0.06802513 0.0093366755 0.060835868 0.029659351 0.113187134 0.0545111 -0.0048444825
0.026286216 -0.014492135 -0.024324263 -0.021615084 0.099378824 0.043508872 -0.01635274 -0.056801055
0.08510665 -0.0072363704 0.07010172 0.0056367386 0.052113045 0.015701963 -0.07008699 -0.022647256
-0.0020715927 0.0079118535 -0.06300311 0.037420705 -0.00866381 0.041964743 0.04876234 0.07761912
0.011492577 0.026207596 0.09790027 -0.0686032 -0.043159995 0.09548052 0.016673842 -0.044862393
-0.010687532 -0.021574749 0.029949173 0.022963101 -0.027256012 0.050617564 0.06921619 0.1446359
00000000: 5fea 893d db90 d2bc 9bd7 0fbc d6ee 983c
00000010: 4782 1e3d b1da aa3d f5ce 23bd 5926 3cbc
00000020: 3312 a6bd 327b 883c 14c5 9fbd b962 2d3d
00000030: 5bc3 f93c d288 ee3c 55f6 e43d 4040 613d
00000040: ce69 853d feb2 103d 3a5d 523d 2464 a9bb
00000050: 19e9 813d 4f80 72bb dfa5 53bc e022 993c
00000060: ea37 e63c 0c35 45bb 1370 f03b 5692 213d
00000070: 1cc8 4e3d 5f2b 213d c7fc 5fbd 0c2b f3bd
00000080: 1a11 d1bc cddb 85bd 5b5f 3a3d cfc6 163d
00000090: ad08 df3d a81c f43d a9f6 8d3d 6788 1d3d
000000a0: 0f08 18bd de95 cbbc 6054 83bd da98 6bbc
000000b0: a386 80bc ddf7 4c3c 9bf7 14bc 4672 cabd
000000c0: 6789 433d 8615 423d 0764 e73c 8b13 adbd
000000d0: 209c b33d b871 073c 78ca 643c 5a32 82bd
000000e0: 4c7a 313d 782d 51bc b2ce de3c 5386 51bd
000000f0: 0230 14bc c910 78bd 692f f5bd 875b 0abe
00000100: 5925 1ebd 7cc0 6ebc 327d 233d 0abc 81bd
00000110: ed11 44bc 0038 203c 7d83 483c 94d4 bf3c
00000120: 8c52 ae3c b057 e53d 9064 963d 1c1d 86bc
00000130: ab92 c83c c565 e3bd 0637 433d e1f0 93bd
00000140: e2e1 df3b c250 8bbd dbf8 183c 082f 793d
00000150: 2bf8 f23c a8ce e73d 0847 5f3d 77be 9ebb
00000160: 3156 d73c 6b70 6dbc ad43 c7bc 1e12 b1bc
00000170: 2087 cb3d 5c36 323d 2ef6 85bc 39a8 68bd
00000180: 654c ae3d 131f edbb 7e91 8f3d 64b4 b83b
00000190: 7d74 553d 67a1 803c c589 8fbd bd86 b9bc
000001a0: 8fc3 07bb b8a0 013c c607 81bd 7446 193d
000001b0: a7f2 0dbc 39e3 2b3d 05bb 473d c6f6 9e3d
000001c0: 5d4b 3c3c 50b1 d63c f07f c83d d67f 8cbd
000001d0: 89c8 30bd 4a8b c33d 9597 883c a1c1 37bd
000001e0: c21a 2fbc 87bd b0bc f857 f53c 1d1d bc3c
000001f0: 0048 dfbc 5d54 4f3d 38c1 8d3d 6f1b 143e

critic.4.weight f4 [1, 128]
0.3393724 -0.1945995 0.17506361 -0.16331361 0.015035066 -0.16682872 -0.08192197 -0.388881
0.30029285 -0.14364605 -0.8514026 -0.5696969 -0.11576129 0.1634763 0.64573056 -0.6408578
0.5985655 0.08166962 0.36628363 0.1385783 0.7658329 0.1756742 0.3757991 -0.43185565
0.2955691 0.25881752 0.20869355 -0.30062985 -0.09441499 0.21424566 0.6178397 0.32763585
0.16021653 -0.5285142 0.7777962 0.31300378 0.15549172 -0.3829802 -0.15941064 0.9334666
0.2595501 0.69260895 0.19982447 0.46982163 0.16167626 0.29582414 -0.2630902 0.61363524
0.98803705 -0.2498893 0.97263116 0.88062936 -0.43843475 0.1635169 0.47743845 -0.6030785
0.5382251 0.521664 0.46816716 0.7697134 -0.19127947 0.007942301 0.9623666 0.89720404
0.18704246 0.25509998 -0.26889628 0.6860925 0.41984645 0.46786484 0.47156832 -0.057674967
0.2331388 0.5424801 0.692905 1.3211482 0.5578277 -0.45759213 -0.44162735 0.3971142
-0.06618869 0.024824029 0.9735604 -0.23557776 0.42755893 0.5273986 1.1789604 0.36138818
-0.034760725 -0.1752218 0.059099797 -0.1074612 -0.7237481 -0.5301432 -0.24525286 -1.0403056
-0.41903362 -0.11542907 0.5605672 -0.5696891 1.0511833 -0.039533816 -0.20257543 0.18844187
0.20013815 -0.29130572 0.16445605 -0.46204665 0.24744934 0.30296892 0.53398067 0.36211976
-0.24225338 0.031192005 1.6030166 -1.0598065 -0.51845264 0.43472487 -0.63282645 1.6778389
0.5585446 0.036112946 -0.20239964 -0.95716876 -0.019192047 1.379546 -0.15202512 -0.34713018
00000000: 38c2 ad3e 1745 47be e043 333e af3b 27be
00000010: a355 763c 26d5 2abe b5c6 a7bd 691b c7be
00000020: fcbf 993e f317 13be 85f5 59bf a8d7 11bf
00000030: 4114 edbd 5566 273e 994e 253f 420f 24bf
00000040: 973b 193f 6742 a73d 8789 bb3e 78e7 0d3e
00000050: a00d 443f f0e3 333e bd68 c03e 2f1c ddbe
00000060: d554 973e bb83 843e c3b3 553e 28ec 99be
00000070: a55c c1bd 3763 5b3e be2a 1e3f e3bf a73e
00000080: cd0f 243e b54c 07bf a71d 473f 0842 a03e
00000090: 3939 1f3e fb15 c4be 8b3c 23be abf7 6e3f
000000a0: c0e3 843e d24e 313f c99e 4c3e 768c f03e
000000b0: 768e 253e 4376 973e c2b3 86be 3317 1d3f
000000c0: ffef 7c3f fbe2 7fbe 5bfe 783f ed70 613f
000000d0: 857a e0be f970 273e d072 f43e 5a63 1abf
000000e0: 1fc9 093f c68b 053f 9bb3 ef3e f00b 453f
000000f0: c4de 43be 6d20 023c a85d 763f 2aaf 653f
00000100: 0f88 3f3e 779c 823e c6ac 89be c2a3 2f3f
00000110: 1df6 d63e fb8b ef3e 6771 f13e 963c 6cbd
00000120: f0bb 6e3e fadf 0a3f 3962 313f 621b a93f
00000130: cccd 0e3f 8449 eabe fb1c e2be 8d52 cb3e
00000140: f08d 87bd c35b cb3c 413b 793f 4c3b 71be
00000150: 01e9 da3e 9803 073f 2de8 963f df07 b93e
00000160: 4361 0ebd 586d 33be a112 723d 9e14 dcbd
00000170: 8e47 39bf 77b7 07bf 9123 7bbe bc28 85bf
00000180: 938b d6be 1466 ecbd 5581 0f3f 25d7 11bf
00000190: 2d8d 863f 36ee 21bd ef6f 4fbe e8f6 403e
000001a0: 04f1 4c3e 0626 95be 2b67 283e 6191 ecbe
000001b0: 5c63 7d3e be1e 9b3e f5b2 083f c367 b93e
000001c0: 4511 78be 6086 ff3c a62f cd3f bda7 87bf
000001d0: 50b9 04bf 4294 de3e ea00 22bf 6dc3 d63f
000001e0: c7fc 0e3f 2beb 133d da41 4fbe 0309 75bf
000001f0: a438 9dbc f794 b03f 79ac 1bbe 0cbb b1be

actor.0.weight f4 [256, 48]
0.015993727 0.086026125 -0.093895935 0.09030608 0.041622594 -0.14192197 0.039885994 -0.007195867
-0.1091682 0.23559828 -0.056765154 0.027443573 0.07930954 0.14828089 -0.1636846 -0.038844414
-0.06290378 -0.10388066 0.058806177 -0.063575774 -0.17184536 0.030294862 0.13237813 0.008639928
0.0574405 -0.0060878177 -0.041882332 -0.04878058 -0.0007134375 -0.068561405 -0.032576054 -0.15294273
-0.07302481 0.14102343 -0.10686049 0.045025688 0.10427614 0.06046433 -0.092519216 -0.12908138
0.098246984 -0.16619171 0.081365 -0.13156937 -0.25919917 0.11009965 -0.1387747 0.2042963
0.10468836 0.23188195 0.11223807 -0.13766044 0.050758656 0.0874928 -0.038688574 -0.023315255
-0.050749354 -0.0021692186 -0.043827362 -0.022079457 0.049858194 0.24062887 0.15461902 0.042488746
-0.12389464 -0.14753897 -0.06004525 0.044012252 0.025817316 -0.008373658 -0.1419314 0.09300015
0.15928897 0.19818947 0.31213295 0.022294791 -0.041533954 -0.067031495 0.025391512 0.039555192
-0.06317776 0.118035495 -0.17412838 0.0055257687 0.27337813 0.18671617 0.09072452 -0.18520302
-0.16565798 0.012934315 0.023833103 0.0030876999 -0.10879345 0.18668976 -0.083639815 0.169386
-0.2063995 0.0049109757 -0.111896925 0.034341726 0.16775444 0.15631548 -0.065389305 0.09998669
0.10806522 -0.120176084 0.040931016 -0.08551951 -0.2617685 -0.06391787 -0.08922205 -0.18471123
0.1273301 0.13421421 0.08474023 -0.036539804 0.12790732 -0.079688534 0.1280502 -0.021625435
-0.10196412 -0.10988361 0.04440846 -0.07206221 0.13159886 0.04583388 -0.018130615 -0.065349914
0.22704554 -0.30519542 -0.07902631 -0.18480606 -0.12834378 0.0575623 -0.10350407 0.08139589
0.037894793 0.015043917 0.071602255 -0.044583697 0.087553054 -0.21459915 0.09309743 -0.17173353
-0.2301632 -0.04928794 0.11655329 0.03191317 0.07913503 -0.07625088 -0.027041975 -0.06033831
0.14852181 -0.10279903 -0.13102219 0.05943511 -0.21155795 0.057375308 -0.0031823283 -0.14213462
-0.0077199517 0.14735061 0.027229812 -0.118334986 -0.05721064 -0.081719816 0.04569138 0.22275953
-0.1444581 0.006417941 0.09155009 0.07354899 -0.068877235 0.09314819 -0.038288686 0.06291118
0.13604209 0.07410719 0.13768722 0.18736823 -0.12020998 0.10496518 -0.1191865 0.0121820895
-0.047556773 0.008749547 0.060993746 0.056925688 0.14672616 0.084493555 0.08912903 0.3125616
0.058253907 -0.09704737 0.08846929 0.11747038 -0.12490839 0.07511386 0.03181341 -0.055467065
0.0564443 -0.11107016 -0.016995635 -0.025688231 0.11209703 -0.14696172 -0.011133529 0.13657027
0.075318515 -0.09403282 0.02378852 0.0735474 -0.020092405 -0.07296332 0.011107785 0.029011603
-0.053359628 0.014646312 -0.04139268 -0.012453186 -0.1466265 -0.14562583 0.019908505 0.037173755
-0.083850056 -0.1518487 0.028109808 -0.014954652 -0.0062167495 0.11852346 0.12855239 0.06327143
-0.019357955 0.031275157 0.04108746 -0.1306974 0.097476475 -0.013616474 0.09278626 0.106321715
0.03208111 0.10373957 0.1346824 0.018466154 0.052190192 -0.033097267 0.027829196 -0.12299831
0.110125296 -0.022853553 0.08473537 0.024373056 0.05718449 -0.012566713 -0.040647056 -0.14130425
00000000: 4705 833c 772e b03d 834c c0bd 65f2 b83d
00000010: 747c 2a3d fe53 11be 7f5f 233d 4fcb ebbb
00000020: 9493 dfbd ad40 713e 9482 68bd 58d1 e03c
00000030: 0a6d a23d f2d6 173e f09c 27be 521b 1fbd
00000040: b2d3 80bd 62bf d4bd bfde 703d 0434 82bd
00000050: 3bf8 2fbe ee2c f83c 228e 073e 7c8e 0d3c
00000060: bb46 6b3d 517c c7bb cf8c 2bbd 25ce 47bd
00000070: fb05 3bba ec69 8cbd 786e 05bd 059d 1cbe
00000080: 088e 95bd 7268 103e acd9 dabd db6c 383d
00000090: bb8e d53d 72a9 773d b77a bdbd e92d 04be
000000a0: b735 c93d 292e 2abe b1a2 a63d 1fba 06be
000000b0: c1b5 84be ed7b e13d f41a 0ebe 0d33 513e
000000c0: da66 d63d 7672 6d3e 13dd e53d dcf6 0cbe
000000d0: 4fe8 4f3d 6d2f b33d e977 1ebd a2ff bebc
000000e0: 8ede 4fbd 7329 0ebb 5284 33bd fadf b4bc
000000f0: 1b38 4c3d 6a67 763e 7354 1e3e ae08 2e3d
00000100: 79bc fdbd 7514 17be 02f2 75bd 3146 343d
00000110: d67e d33c ab31 09bc 7756 11be dd76 be3d
00000120: a61c 233e 2ef2 4a3e e4cf 9f3e 91a3 b63c
00000130: 821f 2abd cf47 89bd dc01 d03c a004 223d
00000140: 5763 81bd 98bc f13d b64e 32be 8211 b53b
00000150: 38f8 8b3e 8632 3f3e c7cd b93d dca5 3dbe
00000160: 3fa2 29be 73ea 533c a43d c33c 025b 4a3b
00000170: 1acf debd 9a2b 3f3e 5a4b abbd 8673 2d3e
00000180: 645a 53be 40ec a03b 372a e5bd e9a9 0c3d
00000190: d2c7 2b3e 2a11 203e d4ea 85bd d2c5 cc3d
000001a0: 4c51 dd3d e11e f6bd 48a7 273d da24 afbd
000001b0: 8506 86be 5fe7 82bd 0dba b6bd f124 3dbe
000001c0: d262 023e 736f 093e 498c ad3d c3aa 15bd
000001d0: 23fa 023e be33 a3bd 971f 033e d327 b1bc
000001e0: 91d2 d0bd a80a e1bd a5e5 353d 5a95 93bd
000001f0: dac1 063e 4ebc 3b3d a886 94bc 2dd6 85bd
00000200: a07e 683e 9342 9cbe 8cd8 a1bd cd3d 3dbe
00000210: 8d6c 03be 72c6 6b3d f1f9 d3bd e3b2 a63d
00000220: 9237 1b3d c37a 763c 34a4 923d 659d 36bd
00000230: 044f b33d e1bf 5bbe dea9 be3d eada 2fbe
00000240: e7af 6bbe 27e2 49bd 7eb3 ee3d 62b7 023d
00000250: 8c11 a23d 6c29 9cbd 2287 ddbc 4e25 77bd
00000260: 1a16 183e 4c88 d2bd ae2a 06be 3b72 733d
00000270: a6a2 58be 5f02 6b3d 9c8e 50bb bd8b 11be
00000280: a6f7 fcbb 14e3 163e 0e11 df3c 9d59 f2bd
00000290: b455 6abd b85c a7bd e226 3b3d 131b 643e
000002a0: d3ec 13be 974d d23b 9d7e bb3d daa0 963d
000002b0: 820f 8dbd 7ac4 be3d 99d4 1cbd 94d7 803d
000002c0: 9e4e 0b3e 83c5 973d e1fd 0c3e 75dd 3f3e
000002d0: a630 f6bd fcf7 d63d 0d18 f4bd 6397 473c
000002e0: e4ca 42bd 435a 0f3c 94d4 793d e92a 693d
000002f0: 623f 163e f50a ad3d 4889 b63d 1308 a03e
00000300: a69b 6e3d c6c0 c6bd 632f b53d 5094 f03d
00000310: f8cf ffbd 4cd5 993d c74e 023d 6f31 63bd
00000320: 2332 673d c178 e3bd 6e3a 8bbc 2070 d2bc
00000330: 2193 e53d 227d 16be 6869 36bc 14d9 0b3e
00000340: 9840 9a3d 4794 c0bd 24e0 c23c 05a0 963d
00000350: d498 a4bc cb6d 95bd 6dfd 353c bea9 ed3c
00000360: a08f 5abd 16f7 6f3c 5f8b 29bd 7308 4cbc
00000370: 4225 16be f01e 15be 2917 a33c 8243 183d
00000380: 94b9 abbd 3a7e 1bbe 8a46 e63c 5b04 75bc
00000390: e0b5 cbbb 6ebc f23d 3da3 033e 7494 813d
000003a0: 9394 9ebc 611a 003d 534b 283d 8ad5 05be
000003b0: bfa1 c73d a217 5fbc b906 be3d 33bf d93d
000003c0: 7b67 033d 6975 d43d 2fea 093e 5546 973c
000003d0: 62c5 553d 0091 07bd 0efa e33c 8ae6 fbbd
000003e0: 5f89 e13d 6037 bbbc bd89 ad3d 01aa c73c
000003f0: 493a 6a3d 9de4 4dbc 877d 26bd 10b2 10be

actor.0.bias f4 [256]
-0.11130847 0.16073105 -0.11141352 -0.041827817 -0.09696496 -0.042035546 0.039602157 0.09571891
-0.08667023 -0.098034084 0.11412271 0.056547925 0.13986255 0.105701104 -0.054407492 -0.057814408
-0.18916395 0.0035271307 0.013570645 -0.08596199 -0.12901112 -0.11532837 -0.060897537 -0.15182967
-0.15196937 0.045524128 -0.062889986 0.08147578 0.05711322 -0.20742434 0.027354527 0.048917558
-0.07427825 0.016750945 -0.038789302 0.067750335 -0.15111648 -0.0062743486 0.048499595 0.047326814
-0.104662 -0.010505354 -0.029643357 0.005196169 0.057730827 0.17039353 0.08522523 -0.08340542
0.12433297 0.09696867 0.07720363 -0.009383494 -0.064848214 0.17740117 -0.07858005 -0.11070417
-0.16278543 -0.050676204 0.11416628 -0.121154666 0.14033203 -0.023623219 -0.025981158 -0.03698471
0.13445474 -0.19669347 0.140921 -0.1217861 0.05469016 -0.03205194 -0.10863373 -0.03705054
-0.008959621 -0.0032594895 -0.016955659 -0.042169742 0.1390563 0.10136467 0.15291233 0.036253475
0.065182135 0.042172678 0.070005834 0.008454829 0.0583319 0.065309875 0.08623319 -0.0924725
-0.13042614 -0.06355506 0.06159406 0.0017998511 -0.04190848 0.06261735 -0.037378706 -0.02147744
0.0864514 0.1032383 0.086907476 -0.18366343 0.027292637 0.119780794 -0.07886999 -0.07396696
0.019586114 0.07739577 0.06812496 -0.03851389 0.21329392 0.049482595 -0.055930834 0.050087586
0.14803346 0.023008645 -0.027370326 0.04984617 -0.076857395 -0.0616644 0.12191278 -0.14386727
0.068002164 -0.05214054 0.05694417 -0.047616806 0.00643047 0.12756388 0.0026928557 -0.08324351
0.044072997 -0.1584375 0.104926236 0.10492949 -0.061652344 0.00061227405 -0.016798811 0.028724197
-0.06850002 0.1918016 0.062155522 0.16149682 -0.10231082 -0.077563606 0.043529272 0.06807186
0.031056711 0.040862396 0.14471844 0.16322626 0.010589444 -0.068603426 0.05727606 0.085231796
-0.13461633 0.08559054 -0.056404088 -0.06556949 -0.051382553 -0.026708467 0.21740505 -0.0800408
0.18198517 0.016046062 0.009261126 0.16115193 -0.09910368 -0.000586447 -0.116018124 -0.011128396
0.17199863 -0.033149347 -0.14285266 -0.020272817 -0.0066341693 0.072536126 0.023940394 -0.04539648
0.16995993 0.11478064 -0.10136954 -0.078096814 -0.089874215 -0.08193094 0.018508933 -0.08788578
-0.017429879 -0.057348695 -0.08807901 0.11392471 0.048261456 0.00987048 0.022587506 -0.11039219
-0.10941399 0.040536214 -0.12655999 -0.00042809173 0.03137184 0.030942162 0.14075261 0.0017563371
-0.15175694 0.2381624 0.057038173 0.17982084 -0.0025392082 0.21877591 -0.16199453 0.12668064
0.024576701 -0.057101246 0.072106294 -0.013128099 -0.100649394 0.1723194 -0.083522305 -0.047068637
-0.10602549 -0.020841623 -0.12855272 0.007895913 0.0024041578 0.07866145 0.051462382 0.027243871
-0.05021673 0.047699746 -0.04034881 -0.0033833694 -0.10249375 -0.07675653 0.07072194 -0.15771878
-0.09952323 -0.058343757 -0.048737165 -0.08609365 -0.010536437 -0.07651723 0.10643582 -0.03957459
0.017133761 0.021416144 0.13471735 0.098091274 0.13337025 0.0066130813 -0.029928252 0.07933962
0.21123402 0.117311 -0.04193353 0.09728853 -0.09539338 -0.030990975 0.056461126 0.1785985
00000000: b2f5 e3bd ae96 243e c62c e4bd a553 2bbd
00000010: 9195 c6bd 772d 2cbd df35 223d 4708 c43d
00000020: 2980 b1bd 18c6 c8bd 2bb9 e93d cc9e 673d
00000030: 2138 0f3e d279 d83d 64da 5ebd cdce 6cbd
00000040: 32b4 41be 6f27 673b 6957 5e3c d70c b0bd
00000050: 7e1b 04be 4831 ecbd b26f 79bd 3d79 1bbe
00000060: dc9d 1bbe 8277 3a3d 77cc 80bd c6dc a63d
00000070: 8def 693d 0c67 54be 9a16 e03c c75d 483d
00000080: 321f 98bd 4739 893c 88e1 1ebd b0c0 8a3d
00000090: 47be 1abe 0d99 cdbb 83a7 463d c3d9 413d
000000a0: 0859 d6bd a61e 2cbc a0d6 f2bc a044 aa3b
000000b0: 2977 6c3d a47b 2e3e 918a ae3d 76d0 aabd
000000c0: 49a2 fe3d 8397 c63d f01c 9e3d 3abd 19bc
000000d0: 24cf 84bd a7a8 353e 94ee a0bd deb8 e2bd
000000e0: 39b1 26be da91 4fbd 03d0 e93d f01f f8bd
000000f0: 33b3 0f3e 7b85 c1bc 70d6 d4bc 477d 17bd
00000100: 81ae 093e 036a 49be 984d 103e fe6a f9bd
00000110: ca02 603d e548 03bd 5c7b debd 4fc2 17bd
00000120: 60cb 12bc 299d 55bb 98e6 8abc 2eba 2cbd
00000130: c664 0e3e 4898 cf3d 0d95 1c3e 867e 143d
00000140: 367e 853d 42bd 2c3d 385f 8f3d 2086 0a3c
00000150: 6eed 6e3d 2fc1 853d 079b b03d 3962 bdbd
00000160: 6e8e 05be 2829 82bd 0e4a 7c3d fbe8 eb3a
00000170: 3aa8 2bbd 863d 803d 6a1a 19bd 75f1 afbc
00000180: 6e0d b13d 9a6e d33d 8cfc b13d 4412 3cbe
00000190: cf94 df3c a24f f53d 9786 a1bd fd7b 97bd
000001a0: 0f73 a03c ac81 9e3d 1985 8b3d bec0 1dbd
000001b0: b969 5a3e 43ae 4a3d bb17 65bd a428 4d3d
000001c0: 1596 173e a07c bc3c bc37 e0bc 7f2b 4c3d
000001d0: 6967 9dbd cf93 7cbd 68ad f93d f151 13be
000001e0: b844 8b3d 5291 55bd 4a3e 693d d709 43bd
000001f0: b1b6 d23b 1ba0 023e 9f7a 303b 937b aabd
00000200: e385 343d 713d 22be 91e3 d63d 46e5 d63d
00000210: 2b87 7cbd 0481 203a a99d 89bc 024f eb3c
00000220: bd49 8cbd a367 443e ca96 7e3d 6c5f 253e
00000230: 5688 d1bd abd9 9ebd c04b 323d 4269 8b3d
00000240: a56a fe3c 545f 273d 1231 143e c924 273e
00000250: 597f 2d3c f47f 8cbd 4d9a 6a3d 028e ae3d
00000260: ddd8 09be 184a af3d f907 67bd 4c49 86bd
00000270: 8376 52bd b7cb dabc 6e9f 5e3e 6eec a3bd
00000280: 525a 3a3e 0873 833c fabb 173c 0305 253e
00000290: dff6 cabd cbbb 19ba e99a edbd e053 36bc
000002a0: 6920 303e 9cc7 07bd f847 12be 2e13 a6bc
000002b0: 7263 d9bb d28d 943d a51e c43c a9f1 39bd
000002c0: fa09 2e3e 1d12 eb3d d59a cfbd 39f1 9fbd
000002d0: f90f b8bd 69cb a7bd 0ca0 973c 76fd b3bd
000002e0: 1bc9 8ebc 77e6 6abd c562 b4bd 5c51 e93d
000002f0: cead 453d cbb7 213c 6f09 b93c 4d15 e2bd
00000300: 7114 e0bd 4d09 263d f198 01be 8071 e0b9
00000310: c27f 003d 6b7a fd3c 7421 103e e534 e63a
00000320: 2c66 1bbe d8e0 733e dca0 693d f422 383e
00000330: d868 26bb cb06 603e e5e1 25be 92b8 013e
00000340: 1455 c93c ffe2 69bd 77ac 933d 3d17 57bc
00000350: 4521 cebd 7f74 303e be0d abbd 0bcb 40bd
00000360: e423 d9bd 0dbc aabc 53a3 03be dc5d 013c
00000370: 138f 1d3b 4119 a13d 38ca 523d 8a2e df3c
00000380: 0fb0 4dbd cf60 433d cb44 25bd 85bb 5dbb
00000390: 3ee8 d1bd 8732 9dbd aad6 903d 0881 21be
000003a0: d6d2 cbbd ddf9 6ebd 9fa0 47bd de51 b0bd
000003b0: 05a1 2cbc 11b5 9cbd 06fb d93d f718 22bd
000003c0: 1a5c 8c3c e970 af3c 58f3 093e 14e4 c83d
000003d0: 3692 083e 8cb2 d83b 182c f5bc d07c a23d
000003e0: bb4d 583e c040 f03d 7ec2 2bbd 353f c73d
000003f0: 9b5d c3bd c9e0 fdbc c843 673d 86e2 363e

actor.2.weight f4 [128, 256]
0.048929144 -0.13095808 -0.08481567 -0.18493634 -0.00028266758 -0.12395535 0.14177698 0.09556272
0.09263909 -0.012117523 0.016109686 -0.10766904 -0.0048113926 0.2542152 0.07403893 0.0813662
0.07660965 -0.0009631205 -0.3464567 -0.017283868 0.027586726 0.14278029 0.007323218 0.108279906
0.070546165 0.04288839 0.08418686 -0.016733408 -0.030494405 0.052524053 0.0070296316 -0.13706599
-0.23284851 -0.124127306 -0.11400001 0.15660512 -0.076204754 -0.05442212 -0.24415228 0.25404656
-0.011899682 -0.13780679 0.09384731 -0.014110629 0.00014213324 -0.2256902 0.12706721 -0.07913498
0.07758307 -0.08129376 -0.0955701 -0.11849406 -0.087013334 -0.26225144 -0.14373314 -0.119337
0.10316432 0.07880549 0.0763885 -0.067332186 -0.12071072 0.12379485 0.21560597 -0.09686077
-0.005654276 0.108139075 0.114754274 -0.0072067534 0.2810149 0.018369436 -0.108012974 0.065624565
0.008089056 -0.012276639 -0.118745424 0.01768092 -0.07585559 0.12361025 -0.011585346 -0.053805333
-0.22502115 0.04922472 -0.14463934 0.09649596 0.048148926 -0.0238436 0.12161254 -0.107700214
0.03847139 0.08727969 0.07661368 -0.031189065 0.14408357 -0.3846003 -0.035854563 0.049815506
0.022396537 -0.21313438 0.20437391 -0.19636713 0.056685526 -0.19440584 0.041062415 -0.074542806
-0.031304214 0.12520604 -0.082057945 -0.033004314 -0.10937901 -0.09031478 0.10923593 -0.018637905
0.09108695 0.07582128 0.057804268 -0.094103985 -0.25980404 0.14216554 0.16802539 -0.057200298
0.023787346 0.15395583 0.053237867 -0.007589525 -0.051366657 0.038171925 0.08894248 0.07904156
0.057410754 -0.0136408685 -0.112713516 -0.006943278 -0.1331012 -0.10782039 -0.35033005 0.0019513082
0.21568239 0.0880663 0.09781979 -0.046738658 0.06429334 -0.14050634 0.15495157 0.022441167
-0.098995805 0.18454058 -0.103498675 -0.15577015 -0.050176874 -0.08014218 0.21854413 -0.35607406
0.061672293 0.0924058 0.008379999 -0.029081268 0.08802074 -0.06391044 -0.0067394977 0.18423969
-0.109307304 0.0932453 0.1055342 -0.027771104 0.07037519 -0.015305924 0.030441977 0.10988105
-0.03150669 -0.3214505 0.03532514 0.035784088 -0.41474897 0.053388145 -0.1796349 0.19210227
-0.034372844 -0.15336043 -0.098807715 -0.029194796 0.075006634 0.054096032 0.06326556 -0.0075837527
0.0348288 -0.0013351602 -0.07031766 -0.024857821 0.20946415 -0.04289812 0.06524681 0.007985676
-0.10810174 -0.06454171 -0.047482666 0.06123172 -0.10286733 -0.33375937 -0.14717925 -0.27051768
0.009604073 -0.4366524 0.028544191 -0.044403467 0.0055264896 -0.3003223 -0.041271932 -0.053245876
0.07328772 -0.045297105 -0.20228182 -0.2099455 0.13789086 -0.13530092 0.016230129 -0.06473112
0.07806895 0.14751773 0.08136075 0.14623824 0.022330614 0.058088966 0.068089515 -0.06471728
0.013228739 -0.084077135 0.0028062414 0.13530101 0.08317811 0.12696452 0.082871206 0.08653321
-0.17220154 -0.2817655 0.12932694 -0.03147433 -0.24743164 0.119203515 -0.19201481 -0.14518446
-0.080788955 -0.33068725 0.07169352 -0.030476257 -0.11744243 -0.077616744 0.11752481 0.0018616953
-0.2165789 0.024905944 0.02456438 -0.18191427 -0.11945622 0.10576444 -0.062002268 -0.027145477
00000000: ed69 483d e019 06be d7b3 adbd f45f 3dbe
00000010: 0033 94b9 4ddc fdbd fc2d 113e 63b6 c33d
00000020: 90b9 bd3d 9388 46bc 76f8 833c 9681 dcbd
00000030: e3a8 9dbb 7f28 823e b9a1 973d 52a3 a63d
00000040: 85e5 9c3d ec79 7cba c662 b1be e696 8dbc
00000050: 8ffd e13c ff34 123e 9bf7 ef3b dbc1 dd3d
00000060: 827a 903d bdab 2f3d 296a ac3d 8014 89bc
00000070: 67cf f9bc 7623 573d d358 e63b 075b 0cbe
00000080: d76f 6ebe 7536 febd d678 e9bd 185d 203e
00000090: 3d11 9cbd bbe9 5ebd 0e03 7abe 6412 823e
000000a0: e2f6 42bc 391d 0dbe 0533 c03d 4530 67bc
000000b0: 9a09 1539 551b 67be e81d 023e 8511 a2bd
000000c0: dfe3 9e3d 587d a6bd 42ba c3bd 04ad f2bd
000000d0: 0c34 b2bd d245 86be c82e 13be f566 f4bd
000000e0: d147 d33d c664 a13d 9371 9c3d 75e5 89bd
000000f0: 2f37 f7bd 2888 fd3d d0c7 5c3e f05e c6bd
00000100: 8147 b9bb 0578 dd3d 4a04 eb3d a126 ecbb
00000110: 2fe1 8f3e 807b 963c e835 ddbd 2c66 863d
00000120: f687 043c f523 49bc cd30 f3bd 94d7 903c
00000130: 2d5a 9bbd 5f27 fd3d 77d0 3dbc fb62 5cbd
00000140: f26b 66be dc9f 493d 561c 14be ad9f c53d
00000150: cf37 453d a753 c3bc ff0f f93d ee91 dcbd
00000160: 2d94 1d3d b2bf b23d a2e7 9c3d 3680 ffbc
00000170: a58a 133e 55ea c4be 3cdc 12bd 580b 4c3d
00000180: f178 b73c e63f 5abe 6547 513e 7714 49be
00000190: 152f 683d 5312 47be 1031 283d e6a9 98bd
000001a0: d938 00bd 0336 003e ff0d a8bd 882f 07bd
000001b0: 1a02 e0bd f5f6 b8bd 16b7 df3d 85ae 98bc
000001c0: cb8b ba3d 3048 9b3d 2bc4 6c3d 97b9 c0bd
000001d0: 0905 85be d893 113e d90e 2c3e dc4a 6abd
000001e0: aedd c23c 99a6 1d3e f30f 5a3d 8db1 f8bb
000001f0: d865 52bd 2a5a 1c3d 7a27 b63d 8be0 a13d
00000200: 8a27 6b3d f37d 5fbc 58d6 e6bd 7084 e3bb
00000210: ae4b 08be f0d0 dcbd 765e b3be 0ac3 ff3a
00000220: d8db 5c3e 1b5c b43d be55 c83d 0971 3fbd
00000230: 3aac 833d e5e0 0fbe a0ab 1e3e 8ad6 b73c
00000240: 50be cabd 35f8 3c3e 1df7 d3bd 3682 1fbe
00000250: 4486 4dbd 9521 a4bd 08ca 5f3e 574f b6be
00000260: 169c 7c3d 413f bd3d 434c 093c d73b eebc
00000270: 3844 b43d 7ae3 82bd 01d7 dcbb 54a9 3c3e
00000280: 82dc dfbd 64f7 be3d 5122 d83d 3a80 e3bc
00000290: de20 903d b3c5 7abc 7461 f93c 5109 e13d
000002a0: 290d 01bd 2995 a4be 18b1 103d 5692 123d
000002b0: fa59 d4be 87ad 5a3d 36f2 37be 75b6 443e
000002c0: 8aca 0cbd 840a 1dbe b35b cabd ed29 efbc
000002d0: 149d 993d cd93 5d3d 6091 813d 2181 f8bb
000002e0: a5a8 0e3d 8b00 afba b502 90bd a1a2 cbbc
000002f0: c57d 563e f0b5 2fbd 1fa0 853d 5ad6 023c
00000300: 7264 ddbd 722e 84bd 2f7d 42bd 1dce 7a3d
00000310: 1bac d2bd 82e2 aabe 28b6 16be 4b81 8abe
00000320: 675a 1d3c e790 dfbe 82d5 e93c 69e0 35bd
00000330: 8e17 b53b d8c3 99be c20c 29bd 5918 5abd
00000340: df17 963d 7589 39bd f722 4fbe f4fb 56be
00000350: 4333 0d3e 538c 0abe 0cf5 843c c091 84bd
00000360: 9de2 9f3d e30e 173e 77a0 a63d 7abf 153e
00000370: b1ee b63c b2ee 6d3d 8472 8b3d 7e8a 84bd
00000380: 5abd 583c a230 acbd ebe8 373b 598c 0a3e
00000390: 4959 aa3d fd02 023e 61b8 a93d 5338 b13d
000003a0: 9a55 30be 9143 90be 486e 043e 3aeb 00bd
000003b0: b85e 7dbe f920 f43d 889f 44be 3cab 14be
000003c0: ae74 a5bd d74f a9be 0dd4 923d 58a9 f9bc
000003d0: a885 f0bd 87f5 9ebd d9b0 f03d 2104 f43a
000003e0: dcc6 5dbe 8d07 cc3c 3d3b c93c bc47 3abe
000003f0: 76a5 f4bd 079b d83d 17f6 7dbd 3160 debc

actor.2.bias f4 [128]
0.019100642 -0.060020484 -0.08059407 0.05906259 -0.042326257 -0.024399262 0.06691859 -0.08884377
0.058375224 0.06365349 0.035413437 -0.025048094 0.0036909601 -0.027812652 0.015071553 0.01742898
0.035167355 0.07202339 -0.03173372 0.026636811 0.081023686 0.06924667 -0.01002004 0.029364485
0.008897696 -0.010826198 0.08385875 -0.008734396 0.020414919 0.012750642 0.017537382 0.011090266
-0.043536425 0.011268595 0.008670065 0.031403963 -0.0615504 0.001237287 -0.036558673 -0.03721039
-0.013655172 0.018985491 -0.07071446 -0.06599604 0.0964853 -0.010209086 0.047408316 0.054868795
-0.020530414 0.07658998 0.028979765 -0.0025059173 -0.08715038 0.07481957 -0.044888098 0.007449128
0.014392015 -0.048039544 -0.0010676378 0.03884118 -0.0007924602 0.07540445 0.013913592 0.04486326
0.05724479 0.0019591665 -0.03373943 0.044042733 0.030094657 -0.017907355 0.08502696 -0.08724311
-0.0054571717 -0.06552827 0.002019552 0.059065465 0.045152143 0.008589846 -0.008196558 0.020507788
0.08984045 0.080315284 0.024732366 -0.005531584 -0.010320845 0.045386028 0.022334253 0.06284291
0.031099178 -0.047143698 -0.05112882 -0.056374926 0.07139795 -0.01788683 0.026084077 0.04054506
0.043019723 -0.016593542 0.059122134 -0.008440932 0.088860765 -0.030169897 0.05395022 -0.012870878
0.061009087 0.029112143 0.00019346135 0.012794082 0.03435208 -0.03168597 0.061453234 -0.04922488
0.024243793 -0.03994567 0.012978431 0.0021943357 0.008291264 0.09713783 -0.064214215 0.06530299
0.037027057 0.03510394 0.039447535 0.047183394 0.066589184 -0.038458828 0.100538835 0.0650217
00000000: f378 9c3c 0ad8 75bd 810e a5bd 9deb 713d
00000010: 4c5e 2dbd f6e0 c7bc 9d0c 893d b9f3 b5bd
00000020: dc1a 6f3d c35c 823d ae0d 113d a931 cdbc
00000030: 09e4 713b 5cd7 e3bc adee 763c 38c7 8e3c
00000040: a50b 103d 0081 933d 38fb 01bd 7135 da3c
00000050: bfef a53d 33d1 8d3d 182b 24bc ca8d f03c
00000060: a4c7 113c 5e60 31bc 23be ab3d b61a 0fbc
00000070: 303d a73c 12e8 503c 8eaa 8f3c f2b3 353c
00000080: 4053 32bd ea9f 383c e30c 0e3c 71a1 003d
00000090: 461c 7cbd 762c a23a 8cbe 15bd ec69 18bd
000000a0: f1b9 5fbc 7687 9b3c bed2 90bd ef28 87bd
000000b0: 169a c53d 0344 27bc 392f 423d 1abe 603d
000000c0: 662f a8bc 35db 9c3d f966 ed3c 513a 24bb
000000d0: e67b b2bd 013b 993d 95dc 37bd d117 f43b
000000e0: 7ccc 6b3c 1dc5 44bd fbef 8bba ee17 1f3d
000000f0: 1bbd 4fba a66d 9a3d d6f5 633c 8ac2 373d
00000100: 8379 6a3d 5c65 003b 5b32 0abd 2766 343d
00000110: 1289 f63c 72b2 92bc 9d22 ae3d 84ac b2bd
00000120: 13d2 b2bb b033 86bd 765a 043b a1ee 713d
00000130: 74f1 383d 6dbc 0c3c db4a 06bc f3ff a73c
00000140: 45fe b73d 577c a43d 889b ca3c 4a42 b5bb
00000150: c318 29bc b3e6 393d 53f6 b63c c9b3 803d
00000160: b4c3 fe3c c019 41bd 746c 51bd 65e9 66bd
00000170: 1739 923d 6787 92bc 46ae d53c 9412 263d
00000180: 7335 303d 2eef 87bc 0d2a 723d d64b 0abc
00000190: a2fc b53d dc26 f7bc e8fa 5c3d 60e0 52bc
000001a0: aae4 793d 977c ee3c e3db 4a39 459e 513c
000001b0: c4b4 0c3d 26c9 01bd 63b6 7b3d 07a0 49bd
000001c0: eb9a c63c 129e 23bd 7ca3 543c d8ce 0f3b
000001d0: 15d8 073c 33f0 c63d be82 83bd 93bd 853d
000001e0: afa9 173d 26c9 0f3d bd93 213d 6043 413d
000001f0: e95f 883d 0187 1dbd 4ee7 cd3d 192a 853d
