CRL/模型集_selfplay/run_20260123-185640/slime_ppo_2M.pth (torch, 370495 bytes, 11 tensors)

critic.0.weight f4 [256, 48]
00000000: fef2 1ebe 3f0c febb f722 5f3d 74a9 183d
00000010: ced6 b5bd 5462 843d 4dbc f8bc b395 a03d
00000020: 76bd 2abe e695 aebe 35f3 dabd 5b37 d4bd
00000030: 1ae4 45be 14be f83a 5ba1 9d3d 7c89 153c
00000040: b5ac 1cbe 05fb b23c 5f75 cd3b 4360 99bd
00000050: 6f41 0ebc 47ea afbe 9348 b8bd 4b66 74be
00000060: 5e1c 293d df43 943d 3a6e ec3c c36a bf3d
00000070: b692 7d3c 07bf e53c 994a bebd ece8 0f3d
00000080: 1a2c 023e 77ba a5be 9fe7 6fbd 3186 4cbe
00000090: fa9b bebd e269 e13d 28d2 853d b1f0 b7bd
000000a0: a0a5 c13d 84e4 3ebd 01f5 3e3d 537a 30bd
000000b0: 1577 e23d 7328 62be cbf0 593e 5b8b 0fbe
000000c0: 4d0b 7e3d e925 8bbb d8ac 8dbd dd45 453d
000000d0: d888 093d 36c5 d0bc a620 5abd 01a5 13be
000000e0: 4c2c cdbd a2b0 163d 211a a2bd 7e6b d73c
000000f0: 747d 7d3d dde6 2fbd 37c2 8f3c 9e27 7dbd
00000100: 683e 353e 0722 3ebd 7d00 80bc 984a 9f3d
00000110: a1a6 6ebd d8e7 3c3e 72f9 dfbd ab87 633d
00000120: 04cd a23d 9362 bb3c aaee 84bd cd52 e6bd
00000130: 7962 67bd 83c3 61bd 4746 933b 045d 003d
00000140: fb59 153e 4453 843e 3c4c 7a3d 2795 fc3c
00000150: 6f59 3a3c 5ae7 e33d f53a 79bd 0734 eb3c
00000160: a6c4 b4bd b36d 23bd 63bd 06bd 120f d3bc
00000170: 32b5 a43c 6c7a b53e a097 e8bc e553 743e
00000180: d210 033e 79b1 1ebd 8c58 b5bd f275 06bd
00000190: 08b3 513d c654 6abc ed10 47bd 1eed e9bd
000001a0: 772a bcbd 318d 45be 4c02 013e a10d 243e
000001b0: b35c b53c a3bf 8dbd ae04 bcbc b9be 7fbc
000001c0: e38d a8bd 92f4 9d3c 39fc 233d 09dc c13d
000001d0: 6305 303e 7236 18bd aea4 32bd 10c0 10be
000001e0: 8ad2 0dbd 397b 8e3d 5a4f 52bd 1967 eb3b
000001f0: a62e 8d3d ef01 92bd 66ea be3c 904b 89bc
00000200: 794f be3c 514f df3d 21b3 dfbd 8307 1cbe
00000210: 669e dd3d dd6a 4cbe ca24 f8bd f7d2 83bb
00000220: 657d 5abd 406e 04be b48b 8a3d f21f 01be
00000230: ad02 f73d 864e f23d 69bf 16be e031 8cbc
00000240: 39f7 e83d 6ce7 03be ebe0 babd aa4c 20bd
00000250: 4d62 0c3c d1ab f63d ff00 07be 09de 8dbd
00000260: c009 d3bd 6e7c acbd a1d7 2fbe 7540 0abe
00000270: 4d88 e3bc 099f 04be 5fe4 dcbd 48d0 9fbd
00000280: a162 8dbd 407e 393e 34ee ea3c fa6d 2dbb
00000290: b12c cf3d 9bb9 d4bc b078 a5bd 08df 9c3c
000002a0: 8c9f b7bd cdc8 f3bc 4da6 f2bc 580a 09be
000002b0: 57b0 933d 9e08 a33c 6c54 473d 53ba f63d
000002c0: 2625 b5bd 3229 183e 3c71 53bd 7788 54bc
000002d0: e979 8c3d 55b8 3b3d e62f 78bd 6cf5 d83d
000002e0: f181 603d 904b e63d d5d5 023e 9818 a13d
000002f0: b80a 1e3e 5cf9 a73e 1655 c53d c6cb 27bd
00000300: 6d2e 483d 8b7a 933d e1d4 d13c 5330 cfbd
00000310: 9d34 693e 7f7d ebbd d91c 223d 8730 e7bd
00000320: fd47 493d d37f d2bc 75d6 673e 4be1 68bd
00000330: fe17 1abe 8739 8c3d 000c 1abd d04d f13c
00000340: c27d 623e 66f4 02be 8182 0cbc 5b97 d8bd
00000350: fa3a 4c3b 79aa 023e 83e4 363e 7531 b13d
00000360: 09c6 14be e448 c23d fa1c 043d dea9 873d
00000370: e09e bb3d 658c 0dbe f1b2 983c 2511 c4bc
00000380: 6dd4 173e 8afb 5d3d 8bc6 793e 03f2 cc3d
00000390: e2f6 483d 0436 883d a342 eebc d0d6 f63a
000003a0: 4e6a 4c3d 76f0 3e3d db5d 19bd ed39 dbbb
000003b0: 427f 213c c7c3 aa3d 99ae a43e 4475 45bd
000003c0: a6d0 60bd 64b6 51bd 8a60 d9bd f748 55bd
000003d0: c085 663d 65e0 19be d818 293c 0e8c 743d
000003e0: 6e76 12bc 3a82 943e 99cf 973d 38b7 0cbe
000003f0: 51d1 e3bd 2863 33bd 4e57 e5bd f4ed 5bbc
-0.15522382 -0.0077529247 0.054476704 0.037270978 -0.08878861 0.06464067 -0.030363226 0.07841053
-0.16673836 -0.34098738 -0.10690919 -0.10362121 -0.19325295 0.0018977546 0.07696792 0.009127017
-0.15300258 0.021848211 0.0062700952 -0.074890636 -0.008682593 -0.34358427 -0.089982174 -0.23867147
0.04128682 0.07239508 0.028861154 0.09346535 0.015476873 0.02804519 -0.09291572 0.03513424
0.12712136 -0.32368824 -0.0585705 -0.19973065 -0.09307094 0.11006524 0.06534225 -0.08981455
0.094554186 -0.04660465 0.046620373 -0.043085407 0.11057869 -0.22085743 0.21283261 -0.14018004
0.062022496 -0.0042464626 -0.06917733 0.04816233 0.03357777 -0.025484663 -0.053253792 -0.14418413
-0.100182146 0.036789544 -0.0791514 0.026296373 0.06188722 -0.042944778 0.017548664 -0.06180536
0.17699587 -0.04641917 -0.015625233 0.077778995 -0.05826438 0.18447816 -0.1093625 0.055549305
0.0794926 0.022874152 -0.06490834 -0.11246262 -0.056490395 -0.055118095 0.0044944617 0.031338707
0.14585106 0.25844777 0.06110786 0.03083284 0.011373862 0.11128111 -0.06084724 0.028711332
-0.0882657 -0.03989954 -0.032895457 -0.025764022 0.020105932 0.35444963 -0.028392613 0.23860128
0.12799385 -0.03874347 -0.088547796 -0.032827325 0.051196128 -0.014302438 -0.048600126 -0.1142218
-0.09187787 -0.19292141 0.12598532 0.16020824 0.022138929 -0.069213174 -0.02295145 -0.015609437
-0.08230188 0.01928166 0.04003546 0.094657965 0.17189555 -0.037161298 -0.043614082 -0.14135766
-0.034624614 0.069570966 -0.051345207 0.007183921 0.06893663 -0.07129275 0.02330513 -0.016759664
0.023231255 0.109038 -0.10922838 -0.1523724 0.10821228 -0.1996264 -0.12116392 -0.0040229517
-0.05334224 -0.12932682 0.067649275 -0.12609842 0.12061057 0.118313834 -0.14721455 -0.017113626
0.11375279 -0.12881249 -0.09124931 -0.039135613 0.008568359 0.1204449 -0.13183974 -0.069271155
-0.10304594 -0.084221706 -0.171721 -0.13501151 -0.027774954 -0.12951292 -0.10785746 -0.07803398
-0.069035776 0.18114567 0.028678037 -0.0026463256 0.10115946 -0.02596741 -0.0807966 0.019149318
-0.08965978 -0.029758835 -0.029620314 -0.13382852 0.072113685 0.01990157 0.048664495 0.12047257
-0.08844976 0.14859465 -0.05162166 -0.012971989 0.0685919 0.04583009 -0.060592555 0.105936855
0.05481142 0.11244881 0.12776883 0.07866019 0.15433776 0.32807434 0.096353695 -0.040965818
0.0488724 0.072011076 0.025614204 -0.10116639 0.22773977 -0.11498546 0.039578293 -0.11288553
0.04914092 -0.025695717 0.22640403 -0.05685548 -0.15048215 0.0684691 -0.0376091 0.02945605
0.22118285 -0.12788543 -0.008576036 -0.10575744 0.0031163082 0.12760343 0.17860608 0.08652011
-0.1452867 0.09486559 0.032254197 0.066241965 0.091611624 -0.13823088 0.018640013 -0.023933956
0.14827128 0.054194964 0.24392144 0.100070976 0.04906357 0.06650928 -0.02908451 0.001883233
0.049906068 0.04661604 -0.037443023 -0.006690255 0.009857001 0.08338123 0.32164457 -0.048207536
-0.054886483 -0.051199332 -0.106141165 -0.052071538 0.056279898 -0.15027006 0.010320865 0.05970388
-0.008939369 0.29005605 0.07412643 -0.13741767 -0.11123908 -0.043795735 -0.11198293 -0.013423432

critic.0.bias f4 [256]
00000000: eec5 2b3e 8b13 3f3e 847d 19bd 16b7 a7bb
00000010: e1f1 62bd 7e58 38be f811 1d3d 6b20 c93c
00000020: 9786 423d 39a2 0b3c dc11 5e3e 2bcd 4a3e
00000030: 7520 fa3d 0cb4 ed3d 1199 013e 9092 01be
00000040: d5b3 debd b743 593e bb6f d83c e8aa fe3d
00000050: 2b16 10be 0de9 b3bc a98d cdbd 9cb0 233d
00000060: 9188 fc3d 6bc4 223e f5df a9bd ea25 393d
00000070: f3fa a6bd 6224 ddbd 9f85 373e 1879 1d3d
00000080: d62a 0ebe 8fbc ab3d 715a d23d 40ce dfbd
00000090: 5a1e ee3d ed3e 263d 9dae 8e3e e865 49bd
000000a0: f65f 0c3e 2eda 12be 4926 a2bd 4b58 513e
000000b0: 6586 1e3e c225 473e e268 013e def3 05bd
000000c0: 80fd bf38 e710 213e b1b3 59be 33fc 533d
000000d0: 8fe5 1dbe 9cf7 dcbd 8623 933e f55d 30bd
000000e0: 045a 1abb a131 1dbe daed bebe 0b7a 10be
000000f0: cc68 a9bd c46a 6abc 7d7d 4dbe 74f1 99be
00000100: 0c8b 343c ddeb 83bd 981d c2bd ada4 e7bd
00000110: eb96 313e 58eb 313e 4213 a33d 543b 6dbd
00000120: a05e 6d3c e42d bcbd 0bd2 0abe 03c0 023e
00000130: 0cad c7be f83e 793d ce6d 9dbc 26f8 b5bd
00000140: 6511 73be bdb1 86bd 9da5 62bb af67 57bd
00000150: 0147 0c3e e252 9bbd efe9 febd 3f8f 56bd
00000160: 21c3 b4bd 87ae cf3d d49d 233e abe6 50bc
00000170: 1d2d 88bd f3bc db3d ff31 36be b32f 1bbe
00000180: 9a91 82bd 9bff 743c 3829 763c e73f 3a3e
00000190: 25fc ac3d 2ddc b2bd ef71 cb3d 967e 40bc
000001a0: f704 da3d e1ee babd 0442 1bbd 833b a43d
000001b0: cb5a 0dbe 93bd c6bd 0a28 a7bd 0d25 5ebe
000001c0: 34bf 833d d935 e6bb 269b 693b d54b 0ebd
000001d0: abbf 293d c171 06be da8d 9b3d 1949 ebbd
000001e0: 22b6 113e 0255 67bc 20e6 83bc 2559 b2bd
000001f0: d17a 71bd a257 02bd 9ade 1cbd 5606 ddbd
00000200: 4512 203e 3e80 20bc aa88 7b3c 0c74 383e
00000210: a384 b6bd 1983 34bd 871c 283d 99a8 6d3d
00000220: cb60 8abd 06e5 433a ff99 223e a61e d9bd
00000230: b750 b8bd d906 8abe c1bd 4e3d 62d8 b9bc
00000240: 2cb4 1b3d 1571 4b3e 2065 b9bd cfb5 c73d
00000250: 70ef 7d3e 0ecc aebd 5ab4 05be b4ce a43c
00000260: 68df eb3d 8ad6 ba3d 81fc 17bc 0ada d6bd
00000270: c12c 613d 30c4 903d 4be3 0dbe 7bd5 f4bd
00000280: 538e 2b3d 8b85 423e 5eda 213e 9620 0ebe
00000290: 2b9c 0cba 2af7 ffbc 6a23 2cbe 5624 97bd
000002a0: 2940 d7bd 4fb3 c93d 5a85 1f3e 87ba e9bc
000002b0: fb4b e8bd c698 2f3b c646 3d3e ce39 5c3e
000002c0: 458f 0c3e 6b55 b63d f7f8 a7bc 0527 6dbd
000002d0: 01a8 573d 537a b3bd 78b5 cfbd 6181 b13d
000002e0: 917a 4b3e 3ca5 31bd 6e13 fcba 87af 953d
000002f0: ff97 033e 53da 313e 0a88 8a3d 38ed 223e
00000300: 7e95 afbd 94ad 133e e512 d1bc 4091 b4ba
00000310: ba76 1ebd 8317 a2bd 5176 07bd f5d6 dc3d
00000320: 45af 913d a4c4 fdbd d158 4e3b bc2b fb3b
00000330: c435 62bd 826f 0abe beeb f5bd 8fc0 423d
00000340: cb35 423e a4d4 ccbd f265 c83d 9163 afbd
00000350: b7ea afbd 68e8 1b3d 1555 a9bd 81ce f13d
00000360: 5194 4dbd e41e a5bd 87a0 e43d f93a cb3d
00000370: 68ef e8bc 3662 e1bd 7c90 dfbc 7fc7 d83d
00000380: 0404 29be 2b0a 303d 2beb 0abe e3c3 f4bd
00000390: 1442 ca3d 422b 00be 86c3 123e 6ede 3d3d
000003a0: b3b9 73be ea79 133d b920 043d 5177 27be
000003b0: f204 0dbc de4f 133e 43df 9e3d 6916 6a3e
000003c0: 64f2 73bd b1d5 48be 2a3b 9d3d 82d0 94bb
000003d0: 2cd4 89bd 78a1 1a3e ad08 253e de01 1bbe
000003e0: b7b8 323e df6f b33d c97a 27bd ed7b 1ebe
000003f0: 3df6 8fbd a323 213d a5d6 a4bd ea75 1b3e
0.16774723 0.18659799 -0.037473217 -0.005118261 -0.055406455 -0.18002507 0.038347214 0.02455159
0.047491636 0.008522564 0.216865 0.19804828 0.12213222 0.11606607 0.12656046 -0.12653565
-0.10874144 0.21217237 0.026420465 0.124349415 -0.14070956 -0.021961713 -0.10036785 0.03996335
0.123307355 0.1589524 -0.082946695 0.045202173 -0.081533335 -0.10797955 0.17922066 0.038445562
-0.13883528 0.08385574 0.102711566 -0.10928011 0.11626883 0.040587354 0.27867594 -0.04916945
0.13708481 -0.14341041 -0.079174586 0.20443837 0.15480955 0.19447997 0.12637666 -0.032703273
9.154808e-05 0.15729104 -0.21259953 0.051754188 -0.15419601 -0.10789415 0.2873804 -0.043058354
-0.0023552189 -0.15350963 -0.3729084 -0.14109056 -0.082719415 -0.0143076815 -0.20067401 -0.30067027
0.0110194795 -0.06441472 -0.09478301 -0.11310706 0.17342727 0.17374933 0.079626575 -0.057917908
0.014487892 -0.091884404 -0.13556688 0.12768559 -0.38999212 0.060851067 -0.019217398 -0.08885221
-0.23737104 -0.0657687 -0.0034583576 -0.052589115 0.13698961 -0.07584168 -0.12446963 -0.052382704
-0.088262804 0.1014071 0.15978175 -0.012750308 -0.0664923 0.107293986 -0.1779251 -0.15154915
-0.063754275 0.014953519 0.015024476 0.1818844 0.0844653 -0.087334014 0.099338405 -0.01174893
0.10645478 -0.09127594 -0.037904754 0.080191635 -0.13804166 -0.09704127 -0.08161934 -0.21693821
0.064329535 -0.007025462 0.0035645454 -0.034740288 0.041442554 -0.13129331 0.075954154 -0.11488552
0.14229634 -0.014119389 -0.016100943 -0.08708409 -0.058955017 -0.031821854 -0.038298227 -0.10792224
0.1563197 -0.0097962 0.0153524075 0.18013018 -0.08912017 -0.044070337 0.04104283 0.058022115
-0.06756743 0.0007472787 0.15879057 -0.10601549 -0.0899977 -0.2695835 0.050473932 -0.022686187
0.038013622 0.19867356 -0.09052491 0.09751474 0.2479837 -0.08535014 -0.1305708 0.020118095
0.11517221 0.09122951 -0.00927651 -0.104908064 0.05497432 0.0706867 -0.13856237 -0.11954781
0.041883778 0.18996255 0.15805957 -0.13879618 -0.0005363847 -0.031245787 -0.16810384 -0.073799774
-0.105102845 0.098486535 0.15578213 -0.028531326 -0.11342617 0.002679394 0.18484029 0.21506426
0.13726528 0.08903011 -0.020504458 -0.05789854 0.052650455 -0.08763566 -0.10142034 0.08667255
0.19870974 -0.04337047 -0.0019231865 0.0730887 0.1285095 0.1736844 0.06764229 0.15910804
-0.08573435 0.14421684 -0.025521705 -0.0013776198 -0.038687445 -0.07914641 -0.03307182 0.10783187
0.07113508 -0.12391022 0.0031486044 0.0076651257 -0.055227056 -0.135191 -0.12007855 0.04754692
0.18965833 -0.100014955 0.097850695 -0.08563913 -0.0858969 0.038063437 -0.08268181 0.118069656
-0.050190274 -0.080625325 0.11163431 0.099233575 -0.02843447 -0.110050604 -0.027290575 0.10584926
-0.16505438 0.042978447 -0.13566272 -0.11951425 0.09875885 -0.12516502 0.14332399 0.046354704
-0.23801307 0.03600494 0.03225777 -0.1635411 -0.008607136 0.14385936 0.077574275 0.22860111
-0.059557334 -0.19612767 0.076773 -0.0045414576 -0.06729922 0.15100658 0.16116591 -0.15137431
0.17453276 0.08761572 -0.04088858 -0.15476961 -0.07029388 0.039340626 -0.08048753 0.151817

critic.2.weight f4 [128, 256]
00000000: dfef 30bd 06ba 423b 48d3 b53c 9dd1 57bd
00000010: 0db6 8d3c 2ab5 82bd 0b91 57bd 71c5 a8bd
00000020: faf2 dcbc f0e3 babc 9c0f e73d 0de5 ad3d
00000030: ca0c f63a 92f9 9d3d bd3b 97bc b425 a13c
00000040: 81ec 6c3b 504e cabd 74fa 69bd c561 583a
00000050: ca58 efbc 52d8 42bd 1b8e 6f3d c5f6 fc3d
00000060: 354d a03d 6a3c 613d 15b7 fd3c 53d8 5fbd
00000070: 6f1b ac3c 01fc 0c3d cf55 52bd 27cf 14bf
00000080: 0eb6 8fbd d2ae 383d 1bf6 14be 3e7f 1bbd
00000090: 3551 b93c f65d 323b d9ab eb3c 9198 8ebd
000000a0: 0566 85bc 9fb7 813c 8cf7 1dbb 45e0 dcbc
000000b0: 5147 1bc0 2deb 4cbc bfbd da3c 9290 4e3c
000000c0: 2ab1 43bb 6a9c 2bbd 532f 56bc 8959 033d
000000d0: ae19 613d f5f5 2a3d a6fa 72bd b04c c43c
000000e0: 044d 553d 4edf 32bd cb8e 983c e3f8 67bf
000000f0: 5caf 12bd c4c6 f63a 1041 cc3d ec3d 2cc0
00000100: 7644 13bb 1786 ebbc 86d6 003d 8541 bd3c
00000110: 0981 f83c e225 22bd 554e f6bd d094 9b3c
00000120: 358d 273d 5624 9aba 2a36 1c3d df1b 673d
00000130: 2b6b e63d 0815 99bc 620b cf3c 6681 cdba
00000140: eab2 73bd e0a9 10bc bfdc 80bd 7500 88bc
00000150: a179 ca3d 6737 35bd 3f87 bcbb 784c a9bd
00000160: 0cf6 55bd a6f3 623d 8ad1 3dbd b5f3 0f3d
00000170: d8bf 1c3d ac6d 543d c55d 8abd d11f b0bc
00000180: 3893 acbc 5dff 063b 6b00 853c 25e8 db3d
00000190: 94f9 e43c e504 183d a539 f93b 1b51 55bd
000001a0: 11d2 6c3b a537 c4bd 46a5 67bb fc82 083d
000001b0: b7fa 6cbd 5a9b 083d cc9e 8a3c 5a77 fd3c
000001c0: b2ff 993d 9b12 963d 4782 5bbb f46a 103d
000001d0: 6b1f 9cbd 9be0 50bc 2222 52bd 06f5 65bd
000001e0: 939c 0c3c a254 023d 142a 9f3c 458e 4e3e
000001f0: 1c85 2cbe a0b4 3cbc 5d78 cf3c e6cc d4bc
00000200: cc53 a53a c79b 93bd 0b0a bbbd e445 613d
00000210: 7c8d ab3c 83ae f53c d62c f63c a5f3 0c3e
00000220: b7ca d1bc 3f46 63bd 373d d43c 72b1 bc3d
00000230: d0aa 883d 35be 60bd 1163 e83d f17c adbc
00000240: d1bf 76bd 2423 9e3d 20a3 d73d 04ae bcbc
00000250: 2c9e e5bc 5e18 0fbe ebb0 063d b3d9 a63a
00000260: 0d42 8e3d d105 263a 4f86 fabf 79aa 52bc
00000270: 05f4 713c 840b 3d3d d063 e3bd 10b4 433d
00000280: d260 4c3d 7f09 60bd d060 0ebd 5cc0 993b
00000290: 488f 863d 7f23 2ebc af0d e93b e903 d03d
000002a0: 1546 43bd 9feb 413d 1db0 9a3d 8cd1 4dbd
000002b0: a3f3 24be 8e83 3d3d edbe 733d 4fee afbc
000002c0: 3651 38bc f129 46bd 00fd 93ba 7691 27be
000002d0: 6b22 99bd 9577 183d 442a e53d 97d0 7c3c
000002e0: 1bc6 cabc 49ec 033d a926 93bc 2c45 12bd
000002f0: db8e cdbc 232d 4bbd a314 2e3d bf38 1b3d
00000300: 0b89 863c cd62 1f3c 2d19 093d 354b 57bc
00000310: dfc0 8ebd 340a 30bd 0b83 8a3c f82b 02be
00000320: 1a36 f7bc d88d 5ebd c146 0a3b fe78 863d
00000330: a3bc 8f3d de56 7c3d 877c 573d c947 9dbd
00000340: 8a5a 84bc 6c06 03bd 5d58 47bd d39d 2e3d
00000350: 036d 883c 3a73 d03b f16a ba3d a7de 813c
00000360: 2ff0 94bc 243c f13c 0245 0ebf de25 d5bd
00000370: 8d26 fa3c 0a9e a7bd 4b58 efbc 4130 013d
00000380: 2d1b d93c 0450 f8bd fb72 03bc a887 bbbc
00000390: 65a8 283d c3a1 64bd 82ea 7f3c 082d 66bd
000003a0: 3ba1 2ebc 299a 76bc 8a93 5b3b 0dac 743d
000003b0: fb78 33bd 64d9 2b3d 4a11 efbb 0b59 933d
000003c0: a7b2 70bd ef9b 18be 3de6 1dbc db46 433c
000003d0: 1bcf d0bc b89d 7cbd ced8 7b3b aed2 2e3c
000003e0: 5ecb 5f3d cfea 54bb 71d5 203e 6c1d c63c
000003f0: 2e64 d63e 3417 8e3d 840b 53be a8c2 fd3d
-0.04319751 0.002971293 0.022195473 -0.052690137 0.017298723 -0.063822106 -0.052628558 -0.08240784
-0.026971329 -0.022813767 0.11282274 0.084909536 0.0018772122 0.077136174 -0.018461103 0.019671299
0.003615171 -0.09878218 -0.057123616 0.0008254315 -0.029217143 -0.04756958 0.05848513 0.12351755
0.07827226 0.054989256 0.03097109 -0.054649662 0.021009175 0.034420017 -0.051351365 -0.5812859
-0.07017146 0.045088597 -0.14547007 -0.037963144 0.02262173 0.002721665 0.028768467 -0.069626935
-0.016283998 0.015834628 -0.0024103848 -0.026962409 -2.4262278 -0.012507242 0.026701806 0.01260771
-0.0029860237 -0.041897215 -0.013072806 0.03206781 0.05495613 0.04173847 -0.05932107 0.023962349
0.0520754 -0.04366999 0.018622776 -0.90614146 -0.035811767 0.0018827547 0.09973347 -2.6912794
-0.0022471226 -0.028750462 0.031454585 0.023102531 0.030334966 -0.03958691 -0.120266594 0.018991858
0.04090615 -0.0011760097 0.038137592 0.056423064 0.112509094 -0.018686786 0.025273982 -0.0015678823
-0.059496798 -0.008829564 -0.06292104 -0.01660178 0.0988648 -0.04424229 -0.0057534273 -0.082665384
-0.0522366 0.055408143 -0.04634241 0.035144527 0.038268894 0.051862404 -0.06756166 -0.021499546
-0.021066293 0.0020598986 0.01623555 0.107376374 0.02795104 0.037114043 0.0076057487 -0.0520793
0.0036135952 -0.09580926 -0.0035346313 0.03332804 -0.057856288 0.03335128 0.016921423 0.0309407
0.07519473 0.073277675 -0.00334944 0.03525825 -0.0762318 -0.012748863 -0.051302083 -0.056141876
0.008582252 0.031818993 0.019429244 0.20171459 -0.16847652 -0.011517674 0.025325948 -0.02597661
0.0012613474 -0.072074465 -0.09132775 0.054998294 0.020941488 0.02999044 0.030050676 0.13764818
-0.025609357 -0.055486914 0.025908096 0.092135325 0.06673205 -0.054868896 0.113470204 -0.02117774
-0.060241524 0.07721546 0.105291605 -0.023032196 -0.028029524 -0.13974139 0.032883566 0.0012729674
0.06946192 0.0006333264 -1.9572238 -0.012858027 0.014767651 0.04615356 -0.11103022 0.047779143
0.049897023 -0.054696556 -0.034760296 0.0046921205 0.065702975 -0.01062858 0.007112227 0.10156996
-0.047674257 0.047343846 0.07553122 -0.050248668 -0.16108565 0.04626804 0.059508253 -0.02147594
-0.011249831 -0.048379842 -0.001129061 -0.16364083 -0.07477268 0.037223417 0.11189702 0.015430591
-0.024752667 0.03220776 -0.01796277 -0.0357105 -0.025092533 -0.049603593 0.04250015 0.037895914
0.016422769 0.009728146 0.033471275 -0.013140489 -0.06970381 -0.04297848 0.01690819 -0.12712085
-0.030177165 -0.05433449 0.0021099302 0.06566046 0.070184015 0.06160628 0.052608993 -0.076797076
-0.016156454 -0.031988546 -0.048668254 0.04263098 0.016653543 0.0063613923 0.09102429 0.01585324
-0.018180935 0.029447623 -0.5557405 -0.10407613 0.03053596 -0.081844404 -0.029216906 0.03154016
0.026502216 -0.12124637 -0.008023019 -0.022891834 0.04117622 -0.05581833 0.015619876 -0.05619529
-0.0106585575 -0.015051403 0.0033504688 0.059734393 -0.043816548 0.041955367 -0.007295762 0.07194718
-0.058764126 -0.14903234 -0.009637413 0.011918749 -0.02548938 -0.06167385 0.0038428786 0.010670347
0.054637305 -0.003248859 0.15706421 0.024183951 0.41873306 0.069380194 -0.20609862 0.12390643

critic.2.bias f4 [128]
00000000: ca97 7c3d 7cfe 98bc b59c 30bb 9237 07bc
00000010: 4782 1e3d 0608 a03d 5592 eebc db5d 2ebd
00000020: 3312 a6bd 2642 833c 78fe 84bc 662a 073d
00000030: 33eb af3c 8069 433d 4003 003d 59b8 8b3d
00000040: 7138 023d 71fd 253d bfdb 473d 9b76 7bbc
00000050: 4d58 543d 338e bc3b 284a a9bc 3ddc 233d
00000060: 5d03 dc3c c69c 12bb da5d 9e3b 6cc3 053d
00000070: c878 703d 18c4 8b3c 0a8f 50bd df43 0fbd
00000080: 6348 ecbc f5e1 d5bc adf0 c73d 82a0 a43c
00000090: 6fac cd3d 4ca6 d53d 3014 773d 3b6a 0c3d
000000a0: 1561 e3bc 939a 36bc f5e6 8dbd aeb8 5f3a
000000b0: 9185 aebc 9160 1f3d cab3 bf3c 7e40 96bd
000000c0: 153a b03d d03a 473d 7eeb 083d fa9d 2ebd
000000d0: 176c 8a3d bc58 a43c 1fab 4e3b 98f5 d3bc
000000e0: 2f26 283d c041 fabc dd1f d33c 1f6a 36bd
000000f0: 533f 6abc c910 78bd 08c7 4fbd 1fe3 49bd
00000100: b630 ebbc 73c6 cb39 812b 293d 2106 86bd
00000110: e6ea 3cbc 7a86 44bc af3c aa3c 14ae dc3c
00000120: d8f2 a03c b684 c73d 2f7c fc3d 3656 133d
00000130: 2f2e 873b e737 8abd 81e7 dc3c 19e6 92bd
00000140: 6939 fd3b c250 8bbd ca48 70bc 6421 543d
00000150: 954e 463d 3c8a ea3d 2fd0 cc3c 28a6 c3bb
00000160: dce8 e33c 1c75 65bc ad43 c7bc 5286 88bc
00000170: 8792 da3d 4361 6d3d ad61 69bc 5b18 87bd
00000180: 2520 c93d ec01 f43b f40c 063d 1964 633b
00000190: 31f6 2d3d b279 993c 3b05 4ebc 7bb9 0cbd
000001a0: 0f0d 5e3b e627 b83c d233 52bd abec bfb8
000001b0: 60c2 35bc e297 8f3c 9cd5 ef3c d144 8b3d
000001c0: c94b 0f3d a9b2 643c 18dc dd3d 68e3 81bc
000001d0: adf2 26bd 0892 be3d 5387 203c 12b6 08bd
000001e0: 2b69 b9bc 87bd b0bc 8df3 af3c 0cd2 973c
000001f0: 0048 dfbc ceff 4cbc ec3a 5a3d fbf9 0d3e
0.061668195 -0.018676035 -0.0026948873 -0.008252995 0.03869846 0.0781403 -0.02912251 -0.042569976
-0.0810894 0.016022753 -0.016234621 0.03299942 0.021474456 0.047708035 0.0312531 0.06822271
0.031792108 0.040524904 0.04879355 -0.015348102 0.051842023 0.005754256 -0.020665243 0.040004957
0.026857072 -0.0022371276 0.0048329653 0.032657072 0.058708936 0.017061278 -0.050917663 -0.034976836
-0.02884311 -0.026108721 0.09762702 0.020096067 0.10042655 0.10432109 0.060321987 0.034280997
-0.027756253 -0.011145252 -0.06928817 0.00085342943 -0.021303924 0.038910452 0.02340116 -0.0733652
0.08604828 0.048640072 0.033427708 -0.042631127 0.06758898 0.020061843 0.0031535102 -0.025873944
0.04105204 -0.03054893 0.02577203 -0.0445348 -0.014297324 -0.060562883 -0.05072692 -0.049288865
-0.02870975 0.00038867033 0.041301254 -0.06544138 -0.0115306135 -0.011994952 0.02078089 0.026938476
0.019647047 0.097421095 0.12328374 0.03597089 0.0041253786 -0.06748944 0.026965858 -0.07172794
0.007727791 -0.06802513 -0.014665792 0.051789656 0.048414785 0.11452147 0.025001613 -0.005970735
0.027820997 -0.014004972 -0.024324263 -0.016665611 0.10672479 0.057954084 -0.014244479 -0.06596442
0.09820584 0.007446518 0.032727197 0.0034697114 0.042471115 0.018734787 -0.012574489 -0.034356575
0.0033882295 0.022479963 -0.05131895 -9.1516726e-05 -0.011093706 0.017528478 0.029276662 0.06800235
0.034984384 0.0139586115 0.10832995 -0.015855506 -0.040758777 0.09305197 0.009797889 -0.03337676
-0.022633156 -0.021574749 0.021478439 0.018532775 -0.027256012 -0.01251216 0.05327885 0.13864891

critic.4.weight f4 [1, 128]
00000000: f543 a63e 7458 30be 45b4 343e 6548 fdbd
00000010: a355 763c 1886 2ebe df99 a1bd dc77 4abe
00000020: fcbf 993e 4710 e8bd ed95 3abf 4747 19bf
00000030: 43fb cfbd 449c e73d 7206 263f c476 17bf
00000040: b4f3 013f af33 a93d 8af2 be3e bcac 113e
00000050: 0431 283f f57b 203e 5342 de3e 558c 71be
00000060: d203 a73e ccd2 403e f1cb 633e 30a3 9abe
00000070: 9a78 b1bd 8f0a 4b3e 9462 043f cea7 633e
00000080: bf10 193e f7ab 66be 275a 403f 3498 9f3e
00000090: 62a9 153e 2f09 bbbe 15b1 18be 9a7e 443f
000000a0: 230d 9a3e 3f6d 413f 3686 403e 6c45 f73e
000000b0: 9d77 1f3d fc99 9b3e 8e60 1ebe 9993 213f
000000c0: 2dbb 473f bea8 73be 360f 813f 78e7 223f
000000d0: 1a2a e6be 45d9 0c3e 1bf8 eb3e 6dfb 05bf
000000e0: de49 fd3e 4fb3 123f 3fb3 fb3e b9f1 413f
000000f0: ea03 0ebe 6d20 023c e00a 9a3f cb54 413f
00000100: 5220 4b3e 8189 a63e f044 80be 7f5a 203f
00000110: 4805 e13e c4e9 f43e 3646 f63e 00c2 62bd
00000120: 3efd 703e 0e4c 1c3f d0f9 233f 2b1b 143f
00000130: e0dc 143f a131 9bbe 37a7 b6be 1505 a43e
00000140: cbeb 9abd c35b cb3c a75e 473f 1f0a 59be
00000150: f580 e33e 8e58 053f 6ea0 893f 91e7 ec3e
00000160: 823f 4fbd 6a4f 25be a112 723d 60e3 c9bd
00000170: c331 3dbf 6c4b 98be ba6d 79be 2cb2 0dbf
00000180: 298f cdbe 59b7 ddbd 2293 103f 5c39 58bf
00000190: 059b 8a3f 3eab 70bd 1e2a 20bd edf2 3a3e
000001a0: 0492 6e3e 1df9 7cbe 47b6 253e a931 a8be
000001b0: c2e1 7e3e 762d 973e 2857 023f 782d 9e3e
000001c0: fc6c fabd c2fb 0c3d 81a2 8f3f 5589 e6be
000001d0: 5a8a 12bf f21d fd3e 9763 09bf 2430 8e3f
000001e0: cfc8 103f 2beb 133d ea62 58be 451a 6abf
000001f0: a438 9dbc f278 493f 06df 00be 4775 aebe
0.32473722 -0.17221242 0.17646892 -0.12367324 0.015035066 -0.1704334 -0.07890677 -0.19772285
0.30029285 -0.1133123 -0.7288502 -0.59874386 -0.10155346 0.11309102 0.64853585 -0.59165597
0.50762486 0.08261811 0.37294418 0.14226049 0.6569979 0.15672286 0.43409976 -0.23588689
0.32620102 0.18830413 0.22245766 -0.30202627 -0.08665581 0.19828247 0.5171292 0.22231981
0.14947794 -0.22526537 0.7513756 0.3117081 0.14615396 -0.36530444 -0.14911301 0.7675568
0.30088148 0.7555732 0.18801197 0.48295152 0.03893243 0.30390918 -0.1546652 0.6311584
0.7801998 -0.23794839 1.0082767 0.63634443 -0.44953996 0.13754757 0.46087727 -0.5233677
0.4947042 0.57304853 0.4916019 0.75759465 -0.1386868 0.007942301 1.2034569 0.7552001
0.19836548 0.32526782 -0.25052595 0.62638086 0.43949342 0.478346 0.48100442 -0.055360794
0.23534104 0.6105355 0.6405306 0.57853955 0.5814953 -0.303113 -0.3567445 0.32035127
-0.07564505 0.024824029 0.77878803 -0.21195267 0.44434324 0.5208825 1.0752084 0.4627042
-0.050597675 -0.16143575 0.059099797 -0.098578215 -0.73904055 -0.29745042 -0.24358264 -0.55349994
-0.40148285 -0.108259864 0.56474507 -0.84462523 1.0828558 -0.05875706 -0.039102666 0.18256731
0.23297888 -0.24704404 0.16182815 -0.32850388 0.24890807 0.2952687 0.5091424 0.30894065
-0.12227818 0.034419782 1.1221467 -0.4502665 -0.5724236 0.4943691 -0.5366759 1.1108441
0.5655641 0.036112946 -0.21131483 -0.91446334 -0.019192047 0.7870017 -0.12585077 -0.3407385

actor.0.weight f4 [256, 48]
00000000: c85e 78bd 5812 643d ae2f bbbd 0bc7 903d
00000010: 9a4a 163d d821 fdbd 0dd2 1e3d 6205 773c
00000020: 1455 dbbd 5485 413e 30a3 a0bd ba23 533d
00000030: be67 553b d572 ee3d c7f7 efbd 8a10 48bd
00000040: 46ca 8bbd a0cf a6bd 06d9 ae3d 8ca3 2bbd
00000050: b93e 30be dfe7 fabc e74e e13d a93d ed3c
00000060: 356d a2bc 8f50 1fbd 8c1c 2fbd 0489 75bd
00000070: 77bd 25bb 6c19 29bd de4e 81bc 8dc7 fdbd
00000080: 9196 86bd df5a 933d de60 e4bd 26de a23c
00000090: 89f5 c63c e521 d33c ff7c b7bd 4d7d 09be
000000a0: 8e7f c73d d472 0cbe 3615 503d 8b86 fdbd
000000b0: 1f11 7ebe fab2 2d3d f7de 16be 57ca 1f3e
000000c0: 257a 6a3d 95b5 313e 04c8 173e 214e 08be
000000d0: 5ff1 933d 4fb3 dc3d 5f9b 86bc 5dbb e7bc
000000e0: 0bee 53bc 8139 bfbc c1ed f0bc d97d 393c
000000f0: d09b 8139 a4c7 393e 4a9d ee3d 8251 f73c
00000100: 75d2 cebd e3fe 04be 173f 12bd a4cb 293d
00000110: 7ada 683d db20 c2bc 84b4 10be 3aa8 d33d
00000120: 1e82 d93d 727c 0d3e 9551 713e e30c 453d
00000130: 74df a2bc 58f4 4abd 436f 713d 5e5b 3a3d
00000140: fdae ddbc 9607 9c3d 405d 22be cbcf 8b3c
00000150: 8d12 613e a0d5 fa3d 64db 9f3d 9b6b 0bbe
00000160: 3554 15be c149 c83c 951a 703d 25bf b33a
00000170: 17f6 82bd 639e 193e b25f 6cbd 3e31 083e
00000180: ffff 6fbd 7b32 e43b c9b4 30be f71b 3a3d
00000190: 507c 113e 3ce3 153e 2d3d 7fbd 612f db3d
000001a0: 7a43 e53d 29c2 84bd e6eb 193d 9585 6bbd
000001b0: 62b6 ebbd 1fd6 78bd 8032 0dbe 7541 2ebe
000001c0: 43a1 d23d 5b00 003e bfb6 ec3d b334 03bd
000001d0: 3807 073e 5950 4cbc a169 013e 0c15 523c
000001e0: a3d1 423d 5677 d6bd bfd4 903d 290c b4bd
000001f0: 04e8 e23d be84 1d3d 0315 213d 9eef 8cbd
00000200: d80b 723e c47d 69be 27c2 b7bd fdfa 27be
00000210: 75ac b43c e10a 863d 996c c1bd f521 b63d
00000220: 2568 943c 6235 f83b 268d 913d 0f20 34bd
00000230: 44ea a73d b7f5 14be 558f 8b3d 1513 aebd
00000240: 7706 4abe f2df 3cbd 565b 1e3e 3bdc 063d
00000250: 686d 443d e8f2 e6bd 1da8 5cbd 662b 7bbd
00000260: 69d8 0a3e 2a4b b9bd 64ae 0dbe c3c4 a43d
00000270: d344 37be a8f4 773d 8865 dd3c 43f3 2fbe
00000280: 5e6e 19bd ee63 e53d c519 7c3d 895d 02be
00000290: 22d9 85bd 8f64 b9bd c2cd 593d d2ec 583e
000002a0: 3c84 e0bd 2e86 9d3b 1a9d 163e 340e 423d
000002b0: eb73 c6bd a89e 663d 43e9 3abc 935e 5f3d
000002c0: fa7a 043e 2527 6b3d fcd8 143e 7a16 113e
000002d0: 782d aebd 91cb d13d 2d99 a2bd f86f 65bc
000002e0: 8f47 9abd fe3d f9bc fb2e df3d 1640 273d
000002f0: ac46 123e 19d1 8c3d 5270 b03d bfd4 863e
00000300: a69b 6e3d c6c0 c6bd 632f b53d 5094 f03d
00000310: f8cf ffbd 4cd5 993d c74e 023d 6f31 63bd
00000320: 2332 673d c178 e3bd 6e3a 8bbc 2070 d2bc
00000330: 2193 e53d 227d 16be 6869 36bc 14d9 0b3e
00000340: 9840 9a3d 4794 c0bd 24e0 c23c 05a0 963d
00000350: d498 a4bc cb6d 95bd 6dfd 353c bea9 ed3c
00000360: a08f 5abd 16f7 6f3c 5f8b 29bd 7308 4cbc
00000370: 4225 16be f01e 15be 2917 a33c 8243 183d
00000380: 94b9 abbd 3a7e 1bbe 8a46 e63c 5b04 75bc
00000390: e0b5 cbbb 6ebc f23d 3da3 033e 7494 813d
000003a0: 9394 9ebc 611a 003d 534b 283d 8ad5 05be
000003b0: bfa1 c73d a217 5fbc b906 be3d 33bf d93d
000003c0: 56fb 003d 29d5 bc3d 4137 323e 8383 7a3b
000003d0: 1a58 763d 67ea 44bd ed8b 183c 82f0 28be
000003e0: b1ed 58bd 7893 f3bd ecfb 783d d840 743d
000003f0: 9a64 653d 9593 a1bc 81d2 79bd 9d6d 1dbe
-0.060637265 0.055681556 -0.091399536 0.070692144 0.03669224 -0.12359971 0.03877454 0.015076967
-0.10709587 0.18898517 -0.078436255 0.051547743 0.0032563056 0.11642996 -0.11717182 -0.048843898
-0.0682569 -0.0814507 0.08537488 -0.041904017 -0.17211427 -0.030628143 0.110013776 0.028960066
-0.019827465 -0.038895186 -0.042751834 -0.05994512 -0.0025289932 -0.04128401 -0.015784677 -0.12391577
-0.06571687 0.07195067 -0.111512884 0.01988132 0.024287002 0.025772998 -0.08959388 -0.13426705
0.09741126 -0.13715678 0.05080148 -0.12379178 -0.24811219 0.042407013 -0.14733492 0.1560453
0.057245392 0.17354424 0.14822394 -0.13311054 0.07223772 0.10776388 -0.016431509 -0.028287584
-0.012935172 -0.02334285 -0.029410245 0.011321508 0.00024720887 0.18142563 0.11651094 0.030190233
-0.10098735 -0.12987857 -0.0357047 0.041453972 0.05684898 -0.023697307 -0.14131361 0.10334821
0.10620521 0.13817003 0.23566277 0.048107993 -0.019881941 -0.04954943 0.058943998 0.04549729
-0.02706098 0.076186344 -0.15855885 0.017066857 0.21979733 0.12247777 0.07805517 -0.13615267
-0.14582904 0.024449231 0.0586191 0.0013713582 -0.06394594 0.15001826 -0.05770845 0.13300034
-0.058593746 0.0069640256 -0.17256464 0.045436826 0.14207578 0.14637464 -0.0623142 0.10702396
0.11194511 -0.064823456 0.037578486 -0.05750044 -0.11509396 -0.060751077 -0.13788795 -0.17017157
0.102846645 0.12500136 0.115582936 -0.03203268 0.13186347 -0.012470328 0.1263795 0.012822401
0.047563206 -0.1047198 0.07071828 -0.08791382 0.1107941 0.03845667 0.03932668 -0.06881641
0.2363733 -0.22801882 -0.089725785 -0.16404338 0.02205489 0.06545044 -0.094445415 0.088931955
0.018116066 0.007574723 0.07107 -0.043975886 0.081989795 -0.14546858 0.06814448 -0.08499733
-0.19729029 -0.04611201 0.1546453 0.032924872 0.0479559 -0.112767994 -0.053871263 -0.061320685
0.13559116 -0.090475395 -0.13836056 0.08045342 -0.17897348 0.060536057 0.027025953 -0.1718264
-0.03745877 0.11200701 0.061548013 -0.12730993 -0.065355554 -0.09052383 0.05317474 0.2118409
-0.10962722 0.004807255 0.14708367 0.047376826 -0.09690078 0.05630365 -0.011408153 0.054533552
0.12937537 0.057410378 0.14535898 0.1416873 -0.08504766 0.10243905 -0.07939372 -0.014003746
-0.0753318 -0.030425068 0.10897633 0.0408326 0.14284772 0.0687582 0.086151734 0.26334187
0.058253907 -0.09704737 0.08846929 0.11747038 -0.12490839 0.07511386 0.03181341 -0.055467065
0.0564443 -0.11107016 -0.016995635 -0.025688231 0.11209703 -0.14696172 -0.011133529 0.13657027
0.075318515 -0.09403282 0.02378852 0.0735474 -0.020092405 -0.07296332 0.011107785 0.029011603
-0.053359628 0.014646312 -0.04139268 -0.012453186 -0.1466265 -0.14562583 0.019908505 0.037173755
-0.083850056 -0.1518487 0.028109808 -0.014954652 -0.0062167495 0.11852346 0.12855239 0.06327143
-0.019357955 0.031275157 0.04108746 -0.1306974 0.097476475 -0.013616474 0.09278626 0.106321715
0.031489693 0.092203446 0.1740389 0.003822536 0.060142614 -0.048075106 0.009310705 -0.16497996
-0.052961055 -0.11893362 0.060787126 0.059632152 0.056004144 -0.019723693 -0.060991768 -0.15373845

actor.0.bias f4 [256]
00000000: d7c7 bebd bbb0 fe3d 25ca a9bd abbb 67bd
00000010: 9195 c6bd 1bcc 5cbd afc7 7f3d 336e ec3d
00000020: fc49 d3bd d338 0bbd 9ad0 b53d a85a 813d
00000030: fa6c e23d 83f3 053e 1f12 69bd 8d81 d8bb
00000040: 0165 20be df98 f83a 0875 46bc 4bfe d8bc
00000050: 06ec 14be 2a67 08be a5ab 94bd 1e7d 0abe
00000060: 9f6c 10be ca08 4c3d 6e51 91bd e62d b23d
00000070: 0db2 2e3d a2be 1bbe 738e 833c b4e1 433d
00000080: 10c9 87bd ce31 c73c 99f0 83bd aa60 6a3d
00000090: 0bc8 12be 4b6e 25bd a73d 5c3d c3ae 423d
000000a0: d640 edbd fd47 193c 3724 9abc 2f66 9c3c
000000b0: f0d8 a43d 6825 1f3e 3fa7 ab3d 4df1 94bd
000000c0: 47c0 9e3d 20e6 d13d 4f03 bf3c d008 423c
000000d0: 5e20 d0bd 51b9 233e 506d afbd 068c fabd
000000e0: 3ad0 10be 5ac4 86bd 2eb6 da3d d32c 33be
000000f0: 6768 153e 9e19 9f39 c7d7 0839 834a 03bd
00000100: 0aca 043e d9a6 26be ad3e e23d 4a90 f2bd
00000110: 6512 193d 48cf 6bbd 21c3 ccbd 3264 27bd
00000120: 7fd1 613c b412 a9bc af7f 33bd e438 80bd
00000130: 6af9 7a3d c0e2 d33d 07b2 fc3d 76c9 e93c
00000140: 584f 013d 6fe8 c23c 47a1 d23d 97b7 573d
00000150: bda1 b93d f9f5 113d 2a97 a73d a879 a7bd
00000160: 6e42 99bd b0a3 bbbc e5d4 7e3d 628c 1a3d
00000170: 93b1 9dbb 20f8 433c 1367 84bd 2aa8 09bd
00000180: 0e1c cc3d 9a6d ab3d b3e6 023e 75d0 2ebe
00000190: bd0f 383d f7d4 e33d 0162 9abd bb7d 74bd
000001a0: 7d79 8e3c 27e9 a93d 8035 ab3d 2afb 89bc
000001b0: 3ea3 373e 302f 263d ab89 6fbd a994 5f3d
000001c0: b33c 1d3e bb1a 983c 6c2b a53c 6c03 723d
000001d0: 536d dcbd 2825 89bd f65f e13d bb80 ccbd
000001e0: ee04 b03d 2158 82bc 8969 423d 8797 98bd
000001f0: 76bc ddbc 5551 ed3d d024 ce3c 83b6 7bbd
00000200: c856 6b3d e909 02be df84 f63d dc0d 9f3d
00000210: 4bd7 8ebd bb12 93bb 6184 2abd 866e e23c
00000220: 7447 9abd e35e 2d3e 4b6f cf3d 02a5 283e
00000230: 622d 94bd a1d3 f3bd 88cc 073d 0dae b63d
00000240: 1b80 413d fc27 633d c852 193e 3d2c 0c3e
00000250: 5f6c 9f3d 571d c3bd 6b07 883d a375 453c
00000260: 2d85 dbbd 34b5 f03d c3f3 6fbd 2e53 76bd
00000270: 3b94 58bd 9cb2 463c 3a33 1c3e 7dd1 a0bd
00000280: 5b4b 183e f6c8 8f3d ce5b db3c 9a10 f83d
00000290: 3df5 d6bd 711e 53bb 2760 b1bd 7784 e53c
000002a0: 2500 3f3e 74f4 ddbc 077d e8bd 49bf 873c
000002b0: 8b7f 97bc 6ced 163d 523e be3c e2af 15bd
000002c0: 2f1f 403e 00e1 c33d d71d a6bd 4bfd 62bd
000002d0: a460 5cbd 6965 a3bd 0d39 553d d4e2 ebbd
000002e0: eddc e43b 1aaa aebd 1296 d4bd 5356 103e
000002f0: e669 6e3d 3f39 ab3b c14a 6639 3483 81bd
00000300: 2add 01be e3c9 513d b11b fbbd 4027 96bb
00000310: 69e9 203c 790f 713d aa7f 1e3e 846b 06bd
00000320: a05e f9bd c29b 3c3e 5df6 533d 842d 1a3e
00000330: 7a9c 12bb b2e8 2e3e efb1 c5bd 5600 0d3e
00000340: fe90 f63c 5423 e9bc e58d 3a3d 9612 1dbd
00000350: 7e70 5dbd 605f 0c3e aa13 9fbd c499 95bd
00000360: 43f1 0ebe b405 5dbc 52d5 bdbd 514b 62bb
00000370: 9d55 e33c c604 5b3d f86e 2a3d 7324 b93c
00000380: 5ce8 49bd 3891 263d ae51 1dbd e7b3 183a
00000390: e20c acbd 3206 93bd c2db a93d e366 05be
000003a0: 860c b5bd 806c a0bd d951 82bd 1d91 90bd
000003b0: e5af 0cbd 20ed b7bc 5697 9f3d 9da4 8ebd
000003c0: 85bc b5bb a8bb 1bbc 9c76 033e 5089 de3d
000003d0: 996f 1e3e 93a5 8bbc 2011 68bd 5ea1 043d
000003e0: 19be 333e 4e54 b33d ef89 8ebd b87f b23d
000003f0: 53b5 d8bd 6e62 31bb e789 143d 869b 1e3e
-0.0931546 0.124360524 -0.08290509 -0.05657546 -0.09696496 -0.053905588 0.062446292 0.11544456
-0.10316846 -0.03398974 0.08877678 0.063161194 0.11055942 0.13081174 -0.056902047 -0.0066072405
-0.1566353 0.0018966458 -0.012112863 -0.026488444 -0.14543161 -0.13320604 -0.07259301 -0.13524291
-0.14103936 0.04981307 -0.070956096 0.08700161 0.04265027 -0.1520944 0.016059136 0.04782267
-0.066301465 0.02431574 -0.06442375 0.057221092 -0.14334123 -0.040388387 0.053769734 0.047529947
-0.11584632 0.009355542 -0.018816097 0.019091694 0.0804919 0.15541613 0.08381509 -0.07272587
0.07751518 0.10248971 0.023317007 0.011842921 -0.101624236 0.15988661 -0.085657716 -0.122337386
-0.14141932 -0.0658042 0.10679279 -0.17497568 0.14590608 0.0003034593 0.00013050354 -0.03205348
0.12967697 -0.16274585 0.11047111 -0.11843927 0.037371058 -0.057570726 -0.099981554 -0.040867038
0.013782858 -0.020638801 -0.04382294 -0.06260851 0.061273016 0.103459835 0.123386435 0.028538447
0.03156981 0.023792474 0.102846675 0.05266532 0.09064052 0.03563497 0.08183129 -0.08177501
-0.074833736 -0.0229052 0.06221475 0.037731536 -0.0048124283 0.011961013 -0.06464972 -0.03360764
0.099662885 0.08370514 0.12783317 -0.17071708 0.044936884 0.11124604 -0.07538224 -0.05969022
0.017391915 0.082964234 0.08359814 -0.016843397 0.17933366 0.040572345 -0.0584809 0.054585133
0.15355186 0.018567434 0.020162307 0.059085295 -0.107630394 -0.0669654 0.11004631 -0.09985491
0.0859469 -0.015911164 0.047463927 -0.074507765 -0.027067404 0.115877785 0.025164038 -0.061453354
0.057455808 -0.12699093 0.12037062 0.07766315 -0.069746576 -0.004488317 -0.041630153 0.027640592
-0.0753316 0.16930728 0.10128649 0.16469195 -0.072352186 -0.119055994 0.03315404 0.08919916
0.04724131 0.055458054 0.14972985 0.1368875 0.07784342 -0.095270805 0.0664204 0.012051973
-0.10718761 0.11753312 -0.05858208 -0.06013792 -0.05287574 0.012127545 0.15253916 -0.07852457
0.14872496 0.07020752 0.026777174 0.121125415 -0.10495994 -0.003221419 -0.08660918 0.028017266
0.18652399 -0.027094103 -0.11351972 0.016570704 -0.018493434 0.036847517 0.023223076 -0.036544688
0.18761896 0.095644 -0.0811116 -0.05541734 -0.0538031 -0.07978327 0.05205636 -0.115178734
0.006984344 -0.08528538 -0.10380186 0.1409543 0.05820646 0.00522533 0.00021962357 -0.06323853
-0.12682024 0.051217925 -0.12261141 -0.0045823157 0.009821274 0.058852646 0.15478387 -0.03281738
-0.121762514 0.18418792 0.051748622 0.15056425 -0.00223711 0.17080954 -0.09653079 0.1376966
0.030098435 -0.028459229 0.045545477 -0.038347803 -0.05406236 0.13708258 -0.077674225 -0.07304719
-0.13959222 -0.013490129 -0.09269203 -0.0034529755 0.027750785 0.05347135 0.041609734 0.022600388
-0.04929386 0.040665835 -0.038407974 0.00058251474 -0.08400895 -0.07178916 0.082938686 -0.1302753
-0.08840279 -0.07833195 -0.063632675 -0.07058928 -0.034347434 -0.022451937 0.07792537 -0.06964991
-0.005546155 -0.00950519 0.12838215 0.10866034 0.15472259 -0.017046725 -0.056656957 0.032380454
0.17552985 0.08756314 -0.069599025 0.08715767 -0.1058146 -0.0027066725 0.036264326 0.15489015

actor.2.weight f4 [128, 256]
00000000: 0678 8a3d bb3e 29bd 3b8c 05be c12f 62be
00000010: 0033 94b9 72b6 bebd 0480 d63d 2813 a03d
00000020: c61c 453d de82 a8bc 348d c23c f6f2 02be
00000030: 1d73 e1bc da5b 373e 4531 dd3d 8514 ca3d
00000040: c0ec 593d daad eabc 60c0 91be 525e b6bc
00000050: e17e 653d e5e4 d23d 7966 ef3a ebc4 133e
00000060: 9825 843d 5040 2fbc 45d8 503d bb52 cb3b
00000070: 3077 d33c dc7f 103d 8f91 c23d 5777 d6bd
00000080: 1c9b 3abe 27a6 823c 961b 25be 3912 063e
00000090: eff0 2bbd cddd 223d db22 55be 0c04 6f3e
000000a0: 8159 1e3c 214e fcbc b74f 043e 8747 6a3d
000000b0: cd18 21bd 7816 2dbe de98 ac3d 1da9 89bc
000000c0: f7fd 653d 6cef 29be 976f abbd 6035 afbd
000000d0: 341a afbd f824 1abe 8bd8 18be a2b6 efbd
000000e0: f71a a63d 3690 a33d 02bc 843d f36d 343d
000000f0: 5670 fdbd aa6b ce3d 2800 013e 029f f6bc
00000100: 68ed 973c 5979 0a3e f4f5 ed3d 87f2 4ebd
00000110: 0851 473e 2337 fbbc 62ed e0bd 7b63 7d3c
00000120: ba4b 1f3c 86ba a13d bf01 44bd 92a9 a03c
00000130: 43db 88bb 33cc e93d fcd5 c93c 55ab cbbc
00000140: 81b9 abbd 72a1 9d3d de21 93bd cea7 c93d
00000150: 5dcc e23d 3e85 56bd 8480 023e 1758 52be
00000160: d62b d83c e19f 0e3d ce98 2bbc b5d3 4e3d
00000170: 7224 f13d a67c acbe 1868 92bd e036 ddbb
00000180: cfcd 2f3d 425e c3be c9f2 2d3e 4c8e 213d
00000190: 3f58 d6bc 46d2 13be 5831 713d 804a b9bd
000001a0: c01e 48bd 8c20 9c3d f1d7 f3bd 4e66 8bbd
000001b0: 44ea cdbd bbee 32be 3082 ad3d ee2e 64bb
000001c0: da6c b03d 9540 393d 0806 1f3d 16d0 b5bc
000001d0: 63f5 73be 2634 163e 10ef 373a a889 e5bc
000001e0: 9576 673a a2e3 353e f27d 853d 46f1 473c
000001f0: 1462 3dbd 63b1 e03d a14d 943d 5043 4b3d
00000200: 0e10 ad3c 661c 0ebd 518d 98bd c52f 653c
00000210: a769 2dbe 8e1b 90bd d88b 0bbe 8695 d6bc
00000220: 7d25 8f3d a95b 823d 6ca6 4f3d 0a4d babd
00000230: 4b41 e03c c0b4 67bd dea2 273e 886e 3abc
00000240: b78a 1fbe b6b7 1d3e 2a3e d6bd 0b4b 1fbe
00000250: e36a 2b3d a328 4cbd 6f6d 2b3e be6a 7cbe
00000260: a41b 33bc db96 bc3d 0b97 42bb 49d7 19bd
00000270: dafa 8f3d 5a1a 2abd 8e18 00bc 224b 113e
00000280: 3801 a4bd 3117 853d 1eea da3d 11dd 61bd
00000290: b5cb 943d 9d63 94bd 8b17 e33c 7c00 953c
000002a0: b2d8 353d 9f9e 22be 7e6d d23d 4d28 213d
000002b0: 245c abbe 85a0 ce3c 94a8 44be db16 0b3e
000002c0: c69b 0f3c cab4 8ebd 3007 f3bd d4aa d43d
000002d0: 2e4b c83d 37ff 17bd c627 ad3c b4d3 f1bd
000002e0: 16e0 903c ab6c 2c3e 8c2c 6fbc 9a8d 5f3d
000002f0: 78d6 ef3d ba2e 89bd b674 1f3d c230 53bc
00000300: c722 aebd ac69 0e3b d1ac 94bd 0dd3 bc3b
00000310: 68fa 3bbe a870 7bbe 3cc7 ccbd 3821 f2bd
00000320: 8887 13ba 6b4e 9dbe b33f 403d b5c8 b0bd
00000330: 736d 38bc 6ce3 bbbd 7206 84ba 17fb e93c
00000340: c2aa 88bc 0597 793b f3b6 4ebe 7d45 d8bd
00000350: dae4 c93d fcea 8dbc cb06 f53c 1168 4fbd
00000360: 4760 b23d 17dc 003e d45d a23d 79c1 0d3e
00000370: 758f 5e3d 04b7 aeba 915d 983d 3027 88bd
00000380: 5fdf 343d bb55 96bd 611e d9bc 48bf bb3d
00000390: 2480 bb3c a8a4 993d 21f5 513d e73a a23d
000003a0: c51a c6bd 2920 b0bd 60a3 963c e792 5e3d
000003b0: 7529 f9bd 7174 fb3d 3cb9 cbbd 99ce dfbd
000003c0: 6a79 f5bd fbae d3bc 6431 0c3d cde1 94bd
000003d0: 8e72 e4bd fb77 433c 8f49 d73d bc10 c6bb
000003e0: d62d 02be 9b91 603d b475 18bd 7d1a 82bd
000003f0: 3084 b2bd 4c2e f03d 0345 04bd 2426 92bc
0.06761174 -0.04131959 -0.13041775 -0.22088529 -0.00028266758 -0.093121424 0.10473636 0.07816154
0.048123144 -0.020570215 0.023748972 -0.12787995 -0.02752071 0.17906132 0.10800413 0.09867195
0.053204298 -0.028647352 -0.28467083 -0.022261772 0.056029204 0.102975644 0.0018264792 0.14430587
0.06452483 -0.010696486 0.0509875 0.0062049306 0.025813669 0.035278186 0.09500419 -0.10471981
-0.18223232 0.015948368 -0.16123804 0.13092889 -0.04197782 0.039762307 -0.20814078 0.23341388
0.009664894 -0.030798974 0.12921034 0.05719712 -0.039330292 -0.16903102 0.084275946 -0.016804272
0.056150403 -0.16595238 -0.083708934 -0.08555102 -0.0854992 -0.15053165 -0.14926355 -0.11704756
0.08110612 0.079864904 0.06481172 0.04405017 -0.12374942 0.10079129 0.12597716 -0.030105118
0.018545821 0.13522853 0.116191775 -0.05052426 0.19464505 -0.03066594 -0.10982777 0.0154656125
0.009722644 0.07896905 -0.047853228 0.019612107 -0.0041765287 0.11415901 0.024638169 -0.02486197
-0.083849914 0.07696809 -0.07184194 0.09846459 0.110741355 -0.052373163 0.12744337 -0.20541416
0.02638809 0.03482044 -0.010473443 0.05049487 0.117745295 -0.3368885 -0.071487606 -0.0067509264
0.042920884 -0.3815785 0.16987146 0.039442345 -0.026165126 -0.14435682 0.05888495 -0.09047413
-0.04885745 0.07623395 -0.11906422 -0.068066224 -0.10054448 -0.17473881 0.08472097 -0.0034818011
0.08614512 0.045227606 0.03882411 -0.02219395 -0.23824076 0.1466833 0.0007016519 -0.028019741
0.0008829621 0.17762616 0.06518163 0.01220352 -0.046236113 0.10971334 0.07241369 0.04962474
0.02112582 -0.03469505 -0.07448829 0.01398844 -0.16934834 -0.07036506 -0.13627565 -0.026194345
0.06989572 0.06365139 0.05069582 -0.09096725 0.027374884 -0.05656886 0.16370723 -0.011378892
-0.1558026 0.15402111 -0.104610756 -0.1555597 0.041849982 -0.04984344 0.16740964 -0.24650094
-0.010931883 0.09208461 -0.002969208 -0.037558828 0.07030268 -0.041529037 -0.007818354 0.14188817
-0.08008045 0.06498564 0.106891856 -0.055142466 0.072654165 -0.07245562 0.027721187 0.018188708
0.04439611 -0.15880822 0.1027479 0.039345074 -0.33468735 0.025223026 -0.19204932 0.13582937
0.008765167 -0.069680765 -0.11866605 0.103841454 0.097799644 -0.037108626 0.02113713 -0.11807957
0.017684978 0.16838329 -0.014598023 0.0545784 0.117108285 -0.066983655 0.038929664 -0.012890043
-0.08502727 0.0021730466 -0.072595246 0.005762464 -0.18357241 -0.24554694 -0.099989384 -0.11822742
-0.0005627801 -0.3072389 0.04693575 -0.08632032 -0.0112565635 -0.09174237 -0.0010072722 0.028562112
-0.016682986 0.00380844 -0.20186977 -0.10560129 0.09858103 -0.017323963 0.029910466 -0.050636355
0.0870977 0.12583958 0.079280525 0.13843335 0.05433603 -0.0013329689 0.074397214 -0.066480994
0.044158336 -0.073405705 -0.026503744 0.091673434 0.02288825 0.07502109 0.051259164 0.07921391
-0.09673075 -0.08599884 0.01838845 0.054339316 -0.121661104 0.12278069 -0.0994744 -0.10928077
-0.119860485 -0.025840273 0.03422679 -0.072696306 -0.11154662 0.011930461 0.10512077 -0.0060444754
-0.12712798 0.05482636 -0.037221625 -0.063527085 -0.08716619 0.117275804 -0.032292377 -0.017840452

actor.2.bias f4 [128]
00000000: 3c4b 3b3c 7960 07bd ab70 adbd 9253 1d3d
00000010: 4e6b 0cbd f3b7 edbc 35c5 103d a240 b0bd
00000020: 4a09 8e3c 7819 ab3c eb7a 4e3d 7ae3 7f3b
00000030: b545 313c 07b4 a2bb 6a20 f9ba 5dae 603c
00000040: 865c bc3c b2a6 0d3d 6e3c 66bd 2d33 8f3c
00000050: 8b40 a13d d269 363d fab9 50bc 9983 dc3c
00000060: 5222 fa3c 4519 ecbc 8860 963d 99a3 a3bc
00000070: ae5b 983c 8d59 a13c 32c8 413d 2ca3 c7bb
00000080: abbe febc ae4e a03c eae5 9bbb 5c31 203d
00000090: cead 4dbd f17f c73b e5e2 9bbc e444 87bc
000000a0: 81e1 1dbc 889f 5b3d 633d 7abd 6248 b7bc
000000b0: 115a 463d 0344 27bc dfb5 873d 1a3c 323d
000000c0: cef9 5abd d453 863d f425 823d ac6a 053c
000000d0: f89b 92bd 4457 8e3d 85ae babc 42fa f43c
000000e0: 98b8 ac3c d559 28bd b693 88bb 0414 363d
000000f0: 8c59 b63c 315c 2e3d 367d ce3c a4e2 24bc
00000100: 5e02 3d3d 0781 fabb 6c29 8bbc 8835 b03d
00000110: f64e 253d 72b2 92bc ef59 083d fd7d 86bd
00000120: 65a0 03ba 4d40 56bd 6f8e c13c 77be 403d
00000130: 69bb 303d 1e27 d3bb a6ff 523c 4353 813c
00000140: ae3b 7f3d 92c9 663d 54d6 de3a 1bf8 88bb
00000150: 0e04 d63b edf1 823d b0bb c13c 055e 233d
00000160: c169 db3c 1638 92bc c4e9 82bd 55da 41bd
00000170: 2b85 a53d 11f0 fdbc b0bc fb3c 05fe 513d
00000180: 70bf 433d 4b29 1abc 3d24 133d 1ac0 953a
00000190: 8b20 633d 6c3d 29bd 5294 843d 5a87 9cbc
000001a0: 9623 023d c6e1 f33c 09ea 703b 4da4 cc3b
000001b0: 0fb4 f63c f423 dbbc 6104 8c3d 0860 46bd
000001c0: b7d1 cfbb 2567 52bd 007f 6e3c 279f 36bd
000001d0: 998b 163c e1ba b03d f3b9 69bd 6353 dd3c
000001e0: ebff 11bd 9d0d 0c3c c833 0c3d f3f3 0f3d
000001f0: c712 463d ab8c 96bb cef5 bb3d e9d8 473c
0.0114315115 -0.033050988 -0.08468755 0.038409777 -0.03428202 -0.029018378 0.03534432 -0.08606078
0.017338414 0.020886168 0.050410192 0.0039045499 0.010819842 -0.0049653086 -0.0019006853 0.013713446
0.022993337 0.0345828 -0.056209974 0.017480457 0.07873639 0.044534512 -0.012739653 0.02691822
0.030533943 -0.028820643 0.073426306 -0.01997547 0.018598404 0.019696021 0.04731006 -0.0060924497
-0.031096777 0.019568767 -0.0047576325 0.039109573 -0.05021458 0.00608825 -0.01902909 -0.016512342
-0.009636284 0.053618938 -0.0610937 -0.022373382 0.048425738 -0.010209086 0.06626486 0.04351435
-0.05346089 0.06558958 0.06354895 0.008143108 -0.07158655 0.06950238 -0.022788296 0.029904488
0.021084115 -0.041101296 -0.004167999 0.044452682 0.022259496 0.04256839 0.02520619 -0.010063801
0.046144836 -0.007644776 -0.016987525 0.0860396 0.040358506 -0.017907355 0.033288892 -0.06566999
-0.0005021154 -0.052307416 0.023627488 0.04705664 0.04314748 -0.006443872 0.012878334 0.015786773
0.062312774 0.056344576 0.0017001131 -0.004179967 0.006531245 0.063938 0.023649067 0.039884586
0.026783826 -0.01784901 -0.063922435 -0.04732736 0.080820404 -0.030998262 0.030729622 0.051267643
0.04778999 -0.009409259 0.03592323 0.0011425049 0.055450957 -0.041318342 0.06473602 -0.01910751
0.03177222 0.029770743 0.003676059 0.006245172 0.030115156 -0.026750542 0.06836773 -0.048431426
-0.0063421386 -0.051367898 0.014556646 -0.044585373 0.009188556 0.08629394 -0.0570621 0.027017301
-0.035644453 0.0085481675 0.03422907 0.035144757 0.04835775 -0.0045944056 0.09177743 0.0121977115
