CRL_GPU/模型集_opponent/train_gpu_20260126-014022/fixed_opponent_current.pth (torch, 370495 bytes, 11 tensors)

critic.0.weight f4 [256, 48]
00000000: 5411 54be f4f4 ffbd bcea d33c 3d1a 91ba
00000010: d1e0 3ebe 2e5b 29be 9623 abbc 7acf 903c
00000020: 0ebf 9bbe e7d9 44be 94a0 48be 2db0 003e
00000030: 6bb8 65be 3954 06be e4d2 083d fe96 58bc
00000040: 5f7d 87be 43b3 4cbe 0c78 d5bc f786 b73c
00000050: d188 22be a810 dbbd 8d90 4dbe a119 66bc
00000060: ea36 52bb e711 91bd 512e 563d 66d4 af3b
00000070: 4b40 abbd 76ef 40be 113c ffbc 9c63 4d3c
00000080: a875 c8bb ebef ebbc 8b92 38be a31a 8fbd
00000090: e7ff 1bbe db95 b9b9 bc19 ab3d 80f7 82bc
000000a0: 0178 febb 498c 76be dd1f febc 7dca 37bd
000000b0: d67b 91bd 5755 c33d 0c20 a73e 70c7 233d
000000c0: 521d 593e 04dd 53be 670d 60bd 6e66 d93d
000000d0: 1f05 d5bd 80fe 15be 4d81 2dbc 6fa4 e43b
000000e0: a4f4 7cbe 4127 1abe 7654 9fbd 11d6 9bbd
000000f0: f383 5a3e 450b 75be 84e1 a0bd 984e 6a3d
00000100: 27bb 3d3d 81ae 28be 8274 97bc 8a83 c13d
00000110: df5a 6ebe 4a5d 5f3d 8408 04be 14c6 d4bc
00000120: 0712 703e 78fa 26be 980f bebd 357c 563d
00000130: 6090 3fbe d72b 2ebe 499d f53b 989a 8a3d
00000140: 686c e9bc ce17 0e3e c9d6 1fbd 10e4 a73a
00000150: a8d3 f83d 74d9 7bbb b18e e9bd 0318 263e
00000160: 17f9 43be 7723 ccbd 4f40 af3c 1943 44bc
00000170: 1d3a 34be 45ae bf3e a01f 18be 4816 e53e
00000180: b1ec 2d3e c813 bb3d aa12 ac3d 00cb 63bc
00000190: 860c f1bd bda2 26bd c9a5 bfbc 9bb7 f33c
000001a0: 7c1b 67be 3347 95be 9b59 de3e fb76 4b3e
000001b0: 81ad 903d 6b26 7d3d 0e8e ad3d 23f0 c83b
000001c0: dba5 85be 2e85 c4bb 7273 8cbc 8c67 f03d
000001d0: 74ec f53c d8b8 b4bd 21fd 2c3e 3e58 cfbd
000001e0: 083a df3c 2181 4c3e 0c95 c13d da33 34bc
000001f0: 8729 d5bd 1349 b3bd fb99 01bc e6da bc3b
00000200: 6c94 9ebd 91a6 d43d 3511 8739 73c4 23be
00000210: 8516 3b3e 0278 95bd 0db5 b43d a8ab 82bd
00000220: 742b 64be b9c4 24be 7fbf d13b 307e 9bbe
00000230: 5975 5f3d a666 2e3e 8032 f2bd 6ab6 373d
00000240: c28c 4e3e 0a09 bfbe 6509 4a3c 9915 d63d
00000250: 0003 d2bd e158 bb3d 3f71 6e3d 27d6 863c
00000260: 98c2 17be 7533 4cbf 830e f73c 1f6a 13bb
00000270: 4f38 823d 7e3c bdbe 21b1 053d 570b a43d
00000280: b52d 3cbe cbda 243e 743b 233d 110c 083d
00000290: d283 993d 87ed 44bf d425 fa3d 2615 8e3e
000002a0: 10a7 263a b362 85be 907f 723d 13e1 52bb
000002b0: ca60 13bd 549a 4b3b beb5 aa3c b156 1a3d
000002c0: 1597 c6bd 9d7c 14bf 72bd 903d 4517 553e
000002d0: 91a9 2b3e 47dc 3dbe eafd 043d 4898 0c3e
000002e0: 4139 83bd 185e c03d 1cd8 a4bb 04d8 5d3c
000002f0: 69a2 3d3e 09b3 b3be 3527 873e 4cf4 ffbc
00000300: 4688 223d b9b0 60bd c084 b33c 3b23 253d
00000310: 5032 b63e 404e 25be b3bd df3c baca d13d
00000320: 816c 973c 7de9 ddbd f20e 82bd e4ad 57bd
00000330: b51d 26be 11b0 79bd 8516 9b3c 12bb 223d
00000340: e785 b43e ceb7 2cbe 1494 733d 2c4a ad3d
00000350: f457 4abd 772b 353d 096d 213e 52f2 893d
00000360: 4084 25be a555 27bd 9f07 6639 bf2a 403d
00000370: ef35 803e 719e 2fbe 7c6c ba3d 95bc 723d
00000380: 8d50 a73d 8f2c 463c ef0c a23e 6277 973d
00000390: 0e60 8d3d a6ed c7bd a53d 0bbd fec8 013d
000003a0: 36b3 6f3e 01a6 bcbc 377b cb3d 886b acbc
000003b0: d88d 9ebb fd0a 453c d3a3 243f 961c bbbd
000003c0: e7f8 40bd 887d 163b 94d4 4cbd ec81 edbb
000003d0: 6f41 1dbc f2a2 57be 9b96 653d d475 9e3b
000003e0: ceb1 9abc 92a8 04bc 5c39 943d 80a6 e2bb
000003f0: 3dfa f7bd e5fd 963c aed9 aabd c089 2f3b
-0.20709735 -0.12497893 0.025868766 -0.0011070442 -0.18640448 -0.16538689 -0.020890992 0.017677058
-0.304192 -0.19223748 -0.19592506 0.12567206 -0.22433631 -0.13118066 0.033404246 -0.013219593
-0.26462838 -0.19990258 -0.02605822 0.022403223 -0.15872504 -0.10696536 -0.20074673 -0.014044196
-0.0032076188 -0.07083493 0.052290265 0.005365896 -0.08361872 -0.18841347 -0.031156572 0.012535956
-0.0061175413 -0.028800925 -0.18024652 -0.069875024 -0.15234338 -0.000353976 0.08354518 -0.015987158
-0.0077657704 -0.24076952 -0.031021053 -0.044870842 -0.07103698 0.09537762 0.32641637 0.03998512
0.21202591 -0.2068978 -0.05470028 0.1061524 -0.104013674 -0.14647865 -0.01058991 0.00697761
-0.24702698 -0.15054037 -0.077797815 -0.07609189 0.21339397 -0.2393008 -0.07855514 0.05720386
0.04632106 -0.16472818 -0.018488172 0.09448917 -0.23276852 0.054532327 -0.12893873 -0.025973357
0.23444377 -0.16306484 -0.09280318 0.052364547 -0.18707418 -0.17008911 0.0074955565 0.06767768
-0.028494075 0.13876268 -0.039023194 0.0012809057 0.12149745 -0.0038429173 -0.11404169 0.16220097
-0.19137989 -0.09967702 0.02139297 -0.011978888 -0.17600293 0.37437645 -0.14855814 0.44743562
0.16984822 0.09134632 0.084019974 -0.013903379 -0.11769967 -0.040682543 -0.023394482 0.029750636
-0.22569078 -0.29155883 0.4342774 0.19869606 0.07064343 0.061804216 0.084743604 0.006132142
-0.261031 -0.0059973216 -0.017144892 0.117385 0.030019976 -0.08824319 0.16893436 -0.10124253
0.027249351 0.19971134 0.094522566 -0.0109986905 -0.10408311 -0.08754172 -0.007910247 0.0057633994
-0.07743153 0.103833325 0.00025762027 -0.15992908 0.1827031 -0.0729828 0.08823595 -0.06380397
-0.22282201 -0.16090669 0.006401002 -0.3036971 0.05455527 0.17031345 -0.11826038 0.044851698
0.20170882 -0.37311584 0.012331341 0.10453338 -0.102544785 0.09147812 0.05821347 0.016459538
-0.14820325 -0.7976602 0.030158287 -0.0022493673 0.06358396 -0.36960214 0.032639626 0.080099754
-0.18376811 0.16099088 0.03985162 0.033214632 0.07495846 -0.7692494 0.122142464 0.2775051
0.0006357292 -0.26051864 0.059203684 -0.0032177612 -0.035980977 0.0031067329 0.020838615 0.03768033
-0.09696785 -0.58002645 0.07067384 0.20809658 0.16763903 -0.1854106 0.032468714 0.13729966
-0.06407405 0.09392947 -0.005030645 0.013540272 0.18518986 -0.3509753 0.263971 -0.03124442
0.03968074 -0.054856036 0.021913886 0.0403168 0.3558526 -0.16143131 0.027312135 0.10243745
0.018484356 -0.1083555 -0.06350507 -0.05265607 -0.1622227 -0.060958926 0.018931637 0.039729185
0.3525841 -0.16866991 0.05946739 0.08461413 -0.049400285 0.044230904 0.1576425 0.06735672
-0.1616373 -0.04085316 0.00021937348 0.046915766 0.25041148 -0.17150284 0.09102723 0.059261877
0.08169661 0.0120955845 0.31650493 0.07395817 0.069030866 -0.09762125 -0.033994336 0.03168582
0.23408207 -0.023028376 0.09935611 -0.021047369 -0.0048386864 0.012026546 0.64312476 -0.09136312
-0.04711237 0.0022963006 -0.050007418 -0.007248154 -0.00959812 -0.21058252 0.05605183 0.0048358236
-0.018883612 -0.008096831 0.07237503 -0.006916821 -0.12108276 0.018431613 -0.083423 0.0026784986

critic.0.bias f4 [256]
00000000: 2085 373e 62bd b53e 42cd 653c 508e 673c
00000010: b69d 2bbe bcca 9cbe 15b6 af3c 722e dcbd
00000020: a445 babd 58fb 75be 60c9 b23d c137 d53e
00000030: aee3 0c3f e0b2 123f 1be5 5e3d 2abe b2be
00000040: e7c6 8dbe 01fb 133f 5994 b4bc f014 683d
00000050: 1a39 09bf daf0 84be f7b0 6bbe 77b9 4a3e
00000060: f6e0 8b3d 05c9 c83e 6051 06be df25 343e
00000070: 4082 28bd dbd9 f8bd b398 9a3e c66b c2bd
00000080: 765e c6be 5e2d 7c3e afed d4bc d1c5 58bf
00000090: a232 8a3e fe2c 5d3e 3d0b e03e 4d48 06bf
000000a0: fe8a a53e 1a7a 6bbe 9f0c 97be f5c2 113f
000000b0: c41f a0be b1b0 a33e b715 f33e 0700 92be
000000c0: 337d c5bd 9e0b 7b3e db73 0ebf 688b be3c
000000d0: 7120 23bf f9d9 3bbf 7b88 e43e 765b 99be
000000e0: 6975 86bc f64a 14bf 3548 54bf 2684 80bd
000000f0: 649f 9ebe df77 41be 0a55 0ebe dab1 34bf
00000100: 3359 2c3d 0281 acbe 9312 6fbe f522 f0be
00000110: ccb3 d03e 7de0 a33d 9e42 dd3d 3339 9b3c
00000120: e8ba 863d 1d21 68be 8cc7 4cbe 1276 023e
00000130: 4f0f 6dbf ef4e 6d3e e6d3 c8be 2e05 d9be
00000140: bc79 0abf 1103 3dbe 1c71 9abd 2a12 bdbe
00000150: 7f21 533e 0feb efbe 251a 46be bf5c f0bd
00000160: 7eb1 96be 655f 103e 7054 ad3e 8ad3 093f
00000170: 8d39 8fbd 744e df3d 466c e9be fe75 06be
00000180: 8494 00be 394c b1bc 53ce f33d 6e2f 3d3e
00000190: 184e 963e d280 89be b69d d43d e5f4 55be
000001a0: a22a f8bd 69a3 d6be 9644 b83c c5c5 f53d
000001b0: f72e 79bd 9e67 3cbe cc3e 2ebf 1961 c4be
000001c0: 4bb5 62bd 1f8f a5be 004c a1bd 0867 7e3e
000001d0: 791e cfbe b0ea f0be 9842 52bd 1a36 09be
000001e0: 1f6e c43d 1b7a 68bd 8f09 c33d 53a6 a63d
000001f0: 74e6 8b3e e1b3 36bd 5d45 89be a3e5 57be
00000200: 9a33 813e da76 413e 9e72 2abe b526 583e
00000210: d12b a6bc f1b9 59bc b166 9b3c 2413 a2bd
00000220: a64a 073d eb6c 3bbd ef70 1c3f 371f d6be
00000230: 9d69 6abe bb49 9bbf c730 59bd 4514 203d
00000240: c65f 293e f261 8b3e fdf5 a7be 045b febd
00000250: f10a 183f 7aa1 98be 4706 90be 6345 d83c
00000260: 3b9a acbd a272 2e3e c368 d9bd d9ee 80bc
00000270: b984 1bbd 3b24 82be ceeb afbe 770e 23be
00000280: a6a1 3abe 1ea7 4b3e aa18 4c3e c924 bbbe
00000290: 7a0f a0be 3fb1 c0be bd57 babe f1bf 86be
000002a0: 24f6 d3be 23cf 053e 5f5a 943e 837b 63be
000002b0: 6e4e 1cbf ef24 c33d dfc3 113f 3775 903e
000002c0: 97ef 5f3e 1037 33be 14ba 153e 4eab d4bc
000002d0: 3bf3 8c3a c40e 0cbf 3180 85be c981 883e
000002e0: 54c5 f23e e4d6 5bbd 7b9f 64be a57b 0dbd
000002f0: 05cf 9c3e 25fc bd3e 8ff6 e53e 1d53 793e
00000300: 1688 bfbe 8a39 9f3d 7ea0 18be 70bf 9abd
00000310: 22cb 62bd 0f48 48be 081c 4ebb 3723 85bc
00000320: 5eec 993d fc5c 1dbf 63cd 24bf d961 83be
00000330: bfba b8bd d146 96be 9987 30be 9eac 293d
00000340: f790 a53e 8981 5f3d d722 f33d faf9 4b3e
00000350: 8c7c acbd a04f f83c b720 b2bd 8635 293e
00000360: 00e4 87be 46c1 d13e 8bf9 ac3d f781 cdbe
00000370: 0f30 13be 0667 4a3c 20af aebd 2dc6 533e
00000380: 2bbb 31be 4fae 0bbe ad6c 3dbf f8ad 81be
00000390: 9bf8 103e 18bf 2ebf 8712 a23e 7d32 bc3c
000003a0: 5b46 35bf 0cc2 9dbd 4eb8 71be 6a06 09bf
000003b0: 97ef 29be c983 bc3e 9b0e 063e 0a30 873d
000003c0: 3ca5 b7bd 36e1 05bf d350 6f3d 5fa3 7ebe
000003d0: 5673 5fbf 2092 443e 5bff 8f3d 6f27 0abf
000003e0: 364f 2c3f acb3 04bf 87e0 54be e9e5 acbe
000003f0: fc8f 0f3e bde6 a83e 5a1b 65bd 0fdd f63e
0.17921877 0.3549605 0.014025988 0.014133051 -0.1675938 -0.30623424 0.021449128 -0.10751046
-0.09095314 -0.24021661 0.087298155 0.416441 0.5503491 0.5730419 0.05441771 -0.3491071
-0.27690813 0.57804877 -0.022043394 0.056660593 -0.53602755 -0.25965005 -0.23016725 0.19797312
0.06830017 0.39215866 -0.1311698 0.17592572 -0.04113984 -0.12150928 0.30194625 -0.094932124
-0.38743943 0.24626681 -0.025992243 -0.84676844 0.26991755 0.21599194 0.43758574 -0.5245407
0.32332605 -0.22995797 -0.29501817 0.56938106 -0.31274235 0.31970742 0.47477505 -0.28515646
-0.096430205 0.2451615 -0.5564553 0.023259833 -0.63721377 -0.73379475 0.44635376 -0.29952592
-0.016413407 -0.5792688 -0.8292268 -0.06275205 -0.3098098 -0.18893383 -0.13899627 -0.7058388
0.042077255 -0.33692175 -0.23346929 -0.4690167 0.40762174 0.08001802 0.10803722 0.018948173
0.06578618 -0.22668882 -0.19997996 0.12740353 -0.92601484 0.23174642 -0.39224166 -0.42386764
-0.54092 -0.18458201 -0.07541105 -0.3692792 0.20618246 -0.46859023 -0.19345911 -0.1173644
-0.2943229 0.1409889 0.33853483 0.5383841 -0.06993399 0.109036356 -0.4559042 -0.13130948
-0.12556654 -0.021642791 0.119045876 0.18475124 0.29356456 -0.26856095 0.103816435 -0.20894201
-0.121175066 -0.41921547 0.022493642 0.12000612 -0.060835805 -0.18398902 -0.6806457 -0.3835533
-0.055348676 -0.32335755 -0.07875824 0.24843991 -0.40452936 -0.47054052 -0.05133304 -0.13399544
0.095913164 -0.056757074 0.095233075 0.081371926 0.2732426 -0.04460514 -0.26810732 -0.21083693
0.2523468 0.18892995 -0.16645285 0.21108516 -0.020284565 -0.013288961 0.018969866 -0.07913807
0.033030175 -0.04575817 0.61109823 -0.4182069 -0.22891851 -1.2131876 -0.053025033 0.03908183
0.16540441 0.27223164 -0.32804862 -0.124197036 0.59391695 -0.29810697 -0.2812979 0.026400274
-0.084278546 0.17035916 -0.10615685 -0.015738891 -0.03796837 -0.25418267 -0.34359592 -0.15923487
-0.18225726 0.19887969 0.19931284 -0.36551502 -0.31261808 -0.37635228 -0.36395064 -0.26318315
-0.41398728 0.13067298 0.28975198 -0.22215085 -0.61057174 0.09528529 0.569395 0.28214428
0.2186874 -0.17501473 0.14621764 -0.02596059 0.0010753641 -0.5471003 -0.26074365 0.26661518
0.47416174 -0.053671733 -0.22326462 -0.034541745 0.30626693 0.37106434 0.44914672 0.24348111
-0.37408513 0.077746466 -0.14904973 -0.07556045 -0.055369504 -0.19558738 -0.0031449813 -0.016252143
0.075157866 -0.6147001 -0.64375895 -0.2566059 -0.09019994 -0.29350904 -0.17239226 0.041424386
0.32337162 0.054566894 0.118718795 0.19919577 -0.08422193 0.030311406 -0.08697646 0.16524324
-0.26541138 0.40967768 0.08446034 -0.40138218 -0.14373802 0.012353664 -0.08529496 0.20681067
-0.17356555 -0.13640712 -0.7399395 -0.2532804 0.14157335 -0.68260336 0.3165476 0.022973293
-0.7081048 -0.07703027 -0.23605463 -0.5352541 -0.16595303 0.36819294 0.13091509 0.066009596
-0.08967063 -0.5229677 0.05842669 -0.24867009 -0.87285364 0.19196367 0.07031127 -0.5396642
0.67308366 -0.5183666 -0.20788775 -0.33769158 0.1401977 0.3298854 -0.055934288 0.4821553

critic.2.weight f4 [128, 256]
00000000: 977d 0cbc 60a7 b0bd afe4 79be 67d2 0a3e
00000010: 1087 4e3e 3bb4 43be e628 44bd 6eee d8be
00000020: 5bcf 703e e012 5c3c d50f e73e 4e9d ebbb
00000030: fbd6 04be 3941 dd3c 06da d83d bc48 d6bd
00000040: 4e97 c83d 34af 4fbe 4916 0cbd 9073 b63d
00000050: 4306 b3bc 7774 42bd 691a e63d 2f9c a2bd
00000060: a921 5ebd 563d 833e c77c c43d 771a 1abd
00000070: 2d6b 283d a3e8 3fbe 09ba 023d 00ad c8be
00000080: 510b 61be d3eb 17bd cda5 1bbe 1875 40be
00000090: e379 28be b451 c3be f25f e33d f9cf 2fbe
000000a0: a792 093e a44d e4bd a62c 423b 70dc d83c
000000b0: b55d 94bf 5f31 803c 5569 263b 0b3f e1bb
000000c0: a356 433b e0d5 24be b799 4d3d 98c8 c8bd
000000d0: cd66 d53b 1425 39be 65c7 a2bd 682e 023e
000000e0: 0418 84bd 7950 86be 8595 04be 4f05 81c0
000000f0: 5f42 23be da32 1e3e a0a6 2a3e 44a2 a4c0
00000100: 315b 103d ed50 fdbb 2abb f53d cf74 11be
00000110: 15e6 4bbe af53 19bd 2a79 8dbe eba9 793e
00000120: 043d 543d 8ace 26be 4f26 3ebd 2a2c 393e
00000130: ab2c b73d ceb5 22be d520 533c 870c 2bbd
00000140: 662e 11be 96ce 933d b2d4 f3bd ab2b 6e3e
00000150: 2572 bbbb 6f72 59be 8c9f bc3a d8d8 6dbe
00000160: d0b5 383e 547a 473e b35c 39be c391 853e
00000170: f090 c63d afd1 01be 7ef2 5abd da78 4e3c
00000180: e076 f9bd 2700 fabd bd53 383c 6bd3 afbd
00000190: 6f86 763c 6643 1ebe 4e12 0bbe 3298 01be
000001a0: e89d 143e fc27 acbe 7c4f 5c3d 2abb 93bc
000001b0: bb9e 8f3e 7d6b ab3d d5bd 28be ca9e a53d
000001c0: 45a5 b43d 3f0e 33be 1a3c 243c b1d3 0d3d
000001d0: 6c94 06be 93f5 fd3c e525 5f3e 01b3 cebd
000001e0: 6007 1abd 7249 85bd d149 debd 3cff e03e
000001f0: 66ca 3c3e da62 25bc b3b1 8dbd b14d 0ebe
00000200: df6f 4fbe 9103 55be 3d27 57be 8b1b 15bd
00000210: 2b47 293d fb98 293d f241 23bd 5566 4ebe
00000220: d1e2 38be e6c0 a23d a00f 393e 4c37 db3c
00000230: ae76 2fbe 73a2 2bbe bdcf 8bbd a92d 743d
00000240: cc72 2fbe 45ed fbbd fe55 d0bb bec5 98be
00000250: 1ffc 04bc 503f 5fbe eb2a adbb c8ed 9dbd
00000260: d2dc 5a3e e3e1 93bc cf40 b0c0 9025 4fbe
00000270: c838 0dbd 7b6f 063e ea58 ef3c 21a1 12bd
00000280: 304f c3bd a416 abbc d808 193d fb6c d93d
00000290: ccf1 8d3e 5350 cb3d e43b ccbe 503f 373c
000002a0: 5b85 bfbd ff31 6dbd 73bc a93d 6fbd 84bd
000002b0: 1158 893d 3cc3 76be 60a2 b93d 9a7b 5f3d
000002c0: 6d52 05bc 7ec8 a1bd 9c13 14be 453f 32be
000002d0: 5c9a 0d3d 5eb9 353e d854 063f 79f1 1c3e
000002e0: 730c 37be c409 3ebc 390a 113d c0f3 a63d
000002f0: 2b6e 063d 0563 4d3b d403 aa3e ecd6 86bc
00000300: 07fc a53d b806 583e fa38 063e 491b efbd
00000310: b5c2 3cbd ca45 eabd e9da 47bc b3f2 a9bd
00000320: 7f7f 1fbb 27be 333e 74a4 223d 5ad3 9dbc
00000330: 335d 863c 2df2 573e fbcf 0c3e d2de fbbd
00000340: 0092 b13c 9021 a9bd 77da cdbb be0f 1c3c
00000350: 428d 2c3e 7c04 803d b33a 55be bb2e 19be
00000360: 368d 383d df81 533d e8d7 25bf 91c0 273e
00000370: 2167 343c 9d6e fbbd aaef 36be b1c0 343d
00000380: 4aad a73d e8c4 c2bd 07d8 5ebe d154 85be
00000390: 0803 12be 7d01 97bd b957 5fbe 6dda bfbd
000003a0: a100 9a3c 244e 203c 350d 843d c4d2 1cbc
000003b0: d3ad 703d af72 11be 47f0 cc3d 732c 5dbc
000003c0: 5329 40bd 3d07 6ebe ef4f 083d d734 923b
000003d0: d3aa 32be 4a23 08bd cd41 613d d6c3 c73d
000003e0: f5a2 c13a 9329 503d 303f c13c a5c6 34bb
000003f0: a0b8 343e b694 bb3d d9a7 88be 719f 193e
-0.008574865 -0.08625674 -0.24403642 0.13556825 0.2016871 -0.19111721 -0.047890566 -0.42369407
0.235166 0.0134322345 0.45129266 -0.007190383 -0.12972634 0.02700864 0.1058846 -0.10463092
0.09794484 -0.20281678 -0.03420094 0.089087605 -0.021853572 -0.04747435 0.11235506 -0.07939946
-0.05423132 0.25632733 0.09594112 -0.037622895 0.041117836 -0.18741088 0.0319157 -0.3919449
-0.21976973 -0.037090134 -0.15199967 -0.18794668 -0.16452746 -0.38148272 0.111022845 -0.17169179
0.1343485 -0.11147621 0.0029628663 0.0264723 -1.1591097 0.015648542 0.0025392373 -0.0068739704
0.0029806278 -0.16097212 0.050195422 -0.09803885 0.006512499 -0.1808055 -0.07948188 0.12713015
-0.06449893 -0.2623327 -0.12947662 -4.031898 -0.15943287 0.15449086 0.16665125 -5.144808
0.035243217 -0.0077305944 0.11998589 -0.14204715 -0.19911988 -0.037433323 -0.27631503 0.24381225
0.051816 -0.16289726 -0.046423253 0.18083254 0.089440666 -0.15889665 0.012886246 -0.041759994
-0.14177856 0.072171375 -0.11905803 0.23258846 -0.005720394 -0.21235059 0.001439081 -0.2322725
0.18038106 0.19480258 -0.18101768 0.2608777 0.096956134 -0.12677644 -0.053453915 0.012602055
-0.12180877 -0.1220706 0.0112504335 -0.08585247 0.0150467 -0.15455398 -0.13581201 -0.12655714
0.14513361 -0.33624256 0.05378674 -0.018033583 0.2805079 0.08370111 -0.16478665 0.08086927
0.08820585 -0.17485903 0.010024095 0.034625713 -0.13142556 0.031000888 0.217918 -0.10092736
-0.03760469 -0.06508149 -0.10853923 0.43944728 0.18436584 -0.010094369 -0.06918659 -0.13896824
-0.20257519 -0.20802142 -0.21011062 -0.03640322 0.041327637 0.04140566 -0.039857812 -0.20156224
-0.18055274 0.07946949 0.18072367 0.026759766 -0.17135116 -0.16761188 -0.06826732 0.059613857
-0.17133635 -0.12301115 -0.0063579073 -0.29838365 -0.008116751 -0.21801496 -0.0052846572 -0.07711369
0.21373299 -0.018052047 -5.507911 -0.20229173 -0.03447798 0.13128464 0.029217202 -0.035798196
-0.09536588 -0.02088482 0.03736195 0.106164895 0.2772354 0.0992743 -0.39889443 0.0111845285
-0.093516074 -0.057909008 0.08287897 -0.06481444 0.067062505 -0.24097914 0.09064174 0.054561235
-0.008137328 -0.07899569 -0.14460605 -0.17406948 0.034571037 0.17746493 0.5247321 0.1532649
-0.17875843 -0.011599008 0.03541014 0.081519604 0.032819908 0.0031339538 0.33206046 -0.016459905
0.08104711 0.21096313 0.13107672 -0.11675126 -0.046084125 -0.114390925 -0.012198188 -0.08298244
-0.0024337468 0.17553006 0.039707616 -0.01926582 0.016401863 0.21088476 0.13751213 -0.12298359
0.021676064 -0.08258355 -0.0062821466 0.009525238 0.1685076 0.06250855 -0.20823173 -0.14959233
0.045056544 0.051637527 -0.6478257 0.16382052 0.011010916 -0.12276957 -0.17864862 0.044129077
0.08187349 -0.09510213 -0.21762095 -0.26041272 -0.14258969 -0.07373331 -0.21810807 -0.09367833
0.018799128 0.009784255 0.064478315 -0.009571735 0.05875952 -0.14203905 0.10006767 -0.013499367
-0.04691441 -0.23244949 0.033279356 0.0044618654 -0.17447977 -0.03323678 0.054994393 0.097541496
0.0014773296 0.0508209 0.0235897 -0.0027584222 0.17648554 0.09159224 -0.26690558 0.15002228

critic.2.bias f4 [128]
00000000: 7bf9 183e de5b b6bd 5716 9dbd 77da b73d
00000010: 2407 d03d 62da fa3d 8e1d 1cbe 1cac 5dbd
00000020: 08f0 c3bd fe03 ccbb 8fcc ddbe fa24 1b3e
00000030: 5f87 573d a7a5 923d 5c16 433e d907 103d
00000040: 9522 9dbd 6e97 ac3d 15e0 333e 9020 30bd
00000050: 0131 163e 11d5 dfbd a947 f9bd 0e5c 06be
00000060: 6aa0 c7bd f461 d6bd 4969 5c3d 4858 d23c
00000070: 0848 083d 292c 6fbd 0aa4 95be 9db6 b9be
00000080: 6c78 eb3d 341d 8f3b cd7c da3c ddaa 01bd
00000090: 79e6 573e 6d17 f93d 74ee 4f3d 8f4b f6bc
000000a0: 6a66 de3b 64b3 83bd f0ed b73c 980c b9bd
000000b0: 8358 d5bc 8875 cbbd fca5 843d e8fc f5bd
000000c0: 6257 44bd baee 603a 689c f2bb cd1e 3ebd
000000d0: 818e adbd c0ea a53c a5f1 c7bd ba45 23be
000000e0: 6b32 8a3d 45fe 5a3d 6f94 cc3d 77da 95bd
000000f0: 413e c2bd d1a0 09be b71c 26be 826e 74be
00000100: f500 6ebe ee96 35be 8b05 a83d 003e f4bd
00000110: 43af 35be ab62 d23d 7796 683b 91f7 f23a
00000120: 6e1d 2f3d cc79 ab3d dd32 233a 936d 8ebd
00000130: 1e7b ee3d 2c48 16bd ca09 afbc 23b1 3ebd
00000140: 1a28 15be cea5 96bd 5b2f 10bd 0148 af3d
00000150: dc54 d53d 2a7e 543e 9b98 e43d ab1e e4bd
00000160: 30e0 4ebd 1fb1 a33b f364 16be e781 b6bc
00000170: f3d6 153e f7a7 c4bd abbf 9dbd 1ec3 a7bd
00000180: a4b8 d83d 707b 98bd 5e85 673d ae82 713d
00000190: 2df2 6d3d c4b9 a0bc 85d8 e8bd 048d fdbc
000001a0: 22c2 c6b9 89af b63c dbaa 20bd 420d 333e
000001b0: 91d0 59bd 2f13 2f3d 2041 0b3e 537a b23d
000001c0: 6017 563d b526 513d 4624 f83d b9a3 023d
000001d0: 26e5 9c3d 3f5e 4b3e 1292 163e 33fa 04be
000001e0: 2f09 2f3e 162e 643d bac6 9cbd 40b1 dcbc
000001f0: c9aa 4abd 3e5f c4bc 48e9 9c3d 8cb2 043e
0.14938919 -0.08904241 -0.076702766 0.08977216 0.10157612 0.122486845 -0.15245649 -0.054119214
-0.09567267 -0.006226062 -0.43320128 0.15150824 0.052619334 0.07160502 0.19051498 0.035163734
-0.076726116 0.084273204 0.1756595 -0.042999804 0.14667131 -0.10929311 -0.12171871 -0.13121054
-0.097473934 -0.10467902 0.053811345 0.025676861 0.03327182 -0.058391724 -0.29226714 -0.36272135
0.11497578 0.004367495 0.026670838 -0.03165709 0.21084012 0.12162671 0.050764516 -0.030065326
0.006787111 -0.064307004 0.022452325 -0.09035605 -0.026043182 -0.09934527 0.064769715 -0.12011129
-0.047934897 0.0008580495 -0.007403899 -0.046416093 -0.08474446 0.02025354 -0.09762887 -0.15944567
0.06747898 0.053465147 0.09989249 -0.073170595 -0.0948453 -0.13440253 -0.16221891 -0.2387028
-0.23242553 -0.17733356 0.08204182 -0.11925888 -0.17742638 0.10272726 0.0035490075 0.0018536915
0.042752676 0.0837284 0.0006225536 -0.069544934 0.116445765 -0.036689922 -0.021366972 -0.04655565
-0.14566079 -0.073558435 -0.03520141 0.085586555 0.10416576 0.20751253 0.1116192 -0.11138662
-0.05050677 0.0049954797 -0.14686947 -0.02227874 0.14632778 -0.09602349 -0.077025734 -0.081915125
0.105820924 -0.07445419 0.056523673 0.058962516 0.058092285 -0.01961983 -0.11369423 -0.03095103
-0.00037910143 0.022300499 -0.03922544 0.17485526 -0.05317742 0.042742904 0.13599062 0.08714738
0.052268386 0.051062305 0.121162936 0.03189442 0.07660894 0.19860171 0.14704159 -0.12986068
0.17093347 0.055708013 -0.076550916 -0.026939988 -0.04947928 -0.023971196 0.07661682 0.12958735

critic.4.weight f4 [1, 128]
00000000: b664 b43e 4a8c 2cbd 18a5 b03e b21e 53be
00000010: e856 863e aded f7bc 8b40 5cbe bbf3 c3be
00000020: 3691 973e ba35 49be 0132 91bf 20f5 95be
00000030: 35e9 adbd f9bb 0c3e edab e33e 951a bfbe
00000040: 047e 0a40 59d9 ee3d 2e02 b13e 5b07 133e
00000050: 61b0 793f 9354 903e a880 553e 5bf9 05bf
00000060: 0e5b cb3e 7262 8b3f b509 a73e d6b0 c3bd
00000070: d040 8dbd 485a 8f3e 5930 113f bfb1 113f
00000080: 01dd bc3e 53e5 98be af6f 1f3f 075b b13e
00000090: 36bd 1d3e 868e fdbd 5333 02be 4e53 843f
000000a0: bd51 943d 8e70 8f3e fb2b 703e c52e c03f
000000b0: d5fa 693d da4c 393f a9ff 96bd c664 ac3e
000000c0: 43a2 8c3f e14a 2abe 5d7b 0d3f 5153 213f
000000d0: 463c aebe 72b9 b03d db77 103f f5d8 efbe
000000e0: 53b8 2e3f 2328 e43e 5b42 863e fbaf 223f
000000f0: c0eb e8bd e3f5 b03e a07c 693f b5d6 8a3f
00000100: 7598 663f 77b5 c43e 1a84 fcbe af3f 3b3f
00000110: 6539 723e 08f7 a73e a65f f03e 1362 10be
00000120: 4f4b 1c3e 21d7 ed3e ee64 0f3f 4ed0 bf3f
00000130: 22e1 013f 7e5d 5abf f3ee 27be 1af6 603f
00000140: 2c11 7abe c225 c03c 7029 ba3f 85b5 bdbd
00000150: 0e7a 0c3f 5fdc e33e 3a72 413f 0ab5 b23d
00000160: fcfd 5dbd e24b a4bd 866b 1e3f ec20 06be
00000170: 4135 febe 1b6c ccbf c926 3ebe 6091 55bf
00000180: 3317 f6be b81f febd ee86 df3e 7097 e3be
00000190: 25ee 203f c452 33be a813 9bbe 569c 103e
000001a0: c99d 6e3d ee30 d1bd 1f2c b23d f1ea 0bbf
000001b0: 14db ce3d 3cbf 143e 0aa5 db3e cc12 633e
000001c0: d3cd 32be 05ec 0a3e 9d0e ca3f 0440 1dbf
000001d0: c394 c1be 95fd a43e c966 93be 5a25 d83f
000001e0: d873 143f 525d f13d eb75 b0bd 26b0 61bf
000001f0: a097 963c 2e29 e73f 49ba 7fbe 8a46 0ebe
0.35233086 -0.042125978 0.34500957 -0.20617178 0.2623818 -0.0302647 -0.21508996 -0.3827189
0.29602975 -0.19649401 -1.1343385 -0.29288578 -0.08491746 0.13743581 0.44467106 -0.37324968
2.1639414 0.116625495 0.34571975 0.14358275 0.9753476 0.28189525 0.2084986 -0.5233361
0.39717907 1.0889418 0.32624593 -0.09555213 -0.06897128 0.27998567 0.567144 0.56911844
0.36887363 -0.2986246 0.6227979 0.3463976 0.1540421 -0.123807 -0.12714891 1.0337923
0.07242153 0.2801556 0.23454277 1.5014273 0.057123978 0.7238289 -0.07372982 0.33670634
1.0987018 -0.16630127 0.5526636 0.63017756 -0.3403036 0.08629121 0.56432885 -0.46845213
0.68250006 0.44561872 0.262225 0.63549775 -0.11373091 0.34562597 0.9120579 1.0846773
0.9007638 0.38419697 -0.49319535 0.7314405 0.23654707 0.32805657 0.46947974 -0.14099912
0.15263103 0.46453193 0.5601338 1.4985445 0.5073415 -0.8529891 -0.16399746 0.8787552
-0.24420613 0.023455504 1.4543896 -0.09263138 0.5487374 0.44504067 0.7556492 0.08725937
-0.054197297 -0.08022286 0.6188282 -0.13098496 -0.49650005 -1.5970491 -0.18569483 -0.8342495
-0.48064575 -0.124083936 0.4365763 -0.44451475 0.6286338 -0.17512041 -0.30288434 0.14122137
0.058255944 -0.10214411 0.08699822 -0.5465537 0.101003796 0.14526075 0.42899352 0.22175139
-0.17461328 0.13566597 1.578571 -0.61425805 -0.3780881 0.32224718 -0.28789356 1.6886399
0.57989264 0.117853776 -0.08616241 -0.88159406 0.018382847 1.8059442 -0.24973406 -0.13894096

actor.0.weight f4 [256, 48]
00000000: 9701 3c3e 4ecd eb3d 65cf 04be c8a4 873d
00000010: 614e 523e 5e11 e3bd 5249 083e e1d5 84bc
00000020: 72ff 893c 697f c73e cb18 193d 7f94 0dbe
00000030: cfa3 7e3e 467e 2b3e 48c5 aabd 8bc6 02bd
00000040: 7af6 c43d afd4 afbd 7c19 823e 3afa 64bd
00000050: d4ec 84bd ff73 443e adbf 693e 4a05 e6bd
00000060: fdc3 4f3e 947e e13c 2d05 f9bd f4a5 3bbd
00000070: 1412 2e3e cdd2 debc 2300 f2bd f91a 06be
00000080: 524d 2a3c 4873 9d3e 9681 cfbd bfa8 bfbd
00000090: e021 743e cc44 df3d 9f24 ebbd 5ee8 fbbd
000000a0: b32f 7d3e b50c f9bd 124c aa3c ed3b eebd
000000b0: 6d12 91be 2797 243e b69a 2ebe 9779 853c
000000c0: 4e51 7a3e e89d 9f3e e5e4 303e 369a 38be
000000d0: a323 10bd 37de 5e3d f4d2 91bd 3fc9 38bd
000000e0: a56c 02be 4dce e93c a4cb 8a3c 4198 043b
000000f0: b148 403e e43c a73e 38cf 873e f48c 253d
00000100: 4eab 69be 4243 34be 34c1 67bb 9644 2a3d
00000110: b815 14be efdb 52bd 5766 0ebe b290 8e3d
00000120: 2f9a 953e 32f1 933e 37e5 a43e b398 fc3d
00000130: afea 22be 9afa d2bd a9c2 3abd 0c88 493d
00000140: d7c8 80be 56c1 ad3d a145 50be aa2e cc3a
00000150: 2ed3 d13e 80e2 8f3e dd8e 923e becb 3dbd
00000160: 4f0b 9bbe 9de5 f0bc d95a f7bb fc46 fa3c
00000170: 1980 b3be 0d34 263e d527 3cbe 4a50 7f3e
00000180: ee36 d7be bfd5 d13c 6a3d afbd a24b 39ba
00000190: 328f b63d 535d ea3d b972 60bd 5987 273d
000001a0: b67f 543d 444b 8fbe 63e2 873c 3eab 36be
000001b0: 3649 f3be f906 84bd 0130 fe3a a582 5cbe
000001c0: b28d 743d 6625 983d 8f46 0b3d 944c ddbd
000001d0: 3c2f d13d 99e3 34be ea07 033e 96d9 53bd
000001e0: 0319 9ebe bb70 eabd d5dd 103d c3d6 babd
000001f0: bfd0 8e3d b696 a7bc 3f19 f5ba cfae acbd
00000200: e754 5c3e db85 cdbe 13e9 84bd 2965 18be
00000210: d8ed acbe 52d5 483d 677a f6bd ca68 c73d
00000220: 2869 ffbb b6d7 5fbd 4747 1a3e 97bd 23bd
00000230: d5da 8a3d acfe 90be d558 043e a060 5abe
00000240: 081b 65be 1721 f4bc d03d b13d fb72 4ebd
00000250: 1080 9f3c 56d1 a2bd 9f58 62bd e7ab 4ebd
00000260: 2e35 3a3e af72 b1bd 557b cbbd ee41 863e
00000270: cbaa 4ebe 3e78 973d b590 633d aa4d 39be
00000280: dad0 8fbd 8704 153e 31d3 4ebd 7734 fbbd
00000290: 61ce c5bc f346 83bd ce61 b43d 4580 cf3e
000002a0: db07 0cbe 5d8e 8c3c 4b93 033e d300 113d
000002b0: 1db6 03be 15ee b23d ff85 bbbc 9594 8d3d
000002c0: 5a4f 283e ae60 033e 07c2 0a3e b40b d13e
000002d0: 6a13 dfbd 9966 e53d 18f1 5fbd 22d1 40bd
000002e0: fc11 debd 52be 87bb be7f 483e 5747 933d
000002f0: 85eb 0e3e 2e3a 123e 3412 873d f07a 073f
00000300: a69b 6e3d c6c0 c6bd 632f b53d 5094 f03d
00000310: f8cf ffbd 4cd5 993d c74e 023d 6f31 63bd
00000320: 2332 673d c178 e3bd 6e3a 8bbc 2070 d2bc
00000330: 2193 e53d 227d 16be 6869 36bc 14d9 0b3e
00000340: 9840 9a3d 4794 c0bd 24e0 c23c 05a0 963d
00000350: d498 a4bc cb6d 95bd 6dfd 353c bea9 ed3c
00000360: a08f 5abd 16f7 6f3c 5f8b 29bd 7308 4cbc
00000370: 4225 16be f01e 15be 2917 a33c 8243 183d
00000380: 94b9 abbd 3a7e 1bbe 8a46 e63c 5b04 75bc
00000390: e0b5 cbbb 6ebc f23d 3da3 033e 7494 813d
000003a0: 9394 9ebc 611a 003d 534b 283d 8ad5 05be
000003b0: bfa1 c73d a217 5fbc b906 be3d 33bf d93d
000003c0: 4f0d 243d 79b1 0c3e b2b1 4b3e e527 cf3d
000003d0: 1016 143c 5dbc 603c dc0b b43d 1d25 6bbe
000003e0: a189 9f3e d828 6a3e 8c7e af3d b439 773d
000003f0: dde0 4f3d dcf7 2d3d d310 963e 6de7 d5bd
0.18359981 0.11513768 -0.1296974 0.066232264 0.20537712 -0.11087297 0.1330922 -0.016215267
0.016845439 0.38964394 0.03737716 -0.13826178 0.24867176 0.16747388 -0.0833841 -0.031927627
0.09617324 -0.08585488 0.25410068 -0.055902697 -0.06490484 0.19184874 0.22827025 -0.112314776
0.20289607 0.027526177 -0.1215919 -0.045812562 0.16999084 -0.027200127 -0.11816432 -0.13096227
0.010394411 0.30752015 -0.101321384 -0.09358358 0.23841047 0.10901794 -0.11481594 -0.1230018
0.24725227 -0.12160627 0.020788226 -0.11632524 -0.2833437 0.16073285 -0.17051205 0.01629333
0.24445078 0.3117516 0.17274816 -0.18027577 -0.035190236 0.05441114 -0.07120314 -0.0451138
-0.12736757 0.028540755 0.016942807 0.0020232352 0.1877773 0.32663643 0.26525283 0.040417627
-0.22819254 -0.17603782 -0.003536296 0.041569315 -0.1446141 -0.051479276 -0.13906227 0.06961192
0.29219195 0.28894955 0.32206127 0.123338126 -0.15909837 -0.10301705 -0.0455958 0.04920201
-0.2515323 0.084841415 -0.20339061 0.0015577872 0.4098143 0.28102493 0.2862462 -0.04633688
-0.30282065 -0.029406363 -0.0075486717 0.030551426 -0.35058668 0.16230793 -0.1837457 0.24932972
-0.42034096 0.025614617 -0.08556636 -0.000706846 0.08914031 0.114435814 -0.054796908 0.040900562
0.051879607 -0.2798711 0.016587442 -0.17838761 -0.47516793 -0.064466424 0.0019392968 -0.21534212
0.059705444 0.07429008 0.034002837 -0.10805622 0.10214087 -0.17664947 0.12795988 -0.051721178
-0.30878457 -0.11447283 0.035367806 -0.09122994 0.06973409 -0.020457607 -0.001869954 -0.084317796
0.21516763 -0.40141186 -0.06489768 -0.1488234 -0.3377521 0.049031563 -0.12035065 0.09736784
-0.007794518 -0.054649077 0.15066253 -0.03997573 0.0678002 -0.283193 0.12924512 -0.21325922
-0.22373593 -0.029800935 0.08654368 -0.050402623 0.019470245 -0.07950084 -0.055260297 -0.050456908
0.18184349 -0.08664452 -0.09935633 0.26222175 -0.2018234 0.07395981 0.055557925 -0.18096033
-0.07022257 0.14552508 -0.050494377 -0.12265866 -0.02414626 -0.06410017 0.08807717 0.4052755
-0.13674872 0.017157728 0.12849157 0.035401177 -0.1286244 0.08736817 -0.022891043 0.069131054
0.1643652 0.12829849 0.13550578 0.4082924 -0.10892375 0.112012096 -0.054673284 -0.047074445
-0.10843274 -0.004142561 0.1957998 0.07191341 0.13957031 0.14280006 0.06595269 0.5292196
0.058253907 -0.09704737 0.08846929 0.11747038 -0.12490839 0.07511386 0.03181341 -0.055467065
0.0564443 -0.11107016 -0.016995635 -0.025688231 0.11209703 -0.14696172 -0.011133529 0.13657027
0.075318515 -0.09403282 0.02378852 0.0735474 -0.020092405 -0.07296332 0.011107785 0.029011603
-0.053359628 0.014646312 -0.04139268 -0.012453186 -0.1466265 -0.14562583 0.019908505 0.037173755
-0.083850056 -0.1518487 0.028109808 -0.014954652 -0.0062167495 0.11852346 0.12855239 0.06327143
-0.019357955 0.031275157 0.04108746 -0.1306974 0.097476475 -0.013616474 0.09278626 0.106321715
0.040051755 0.13739575 0.19892004 0.10115031 0.009038463 0.013716784 0.087913245 -0.22963376
0.3115969 0.22867143 0.08569059 0.060357764 0.050751556 0.042472705 0.2930971 -0.104445316

actor.0.bias f4 [256]
00000000: b65d 26be c825 d83d 1ffd 8abd 97d1 29bd
00000010: 9195 c6bd 7a58 463c 8bdb b5bc ffe1 663d
00000020: 0cbe b6bd c10d 45be 2c5e af3d f801 8b3d
00000030: b604 6c3e 862e 1d3e 426b 6dbd c718 b3bd
00000040: bd9b 65be 34d1 86bd 55ce a03c b346 bbbd
00000050: 1608 27be 006f 333c 2f59 8fbd 6be4 34be
00000060: f4b1 4abe 2b12 6d3d 629f fabd cab9 b73d
00000070: fe43 3abd 2695 97be 020a 38bd 667f cd3d
00000080: 7b85 40bd 0256 b43d ffcc cd3c 6c73 043e
00000090: 73dd b8be 5199 3b3c a8fd 4d3e 1df3 963d
000000a0: 8e5e f6bd 02fb 8c3d 1906 35bd 82f3 cebd
000000b0: 05ba a33d d22b 533e a165 283e 03d9 babc
000000c0: 8a7b 043e f32c a33d 704c d13d 3236 c2bd
000000d0: 9eeb abbd d8d8 fe3d be17 0f3d bc57 91bd
000000e0: e0f3 12be 3835 79bd ee35 e43d e2c3 11be
000000f0: 63d0 593e 1be8 88bc ba58 4cbd fc0a 873c
00000100: 1541 153e 91d0 a5be e0ea b53d d5a1 e2bd
00000110: 1d61 933c a951 2c3d 32e0 00be 293c a2bd
00000120: 6c0c 6cbe a122 b33d 9de8 773d b1be c33d
00000130: 7b28 093e 5280 913d 6b00 113e bc09 e33d
00000140: 8c16 d73c 3141 bf3c aac8 093e bb03 bdbd
00000150: ca9f 1f3d 6457 8b3d fe01 49bd 3dad e9bd
00000160: 62c0 67be 8567 acbd c813 163d f12e 79bd
00000170: 3e8a cabd 0c3f acbc b821 7ebd 2ac5 10be
00000180: 38f5 053e 6ec6 1d3e 1bba c33d 2d82 3bbe
00000190: 78f9 ea3d 5028 bb3d a219 c0bd 2c74 90bd
000001a0: 8c29 a63d a0f2 febc 43dd cd3d 000b 71bd
000001b0: da4d 2e3e 8636 64bc cd74 03be 3302 363d
000001c0: 4164 503e 9145 c4bc aa4c 98bd 504a cebb
000001d0: 87cf 32be 4d80 4dbd fbe4 123e 45d1 36be
000001e0: f3b4 383c 2993 b3bc 9d11 ca3d 7db7 22be
000001f0: 29a5 1ebd 3d68 c23d e3e5 24be e9c3 21be
00000200: 8aa3 0bbe 744f 3abe 4ab2 cf3d 1207 1b3e
00000210: e19c a4bd 6b32 993d 0825 023d 50dc 3e3d
00000220: 4035 bfba 95fe 953e 8acf 4d3c a3a1 fe3d
00000230: 4816 e4bc 445f 73bd fbb7 a23d 7f36 143e
00000240: cd6b ee3b 3491 9f3d afa1 333e 3b03 2a3e
00000250: 26f4 7e3d 1957 93bd 3b91 a53d ee6c 633e
00000260: c8d4 d0bd c87b 0c3e c73e 1dbe f862 973c
00000270: 972b 14be 0239 3cbd 3bf4 853e 1b3c bbbd
00000280: fdb3 913e c8c8 b73b 806c 5a3d 2b3e 653e
00000290: c8de 89bd 9929 323d 61a1 fabd 3da3 84bd
000002a0: 4c9f a63d 2277 48bd 1ff5 6abe a20d 33bd
000002b0: eca6 273c 2afa cd3d 474e bcbd 825b aebc
000002c0: 0ca1 8a3e 4487 7f3e 36cf 6abe 51eb 20be
000002d0: 8ce9 3dbc 5d0e 33bd c68b 90bc 9d2b e8bd
000002e0: 9820 513d 8a7c 6dbd 7d88 d2bd e2a8 4d3e
000002f0: ba56 f73d aaa6 85bd ee6b e23d 91eb c5bd
00000300: 2b69 14bd 8b25 c93d 5ac9 16be b05e 013e
00000310: d5c7 bfbb 154c 69ba ef94 733e 0ff1 833d
00000320: 0022 43be 878a 773e ad5e 793a fca8 0d3e
00000330: 9c38 a4bc 928e 8c3e 804b 45be b7fb 593d
00000340: 8365 b53d ff2c 89bd f38f 22bc e11a cfbd
00000350: 3fa0 2dbe 5f9d 373e 478f 5cbd ebe6 65bd
00000360: 5c9a 18be 044a 48bd 39ac 57be b7fe 8abd
00000370: 5bc0 3dbd b23e 123e f889 813d 5282 9d3d
00000380: 24ed 06bd 7aa4 6b3c 4750 6a3b 0c6d 983d
00000390: 2779 5fbe 9afa e6bd b50c 823d 485c 56be
000003a0: af18 34be c464 bf3c 39d9 a5bd 05d4 1ebe
000003b0: 63cc 16bd 885c 20be 47a1 bb3d 2a5f 82bd
000003c0: 3759 083d ab07 f93c fb9a cb3d 4a65 f23d
000003d0: 51e7 2d3d facc 293c 46aa ac3d bfb1 883d
000003e0: 271f 703e d1ac 38bc bfa5 75bb 4636 6c3d
000003f0: a2d2 ddbd 3045 753c fe26 5f3d f982 d23d
-0.16246685 0.10554081 -0.0678656 -0.041459646 -0.09696496 0.012106055 -0.022199413 0.05636787
-0.08922967 -0.19243528 0.08562884 0.06787485 0.23048672 0.15349779 -0.057963617 -0.0874496
-0.2242269 -0.06582871 0.019629637 -0.09144344 -0.16311678 0.010951757 -0.06999432 -0.1766526
-0.19794446 0.057878654 -0.12237431 0.08970983 -0.045475 -0.2960598 -0.04493142 0.10034065
-0.047002297 0.08805467 0.025122164 0.12934655 -0.36106452 0.011450128 0.20116293 0.07370589
-0.120297536 0.068838134 -0.04419527 -0.10105039 0.07994465 0.20622185 0.16445018 -0.022808557
0.12937751 0.07967558 0.102196574 -0.09482993 -0.0839455 0.124437034 0.03493475 -0.07096812
-0.14350843 -0.06084177 0.11143099 -0.1423488 0.212709 -0.016712239 -0.049889304 0.01648473
0.14575608 -0.32385686 0.088826895 -0.11066023 0.017990643 0.042070065 -0.12585524 -0.07921631
-0.23051614 0.08746839 0.06052457 0.09557856 0.13394348 0.07104553 0.14160316 0.11085841
0.026255868 0.023346515 0.13455454 -0.09229227 0.038970746 0.06803778 -0.049074166 -0.11409996
-0.22631982 -0.08418182 0.03663996 -0.060835782 -0.09889649 -0.021026157 -0.062043875 -0.14137712
0.13081825 0.15407726 0.09556981 -0.18311377 0.11473364 0.091385484 -0.09379889 -0.07053408
0.08113393 -0.031121552 0.10051968 -0.05884838 0.17021886 -0.013929015 -0.12837525 0.04443569
0.20350744 -0.023958953 -0.074364975 -0.00629548 -0.17461978 -0.050171185 0.14345162 -0.17853267
0.01127361 -0.021920757 0.09866641 -0.15890308 -0.038731728 0.09492538 -0.1610332 -0.1579739
-0.13636604 -0.18194371 0.10141428 0.15139416 -0.08037735 0.074803196 0.031773597 0.046596825
-0.0014588013 0.29295793 0.012561688 0.124331735 -0.027842656 -0.059417024 0.07945248 0.14473914
0.0072760344 0.07791367 0.17542146 0.16602795 0.062244557 -0.07194347 0.08084341 0.22209522
-0.10196835 0.13719094 -0.15355979 0.01847981 -0.14469753 -0.045952804 0.26162896 -0.091423236
0.28457633 0.005608652 0.05332613 0.22386996 -0.06731945 0.043496702 -0.12237812 -0.06476448
0.08135852 -0.04894174 -0.22945069 -0.043714173 0.010232668 0.10057481 -0.09194618 -0.021283869
0.27075994 0.24953943 -0.22930607 -0.15714766 -0.011591326 -0.04371487 -0.017644774 -0.113364436
0.051056474 -0.057980098 -0.10279939 0.20083955 0.12077089 -0.06525929 0.11055742 -0.09664071
-0.03623311 0.09821614 -0.14725247 0.12633777 -0.0058526793 -0.0008899582 0.23787282 0.06442463
-0.19055939 0.24173938 0.0009512704 0.13833994 -0.020046525 0.27452523 -0.19267082 0.05321857
0.088572524 -0.066980354 -0.0099220155 -0.101125486 -0.1695566 0.17931126 -0.053847577 -0.056128424
-0.14902633 -0.04889871 -0.21061791 -0.06786864 -0.046326023 0.14281729 0.063251436 0.07690872
-0.032941 0.014382476 0.0035753415 0.07442674 -0.2182356 -0.11278267 0.0635008 -0.2093364
-0.17587541 0.023363478 -0.080980726 -0.15510567 -0.036816012 -0.15660298 0.091616206 -0.06365807
0.033288207 0.030399164 0.099416696 0.118357256 0.04245693 0.010363812 0.084309146 0.066745274
0.23449384 -0.011271671 -0.0037482826 0.057668947 -0.10831191 0.014970109 0.054480545 0.10278887

actor.2.weight f4 [128, 256]
00000000: 55ca 00bd 26d1 3fbe 81dd febd 1c5f 0cbe
00000010: 0033 94b9 96e9 1abd b042 9c3e 3e70 e03d
00000020: dfa8 a93d 6d92 0cbd 1982 3abd 1bb0 0b3d
00000030: 098e e1bd 05ad a93e 6369 b1bd 9034 dbbd
00000040: 470d 5ebd ffe9 89bd 1c5f e2be 267c 2bbe
00000050: c36c 9e3c 6db3 60bd 3ff6 3dbd bc4f 7f3e
00000060: e958 413e e678 373e c557 c8bd 3f99 1e3d
00000070: db93 233e b3ff 743c 3449 b43d 18d8 00be
00000080: 10c3 86be e480 1fbe 6370 8e3c 9900 563e
00000090: 6681 d03d 061f c0be a58e 83be 297c afbc
000000a0: 248c 883d de1d 3abd b757 783e 460e 09be
000000b0: acaa 913d 665d 03be 4e19 ba3d 50b8 903d
000000c0: e9f9 013f a8ca 4e3d 9844 54be a026 123d
000000d0: 0f60 823c 8580 88be 13eb ffbd d560 85bd
000000e0: d05c e13d f687 4a3e 7c68 233e e1cd 53bd
000000f0: 10cd 89bd 7dce ac3c b626 3e3e 1f60 803c
00000100: 4ad2 043d 04f3 353e 5c2f 5d3e 5fcc b8bd
00000110: 0a25 b73e 3089 c73d f542 1f3d 2c38 833d
00000120: c225 da3d 2a2f 12be 6858 babd 98ca ad3d
00000130: ab71 e93b 0fbd 033f 75f4 073e 319f e53d
00000140: f27c 573d 9197 c13d 48c7 45bd 07c9 d8bd
00000150: 1409 813e 9ac5 5c3e 701e 5e3e 2daa 84be
00000160: 5f0a d7bd 90a4 b6bc 2c65 71bd e6f5 08bc
00000170: 4f43 ad3e b432 51be 3143 cc3d 8897 793e
00000180: 1d4f a8bd bbed d7be 4d81 5b3d ab9c 62bd
00000190: c735 5bbd 3be2 9ebe 3742 b53d cbb0 2abe
000001a0: 128e d03d 6207 843d e398 4a3d b504 e4bd
000001b0: c639 f9bc c28d a2bd 6df1 233e 644e 543e
000001c0: e63d 013e 8f68 a13c ea91 b1bd 3aa6 59bc
000001d0: 5209 043d 7311 cb3d a671 203e 7200 a4bd
000001e0: 03f8 f23d e202 853e 15d6 413e 229e 1e3e
000001f0: 27e2 b4bd 8f74 fd3b 4a8e 883e 76dc a43d
00000200: 31b9 123d 7277 05be 1a01 af3d 34f3 17be
00000210: cfdf e0bd da8e b8bd 50f2 6abf bf67 26be
00000220: 3b6f 043f 502d cb3d fc0a c83d 543b 0c3e
00000230: 7859 5dbe 5d18 b7bd c570 1e3e 4588 8e3d
00000240: a063 ee3c 722f a03e f1da e9bd ef95 b7bd
00000250: 8953 04bd 28a4 50be 2ac8 233e 711a d7bd
00000260: ea3d 843d 5e4d 113e 872a 8e3e 2c27 a9bd
00000270: 2c7c 943e accb f5bd 815e 293e 53c7 cb3d
00000280: 07b6 a43c bdbc 8b3d 4303 cbbd 2f1d f93d
00000290: 59e3 423e cde6 95ba 8d08 473e 3547 8f3e
000002a0: bfc0 973d 2233 e7bd fc4d f23b fde6 9b3d
000002b0: fe14 9cbe 6910 0c3e 137a bcbe e20d 2b3e
000002c0: acbe b83d 3e25 f6bc ecd2 3fbc 10f9 d63d
000002d0: 7fcd 6f3d f458 2dbd ada5 c33d e2a5 0d3e
000002e0: 1f69 7cbc 42da 753d 1573 56bd c519 1f3d
000002f0: a7bd 8c3e 1f43 883e b216 483e 38af 493e
00000300: 0fd6 96bc 106c 54bd fd77 a43e a0df bbbd
00000310: dd90 80be 82e2 aabe 5db7 a8be 05b9 78be
00000320: 7145 b4bd 181b 23bf 81bb b03d 883a 823d
00000330: 62e1 1fbd 8f72 f9bd b448 74be 04f7 43be
00000340: db9a 6f3d 8c87 49be cf29 26be e47e 31be
00000350: b22f 243e 13eb 67be a354 d53c ef3d 9b3c
00000360: 6212 3cbc 42f4 403e d6ff 71bd 25bc a73e
00000370: 097d 16be 886e 003e 9f81 83bc bc72 8fbc
00000380: e128 f4be d899 83bd a77a 993d bbb9 2a3e
00000390: 813f f83d e2a0 063d 426c de3d b22b fb3d
000003a0: f4d2 b03e 3616 22bd 392c fc3c cdac 113e
000003b0: ac7b 34be 7406 cd3d 6a00 c23c 5f63 443d
000003c0: 2d5d df3d e862 b6be 7d64 9f3a 6b6e f7bc
000003d0: 748f 81bd 2899 fabd b4fc 5f3c d023 853d
000003e0: 9c5d fbbe 7e3d 893d 8122 41bd 9781 fcbd
000003f0: fecc c43d 9836 743d 3966 81bd 5985 4fbc
-0.03144296 -0.18732128 -0.12444592 -0.13708156 -0.00028266758 -0.03782042 0.3051963 0.109589085
0.08284163 -0.03431933 -0.045534227 0.034103494 -0.11013419 0.33139816 -0.08662679 -0.10703385
-0.05421188 -0.06734084 -0.44213188 -0.16746578 0.019338971 -0.054858614 -0.046377417 0.2493276
0.18881573 0.17917213 -0.09782366 0.038720366 0.15974371 0.014953542 0.08803025 -0.12582433
-0.26320696 -0.15576512 0.017387575 0.20898665 0.10180931 -0.3752367 -0.25694767 -0.021421509
0.06667355 -0.04543864 0.2425221 -0.13384351 0.07112631 -0.12828597 0.09086858 0.07066405
0.5077196 0.050486237 -0.20729291 0.035681367 0.015914945 -0.26660553 -0.12496009 -0.0651261
0.11004031 0.19778427 0.15957826 -0.051710013 -0.06728566 0.021094555 0.18569455 0.015670834
0.03242711 0.17768484 0.21600097 -0.09023356 0.35770446 0.09742963 0.038882215 0.06407198
0.10651733 -0.14275804 -0.090988934 0.08485907 0.007124146 0.51460356 0.13276847 0.11212004
0.05260939 0.09452737 -0.048285753 -0.10585218 0.2520224 0.21559754 0.21691298 -0.25911084
-0.10500025 -0.022295266 -0.058934376 -0.008359408 0.33840415 -0.20429498 0.09973753 0.24374211
-0.08218215 -0.4217356 0.053590108 -0.05532519 -0.053518083 -0.31031975 0.0885052 -0.16669004
0.10183348 0.06446721 0.04946221 -0.1113371 -0.030423056 -0.079371944 0.16010065 0.20733029
0.12621269 0.019703178 -0.08670409 -0.01328426 0.03223545 0.099154375 0.15668353 -0.080078974
0.11863711 0.25978762 0.18929322 0.1549001 -0.08832198 0.007734842 0.26671058 0.08049862
0.035821144 -0.13033846 0.08545132 -0.14838868 -0.10980188 -0.09011622 -0.9177599 -0.16250513
0.51732224 0.09920752 0.0976772 0.13694507 -0.21616161 -0.08940194 0.15472706 0.06959585
0.02910024 0.31286198 -0.11418713 -0.089641444 -0.032306228 -0.2037512 0.15994325 -0.1050309
0.06457122 0.1418967 0.2776682 -0.082594246 0.29000986 -0.12001738 0.16539957 0.099501275
0.020106329 0.06823108 -0.099127315 0.121637695 0.19032039 -0.0011436582 0.19436856 0.27984014
0.0740981 -0.1128905 0.0073945504 0.07612417 -0.30484766 0.13678135 -0.36811885 0.16704515
0.09020743 -0.030047055 -0.011708003 0.10496724 0.058545586 -0.04232116 0.095530845 0.1383281
-0.015405922 0.0600226 -0.052355845 0.038842935 0.27488443 0.2661371 0.19539908 0.19695747
-0.018412618 -0.05186087 0.32122794 -0.091735125 -0.25110522 -0.33375937 -0.32952395 -0.2428933
-0.088023074 -0.63713217 0.086295135 0.0635882 -0.0390333 -0.121800534 -0.23855859 -0.19137198
0.05849729 -0.19680613 -0.16226886 -0.17333561 0.1603382 -0.22648267 0.026041334 0.01895043
-0.011478992 0.18843177 -0.059081875 0.3276073 -0.14696135 0.12542164 -0.01605302 -0.017510764
-0.47687438 -0.06425828 0.07494097 0.16672413 0.121214874 0.032868274 0.10860492 0.122641936
0.34535944 -0.039571963 0.030782806 0.14226075 -0.17625302 0.100109965 0.023681838 0.04794633
0.10906444 -0.35622334 0.0012160685 -0.030204019 -0.0632619 -0.122362435 0.013671089 0.06500971
-0.49094856 0.06701182 -0.047152046 -0.12329405 0.09609412 0.059622377 -0.063183255 -0.01266607

actor.2.bias f4 [128]
00000000: 3c54 b03d aebe 06be e98e 0abd 11c2 5bbc
00000010: ba35 82bd 212c b5bd 7190 ccbd 0ebb 2ebe
00000020: 4896 a5bc 2518 f43d b235 7abc 924e 55bd
00000030: f326 973d 392c eabd 5900 0c3d 4953 353d
00000040: 0875 923d 095c 203e c4c1 013d 94a6 fd3d
00000050: 8137 6c3d 44dd a63d 0dfb 81bd cc01 22bd
00000060: 6d77 ebbc b15b efbd 9085 173d 8c54 2b3d
00000070: a9c6 28bd 3cfb 283b 704b c2bd facc aabd
00000080: 54cc 0cbd 2f8d abbc d050 86bd 4848 9cbd
00000090: bcfe 79bd 3534 04be 2338 2abd 5dcb bdbd
000000a0: 01a4 e43d bdce 0cbd 95bd 05be bd20 073c
000000b0: 03c3 323d 45a9 4cbb e029 013e c369 873d
000000c0: e488 89bd bce1 163e d2c6 17bd 775a b5bd
000000d0: 393a 99bd 5c8e 853d 2d02 52bd a9a6 23bd
000000e0: 7783 93bd 8da0 a53d 5651 93bc 02d3 323e
000000f0: 2e32 3abd d4b5 b93d b0f7 333d 84d7 0e3d
00000100: f62d 103d 4ebf 8c3d aa69 25be 4828 1b3c
00000110: 23a6 943d ea89 333d f58a 7b3d 20b2 8fbd
00000120: caed 6abb 32f2 0b3a aefb e43c 5727 163e
00000130: 85f7 83bb 6e53 37bd 6a5e 08bd 23cc 9e3d
00000140: a8b2 013e a20e b23d 0888 d6bd acea 7f3b
00000150: 1c04 dabd 4a39 9a3d fc06 c0bd 44b5 84bd
00000160: 9398 293e c343 4dbd 300b 91bd 63d5 23bb
00000170: f54b fc3d 2310 803d b895 0d3e b746 9f3d
00000180: d4cd 39bd 6934 a63c 886e fabc f91a f5bb
00000190: 4278 5e3e 8d24 4d3d 8d98 f73a 0361 1cbe
000001a0: e26a 933d f23f 1a3e 879f 293d 95e2 ffbc
000001b0: f8b6 003e 5156 59bc 891d 843d 9942 9abd
000001c0: 8739 34bd dc66 46bd e3ef 6b3c 68be 08bd
000001d0: c7d6 f33d 0418 043e 5c53 39be 3277 b6bd
000001e0: 039a e63d 3fb6 a23d 862c 8e3d 5707 583d
000001f0: 6fbc 0c3e 8e92 b8bd 0b02 283c 1ac1 753e
0.086098164 -0.13158676 -0.033827696 -0.013412968 -0.06357904 -0.088463075 -0.099884875 -0.17063543
-0.020213261 0.11918668 -0.015271591 -0.052076884 0.07380476 -0.11434216 0.03418002 0.04426888
0.07151228 0.15660109 0.03167893 0.12385288 0.05767012 0.08147672 -0.06346712 -0.039552495
-0.02874347 -0.116874106 0.03699261 0.041828677 -0.041205082 0.0025784513 -0.09487045 -0.083398774
-0.03437455 -0.020941345 -0.065583825 -0.07630974 -0.06103395 -0.1291054 -0.041557442 -0.09267304
0.11164094 -0.03437685 -0.13060601 0.0082475515 0.04364301 -0.0031228822 0.1261363 0.06611969
-0.06715563 0.14734548 -0.037054844 -0.088551454 -0.07481808 0.065212935 -0.051271606 -0.03995386
-0.07202809 0.08087263 -0.01798312 0.17463306 -0.04545801 0.09067884 0.043937385 0.0348735
0.03520008 0.06872426 -0.16153589 0.009470053 0.072582506 0.043832697 0.061411817 -0.070163965
-0.00358473 0.0005338519 0.027952041 0.14663444 -0.0040273094 -0.0447573 -0.033293165 0.0775378
0.12665808 0.08694197 -0.10475165 0.0039049787 -0.10645315 0.07530458 -0.09376332 -0.06479886
0.16562109 -0.05011345 -0.07082212 -0.0024999015 0.12319175 0.06253078 0.13826644 0.0777716
-0.04536231 0.020288663 -0.030570284 -0.007480022 0.21725562 0.050083686 0.0018890068 -0.15271382
0.07198121 0.15063456 0.041411903 -0.031235972 0.12569797 -0.013265208 0.06450946 -0.07532234
-0.044000175 -0.048437938 0.014400455 -0.03338471 0.119062 0.12899786 -0.18098205 -0.089094535
0.11259844 0.07944917 0.06942086 0.052741375 0.13743757 -0.09012328 0.010254393 0.23999444
