CRL/模型集_opponent/train_20260124-140944/evolution_v3.pth (torch, 370495 bytes, 11 tensors)

critic.0.weight f4 [256, 48]
000000 3a 53 4a be ff 66 46 bd 9c bb bf 3c 06 9c 0a 3c
       -0.19758311 -0.04843807 0.023404889 0.00846005
000010 8e 98 45 bd 23 d2 96 bd 54 09 ed 3c 47 76 c0 3c
       -0.04824119 -0.07364299 0.028935112 0.023493899
000020 f9 7f bb be b5 69 19 bd f9 a5 51 be af 1d b9 3d
       -0.36621073 -0.037454326 -0.2047347 0.09038865
000030 08 e8 5d be 29 68 49 bd 37 eb ae 3c 97 5c 6e bb
       -0.21670544 -0.0491716 0.021352394 -0.0036371106
000040 ec d6 e7 bd 7f db d5 bd d7 24 15 3d 49 c2 82 3c
       -0.1132029 -0.10442256 0.036412086 0.015961783
000050 2b e8 3d be 5d b4 e3 bc 1e ec 59 be c6 ab 05 be
       -0.18545596 -0.027795965 -0.21281478 -0.13053808
000060 3b 14 d9 ba e8 95 40 3c 36 4b f1 3c d1 81 0a 3d
       -0.0016561815 0.01175449 0.029454809 0.03381521
000070 0e 53 64 3d 6c 04 d0 bd 48 8a 39 3d c8 3c 9f 3a
       0.05574327 -0.101570934 0.04529789 0.0012148852
000080 cc 13 78 bd a8 be 65 3d c0 cd 14 be d6 f6 44 be
       -0.060565755 0.056090027 -0.14531612 -0.19234785
000090 2d 1c 13 be a4 67 9a 3d 8c 41 03 3d b3 eb 19 bd
       -0.14366217 0.07539299 0.032044932 -0.037578296
0000a0 05 d6 ff 3d 6e 97 20 be 89 d8 3f 3d df 71 73 bd
       0.12491993 -0.15682766 0.046837363 -0.059434768
0000b0 05 b2 59 bd d4 83 da 3d d6 ce 9d 3e 2d 74 99 bd
       -0.05314829 0.106696755 0.30821866 -0.07492862
0000c0 80 5e da 3d 03 f2 8d bd 5b c6 bf bd b0 83 ed 3c
       0.10662556 -0.06930926 -0.09364005 0.028993458
0000d0 44 f6 cb bc 0f 94 cd bd ca 24 1e 3d 57 ae 0c bd
       -0.024897702 -0.100380056 0.038609304 -0.03434595
0000e0 70 fe 77 bd 4b 04 80 be bc c9 33 bd 23 bd ba bd
       -0.060545385 -0.25003275 -0.04389356 -0.09118106
0000f0 eb 91 e2 3d f0 56 d6 bd 0a 94 c9 bd eb 02 f2 bc
       0.11062988 -0.10465801 -0.09842689 -0.029542407
000100 fb 35 03 3e c3 c3 f5 bd 55 be 38 3d c2 d6 24 3d
       0.1281356 -0.12000229 0.04510339 0.04024387
000110 e7 45 1c bd 28 df 1e bd d1 ce cd bd c4 e2 97 b9
       -0.0381526 -0.038787037 -0.10049213 -0.00028969918
000120 b0 f3 08 3e 1c e7 0a bd 10 12 ce bd 0f 42 48 bd
       0.1337421 -0.03391181 -0.10062039 -0.048891123
000130 a3 f5 d7 bd dc 91 04 be 7c b0 76 3d 9e 39 a8 3c
       -0.10544898 -0.12946266 0.060226902 0.020535287
000140 3d eb 2d 3e cb 0a 65 3d 00 cd 5a 3c 87 a7 e1 3c
       0.16984268 0.055918496 0.01335454 0.027545704
000150 69 12 05 3d a3 2c d7 3d c4 44 d6 bd 63 ec 00 3d
       0.03248826 0.10506561 -0.10462335 0.031475436
000160 56 b4 ee bd 9b c3 9b bd 7c 3c 9b 3d 11 f9 6b bd
       -0.1165549 -0.07605668 0.07579896 -0.057610575
000170 18 37 92 3d 63 f8 80 3e 4f cc d5 bd b0 e0 e0 3e
       0.071394145 0.25189504 -0.104393594 0.43921423
000180 4d a7 80 3e 92 02 9e 3d 0e d0 29 3c 1c 5c 05 bd
       0.2512764 0.07715334 0.0103645455 -0.032558545
000190 72 c0 10 bd 02 28 1c 3c 9c d6 a9 bd 0f cf 5a bd
       -0.03533978 0.009531023 -0.082928866 -0.053420123
0001a0 47 9b 49 bd 62 84 c3 be 25 50 a9 3e 4c eb 50 3e
       -0.04922035 -0.38186938 0.33068958 0.20402259
0001b0 61 64 17 3e 51 2c 36 3d fa ee 98 3c 08 51 ca bc
       0.14784385 0.044475857 0.01866864 -0.024696842
0001c0 ae d4 37 be 2e 4e 2a 3d 10 e2 64 bd 00 a2 87 3d
       -0.17952225 0.041578464 -0.055879653 0.06622696
0001d0 1e 33 4d 3e b4 62 31 be 03 85 02 3e b3 bd 8b 3c
       0.20039031 -0.17322809 0.12746052 0.01705823
0001e0 50 48 c3 3d 45 6b 43 3e 62 9f 14 3d 33 46 b2 bc
       0.09535277 0.19083889 0.03628481 -0.02176199
0001f0 97 b7 72 bc 8b 0e 2e bd 5f 60 4e bd a1 6f 57 bd
       -0.014814279 -0.042494338 -0.050384875 -0.052596692
000200 04 60 a5 3d c1 0f 10 bd 2e 00 c9 3b 43 33 4a bd
       0.08074954 -0.035171274 0.0061340546 -0.049365293
000210 5e 07 81 3e ee a9 b5 bd df 55 4c 3d a0 1e 87 bd
       0.25200933 -0.08870302 0.04988658 -0.06597638
000220 0b 87 0d be 07 19 f3 bd b1 a8 21 bd 78 21 86 be
       -0.13821046 -0.11870008 -0.039467517 -0.2619741
000230 d3 0a 61 3e 7c e7 65 3d 01 a9 c4 bd f3 43 7b 3d
       0.21976785 0.056128964 -0.096025474 0.0613441
000240 c4 3a 95 3e 8c 28 b5 be b2 25 6c 3c 3a bf f3 3c
       0.29146397 -0.35382497 0.014413284 0.02975427
000250 2d 1c b8 3c 92 23 09 3e 01 47 9a bb d4 71 0e 3c
       0.022474373 0.13392475 -0.0047081714 0.008694131
000260 b6 2f 91 bb b4 a6 2c bf 4d b1 11 be a3 6d 5e 3d
       -0.0044307364 -0.6744187 -0.14227791 0.054303776
000270 1f ac 20 3e af 71 b6 be aa cb a4 3c e2 e8 e1 3a
       0.15690659 -0.3563361 0.020116646 0.0017235542
000280 45 18 78 bd 87 3f 52 3e a7 a8 81 bc 97 c7 ac 3c
       -0.06057002 0.20532046 -0.01582749 0.021091266
000290 fc ab 58 3e 6a 82 21 bf 2f fc 67 bd b1 83 ae 3e
       0.21159357 -0.6308962 -0.056636985 0.34084848
0002a0 ba 43 c2 3d 54 f6 80 be ab 68 a8 3c 56 08 ad bd
       0.09485574 -0.25187933 0.020557722 -0.084488556
0002b0 4a 75 b1 3d c1 f8 50 3d fc bb aa bc 24 30 bf 3c
       0.08664949 0.05101848 -0.020841591 0.023338385
0002c0 89 6e f8 3c fe 86 d9 be b0 23 de bd f7 2e 8f 3e
       0.030326145 -0.42485803 -0.108466506 0.2796552
0002d0 9d 75 86 3e 29 75 39 be e9 7e 18 3c b0 5e 7a 3d
       0.26261607 -0.181111 0.0093076015 0.061125457
0002e0 40 ce 70 3d 04 bd 13 3e 2d 9b 9e bc fd aa 25 bc
       0.058790445 0.14427572 -0.019361103 -0.010111568
0002f0 65 62 9a 3e 07 9f 34 be 08 5e 98 3d c3 13 df 3d
       0.30153194 -0.17638789 0.0743981 0.10892441
000300 53 62 ba 3d 34 d3 bf 3b da c2 11 bc 3d 7f 70 3b
       0.09100785 0.005854035 -0.008896554 0.0036696934
000310 5d 6f ca 3e c8 6c 89 bc 6e 6c 87 3c 5f a1 8c 3b
       0.39538088 -0.016775504 0.016531195 0.004291698
000320 60 0a 39 3e 26 bf 57 be 4b a3 2c 3e 21 f3 d4 bd
       0.18070364 -0.21069011 0.16859166 -0.10397936
000330 7b 72 dd bd 2d c8 56 3b 05 9b 9b bb 78 54 23 3c
       -0.10812851 0.0032773123 -0.0047487044 0.009968869
000340 f2 4a c9 3e 13 7f c5 bc b1 46 e5 3c 3c f5 35 3a
       0.3931499 -0.024108445 0.02798781 0.0006941145
000350 ce 5a f5 3d 1d bf 53 bd ac d8 fe 3e bb 09 17 3d
       0.1198021 -0.05169593 0.49774683 0.036874514
000360 97 1f d9 bd 7e 59 f5 3c 84 af 1a bc be fd 05 3d
       -0.106017284 0.0299499 -0.00944126 0.03271269
000370 40 d0 94 3e bf ac c2 bc 51 fe 0a 3d 2d 05 db 3c
       0.29065132 -0.023764012 0.03393394 0.026735866
000380 6a e0 84 3e 12 84 a1 bd d2 dd 2a 3f 06 dd b5 3d
       0.25952464 -0.078865185 0.6674472 0.088800475
000390 a0 a8 01 3e b5 e2 06 bc f8 c9 d1 bb 53 06 2c 3c
       0.12661982 -0.008232762 -0.0064022504 0.010499555
0003a0 2f 34 87 3e 38 97 0c 3e f1 8c 13 3d a6 72 10 bd
       0.26407 0.1372956 0.036023084 -0.035265587
0003b0 36 7f 20 3e 36 70 34 be ce 55 5b 3f 84 7c c5 bd
       0.15673527 -0.1762093 0.856778 -0.0964289
0003c0 78 8e a4 bc e8 87 63 bc 5a 07 3c bd 0b b5 41 bd
       -0.020087466 -0.013887383 -0.04590545 -0.047291797
0003d0 96 54 61 3d 4c 72 a9 bd e3 a1 cd bb 37 47 34 bc
       0.055012308 -0.082737535 -0.006275402 -0.011003307
0003e0 c4 ea 46 3d 36 92 15 3e 9b 2c b2 3d b9 64 39 bd
       0.048563734 0.14606556 0.08699914 -0.045262072
0003f0 d4 4c ac bd f3 ae 91 38 98 9e 5b bd f4 56 de bc
       -0.08413091 6.9467256e-05 -0.053618044 -0.027141072

critic.0.bias f4 [256]
000000 7e a7 4e 3e c5 25 c0 3e b2 f1 17 3b 43 77 3c 3d
       0.2018108 0.37528816 0.0023184833 0.046012174
000010 65 d6 5a bd b8 f5 5a be c1 8a 86 3d 4d 6e 46 bd
       -0.05342712 -0.21382797 0.06569434 -0.048445035
000020 5e 6b 85 bc 4b d6 21 be aa 2c 24 3e 6b af a0 3e
       -0.016286548 -0.15804403 0.16032663 0.31383833
000030 4d 81 1f 3f f7 ae 29 3f 30 8c 01 3e 71 0b 7f be
       0.6230667 0.662826 0.12651134 -0.24906708
000040 b7 39 27 be 16 8a f2 3e df 79 c1 bc 68 b7 91 3b
       -0.1633061 0.47370976 -0.023617683 0.0044469126
000050 b9 7d e4 be 5f dc 50 be c7 a9 01 be 2b b4 2a 3e
       -0.4462717 -0.20396565 -0.12662421 0.16670291
000060 0b a5 bb 3d 59 56 c9 3e 9e f2 be bd 90 7d 81 3e
       0.09162339 0.3932369 -0.09323619 0.2529111
000070 bd ab c3 3b 0a 0a a0 bd 68 b9 8d 3e 97 41 ad bd
       0.0059714005 -0.07814415 0.27680516 -0.08459776
000080 d1 ef 90 be 43 59 a7 3e a4 7b be 3c 5d c9 42 bf
       -0.28307965 0.3268529 0.023252316 -0.76088506
000090 ae 6b 7b 3e 5b 4f b3 3e 89 61 04 3f cd 1d e1 be
       0.24552795 0.3502148 0.51711327 -0.4396805
0000a0 e2 d6 a8 3e 4a 25 2d be c2 4e 0e be c6 0d 0c 3f
       0.32976443 -0.16908756 -0.13897231 0.54708517
0000b0 a4 e1 47 be 46 3d 70 3e 67 8e bb 3e fd 9e 78 be
       -0.19519669 0.23460874 0.36632082 -0.24279399
0000c0 dd d2 10 bd d9 41 4a 3e b5 4b 07 bf d2 0d 01 3d
       -0.035357345 0.19751681 -0.52849895 0.03150732
0000d0 57 c0 0d bf 51 40 1f bf d9 bd e1 3e 18 fa 79 be
       -0.5537161 -0.62207514 0.44090155 -0.2441181
0000e0 48 df 81 3d 64 77 fe be b9 09 49 bf d8 d4 51 bd
       0.06341416 -0.49700463 -0.7853046 -0.051228374
0000f0 82 58 81 be a8 7a d3 3d 1d 35 3e be cf 77 28 bf
       -0.2526284 0.10326129 -0.18574949 -0.65807813
000100 fd 8d d2 bc 07 e2 a6 be 56 f8 10 be bf 5b a5 be
       -0.02570247 -0.3259432 -0.14157233 -0.3229656
000110 e9 cd cb 3e 94 74 48 3e 56 66 06 3e 73 6a 4b 3d
       0.39805534 0.19575721 0.13124976 0.049662065
000120 48 76 b3 3d 04 2b 24 be ca 25 8c bd 49 c6 28 3e
       0.08762795 -0.16032034 -0.06843145 0.1648189
000130 69 72 5c bf 14 bc 8e 3e 31 61 71 be a3 1a ce be
       -0.86112076 0.27877867 -0.23572232 -0.40254697
000140 fd 40 d5 be 6a 8c 20 be 95 ae 7d 3d 69 6c 8d be
       -0.41651145 -0.15678564 0.061934073 -0.27621773
000150 85 8a 13 3e 7b 28 a5 be d3 aa 17 be f4 ca 13 be
       0.1440831 -0.32257447 -0.14811258 -0.14432889
000160 82 d7 62 be 39 a2 11 3e 54 91 b9 3e f6 19 c0 3e
       -0.22152522 0.1422204 0.3624369 0.37519807
000170 83 b8 71 bd 86 8f c8 3d eb df b2 be 3b eb 02 be
       -0.059013855 0.09793 -0.3493646 -0.12785046
000180 4e 6e c3 bd 12 e3 58 3d 59 ff 57 3e 6d 06 81 3e
       -0.09542523 0.052950926 0.21093501 0.25200215
000190 02 49 2c 3e bd 04 67 be 0a 92 3e 3e 57 01 15 be
       0.16824725 -0.22560401 0.18610397 -0.14551292
0001a0 ca c9 30 bd 7b 11 70 be 0e 66 bf 3d e0 6e ef 3d
       -0.04316119 -0.23444168 0.09345637 0.116910696
0001b0 0a da 73 bd 1d 58 a9 bd 1b d3 f9 be f6 90 9b be
       -0.05953411 -0.082687594 -0.48793873 -0.30384034
0001c0 8e 1b 9c bd 3d 81 97 be e5 96 32 bd a7 cb 20 3e
       -0.07622443 -0.29590788 -0.043600935 0.15702687
0001d0 64 87 96 be 5c 4c c8 be 5c 57 16 3d ee 1d 2b 3c
       -0.2940017 -0.39120758 0.036704406 0.0104441475
0001e0 f7 6e 50 3e ba 57 5d 3c e9 eb e5 3d 81 7a 0a 3e
       0.2035483 0.013509685 0.11226637 0.13523294
0001f0 b8 d4 35 3e e1 b3 36 bd 3a 63 94 be a1 34 34 be
       0.17756927 -0.04460514 -0.28981954 -0.17598201
000200 b1 12 6f 3e 43 90 83 3e 2b 8b fc bd 61 7b aa 3e
       0.23346974 0.25696 -0.12331232 0.33297256
000210 a6 6c 95 bd 9e 64 a9 3c d6 59 54 3d cd a9 98 bc
       -0.07296114 0.02067786 0.051843487 -0.018635655
000220 40 ef 5f 3d 2b a4 8b bd d3 b6 2c 3f 21 97 c5 be
       0.054671526 -0.06818422 0.6746647 -0.38591865
000230 7a 9f 23 be 22 b9 96 bf 99 a3 72 bd ce 9e ff 3d
       -0.15978804 -1.1775248 -0.05923805 0.124814615
000240 f8 f8 5c 3e 26 86 f2 3e 6b 2f 8e be 68 04 07 bd
       0.21579349 0.47367972 -0.27770552 -0.032963187
000250 87 13 18 3f cb 5c 96 be 67 ab 56 be 34 1b 3b 3d
       0.59404796 -0.2936767 -0.20963822 0.04568024
000260 77 e7 7f 3d 1a 01 6e 3e 9c e2 2c be 6a e4 88 3d
       0.0624766 0.23242608 -0.1688332 0.066841915
000270 93 be e8 3d 39 b2 f8 bd 7d 26 61 be 06 10 9c bd
       0.11364474 -0.12143368 -0.21987338 -0.07620244
000280 b6 ec 3d bd 27 c9 93 3e 7b 60 bb 3e 17 9d 4c be
       -0.046368323 0.28864405 0.36597046 -0.199818
000290 0f 09 3f be a4 da a2 be 21 6f ca be 3f d9 3e be
       -0.186558 -0.31807435 -0.3953791 -0.1863756
0002a0 8a b9 b2 be 05 65 80 3e be 42 8a 3e 7a ea 07 be
       -0.3490718 0.25077072 0.27004045 -0.1327304
0002b0 fe d3 f2 be ca 98 19 3e ec 66 dd 3e f7 c4 7b 3e
       -0.47427362 0.1499969 0.43242586 0.24586855
0002c0 5b 29 9d 3e 6d 6e 3b bd 88 0c fd 3d 7c d7 40 bd
       0.30695614 -0.045759607 0.12355906 -0.047080502
0002d0 58 b8 0c 3d 0d be f4 be 2d e1 25 be 1f 70 9f 3e
       0.03435549 -0.47801247 -0.16199179 0.3114023
0002e0 73 1c f4 3e 36 c1 69 3d 5a 75 2d be 08 68 9e 3d
       0.47677955 0.057069026 -0.16939297 0.07734686
0002f0 d8 00 93 3e 3b b0 e0 3e 96 86 e2 3e f2 60 a2 3e
       0.2871158 0.43884453 0.44243306 0.31714588
000300 ed 52 94 be b2 e5 80 3e 81 7b 98 bc 49 ee e5 bd
       -0.28969517 0.25175244 -0.018613579 -0.1122709
000310 bb 82 c1 3c e3 2a 20 be b4 13 83 3d 74 f4 12 3e
       0.023621907 -0.1564136 0.064002424 0.14351064
000320 19 d2 0b 3d 19 b9 f4 be 48 25 0d bf 9a 7c 29 be
       0.03413591 -0.47797468 -0.5513501 -0.16551438
000330 d0 ea ed bd 6a 8f 3b be a2 a2 19 be 56 4a 8e 3d
       -0.116170526 -0.18316427 -0.15003446 0.06947772
000340 88 f3 b4 3e ac f1 89 3d a6 69 01 3e 36 6e 90 3e
       0.3534205 0.067355484 0.12637958 0.28209084
000350 9a f6 31 bd 64 7b e0 3d 0d f7 a6 bd 3d cb 1f 3e
       -0.04344807 0.10961035 -0.0815259 0.15604873
000360 b3 84 3f be 32 26 d8 3e 59 7c f3 3d 48 4f 8e be
       -0.18702964 0.4221664 0.11888952 -0.27794862
000370 d8 a7 a6 bd 81 b2 25 bd 42 4d d0 3c 43 15 8c 3e
       -0.081374824 -0.040453438 0.025427464 0.2735997
000380 f0 a4 15 be c4 d7 16 be a1 a3 1f bf de f0 3f be
       -0.146137 -0.14730746 -0.6235905 -0.18744227
000390 51 72 cd 3c 4f c7 2f bf 0e 6f 9f 3e 64 9f 16 bd
       0.025078924 -0.68663496 0.31139416 -0.0367731
0003a0 37 43 12 bf 8d 3a 1e bd 51 95 3f be 55 c3 d7 be
       -0.5713381 -0.038630057 -0.18709303 -0.42141214
0003b0 ae 7c 43 bc 06 74 9c 3e a7 18 68 3e 9f 40 37 3e
       -0.011931581 0.3055727 0.22665654 0.17895745
0003c0 81 2d 2e bd 90 dd 02 bf 1a 33 1d 3d 3c d7 34 be
       -0.042523865 -0.5111933 0.038378812 -0.1766023
0003d0 03 ac 3e bf d7 03 4f 3e 53 3a 48 3e 19 68 d4 be
       -0.7448122 0.20216309 0.19553499 -0.4148567
0003e0 f8 5b 17 3f 3d 22 ea be 14 57 fd bd e8 36 7c be
       0.5912471 -0.45729247 -0.123701245 -0.2463032
0003f0 9f 25 11 3e 63 bd 83 3e 60 7c 6f bc 8c d6 ef 3e
       0.14174508 0.25730428 -0.014617056 0.46843374

critic.2.weight f4 [128, 256]
000000 53 4d 4f bd e8 b2 14 3c ea 9d 74 3d 98 14 f8 3d
       -0.05061085 0.009075858 0.05972091 0.12113303
000010 62 dd 61 bd 78 fc 71 bd 40 b4 82 bd b3 6c 99 bd
       -0.055142768 -0.059078664 -0.06382036 -0.07491436
000020 bb c8 12 3c bd 26 1c bc f0 66 be 3e 43 18 e9 3d
       0.008958991 -0.00953072 0.3718791 0.11381581
000030 c7 d0 71 3c 2a 00 b4 3d c8 07 63 3c 0c 54 dd 3b
       0.014759249 0.08789094 0.013856836 0.006754404
000040 16 3f 8b 3d db ff 03 be dd 8a 89 bd f8 80 c1 3d
       0.06799142 -0.1289057 -0.06715939 0.09448427
000050 0e c3 2d bd ad 89 d6 bd a3 44 d2 3d 06 16 99 3c
       -0.042422347 -0.10475478 0.10266998 0.01868726
000060 2e 57 dc bd 93 70 37 3e 69 93 c6 3d fa 35 22 bd
       -0.10758816 0.17914037 0.09696085 -0.039602257
000070 46 6a 85 3d f4 17 5c bd 70 83 fb 3b fa 83 13 be
       0.06514411 -0.05373378 0.0076755807 -0.14405814
000080 37 b2 36 3d 05 2c 4f 3d 50 71 98 bd cd c0 99 be
       0.044603553 0.05057909 -0.07443488 -0.30029908
000090 a4 b0 02 be f7 2f f9 bd 91 d4 b0 3c 38 d4 c6 bd
       -0.12762696 -0.12167352 0.021585735 -0.09708446
0000a0 af d2 2d 3d ff 0e 37 bc ff 81 82 3c 7f b9 aa bd
       0.04243725 -0.011173009 0.015931128 -0.08336162
0000b0 6f 72 e0 bf 64 19 cb 3b d8 a3 44 bd d3 c6 0b 3b
       -1.7534922 0.006198095 -0.048007816 0.0021328225
0000c0 0c eb 00 3c ea 59 4c be a3 40 0f 3e 56 00 84 bd
       0.00786854 -0.19956174 0.139895 -0.064453766
0000d0 c9 02 58 3d 0b 7f 02 be 69 46 2e bd aa 70 8b 3d
       0.05273703 -0.12743776 -0.042547617 0.06808598
0000e0 4f ff ba bd 36 d3 18 3d 93 3d 15 be b3 d3 4f c0
       -0.091307275 0.0373108 -0.1457427 -3.247296
0000f0 b2 bf f0 ba 62 eb 63 3d 67 55 81 3e 62 52 a4 c0
       -0.0018367677 0.0556444 0.2526047 -5.1350565
000100 78 14 14 3e 98 01 f6 bc 69 0b 6e bb aa d3 1c be
       0.14460933 -0.030030057 -0.003632272 -0.15315118
000110 d6 ef 33 3d 59 95 d0 bc 6a c4 27 be 92 79 17 3d
       0.043929897 -0.02546184 -0.1638352 0.036981173
000120 a2 d4 80 3d 7d 63 82 be 11 fc 3d bd 67 38 d7 3d
       0.062905565 -0.2546653 -0.046382967 0.10508805
000130 72 89 ca 3d 85 9b bc 3b 09 8f 60 bd d1 30 67 3d
       0.09889497 0.005755844 -0.05482391 0.05644304
000140 b3 5b bb bd 03 78 9d 3d af bb c9 3c 26 a1 64 3c
       -0.091483496 0.07688906 0.024625627 0.013954436
000150 75 26 c6 3d d4 b6 1a be 5a 93 61 3c 96 6b 7d be
       0.09675304 -0.15108806 0.0137680415 -0.24748072
000160 99 c0 79 3e a5 a6 94 3b 43 47 e5 bd fc 26 33 3e
       0.24389876 0.004536467 -0.11195233 0.1749534
000170 8e 64 52 3d 89 f5 a1 3d d5 59 e0 bd 4b 69 67 bd
       0.051365428 0.0790816 -0.10954634 -0.0564969
000180 e2 03 68 3c a9 45 22 3c 14 84 07 be e3 5a b0 3d
       0.014161082 0.009904304 -0.13233978 0.08611085
000190 6a bc 89 3d a6 1e bf 3d b4 b1 98 bc 01 e9 80 bd
       0.0672539 0.093320176 -0.018639423 -0.06294442
0001a0 4d 28 4b 3e e3 60 3f be 51 d1 b8 bd d2 99 8f 3c
       0.19839592 -0.18689303 -0.09024299 0.017529402
0001b0 c8 4e df 3d 03 64 3e 3c 83 cb ad 3c ba 68 1b 3e
       0.10903698 0.011620524 0.021215206 0.15176669
0001c0 5d f9 d1 3d 56 0a 72 be a9 44 5f 3c cc db 64 3c
       0.102526404 -0.23636755 0.01362721 0.013968419
0001d0 dd 65 c0 bd 2e f1 d8 bc 1f 2b 95 3d e3 d9 80 bd
       -0.09394429 -0.026482191 0.07283615 -0.062915586
0001e0 8f ab b0 bd 25 e4 57 3d d9 f4 be 3a 00 b7 b3 3e
       -0.08626472 0.05270781 0.001456882 0.35100555
0001f0 38 61 9c 3e da 62 25 bc ab 76 9a bc 5b fa 25 3c
       0.30542922 -0.010094369 -0.018855413 0.01013049
000200 2c c4 2c be ef ac 44 be c8 f4 7b be c2 9f c4 bd
       -0.16871709 -0.19206594 -0.24605095 -0.09600784
000210 66 1a 0c 3d 4c aa 22 bc ea a5 0d bc 60 ea 0e bd
       0.034204863 -0.009928297 -0.008645514 -0.034891486
000220 0f 74 49 be 72 6f 51 3d c1 07 60 3d 90 84 d9 3d
       -0.19673179 0.051131673 0.054694895 0.106209874
000230 2b af 13 be 88 c2 6a bd e7 5c 9e 3c bc 84 60 bd
       -0.1442229 -0.057314426 0.019331409 -0.054814085
000240 77 85 02 be 35 0a 35 3d 76 15 b7 3d 7f 5e 2a 3d
       -0.12746225 0.044199187 0.0893964 0.041594025
000250 b5 ce 12 3e 74 91 64 be e2 fc c2 3d 63 57 ee 3c
       0.14336665 -0.22321111 0.0952089 0.029094404
000260 39 9e 96 bc b8 98 7d 3b 4e 32 9d c0 10 6a 0e bd
       -0.018385993 0.0038695764 -4.9123907 -0.034769118
000270 45 4a 88 bd 7d 88 c4 3d 62 8e 92 bd ec 79 3b 3d
       -0.06654791 0.095963456 -0.071560636 0.04577057
000280 bf 64 06 bd 97 61 26 be b1 aa ee bc 0b 93 aa 3d
       -0.032810923 -0.16248165 -0.029134126 0.083288275
000290 d9 c1 a9 3d 7e 3b 06 3d 83 c3 8e be 9b 17 5b 3d
       0.08288927 0.03277158 -0.2788354 0.05348931
0002a0 13 01 65 be a8 88 59 3d b8 78 bb 3d 1e 1d 4b bd
       -0.22363691 0.05310884 0.09153885 -0.049588315
0002b0 4a 03 bd 3d 70 54 ab 3c 10 e4 b8 3d 70 41 28 3c
       0.09229143 0.020914286 0.090278745 0.010269508
0002c0 12 e2 4b 3c 8f ec 3b bd b3 b2 25 be b1 7e 90 bd
       0.012444036 -0.045879897 -0.1618145 -0.070554145
0002d0 b5 35 7d 3c cf a6 1f 3e 9f 10 b7 3d b4 95 bf 3c
       0.015454699 0.15590976 0.08938717 0.023386814
0002e0 55 7a 3c bd a5 16 06 3d 81 95 7b bc fd 02 c6 bc
       -0.046015102 0.03273644 -0.015355469 -0.024171347
0002f0 c3 df 72 bc d1 7c e4 bd a1 41 ae 3e f0 7f 21 3d
       -0.014823857 -0.11156619 0.34034446 0.03942865
000300 0c dd 17 3d 96 c3 c5 3c 7c d1 cb 3c 05 a7 f5 bd
       0.03707604 0.024141114 0.024880163 -0.11994747
000310 6e 34 56 bc e1 98 5c bd 91 19 b5 3d e5 80 ae 3c
       -0.013074024 -0.053856734 0.08842767 0.021301696
000320 14 41 1b 3c 51 a4 0f 3e 38 4b da 3c 04 3e 48 3d
       0.009475965 0.14027525 0.026647195 0.048887268
000330 fc 1a 77 ba 10 a2 1f bc 17 54 14 3e f3 c6 f3 bc
       -0.0009426323 -0.009743229 0.14485203 -0.029757952
000340 cc 1c 9a 3a ac ff 0f 3d c7 da 8a bb b9 46 4c 3d
       0.001175785 0.035155937 -0.004237506 0.049872134
000350 e9 74 dd bd 2f 74 49 bd d8 4a 00 be c2 55 72 3d
       -0.108133145 -0.049183067 -0.1252855 0.059163816
000360 05 c6 d7 bd 04 d1 2b 3d 3e d9 01 bf 96 70 a8 bd
       -0.10535816 0.04194738 -0.5072211 -0.08224599
000370 9e f7 d0 bb 15 e8 50 be 2d 25 65 3d ff b9 f0 bc
       -0.0063771745 -0.20401032 0.055943657 -0.029385565
000380 1b 51 28 bd 0b ab a5 bb 15 6b 9a bc 35 1a 24 bd
       -0.041092973 -0.0050557903 -0.018849889 -0.040064055
000390 3a 1d ca bc aa d3 b7 be 5a d4 51 bc 67 75 56 bd
       -0.02467214 -0.35903674 -0.012806976 -0.052358057
0003a0 b9 27 3c bd 56 8a 8c bd 0c 5e 8a bd fb e3 61 3d
       -0.04593632 -0.06862323 -0.06756219 0.05514906
0003b0 f4 ed 84 3c 62 68 4b bd e0 22 d0 3c 1a 15 b9 3c
       0.016226746 -0.049660094 0.025407255 0.02259307
0003c0 f0 84 24 bd 0a 92 90 be 6d 86 a9 3d c6 40 36 3d
       -0.04016584 -0.2823642 0.08277593 0.044495367
0003d0 32 4f d0 bd ee bd b7 bd 8e 26 1c 3b b9 44 5b 3d
       -0.10171355 -0.08971773 0.0023826691 0.053532336
0003e0 1d 09 8d 3d 8d 78 78 3d a9 51 a9 bd 57 f3 43 bd
       0.06886504 0.06066184 -0.082675286 -0.04783949
0003f0 76 08 ad 3e 3a f3 21 3e 0c 91 d0 bd d9 ac 07 3e
       0.33795518 0.1581544 -0.101839155 0.1324953

critic.2.bias f4 [128]
000000 7c 50 dc 3d f8 86 81 bd fa 8a 5f bd 6f 01 79 3d
       0.10757539 -0.06324571 -0.054575898 0.060792383
000010 47 82 1e 3d 50 62 bd 3d db a6 88 bd 69 76 91 bd
       0.03869846 0.09247267 -0.0667245 -0.07102663
000020 42 d0 b5 bd 0f e2 77 3c a5 d5 80 be 40 36 a8 3d
       -0.08877613 0.01512958 -0.25162998 0.08213472
000030 85 fd fa 3c 48 69 65 3d 2f 9c 1b 3e e7 0a 2b 3d
       0.030638466 0.056008607 0.15196298 0.041758444
000040 7d a5 97 3c 90 65 81 3d 4f 28 cf 3d 90 4e 6e 3c
       0.018511528 0.063182 0.1011511 0.014545098
000050 a3 db 27 3e 09 1a 06 bb 3b b4 00 be d3 d0 90 bd
       0.16392379 -0.0020462296 -0.12568752 -0.0707108
000060 5a 6e 86 3d 08 2e 5c bd 85 05 74 3b 93 9f 28 3d
       0.06564017 -0.053754836 0.0037234735 0.041167807
000070 4b 15 80 3c 8f cb bb 3d d1 d3 58 be 45 b8 bf bd
       0.015635153 0.09169685 -0.21174552 -0.093613185
000080 97 42 6d bc c7 eb 8a bd 74 4e 15 bc 7b 40 9e 3d
       -0.014481208 -0.06783252 -0.009112943 0.077271424
000090 2c 0e 25 3e 62 7c 0a 3e 23 71 a8 3d f0 df 73 bc
       0.16118687 0.13524011 0.08224704 -0.014884934
0000a0 bc 9d 74 bc 41 49 3c bd bd f2 6c bd 61 1c 4d bd
       -0.014930185 -0.045968298 -0.05784868 -0.050075892
0000b0 29 a0 fd 39 a5 39 31 bc e5 9e 58 3c 87 3c fb bd
       0.0004837525 -0.010816966 0.013221477 -0.12267404
0000c0 c7 e3 a7 b9 3f ea 24 3d e1 fd ca 3c 34 65 aa bd
       -0.0003202243 0.040262457 0.024779262 -0.08320084
0000d0 ce 69 30 3d 36 3a f6 3b a3 98 6e 3c 25 f6 11 bd
       0.043069653 0.0075142635 0.014562759 -0.035635132
0000e0 47 d8 54 3d 9e 37 4f 3d 06 24 83 3d 50 30 4b bd
       0.05196407 0.05059015 0.06403355 -0.04960662
0000f0 b6 75 bb 3b d9 b0 7f bd 4b 65 94 bd e4 92 32 be
       0.0057208193 -0.062424514 -0.072458826 -0.17438847
000100 ca 2e 16 be b2 e9 a4 bd 89 64 99 3d 5f 4f a3 bd
       -0.14666286 -0.08052386 0.07489879 -0.07974123
000110 13 76 aa bd fb e8 15 3d 49 4b a7 3b 28 80 8c bc
       -0.08323302 0.03659914 0.0051054102 -0.017150953
000120 39 02 74 3d e0 62 bf 3d 2a 02 8d 3d ab 1f e1 bc
       0.059572432 0.09345031 0.068851784 -0.02748092
000130 65 07 1b 3e 31 f5 be bd 14 71 d2 3d c9 29 1d bd
       0.1513954 -0.0932411 0.10275474 -0.038369928
000140 f5 b7 e6 bd c2 50 8b bd e2 50 c1 bc 58 5f 5e 3d
       -0.11265556 -0.06802513 -0.023598138 0.054290146
000150 fe a0 ec 3c 7d e0 1b 3e ac 2c 62 3a cb 68 25 be
       0.02888536 0.15222354 0.00086278724 -0.16153257
000160 8e 3e b7 3c 77 7c aa 3b ea 64 af bd 85 0a 32 bd
       0.022368696 0.0052028256 -0.0856417 -0.043467063
000170 ce a6 f2 3d d0 85 92 bc 68 95 2d bd d8 9a d7 bd
       0.11848222 -0.017886072 -0.042378813 -0.10527581
000180 13 92 aa 3d be 40 85 bd 5b d2 d6 3d 10 1f 1b 3c
       0.08328643 -0.06506489 0.10489341 0.009467855
000190 83 aa 71 3d 55 10 b2 3c fb 24 f0 bd 8c 71 50 bc
       0.059000503 0.021736303 -0.117258035 -0.012722384
0001a0 b9 44 c0 bb 76 c7 d9 bc 9c 26 a1 bd 9d 69 96 3d
       -0.0058675674 -0.026584368 -0.07868692 0.07344363
0001b0 68 40 e0 3c 30 45 96 3d f4 c6 af 3d fa 2f a9 3d
       0.027374461 0.07337415 0.08582869 0.08261104
0001c0 de ff af 3c 4d b3 c4 3c c1 e4 b6 3d d6 d1 67 3b
       0.021484312 0.024011279 0.0893035 0.0035372875
0001d0 cb 0c 27 bc 2d f2 10 3e ab 75 d7 3c 9e 28 e2 bd
       -0.010195921 0.14154883 0.026301226 -0.11042903
0001e0 bd e4 10 3d df 93 ea bc 15 21 77 bc 5b 4e 99 3c
       0.03537439 -0.028634964 -0.015083571 0.01871412
0001f0 5a 8a 0e bd 21 b3 12 3d 8a 7c 91 3d ea 81 03 3e
       -0.03479991 0.035815362 0.07103832 0.12842527

critic.4.weight f4 [1, 128]
000000 76 4b 08 3f ba 13 3c be 6d 6e b7 3e 0a f5 c7 be
       0.53240144 -0.183669 0.35826436 -0.39054137
000010 a3 55 76 3c f7 50 1e be a1 06 55 be cb ba 17 bf
       0.015035066 -0.15460573 -0.2080331 -0.592694
000020 cb ec 97 3e bc bd 65 be 6b 82 94 bf 1b 28 e7 be
       0.29672846 -0.22435659 -1.16023 -0.45147786
000030 26 80 32 be de ee 69 3e 01 6f a5 3f 0f 07 26 bf
       -0.17431697 0.22845027 1.2924501 -0.6485452
000040 e2 1c 11 40 2f 4a 00 3e 9c 06 cb 3e aa ab 23 3e
       2.2673879 0.12528299 0.3965348 0.15983453
000050 d0 ce bb 3f 9a 87 ab 3e 56 97 b9 3e a3 dc 38 bf
       1.4672489 0.33501893 0.36248273 -0.72211665
000060 1c d7 bb 3e b8 dc a4 3f 8a 7e c8 3e ab 78 85 be
       0.36687553 1.2879858 0.39159042 -0.26068625
000070 b9 19 7e be 76 63 62 3e e4 58 20 3f 20 e8 06 3f
       -0.248145 0.22108254 0.62635636 0.52697945
000080 01 6d bf 3e a3 dd 0d bf de 09 40 3f 2a 2f e0 3e
       0.3738785 -0.55416316 0.75015056 0.43785983
000090 bc d9 8f 3e 62 c7 be be 94 d6 2d be 46 20 a6 3f
       0.28095806 -0.37261492 -0.16976386 1.2978599
0000a0 00 97 7b 3e 3a 13 13 3f 0d 2e 83 3e 05 55 c5 3f
       0.2456932 0.5745121 0.2562107 1.5416571
0000b0 a1 a7 53 3e 84 20 56 3f 60 78 98 be 39 54 18 3f
       0.20669414 0.83643365 -0.2977934 0.59503514
0000c0 10 80 94 3f f2 ec 8b be cf 61 6e 3f 03 2f 85 3f
       1.1601582 -0.27329212 0.93117994 1.0404972
0000d0 5e 4e ed be 5c 1d 4c 3e 88 ab 53 3f 8b 4b 23 bf
       -0.46348852 0.19933075 0.8268361 -0.63787144
0000e0 5a 5e 3c 3f 97 f2 10 3f c4 b6 f2 3e 51 9f 42 3f
       0.7358147 0.5662016 0.47405064 0.7602435
0000f0 6b 9a bb be fc 6a 94 3e 02 76 b0 3f c9 7e ad 3f
       -0.3664125 0.28987873 1.3786013 1.3554317
000100 70 65 9e 3f ef e9 db 3e 0e 27 24 bf c6 9c 7d 3f
       1.2374706 0.42951915 -0.6412209 0.9906734
000110 89 7e 0e 3f 5f 7f 04 3f df 70 f1 3e 3b 99 21 be
       0.5566183 0.5175685 0.47156426 -0.15781109
000120 d2 f9 8b 3e 8b d5 15 3f 06 e5 39 3f 72 02 dc 3f
       0.27339035 0.58528966 0.7261509 1.7188246
000130 56 01 42 3f fb 4f 81 bf e0 1b c7 be b7 40 2d 3f
       0.7578329 -1.0102533 -0.38888454 0.6767687
000140 2b 53 c4 be c3 5b cb 3c bb 76 bb 3f fb 8f 80 be
       -0.38344702 0.024824029 1.4645609 -0.25109848
000150 8b 75 33 3f 6f 32 11 3f d7 00 95 3f cf c1 88 3e
       0.7010123 0.5671758 1.1640881 0.26710364
000160 be bf 16 be 29 6d 3b be 33 35 3c 3f 24 2c 81 be
       -0.14721581 -0.1830336 0.73518676 -0.2522899
000170 ca b1 36 bf 5e c6 bd bf eb db 8a be 47 0b aa bf
       -0.71365035 -1.4826162 -0.2712091 -1.3284692
000180 8d 01 09 bf e5 fc 37 be bd b6 31 3f 35 13 14 bf
       -0.5351799 -0.17967565 0.6941946 -0.5784181
000190 5f bc 79 3f 16 44 90 be 3a 75 de be 76 fa 58 3e
       0.97553056 -0.28176945 -0.43448812 0.21189293
0001a0 b7 07 4b 3e 07 08 92 be bd 1d 48 3e 66 cd 17 bf
       0.19827162 -0.2852175 0.19542594 -0.5929779
0001b0 90 1f 93 3e 84 a6 8e 3e 37 72 02 3f 8e 3f c2 3e
       0.28735018 0.27861416 0.5095553 0.37939113
0001c0 aa 72 88 be 38 7e f5 3d 97 83 04 40 b6 e6 8b bf
       -0.26649982 0.11986965 2.0705316 -1.0929782
0001d0 af 4a 11 bf 50 0e ff 3e a3 03 2e bf 22 ca 13 40
       -0.56754583 0.49815607 -0.679743 2.3092122
0001e0 18 fa 3d 3f d3 b7 df 3c 8e e8 66 be 8e cc 8a bf
       0.7420974 0.027309334 -0.2254965 -1.0843675
0001f0 31 78 0b bc 89 32 e8 3f cd 2e a5 be 94 f4 88 be
       -0.008512543 1.8140422 -0.3226227 -0.26749098

actor.0.weight f4 [256, 48]
000000 a9 0b 65 3e 2f bd f7 3d e9 53 c5 bd 7d 43 13 3d
       0.22367729 0.12096631 -0.09635145 0.035953034
000010 fe 56 24 3e 1f 7b 2e be 64 5b 03 3e 9e 75 02 bb
       0.1604881 -0.17039154 0.12827832 -0.001990653
000020 8e c8 bb bc 32 36 ba 3e c7 c3 39 3c a0 92 78 bd
       -0.02292278 0.36369473 0.011338181 -0.060686707
000030 2a 3a 97 3e 00 9c 27 3e 6a dc 92 bd a6 74 b0 bd
       0.29536563 0.16368103 -0.07170947 -0.08615999
000040 57 0d 4d 3d dd 6b 17 be 33 d3 7a 3e e1 55 94 bc
       0.05006155 -0.1478724 0.24494629 -0.018107357
000050 83 d0 e2 bd b5 1c 46 3e 2c 12 2f 3e 49 38 17 bd
       -0.11074927 0.19346888 0.17096776 -0.036918912
000060 6c 2d 84 3e a5 45 d4 3b dc 5a 01 be 87 b0 bf bd
       0.25815904 0.006478029 -0.12632316 -0.09359842
000070 10 c6 fa 3d 4b 48 c9 bd d9 23 1a bb 09 19 ac bd
       0.12244809 -0.09828242 -0.0023519902 -0.084032126
000080 0a d9 11 bd a6 b9 a8 3e 63 6c 1d be 62 43 2a bc
       -0.035607375 0.3295414 -0.15373378 -0.010392042
000090 42 4b 92 3e bf 63 c2 3d 27 a4 56 bd f6 91 1c be
       0.28573042 0.09491681 -0.05240264 -0.15290055
0000a0 c5 44 52 3e 51 9c 3a be 57 15 94 3d c5 57 cf bd
       0.20534046 -0.18223692 0.07230633 -0.101241626
0000b0 b8 b7 a0 be a2 7e 37 3e 78 78 46 be d8 69 bc 3d
       -0.31390166 0.179194 -0.19381893 0.091998756
0000c0 fc a3 63 3e 27 ce af 3e 78 d1 bb 3d 45 cf 28 be
       0.22230524 0.3433697 0.09170812 -0.16485317
0000d0 7b e1 c0 bc 32 62 c0 3d f7 39 1d bd 9d af 01 bd
       -0.023545017 0.09393729 -0.038385358 -0.03166162
0000e0 08 01 1e be 28 74 a1 3b fb 3a 82 bd 32 26 0b be
       -0.15430081 0.004927177 -0.06358906 -0.13588789
0000f0 91 4f 2d 3e 54 9f ba 3e c1 29 20 3e 03 c3 20 3d
       0.16924883 0.36449683 0.15640928 0.039248478
000100 a7 65 5a be e2 0a 09 be de e7 da bb 94 39 37 3d
       -0.2132784 -0.13383058 -0.0066804728 0.044732645
000110 65 86 1e be aa ee 6c bd 31 27 41 be 4f 7f 94 3c
       -0.15480955 -0.057844795 -0.18862607 0.018127112
000120 c4 ff 89 3e e2 be a8 3e ab 77 82 3e 38 8c ae 3d
       0.26952946 0.32958132 0.25481924 0.08522838
000130 39 b2 0e be ce 74 64 bd 77 5d 77 bd 13 e3 39 3d
       -0.13935174 -0.055775456 -0.06039187 0.04538257
000140 26 3d 80 be 99 20 87 3d 60 8e 64 be 73 ac 9e bc
       -0.25046653 0.065980144 -0.22319937 -0.01936934
000150 c7 55 c6 3e df eb a4 3e 3c 18 2c 3e 74 9c ed bd
       0.38737318 0.32211205 0.1680612 -0.11602107
000160 d6 a8 8e be 62 44 ae 3c 17 48 81 bc 34 4e bb 3c
       -0.27863187 0.021272842 -0.015781445 0.022864439
000170 dc c7 b1 be c8 16 23 3e 34 03 33 be 15 b9 28 3e
       -0.34722793 0.15926659 -0.1748169 0.16476853
000180 b3 0f d9 be da 19 19 3d 3c be 52 bd 00 46 ca ba
       -0.4239479 0.03737817 -0.051450953 -0.0015432239
000190 77 32 10 3e 17 cc c9 3d f3 1e f1 bc 82 a7 a7 3d
       0.14081751 0.0985338 -0.029433703 0.081862465
0001a0 8a c2 84 bc 93 b0 9d be 8d c1 e6 3c cf 6c 16 be
       -0.016206045 -0.30798778 0.028168464 -0.14689945
0001b0 d4 e2 f1 be b8 f2 50 bd 94 99 dd bc 17 f6 3f be
       -0.4724337 -0.051012725 -0.02705077 -0.1874622
0001c0 0f 64 da 3d cb 5c 7b 3d 14 43 ef ba e3 af a4 bd
       0.10663616 0.06136779 -0.0018254244 -0.0804136
0001d0 fa 5a 19 3d 0f 59 38 be 1f c1 e9 3d 71 93 af bd
       0.037440278 -0.18002723 0.11413788 -0.08573044
0001e0 4b 8a 9e be 8d ae c3 bd 7a 3f 1e 3d 45 da 9c bd
       -0.30964884 -0.09554777 0.038634755 -0.07658819
0001f0 b6 87 f4 3d 0d a8 eb bc 9d 0d 52 3c 65 de 2b bd
       0.11939947 -0.028766656 0.0128206285 -0.04196014
000200 3d a2 19 3e 1b a2 c4 be e1 dd 98 bd d0 bb 34 be
       0.15003295 -0.38404927 -0.07464195 -0.1764977
000210 78 ab ab be 83 47 8d 3d 9c df 09 be ea 5c a8 3d
       -0.33529258 0.068984054 -0.13464206 0.08220847
000220 28 5e 1a 3d b0 fe 69 bd 0a b5 d8 3d e2 13 8e 3c
       0.03768745 -0.057127655 0.105814055 0.017343465
000230 cc 86 cf 3b b0 15 9c be fa 44 7b 3d 1a 5e 79 be
       0.0063332077 -0.30485296 0.061345078 -0.24352303
000240 53 8e 2a be fb 06 6a bc f4 1b 48 3e 51 7d cb bc
       -0.16655855 -0.014283891 0.19541913 -0.024840029
000250 57 36 38 3d 37 af 00 be 76 b5 f2 3c a6 54 70 bd
       0.044973698 -0.12566839 0.029627543 -0.058674477
000260 c2 de 8b 3e b8 63 4c be 52 50 b1 bc 76 84 39 3d
       0.27318388 -0.19959915 -0.021644745 0.04529234
000270 68 08 11 be a1 65 b7 3d 95 87 31 3e 3d 1b 2f be
       -0.14163363 0.08954931 0.17336877 -0.17100234
000280 3d c9 28 bd 1f ba ca 3d 9d e8 28 3d 86 10 e3 bd
       -0.04120754 0.09898781 0.041237462 -0.11087136
000290 06 7a 89 3d 95 64 2f be 0a 8f 2d 3e d2 71 50 3e
       0.06712727 -0.17128213 0.16949096 0.20355919
0002a0 b9 4b 9a bd 22 e7 02 3d a1 de 30 3e f7 86 13 3d
       -0.07533974 0.031958707 0.17272426 0.036017384
0002b0 99 e2 ca bd 49 40 28 3d 8c 45 57 3c 4f 4e ad 3d
       -0.09906501 0.041076932 0.01313914 0.08462202
0002c0 3b f8 83 3e 73 83 da 3c fe cb 6e 3e aa 1f 58 3e
       0.25775322 0.026674008 0.23320004 0.21105829
0002d0 56 42 45 bd 52 97 02 3e d1 f4 7d bc d1 c3 34 bd
       -0.048158966 0.12753037 -0.015500263 -0.044132058
0002e0 b3 1c a0 bd 1e cf 42 bd f8 29 58 3e 5d c9 99 3d
       -0.07817974 -0.047560804 0.2110976 0.0750911
0002f0 f3 6a 65 3e 7e 9c 04 3d 73 d1 1d 3e bc 51 bc 3e
       0.22404079 0.032375805 0.1541193 0.36781108
000300 a6 9b 6e 3d c6 c0 c6 bd 63 2f b5 3d 50 94 f0 3d
       0.058253907 -0.09704737 0.08846929 0.11747038
000310 f8 cf ff bd 4c d5 99 3d c7 4e 02 3d 6f 31 63 bd
       -0.12490839 0.07511386 0.03181341 -0.055467065
000320 23 32 67 3d c1 78 e3 bd 6e 3a 8b bc 20 70 d2 bc
       0.0564443 -0.11107016 -0.016995635 -0.025688231
000330 21 93 e5 3d 22 7d 16 be 68 69 36 bc 14 d9 0b 3e
       0.11209703 -0.14696172 -0.011133529 0.13657027
000340 98 40 9a 3d 47 94 c0 bd 24 e0 c2 3c 05 a0 96 3d
       0.075318515 -0.09403282 0.02378852 0.0735474
000350 d4 98 a4 bc cb 6d 95 bd 6d fd 35 3c be a9 ed 3c
       -0.020092405 -0.07296332 0.011107785 0.029011603
000360 a0 8f 5a bd 16 f7 6f 3c 5f 8b 29 bd 73 08 4c bc
       -0.053359628 0.014646312 -0.04139268 -0.012453186
000370 42 25 16 be f0 1e 15 be 29 17 a3 3c 82 43 18 3d
       -0.1466265 -0.14562583 0.019908505 0.037173755
000380 94 b9 ab bd 3a 7e 1b be 8a 46 e6 3c 5b 04 75 bc
       -0.083850056 -0.1518487 0.028109808 -0.014954652
000390 e0 b5 cb bb 6e bc f2 3d 3d a3 03 3e 74 94 81 3d
       -0.0062167495 0.11852346 0.12855239 0.06327143
0003a0 93 94 9e bc 61 1a 00 3d 53 4b 28 3d 8a d5 05 be
       -0.019357955 0.031275157 0.04108746 -0.1306974
0003b0 bf a1 c7 3d a2 17 5f bc b9 06 be 3d 33 bf d9 3d
       0.097476475 -0.013616474 0.09278626 0.106321715
0003c0 0b e1 b9 3d e5 8f b1 3d cf b4 4a 3e e5 68 98 3d
       0.09076127 0.08670024 0.19795536 0.07441882
0003d0 00 40 c2 bb 55 c4 16 bd 98 e6 dd 3d 6e 65 66 be
       -0.0059280396 -0.03680833 0.10834998 -0.2249963
0003e0 e8 2a 72 3e 14 2c b8 3d 74 f1 5a 3d 44 df a8 ba
       0.2364918 0.08992782 0.053452924 -0.0012883921
0003f0 46 d3 c7 3d 10 8d 56 bc 80 a1 50 3e f1 a3 0f be
       0.09757094 -0.013095155 0.20374107 -0.14027382

actor.0.bias f4 [256]
000000 62 67 3a be ac 49 18 3e 6b bb ad bd c0 3f 60 bd
       -0.182035 0.14871854 -0.08483013 -0.054748297
000010 91 95 c6 bd 52 3d f6 bc 2d 9e b5 bd d5 a1 be 3d
       -0.09696496 -0.030058537 -0.0886806 0.09308211
000020 8d e7 b3 bd 2a d3 4d be 51 cf 9f 3d 85 ea 99 3d
       -0.08784399 -0.20100084 0.07803214 0.07515434
000030 48 f2 74 3e 09 4e e2 3d 37 d3 b3 bd 28 30 03 be
       0.23920548 0.1105004 -0.087805204 -0.12811339
000040 74 90 54 be dd 68 7b bd fd ae f9 3c a0 b0 96 bd
       -0.2075823 -0.061379302 0.030478949 -0.07357907
000050 23 34 47 be 18 e9 9c bb 7f 71 fd bd 3a f2 16 be
       -0.19453482 -0.004788529 -0.12375163 -0.1474084
000060 76 02 45 be 92 bc 69 3d 56 bd 1b be cf 52 c8 3d
       -0.1923922 0.0570646 -0.15208945 0.097814195
000070 03 14 35 3d 0f 25 9f be 94 8d 4b bc 4f 1e df 3d
       0.044208538 -0.3108296 -0.012423892 0.10894453
000080 74 5d 19 bd a5 96 95 3d 07 72 90 bd 37 56 02 3e
       -0.03744264 0.07304124 -0.07052999 0.12728201
000090 14 92 6e be 19 10 14 bc 86 c5 3b 3e ac 91 c7 3d
       -0.23297912 -0.009037041 0.18337068 0.097445816
0000a0 05 5a 03 be 5d b6 b1 3c 57 0e 12 bd 0f da 9b bd
       -0.12827308 0.021693403 -0.035658207 -0.07609951
0000b0 0f aa 2a 3d c7 47 48 3e 6d e5 20 3e 97 70 6e bd
       0.041666087 0.19558631 0.15712519 -0.058212843
0000c0 71 21 28 3e 6f af 73 3d d5 45 bf 3d 5b 7d 9c bd
       0.16419007 0.05949348 0.09339491 -0.07641097
0000d0 91 f3 ad bd 48 fe 3f 3e b6 d1 11 bd 50 fe 83 bd
       -0.08493722 0.18749344 -0.035600387 -0.06444991
0000e0 16 f5 34 be 45 e1 a7 bc 0c 76 f4 3d c3 6c b1 bd
       -0.17671618 -0.02049316 0.11936578 -0.08663323
0000f0 1d e8 34 3e 72 03 96 bc 3f 2d a6 bd 4a b4 ae bc
       0.17666669 -0.01831219 -0.08114099 -0.021326203
000100 18 c1 8e 3d f6 97 91 be c5 16 ec 3d e0 b3 14 be
       0.069704235 -0.2843625 0.115277804 -0.14521742
000110 76 8e 31 bb 16 87 99 bc c2 7a fe bd 1f cd 0b b9
       -0.002709297 -0.018741172 -0.12425758 -0.00013332487
000120 65 1a dc bd 4a 5a 72 3d 80 3c 93 3c 32 13 5d 3d
       -0.10747222 0.059168138 0.017973185 0.053973384
000130 e0 bf 02 3e 76 3f f6 3c f1 f6 e8 3d d2 d1 a5 3c
       0.12768507 0.030059557 0.11375225 0.020241652
000140 c4 b3 00 3d 53 7d 69 3d c2 92 c8 3d 9c fe 9c bd
       0.031421438 0.057004284 0.09793617 -0.076657504
000150 c9 88 c1 bb 5b d6 e1 3c 7e 76 15 3d fe a4 af bd
       -0.0059061986 0.027568033 0.036489956 -0.08576392
000160 42 bc 5d be bf 8a c1 bb 7c 54 a0 3c 36 f7 38 bd
       -0.21653846 -0.0059064324 0.019571535 -0.045157634
000170 5f 7c 9d bd cb 54 3a bc 73 a0 91 bd 8a 30 e4 bc
       -0.076897375 -0.011372755 -0.071106814 -0.027855176
000180 ff d4 f7 3d 5c c4 fb 3d d9 9f 25 3e de a0 29 be
       0.12101173 0.12293312 0.16174258 -0.16565272
000190 3f f5 ad 3d d4 d9 de 3d 1a 34 91 bd c1 8c 14 bd
       0.084940426 0.10881391 -0.07090016 -0.036267046
0001a0 85 d7 96 3d c1 f6 98 3b 9a a8 a7 3d 2b 01 78 bd
       0.07365326 0.0046680872 0.08186455 -0.06054799
0001b0 20 d2 65 3e ad c1 a5 3c de a8 0b be 87 d6 b3 3c
       0.22443438 0.020233953 -0.13638636 0.02195288
0001c0 35 c9 67 3e 75 be 1f 3d 9f 7a 56 bd 38 fd 35 3d
       0.22635348 0.038999993 -0.052363034 0.04443094
0001d0 e8 22 0f be 48 13 02 bd c8 c8 ee 3d fe 1c 3f be
       -0.1397816 -0.03175667 0.1165939 -0.18663403
0001e0 0d 8f 9e 3c 46 c0 37 bd cb 4b 79 3d c2 fb f0 bd
       0.019355321 -0.0448611 0.060863297 -0.11766769
0001f0 38 40 a3 3c 42 1f d1 3d ac df ef bd aa 52 3b be
       0.019928083 0.1021104 -0.11712584 -0.18293253
000200 cb 7c 90 bd fb 48 47 be 18 26 c5 3d 55 dc 0b 3e
       -0.07055052 -0.19461434 0.096264064 0.13658269
000210 c5 b3 2c bd 00 5d c1 3d 88 1c 22 3d 6e 58 93 3d
       -0.04216363 0.094415665 0.03957799 0.07194601
000220 9d 0e 80 bd a2 17 8d 3e d9 0e 8a 3d f4 2e 32 3e
       -0.06252787 0.27557093 0.06741113 0.17400724
000230 39 f2 ed bc e0 0c 0b b9 a9 93 9b 3d b3 ad 02 3e
       -0.029046165 -0.0001326087 0.07596523 0.12761573
000240 c3 f8 44 bc b0 ac 8a 3d cc 20 4f 3e d3 2b 17 3e
       -0.0120222 0.06771219 0.20227355 0.14762811
000250 b3 9a 12 3d 5b 15 b4 bd 96 de 96 3d f7 6a 3d 3e
       0.035792064 -0.08793136 0.07366674 0.18497835
000260 a1 1e 17 be 5d 62 bc 3d 6b ae 16 be cf 48 ba 3b
       -0.14757778 0.09198449 -0.14714973 0.005684949
000270 04 bc 15 be fb 5f 49 bd f2 73 80 3e 08 c0 9c bd
       -0.14622504 -0.0491638 0.2508846 -0.076538146
000280 b2 0c 8f 3e 36 72 51 bc 3a ab bb bb 0a cf 40 3e
       0.27939373 -0.012783578 -0.005727199 0.18828979
000290 57 6c cc bd 4e 15 14 3c fb ee 41 be 9b 42 91 bd
       -0.09981602 0.009038283 -0.1893882 -0.07092782
0002a0 0b 19 f2 3d 14 a6 30 3c df 27 11 be 6b 19 0c bd
       0.11821183 0.010781784 -0.14175366 -0.034203928
0002b0 d6 92 89 3c 21 00 d4 3d 53 1e 2b bc c9 c4 9b bd
       0.01679365 0.10351587 -0.010444242 -0.07605893
0002c0 bd 9d 7a 3e 08 a9 72 3e 44 d8 5d be 9c 18 9e bd
       0.24474235 0.23697293 -0.2166453 -0.077195376
0002d0 9d 7b 83 bd cb 26 ef bb a4 2f ab bd 68 fd 1f bc
       -0.06420062 -0.0072983257 -0.08358696 -0.009765007
0002e0 a1 6f 50 3b 33 5f e7 bc b1 3f e5 bd ed be 6b 3e
       0.0031804817 -0.028243637 -0.11193789 0.23022051
0002f0 0a 2e b4 3d a5 f9 7b bc 67 d1 ca 3d ec 1e 2b be
       0.08797844 -0.015379344 0.099032216 -0.16711015
000300 a8 ef 20 bd 02 7a 8d 3d 49 df 28 be 34 13 0c 3e
       -0.039291054 0.06908037 -0.16491427 0.136792
000310 d0 90 31 bd 68 3e b0 3b 8a c7 34 3e 5a b9 2e 3d
       -0.043350995 0.005378533 0.17654243 0.042657234
000320 8f cd 62 be 6a 4a 68 3e d4 a6 2c bc 25 05 3b 3e
       -0.22148727 0.22684637 -0.010537822 0.18263681
000330 f4 2b 3f 3c 7f 8d 97 3e e2 9c 57 be 3b cc 8b 3d
       0.011668194 0.2960014 -0.2105594 0.06826063
000340 1f 4e 92 3c ec 2c ec bd 2d 59 cd 3c 84 01 82 bd
       0.017859517 -0.11532006 0.025066936 -0.06347945
000350 f3 c0 2d be 67 2a 1d 3e 99 c2 b4 bd 4b a1 a2 bd
       -0.16968136 0.15348206 -0.08826179 -0.079409204
000360 b6 dc b5 bd 93 72 b7 bd a0 a2 21 be c7 de fc 3b
       -0.08879988 -0.089574 -0.15784693 0.007716987
000370 88 ae 04 bd 43 74 16 3e d9 81 9a 3c f0 a8 4d 3d
       -0.03239301 0.14692788 0.018860744 0.05020994
000380 46 19 a1 bd f4 a6 86 3d ba d2 86 bc 02 8b 4c 3d
       -0.07866149 0.065748125 -0.016457904 0.049937256
000390 16 96 44 be 6a aa a2 bd 91 db f6 3d ce d8 4b be
       -0.19197878 -0.0794266 0.12053598 -0.19906923
0003a0 d2 c9 0c be 9d 95 aa bb 2c 24 3c bd dc d4 19 be
       -0.13748863 -0.0052058236 -0.045932934 -0.15022606
0003b0 38 14 8f 3d f9 d9 53 be 41 35 ff 3d df de 86 bb
       0.06986278 -0.20688619 0.12461329 -0.004115924
0003c0 b3 5f 95 3c 45 4c 20 3c d0 96 b8 3d 0a c8 9b 3d
       0.01823411 0.009783809 0.0901314 0.07606514
0003d0 d8 f8 74 3d 40 e9 cb bc 10 b0 b0 3c 30 a4 ac 3d
       0.05980763 -0.024891496 0.021568328 0.08429754
0003e0 86 50 25 3e f3 38 2d 3d 66 0a e3 bb 4d 47 b5 3d
       0.16143999 0.04229064 -0.00692873 0.0885149
0003f0 c6 94 1a be 29 64 1a bd cf e2 5e 3c f0 3e f4 3d
       -0.15095815 -0.037693176 0.01360388 0.11926067

actor.2.weight f4 [128, 256]
000000 6b 77 17 bd 9d 3e 73 be f1 ab 0a be d1 68 54 be
       -0.03697912 -0.23754354 -0.13542153 -0.2074311
000010 00 33 94 b9 ee d3 4b bd fa 44 8f 3e 22 e8 58 3e
       -0.00028266758 -0.04976266 0.27982312 0.21182302
000020 aa 37 ec 3d fe 14 e3 3c 39 71 e6 bc 88 19 ab bd
       0.115340546 0.02771997 -0.02813016 -0.08354479
000030 62 38 00 be 03 7a 98 3e 03 02 c1 bc c4 b7 e6 bd
       -0.12521508 0.29780588 -0.02356053 -0.11265519
000040 fa df 32 3c 6a 68 ac bd ad 0b 07 bf 25 88 d2 bd
       0.010917658 -0.08418353 -0.5275219 -0.10279874
000050 99 1a d8 bc f9 98 9d bc 62 7e 0e be 49 52 55 3e
       -0.02637987 -0.019237982 -0.13915399 0.2083217
000060 3b 32 5b 3e c4 68 2e 3e 67 bf e7 bd 38 ca bd 3c
       0.2140588 0.17032152 -0.11315804 0.023167714
000070 01 47 07 3e 37 38 bd bc fd 7e 3e 3d 8b 20 25 be
       0.1321068 -0.023098094 0.046507824 -0.16125695
000080 9a 4b 1b be 27 d6 98 bd cc 04 e5 bd a4 b5 aa 3d
       -0.15165558 -0.07462721 -0.111825556 0.083354264
000090 d4 c3 8c 3d fc 49 c0 be 75 52 6e be 83 99 ba bc
       0.06873289 -0.37556446 -0.23273642 -0.022778278
0000a0 3e 93 85 3d 80 38 77 bc 8e c6 d4 bc 42 49 e8 3b
       0.06522225 -0.015089154 -0.025973585 0.007088811
0000b0 7f c0 55 3d 64 69 33 be 8b 12 90 3d b5 98 f8 3c
       0.05218553 -0.17520672 0.07034787 0.030346254
0000c0 01 e9 86 3e 54 a5 fc bd 1c 13 45 be 7c 0d 13 3c
       0.26349643 -0.12336221 -0.19245571 0.008975383
0000d0 94 0f 0f bd 5b 0d 81 be aa 95 8c be d3 b4 b7 bd
       -0.034926966 -0.25205502 -0.27457935 -0.08970036
0000e0 80 b4 0b 3e 69 0d 24 3e 50 70 d6 3d aa 98 a8 bd
       0.13643074 0.1602074 0.10470641 -0.08232243
0000f0 6e 95 8c bd 0d f3 9c bd a7 6e 4b 3e dc c3 31 bc
       -0.06864439 -0.07663546 0.1986643 -0.010849919
000100 42 8e 90 3c ba 1f dc 3d e9 05 23 3e 5f 89 d2 bd
       0.017645959 0.10748239 0.15920223 -0.10280108
000110 82 8b bf 3e d6 03 c5 3d d1 13 01 be 30 05 7e 3c
       0.37411124 0.09619872 -0.12605216 0.0155041665
000120 66 c9 dc 3d 3e 07 36 be 4f 44 5a be 3a 8b bb 3d
       0.10780601 -0.177762 -0.2131512 0.09157415
000130 69 f5 93 3c f2 c7 b2 3e 88 97 37 3d 5a 46 22 bd
       0.018061357 0.3491817 0.044822246 -0.039617874
000140 8d 04 2d bd 1c 37 31 3d 7f 5f fe bd 31 30 2c bd
       -0.042240668 0.043265447 -0.12420558 -0.042038146
000150 8c 4b c9 3d 48 8b 47 3e 50 95 22 3e 20 e1 eb bd
       0.098288625 0.19486725 0.1587727 -0.115175486
000160 bd ee 09 bd f4 fc 97 3d 6b ea 00 bd 78 85 72 3c
       -0.033674944 0.07421294 -0.03147356 0.014802329
000170 9a 45 54 3e 4d 8b 8f be 91 9a ec 3d 33 f2 05 3e
       0.20729676 -0.28035966 0.11552919 0.13080673
000180 a8 6a 03 bd fc 74 d0 be 0a df 16 3c ff 0c f1 bd
       -0.032084137 -0.40714252 0.00920845 -0.11770057
000190 e6 72 1b bd 8f b0 82 be 4c 9f c3 3d d7 ad 13 be
       -0.037951373 -0.2552533 0.09551868 -0.14421783
0001a0 e3 6e de 3d b0 ce f8 3d 8b d1 40 bd 0b e3 db bd
       0.10860994 0.121487975 -0.047074836 -0.107366644
0001b0 40 98 6a 3d de dc ed 3c 89 53 18 3e b4 4b 6d 3d
       0.057274103 0.029035982 0.14875616 0.057933524
0001c0 15 08 e8 3d 8f a3 3f 3d 9c a9 3e be 46 f1 69 3c
       0.113296665 0.04678684 -0.18619388 0.0142787155
0001d0 2f 92 e4 bd b0 2d ea 3d 7f 94 ae 3d c5 48 2d bd
       -0.11160695 0.114344954 0.08524417 -0.042305727
0001e0 af 44 ee 3d a9 be 49 3e f8 f0 ed 3d 79 eb c9 3d
       0.11634194 0.19701637 0.11618227 0.09859366
0001f0 4b 56 02 bd 05 b6 3a 3c 5c 95 fa 3d c0 09 e4 3d
       -0.031820577 0.011395936 0.12235519 0.11134672
000200 9e 7a 5d bd 1b 11 32 be 2f 19 41 3d c9 90 23 be
       -0.054072015 -0.17389338 0.047143158 -0.159732
000210 27 ac 01 be 35 ae 05 bd fc 43 4f bf 26 50 26 be
       -0.12663327 -0.03263684 -0.8096311 -0.16241512
000220 f9 6e e9 3e 37 da b2 3d ee e7 0b 3e 2a db b6 bc
       0.45592478 0.087330274 0.13662693 -0.022321302
000230 7d 67 83 be 61 be fc bd d0 55 26 3e ac a8 7f 3d
       -0.25664893 -0.123409994 0.16243672 0.062416717
000240 b9 f0 4e bd d5 06 a3 3e 0e 93 eb bd 67 5e 33 be
       -0.05052254 0.3184115 -0.11502658 -0.1751648
000250 7d 58 66 bc 7c f0 58 be a8 09 97 3d 77 26 15 be
       -0.014059183 -0.21185488 0.07374889 -0.14565454
000260 05 19 65 3c ad 30 ef 3c 87 2a 8e 3e f6 79 50 bd
       0.013983016 0.029198015 0.2776682 -0.05089756
000270 37 a6 86 3e 6f 9a 4f bd bc 19 2e 3e 75 b0 9c 3d
       0.26298687 -0.05068439 0.17002004 0.07650844
000280 56 05 a5 bc bf 1e 51 3c 6f 80 a2 bd 0e bf 8b 3d
       -0.020144146 0.012763678 -0.07934653 0.0682355
000290 b9 f0 37 3e 11 a7 8d bd 95 ce 0e 3e eb fe 76 3e
       0.17962922 -0.06916631 0.13945992 0.24120681
0002a0 aa e1 13 bd 68 05 eb bd f1 96 dd bb 26 b4 c4 3d
       -0.036103882 -0.114756405 -0.0067623784 0.09604673
0002b0 da 56 8c be b7 31 ba 3d 43 ea 08 bf f7 6d 5b 3e
       -0.27410012 0.090915136 -0.53482455 0.21428667
0002c0 01 ad 71 bc 23 59 79 bd 84 ac 30 3d 1c e3 ad 3c
       -0.01475072 -0.060876023 0.043133274 0.021226458
0002d0 f0 9d c5 3d 01 d6 3a bd c7 f8 9f 3d c6 8a 3f 3d
       0.09649265 -0.045614246 0.078111224 0.046763204
0002e0 ea 66 88 bd 42 67 23 3d 6c 51 79 bc 18 bc 53 3b
       -0.06660254 0.039893396 -0.015217166 0.0032308158
0002f0 4f 95 a2 3d d0 5d 80 3d a4 ec 0e 3e d1 a9 4e 3e
       0.079386346 0.06267893 0.13957459 0.20181967
000300 42 ce 99 bd d5 35 87 3d f2 31 bb 3e 2a 38 e2 bd
       -0.07510044 0.066020645 0.36561543 -0.11045869
000310 6f ba 01 be 82 e2 aa be 1c f0 ab be f3 70 7b be
       -0.12668775 -0.33375937 -0.33581626 -0.24554805
000320 4d 13 53 bd 4d d8 34 bf 36 67 1a 3d 4c 75 2e 3d
       -0.05153208 -0.7064255 0.037696086 0.04259233
000330 a0 5d 0a be 80 a2 ee bd 03 d4 84 be 39 0d 22 be
       -0.13512278 -0.11652088 -0.25943002 -0.15825357
000340 76 f1 a1 3d 95 08 ce bd cd 03 fe bd 2c 37 1c be
       0.07907383 -0.10060231 -0.12403069 -0.15255421
000350 dc 0e 00 3e 93 60 00 be 84 86 80 3d 23 bd a6 3c
       0.12505668 -0.1253684 0.06275657 0.02035386
000360 34 0b 56 bd 16 6d 18 3e 01 26 57 bd a7 a0 00 3e
       -0.052256778 0.14885363 -0.052526478 0.12561284
000370 09 39 90 bd 28 64 6f 3d ec 2d cc 3a 45 d1 3f bd
       -0.070421286 0.058445126 0.0015577651 -0.046830434
000380 0e 90 c1 be 97 c7 a9 3b 90 85 9f 3d ac c0 04 3e
       -0.37805218 0.0051812637 0.07789147 0.12964123
000390 93 ee 11 3e 61 ee 88 3d 44 25 d8 bc 38 03 f2 3d
       0.14251165 0.06686092 -0.026384957 0.1181702
0003a0 32 e8 61 3e 66 30 76 bd 29 70 db 3d 51 d7 95 bd
       0.22061232 -0.06010475 0.10714752 -0.07316459
0003b0 a4 ec 29 be b4 e4 8a 3d 9b 6f 12 3e ae 77 8f bd
       -0.16594177 0.06781903 0.14300387 -0.07005249
0003c0 9f e8 5b 3d 12 fd c6 be e9 e2 f8 3c 20 c9 b1 bd
       0.05368864 -0.38864952 0.030381637 -0.0868094
0003d0 59 86 e2 bc a7 09 e7 bd 94 3a 9f bd e0 df 01 3d
       -0.027651953 -0.11281138 -0.07774845 0.031707644
0003e0 22 7d df be b9 35 b0 3d 90 cc da bd 37 b3 b5 bd
       -0.43650156 0.08603997 -0.106835485 -0.08872073
0003f0 99 88 91 3d bd 05 c4 3d 6e d7 0c be be e5 bb bd
       0.07106132 0.09571407 -0.13754055 -0.09174679
