CRL/模型集_opponent/train_20260124-140944/slime_ppo_vs_fixed.pth (torch, 370495 bytes, 11 tensors)

critic.0.weight f4 [256, 48]
00000000: 4a00 3ebe dbe8 84bd d945 323c 398f d93c
00000010: e765 4fbd 0063 97bd 702f d23c cca9 3f3d
00000020: 3ec2 b8be ba2c 45bd 0964 4dbe 0cc1 a63d
00000030: 3677 50be 671d 87bd 55c5 123c 9d50 ac3b
00000040: 910b f2bd 89cb d6bd 08c6 043d 378b dd3c
00000050: a318 3fbe 3f1a 1bbd ee75 53be 6222 f8bd
00000060: f65d 453c 2bc2 b3bb 97c3 3f3c a0d6 2e3d
00000070: 0c0a 4d3d b4da d3bd 26c7 1c3d a62c aa3b
00000080: 5a13 7bbd a89e 453d d05c 0ebe 1576 3fbe
00000090: 3acc 06be 8ce6 7a3d f241 ad3b c835 d7bc
000000a0: 08c1 f73d 7430 20be a4cd 4c3d 5251 78bd
000000b0: 2d48 62bd 5fda cb3d 0d55 a13e 0435 9abd
000000c0: 537d 093e e296 a9bd 1947 2fbd c365 743d
000000d0: 472e 56bd 396d e4bd 0443 0b3d 7608 24bd
000000e0: 4bf9 91bc 5654 96be a1f9 52bd e2cd 08be
000000f0: 81a6 0f3e 7d11 f0bd 2050 48bd 87b8 1cbb
00000100: 4f92 cc3d 410b 09be d071 3e3d 1b7a a43c
00000110: 70db 503b ec95 b0bd ec9b cbbd 59db 42bd
00000120: 24a3 283e 3949 3cbd 4e93 5bbd ca6d 01bd
00000130: a10d 09be 5aa0 14be 61db 753d 403c b53b
00000140: 032b 583e 3177 a33b faee 543c fdb9 c1bc
00000150: 6fe9 853d c0c2 bc3d c924 5cbd 4a8f 1e3d
00000160: 67a5 15be 4edf bfbd 3302 773d e7b0 83bd
00000170: bf54 e33d 1d5a 4d3e 2f98 d2bd 8992 c63e
00000180: fb96 933e aebd 983d bb6e d93c 9c8f 59bc
00000190: 4f6c fbbc 0767 353d 4736 39bd 651c 31bd
000001a0: ef4b 7bbd 71ee edbe 882a ae3e 83ac 433e
000001b0: accd 3b3e b00f 333d c69f 043d 98d2 4fbc
000001c0: 2f0a 2fbe fcb1 9e3d 1aac 0dbd 03ae 843d
000001d0: 9b14 443e 0460 85be 17f3 0e3e d4c0 4f3c
000001e0: 2c10 093e 3a1b 423e 86a7 0f3d 69b8 f1bb
000001f0: c7f5 3abc 359e e3bb ad75 2ebd 929f 36bd
00000200: 0c4a a83d 85f6 dbbd 035c 3e3c b018 adbd
00000210: 6c26 953e 1849 b5bd 5550 1c3d 0c47 20bd
00000220: f93f 0cbe db5d adbd 7767 11bd 921d 8abe
00000230: 81ff 693e a649 29bc 808b b6bd 7efa 693d
00000240: 9a2c 8a3e 3036 b9be 0be6 9b3c 9136 423d
00000250: bb1a 6a3c b46f 2d3e ca0e dcbb d429 913b
00000260: 503c 47bb 7650 2bbf 6716 1cbe f7e1 5e3d
00000270: fff1 0b3e 9e56 b9be 75d2 093d 685c d23c
00000280: e8d6 8bbd df23 783e 6680 eebb d225 823c
00000290: 994c 593e eed7 1fbf fc8e 8bbd 4b74 af3e
000002a0: a6fb 9b3d df60 82be 7a8d 083d 4ae5 5bbd
000002b0: 1549 a33d ab61 b73d 8bc2 1ebb 2c69 823c
000002c0: 38c9 f53c bc4d d5be b44c f4bd 724f 913e
000002d0: c757 7c3e 0d07 39be 01bd 333d f3c1 c23d
000002e0: 6ff9 573d 7616 3b3e 0824 1b3b e137 d9bc
000002f0: 33bf 993e feca 29be bca7 7e3d ce38 083e
00000300: ad7d d83d 928e b33a 735e 003d e17b aebc
00000310: ed89 b83e 8752 afbc 3599 adbc efa5 2dbd
00000320: a7dc 323e c790 4fbe 21ec 003e 8201 b9bd
00000330: 45f5 babd 4f26 e9b7 70f6 ea3c 8000 c8ba
00000340: 5527 b73e b50a f1bc 32d2 6ebc 5af7 d5bc
00000350: 5cfa ea3d b49a 17bd 6a7c eb3e 9f95 ed3c
00000360: 3b11 b4bd abdc f43c 0d7c d63c 4025 023d
00000370: c54c 823e d427 e4bc 4a72 debb e3bc 353c
00000380: b1f4 823e 8796 88bd b3d7 353f f833 893d
00000390: a53d 0a3e e747 1b38 9410 973c 3160 a23c
000003a0: d133 723e e1cd 103e d100 d8ba 980f b3bc
000003b0: 5d37 e53d 95ec 5cbe cae6 613f 21df 02be
000003c0: bc3f 07bd 55b5 d1bb 11f6 31bd 131a 38bd
000003d0: ff83 803d 3147 97bd 3358 8c3b c56a 96bc
000003e0: 5705 503d 6151 0c3e a462 af3d d9ab 1abd
000003f0: d117 c5bd 2a8d e43b 28f2 39bd 92ca edbc
-0.18554798 -0.06489726 0.010880911 0.026557552 -0.05063429 -0.073919296 0.025657386 0.04679279
-0.36085695 -0.048138358 -0.20057692 0.081422895 -0.20357975 -0.06597405 0.00895818 0.0052586333
-0.11818612 -0.1048804 0.03241542 0.027043922 -0.18661742 -0.037866827 -0.20650455 -0.12115933
0.012046328 -0.005485793 0.011704347 0.04268515 0.05005841 -0.10344449 0.03827586 0.005193311
-0.061297752 0.04824701 -0.13902593 -0.18697388 -0.13163844 0.061255023 0.0052874023 -0.026270762
0.12097365 -0.15643483 0.0500008 -0.060624428 -0.055244613 0.0995376 0.315102 -0.07529643
0.13426714 -0.08280732 -0.042792413 0.05966736 -0.052290227 -0.11153645 0.033999458 -0.04004713
-0.017819067 -0.29361218 -0.051507596 -0.13359788 0.1402836 -0.117220856 -0.04890454 -0.0023913698
0.09988844 -0.133832 0.04649526 0.020077756 0.0031869076 -0.08622345 -0.09941849 -0.047572467
0.16468483 -0.045968268 -0.053607278 -0.031598844 -0.13384105 -0.14514294 0.06002367 0.005530864
0.21110158 0.004988574 0.01299643 -0.023648256 0.065386645 0.09216833 -0.05374602 0.03871087
-0.14613877 -0.09368764 0.06030483 -0.06430226 0.111001484 0.20053907 -0.10282933 0.38783672
0.28826126 0.074580535 0.026542058 -0.013278868 -0.030691294 0.044287708 -0.04521778 -0.04323997
-0.061351713 -0.4647098 0.34016824 0.19108777 0.18340176 0.043716133 0.032378934 -0.012684487
-0.17093728 0.077487916 -0.034587957 0.064785026 0.19148485 -0.26049817 0.13959919 0.012680251
0.13385075 0.18955699 0.035071872 -0.0073767197 -0.011411137 -0.00694635 -0.042592693 -0.04458577
0.08217248 -0.10740379 0.011618617 -0.084519744 0.29130876 -0.08851832 0.038162548 -0.039130256
-0.13696279 -0.08465167 -0.035499062 -0.26975685 0.22851373 -0.010332501 -0.08913326 0.057123654
0.26987153 -0.36174154 0.019030591 0.04741532 0.0142886 0.16937143 -0.00671563 0.004430035
-0.003040094 -0.6691965 -0.15242921 0.054414716 0.13666533 -0.36198896 0.033647973 0.025678828
-0.068280995 0.24232434 -0.00727849 0.015887175 0.21220626 -0.6243886 -0.068143815 0.34268412
0.076163575 -0.25464532 0.033338048 -0.053685464 0.07972924 0.089541756 -0.0024224843 0.01591929
0.030003175 -0.4166087 -0.119286925 0.28380924 0.2464286 -0.18069096 0.04388142 0.09509649
0.052728113 0.18270287 0.00236726 -0.026515903 0.30028686 -0.16581342 0.062171683 0.1330292
0.10570846 0.0013699105 0.031340074 -0.021299304 0.3604273 -0.021401657 -0.021191219 -0.042394575
0.17466985 -0.20270072 0.12590076 -0.09033491 -0.09128813 -2.7793603e-05 0.028681964 -0.0015258938
0.35772195 -0.02942405 -0.014576482 -0.026118923 0.114735335 -0.03701277 0.45993358 0.029002009
-0.08792349 0.029890379 0.026182199 0.031773806 0.25449196 -0.027851023 -0.0067885267 0.011092397
0.2557731 -0.06669336 0.71032256 0.066993654 0.13500078 3.7021844e-05 0.018440522 0.019821258
0.23652579 0.14141037 -0.0016479735 -0.021858022 0.111922 -0.21574624 0.8824278 -0.1278043
-0.033019766 -0.0063997903 -0.043447558 -0.04494674 0.06275176 -0.073866256 0.004282975 -0.018361459
0.050786342 0.13702919 0.08563736 -0.037761543 -0.09623683 0.006974836 -0.045396954 -0.029027257

critic.0.bias f4 [256]
00000000: 6ddd 413e e836 b83e dd90 c5ba 04d9 5c3d
00000010: 51f7 78bc 67de 5bbe be29 8c3d e449 02bd
00000020: 9f56 64bc 4205 19be 1cd0 2a3e 6287 a33e
00000030: 4033 243f 8b95 2a3f 1240 003e d29f 86be
00000040: b9f6 2cbe e04c fb3e 500d 8cbc fb65 8fbc
00000050: 925c e2be 72f4 4dbe 9d98 f9bd 1b6e 2d3e
00000060: 6262 883d e0a5 d33e bdf7 cebd 3470 7f3e
00000070: 6fc7 a73c 4303 45bd d2c5 913e c394 acbd
00000080: ffeb 96be 61cd aa3e 8dfc ac3c 35cc 49bf
00000090: 73ac 7f3e 31d7 ba3e a8e6 ff3e 12f4 dcbe
000000a0: c6cb a43e 99f7 23be af8a 1ebe 5749 0d3f
000000b0: 80f0 51be a708 553e 855f af3e a587 76be
000000c0: 5fd7 67bd b520 533e 9080 08bf bdbd fb3c
000000d0: 6763 14bf 49ba 1fbf d9dd df3e e0e6 6ebe
000000e0: 0c22 893d 497a 0bbf af9f 4dbf e3ac a3bd
000000f0: 499c 7fbe d22f fa3d c81b 53be 90c9 28bf
00000100: 572d 86bc 22f2 9ebe ddb3 f3bd 9f21 afbe
00000110: f207 ce3e 28a8 493e 5eb9 083e 77b5 4d3d
00000120: 654d f83d 833c 2fbe 728a 8cbd abf7 2e3e
00000130: cd79 5fbf d661 8f3e 1c0a 6fbe a4af e4be
00000140: a817 d7be cd9b 1fbe 7851 bb3d 5cf9 8ebe
00000150: f198 1c3e ebee aebe a4c5 08be d586 1cbe
00000160: b214 79be 3108 1c3e e649 be3e 35b4 cc3e
00000170: b776 88bd 88c4 e03d 2852 b6be c1c3 ffbd
00000180: f4ac cdbd 4ac4 443d 2cb5 673e ed9a 863e
00000190: b61e 2b3e 631e 68be d335 433e 1556 2bbe
000001a0: 6369 2bbd 605d 78be db0c ec3d c84d fb3d
000001b0: c5ee babc ea4c bcbd 2c6a 03bf a438 9cbe
000001c0: 64e5 c1bd fbca 9dbe a6ee 72bd 9e16 2d3e
000001d0: 8c39 a1be acf0 e6be 4dc2 333c 2479 4d3c
000001e0: 1742 4f3e 357e f43b 02a2 0a3e ed1c 043e
000001f0: 5f26 333e e1b3 36bd 8c0a 8ebe 7d2b 26be
00000200: 89dd 4b3e d5e8 873e 3b57 05be 8190 ac3e
00000210: 6906 88bd 797d 103d 39d8 823d 2ec1 77bc
00000220: 62c9 803d 0696 88bd 6394 303f e806 d3be
00000230: 1384 4dbe 2cf3 98bf e9fb b6bd 6a7e 423e
00000240: 5c0b 6a3e 4beb f53e 5acd 81be a101 f6bc
00000250: 4134 173f 3fec 97be 58ac 5fbe f142 413d
00000260: 8d58 573d 469b 733e d041 25be c9c9 873d
00000270: 194d 103e 1711 19be 7dda 73be ff7c 9bbd
00000280: 8525 12bd e8bc 9c3e caca be3e 0a9e 3cbe
00000290: bfe3 65be f10e a0be 5abd cbbe 3433 44be
000002a0: de54 abbe 5b3b 803e c879 8c3e 4a25 17be
000002b0: aa86 e9be 503f 283e c791 e93e 3a63 6e3e
000002c0: b426 9d3e 42ce 55bd ce30 f33d 9a17 36bd
000002d0: 7cdf bd3c 74cf fabe 1199 24be 2463 9a3e
000002e0: 5669 003f f35f 2e3d 2d50 31be 5fad 963d
000002f0: f5fb 9c3e a765 dd3e b09c e23e c80f a03e
00000300: e522 91be 909e 713e 3b77 4bbc 4685 f4bd
00000310: 03c3 de3b 381c 24be 160f e73d b9c4 283e
00000320: b5a6 e63c 17aa f8be d52b 0dbf e81a 33be
00000330: c3cb debd 38fa 3bbe 193d 0bbe f94e 8b3d
00000340: 1ff6 b03e 4e48 f03d c219 013e b35a 933e
00000350: 48f9 42bd 0434 e33d 7ba2 8ebd 1695 163e
00000360: 6752 1fbe 551f df3e 5dcc f13d b612 8ebe
00000370: 41ae c7bd ae3d 1ebd c841 1b3d 39a3 893e
00000380: dcfc 12be 2793 28be 72c6 24bf 1bb9 46be
00000390: de9c ac3c 8819 2dbf c584 9e3e 520a 42bd
000003a0: 7a58 19bf 75db 8ebd 669a 41be 0fb7 d2be
000003b0: 4f5b 1c3c df75 a23e da3a 5e3e e57b 383e
000003c0: ce1e 08bd aab0 05bf 3866 dc3b 71ee 49be
000003d0: 0926 44bf 0435 383e 5e05 403e 12c2 d6be
000003e0: 9203 173f 058b ecbe 3c7d 12be 99d5 80be
000003f0: 3749 1a3e ef28 843e 497a 81bc 3e93 ee3e
0.18932123 0.3597939 -0.001507308 0.0539179 -0.015195684 -0.21471559 0.06843899 -0.03180875
-0.013936668 -0.14943412 0.1668095 0.31939226 0.641407 0.66634434 0.12524441 -0.26293808
-0.16890992 0.49082088 -0.017096192 -0.017504683 -0.4421125 -0.2011278 -0.12187312 0.16936533
0.0665939 0.4133749 -0.10105846 0.24945146 0.02048084 -0.048098814 0.28471237 -0.084268115
-0.29476926 0.33359817 0.02111652 -0.7882722 0.24968128 0.36492303 0.49980664 -0.4315496
0.32186717 -0.1601242 -0.15482591 0.5519003 -0.205019 0.20804082 0.34252563 -0.24075182
-0.05660188 0.20617945 -0.5332117 0.030730123 -0.57964176 -0.62393624 0.43723944 -0.2333026
0.06695947 -0.5448347 -0.8032178 -0.0799196 -0.24961962 0.12216152 -0.20616066 -0.6593256
-0.016379042 -0.31044108 -0.118995406 -0.34205338 0.40240437 0.19693053 0.13351962 0.050221886
0.12124137 -0.17112927 -0.06862344 0.17086665 -0.8729523 0.2800433 -0.233437 -0.44665253
-0.42010236 -0.15586777 0.09146398 -0.2792462 0.15292718 -0.34166655 -0.13356644 -0.1528581
-0.24324301 0.152375 0.37165755 0.39981237 -0.06663268 0.10974985 -0.35609555 -0.12488509
-0.10042754 0.04803876 0.22627705 0.26290074 0.16710934 -0.22667842 0.19063501 -0.16732056
-0.04184855 -0.2425437 0.115258895 0.12270695 -0.022818932 -0.09194358 -0.5133388 -0.30511963
-0.09467581 -0.30818924 -0.059309624 0.16903159 -0.31489217 -0.45105493 0.010971618 0.012541089
0.20240055 0.007461334 0.13538364 0.1290166 0.17495106 -0.04460514 -0.27742422 -0.16227527
0.19908728 0.26544824 -0.13021557 0.33703998 -0.06641848 0.03527591 0.063888974 -0.015121741
0.06288411 -0.0666924 0.6897642 -0.41216207 -0.20069914 -1.194921 -0.08934767 0.18993536
0.22855896 0.48031077 -0.25351983 -0.030030074 0.5906411 -0.2967243 -0.21843088 0.04718298
0.052574683 0.23789701 -0.16138387 0.06630284 0.1409191 -0.14947926 -0.23813815 -0.075922005
-0.035680313 0.30612874 0.3726409 -0.18419662 -0.2245016 -0.312614 -0.397929 -0.19160157
-0.33463186 0.25045285 0.27436662 -0.14760318 -0.45610553 0.16430402 0.45619032 0.2328004
0.3069359 -0.052198656 0.11874543 -0.044456102 0.023177855 -0.489864 -0.16074015 0.30153763
0.5016073 0.042571973 -0.17315741 0.07357287 0.30660978 0.43241617 0.44260168 0.3126204
-0.28346935 0.23595643 -0.0124185635 -0.119394824 0.0067981496 -0.1602639 0.11282174 0.16481294
0.028155664 -0.48567268 -0.5514501 -0.17490733 -0.10878708 -0.1835717 -0.13597526 0.06802172
0.34562775 0.11732541 0.12607482 0.28780136 -0.047601014 0.110939056 -0.069645844 0.1470531
-0.15558778 0.43578592 0.11806557 -0.2774865 -0.09750033 -0.03863304 0.03790453 0.26882342
-0.1435427 -0.16462384 -0.64365304 -0.1940655 0.021070894 -0.6761708 0.3096067 -0.047373123
-0.5990063 -0.06975452 -0.18906555 -0.41155288 0.009543254 0.31730554 0.21702138 0.18016012
-0.033232503 -0.5222269 0.0067260526 -0.19719864 -0.7662054 0.17988974 0.18752047 -0.4194494
0.5898982 -0.46199813 -0.14305586 -0.25162962 0.15066992 0.2581248 -0.01580538 0.46596712

critic.2.weight f4 [128, 256]
00000000: 76a5 40bd 666e 033c 686a be3c c625 163e
00000010: f106 28bd 5bdf 61bd 2f9e 3bbd 0282 bebd
00000020: d73d 283d bde2 363c 79bc c63e 450c e43d
00000030: baa1 843c 1844 ac3d 4ef2 2a3c ad97 6a3b
00000040: 9540 8f3d 56f4 07be cbcd 84bd b36e 8f3d
00000050: caeb 1cbd 77c1 afbd ddf4 d33d f77c 5dbb
00000060: 685a 0dbe 1296 4f3e 1413 ca3d 7b09 1bbd
00000070: bbe1 b73d 7299 bebc 76b1 253c 851c bb3d
00000080: 8f80 84bc 6573 583d b7cf cabd 7cc8 8abe
00000090: e04c 80bd c7b3 efbd 79f3 7d3c c8c3 f0bd
000000a0: df95 113d 7758 51bc b196 da3c 4f58 b4bd
000000b0: 5385 e5bf 9114 6d3c 6500 36bd 3322 dc3b
000000c0: 95cd 083d 5e61 44be 1225 8b3e 8a47 89bd
000000d0: c687 3b3d c890 16be 0936 62bd d873 9f3d
000000e0: edb2 9fbd 5cf7 023d d04b 1dbe 14bb 6bc0
000000f0: 02e8 04bb 459e 723d d3ff 613e bd54 a4c0
00000100: 7cd6 123e d45e b5bc b661 c7bb d30f 22be
00000110: 36e8 163d 6ba1 a7bc 5171 26be a70f 093d
00000120: 42f5 423d e6eb 4dbe ccbf 30bd f0ee f53d
00000130: 4974 dc3d 9c94 cabc 82d4 42bd 15c9 853d
00000140: 5b8c adbd 63c5 a73d 30da 283c d2ca c23c
00000150: 583e 9c3d 51af efbd b3e7 da3b 0387 8bbe
00000160: 81d1 593e 6f33 9fbc cf01 b0bd 64bd d03d
00000170: 25ad 593d 15b3 d63d 2461 a5bd 5981 5cbd
00000180: c3df 903c 02c9 b83c 17f0 1bbe b5e2 993d
00000190: 9c69 853d eee8 fe3d 893e b6bc d77e 38bd
000001a0: d2af 443e 613f 32be 3d68 6bbd 6481 aa3c
000001b0: 0fa4 433d 3a9a 753c cb7b 2d3c 7e30 0c3e
000001c0: 4444 bf3d 9702 80be e222 a5bb d2e8 f5ba
000001d0: 5ac1 cbbd db2e ccbc 21b2 693d 93e1 5bbd
000001e0: 5fb4 aebd 56ee 803d 9a54 b1bb 93fb 9f3e
000001f0: 7660 9c3e da62 25bc 478d cfbb a592 033d
00000200: bf07 63bd 20e3 52be 7cb4 79be b5cc d1bd
00000210: 1a4b 183d 7bf2 2fbd fd77 303a 8b50 483c
00000220: 3eca 93be 7039 7d3d 3500 333d 1dae e93d
00000230: 3722 12be 0564 0bbd f848 2cbc 0d9e 2abd
00000240: ea28 1dbe f7d2 3b3d 33a2 be3c be9c 293d
00000250: 2894 fd3d 5a3f 39be 1f03 ee3d 1827 da3c
00000260: a1ce 4ebd c3fb 2a3d a0b7 a2c0 605e 24bd
00000270: be14 9fbd 22b2 cf3d 6752 03bd 53cc 703d
00000280: 9150 e6bc 8180 61be 6e14 efbc 2e9e a43d
00000290: 5edc 473d c692 e63c 89cb babe 3557 633d
000002a0: b310 69be e29b 343d 1013 d63d c150 3ebd
000002b0: 7c38 5f3d 3302 d73c 64d2 9d3d dfe0 da3c
000002c0: 5a65 f63d 5911 4ebd 08c8 3dbe 1d96 88bd
000002d0: 1220 233d b523 0c3e 37f7 cc3d ddde f63c
000002e0: d8bb 4cbd bca8 0e3d a134 08bc 8467 dabc
000002f0: 14a0 3dbc dae2 e3bd d63c 903e 2e11 393d
00000300: 725d 473d 1b20 ff3c cac3 c93c c52f b1bd
00000310: eb79 8dbc 1034 45bd 2741 bd3d e49b 45bb
00000320: 8ac1 7c3d d913 d73d 853b fd3c 584f 683d
00000330: c193 5d3b 4f7a 22bc 7640 083e e7cc 33bd
00000340: e0b1 0e3b 1464 8f3d 03a1 a7bb 7c0d 783d
00000350: b207 b3bd ad07 aebc 0a4e 0dbe bef5 843d
00000360: a050 b7bd 37f4 383d d3ba 06bf c656 92bd
00000370: 7b26 f7bc 5581 54be 0c06 b83d d3ae 553c
00000380: ca96 3abd 5084 2abd 1403 1e3b d685 2fbd
00000390: 98f0 8c3c 4204 d1be 9f13 02bb a864 03bd
000003a0: a1c6 50bd e2c9 7fbd 5320 b7bd 7ba4 803d
000003b0: 246b fa3a 0f59 72bd c258 023d 2554 9a3b
000003c0: 0815 0abd 21e4 91be d7be c83d 8bb8 2c3d
000003d0: a0b9 bcbd 0ee5 a1bd c8ee 2e3c 1d73 483d
000003e0: 9f7e 7e3d 3c52 623d 33ee a6bd df55 a6bc
000003f0: 1b17 513e c1a4 d53d 9f6b bbbd 96ea b63d
-0.047032796 0.0080219265 0.023244098 0.14662847 -0.041022245 -0.05514465 -0.045805153 -0.09302141
0.0410746 0.011162457 0.38815668 0.11135153 0.016190398 0.08411425 0.0104337465 0.0035795972
0.0699474 -0.132768 -0.064845644 0.07003536 -0.038310803 -0.08581822 0.10349438 -0.0033796409
-0.13804018 0.20272091 0.0986692 -0.03785084 0.089786015 -0.023266528 0.010113111 0.09136299
-0.016174583 0.052844424 -0.099029 -0.27106082 -0.06264663 -0.11704212 0.015499943 -0.11756092
0.03554332 -0.012777439 0.026683183 -0.08805906 -1.7931312 0.014470235 -0.04443397 0.006717944
0.033399183 -0.19177768 0.2717672 -0.06703098 0.04578378 -0.14703667 -0.055227313 0.07785767
-0.07797799 0.03197418 -0.15360951 -3.6832933 -0.002027989 0.05923297 0.22070245 -5.135344
0.14339632 -0.022139944 -0.006084646 -0.15826349 0.036842547 -0.020462712 -0.16254164 0.033462193
0.047597177 -0.2010952 -0.04315166 0.12008464 0.10764367 -0.024729066 -0.047565944 0.06532494
-0.08474036 0.081919454 0.010305926 0.023778353 0.076290786 -0.11703361 0.0066804527 -0.27251443
0.21271326 -0.019433705 -0.08594095 0.101923734 0.05314364 0.10483376 -0.08075169 -0.053834293
0.017684823 0.022556785 -0.15228306 0.07513944 0.06514284 0.124467716 -0.022246616 -0.04504284
0.19207695 -0.1740699 -0.057472456 0.020813651 0.04776388 0.014990384 0.010588597 0.13690373
0.093391925 -0.25001976 -0.0050395587 -0.0018761402 -0.09948988 -0.024924686 0.057054643 -0.05368192
-0.08530497 0.06295459 -0.0054116966 0.31246623 0.30542344 -0.010094369 -0.0063339802 0.032122273
-0.05542731 -0.20594454 -0.24385256 -0.10244123 0.037180997 -0.042955857 0.0006731747 0.012226234
-0.28865236 0.061822355 0.04370137 0.114101626 -0.14270864 -0.034030933 -0.010515444 -0.041654635
-0.15347639 0.04585549 0.023270702 0.041409247 0.12381774 -0.18090573 0.11621689 0.02662997
-0.050490025 0.041744005 -5.084915 -0.040129066 -0.07767628 0.10141398 -0.032061007 0.05878861
-0.028114589 -0.22021677 -0.029184546 0.08037983 0.048794143 0.028146159 -0.3648341 0.05550309
-0.22760276 0.044093974 0.10452855 -0.04646373 0.054497227 0.026246166 0.077061445 0.026718555
0.1203105 -0.050309513 -0.18533337 -0.06669257 0.039825507 0.13685496 0.1000809 0.030135566
-0.04998383 0.034828886 -0.008313329 -0.026660688 -0.01157381 -0.11127253 0.28171414 0.0451824
0.0486731 0.031143239 0.024629492 -0.086516894 -0.01727005 -0.048145354 0.092409424 -0.0030152733
0.06170801 0.105018325 0.03091217 0.056716293 0.0033809992 -0.009916856 0.1330584 -0.043896582
0.0021773502 0.0700151 -0.0051156296 0.060559735 -0.08741702 -0.021243894 -0.13799301 0.06492184
-0.08950925 0.045154776 -0.5262882 -0.07145457 -0.030169716 -0.20752461 0.08985528 0.01304217
-0.04555396 -0.04163009 0.0024110721 -0.042852245 0.017204568 -0.4082356 -0.001984812 -0.032078415
-0.050970677 -0.06244839 -0.08941712 0.06281372 0.0019105417 -0.059166964 0.031822927 0.004709738
-0.033711463 -0.2849436 0.09802025 0.04216818 -0.09215093 -0.07905017 0.010677047 0.048937906
0.062132474 0.055254206 -0.08150902 -0.020304618 0.2041897 0.10431815 -0.091513865 0.089314625

critic.2.bias f4 [128]
00000000: 5861 db3d 868c 93bd 80c7 9abd 4fce 513d
00000010: 4782 1e3d cd79 c93d b2e3 7fbd 164e 85bd
00000020: 42d0 b5bd 438c cc39 d496 81be e53f aa3d
00000030: f358 f43c c1ef 633d 06c3 0f3e bbd1 123d
00000040: 7da5 973c 1f5a 793d e598 c73d a0fc 923c
00000050: cd4f 073e b678 27bc 0e4d 0fbe 582e 71bd
00000060: 43f0 993d 0d1c 8cbd 64ef c43b 02ca 423d
00000070: e6f5 b53c 1722 b73d 3e82 4abe d151 cdbd
00000080: a1ac 81bc dfa7 80bd e0c3 74bc 3ac5 b63d
00000090: edca 193e a731 083e df10 993d 4717 b8bc
000000a0: b025 23bb 7cb4 1abd 4f40 6abd 611c 4dbd
000000b0: 6b1f 303b ed8f edbc 5861 83ba 3e55 01be
000000c0: 753d 373b 3364 043d 8391 733c 74d6 a0bd
000000d0: 9d3b 563d d57a 8d3b ffcf 3b3c b6c4 01bd
000000e0: 3549 6b3d 7c39 243d df14 873d 40c2 3ebd
000000f0: 2bb3 2b3c bc04 26bd a81a b9bd 8ad7 50be
00000100: 6c5d 1ebe 04c8 9cbd a630 8a3d 8db1 c3bd
00000110: 3f58 c3bd dcde a93c 494b a73b b5c5 cfbc
00000120: 49d7 613d 6656 b63d 727d a03d 3d7a 06bd
00000130: 1887 263e 54cc d4bd df8f c53d 6ce0 63bd
00000140: 2cf6 d3bd c250 8bbd e250 c1bc 203c 573d
00000150: 6f41 2d3d 0ace 1a3e 2e12 24bb b73b 1bbe
00000160: e4e0 073d 7ac8 ec3b 9dac a4bd b313 63bd
00000170: cc74 f73d 7329 74bc d312 29bd adc5 d0bd
00000180: bcad b33d 3f25 7ebd f7e2 d03d 8cdb 5d3c
00000190: f985 8a3d 686a af3c 6050 f2bd a93d 50bc
000001a0: e518 6dbc 6939 dbbc a649 b7bd e04d 9f3d
000001b0: e9f6 c33c 196b 8c3d f2c9 bd3d 4751 c43d
000001c0: 12e7 773c 44b3 f43b 6eb0 ae3d 90a3 ac3c
000001d0: 7fff 48bb 1526 063e 2b69 8e3c d50b f0bd
000001e0: a733 b83c df93 eabc d071 95bc b38a 8a3c
000001f0: 5a8a 0ebd 26cf 033d 170f 833d 9961 033e
0.10711926 -0.07204537 -0.07557583 0.05122214 0.03869846 0.09837685 -0.062473007 -0.06509034
-0.08877613 0.00039014415 -0.25310385 0.08312968 0.02982757 0.05564857 0.1403924 0.035844546
0.018511528 0.06087696 0.09745959 0.017942727 0.13214035 -0.010221651 -0.13994238 -0.058882087
0.075165294 -0.06841288 0.006009983 0.04755593 0.02221198 0.08942049 -0.19776246 -0.10025371
-0.015829386 -0.06282019 -0.014939278 0.08924337 0.15018816 0.13300191 0.07473921 -0.022472037
-0.002489429 -0.03776978 -0.057190236 -0.050075892 0.0026874195 -0.028999293 -0.0010023518 -0.12630174
0.0027960215 0.03232212 0.014866236 -0.07853404 0.052302945 0.0043176212 0.011463164 -0.03168174
0.057442863 0.040093884 0.06595778 -0.04657197 0.010479729 -0.04053186 -0.090382874 -0.20394722
-0.15465325 -0.076553375 0.0674756 -0.095553495 -0.09538316 0.02073615 0.0051054102 -0.025362829
0.055136953 0.08903198 0.07836427 -0.03283142 0.16262472 -0.10390535 0.09646582 -0.055633947
-0.10349688 -0.06802513 -0.023598138 0.052547574 0.04229873 0.1511766 -0.002503525 -0.15159498
0.033173457 0.007226047 -0.08040736 -0.05543871 0.12082824 -0.01490246 -0.041277718 -0.10193954
0.087733716 -0.06204724 0.1019954 0.013541114 0.067638345 0.021413043 -0.118317366 -0.012710013
-0.014471267 -0.026760774 -0.08949594 0.07778525 0.023921447 0.06856365 0.09267034 0.09585815
0.015130775 0.007467659 0.08529745 0.021074086 -0.0030669866 0.13100465 0.017384132 -0.11721007
0.022485567 -0.028634964 -0.018242747 0.01691184 -0.03479991 0.032179974 0.063993625 0.128302

critic.4.weight f4 [1, 128]
00000000: 82e1 053f f3db 48be 5604 b23e fe65 a4be
00000010: a355 763c b5b0 20be 421d 4cbe 3223 16bf
00000020: cbec 973e 4b4b 69be 2aa5 96bf 0007 e1be
00000030: fd12 34be 6cc2 803e 026c a13f 3f24 26bf
00000040: e21c 1140 61be 013e c110 cb3e b5ae 1c3e
00000050: d673 bf3f a7f1 ac3e 0001 b73e 1a9a 36bf
00000060: c68f b63e 0761 b23f abc9 cc3e c22b 84be
00000070: cc50 68be 8baf 603e 155e 113f a88c 033f
00000080: 37b4 c33e 8dd9 0fbf 64dc 3a3f 65be ca3e
00000090: 2e1b 8b3e 3106 bcbe 15f5 31be 2afe a93f
000000a0: a7ba 823e 2e0c 123f ec84 833e 0555 c53f
000000b0: cc8c 4f3e c0af 523f 3833 91be 4d2b 173f
000000c0: 9d3d 953f 9ea3 89be c83a 7d3f 73fc 813f
000000d0: 09df e6be a4e7 443e 4594 573f 1e8b 23bf
000000e0: 7586 403f 66f0 0f3f 837d f23e b666 403f
000000f0: 55e0 b2be 3e6e 9e3e ed92 ae3f 2326 ae3f
00000100: c521 a03f 1728 ce3e 225d 1bbf 4c34 7a3f
00000110: 61b1 0f3f 0305 f73e df70 f13e 54aa 12be
00000120: 04b8 8b3e 2770 0c3f 7ca1 3d3f 2cae d23f
00000130: a7ae 563f bacc 83bf 682d 9cbe a1f1 613f
00000140: 7a74 c9be c35b cb3c bb76 bb3f 226b 75be
00000150: 89f0 353f a9ac 0e3f e28f 903f 5845 5d3e
00000160: 7e45 22be be43 3dbe 937c 1a3f a2f5 55be
00000170: 653b 35bf 87a5 c5bf 452a 8abe e686 a6bf
00000180: a563 0abf 6174 3cbe 0846 2a3f f749 16bf
00000190: 58ab 813f 1256 9abe ce33 e1be abb7 583e
000001a0: d873 533e 2a09 91be fe31 453e 26be 14bf
000001b0: d80e 8d3e 298f 883e 3347 fc3e ef74 c13e
000001c0: 7628 87be 0682 073e bda0 0340 81d5 8fbf
000001d0: 4f08 14bf 5051 fd3e d8d2 29bf 1b81 1b40
000001e0: 39f6 3e3f d3b7 df3c fb49 62be 8322 8bbf
000001f0: 3178 0bbc 19bb ef3f ccba a5be 344f 88be
0.5229722 -0.19615154 0.34768933 -0.32109064 0.015035066 -0.15692408 -0.19933036 -0.58647454
0.29672846 -0.22782628 -1.1769154 -0.43950653 -0.17585368 0.25148332 1.2611086 -0.6489906
2.2673879 0.1267028 0.3966122 0.1530102 1.4957225 0.33778116 0.3574295 -0.7132889
0.35656565 1.393586 0.3999761 -0.25814635 -0.22687072 0.21941964 0.5678418 0.513865
0.3822343 -0.5619133 0.7299254 0.39598384 0.27169174 -0.36723474 -0.17378648 1.328069
0.2553303 0.57049835 0.2568735 1.5416571 0.20268553 0.82299423 -0.2835939 0.59050447
1.1659428 -0.26882643 0.9891782 1.0155166 -0.45092037 0.19228989 0.84210616 -0.6388415
0.75205165 0.56226194 0.47361383 0.75156724 -0.34936777 0.30943483 1.3638588 1.3605388
1.2510306 0.4026496 -0.60688984 0.9773605 0.56130034 0.4824601 0.47156426 -0.14322788
0.2728883 0.5485863 0.7407453 1.6459403 0.8386025 -1.0296853 -0.30503392 0.8825932
-0.39346677 0.024824029 1.4645609 -0.23966649 0.7107015 0.5573221 1.129391 0.21608484
-0.15846822 -0.18482873 0.60346335 -0.20894483 -0.70793754 -1.544114 -0.26985374 -1.3009918
-0.54058295 -0.1840377 0.6651311 -0.5870661 1.0130415 -0.3014379 -0.43984836 0.21163814
0.2064966 -0.28327304 0.19257352 -0.58102643 0.27550387 0.26671723 0.4927307 0.37784526
-0.26398057 0.13233194 2.0566857 -1.1237031 -0.5782518 0.494761 -0.6633735 2.429755
0.74594456 0.027309334 -0.22098534 -1.0869907 -0.008512543 1.8728973 -0.32369077 -0.26622927

actor.0.weight f4 [256, 48]
00000000: 635a 633e 30db 053e e29c c1bd 64bc d03c
00000010: 6c46 0c3e 2bb9 35be 4300 ee3d fea5 ff3b
00000020: e8d5 49ba 4e6a bf3e 334b e6ba 6071 163c
00000030: 7592 983e 21fa 2e3e 5573 b5bd 71d0 d4bd
00000040: ec0d d53c 7418 1fbe 4d29 603e 2cff 71bc
00000050: b6b6 b2bd 4a29 4b3e d731 2c3e 813d 8a3b
00000060: 0212 853e 4a59 5a3c 7a5e ffbd 1bea d6bd
00000070: 06b2 d13d ed0b d4bd 03fe ddbc 4d8b a9bd
00000080: c7d6 113a 1c8b a43e 83bc 25be 332d 073d
00000090: 4174 933e 9045 cd3d 56b4 8bbd 6c36 20be
000000a0: de96 3a3e 07d2 3fbe 7be9 533d b2bb bdbd
000000b0: 1320 8cbe bbf6 403e 5c24 4bbe 6780 2d3e
000000c0: 6a7e 693e c617 b13e 178e c33d fbe6 1bbe
000000d0: 091b 08bd 6641 c53d 21f6 f8bc e303 e6bc
000000e0: 8348 01be 802a 5f3c 4e56 8abd bce0 13be
000000f0: 17c1 333e 6d18 bc3e 23be 153e a843 363d
00000100: 28a2 62be db61 07be 33d9 4a3c 9af2 1c3d
00000110: 60fe 09be 8be2 6ebd be89 43be dc79 683b
00000120: caea 8d3e 6741 aa3e fb4c 843e b0df b23d
00000130: be16 17be 3bb6 5dbd 53da 98bd 0de9 1d3d
00000140: a5a3 75be a55a 6b3d ad72 5dbe c7be 93bc
00000150: 61ad cb3e 3089 a43e cbdf 0a3e de67 d2bd
00000160: bdb1 95be a3f7 983c d08f 23bd 6ab6 503c
00000170: 6efa adbe 8815 273e 57d6 3abe 8b22 443e
00000180: 9f32 dbbe 1392 503d 6511 3abd 38d8 a6bc
00000190: 8d76 253e 1d4e ce3d 8f1f e6bc 5d23 983d
000001a0: ba9b 0f3c 6460 99be f00c cd3c 06f9 fbbd
000001b0: 9919 f4be 0c03 19bd f6d9 40bd d0f4 4fbe
000001c0: d40e 033e 4bdd 833d df98 cfbb bcf1 b7bd
000001d0: 6983 813d 3787 2abe d1c7 ef3d 9051 76bd
000001e0: f88c a0be 6f8b a3bd 8b5d 343d 1f8c acbd
000001f0: 029c 123e 3f20 c7bc 966a 983c ed4b 5abd
00000200: 1d49 363e 66d4 c1be 1c0c 97bd a245 11be
00000210: a9df acbe 5ed1 ad3d 4be1 06be 6aba 833d
00000220: d503 823d a4d2 54bd 3c79 e73d cce1 2a3c
00000230: 299f 1e3d 9224 96be 666a 663d 652e 6dbe
00000240: a0a9 3abe 4317 1abd 3ad0 5a3e b9e1 4fbc
00000250: 3c37 573d 8c19 fbbd a784 253d c726 67bd
00000260: 4b33 8b3e 4b53 1abe 857b 99bc ca92 b23d
00000270: 01f6 20be 60a1 883d d1f5 563e afbc 1dbe
00000280: 3282 0cbd 3611 d03d b66c eb3c 4991 e4bd
00000290: 4d42 863d 398d 02be 9018 2d3e 801d 763e
000002a0: 91da bdbd a624 1e3c 5985 d43d 19b7 633d
000002b0: d24c bcbd 04b3 313d 6ffb b73c 8394 b43d
000002c0: 4507 833e 75ff 863d b82a 773e 1342 783e
000002d0: 9ee3 84bd 6eac d73d 0010 1f3c 8236 c4bc
000002e0: 99bd 92bd 2283 3abd 4857 503e 690e aa3d
000002f0: 4b2c 643e ba59 8f3d deaa 1a3e fae2 cd3e
00000300: a69b 6e3d c6c0 c6bd 632f b53d 5094 f03d
00000310: f8cf ffbd 4cd5 993d c74e 023d 6f31 63bd
00000320: 2332 673d c178 e3bd 6e3a 8bbc 2070 d2bc
00000330: 2193 e53d 227d 16be 6869 36bc 14d9 0b3e
00000340: 9840 9a3d 4794 c0bd 24e0 c23c 05a0 963d
00000350: d498 a4bc cb6d 95bd 6dfd 353c bea9 ed3c
00000360: a08f 5abd 16f7 6f3c 5f8b 29bd 7308 4cbc
00000370: 4225 16be f01e 15be 2917 a33c 8243 183d
00000380: 94b9 abbd 3a7e 1bbe 8a46 e63c 5b04 75bc
00000390: e0b5 cbbb 6ebc f23d 3da3 033e 7494 813d
000003a0: 9394 9ebc 611a 003d 534b 283d 8ad5 05be
000003b0: bfa1 c73d a217 5fbc b906 be3d 33bf d93d
000003c0: 0c97 c13d 9316 9d3d 5b30 333e 2639 a53d
000003d0: d598 00bd e7ce d2bc 320b ee3d 4f1d 71be
000003e0: f684 753e 2078 cb3d f9a5 a03c 3292 2abd
000003f0: 4aad cf3d 52f6 c5bc ad82 3c3e 9e56 f9bd
0.22202449 0.13071895 -0.09453751 0.025480457 0.13698739 -0.17746417 0.11621144 0.00780177
-0.0007699416 0.37385792 -0.0017570019 0.009182304 0.29799238 0.17087604 -0.088598885 -0.103913195
0.026007615 -0.15536672 0.21890755 -0.01477031 -0.087262556 0.1983997 0.16815887 0.0042187576
0.259903 0.013326952 -0.12469192 -0.10493871 0.102390334 -0.10353837 -0.027098661 -0.08278523
0.00055633154 0.32137382 -0.16185193 0.03300209 0.28799632 0.100230336 -0.06821506 -0.1564576
0.18221614 -0.18732463 0.051736336 -0.09264316 -0.2736822 0.1884412 -0.19838089 0.16943513
0.2280213 0.3458845 0.09548586 -0.15224831 -0.033228908 0.096316144 -0.0303908 -0.028078025
-0.12625317 0.013620973 -0.067547426 -0.14441198 0.17554127 0.36737385 0.14623313 0.044498116
-0.2213217 -0.13220923 0.012380886 0.0383173 -0.13475943 -0.058321517 -0.19095513 0.0035473024
0.27718192 0.33253023 0.2583998 0.08734071 -0.14754769 -0.054128867 -0.07463517 0.038552333
-0.23988207 0.057459492 -0.21625777 -0.018035306 0.39780715 0.32135916 0.13561933 -0.10273717
-0.29237166 0.01867277 -0.039932072 0.012738803 -0.33980125 0.16316807 -0.18245827 0.19153802
-0.42812058 0.050920557 -0.045426745 -0.020366773 0.16158505 0.10073493 -0.02809122 0.0742862
0.008765155 -0.29956353 0.025030583 -0.12303357 -0.4767578 -0.03735642 -0.047082864 -0.20308232
0.12798625 0.06438693 -0.0063353623 -0.08981654 0.063238926 -0.16653143 0.11708034 -0.060136378
-0.3135755 -0.07985579 0.044034522 -0.084251635 0.14317325 -0.024307368 0.018605512 -0.053295065
0.17801328 -0.3785736 -0.073753566 -0.14186719 -0.3376439 0.08487199 -0.1317188 0.0643204
0.06348387 -0.051958695 0.113024205 0.010429811 0.038726006 -0.29324776 0.056253813 -0.2316223
-0.1822877 -0.03761984 0.21368495 -0.012688094 0.05254291 -0.12260732 0.04040971 -0.056433465
0.2718757 -0.15070836 -0.018735657 0.08719404 -0.15718843 0.06671405 0.20992209 -0.15404008
-0.03430385 0.10159533 0.02873836 -0.111605234 0.065556146 -0.12749185 0.16903901 0.24034691
-0.09270204 0.009652292 0.103769965 0.055594537 -0.0919434 0.043383613 0.02245876 0.08817389
0.25591484 0.06591693 0.2413739 0.24243955 -0.06488727 0.10530935 0.009708405 -0.023951773
-0.07165069 -0.045535214 0.20345795 0.0830353 0.22282521 0.06999536 0.15104243 0.40212232
0.058253907 -0.09704737 0.08846929 0.11747038 -0.12490839 0.07511386 0.03181341 -0.055467065
0.0564443 -0.11107016 -0.016995635 -0.025688231 0.11209703 -0.14696172 -0.011133529 0.13657027
0.075318515 -0.09403282 0.02378852 0.0735474 -0.020092405 -0.07296332 0.011107785 0.029011603
-0.053359628 0.014646312 -0.04139268 -0.012453186 -0.1466265 -0.14562583 0.019908505 0.037173755
-0.083850056 -0.1518487 0.028109808 -0.014954652 -0.0062167495 0.11852346 0.12855239 0.06327143
-0.019357955 0.031275157 0.04108746 -0.1306974 0.097476475 -0.013616474 0.09278626 0.106321715
0.09452638 0.07670321 0.17498915 0.08067541 -0.031395752 -0.025733424 0.11623229 -0.23546337
0.23976502 0.099350214 0.019610392 -0.04164333 0.10140474 -0.024165306 0.18409224 -0.12174724

actor.0.bias f4 [256]
00000000: a8c1 3cbe 41fb 0a3e 8281 81bd 0a82 85bd
00000010: 9195 c6bd 5db6 ddbc e710 afbd 09e7 c33d
00000020: 459a 89bd d2e4 53be 2f0d a53d 508a 883d
00000030: 2453 793e 6408 f23d 8905 c1bd 07ed f0bd
00000040: 3061 58be 55c2 11bd 4d42 d43c 511e 92bd
00000050: eed1 40be ee2d bfbb 58e2 fcbd 2898 25be
00000060: 42cb 32be 98bf 813d f4fe 29be 78a5 d13d
00000070: 062a 0c3d d57c abbe b4eb 89bc 5924 e53d
00000080: 9116 e9bc d97d 913d 5ea8 09bd b03f e43d
00000090: de28 6bbe 604f bdbc ac8e 3d3e 2a31 c53d
000000a0: dabb 01be db6e 24bc 9da4 62bd aadf 9cbd
000000b0: 857a 643d 94a9 493e ecc5 1c3e 2c7a 6fbd
000000c0: 72af 3b3e 902c 363d bb7e c03d 7a04 9dbd
000000d0: 8e3a a8bd 763c 403e cd65 22bd f7a6 70bd
000000e0: c1ad 21be cfd4 9dbc dbc0 f43d fd09 c8bd
000000f0: 794c 513e 753a b139 4fd8 8ebd 3a17 1ebc
00000100: 2651 bd3d a28a 90be 32b6 ea3d cf6e 0cbe
00000110: 9291 74bc 8edc 1dbd 4336 f8bd 1ba5 3bbc
00000120: 40f4 a9bd 269c 423d 98c7 243c 2abf 393d
00000130: 5969 ff3d 0537 7f3c ff7b d53d fd74 8e3c
00000140: 4baf 923c 9549 af3d 896a c33d 4838 b3bd
00000150: 4a68 4a3b 1362 e93c 0b11 403d 29b9 c2bd
00000160: 2719 7bbe da65 4b3c d247 85bb 4398 30bd
00000170: 5acc 80bd e96d 5abc a096 96bd 0105 d1bc
00000180: 7e43 063e d972 f83d 665b 123e 1206 3bbe
00000190: f70c c93d e7b9 d83d 631c 97bd f7ef 4abd
000001a0: 7385 653d f99f 03bb 33b4 9b3d 2c35 7bbd
000001b0: d3f5 683e bcdd 1a3c e760 0fbe 1820 973c
000001c0: 7575 593e 414c 3a3d 5b46 a5bd b2dc 6a3d
000001d0: c634 0fbe 785f a8bc ee85 f73d 5a18 50be
000001e0: b024 a53b fec9 36bd 0376 923d cdcd ebbd
000001f0: df09 053d 1800 ef3d 817c edbd 9993 3abe
00000200: 555d 67bd 8656 49be 0c24 c63d 36ae fc3d
00000210: 3c78 75bd ee9a b53d 8a88 4b3d fd0f 873d
00000220: be68 66bd 6f14 8c3e c9a4 a43d ce77 233e
00000230: 7ff5 54bd 5ed3 913b 8aff a63d 2cd4 0f3e
00000240: 1891 c2bc 3a67 8d3d 33dc 4b3e 9947 213e
00000250: 965a 0b3d 6d5b ffbd 632c ad3d 5182 433e
00000260: ae1d 09be e406 c73d 6bae 16be 63d1 8f3b
00000270: b296 27be ad47 41bd 9bc1 843e da79 44bd
00000280: 8165 903e c12d 8cbc 82f0 033b 0dd3 4a3e
00000290: 0e5b c1bd f2f1 d93c ae81 4ebe b1de 4cbd
000002a0: fc8a ee3d dc85 0f3c 87ff 22be 3edf 14bd
000002b0: 0d87 cf3c 317c ee3d 748f d7bc 860f a7bd
000002c0: 4123 893e 6258 753e 8a03 64be 18a5 8cbd
000002d0: f54a 4ebd a646 eabc 3de6 83bd e5a3 c1bc
000002e0: 22de cc3b 9f1b 03bd cf04 d0bd b055 733e
000002f0: 116b a53d 96a5 7cbb 053f d83d dda8 15be
00000300: 3573 21bd a50a 773d 3572 2fbe a2a0 0d3e
00000310: 80f9 81bd 683e b03b 3c0d 383e 5623 0d3d
00000320: a689 5cbe 3c9f 773e d7da 8ebc 0123 3d3e
00000330: f131 c73c c001 943e 5824 5bbe 4d80 703d
00000340: c403 aa3c 503a fdbd 1fb5 623c 4a1a 49bd
00000350: 8294 17be 1a19 3a3e 79c1 a6bd 1900 abbd
00000360: 6a79 cdbd 8949 b8bd d0d4 25be 5f6c ab3c
00000370: 8f99 abbc 4bdd 0c3e 2ec6 4b3c bcd6 773d
00000380: bba4 b0bd 860d a03d 2dbd a2bc 5bdf 433d
00000390: ed88 2fbe bb6f a7bd 53dd e13d b0eb 4fbe
000003a0: 7137 fbbd 6864 ffbb 6b8d 53bd 318f 30be
000003b0: b306 8c3d 4882 4bbe d577 fd3d 5a8f 4abc
000003c0: ee8f c93c fec9 a13b acee bd3d 1e95 a83d
000003d0: 305d 6a3d 098b 06bd 6ff2 423c e1fe a63d
000003e0: 3dc2 143e d132 1c3d 51c4 d3bb 1298 9d3d
000003f0: a7c2 20be 2a3f 37bd 54b6 5739 980e f43d
-0.18433249 0.13572408 -0.0632353 -0.065189436 -0.09696496 -0.027064497 -0.08548146 0.09565551
-0.06718878 -0.20692757 0.08059155 0.06667006 0.24348122 0.11818007 -0.09424884 -0.117639594
-0.21130824 -0.03558572 0.02591052 -0.07134689 -0.18830082 -0.0058343327 -0.12347859 -0.16171324
-0.17460349 0.06335372 -0.16601163 0.10236639 0.034219764 -0.33493677 -0.016836025 0.111885734
-0.028453143 0.07104082 -0.033607833 0.1114496 -0.22964808 -0.023109138 0.18511456 0.09628518
-0.12669316 -0.010036196 -0.05533277 -0.07659848 0.055780906 0.19693595 0.15309876 -0.05846612
0.18328646 0.04447609 0.09399172 -0.076668695 -0.082142934 0.18773064 -0.039647866 -0.05875298
-0.15788938 -0.019266514 0.11950847 -0.0976753 0.20439328 0.00033803625 -0.06974851 -0.009649092
0.092439935 -0.28230768 0.11460532 -0.13714145 -0.014927285 -0.038540415 -0.121197246 -0.011452938
-0.0829854 0.047512196 0.0100573525 0.045348324 0.12471265 0.0155770825 0.10424041 0.017389769
0.017905852 0.085589565 0.09541804 -0.08750969 0.0030884915 0.028489148 0.046891253 -0.09507973
-0.24521314 0.01241442 -0.0040673995 -0.043113958 -0.06288977 -0.013331869 -0.07352948 -0.025515081
0.13111684 0.121312805 0.14292678 -0.18264034 0.09816926 0.10582333 -0.07378461 -0.049545255
0.05603547 -0.0020084365 0.0760273 -0.061330006 0.22750024 0.00945228 -0.14001809 0.01844792
0.21236213 0.045482878 -0.0807006 0.057339378 -0.13984975 -0.020553336 0.12086092 -0.2032179
0.005039774 -0.04462623 0.07151415 -0.11513863 0.032480117 0.1166994 -0.11596013 -0.18220367
-0.056485493 -0.19661912 0.09674844 0.123379156 -0.059929118 0.08867441 0.04969076 0.065948464
-0.056252234 0.2735934 0.08039243 0.1596367 -0.051991936 0.0044502458 0.08154209 0.14045781
-0.023750827 0.069044545 0.19908218 0.15749969 0.034021936 -0.1246861 0.08455732 0.1909268
-0.13390228 0.09718111 -0.14714973 0.0043889745 -0.1636608 -0.047187496 0.2592896 -0.04796777
0.2820244 -0.01711166 0.0020132367 0.19807072 -0.094411954 0.026604626 -0.20166656 -0.050017063
0.11647603 0.008759942 -0.15917788 -0.036345713 0.025332952 0.116447814 -0.026313521 -0.08157258
0.2678471 0.23959497 -0.22266975 -0.06867427 -0.050364453 -0.02859814 -0.06440399 -0.023637721
0.006252066 -0.032008763 -0.10157167 0.23763156 0.08077062 -0.0038550845 0.10558895 -0.14615197
-0.03941651 0.060312886 -0.1713341 0.13830808 -0.063464165 0.005378533 0.17973799 0.034457527
-0.21536884 0.24181837 -0.017438335 0.18470384 0.024315806 0.28907585 -0.21400583 0.058716107
0.020753749 -0.12364638 0.013837128 -0.049097337 -0.14802745 0.18173638 -0.08142371 -0.08349628
-0.100329235 -0.08998401 -0.16194463 0.020925699 -0.020947246 0.13756292 0.012437386 0.06050752
-0.0862517 0.078150794 -0.019865597 0.04782043 -0.17142077 -0.08175608 0.11028542 -0.20304751
-0.12266434 -0.007793952 -0.05164854 -0.17242123 0.06837215 -0.19873917 0.12376372 -0.012363279
0.024604764 0.0049374094 0.09274039 0.08231567 0.057217777 -0.032847438 0.011898621 0.08154083
0.14527221 0.0381344 -0.0064626117 0.07695021 -0.15699254 -0.044737972 0.0002057192 0.11916846

actor.2.weight f4 [128, 256]
00000000: 47f2 ebbb 248d 76be 50a7 1bbe 2f20 7bbe
00000010: 0033 94b9 0c23 e0bd 2db9 9c3e 526c 2f3e
00000020: 2a2f cb3d 21fa e53c f68f 36bd a469 e1bd
00000030: c044 0dbe 49c9 993e 1d9e 9fbc 10b3 e9bd
00000040: 5cea 7c3b cb8c a0bd feb9 10bf 39c8 28be
00000050: b4d3 56bd c322 0c3c f435 3bbe f53d 543e
00000060: 1480 f03d bf71 233e 89e2 c2bd 995d 083c
00000070: 2c1b 073e 9bc9 4bbd 595f 083d 3d15 2abe
00000080: a2f7 4ebe ca09 09bd 3921 b8bd 37a2 893d
00000090: baf7 803d 89a4 abbe 80ae 7dbe 4c96 d9bc
000000a0: 6540 453d daa9 00bd 3196 0ebd 30ca 1fbc
000000b0: efae 1e3d 64b9 3dbe b540 363d 5352 c03c
000000c0: 50f1 683e 0e22 0cbe 2728 70be 4d96 013c
000000d0: 7728 8bba 1dc5 79be 8d10 bebe 4b45 12be
000000e0: a5f1 f03d 7444 383e fd19 dc3d 8de1 f0bd
000000f0: f75c 6dbd 5492 80bd 0917 3a3e ca0d c0bc
00000100: ec24 91bd aada c03d cbc2 183e 4eae 0cbe
00000110: d464 bd3e 9de0 cb3d 2270 1dbe 8295 123c
00000120: 38c9 b23d 2318 49be cecc 56be c44c 953d
00000130: 04b3 f83c a8f8 9b3e 9bf6 0a3d 1110 a4bd
00000140: 23b4 d5bc 8daf 293c 89a0 c9bd 4bb9 16be
00000150: f785 a63d 217d 4a3e 8307 1e3e a680 3ebe
00000160: 2a0f e4bd c0ac 893d ba13 a7bd 7e57 18bc
00000170: f289 5b3e 22c5 95be f4c7 c43d 235b 433d
00000180: 37f3 d5bc 06a0 cbbe 0f50 15bc c2ad 09be
00000190: 8e59 38be de74 72be 4cfb a73d 49f9 2dbe
000001a0: 968e ae3d cb89 c63d 8dce 11bd 2eac b7bd
000001b0: cb16 7d3d 8085 f83c 49f5 e13d 5c9b 6d3d
000001c0: 14a4 e63d b7c7 d13d d01a 5dbe bb01 4c3a
000001d0: 3875 1cbe 98ed c83d 7e9e be3d 5d28 69bd
000001e0: 44e7 083e 139d 4b3e 50a2 f03d f0f2 9c3d
000001f0: 81f2 67bd 0b19 dabc d2e7 003e a744 0f3e
00000200: 9c5e abbd 3156 4ebe d8d2 fe3c a30c 1cbe
00000210: 3d0a 12be dcc2 87bd be89 55bf 4670 42be
00000220: 1331 d93e b052 843d 1ac3 0f3e 3da9 10bd
00000230: 69ef 82be 6d3a 07be a622 e83d 1449 583d
00000240: df2b 7ebd 8a11 a63e 2de2 05be 8b68 27be
00000250: 9527 063d 640f 38be 667a a33d c00c 06be
00000260: 1470 f33b e062 6c3c 872a 8e3e 09c5 8abd
00000270: 1c70 963e fb36 34bd a629 223e a774 4e3d
00000280: 6f73 1fbd e983 263c f4e4 adbd 6ad1 823d
00000290: d7de 2a3e f3d4 a8bd ef01 313e 0d06 6e3e
000002a0: 91ad 80bc 15f9 22be 658e d8bb 85f9 ac3d
000002b0: ab59 70be c0c1 743d adfd 08bf eb36 453e
000002c0: 66c3 6abc 94f1 82bd b02e b23d 0820 81bd
000002d0: dd28 a73d b13a 0abd 8b65 e63d bd50 df3c
000002e0: e9c8 a2bd 1db8 103d 3150 8fbc 6cc4 84bb
000002f0: 68c6 e53d bd5d 803d 78c0 f03d f710 823e
00000300: 2415 cebd 2009 ec3d 6a14 de3e 2b5f 00be
00000310: b8d3 38be 82e2 aabe d6c8 b5be 5b0e 65be
00000320: f248 1dbd c0dc 38bf 1c7b 1b3d 1bda 693d
00000330: ac30 1ebe f534 efbd 0030 8abe 6a3b 3dbe
00000340: a391 0c3d bccd 92bd cb08 d8bd d3c4 25be
00000350: 1404 d83d d811 e7bd 373b 123d 99a6 1e3d
00000360: 8f94 96bd e164 0f3e eecd 5abd da3f 2f3d
00000370: fed7 c1bd e22d 113d d621 b63c a9b1 8bbd
00000380: 6b02 d4be 1c36 9ebb 619e 9d3d b4de e13d
00000390: b977 f63d 1dd4 603d c038 29bd 1d42 ca3d
000003a0: 0da6 7a3e 26ee 9cbd 99da e73d 8f71 71bd
000003b0: 8dd0 4ebe c1a3 4d3d 04a0 1f3e f813 b3bd
000003c0: c312 0d3d b2c8 ccbe eb9a c63c 70ac 34be
000003d0: a249 a3bc 2d43 eabd 7971 81bd cbc9 163c
000003e0: 210a cdbe 5c16 bb3d 1c67 28be a922 86bd
000003f0: 65a9 323d e0fe be3d 777f 34be b856 08be
-0.0072005126 -0.24077278 -0.15200543 -0.24523996 -0.00028266758 -0.10944185 0.30610028 0.17131165
0.09921105 0.028073372 -0.044570886 -0.110064775 -0.13795757 0.3003638 -0.019484574 -0.114111066
0.0038591838 -0.07839354 -0.565338 -0.16482629 -0.05244799 0.00855321 -0.182823 0.2072676
0.11743179 0.1596136 -0.095158644 0.008323097 0.13193959 -0.049752813 0.033294056 -0.16609664
-0.20211652 -0.0334566 -0.08990712 0.06720393 0.0629725 -0.33523968 -0.24773598 -0.026560925
0.048157115 -0.031411983 -0.034811202 -0.009752795 0.03874105 -0.18527752 0.044495303 0.023476755
0.22748303 -0.13684866 -0.23452817 0.00790937 -0.0010616918 -0.24391599 -0.37122002 -0.14284246
0.1176484 0.17994863 0.10747144 -0.117617704 -0.057949986 -0.0627791 0.1817285 -0.023444075
-0.070871204 0.09416707 0.14918058 -0.13738367 0.36990988 0.09954951 -0.15374807 0.008946778
0.08729786 -0.19638114 -0.20976564 0.072900325 0.030358799 0.30463147 0.033926588 -0.08010877
-0.026086872 0.010356796 -0.09845073 -0.14719121 0.081310205 0.19774295 0.15432553 -0.18603763
-0.11135705 0.067224026 -0.081580594 -0.0092982035 0.2143934 -0.29251963 0.096084505 0.047694337
-0.02611695 -0.39770526 -0.009113326 -0.1344519 -0.18002912 -0.23677394 0.08202228 -0.16989626
0.0852329 0.09694251 -0.035597373 -0.089683875 0.061789315 0.030337095 0.110331126 0.05800949
0.11261764 0.10243171 -0.2159226 0.000778224 -0.1527909 0.098109424 0.09307574 -0.05692326
0.13369471 0.19884138 0.11749709 0.07663524 -0.056627754 -0.02662327 0.12588432 0.13991033
-0.08367655 -0.20150067 0.031106398 -0.15239196 -0.14261718 -0.06628963 -0.834133 -0.18988141
0.42420253 0.06461084 0.14039269 -0.03531765 -0.2557328 -0.13205881 0.11334734 0.052804068
-0.062053557 0.32435256 -0.1307456 -0.16348474 0.032752592 -0.17974621 0.0798233 -0.13090801
0.0074291322 0.0144278705 0.2776682 -0.06775863 0.29382408 -0.043997746 0.158362 0.050404217
-0.038928445 0.010163286 -0.08490935 0.06387599 0.16686569 -0.08243742 0.17285894 0.23244496
-0.015707763 -0.1591533 -0.0066087716 0.084460296 -0.23471706 0.059755087 -0.5351208 0.19259231
-0.014328813 -0.063937336 0.08700311 -0.063049376 0.08162091 -0.03374738 0.112498365 0.027260179
-0.07948477 0.035331834 -0.017494293 -0.0040517356 0.112194836 0.06267879 0.117554605 0.25403568
-0.10062626 0.11525178 0.4337495 -0.12536304 -0.18049514 -0.33375937 -0.35504788 -0.22368757
-0.038399644 -0.7221184 0.037959203 0.057092767 -0.15448254 -0.116800226 -0.26989746 -0.18479696
0.034318577 -0.07168147 -0.10548552 -0.16188364 0.10547653 -0.112827 0.035701003 0.0387331
-0.07352554 0.14003326 -0.053419046 0.042785503 -0.09465025 0.035444148 0.022232931 -0.06820995
-0.41408095 -0.0048282277 0.07696224 0.110288054 0.12034554 0.054889787 -0.041313887 0.09875891
0.24477406 -0.07662611 0.11320991 -0.05894619 -0.20196743 0.050204996 0.15588385 -0.08744043
0.03444172 -0.39996868 0.024243793 -0.17643905 -0.019932572 -0.11438594 -0.06320471 0.009203385
-0.4004679 0.09135124 -0.16445583 -0.0654958 0.04361858 0.09325957 -0.17626749 -0.1331433

actor.2.bias f4 [128]
00000000: 8384 8a3d 7b89 b7bd 5f78 6cbc f864 b43c
00000010: 5ae2 42bd c6c5 98bd 8170 e43b 4275 c5bd
00000020: f099 85bd 686c 033e b235 7abc a750 5fbd
00000030: 78d4 733d d378 b6bd dc42 db3c eb43 f7ba
00000040: 91d0 7d3d 20a3 013e e340 38bc 853a bb3d
00000050: 20ff 983d 459b bf3d c213 19bd 8253 63bd
00000060: dc61 7ebc 5e4d 7cbd 74fd c83d 76db 70bd
00000070: 8762 21bd 9d74 02bd 7944 30bd 827b 95bc
00000080: 1dae 89bd 40ce 26bd c6fc 36bc 377f 1abd
00000090: dda0 8ebd 9af8 a7bd 2455 0fbd 780a 48bd
000000a0: b879 2a3d dc97 e93c 41d6 a9bd b30d 8abd
000000b0: 1524 c43d 5e66 c13c 1a6c 943d 5646 cb3d
000000c0: 0127 84bd 5f79 cd3d c1ef 9fbc 14c9 38bd
000000d0: 2120 a6bd 9a35 443d c56a 65bd d91c 113c
000000e0: 3ae9 bfbc 4531 333d 7853 81bd 97fa e23d
000000f0: c0cd cbbd 46d4 9d3d cb93 d939 10a0 4b3c
00000100: 90ac 913c da51 9c3d 188a d1bd 2562 08bd
00000110: f958 f33c 93fc f6bc 6e26 0c3e dbbd 5abd
00000120: edaa 3b3d a3e4 033b 4b06 7c3d 1ccd d93d
00000130: e8d4 8bbc 1a83 8ebd e5d7 083d f31b c53d
00000140: c282 f13d d45e 6c3c 20cc 53bc 35e2 dfbc
00000150: eae5 f23a 321a 033d 39e3 e6ba 592d 0dbc
00000160: 17e2 cc3d f879 4ebb 5a35 8bbd 99c2 06bd
00000170: d3d2 7c3d c8c6 1f3d 875e f93d 9be9 a43d
00000180: e00c 953c 3ffb 52bc 5e57 0dbc e8d4 eebb
00000190: 0724 303e b686 243d 0968 003d 68c1 90bd
000001a0: f86b 583d 8234 923d c060 cf3b 234d 83bc
000001b0: 6f93 cc3d 6746 753c ff8e 923d f18b ab3b
000001c0: 02ac 11bc 6ad1 58bd 02c6 ed3c 6c42 cbbc
000001d0: 422f 1a3d b8d0 163e 1473 d1bd 6149 97bd
000001e0: 9822 e53d 2a8b a03d 8a1c ee3d 02bc 233b
000001f0: 12bd 0f3e ee1f 17be 777d 8b3c 61ff 693e
0.06763556 -0.08961769 -0.014432996 0.022020802 -0.047579147 -0.07459597 0.0069714193 -0.09641506
-0.06523502 0.12834322 -0.015271591 -0.054520275 0.059528798 -0.08909764 0.02676528 -0.0018864846
0.061966483 0.12659883 -0.011245939 0.09142021 0.07470536 0.09355787 -0.03737236 -0.05549956
-0.015526261 -0.06159722 0.09813967 -0.058803044 -0.039400604 -0.031849492 -0.04303405 -0.01824737
-0.067226626 -0.04072404 -0.011168664 -0.037718978 -0.06964276 -0.08201714 -0.034993306 -0.04883811
0.041619986 0.028514795 -0.08292819 -0.06740894 0.095771946 0.023608383 0.07247181 0.09925525
-0.06452752 0.10032915 -0.019523503 -0.045113638 -0.08111597 0.04790268 -0.056010026 0.0088569755
-0.02342664 0.04374816 -0.063147485 0.110829525 -0.09951353 0.077065036 0.0004149958 0.012428299
0.01778248 0.076327994 -0.102314174 -0.033296723 0.029705511 -0.030149734 0.13686535 -0.053403717
0.045817304 0.0020125292 0.06152944 0.10634825 -0.017069295 -0.069585994 0.033409018 0.096244715
0.11792518 0.014426906 -0.012927085 -0.027329544 0.0018531654 0.032007404 -0.0017615325 -0.008616769
0.10004061 -0.0031505805 -0.067972854 -0.032900427 0.061724495 0.039007932 0.12176233 0.08052369
0.018194616 -0.012877285 -0.008626787 -0.007288564 0.17201243 0.040167533 0.031349216 -0.07068139
0.052837342 0.07138921 0.006328672 -0.016027993 0.09989058 0.0149703985 0.071561806 0.005235188
-0.0088911075 -0.052934088 0.029025082 -0.024811946 0.037642725 0.14728057 -0.102270275 -0.07387043
0.11188239 0.078390434 0.11626537 0.0024983888 0.14036968 -0.14758274 0.0170276 0.22851326
