CRL/模型集_opponent/train_20260125-013011/evolution_v1.pth (torch, 370495 bytes, 11 tensors)

critic.0.weight f4 [256, 48]
-0.1989959 -0.09009615 0.024529316 0.0116774915 -0.06599457 -0.09696611 0.05068551 0.062792234
-0.33699495 -0.024201933 -0.19807182 0.106114775 -0.21435961 -0.0941055 0.032790694 3.7001344e-05
-0.13304058 -0.13160838 0.056428924 0.05850632 -0.16233091 -0.017121855 -0.19874473 -0.11220854
0.009943002 -0.031068785 0.03976149 0.027874257 0.04496039 -0.11796342 0.074418895 0.050547417
-0.016483162 0.02936675 -0.13022618 -0.14802617 -0.13416171 0.04014978 0.048076194 -0.045164347
0.12619978 -0.16090445 0.093511164 -0.011388065 -0.007840143 0.05259186 0.33129457 -0.03833201
0.1280297 -0.08837919 -0.09907637 0.047055427 -0.02279158 -0.10410953 -0.01623644 -0.07129731
-0.14415589 -0.16154484 -0.01986361 -0.042054117 0.13041492 -0.12568104 -0.119145826 -0.01870724
0.1283932 -0.12683795 -0.0013610247 0.029920287 -0.1215994 0.04616166 -0.066123106 0.034262355
0.15358485 -0.0564197 -0.13742593 -0.033149987 -0.10692153 -0.13663138 0.008375063 0.023510478
0.09524608 0.12745143 0.04110247 0.070123054 0.049463697 0.08247194 -0.15998678 0.048496757
-0.11923831 -0.08180068 0.013762435 -0.044196453 -0.00013930655 0.31094646 -0.072510906 0.47045803
0.24592642 0.07420157 -0.0076114535 0.017335756 -0.04326939 -0.017559918 0.0016519785 -0.053165365
-0.009981573 -0.3203355 0.33164915 0.21994296 0.13985036 0.043933395 -0.0037249587 0.013426953
-0.187016 0.011942034 -0.0003860002 0.08269658 0.2452584 -0.13926466 0.12810422 -0.013894253
0.09568004 0.17996304 0.005274534 0.0031111843 -0.030354686 -0.07461373 0.0024087927 -0.033460386
0.13017781 0.060035594 0.02871265 -0.07311592 0.24821351 -0.09415353 0.017317565 -0.057484254
-0.14973913 -0.14592092 0.0073252073 -0.23409703 0.25468853 0.13599356 -0.06639979 0.07989917
0.29330736 -0.32634994 -0.009980004 0.045938052 -0.0885789 0.13369861 0.002267897 -0.021089653
-0.08489531 -0.7371628 -0.096999526 0.0801078 0.15721887 -0.32616758 0.0062439824 0.020184204
-0.17122172 0.20168655 0.00041867743 -0.01028178 0.13089296 -0.69580346 -0.006766585 0.37154648
0.094302535 -0.2193125 0.017550673 -0.06854505 -0.023755519 0.04398295 -0.013316398 -0.0043391027
-0.050429583 -0.49196678 -0.059066962 0.31434044 0.2617682 -0.14639375 0.013070622 0.07833365
-0.051886287 0.13487126 -0.025114322 -0.031723637 0.22094502 -0.24616507 0.13141496 0.08626481
0.096461274 -0.0124101145 -0.0155780865 -0.0061309226 0.3758716 -0.038159247 -0.012927712 0.0043706517
0.17014872 -0.19558391 0.04681324 -0.106370345 -0.102925256 -0.015980892 -0.011716861 -0.002064396
0.37193778 -0.045545958 -0.0005287229 0.003638512 0.10744351 -0.034278203 0.36836684 0.062658
-0.09966729 0.008202645 -0.016271899 0.020176237 0.26962632 -0.04595308 0.020469083 0.025323654
0.24718194 -0.048662033 0.5538088 0.103262305 0.13640793 -0.04207666 -0.016217845 -0.009061889
0.24797352 0.109654136 0.027668577 -0.035275172 0.17020641 -0.077635445 0.77581006 -0.06973356
-0.01643381 -0.025431443 -0.015545539 -0.042890348 0.07178101 -0.09560558 0.014271438 0.011538785
0.05360833 0.20274198 0.07196055 0.002814533 -0.0835319 -0.008383736 -0.035197843 -0.009608097
00000000: 95c5 4bbe 5584 b8bd b4f1 c83c f352 3f3c
00000010: 2928 87bd 2b96 c6bd 9c9b 4f3d 3799 803d
00000020: 9a8a acbe 2243 c6bc 57d3 4abe b452 d93d
00000030: 1681 5bbe 62ba c0bd 894f 063d e431 1b38
00000040: ca3b 08be 59c4 06be 0422 673d 53a4 6f3d
00000050: 133a 26be 2243 8cbc bd83 4bbe 97cd e5bd
00000060: f9e7 223c f783 febc f2dc 223d 8e58 e43c
00000070: 6328 383d ce96 f1bd ef68 983d cf0a 4f3d
00000080: b207 87bc 8a92 f03c 035a 05be 2c94 17be
00000090: b061 09be 1974 243d 8beb 443d 40fe 38bd
000000a0: 843a 013e 23c4 24be c882 bf3d 0295 3abc
000000b0: f173 00bc 906a 573d 719f a93e 0702 1dbd
000000c0: 381a 033e 2600 b5bd 8de8 cabd 31bd 403d
000000d0: 68b5 babc 6137 d5bd 4802 85bc 5304 92bd
000000e0: 9a9d 13be 036c 25be 02b9 a2bc f040 2cbd
000000f0: 7d8b 053e 88b2 00be ba02 f4bd ed3f 99bc
00000100: 8279 033e cfe1 01be 6964 b2ba 641b f53c
00000110: 1b09 f9bd 0214 3d3d 8d6b 87bd af56 0c3d
00000120: 5945 1d3e 5818 67bd 62b9 0cbe 48c8 07bd
00000130: adf9 dabd 19e9 0bbe 8f37 093c 0c99 c03c
00000140: 6010 c33d a182 023e 105b 283d ad9c 8f3d
00000150: 729a 4a3d 0ce7 a83d 93d3 23be 89a4 463d
00000160: 3733 f4bd 1d87 a7bd d67b 613c 5707 35bd
00000170: d112 12b9 6034 9f3e 9980 94bd e0df f03e
00000180: 23d4 7b3e fef6 973d 8069 f9bb b703 8e3c
00000190: 3e3b 31bd d1d9 8fbc 3387 d83a edc3 59bd
000001a0: c089 23bc 0403 a4be ebcd a93e ba38 613e
000001b0: ef34 0f3e 81f3 333d 701e 74bb b9fc 5b3c
000001c0: 1f81 3fbe 85a8 433c 1260 cab9 d35c a93d
000001d0: 0525 7b3e 659b 0ebe c12d 033e b9a4 63bc
000001e0: e6f3 c33d 3b48 383e 00d6 ac3b 03e5 4b3b
000001f0: 64aa f8bc 15cf 98bd d6dc 1d3b c20d 09bd
00000200: 554d 053e e2e7 753d cb36 eb3c cdbd 95bd
00000210: af2b 7e3e 91d3 c0bd 91dd 8d3c 9c74 6bbd
00000220: 3755 19be 4b6c 15be 4b08 f03b 22b7 6fbe
00000230: 8966 823e e541 0b3e 9dfc 87bd 2da2 a33d
00000240: 622c 963e 5717 a7be 2c83 23bc 8a29 3c3d
00000250: db68 b5bd 4ae8 083e ffa0 143b 35c4 acbc
00000260: 98dd adbd b4b6 3cbf b0a7 c6bd 8f0f a43d
00000270: fcfd 203e 70ff a6be 529a cc3b 5859 a53c
00000280: bf54 2fbe eb86 4e3e ef81 db39 e974 28bc
00000290: ce08 063e 2d20 32bf 3bba ddbb 573b be3e
000002a0: b021 c13d 7593 60be 6ec6 8f3c 5961 8cbd
000002b0: ef9a c2bc 7727 343d 052d 5abc 082f 8ebb
000002c0: 408f 4ebd 12e3 fbbe 33f0 71bd 3bf1 a03e
000002d0: 7b06 863e 3ee8 15be 2a26 563c 656d a03d
000002e0: b786 54bd b11b 0a3e 8dbc cdbc a5f0 01bd
000002f0: 693f 623e b212 7cbe a591 063e 9bab b03d
00000300: 7d8d c53d cb53 4bbc 3b3b 7fbc e8e5 c8bb
00000310: 3e72 c03e df4c 1cbd c1ce 53bc af37 8f3b
00000320: 773b 2e3e 2647 48be 3dbf 3f3d b2d8 d9bd
00000330: 7aca d2bd 5cea 82bc 14f8 3fbc d14a 07bb
00000340: a16e be3e 668e 3abd fe99 0aba 1a74 6e3b
00000350: 580b dc3d 4d67 0cbd 949a bc3e d652 803d
00000360: 5d1e ccbd 6364 063c a54c 85bc a348 a53c
00000370: 760c 8a3e 4c39 3cbd c7ae a73c 8d73 cf3c
00000380: 431d 7d3e d751 47bd 6ac6 0d3f 307b d33d
00000390: 85ae 0b3e 9358 2cbd 49db 84bc 5178 14bc
000003a0: c5ec 7d3e 5992 e03d 36a9 e23c b37c 10bd
000003b0: 974a 2e3e 55ff 9ebd 7d9b 463f 78d0 8ebd
000003c0: 33a0 86bc 9a55 d0bc b7b2 7ebc caad 2fbd
000003d0: ec01 933d dccc c3bd c0d2 693c 2c0d 3d3c
000003e0: 6994 5b3d 989b 4f3e 0e60 933d 0774 383b
000003f0: c612 abbd f05b 09bc 9d2b 10bd 486b 1dbc

critic.0.bias f4 [256]
0.18761441 0.35129973 -0.0020740994 0.050037287 -0.060535002 -0.22501366 0.058480646 -0.07638061
-0.038884502 -0.14751333 0.14594096 0.31590867 0.5814651 0.6334764 0.101348326 -0.25826475
-0.18906331 0.46931216 -0.046217754 -0.011116219 -0.42610818 -0.21936876 -0.12597725 0.1525537
0.084435076 0.387638 -0.095837474 0.22505014 -0.0015694652 -0.1273337 0.2773179 -0.082833044
-0.32137823 0.29712373 -0.007699698 -0.7222046 0.2335484 0.33781746 0.5236052 -0.45334858
0.3445369 -0.17248732 -0.16044196 0.5177 -0.21536276 0.24189079 0.3686647 -0.21275406
-0.06174304 0.21157472 -0.56932676 0.05850802 -0.5672789 -0.6036185 0.4739366 -0.26126048
0.055123787 -0.48478797 -0.78253865 -0.045633584 -0.24919398 -0.01588392 -0.17928609 -0.67901397
0.009777878 -0.3115562 -0.14727902 -0.37214735 0.39094013 0.17456986 0.11566061 0.02650386
0.0674201 -0.1736511 -0.08353184 0.16485292 -0.8294385 0.24967286 -0.24397618 -0.38797885
-0.40073502 -0.15482959 0.030497903 -0.2962822 0.113547 -0.29900095 -0.14460841 -0.13135137
-0.22343613 0.108349234 0.38068432 0.3695834 -0.05050835 0.124496244 -0.35228887 -0.11896517
-0.10564818 0.040933724 0.16385953 0.21163969 0.15050893 -0.2371103 0.15755384 -0.13924162
-0.031348806 -0.23026235 0.082908995 0.122467086 -0.06226583 -0.11070882 -0.5111494 -0.3116898
-0.025274644 -0.28090468 -0.04363723 0.12728308 -0.3065772 -0.3540544 0.016510986 -0.0054968405
0.16147535 0.020270333 0.10451808 0.12278794 0.19053821 -0.04460514 -0.2359369 -0.1429492
0.2073578 0.22416379 -0.13859375 0.3004786 -0.07167708 -0.06674923 0.061836466 -0.013726036
0.033681694 -0.05826931 0.6511097 -0.36759588 -0.1469833 -1.1438928 -0.04631248 0.10133085
0.19390996 0.4367867 -0.2691387 -0.090157755 0.56874484 -0.28581366 -0.22821721 0.05420705
0.050199524 0.2245857 -0.17629847 0.06351404 0.078346446 -0.08187777 -0.21366268 -0.09954364
-0.075794265 0.28633043 0.33279052 -0.24921681 -0.204987 -0.3273064 -0.37038082 -0.18802214
-0.37107816 0.2282711 0.24248007 -0.09371938 -0.4736363 0.10393847 0.44940266 0.22952428
0.28441334 -0.045299873 0.13251017 -0.0434279 0.0019119642 -0.45148373 -0.19549048 0.30050787
0.4203152 0.019201335 -0.16230828 0.061194245 0.30135217 0.38216755 0.4109503 0.28431338
-0.2830522 0.23908961 -0.041938063 -0.107563384 0.013801128 -0.1514371 0.04375115 0.06233688
0.07943962 -0.46248525 -0.5269994 -0.20177719 -0.08971783 -0.20747834 -0.13243598 0.06355482
0.3443226 0.015932096 0.13702217 0.2474626 -0.055894908 0.084787175 -0.10046688 0.15340249
-0.19161218 0.39159366 0.085724525 -0.25979388 -0.079859175 -0.067383796 -0.007166845 0.28762278
-0.18795498 -0.103837915 -0.63673896 -0.2032411 0.035436917 -0.66746116 0.31020284 -0.03295077
-0.5502523 -0.03398072 -0.13509731 -0.43583593 -0.038776204 0.2830778 0.18935855 0.13882777
-0.045780454 -0.47906595 0.03586173 -0.18800168 -0.7250252 0.2307976 0.21922241 -0.41666406
0.57197607 -0.45340094 -0.15561272 -0.24994463 0.12269995 0.24969901 0.024794089 0.46762872
00000000: fe1d 403e 8fdd b33e 9ded 07bb e6f3 4c3d
00000010: 8df3 77bd fb69 66be 6789 6f3d 706d 9cbd
00000020: 5b45 1fbd bc0d 17be 8c71 153e c8be a13e
00000030: e6da 143f 822b 223f b68f cf3d 473b 84be
00000040: d099 41be af49 f03e d44e 3dbd cd20 36bc
00000050: da2a dabe 34a2 60be 2e00 01be 0a37 1c3e
00000060: 4cec ac3d 7d78 c63e 7046 c4bd 8b73 663e
00000070: 83b6 cdba c463 02be 9dfc 8d3e 5fa4 a9bd
00000080: b08b a4be 9a20 983e c04d fcbb 67e2 38bf
00000090: 5027 6f3e 69f6 ac3e fe0a 063f 4e1d e8be
000000a0: 2467 b03e 84a0 30be e64a 24be fd87 043f
000000b0: 0e88 5cbe 38b2 773e 9fc1 bc3e 33dc 59be
000000c0: 45e6 7cbd 0ba7 583e 66bf 11bf 1ba6 6f3d
000000d0: 3139 11bf be86 1abf d1a7 f23e efc3 85be
000000e0: 7bc9 613d 2136 f8be 7454 48bf 48ea 3abd
000000f0: b52c 7fbe ff1e 82bc c696 37be dcd3 2dbf
00000100: 6533 203c 4b84 9fbe 50d0 16be 198a bebe
00000110: 4e29 c83e 71c2 323e 78df ec3d 9f1e d93c
00000120: 8d13 8a3d 98d1 31be be12 abbd 34cf 283e
00000130: 1556 54bf 3eaa 7f3e e4d4 79be 2aa5 c6be
00000140: 242d cdbe a68b 1ebe bdd6 f93c 4db2 97be
00000150: 548b e83d a716 99be 3a14 14be f980 06be
00000160: 71cc 64be 34e6 dd3d 0ee9 c23e 093a bd3e
00000170: d8e1 4ebd e3f7 fe3d 355f b4be 03a4 f3bd
00000180: 135e d8bd 1faa 273d cbca 273e 13b8 583e
00000190: 031f 1a3e 0bcd 72be cb55 213e 5b95 0ebe
000001a0: 9b67 00bd e5c9 6bbe 31cc a93d 06d0 fa3d
000001b0: 740a 7fbd 4ebb e2bd b0da 02bf ce95 9fbe
000001c0: c50c cfbc bdd2 8fbe f4bc 32bd 7f56 023e
000001d0: b0f7 9cbe 9e46 b5be 0c42 873c d71e b4bb
000001e0: cb59 253e f80d a63c 930d d63d 3e78 fb3d
000001f0: 731c 433e e1b3 36bd 7199 71be 4661 12be
00000200: 9a55 543e 318b 653e 85eb 0dbe 55d8 993e
00000210: 6fcb 92bd d2b3 88bd 3c48 7d3d 2be3 60bc
00000220: d1f5 093d cdab 6ebd 20af 263f 8735 bcbe
00000230: ca82 16be 146b 92bf 28b2 3dbd 8c86 cf3d
00000240: 5590 463e 82a2 df3e 8ccc 89be a1a4 b8bd
00000250: 4399 113f 2b56 92be c6b1 69be 3608 5e3d
00000260: 049e 4d3d cbf9 653e 9687 34be a613 823d
00000270: 1a74 a03d 88af a7bd 64ca 5abe 89dd cbbd
00000280: 063a 9bbd e799 923e 8563 aa3e b132 7fbe
00000290: 1de8 51be b494 a7be 8ea2 bdbe e088 40be
000002a0: f5fd bdbe e6bf 693e b24c 783e f2ef bfbd
000002b0: 7580 f2be b1dd d43d 1b18 e63e 6a08 6b3e
000002c0: a09e 913e 5c8c 39bd bfb0 073e 74e1 31bd
000002d0: df9a fa3a e028 e7be a82e 48be 2bdc 993e
000002e0: 8e33 d73e 1e4c 9d3c 2434 26be d1a6 7a3d
000002f0: d54a 9a3e 77ab c33e 1468 d23e 8691 913e
00000300: 38ec 90be e8d3 743e 3fc7 2bbd 314a dcbd
00000310: 201e 623c 5412 1bbe 6834 333d f554 7f3d
00000320: 3db1 a23d deca ecbe 6fe9 06bf ae9e 4ebe
00000330: fbbd b7bd 3475 54be 4c9d 07be 0829 823d
00000340: 0d4b b03e 0784 823c 8a4f 0c3e d666 7d3e
00000350: 0ff2 64bd e6a4 ad3d 94c1 cdbd 8b15 1d3e
00000360: fc35 44be f77e c83e 5790 af3d b403 85be
00000370: 358d a3bd 8400 8abd dad7 eabb 4b43 933e
00000380: 4577 40be f9a8 d4bd 5301 23bf 6f1e 50be
00000390: 4d26 113d bcde 2abf e8d2 9e3e 63f7 06bd
000003a0: 56dd 0cbf 5e2f 0bbd f356 0abe e325 dfbe
000003b0: ccd3 1ebd 93ef 903e 35e7 413e de28 0e3e
000003c0: 4984 3bbd 2248 f5be c0e3 123d 8383 40be
000003d0: 409b 39bf 3556 6c3e d77b 603e fe54 d5be
000003e0: 066d 123f 2b24 e8be f158 1fbe 7cf1 7fbe
000003f0: 1d4a fb3d 19b1 7f3e f91c cb3c 086d ef3e

critic.2.weight f4 [128, 256]
-0.060208917 0.007848318 0.051972523 -0.015640978 0.013939539 -0.12308599 -0.08410786 -0.17394541
0.05830489 -0.009525476 0.39381385 0.06259702 -0.011407056 0.04098024 0.021396885 -0.0019201128
0.046166584 -0.15222225 -0.04757026 0.068482235 -0.04292139 -0.077591926 0.11494723 0.037696093
-0.14279103 0.23026448 0.08497399 -0.038038976 0.03931852 -0.05695126 0.009087694 -0.23340891
0.008555434 0.021739623 -0.11153592 -0.38384184 -0.12405248 -0.036364913 0.055441808 -0.037175704
0.041785557 0.011135744 0.041351352 -0.032621022 -1.6896582 -0.017401617 -0.023750426 0.0077911736
0.08827418 -0.24911124 -0.0074362196 -0.068844035 -0.024674157 -0.123247094 -0.021257354 0.06593596
-0.051060338 -0.013525626 -0.14339596 -2.9763658 -0.035503667 0.04474897 0.24778014 -5.205193
0.073467106 -0.032347664 -0.019939922 -0.23895755 0.052376956 -0.054444976 -0.18530154 0.06645752
0.061979648 -0.18130304 -0.050900385 0.114803605 0.08042531 -0.067059204 -0.02883469 0.0071407515
-0.09011281 0.0475329 0.025277525 -0.06484445 0.07894836 -0.17086326 0.018050587 -0.18587478
0.12652528 0.06505178 -0.030334558 0.16598931 0.028498987 -0.026451183 -0.08966981 -0.037343387
-0.033270054 -0.055036884 -0.05624895 0.06664643 0.076799065 0.014085841 -0.00419697 -0.06258883
0.19623828 -0.20558983 -0.0063774846 -0.008205701 0.32207873 0.046639573 -0.04876413 0.10311223
0.12001296 -0.07323204 0.016014645 0.018101068 -0.15013061 -0.015828358 0.07881369 -0.08659319
-0.038283054 0.038081095 0.07489598 0.3779377 0.28105596 -0.010094369 -0.0043836725 0.008216842
-0.20665774 -0.16605753 -0.22173531 -0.03736453 0.012177267 -0.0679617 -0.018573713 -0.040603843
-0.16437519 0.034017306 0.04279622 0.06654607 -0.04005332 -0.1089384 -0.032798544 -0.04039855
-0.09262924 0.06493386 0.073596895 -0.033842884 0.037866794 -0.24475142 0.0002928086 0.044943154
0.07531754 -0.0029906724 -4.4422097 -0.022888858 -0.08441046 0.08705145 -0.11212423 0.010930191
-0.0318559 -0.10620825 -0.04437316 0.06322785 0.072686955 0.050176594 -0.28674445 0.05676966
-0.12906398 0.07257486 0.07039704 -0.06629898 0.04012933 0.01792482 0.045814108 0.0040257243
-0.055587284 -0.024072867 -0.16535299 -0.12707017 -0.0077852183 0.15905577 0.120604165 -0.0044792034
-0.0735925 0.015326681 -0.02686134 -0.0322769 -0.010708887 -0.0018061895 0.33797455 -0.029358502
0.02822285 0.025947077 0.016861508 -0.08452776 0.00419243 -0.038436007 0.04474806 -0.06585842
-0.0032045094 0.029305782 0.029826697 0.01773679 0.002809439 0.0070799245 0.11692632 -0.08161378
-0.008420075 0.0301694 0.0106821675 0.058029063 -0.089282796 -0.06361073 -0.12258734 0.06243023
-0.10806158 0.0074783303 -0.46381062 -0.031919308 -0.0073108086 -0.17691949 -0.02859059 0.03731739
-0.081834435 -0.108072154 -0.063822076 -0.05246173 -0.06939321 -0.29199427 -0.023726532 -0.013029507
-0.012735479 -0.06991918 -0.060345296 0.052758154 -0.021665316 -0.027195795 0.028794521 0.021620898
-0.047982387 -0.27940485 0.0550913 0.091341965 -0.11339545 -0.11717508 -0.012714221 0.040045075
0.06597604 0.06428431 -0.03891422 -0.052303504 0.36472115 0.12921168 -0.11981223 0.16799095
00000000: a09d 76bd 3b96 003c 24e1 543d 8221 80bc
00000010: aa62 643c 8214 fcbd be40 acbd bf1e 32be
00000020: 1cd1 6e3d be10 1cbc f8a1 c93e de32 803d
00000030: a9e4 3abc e5da 273d 8548 af3c 4bac fbba
00000040: 2c19 3d3d 26e0 1bbe 08d9 42bd 6a40 8c3d
00000050: 57ce 2fbd 84e8 9ebd 7469 eb3d 3867 1a3d
00000060: d037 12be 74ca 6b3e d806 ae3d c2ce 1bbd
00000070: 750c 213d b945 69bd 8de4 143c bf02 6fbe
00000080: 172c 0c3c 4b17 b23c f26c e4bd eb86 c4be
00000090: 3a0f febd 60f3 14bd f316 633d 8d45 18bd
000000a0: 5527 2b3d b272 363c 0960 293d 9f9d 05bd
000000b0: b846 d8bf d68d 8ebc 4190 c2bc 1a4d ff3b
000000c0: 18c9 b43d 0417 7fbe 88ab f3bb 1afe 8cbd
000000d0: 7521 cabc f968 fcbd e723 aebc 6f09 873d
000000e0: a524 51bd 969a 5dbc 64d6 12be c77c 3ec0
000000f0: 4b6c 11bd b24a 373d 14ba 7d3e f190 a6c0
00000100: ec75 963d fc7e 04bd 0c59 a3bc 4ab1 74be
00000110: 3889 563d b201 5fbd b0bf 3dbe e11a 883d
00000120: 5fde 7d3d 81a7 39be ec7c 50bd 271e eb3d
00000130: 06b6 a43d 5656 89bd ba36 ecbc f7fc e93b
00000140: 118d b8bd dcb1 423d d012 cf3c 2bcd 84bd
00000150: aeaf a13d c7f6 2ebe d3de 933c f555 3ebe
00000160: d88f 013e de39 853d 2e80 f8bc 1af9 293e
00000170: b576 e93c 27b0 d8bc cea4 b7bd 61f5 18bd
00000180: 2e46 08bd 5b6e 61bd 4d65 66bd ec7d 883d
00000190: d448 9d3d 4dc8 663c bc86 89bb 932e 80bd
000001a0: b0f2 483e 2486 52be 38fa d0bb 3471 06bc
000001b0: 81e7 a43e 2309 3f3d e5bc 47bd 812c d33d
000001c0: 5bc9 f53d aefa 95bd 2531 833c b148 943c
000001d0: d7bb 19be 79aa 81bc 1269 a13d c557 b1bd
000001e0: b1ce 1cbd ecfa 1b3d 1063 993d 0d81 c13e
000001f0: 91e6 8f3e da62 25bc e9a4 8fbb ef9f 063c
00000200: 169e 53be fc0a 2abe 950e 63be 8d0b 19bd
00000210: 2983 473c 812f 8bbd e627 98bc 3750 26bd
00000220: f851 28be bb55 0b3d 174b 2f3d 4e49 883d
00000230: f30e 24bd 191b dfbd c457 06bd f378 25bd
00000240: 66b4 bdbd 0bfc 843d f8b9 963d d69e 0abd
00000250: 361a 1b3d 1ea0 7abe 1b84 9939 5016 383d
00000260: 1540 9a3d 28ff 43bb 9526 8ec0 6a81 bbbc
00000270: 64df acbd 0848 b23d 63a1 e5bd 8b14 333c
00000280: 557b 02bd b683 d9bd a1c0 35bd 9a7d 813d
00000290: e6dc 943d f985 4d3d 2bd0 92be 4e87 683d
000002a0: 5929 04be 21a2 943d 532c 903d c2c7 87bd
000002b0: a75e 243d 12d7 923c 93a7 3b3d 39ea 833b
000002c0: 7eaf 63bd 7634 c5bc 4b52 29be af1e 02be
000002d0: 251b ffbb 84df 223e 51ff f63d 48c6 92bb
000002e0: aab7 96bd c21c 7b3c 500c dcbc c834 04bd
000002f0: 5474 2fbc aabd ecba 000b ad3e 3e81 f0bc
00000300: 9b33 e73c f78e d43c 2521 8a3c e41c adbd
00000310: a760 893b 136f 1dbd be49 373d c8e0 86bd
00000320: bf02 52bb ae12 f03c 1e57 f43c bf4c 913c
00000330: 911e 383b b6fe e73b 1177 ef3d 2025 a7bd
00000340: 5bf4 09bc d125 f73c 4204 2f3c e2af 6d3d
00000350: e6d9 b6bd 5846 82bd 120f fbbd d7b6 7f3d
00000360: 644f ddbd c80c f53b 9678 edbe d2bd 02bd
00000370: 828f efbb 622a 35be d036 eabc 1fda 183d
00000380: d098 a7bd ef54 ddbd 26b5 82bd 1ce2 56bd
00000390: 071e 8ebd 4680 95be 255e c2bc b779 55bc
000003a0: 78a8 50bc c931 8fbd a12c 77bd ef18 583d
000003b0: 767b b1bc b7c9 debc 7de2 eb3c 4f1e b13c
000003c0: 2e89 44bd 270e 8fbe 6aa7 613d 7f11 bb3d
000003d0: e03b e8bd 7df9 efbd 4f4f 50bc 4e06 243d
000003e0: 721e 873d 7ea7 833d 8464 1fbd 333c 56bd
000003f0: bbbc ba3e 1150 043e 1d60 f5bd d205 2c3e

critic.2.bias f4 [128]
0.08815951 -0.065868475 -0.0771604 0.08444152 0.03869846 0.102901384 -0.052424382 -0.06513518
-0.08877613 -0.0065385504 -0.2591817 0.08961928 0.043951705 0.038055398 0.16900048 0.06115639
0.024262514 0.051481694 0.099688716 0.014189648 0.12846527 -0.0064175203 -0.11683336 -0.09660064
0.0276135 -0.054432996 0.039240573 0.033333413 0.0013535649 0.078522354 -0.20820004 -0.11059353
-0.0024864445 -0.06388006 -0.022421079 0.028446304 0.1560294 0.14096923 0.08092203 -0.007974448
0.0020430011 -0.042490546 -0.05426312 -0.050075892 -0.005604358 -0.010816966 0.0016678596 -0.12280543
0.0010185055 0.043176733 0.061945084 -0.0954676 0.035038333 0.015325571 -0.0010855688 -0.03497665
0.04381348 0.03605943 0.07145482 -0.0568957 0.015529473 -0.056973197 -0.12934777 -0.17626552
-0.169317 -0.11855339 0.06418965 -0.051848773 -0.07916697 0.038372513 0.0051054102 -0.021357616
0.043498687 0.06872027 0.035674896 -0.0486311 0.103658736 -0.08716113 0.105661 -0.07038652
-0.12997288 -0.06802513 -0.017316563 0.049873956 0.028012043 0.15342373 0.016126942 -0.1731031
0.0018388629 0.017662374 -0.081357874 -0.04281453 0.10399372 -0.024233337 -0.060413588 -0.10305523
0.07758828 -0.058970448 0.08092469 -0.018097883 0.059381448 0.04148718 -0.120643325 -0.018836837
0.009691994 -0.021776311 -0.08655481 0.08810669 0.026640989 0.062715635 0.0808036 0.10514399
0.02495853 0.037935276 0.10239726 -0.04842701 -0.005320713 0.15427566 0.0517078 -0.11910911
0.03401691 -0.028634964 -0.011900386 0.01753625 -0.03455371 0.017054738 0.06199865 0.14231846
00000000: f98c b43d 0de6 86bd 4606 9ebd adef ac3d
00000010: 4782 1e3d f6bd d23d f3ba 56bd 9865 85bd
00000020: 42d0 b5bd 5641 d6bb 77b3 84be 508a b73d
00000030: b406 343d fadf 1b3d 760e 2d3e 1f7f 7a3d
00000040: 2ec2 c63c 78de 523d 9929 cc3d b37b 683c
00000050: 668c 033e 104a d2bb 5446 efbd 8ed6 c5bd
00000060: b535 e23c 22f5 5ebd b9ba 203d 9e88 083d
00000070: 1a6a b13a 54d0 a03d 6432 55be dc7e e2bd
00000080: 9ef3 22bb 8dd3 82bd 69ac b7bc 3908 e93c
00000090: 2cc6 1f3e 3d5a 103e 73ba a53d 42a7 02bc
000000a0: dfe3 053b 910a 2ebd 0143 5ebd 611c 4dbd
000000b0: c3a4 b7bb a539 31bc 159c da3a 6a81 fbbd
000000c0: 607f 853a 16da 303d 21ba 7d3d 8484 c3bd
000000d0: 5b84 0f3d 1b18 7b3c a549 8eba ad43 0fbd
000000e0: c375 333d 0eb3 133d e856 923d 770b 69bd
000000f0: 556f 7e3c ba5c 69bd be73 04be f37e 34be
00000100: 7061 2dbe 1fcc f2bd dd75 833d 615f 54bd
00000110: 4b22 a2bd 7f2c 1d3d 494b a73b 2bf6 aebc
00000120: ae2b 323d 37bd 8c3d d71f 123d 6831 47bd
00000130: 084b d43d 8981 b2bd cb64 d83d cf26 90bd
00000140: 9c17 05be c250 8bbd 77db 8dbc a248 4c3d
00000150: 8379 e53c 1c1b 1d3e a61c 843c f041 31be
00000160: 0006 f13a afb0 903c f59e a6bd 4a5e 2fbd
00000170: a9fa d43d fe84 c6bc 3d74 77bd 9f0e d3bd
00000180: 9be6 9e3d ff8a 71bd d8bb a53d 0342 94bc
00000190: f639 733d 76ee 293d d913 f7bd b64f 9abc
000001a0: 2bcb 1e3c 3c64 b2bc a643 b1bd 4871 b43d
000001b0: 343e da3c 0e71 803d 5c7c a53d bb55 d73d
000001c0: d575 cc3c 0562 1b3d a8b5 d13d 675b 46bd
000001d0: 6059 aebb 70fa 1d3e 8fcb 533d 7aef f3bd
000001e0: 5155 0b3d df93 eabc d6f9 42bc 2fa8 8f3c
000001f0: 3188 0dbd 61b6 8b3c 4cf2 7d3d eebb 113e

critic.4.weight f4 [1, 128]
0.433069 -0.16293313 0.23328859 -0.2974691 0.015035066 -0.11723985 -0.15655577 -0.55070686
0.29672846 -0.1650241 -1.1256773 -0.40921885 -0.15037191 0.15922995 0.8846007 -0.6130315
2.2726424 0.104227684 0.38022867 0.12926511 1.4315705 0.31011847 0.31355414 -0.61691445
0.31756318 1.173758 0.28991425 -0.24265058 -0.1624904 0.19624563 0.6683567 0.5029398
0.36646703 -0.49600127 0.72797436 0.38161507 0.225418 -0.34088603 -0.1650835 1.1915166
0.21507737 0.50193465 0.238499 1.5416571 0.18541092 0.83643365 -0.24657425 0.5477653
1.1241688 -0.25448644 0.77235854 0.9772788 -0.43777332 0.16446085 0.67328197 -0.6118485
0.70308495 0.54793036 0.4374394 0.70508975 -0.30244866 0.11297216 1.3701544 1.2551676
0.9345485 0.46687073 -0.4867377 1.0121292 0.49845758 0.45591712 0.47156426 -0.1257385
0.2641275 0.58005846 0.5924868 1.5528629 0.5015303 -0.9099564 -0.21793592 0.8600522
-0.31231105 0.024824029 1.4703614 -0.204269 0.62939715 0.54847586 1.0414398 0.23074618
-0.09194417 -0.17116384 0.30147243 -0.14511576 -0.6574491 -1.3473451 -0.23668762 -1.2036811
-0.50104195 -0.15543534 0.56002 -0.50666225 0.9226283 -0.20981388 -0.39964435 0.18163246
0.16629721 -0.24666323 0.1737843 -0.51634514 0.2605615 0.22890718 0.44130147 0.36282945
-0.2585161 0.10328801 1.989972 -0.83350146 -0.47225025 0.45933428 -0.593893 1.8803872
0.65001994 0.027309334 -0.20323013 -1.0243239 -0.02072178 2.07803 -0.2973527 -0.2438409
00000000: 38bb dd3e f1d7 26be 34e3 6e3e df4d 98be
00000010: a355 763c 721b f0bd 2850 20be 20fb 0cbf
00000020: cbec 973e 14fc 28be 3216 90bf 2285 d1be
00000030: 18fb 19be 2d0d 233e 3175 623f a2ef 1cbf
00000040: f972 1140 5375 d53d 55ad c23e 135e 043e
00000050: b43d b73f d9c7 9e3e 2b8a a03e 1bee 1dbf
00000060: a497 a23e b43d 963f a46f 943e 6579 78be
00000070: e263 26be 9df4 483e 6d19 2b3f aac0 003f
00000080: 91a1 bb3e e1f3 fdbe 875c 3a3f 0d63 c33e
00000090: fad3 663e 9d88 aebe a60b 29be 9e83 983f
000000a0: 3e3d 5c3e ca7e 003f 1539 743e 0555 c53f
000000b0: 5cdc 3d3e 8420 563f f67d 7cbe 593a 0c3f
000000c0: c3e4 8f3f 0c4c 82be 4ab9 453f f22e 7a3f
000000d0: d323 e0be 6d68 283e 355c 2c3f 1aa2 1cbf
000000e0: 60fd 333f 2a45 0c3f 0ff8 df3e c380 343f
000000f0: 8dda 9abe f35d e73d 3861 af3f 55a9 a03f
00000100: 923e 6f3f ae09 ef3e af35 f9be 738d 813f
00000110: d535 ff3e f86d e93e df70 f13e 98c1 00be
00000120: b83b 873e b67e 143f 37ad 173f 36c4 c63f
00000130: 4a64 003f e7f2 68bf 982a 5fbe 622c 5c3f
00000140: 3ce7 9fbe c35b cb3c cd34 bc3f e52b 51be
00000150: 2c20 213f ea68 0c3f e64d 853f ba48 6c3e
00000160: 3a4d bcbd 9345 2fbe 985a 9a3e 3a99 14be
00000170: 964e 28bf ce75 acbf 3d5e 72be 3912 9abf
00000180: 4944 00bf 712a 1fbe 795d 0f3f 9eb4 01bf
00000190: 5e31 6c3f 73d9 56be 2f9e ccbe dcfd 393e
000001a0: d149 2a3e 4995 7cbe 83f4 313e 322f 04bf
000001b0: 5168 853e a566 6a3e 44f2 e13e c8c4 b93e
000001c0: 395c 84be aa88 d33d 67b7 fe3f 5a60 55bf
000001d0: c9ca f1be dd2d eb3e 5f09 18bf 87b0 f03f
000001e0: b567 263f d3b7 df3c 8f1b 50be 0c1d 83bf
000001f0: b9c0 a9bc 72fe 0440 9d3e 98be 6eb1 79be

actor.0.weight f4 [256, 48]
0.23822455 0.09541599 -0.12770109 0.09961686 0.15491267 -0.1689881 0.16036208 0.010176422
0.021434085 0.40288997 0.035867922 -0.10804163 0.31370148 0.1419771 -0.033366792 -0.03103063
0.044943593 -0.14705376 0.2796358 -0.009947598 -0.06560216 0.21992482 0.20129116 -0.086568214
0.26977092 -0.007468407 -0.09602949 -0.041388508 0.11871448 -0.09426452 -0.009403223 -0.084778965
0.009491454 0.32636067 -0.14027874 -0.06338215 0.294561 0.081463955 -0.045800716 -0.09533538
0.20321633 -0.17806923 0.019975571 -0.104264066 -0.28438666 0.17033559 -0.20128034 0.039639678
0.19019848 0.33785987 0.090295605 -0.14890756 -0.015188825 0.08719181 -0.060476165 -0.063953415
-0.15087368 0.0679904 -0.036226165 -0.117377095 0.13437347 0.36139858 0.20183161 0.049376126
-0.20228888 -0.13881195 -0.00038581662 0.01907858 -0.15874082 -0.006605593 -0.17264181 0.0032892807
0.23333557 0.32664067 0.28715613 0.107404135 -0.12920064 -0.06408519 -0.06602453 0.030182196
-0.2619062 0.11386701 -0.22528198 -0.07480663 0.34866413 0.32057384 0.15860832 -0.10184373
-0.26803973 0.013038652 -0.020250872 0.008762809 -0.35772446 0.18506464 -0.1583866 0.10127219
-0.41509348 0.034176964 -0.053473763 -0.021202993 0.11270533 0.11167271 -0.05162483 0.06376873
0.013988571 -0.31074765 0.035565477 -0.16588171 -0.4624366 -0.055518895 -0.007937035 -0.21079361
0.0797103 0.07384895 -0.00405811 -0.098787 0.070482165 -0.18967442 0.12438766 -0.078703366
-0.30283475 -0.09903207 0.024964025 -0.09884744 0.094142936 -0.014725621 0.0077821207 -0.06704859
0.17981188 -0.4188736 -0.06420427 -0.20023063 -0.3273603 0.060718767 -0.12179004 0.057920422
0.0128609175 -0.04679557 0.17133522 -0.013808807 0.030406097 -0.327433 0.092714466 -0.27232963
-0.18241394 -0.033964735 0.13708648 -0.028530357 0.009634492 -0.10645116 0.009006966 -0.073456064
0.22474787 -0.17104954 -0.053182486 0.061004825 -0.15870705 0.070115104 0.12724985 -0.16600376
-0.078477256 0.11706916 0.023647081 -0.1233438 0.019264955 -0.14710698 0.14441322 0.21752551
-0.09251534 0.013035501 0.1697085 0.04437061 -0.13726638 0.05915152 0.016093418 0.07686112
0.2106238 0.04740188 0.20737672 0.2235862 -0.06431581 0.11057712 0.032224223 -0.022917967
-0.11493391 -0.029146818 0.2652381 0.06711352 0.17674181 0.048606172 0.15233502 0.375561
0.058253907 -0.09704737 0.08846929 0.11747038 -0.12490839 0.07511386 0.03181341 -0.055467065
0.0564443 -0.11107016 -0.016995635 -0.025688231 0.11209703 -0.14696172 -0.011133529 0.13657027
0.075318515 -0.09403282 0.02378852 0.0735474 -0.020092405 -0.07296332 0.011107785 0.029011603
-0.053359628 0.014646312 -0.04139268 -0.012453186 -0.1466265 -0.14562583 0.019908505 0.037173755
-0.083850056 -0.1518487 0.028109808 -0.014954652 -0.0062167495 0.11852346 0.12855239 0.06327143
-0.019357955 0.031275157 0.04108746 -0.1306974 0.097476475 -0.013616474 0.09278626 0.106321715
0.073355064 0.07678762 0.24204247 0.109238684 -0.013432578 -0.019560432 0.102955535 -0.20613518
0.24365999 0.116149634 0.07685903 0.0016996702 0.07763949 -0.018191842 0.1518409 -0.10048883
00000000: 23f1 733e 7569 c33d 13c4 02be ed03 cc3d
00000010: 6da1 1e3e 370b 2dbe f535 243e 02bb 263c
00000020: 8996 af3c 9847 ce3e 3eea 123d ee44 ddbd
00000030: 7b9d a03e 7262 113e 9eab 08bd f333 febc
00000040: c616 383d 4395 16be 6c2c 8f3e 40fb 22bc
00000050: 6d5a 86bd f933 613e 451f 4e3e ad4a b1bd
00000060: 6a1f 8a3e 8ab9 f4bb 1cab c4bd ff86 29bd
00000070: 9420 f33d c20d c1bd fa0f 1abc 98a0 adbd
00000080: 0b82 1b3c bf18 a73e 3ba5 0fbe 80ce 81bd
00000090: b3d0 963e 93d6 a63d 8899 3bbd 323f c3bd
000000a0: f117 503e c857 36be cfa3 a33c 6688 d5bd
000000b0: 219b 91be 746c 2e3e 6f1c 4ebe 375d 223d
000000c0: 64c3 423e f8fb ac3e e7ec b83d 397b 18be
000000d0: 8dda 78bc 9f91 b23d dbb5 77bd 02fa 82bd
000000e0: a17e 1abe 8d3e 8b3d e361 14bd 6763 f0bd
000000f0: 3399 093e 3c09 b93e f2ac 4e3e 9f3e 4a3d
00000100: d124 4fbe b824 0ebe 6e47 cab9 af4a 9c3c
00000110: f48c 22be bb73 d8bb 04c9 30be f990 573b
00000120: 85ef 6e3e 723d a73e 2106 933e b3f6 db3d
00000130: 2c4d 04be 193f 83bd de37 87bd a740 f73c
00000140: 9218 86be 1b33 e93d 52b0 66be 3834 99bd
00000150: 1b84 b23e 4122 a43e 386a 223e 7293 d0bd
00000160: 813c 89be 12a0 553c 28e5 a5bc e391 0f3c
00000170: a927 b7be 9681 3d3e 1930 22be cb67 cf3d
00000180: 2287 d4be 25fd 0b3d 4e07 5bbd e6b1 adbc
00000190: 0dd2 e63d a9b4 e43d 8f74 53bd 2e99 823d
000001a0: 5230 653c 511a 9fbe 1bad 113d e5dc 29be
000001b0: 7dc4 ecbe c867 63bd 560a 02bc 48da 57be
000001c0: 273f a33d 1e3e 973d e5f9 84bb d750 cabd
000001d0: f458 903d 033a 42be f5be fe3d 3b2f a1bd
000001e0: 280d 9bbe 53d1 cabd 5b81 cc3c 8770 cabd
000001f0: 03ce c03d bb43 71bc 2901 ff3b c550 89bd
00000200: 9b20 383e 9a76 d6be 877d 83bd 4209 4dbe
00000210: c59b a7be 3eb4 783d 0e6d f9bd f73d 6d3d
00000220: 99b6 523c b6ac 3fbd 8072 2f3e 563e 62bc
00000230: 3516 f93c 4ca5 a7be 15e1 bd3d ca6e 8bbe
00000240: b8ca 3abe 9b1e 0bbd 6660 0c3e 7fb8 e9bc
00000250: fdd9 1d3c 1103 dabd f491 133c 2270 96bd
00000260: 4e24 663e 9c27 2fbe e1d5 59bd 32e0 793d
00000270: 1a84 22be 8298 8f3d c94d 023e e4fc 29be
00000280: afb8 a0bd f5c1 ef3d 86b7 c13c ad9b fcbd
00000290: 8ad1 9d3c 36a3 16be 0fe1 133e 02bf 5e3e
000002a0: af78 bdbd db92 553c 11c8 2d3e f5bd 353d
000002b0: 8f8f 0cbe dd48 723d 58d6 833c 5d69 9d3d
000002c0: c4ad 573e 7928 423d 905a 543e c8f3 643e
000002d0: 02b8 83bd 4276 e23d 8cfd 033d 76be bbbc
000002e0: 7862 ebbd 4fc5 eebc 4acd 873e d072 893d
000002f0: cefb 343e 4417 473d b6fd 1b3e 8849 c03e
00000300: a69b 6e3d c6c0 c6bd 632f b53d 5094 f03d
00000310: f8cf ffbd 4cd5 993d c74e 023d 6f31 63bd
00000320: 2332 673d c178 e3bd 6e3a 8bbc 2070 d2bc
00000330: 2193 e53d 227d 16be 6869 36bc 14d9 0b3e
00000340: 9840 9a3d 4794 c0bd 24e0 c23c 05a0 963d
00000350: d498 a4bc cb6d 95bd 6dfd 353c bea9 ed3c
00000360: a08f 5abd 16f7 6f3c 5f8b 29bd 7308 4cbc
00000370: 4225 16be f01e 15be 2917 a33c 8243 183d
00000380: 94b9 abbd 3a7e 1bbe 8a46 e63c 5b04 75bc
00000390: e0b5 cbbb 6ebc f23d 3da3 033e 7494 813d
000003a0: 9394 9ebc 611a 003d 534b 283d 8ad5 05be
000003b0: bfa1 c73d a217 5fbc b906 be3d 33bf d93d
000003c0: 2e3b 963d d442 9d3d fbd9 773e 88b8 df3d
000003d0: 5114 5cbc 333d a0bc 5ada d23d 1a15 53be
000003e0: 0182 793e dcdf ed3d 4468 9d3d 78c7 de3a
000003f0: 7401 9f3d 0f07 95bc 2e7c 1b3e 16cd cdbd

actor.0.bias f4 [256]
-0.18457305 0.15980531 -0.08834299 -0.053934377 -0.09696496 -0.038391218 -0.06338445 0.09081848
-0.07767715 -0.17584136 0.06517709 0.0742024 0.23339795 0.11216885 -0.042380862 -0.11822727
-0.20404981 -0.05125747 0.0280647 -0.08698855 -0.18000515 -0.011455227 -0.12387657 -0.14758444
-0.15309787 0.023600565 -0.1290918 0.08844068 0.026706493 -0.2803619 -0.010166965 0.10899397
-0.044253778 0.081145965 -0.07713647 0.12965642 -0.29375258 0.015016647 0.14037637 0.09418972
-0.13925943 0.049949583 -0.034409508 -0.08363576 0.037843883 0.21081609 0.19119212 -0.05651792
0.18512398 0.06583136 0.093843214 -0.069484435 -0.09174834 0.143525 -0.041029226 -0.03816273
-0.17600553 -0.040035196 0.113909915 -0.089669995 0.17791758 -0.007322148 -0.08490055 0.008758471
0.10999363 -0.25764304 0.11504116 -0.14388932 -0.0052082827 -0.0035898353 -0.1839023 -0.0067203105
-0.12808007 0.065290034 0.043871064 0.04193445 0.10678184 -0.0018684736 0.14781003 0.043753516
0.027268313 0.06445023 0.05485581 -0.056543052 -0.016209159 0.05356976 0.024828672 -0.08674208
-0.1656608 -0.005100894 0.049106397 -0.043548763 -0.15779178 0.021732165 -0.08042983 -0.039862804
0.13322201 0.11968546 0.1647226 -0.1703653 0.09067527 0.107579544 -0.07712475 -0.075465664
0.05787819 0.018870004 0.06840657 -0.04334631 0.22994398 0.007794782 -0.12664941 0.036234997
0.21658681 0.04243529 -0.06532814 0.005664762 -0.13932821 -0.028090263 0.099762864 -0.1759055
0.004885001 -0.05013005 0.05943905 -0.12838672 -0.040680718 0.09385984 -0.085875355 -0.14914697
-0.12934558 -0.20410652 0.090457 0.13346466 -0.082585454 0.08607605 0.038190976 0.066241086
-0.040627293 0.267922 0.07839511 0.1880666 -0.011719638 -0.025901234 0.08467349 0.12194292
-0.005261901 0.07769565 0.20799908 0.14987063 0.039044388 -0.084532775 0.09190434 0.18453549
-0.13749973 0.055951484 -0.15355979 0.006030713 -0.17320089 -0.06118831 0.2414181 -0.0841572
0.26262656 0.003897229 -0.0032131337 0.20465912 -0.09341224 0.022497669 -0.14101398 -0.06026312
0.09445169 -0.013429275 -0.13751633 -0.074283466 0.021133976 0.089292474 0.03599309 -0.09663233
0.2064194 0.20029083 -0.21226043 -0.14437133 -0.04554638 0.022673462 -0.057592947 -0.05600555
-0.0265249 -0.01703726 -0.07681726 0.19337493 0.03816669 -0.042960554 0.09909495 -0.13031298
-0.03620889 0.056290828 -0.15535016 0.12138608 -0.063062005 0.0060543003 0.19031885 0.009299039
-0.18805917 0.23575886 0.031947065 0.17179637 -0.014400292 0.30125213 -0.18801014 0.06439024
0.04209362 -0.11481371 0.025362255 -0.06438058 -0.15478101 0.14577952 -0.095611684 -0.100658946
-0.13320065 -0.07497363 -0.1816004 0.012751865 0.0051917923 0.13493228 0.031317163 0.059436634
-0.078370996 0.068059765 -0.006607028 0.07228991 -0.16695136 -0.060258012 0.11295948 -0.22614518
-0.19314224 -0.0313749 -0.058438394 -0.13119623 0.07115727 -0.17151904 0.1120692 -0.016403183
0.021125626 0.0040272307 0.07975588 0.10965699 0.041972082 0.013012934 0.011528453 0.076794915
0.20334777 -0.0026982157 -0.014769624 0.103074975 -0.15335174 -0.02320369 0.046450347 0.11653546
00000000: b800 3dbe 01a4 233e 2bed b4bd 4bea 5cbd
00000010: 9195 c6bd 1c40 1dbd b5cf 81bd 0aff b93d
00000020: 3315 9fbd c20f 34be 917b 853d 6ef7 973d
00000030: dfff 6e3e c8b8 e53d 8e97 2dbd 2421 f2bd
00000040: 6ff2 50be 5af3 51bd f1e7 e53c 0e27 b2bd
00000050: 4553 38be b4ae 3bbc 00b3 fdbd 6020 17be
00000060: b0c5 1cbe f955 c13c a430 04be 6320 b53d
00000070: 93c7 da3c 988b 8fbe 5893 26bc 3b38 df3d
00000080: 7343 35bd db2f a63d baf9 9dbd a7c4 043e
00000090: bd66 96be 6208 763c d3be 0f3e 8ae6 c03d
000000a0: 069a 0ebe ef97 4c3d fcf0 0cbd 3a49 abbd
000000b0: 3002 1b3d 2ce0 573e dec7 433e 567f 67bd
000000c0: 2491 3d3e 98d2 863d df30 c03d db4d 8ebd
000000d0: 8ee6 bbbd 38f8 123e 430e 28bd 8650 1cbd
000000e0: cb3a 34be f2fb 23bd 9a49 e93d e7a4 b7bd
000000f0: 0730 363e a1ee efbb 57e0 adbd b17f 0f3c
00000100: 5744 e13d cae9 83be b39a eb3d b957 13be
00000110: 3eaa aabb 7143 6bbb e250 3cbe 0d36 dcbb
00000120: 6c27 03be c8b6 853d 25b2 333d 75c3 2b3d
00000130: 70b0 da3d 92e7 f4ba 835b 173e e336 333d
00000140: cc61 df3c 7bfe 833d 7cb0 603d b099 67bd
00000150: 12c9 84bc f76b 5b3d 8065 cb3c d5a5 b1bd
00000160: fca2 29be 6625 a7bb ca23 493d 3060 32bd
00000170: 2b94 21be a707 b23c 65b8 a4bd 2e47 23bd
00000180: 5a6b 083e a71d f53d 0bad 283e 3e74 2ebe
00000190: f5b3 b93d aa52 dc3d 95f3 9dbd be8d 9abd
000001a0: ae11 6d3d 4495 9a3c be18 8c3d e68b 31bd
000001b0: 6f76 6b3e 5f6b ff3b 62b0 01be 266b 143d
000001c0: efc8 5d3e a0d0 2d3d c3ca 85bd 789f b93b
000001d0: 0eac 0ebe 8d1d e6bc 7950 cc3d 9220 34be
000001e0: 5c12 a03b 2b55 4dbd 5c76 733d cf77 03be
000001f0: d3a0 26bd 9639 c03d 6bdf afbd fcb9 18be
00000200: 2b73 04be 4d01 51be 8541 b93d f6aa 083e
00000210: 9022 a9bd a448 b03d 246e 1c3d 68a9 873d
00000220: ce68 26bd 132d 893e 9e8d a03d 8894 403e
00000230: b903 40bc d32e d4bc 4b69 ad3d 36bd f93d
00000240: 066c acbb e61e 9f3d b6fd 543e b077 193e
00000250: 02ed 1f3d 851f adbd 5838 bc3d dff6 3c3e
00000260: bbcc 0cbe 622d 653d c73e 1dbe 4a9d c53b
00000270: 935b 31be 98a0 7abd 4e36 773e 9c5a acbd
00000280: fd76 863e a768 7f3b 7093 52bb 2992 513e
00000290: eb4e bfbd 084d b83c f865 10be 76d6 76bd
000002a0: e36f c13d 7606 5cbc 15d1 0cbe ee21 98bd
000002b0: 2921 ad3c f9de b63d 7e6d 133d 2ce7 c5bd
000002c0: 9b5f 533e 0a19 4d3e cc5a 59be 14d6 13be
000002d0: d78e 3abd b2bd b93c 95e6 6bbd 1366 65bd
000002e0: bf4a d9bc b991 8bbc 5e52 9dbd 1404 463e
000002f0: ad54 1c3d 68f7 2fbd 4bf2 ca3d c470 05be
00000300: c64f 14bd 3691 663d 1d14 1fbe 4499 f83d
00000310: a726 81bd 2763 c63b f2e2 423e ff5a 183c
00000320: 9592 40be c56a 713e edda 023d 63eb 2f3e
00000330: 34ef 6bbc b83d 9a3e bb85 40be 08df 833d
00000340: 5c6a 2c3d 7323 ebbd 81c4 cf3c f7d9 83bd
00000350: ea7e 1ebe 3a47 153e 0fd0 c3bd 4726 cebd
00000360: c065 08be c68b 99bd 75f5 39be 33ed 503c
00000370: e91f aa3b b02b 0a3e 6d46 003d d473 733d
00000380: f980 a0bd eb62 8b3d c57f d8bb bb0c 943d
00000390: 4cf5 2abe 1bd1 76bd 4d57 e73d 9a92 67be
000003a0: 14c7 45be f882 00bd 195d 6fbd 4e58 06be
000003b0: e7ba 913d b0a2 2fbe 8984 e53d f85f 86bc
000003c0: a60f ad3c dcf6 833b 0d57 a33d d893 e03d
000003d0: ebea 2b3d 3334 553c d6e1 3c3c a746 9d3d
000003e0: 663a 503e 8cd4 30bb 4bfc 71bc f918 d33d
000003f0: 3d08 1dbe aa15 bebc b842 3e3d 25aa ee3d

actor.2.weight f4 [128, 256]
-0.0126853315 -0.24107514 -0.098593056 -0.1744415 -0.00028266758 -0.09657127 0.29137558 0.1523915
0.1375225 0.022832574 -0.020611275 -0.04248997 -0.07460096 0.302573 -0.009253323 -0.09734792
-0.015824696 -0.0067585977 -0.44564614 -0.12545528 -0.013339559 0.079387516 -0.120062485 0.20376009
0.25288856 0.19270538 -0.05792121 0.066335216 0.14244051 0.007191552 0.029906647 -0.1329201
-0.16785355 -0.13340178 -0.08235465 0.18376094 0.060428187 -0.41208473 -0.24637792 0.012599327
0.09167501 -0.020891009 -0.032207247 -0.107044324 0.066770874 -0.15873909 0.09550254 0.04086116
0.41292736 -0.09052054 -0.17563719 0.011675868 -0.01652692 -0.20008194 -0.17716633 -0.09071158
0.14279497 0.15607634 0.1459834 -0.05340865 -0.044852003 -0.034680318 0.20822376 0.017279696
0.038983107 0.14085808 0.18279858 -0.09479213 0.36605066 0.09452748 -0.030920824 -0.017201666
0.11188828 -0.16757853 -0.19015202 0.10968107 0.0088931555 0.35694897 0.1134999 0.048005044
0.009239615 0.045936313 -0.17979483 -0.119202256 0.112132646 0.22504672 0.1550348 -0.18909274
-0.048133537 -0.028847193 -0.0830819 0.0009781033 0.1820494 -0.2728717 0.12960525 0.23736203
-0.06738274 -0.3939654 0.034118082 -0.08218809 -0.001678307 -0.2617205 0.11694126 -0.15067776
0.05107906 0.11058653 -0.02084389 -0.091595486 0.105079785 0.05683637 0.13401555 0.1004731
0.1429598 0.08160879 -0.15809402 0.014096692 -0.06344471 0.12533417 0.110406965 -0.044679765
0.1339227 0.19564335 0.15090331 0.16739674 -0.05693392 -0.046945777 0.21272466 0.14593063
0.06255706 -0.111976065 0.08339669 -0.13160868 -0.10360888 -0.06283912 -0.82930213 -0.1513668
0.431265 0.08941032 0.08750851 -0.000441872 -0.23356697 -0.10111594 0.10340127 0.081464924
0.00014827427 0.3424999 -0.08601182 -0.085258506 -0.086060084 -0.17926686 0.060179062 -0.10705003
0.01727347 0.049077887 0.2776682 -0.03252414 0.20999788 -0.04892544 0.17427596 0.10750977
0.0046001635 0.055269547 -0.04608035 0.11029168 0.17546915 -0.020187676 0.19071339 0.17775421
0.00048646505 -0.13838656 -0.040097665 0.09676441 -0.31208962 0.08757421 -0.51636004 0.21833825
0.038523864 -0.026113058 0.06982419 0.08312658 0.11023175 -0.04474007 0.10567924 0.029918125
-0.03903384 0.0743582 0.017534422 0.02704568 0.18103744 0.13090599 0.1493328 0.17264582
-0.046794713 0.03223991 0.30267507 -0.109462924 -0.13866581 -0.33375937 -0.32728052 -0.21471499
-0.04832675 -0.63441485 0.025909785 0.116249084 -0.14242674 -0.12851667 -0.25663555 -0.18267252
0.07526026 -0.18383558 -0.10857144 -0.1651108 0.16931723 -0.13912782 0.06252514 0.015815757
-0.06845622 0.1790703 -0.0028051427 0.21169731 -0.08418482 0.099523455 -0.0132785 -0.014651258
-0.4535863 -0.044435106 0.108163774 0.13962689 0.13603051 0.11883262 -0.009223207 0.13936909
0.18898766 -0.002188669 0.11152954 -0.02699819 -0.120822474 0.055190846 0.12914474 -0.027578915
0.055876162 -0.37915334 0.023953365 -0.0081379805 -0.043778468 -0.09725349 -0.01411206 0.054145545
-0.45624667 0.11181725 -0.08127423 -0.09528332 0.052978795 0.094038494 -0.059688862 -0.0770024
00000000: 23d6 4fbc 67dc 76be 28eb c9bd cba0 32be
00000010: 0033 94b9 28c7 c5bd 2e2f 953e 840c 1c3e
00000020: b3d2 0c3e 610b bb3c fad8 a8bc f609 2ebd
00000030: 63c8 98bd d9ea 9a3e 409b 17bc 595e c7bd
00000040: cba2 81bc 3a77 ddbb bb2b e4be 5977 00be
00000050: 2a8e 5abc ec95 a23d 52e3 f5bd 7ca6 503e
00000060: 9c7a 813e 8f54 453e ca3e 6dbd c2da 873d
00000070: eddb 113e 1ca7 eb3b c9fe f43c 351c 08be
00000080: cde1 2bbe 7a9a 08be 8ea9 a8bd d42b 3c3e
00000090: 8c83 773d c5fc d2be 7e4a 7cbe 686d 4e3c
000000a0: 1cc0 bb3d 9f23 abbc bfeb 03bd 0e3a dbbd
000000b0: 2bbf 883d 808c 22be d696 c33d 085e 273d
000000c0: 376b d33e d562 b9bd 3cda 33be 244c 3f3c
000000d0: 7763 87bc 48e2 4cbe 176b 35be fec6 b9bd
000000e0: d838 123e 7ad2 1f3e ac7c 153e 07c3 5abd
000000f0: bcb6 37bd f30c 0ebd 9c38 553e 268e 8d3c
00000100: c0ac 1f3d 1a3d 103e 8d2f 3b3e 6022 c2bd
00000110: fe6a bb3e a097 c13d ab4d fdbc 82ea 8cbc
00000120: af25 e53d b599 2bbe 36b7 42be 78a0 e03d
00000130: 99b4 113c 04c2 b63e a372 e83d f0a0 443d
00000140: c161 173c b727 3c3d 231c 38be 5020 f4bd
00000150: cda5 e53d a672 663e 71c1 1e3e 87a1 41be
00000160: ac27 45bd f350 ecbc d826 aabd b333 803a
00000170: 286b 3a3e d7b5 8bbe 3db7 043e 080f 733e
00000180: f6ff 89bd d5b5 c9be 67bf 0b3d 3b52 a8bd
00000190: a3fa dbba 3b00 86be e67e ef3d 454b 1abe
000001a0: 4738 513d 317b e23d cec0 aabc 6a96 bbbd
000001b0: 1234 d73d 41cd 683d 5f3b 093e d7c4 cd3d
000001c0: 0e64 123e 8222 a73d 66e3 21be d0f5 663c
000001d0: 4def 81bd 9a57 003e 0c1d e23d 2102 37bd
000001e0: 0823 093e bb56 483e 6686 1a3e 0d6a 2b3e
000001f0: 8b33 69bd 374a 40bd 7ed4 593e d76e 153e
00000200: ea1d 803d b553 e5bd e2cb aa3d 6dc4 06be
00000210: e430 d4bd ccb1 80bd 254d 54bf e6ff 1abe
00000220: c4ce dc3e c21c b73d a937 b33d 0eab e7b9
00000230: 2e2c 6fbe e015 cfbd 0cc4 d33d 15d7 a63d
00000240: 127a 1b39 265c af3e f726 b0bd 039c aebd
00000250: 4540 b0bd bb91 37be 527e 763d 0c3d dbbd
00000260: 1881 8d3c e505 493d 872a 8e3e 0838 05bd
00000270: af09 573e 0b66 48bd 6675 323e 152e dc3d
00000280: f8bc 963b 5262 623d c0be 3cbd 9be0 e13d
00000290: 2fae 333e a060 a5bc 5f4a 433e 3305 363e
000002a0: 3c0c ff39 35b5 0dbe 733d 24bd 6b2c c63d
000002b0: 36ca 9fbe 1b5a b33d 2c30 04bf 1094 5f3e
000002c0: 33cb 1d3d 0deb d5bc fcff 8e3d 453e aa3d
000002d0: 2fc1 e13d 5d41 37bd 5b6e d83d db16 f53c
000002e0: f3e1 1fbd 1d49 983d 59a4 8f3c e78e dd3c
000002f0: e161 393e 380c 063e b3ea 183e 11ca 303e
00000300: d0ab 3fbd ff0d 043d 3af8 9a3e 192e e0bd
00000310: 69fe 0dbe 82e2 aabe 5091 a7be 3fde 5bbe
00000320: 45f2 45bd 0369 22bf c240 d43c 0014 ee3d
00000330: 51d8 11be e099 03be bc65 83be 810e 3bbe
00000340: 0d22 9a3d 653f 3cbe b45a debd ce12 29be
00000350: 7f61 2d3e 8677 0ebe 2e0d 803d 0c90 813c
00000360: c632 8cbd 345e 373e 7cd6 37bb 2ec7 583e
00000370: 1769 acbd f4d2 cb3d 118e 59bc d40b 70bc
00000380: 773c e8be 9601 36bd f884 dd3d 5afa 0e3e
00000390: 954b 0b3e 845e f33d ef1c 17bc c5b6 0e3e
000003a0: fb85 413e c66f 0fbb 9969 e43d 4f2b ddbc
000003b0: c671 f7bd cc0f 623d 853e 043e 2ded e1bc
000003c0: 67de 643d 6320 c2be d939 c43c 2a55 05bc
000003d0: 0d51 33bd d62c c7bd 4536 67bc b8c7 5d3d
000003e0: 2a99 e9be 7100 e53d 1a73 a6bd e723 c3bd
000003f0: 4b00 593d 4197 c03d 4f7c 74bd 6fb3 9dbd

actor.2.bias f4 [128]
0.07901876 -0.07135332 -0.017276749 0.0045228596 -0.060287613 -0.041754838 -0.0062368754 -0.12373675
-0.0442371 0.11396618 -0.015271591 -0.05152209 0.049180742 -0.030772291 0.012914336 0.0012365968
0.06340533 0.110946946 0.0061084162 0.09266344 0.079485506 0.08761403 -0.028956352 -0.05314446
-0.02463184 -0.079095975 0.078568935 -0.019037744 -0.06631997 -0.058549397 -0.08764778 -0.034669843
-0.07935254 -0.025858453 -0.00851373 -0.032691192 -0.06989613 -0.09584164 -0.05607527 -0.059551492
0.0201738 0.047684763 -0.0855134 -0.021150758 0.085044935 0.023452228 0.10885711 0.08415313
-0.046448696 0.075101614 -0.012994579 -0.05235 -0.0917508 0.053298093 -0.06769207 -0.021285467
-0.047460273 -0.00014407054 -0.08532002 0.14970057 -0.09667894 0.06860901 0.015044078 0.041337337
0.04363854 0.052596852 -0.07523535 0.005990583 0.03313675 -0.03956206 0.111272745 -0.07726495
0.044391584 0.020584205 0.059801046 0.08615553 -0.015369229 -0.05836453 0.009932193 0.09252557
0.112513304 0.013701983 -0.065667816 -0.038503192 0.0008381249 0.09050333 -0.017868945 -0.047673505
0.10506593 -0.019196209 -0.0701847 -0.039522573 0.07109647 0.07401729 0.114740595 0.08068927
0.0075119636 -0.003965439 0.0056212647 0.010409483 0.15380874 0.022930441 0.02833822 -0.07499033
0.07698076 0.09213938 -0.0062392913 -0.012452574 0.10806334 -0.002341318 0.041113492 -0.022267751
-0.01999041 -0.01579292 0.008252415 -0.019187832 0.066015765 0.125075 -0.14527676 -0.047931917
0.12290721 0.07461148 0.083218284 -0.010718654 0.12841108 -0.116622284 0.02320906 0.2073887
00000000: 96d4 a13d b021 92bd f887 8dbc 7f34 943b
00000010: 25f0 76bd 1f07 2bbd b45e ccbb b169 fdbd
00000020: f631 35bd 1a67 e93d b235 7abc d408 53bd
00000030: bf71 493d 2c16 fcbc a796 533c 4e15 a23a
00000040: a7da 813d 2738 e33d 1c29 c83b 54c6 bd3d
00000050: 4cc9 a23d fc6e b33d df35 edbc 01ae 59bd
00000060: b6c8 c9bc 12fd a1bd c0e8 a03d 0bf5 9bbc
00000070: c4d2 87bd 7ed1 6fbd ae80 b3bd f701 0ebd
00000080: 9683 a2bd 1bd5 d3bc 2c7d 0bbc 33e7 05bd
00000090: b425 8fbd 9f48 c4bd 2faf 65bd 44ec 73bd
000000a0: 8643 a53c 1951 433d a621 afbd 5b44 adbc
000000b0: 0a2c ae3d e31e c03c 7af0 de3d 7a58 ac3d
000000c0: fd40 3ebd e0ce 993d 37e7 54bc f46c 56bd
000000d0: d8e7 bbbd 1a4f 5a3d 24a2 8abd dc5e aebc
000000e0: b465 42bd a411 17b9 43bc aebd 1b4b 193e
000000f0: 9cff c5bd e182 8c3d 707b 763c 5751 293d
00000100: 53be 323d cc6f 573d fe14 9abd a74c c43b
00000110: 67ba 073d d40b 22bd f7e2 e33d 163d 9ebd
00000120: f3d3 353d 35a0 a83c f1f1 743d 4f72 b03d
00000130: 38cf 7bbc a50f 6fbd a3ba 223c 0c7e bd3d
00000140: 606d e63d 487e 603c d97c 86bd 86b5 1dbd
00000150: 9cb5 5b3a cf59 b93d e561 92bc 4b45 43bd
00000160: ce2c d73d 5e41 9dbc ffbc 8fbd 6ce2 21bd
00000170: 079b 913d 6096 973d 1efd ea3d 6a40 a53d
00000180: eb26 f63b 83f0 81bb 9632 b83b 898c 2a3c
00000190: 0a80 1d3e 9fd8 bb3c 8e25 e83c 8894 99bd
000001a0: 17a8 9d3d 92b3 bc3d f872 ccbb e205 4cbc
000001b0: 5050 dd3d cc70 19bb 9f66 283d dc6a b6bc
000001c0: eec2 a3bc 2760 81bc 2335 073c cd2f 9dbc
000001d0: 4633 873d a913 003e 6ec3 14be 4254 44bd
000001e0: c6b6 fb3d e7cd 983d 596e aa3d 4b9d 2fbc
000001f0: 327e 033e aad7 eebd ed20 be3c b45d 543e
