CRL/模型集_opponent/slime_ppo_1M.pth (torch, 370495 bytes, 11 tensors)

critic.0.weight f4 [256, 48]
-0.06128055 -0.021180293 0.0058537596 -0.01697959 -0.032677364 0.15147102 -0.061868258 0.05078414
-0.28916684 -0.07334786 0.05271593 -0.031208666 0.012510698 0.015460744 -0.044488776 -0.0175137
0.04985714 0.07365824 -0.11873331 0.072421096 -0.12713094 0.012607548 0.06629728 0.17553915
-0.039012957 0.059536584 -0.045124598 0.08059339 0.21580257 0.0732555 -0.1360898 -0.016121333
-0.21529762 -0.19943424 -0.10194221 0.09268743 0.1583697 0.13393219 -0.023372864 0.020270362
0.18559119 0.13304207 -0.03376942 0.04104564 -0.15227929 -0.21052188 0.1391572 -0.15399507
-0.07887034 0.17305306 -0.013335912 -0.061829813 0.032853547 0.056658734 0.0035473076 -0.029076997
0.14125985 0.13291565 0.21372049 0.011937626 -0.13963751 0.15558931 -0.0024034397 0.0056350613
0.061168946 0.010289723 0.012075246 -0.12461355 0.26633137 0.11522825 0.033747993 0.06916264
-0.12562554 0.1398401 -0.003080818 0.016017027 -0.023712317 0.17118761 0.018162599 -0.023188518
0.28841388 -0.06969343 0.19226 -0.018670129 -0.0921271 0.14316817 0.002123524 -0.021901995
-0.10491962 0.18172193 0.012116078 0.007940656 0.051723238 0.12362009 0.21983305 0.17041095
-0.010744312 -0.02072331 -0.0022199752 -0.052187975 0.009916822 0.060249377 -0.053514853 -0.048807736
0.29920784 -0.3249363 0.03425846 -0.090089135 -0.07346141 0.11467531 0.040812768 0.036696717
-0.018081335 -0.08881256 -0.047120877 -0.0479463 0.27743217 -0.24778754 -0.12002263 -0.10196492
-0.019778095 0.1418468 -0.059941757 0.1098591 -0.16725644 0.052501857 -0.01112779 -0.022766484
0.1649604 -0.25213084 -0.0675494 0.11747907 0.108190425 0.17299567 0.047463614 0.07842027
-0.1647815 0.005591627 -0.005141168 0.10005463 0.36175564 -0.08793978 -0.029485911 -0.022120139
-0.14695571 -0.12576829 0.023423709 -0.08745334 -0.09164074 0.16165616 -0.048232052 -0.038411748
-0.13837041 -0.28141916 0.172402 -0.1473096 -0.07486537 -0.022770097 -0.0582596 -0.018814243
-0.073171645 -0.07817915 -0.06139688 -0.07445895 0.02850856 -0.1493661 0.13477793 -0.10149538
-0.13547763 -0.0035593093 -0.008249877 -0.012294744 -0.04924506 0.14329441 -0.036439203 -0.05244943
-0.1616847 -0.38817543 0.09117959 -0.16640906 0.009985659 -0.07782601 -0.006203373 0.11727905
-0.084705755 -0.03506205 0.00950751 -0.02612451 -0.047538172 -0.40740958 0.14222524 -0.15476176
0.027362986 0.13740319 0.012046846 -0.044051457 0.22057061 -0.06933439 -0.04905711 0.071531504
0.07955603 -0.061752632 0.023869388 0.12743558 -0.04166752 0.18073833 0.033794794 -0.09693938
-0.018268514 -0.032428734 -0.059374485 -0.026143404 -0.09422966 -0.041091822 0.11898035 0.037459258
0.12616003 0.14896338 -0.10654939 0.058984224 0.1125962 0.08068122 -0.08706486 0.047554303
-0.016800225 0.056814816 0.08242306 0.076938994 -0.01056359 0.16810042 -0.014631705 -0.022675104
0.162832 -0.0057823537 0.025718464 -0.14767168 -0.0895598 0.004974677 0.051700633 0.27087367
0.18336621 -0.012984432 -0.034781117 -0.0129243685 0.029726274 0.10927067 0.0116956895 -0.06687917
-0.24917184 -0.31908798 -0.03264048 -0.071799286 0.20195295 0.1537085 0.0052493825 0.0615687
00000000: 5001 7bbd 4b82 adbc e5d0 bf3b c818 8bbc
00000010: b3d8 05bd 381b 1b3e 9269 7dbd 0803 503d
00000020: ad0d 94be 6737 96bd a9ec 573d 51a9 ffbc
00000030: acf9 4c3c 0f4f 7d3c dd39 36bd e478 8fbc
00000040: 0037 4c3d 22da 963d 732a f3bd 8351 943d
00000050: 9d2e 02be e48f 4e3c dec6 873d 89c0 333e
00000060: 0dcc 1fbd a2dc 733d 92d4 38bd 260e a53d
00000070: 59fb 5c3e fb06 963d 205b 0bbe e310 84bc
00000080: fb76 5cbe 7d38 4cbe 14c7 d0bd e8d2 bd3d
00000090: ab2b 223e 8525 093e 7378 bfbc 080e a63c
000000a0: 9e0b 3e3e 2e3c 083e ce51 0abd 791f 283d
000000b0: 1aef 1bbe 0c93 57be 3a7f 0e3e e2b0 1dbe
000000c0: c686 a1bd d234 313e de7e 5abc 4241 7dbd
000000d0: 7191 063d fd12 683d f279 683b e232 eebc
000000e0: 6ca6 103e 0a1b 083e 8bd9 5a3e 0896 433c
000000f0: 23fd 0ebe ce52 1f3e 0783 1dbb 52a6 b83b
00000100: 4a8c 7a3d 3a96 283c 41d7 453c 6435 ffbd
00000110: 965c 883e cafc eb3d 563b 0a3d 24a5 8d3d
00000120: fba3 00be 3e32 0f3e 8de7 49bb 2436 833c
00000130: 5540 c2bc ce4b 2f3e bbc9 943c d9f5 bdbc
00000140: fcaa 933e 6ebb 8ebd cedf 443e 19f2 98bc
00000150: 22ad bcbd ad9a 123e d22a 0b3b d06b b3bc
00000160: 19e0 d6bd 5015 3a3e 8482 463c 8619 023c
00000170: bfdb 533d 882c fd3d ea1b 613e 3580 2e3e
00000180: e908 30bc eec3 a9bc 017d 11bb 0fc3 55bd
00000190: 2b7a 223c 0dc8 763d 6432 5bbd 9fea 47bd
000001a0: c531 993e 0d5e a6be 9952 0c3d a780 b8bd
000001b0: f072 96bd e4da ea3d 4a2b 273d 4c4f 163d
000001c0: 4f1f 94bc 5ce3 b5bd d201 41bd 5763 44bd
000001d0: 970b 8e3e 04bc 7dbe 6dce f5bd fcd2 d0bd
000001e0: ac05 a2bc 4a40 113e 7d85 75bd cffd e03d
000001f0: 4645 2bbe 300c 573d 5651 36bc c780 babc
00000200: 61eb 283e 4b17 81be 5757 8abd de98 f03d
00000210: f192 dd3d c725 313e 3569 423d ce9a a03d
00000220: 7bbc 28be f839 b73b 3e77 a8bb 71e9 cc3d
00000230: 0938 b93e c519 b4bd 708c f1bc 4b35 b5bc
00000240: 8f7b 16be 67c9 00be 14e3 bf3c bd1a b3bd
00000250: 24ae bbbd 3189 253e f98e 45bd a355 1dbd
00000260: f9b0 0dbe 2c16 90be 268a 303e 54d8 16be
00000270: 0453 99bd 5b88 babc 9ea1 6ebd 5420 9abc
00000280: 04db 95bd 641c a0bd 4b7b 7bbd ef7d 98bd
00000290: c98a e93c 6df3 18be 3a03 0a3e cfdc cfbd
000002a0: a6ba 0abe 4d43 69bb 7e2a 07bc e56f 49bc
000002b0: 30b5 49bd c5bb 123e 4641 15bd 37d5 56bd
000002c0: ad90 25be eebe c6be 5dbc ba3d 2367 2abe
000002d0: e49a 233c 3e63 9fbd aa45 cbbb 0030 f03d
000002e0: 367a adbd 399d 0fbd 63c5 1b3c 1203 d6bc
000002f0: 63b7 42bd fd97 d0be 7ea3 113e de79 1ebe
00000300: 5728 e03c 6cb3 0c3e 2260 453c 4d6f 34bd
00000310: 43dd 613e 30ff 8dbd 1cf0 48bd 1c7f 923d
00000320: 46ee a23d 54f0 7cbd bc89 c33c 797e 023e
00000330: 90ab 2abd 7813 393e 696c 0a3d 2788 c6bd
00000340: daa7 95bc fed3 04bd a932 73bd b12a d6bc
00000350: 7bfb c0bd e64f 28bd f8ab f33d e16e 193d
00000360: 1830 013e db89 183e 9136 dabd 7199 713d
00000370: d698 e63d 323c a53d 104f b2bd 4dc8 423d
00000380: a0a0 89bc a7b6 683d 6ccd a83d 3192 9d3d
00000390: e812 2dbc 8422 2c3e d2b9 6fbc 24c1 b9bc
000003a0: 6fbd 263e e679 bdbb 87af d23c 3f37 17be
000003b0: 216b b7bd 9e02 a33b 0bc4 533d f4af 8a3e
000003c0: 5ac4 3b3e a8bc 54bc a576 0ebd bbc0 53bc
000003d0: 8484 f33c 4dc9 df3d 479f 3f3c f2f7 88bd
000003e0: e726 7fbe 805f a3be 06b2 05bd 810b 93bd
000003f0: c1cc 4e3e c365 1d3e 0303 ac3b 762f 7c3d

critic.0.bias f4 [256]
-0.123406306 0.12042706 0.12378787 -0.1341446 0.06702511 0.06542893 -0.12131586 0.08281276
0.15214184 0.19551976 0.0028091262 -0.21106797 -0.017176043 0.11380513 0.031056663 -0.07732364
-0.046142913 0.04352662 -0.04686985 0.09715798 0.1551455 -0.10257743 -0.09819757 -0.08884789
-0.0396112 -0.11648292 0.0025512327 0.14181073 -0.1422144 -0.18207702 0.016518822 -0.1623641
-0.003830832 -0.04840181 0.105464466 0.1658136 0.049859937 -0.10727183 -0.08829632 0.067525454
-0.09284279 -0.008628292 0.15594034 -0.09131776 -0.119905666 0.03988408 -0.0839468 0.21790352
0.011856309 -0.040754545 -0.027469646 -0.13610089 0.0020803136 -0.033406515 0.010175357 -0.017950557
-0.047675025 0.061723113 -0.15460247 -0.08193848 -0.080840714 0.015672559 0.014329036 0.19456199
0.06018351 0.067642875 0.078060955 0.15961252 -0.16812037 0.18022716 -0.03027511 -0.0698469
0.17655516 -0.0696703 0.14701095 0.15574656 -0.11691085 -0.09417813 -0.060796715 -0.012632306
-0.044009954 -0.0732308 -0.102138974 -0.05243961 0.067578435 0.036130253 0.031541616 0.043951795
0.04178513 0.18906157 0.06814449 -0.15874368 0.06872719 -0.02177836 -0.107617624 0.13290656
-0.09128231 -0.12645116 0.1290906 -0.13122392 -0.13285087 -0.106845684 0.0106029995 0.13133517
-0.112147845 -0.08288532 0.1363949 0.12439796 0.15302986 -0.1628799 0.14807087 0.03432882
0.10702007 0.10791029 -0.037043817 -0.050760765 0.095135316 -0.0688744 0.030857531 -0.032075897
-0.0014267307 -0.008723508 -0.12625182 0.08854292 0.14367713 0.061789926 -0.005579112 0.031955805
-0.18445185 -0.12998782 -0.07587813 0.030331478 0.025828106 -0.089218654 -0.07791481 0.07657209
-0.12550871 -0.09561855 -0.0068311845 -0.041037533 0.04338472 -0.061846036 0.00771826 0.04955239
0.20956853 0.105263695 0.13487944 0.011020241 0.06353705 -0.113075525 0.103175834 -0.14461471
-0.006794434 0.144527 -0.135589 0.020053247 0.064587995 -0.1363455 0.04037707 -0.10251807
0.1969954 0.17903097 0.08136827 0.20482874 -0.07400004 0.019816808 -0.09502932 0.17940316
0.17425601 0.011111787 -0.12593019 -0.055976212 -0.09893807 -0.042134095 -0.017831549 0.1836643
0.002346471 0.086188436 0.03675564 -0.01403346 0.025090886 0.016966287 0.079443276 -0.10569768
0.009817726 0.06924673 -0.02725693 -0.08757935 -0.0061508142 0.08892917 -0.0772511 -0.08489143
0.13797483 -0.1669574 0.08273938 -0.06628237 0.05030533 -0.056637544 -0.022775335 0.070871264
0.043862343 0.007706173 -0.05765539 0.16695757 -0.04646674 -0.019181542 -0.026632491 0.12166719
-0.055479296 0.09429963 0.1284671 -0.10064531 0.10086571 -0.05139319 0.05567503 -0.07991507
-0.07413789 -0.09629388 0.030241122 -0.06584064 -0.17235498 0.10820044 0.0641032 0.018153174
0.10172137 -0.084056504 0.17457378 -0.05738891 0.09081629 0.069113635 -0.11720519 -0.091955595
0.09468315 0.010279 0.15057611 0.093568444 0.039184067 0.0072014662 0.014967419 0.12201857
-0.029653754 -0.08355177 0.054161344 0.009764287 0.025997557 0.08051015 0.12733366 0.058653414
0.0081903525 0.0075007966 0.0556492 0.10910244 0.054164313 -0.13569586 -0.074138865 0.13393518
00000000: 72bc fcbd 76a2 f63d 7f84 fd3d 345d 09be
00000010: 7644 893d 9aff 853d 7374 f8bd bc99 a93d
00000020: 12cb 1b3e 5536 483e 5119 383b 3422 58be
00000030: c6b4 8cbc aa12 e93d 8b6a fe3c db5b 9ebd
00000040: 5a00 3dbd f848 323d 9afa 3fbd c3fa c63d
00000050: 76de 1e3e 1e14 d2bd cf1b c9bd e2f5 b5bd
00000060: 5b3f 22bd 998e eebd 9532 273b d536 113e
00000070: a7a0 11be 6672 3abe 7b52 873c c642 26be
00000080: b20e 7bbb fa40 46bd c1fd d73d 0acb 293e
00000090: ef39 4c3d 55b1 dbbd b3d4 b4bd c94a 8a3d
000000a0: 5c24 bebd ae5d 0dbc d3ae 1f3e ce04 bbbd
000000b0: 1a91 f5bd 7d5d 233d 4dec abbd 1a22 5f3e
000000c0: f740 423c 3dee 26bd 0608 e1bc 085e 0bbe
000000d0: df55 083b 45d5 08bd 8ab6 263c 0c0d 93bc
000000e0: e346 43bd 60d1 7c3d 1c50 1ebe 5dcf a7bd
000000f0: d18f a5bd bd63 803c 55c4 6a3c 423b 473e
00000100: fc82 763d 5988 8a3d 6cde 9f3d 7771 233e
00000110: bf27 2cbe 788d 383e 8203 f8bc e40b 8fbd
00000120: e0ca 343e 4daf 8ebd 0a8a 163e 077c 1f3e
00000130: f56e efbd 77e0 c0bd fa05 79bd bbf7 4ebc
00000140: c843 34bd 08fa 95bd 3d2e d1bd ebca 56bd
00000150: 9066 8a3d 51fd 133d c831 013d cc06 343d
00000160: e226 2b3d 5b99 413e 578f 8b3d b48d 22be
00000170: d7c0 8c3d 8868 b2bc a166 dcbd a818 083e
00000180: 38f2 babd 6a7c 01be 5430 043e 905f 06be
00000190: 0f0a 08be e9d1 dabd 34b8 2d3c ba7c 063e
000001a0: c5ad e5bd c7bf a9bd 1bab 0b3e 5cc4 fe3d
000001b0: dcb3 1c3e fdc9 26be e49f 173e 609c 0c3d
000001c0: 572d db3d 1200 dd3d 42bb 17bd 85ea 4fbd
000001d0: 4ed6 c23d 050e 8dbd efc8 fc3c 0462 03bd
000001e0: 2301 bbba 0bed 0ebc 2848 01be fe55 b53d
000001f0: 1920 133e 6f17 7d3d fcd0 b6bb 17e4 023d
00000200: f2e0 3cbe 871b 05be fe65 9bbd b879 f83c
00000210: 7795 d33c 45b8 b6bd cd91 9fbd d4d1 9c3d
00000220: 5b85 00be a9d3 c3bd 21d8 dfbb f916 28bd
00000230: 2db4 313d 4552 7dbd 75e9 fc3b 72f7 4a3d
00000240: 2299 563e 7e94 d73d d61d 0a3e 3e8e 343c
00000250: b61f 823d 2494 e7bd da4d d33d e115 14be
00000260: d8a3 debb e3fe 133e d8d7 0abe b546 a43c
00000270: b646 843d 289e 0bbe 6d62 253d fef4 d1bd
00000280: 2ab9 493e e553 373e 68a4 a63d a0be 513e
00000290: 558d 97bd dc56 a23c bb9e c2bd 76b5 373e
000002a0: 2b70 323e 360e 363c d8f3 00be 5047 65bd
000002b0: 0ba0 cabd cd94 2cbd 7813 92bc 7f12 3c3e
000002c0: 40c7 193b 9083 b03d 158d 163d 99ec 65bc
000002d0: 678b cd3c e2fc 8a3c 28b3 a23d 0678 d8bd
000002e0: 87da 203c 3bd1 8d3d ed49 dfbc cd5c b3bd
000002f0: c58c c9bb 7f20 b63d d335 9ebd 8fdb adbd
00000300: 4649 0d3e e1f6 2abe 4473 a93d 0dbf 87bd
00000310: f60c 4e3d c5fc 67bd 5793 babc f424 913d
00000320: 00a9 333d 1184 fc3b 0f28 6cbd edf6 2a3e
00000330: e953 3ebd 9c22 9dbc 622c dabc a62c f93d
00000340: 423e 63bd 2a20 c13d e18c 033e 211f cebd
00000350: ae92 ce3d aa81 52bd 800b 643d 83aa a3bd
00000360: 9bd5 97bd ba35 c5bd 3bbc f73c 75d7 86bd
00000370: d37d 30be 3198 dd3d 8a48 833d f7b5 943c
00000380: 4b53 d03d d125 acbd 78c3 323e a210 6bbd
00000390: e4fd b93d 738b 8d3d 4609 f0bd 3753 bcbd
000003a0: 3de9 c13d 4069 283c a030 1a3e d0a0 bf3d
000003b0: 797f 203d 47fa eb3b e839 753c dfe4 f93d
000003c0: 6eec f2bc 311d abbd 49d8 5d3d 63fa 1f3c
000003d0: d4f8 d43c 81e2 a43d c163 023e 903e 703d
000003e0: d430 063c 3ec9 f53b 6af0 633d 1a71 df3d
000003f0: 66db 5d3d dbf3 0abe 1ed6 97bd 4e26 093e

critic.2.weight f4 [128, 256]
0.026013114 -0.108681604 -0.04894026 0.025704958 -0.019543365 0.015353781 -0.081100844 -0.0005965769
0.030975847 -0.05059927 0.12721582 0.1106916 -0.07535601 -0.013791488 -0.014500699 -0.26064992
0.115096614 0.027975578 0.14056809 -0.033300076 -0.08858766 -0.16582236 -0.060347207 0.058316384
0.08529268 0.09259535 0.13697082 -0.21151064 -0.03870612 0.11099977 0.07676443 -0.081136264
0.14671318 -0.23396362 0.14654319 0.019268615 0.046744987 -0.008147802 0.21717861 -0.051558852
0.073582724 -0.028481748 -0.039593242 -0.117236555 -0.010897383 -0.0584745 0.003389794 -0.015056076
-0.12971139 -0.31332666 -0.012632785 -0.38395205 -0.03328566 -0.013591272 -0.011821753 -0.030307677
0.028029975 -0.11587979 0.03958523 0.0004072709 0.051574122 0.05656611 -0.0033629767 -0.0020791097
0.0056083407 0.106990844 0.079220444 -0.09373604 -0.00037947556 0.0028939042 -0.11460811 0.08543036
0.12372386 0.053698976 -0.10485547 -0.01764093 0.02909523 -0.06448689 0.15853335 -0.06646144
-0.60621977 0.07222919 -0.04144446 0.08764965 -0.018767769 0.18623304 0.04087775 -0.057760593
-0.027325727 -0.07273651 0.0009044828 0.0021777232 0.15788484 -0.057754423 0.035315197 -0.022384975
-0.0071595744 0.03915596 -0.06826052 -0.007700496 -0.21369246 -0.040663827 8.8238616e-05 -0.026835172
0.035786048 -0.059740614 -0.090791374 -0.30847558 0.02264852 0.046005815 0.012613091 -0.14445831
0.040591653 -0.039841183 0.028001536 0.1669389 0.050180845 -0.06291443 -0.06451182 0.016138008
-0.0054601445 -0.3070696 0.06788747 -0.21533485 0.051454555 -0.011660879 0.006454016 -0.41741338
-0.011860525 0.34301755 -0.019562205 -0.08522682 -0.08711371 0.023767676 0.033544596 -0.0028233782
-0.034080934 -0.063804604 -0.27106333 0.07383431 0.060514305 0.06476545 0.028915482 0.06548405
-0.033628542 -0.013664655 -0.049000774 0.102069974 -0.2298428 -0.1024631 -0.034798663 0.0060816943
0.036104813 0.07254784 -0.06059859 0.07564958 -0.3424705 0.036150467 -0.11421172 -0.24278465
0.072067134 0.020578247 -0.002906325 -0.36275938 -0.041583385 -0.020721972 0.19713171 -0.121024854
-0.041457303 0.0026344524 0.10121398 0.067796856 -0.1002578 0.14385504 -0.30241644 -0.04749588
-0.13085614 0.0420704 0.021148283 0.042208564 -0.021384794 -0.037587065 -0.049569428 -0.22581197
-0.26458946 -0.006964027 -0.0819571 0.0813872 -0.013417865 -0.018728983 0.014144513 0.05277713
-0.13059857 0.045957837 -0.07936238 -0.017964356 -0.094015926 -0.015818482 0.0122422585 -0.01614195
-0.066918015 0.034041364 -0.03227769 -0.02813266 0.048661415 -0.035376642 -0.06306328 -0.024952017
0.03968271 -0.03413936 0.09395759 -0.06253916 -0.06813043 -0.19622464 -0.006284109 0.051949147
-0.0878193 -0.06136145 0.044491407 -0.046803445 0.01756337 -0.059841916 0.0483 -0.0581762
-0.040173173 -0.019765759 -0.021133458 -0.19455379 -0.062452424 -0.031554487 0.11907691 -0.010729316
-0.0632352 -0.050122887 0.03066298 0.019277833 -0.085417494 0.028730394 0.124992296 0.027994586
0.022061102 0.007139633 -0.09044462 0.18588424 0.015358445 0.07816339 -0.025168506 0.06736188
0.0145040685 0.029009648 -0.057409372 0.059977 0.0006706985 -0.0076829633 -0.16588636 -0.036907554
00000000: 7419 d53c 7694 debd 9575 48bd 3493 d23c
00000010: 6819 a0bc 6d8e 7b3c 3318 a6bd 9963 1cba
00000020: 0fc1 fd3c 2e41 4fbd dd44 023e 47b2 e23d
00000030: 4054 9abd b1f5 61bc 5794 6dbc e873 85be
00000040: c6b7 eb3d 0a2d e53c 15f1 0f3e a965 08bd
00000050: 726d b5bd 56cd 29be a22e 77bd 29dd 6e3d
00000060: eead ae3d a2a2 bd3d 1442 0c3e 3f96 58be
00000070: 4f8a 1ebd d953 e33d ab36 9d3d c52a a6bd
00000080: fb3b 163e 2994 6fbe 6b0f 163e 37d9 9d3c
00000090: ac77 3f3d 5c7e 05bc 1264 5e3e 602f 53bd
000000a0: 8ab2 963d 8e52 e9bc 862c 22bd b819 f0bd
000000b0: f08a 32bc f582 6fbd 4e27 5e3b c3ad 76bc
000000c0: 10d3 04be 5a6c a0be bef9 4ebc 5d95 c4be
000000d0: 8b56 08bd edad 5ebc 07b0 41bc ce47 f8bc
000000e0: 1e9f e53c 6252 edbd 1f24 223d fa86 d539
000000f0: 633f 533d deb1 673d 6365 5cbb ac41 08bb
00000100: 2cc6 b73b 041e db3d 543e a23d aef8 bfbd
00000110: 59f4 c6b9 a8a7 3d3b a8b7 eabd 1df6 ae3d
00000120: ef62 fd3d 75f3 5b3d 77be d6bd b683 90bc
00000130: 1f59 ee3c b411 84bd 9156 223e ef1c 88bd
00000140: 3831 1bbf e6ec 933d abc1 29bd a981 b33d
00000150: ddbe 99bc e0b3 3e3e 6d6f 273d 5f96 6cbd
00000160: 34da dfbc e1f6 94bd d01a 6d3a 22b8 0e3b
00000170: 90ac 213e e78f 6cbd aba6 103d b260 b7bc
00000180: dd9a eabb 0062 203d 2ccc 8bbd 7154 fcbb
00000190: 32d2 5abe 1d8f 26bd bf0c b938 6fd5 dbbc
000001a0: 6494 123d 93b2 74bd d4f0 b9bd 83f0 9dbe
000001b0: 6489 b93c 9870 3c3d 23a7 4e3c e1ec 13be
000001c0: 6f43 263d 8230 23bd 7a63 e53c 08f2 2a3e
000001d0: 6e8a 4d3d 48d9 80bd c61e 84bd db33 843c
000001e0: 03eb b2bb 3a38 9dbe 9608 8b3d bd80 5cbe
000001f0: 03c2 523d 450d 3fbc 367c d33b 35b7 d5be
00000200: a652 42bc ff9f af3e eb40 a0bc 668b aebd
00000210: ac68 b2bd 6eb4 c23c 0f66 093d 6d08 39bb
00000220: 7398 0bbd fdab 82bd d0c8 8abe 7136 973d
00000230: d9dd 773d c0a3 843d 29e0 ec3c 801c 863d
00000240: 15be 09bd b8e1 5fbc 09b5 48bd 100a d13d
00000250: e95b 6bbe 2cd8 d1bd 0b89 0ebd f348 c73b
00000260: a4e2 133d f693 943d 3a36 78bd 2bee 9a3d
00000270: 4b58 afbe 8312 143d d6e7 e9bd 8a9c 78be
00000280: ef97 933d b693 a83c 0b78 3ebb 99bb b9be
00000290: 5753 2abd 20c1 a9bc e5dc 493e e1db f7bd
000002a0: 22cf 29bd c7a6 2c3b 4649 cf3d 14d9 8a3d
000002b0: f653 cdbd bc4e 133e 54d6 9abe 0a8b 42bd
000002c0: 27ff 05be 0352 2c3d 2a3f ad3c e3e2 2c3d
000002d0: 2a2f afbc e5f4 19bd 5009 4bbd 413b 67be
000002e0: 4578 87be 7e32 e4bb 20d9 a7bd 55ae a63d
000002f0: 9bd6 5bbc 866d 99bc 63be 673c d52c 583d
00000300: a2bb 05be 493e 3c3d be88 a2bd fc29 93bc
00000310: 6c8b c0bd c395 81bc c193 483c 1f3c 84bc
00000320: 500c 89bd f56e 0b3d 9c35 04bd 7776 e6bc
00000330: 3151 473d 19e7 10bd 5227 81bd 2c68 ccbc
00000340: 568a 223d b7d5 0bbd d66c c03d 8814 80bd
00000350: f887 8bbd 1def 48be edea cdbb a1c8 543d
00000360: 9bda b3bd 2556 7bbd 9f3c 363d f8b4 3fbd
00000370: 0ee1 8f3c cc1c 75bd 39d6 453d 2b4a 6ebd
00000380: a08c 24bd cdeb a1bc 1320 adbc 1c39 47be
00000390: 1dce 7fbd 473f 01bd 98de f33d 03ca 2fbc
000003a0: 7581 81bd a84d 4dbd ee30 fb3c 8cec 9d3c
000003b0: 5eef aebd 015c eb3c f6fb ff3d e754 e53c
000003c0: 7cb9 b43c 95f3 e93b 073b b9bd 7058 3e3e
000003d0: fda1 7b3c 2114 a03d 2f2e cebc 06f5 893d
000003e0: 79a2 6d3c a4a5 ed3c 1726 6bbd 71aa 753d
000003f0: d0d1 2f3a 5ec1 fbbb 1dde 29be 602c 17bd

critic.2.bias f4 [128]
0.0056387982 -0.010994196 0.013205126 0.070640184 0.05681973 -0.040830493 0.028694503 0.05977642
0.002850822 0.044597812 -0.012795609 0.002609798 0.07308708 -0.019746743 0.07654964 -0.012405602
0.02868354 -0.006863782 0.012168208 -0.038300563 0.0033472646 0.004460473 0.02107321 0.035252936
-0.008488463 0.023521904 0.0060346825 -0.061770152 -0.009744632 -0.009462215 -0.0036868255 0.019992031
0.0535583 0.07967988 -0.03411172 -0.01178595 -0.04546973 0.0060297293 -0.047381714 0.09808278
0.100769624 0.04481996 0.02747248 0.10635744 0.060910955 -0.0037691244 0.06987116 0.026670057
-0.028660242 -0.04496599 0.07883389 0.0050763604 0.018281773 0.050228283 0.06342825 -0.03910296
0.054761127 -0.00049859064 0.0547656 -0.046137452 0.0616108 0.012496021 -0.0064465404 0.026067043
-0.02391526 0.05549192 0.06905555 0.06658785 0.08883666 0.0719546 0.056043096 -0.05127213
0.02213768 0.034655236 0.041925136 0.010039494 0.022336671 0.041946027 -0.012527115 0.06078295
-0.036653183 0.013793253 0.057528146 -0.03240184 0.03407066 0.0408457 0.06893492 -0.045758817
-0.053111576 -0.048551112 0.031562664 0.010559859 -0.0059699654 -0.032283667 0.008554145 -0.007939075
0.029874587 0.056107637 -0.01194543 -0.054185357 -0.049216565 -0.010512184 0.037765272 0.020542515
0.008286483 -0.0659146 -0.0048893774 -0.012907064 -0.049944818 -0.03857072 0.034918148 0.03643154
-0.008553033 -0.041399185 -0.060079396 0.009369741 0.10366082 -0.010362087 0.013184678 0.08914055
0.07356971 -0.042113274 0.014915043 0.039164852 0.007449726 -0.00055676285 -0.010982349 0.017585099
00000000: abc5 b83b 0021 34bc 505a 583c cdab 903d
00000010: cebb 683d e03d 27bd bc10 eb3c 1fd8 743d
00000020: dbd4 3a3b 32ac 363d ada4 51bc 2509 2b3b
00000030: aeae 953d ecc3 a1bc 0fc6 9c3d de40 4bbc
00000040: bef9 ea3c 94e9 e0bb 2a5d 473c 0de1 1cbd
00000050: c85d 5b3b 2929 923b b9a1 ac3c 6265 103d
00000060: 3213 0bbc 02b1 c03c 96be c53b b302 7dbd
00000070: f3a7 1fbc 6807 1bbc ab9e 71bb 54c6 a33c
00000080: f35f 5b3d 342f a33d bbb8 0bbd db19 41bc
00000090: 783e 3abd 0995 c53b 5413 42bd a0df c83d
000000a0: 4e60 ce3d 2295 373d f70d e13c eed1 d93d
000000b0: c47d 793d 6a03 77bb 9c18 8f3d 2a7b da3c
000000c0: e2c8 eabc 422e 38bd aa73 a13d 9957 a63b
000000d0: a8c3 953c 2cbc 4d3d ace6 813d 6d2a 20bd
000000e0: 344d 603d dab3 02ba e551 603d a0fa 3cbd
000000f0: 9b5b 7c3d 1cbc 4c3c 803d d3bb 8d8a d53c
00000100: efe9 c3bc 7f4b 633d ff6c 8d3d 365f 883d
00000110: ffef b53d ef5c 933d 728d 653d ba02 52bd
00000120: 145a b53c a6f2 0d3d b1b9 2b3d b17c 243c
00000130: 65fb b63c 99cf 2b3d 873e 4dbc 8bf7 783d
00000140: a621 16bd 19fd 613c a2a2 6b3d cbb7 04bd
00000150: ad8d 0b3d d24d 273d c02d 8d3d 996d 3bbd
00000160: 868b 59bd 88dd 46bd da47 013d 4203 2d3c
00000170: b39f c3bb e13b 04bd af26 0c3c e512 02bc
00000180: 8dbb f43c 1fd1 653d c4b6 43bc 77f1 5dbd
00000190: 4f97 49bd 4c3b 2cbc c2af 1a3d c748 a83c
000001a0: 07c4 073c 3cfe 86bd 1237 a0bb 2678 53bc
000001b0: f092 4cbd 55fc 1dbd 5506 0f3d 3d39 153d
000001c0: 0522 0cbc 3192 29bd d015 76bd 8b83 193c
000001d0: 204c d43d bec5 29bc 8c04 583c 528f b63d
000001e0: b7ab 963d f87e 2cbd 395e 743c 536b 203d
000001f0: d51c f43b b9f3 11ba 4fef 33bc a00e 903c

critic.4.weight f4 [1, 128]
0.31018522 -0.19724391 -0.1595771 0.2312444 -0.26168862 0.27148494 -0.07573919 0.16656572
-0.25056317 0.118860215 -0.6363204 0.21330701 -0.13356501 0.25158635 -0.020910086 0.072053716
0.28972968 0.40879726 -0.25961304 -0.20856553 -0.24720483 -0.10384676 -0.077293575 -0.16952677
0.16800484 -0.0008386294 -0.053690266 0.31095996 0.33034095 -0.06824946 0.18498501 -0.603395
-0.032983106 0.1604383 0.06876342 0.35474646 0.73407376 -0.05516047 0.3723343 0.19259489
0.75063163 -0.08526903 0.60210246 -0.18720697 -0.20511252 0.6064489 -0.26398167 -0.17933196
-0.12048243 -0.11361472 -0.060500633 -0.019548617 0.13103703 0.10412453 0.629954 0.1910609
-0.035811666 -0.10828731 0.2974958 0.28128538 -0.06480068 0.23517802 0.13707371 0.4473618
0.22737832 -0.051064823 -0.058428857 -0.16264066 -0.13613817 -0.17551388 0.22761014 0.03312307
0.19546758 0.1943575 0.11326252 -0.08659794 0.22915703 -0.07850045 -0.21437614 0.17987871
0.24164708 -0.09750335 -0.1037753 0.23068765 0.14732574 -0.030101921 0.085920975 0.1827172
0.20925233 0.28816497 -0.020871624 0.20765375 -0.3432121 -0.0606512 0.21131279 -0.0465118
0.1797943 0.16664991 0.6291199 -0.06872924 0.41453284 -0.123279296 0.6301459 0.22638921
-0.15699348 0.4620063 0.3595306 -0.12928833 0.11917148 0.12579107 0.17597173 0.18314472
0.46665928 0.40084273 0.31596926 0.20920852 0.6111521 -0.050185803 -0.08981512 0.5382333
-0.21230021 0.40266415 -0.28744137 -0.022129381 -0.0724297 -0.2609415 -0.009596148 -0.29814905
00000000: 99d0 9e3e 4ffa 49be 2e68 23be 55cb 6c3e
00000010: 0dfc 85be 1300 8b3e 261d 9bbd 3490 2a3e
00000020: d149 80be fc6c f33d e5e5 22bf 276d 5a3e
00000030: 44c5 08be edcf 803e a14b abbc e690 933d
00000040: 7357 943e e04d d13e 00ec 84be 3492 55be
00000050: 4323 7dbe 9cad d4bd 184c 9ebd 6d98 2dbe
00000060: 7609 2c3e 77d7 5bba 53ea 5bbd 2536 9f3e
00000070: 7322 a93e 5fc6 8bbd b66c 3d3e 1878 1abf
00000080: 4b19 07bd f049 243e d6d3 8c3d 54a1 b53e
00000090: 42ec 3b3f f2ef 61bd 9aa2 be3e 9837 453e
000000a0: 6529 403f 87a1 aebd 6323 1a3f 2fb3 3fbe
000000b0: 0409 52be 3c40 1b3f 9b28 87be cca2 37be
000000c0: 7ebf f6bd d6ae e8bd 83cf 77bd 6c24 a0bc
000000d0: 922e 063e 3e3f d53d aa44 213f 78a5 433e
000000e0: 41af 12bd bdc5 ddbd 5f51 983e a304 903e
000000f0: 38b6 84bd 82d2 703e 0d5d 0c3e 9b0c e53e
00000100: ddd5 683e 5929 51bd 1953 6fbd 468b 26be
00000110: ce67 0bbe e9b9 33be a212 693e 0eac 073d
00000120: a728 483e a705 473e 2ef6 e73d 435a b1bd
00000130: 24a8 6a3e d8c4 a0bd 6b85 5bbe 2032 383e
00000140: 5572 773e d6af c7bd 2588 d4bd 6239 6c3e
00000150: 8fdc 163e 4e98 f6bc 56f7 af3d 381a 3b3e
00000160: 3e46 563e 5c8a 933e f8fa aabc 2fa3 543e
00000170: 7fb9 afbe 656d 78bd 6162 583e 2883 3ebd
00000180: ff1b 383e 46a6 2a3e 000e 213f eac1 8cbd
00000190: a63d d43e db79 fcbd 3e51 213f 93d2 673e
000001a0: e6c2 20be 178c ec3e 6514 b83e 2964 04be
000001b0: 2d10 f43d 60cf 003e ef31 343e 4a8a 3b3e
000001c0: f7ed ee3e 423b cd3e b9c6 a13e c23a 563e
000001d0: 7774 1c3f a18f 4dbd fdf0 b7bd a8c9 093f
000001e0: 3a65 59be ff29 ce3e 842b 93be ad48 b5bc
000001f0: 0656 94bd 209a 85be 2939 1dbc fea6 98be

actor.0.weight f4 [256, 48]
-0.13680847 -0.03747501 -0.07665073 -0.06859358 0.03244223 -0.05229298 0.014579862 -0.120184116
0.08328321 0.14636198 0.13455814 0.20370059 0.07017682 0.11416176 0.064868666 0.019267308
0.06345393 -0.13200738 -0.11198682 -0.097962946 -0.032853182 0.2750539 0.13027337 0.13041517
-0.118966766 0.016164502 -0.07886431 0.036411986 -0.0008863882 0.08641405 0.0024002655 -0.047717866
-0.09054071 0.1117063 0.02728327 0.022420015 0.08393029 -0.14119537 0.023396226 0.108072646
-0.005414206 -0.08868662 0.16178745 -0.039615687 -0.059322607 0.15628044 0.123754814 0.0845483
-0.12559599 -0.075824864 -0.022927469 -0.001978431 -0.1278022 -0.025868267 -0.052987773 0.009245873
0.09946058 0.03482447 -0.134187 -0.13865815 0.07766849 -0.08195265 0.09963273 -0.059741475
-0.04394254 -0.12064921 -0.13381846 -0.02119944 0.009459191 -0.07140594 -0.020180818 0.09500364
-0.16894566 -0.025986742 -0.07648263 -0.12639518 -0.112785295 0.10917038 0.08329502 0.06526659
0.1667756 -0.15230644 -0.13542244 -0.14539722 -0.15736297 -0.034490068 -0.03066673 -0.09421443
-0.09377199 -0.11854708 -0.053085558 0.026531005 0.13049941 -0.049624983 -0.021988302 -0.1166197
-0.132021 0.11057163 0.039279744 0.1361135 0.09291938 -0.097187065 0.07563341 0.15304624
-0.006829805 -0.02423009 -0.07144394 -0.081921406 -0.062409073 0.12548472 -0.022667883 0.14668898
-0.13143061 0.14849107 -0.063701674 0.15427789 -0.120150805 0.2254923 0.06432805 0.050763663
-0.11937322 -0.088809766 0.12242205 0.013980758 -0.08202998 0.11412054 -0.020260725 0.11449823
-0.16898309 0.22202437 0.18722925 0.12447696 0.13605005 0.08384084 -0.071611606 -0.052393954
-0.027285904 -0.092461124 -0.11649223 0.16623658 -0.16617641 0.044829004 0.20261306 0.08246568
-0.11839086 0.0043681306 0.042678844 -0.0142467525 -0.13970149 0.17572021 -0.14267662 0.07627675
-0.07863583 -0.1500272 -0.17812578 -0.03569239 -0.084711276 -0.00668321 0.03638702 -0.14817521
-0.082181916 0.11563409 -0.07096321 -0.02666138 0.17022398 0.13184115 -0.08155157 0.029369604
-0.180038 -0.082380526 0.018671524 -0.09870607 -0.087747715 0.09183087 0.11214138 0.094972424
0.011115725 -0.06279035 -0.12817213 0.00052022585 0.059392292 -0.04658872 0.07066445 0.051255442
-0.09447888 0.0047404617 0.09193986 0.053320825 0.16258223 0.13276657 0.08846308 0.047735
-0.084957585 0.09265892 -0.13289846 0.09358192 -0.06748705 0.022374352 -0.044489145 -0.0025481458
-0.05600438 0.029212454 0.044185005 -0.10100312 0.049053315 0.015293503 -0.102653734 0.02773348
-0.10129548 -0.12106527 -0.12793371 0.06725691 -0.0011791746 0.038330436 -0.12102613 0.03765698
0.08662478 0.16723828 -0.031218532 0.037690286 0.019271072 -0.14268938 -0.039594922 0.09132778
-0.026295643 0.009976951 -0.11717016 0.17941232 0.09396169 0.018796954 -0.12724876 -0.07688387
-0.070971735 0.0817559 -0.08255981 0.13498682 -0.14576201 -0.0014749286 0.112689674 0.10667564
-0.1720234 -0.15838458 -0.06272581 -0.11170663 -0.049309574 0.01974833 0.06636806 0.11388526
0.055574566 -0.08599937 -0.1063444 0.19916213 -0.20524849 0.026430655 0.083679825 0.13201721
00000000: 8517 0cbe 657f 19bd 0ffb 9cbd ca7a 8cbd
00000010: 25e2 043d 2a31 56bd 60e0 6e3c 1723 f6bd
00000020: 6390 aa3d eadf 153e 9cc9 093e e396 503e
00000030: ddb8 8f3d a4cd e93d ddd9 843d 79d6 9d3c
00000040: 22f4 813d f12c 07be 5959 e5bd cca0 c8bd
00000050: 0f91 06bd ddd3 8c3e 6266 053e 8e8b 053e
00000060: d9a4 f3bd 6b6b 843c 9d83 a1bd bc24 153d
00000070: 815c 68ba d9f9 b03d c64d 1d3b cf73 43bd
00000080: 686d b9bd 46c6 e43d 2a81 df3c 2eaa b73c
00000090: a5e3 ab3d 8595 10be 71a9 bf3c 3155 dd3d
000000a0: a769 b1bb 55a1 b5bd 9cab 253e 0f44 22bd
000000b0: 43fc 72bd fb07 203e 2a73 fd3d a927 ad3d
000000c0: 3c9c 00be 114a 9bbd 63d2 bbbc 90a8 01bb
000000d0: 94de 02be b0e9 d3bc b509 59bd 017c 173c
000000e0: fdb1 cb3d 1aa4 0e3d 5168 09be 67fc 0dbe
000000f0: a810 9f3d cad6 a7bd 3f0c cc3d 7ab3 74bd
00000100: 18fd 33bd ef16 f7bd b507 09be 73aa adbc
00000110: b9fa 1a3c 473d 92bd 3e52 a5bc 4591 c23d
00000120: 1700 2dbe 26e2 d4bc eda2 9cbd bd6d 01be
00000130: fafb e6bd b894 df3d 9496 aa3d 7daa 853d
00000140: 39c7 2a3e 38f6 1bbe 2eac 0abe 02e3 14be
00000150: c223 21be 7545 0dbd cb38 fbbc 7ff3 c0bd
00000160: 870b c0bd d0c8 f2bd 3e70 59bd 8d57 d93c
00000170: a3a1 053e 9143 4bbd d020 b4bc 4fd6 eebd
00000180: 8330 07be 6173 e23d cce3 203d 5661 0b3e
00000190: 844c be3d 030a c7bd b0e5 9a3d 27b8 1c3e
000001a0: 8fcc dfbb 2f7e c6bc 3351 92bd 69c6 a7bd
000001b0: a8a0 7fbd 117f 003e ffb1 b9bc a335 163e
000001c0: bf95 06be 0b0e 183e 0676 82bd 06fb 1d3e
000001d0: a011 f6bd 74e7 663e 6dbe 833d 8fed 4f3d
000001e0: f279 f4bd e5e1 b5bd 69b8 fa3d 8d0f 653c
000001f0: 56ff a7bd 08b8 e93d d2f9 a5bc 0c7e ea3d
00000200: e709 2dbe 5b5a 633e 06b9 3f3e c7ed fe3d
00000210: b450 0b3e bfb4 ab3d 1ba9 92bd 0b9b 56bd
00000220: b086 dfbc 425c bdbd 7a93 eebd ec39 2a3e
00000230: 262a 2abe 9e9e 373d cc79 4f3e c4e3 a83d
00000240: e876 f2bd 8922 8f3b 03d0 2e3d 366b 69bc
00000250: e80d 0fbe 00f0 333e d219 12be fc36 9c3d
00000260: d20b a1bd bba0 19be 9b66 36be 2f32 12bd
00000270: 1b7d adbd d4fe dabb 8e0a 153d 3ebb 17be
00000280: fe4e a8bd 91d1 ec3d 2955 91bd f768 dabc
00000290: 324f 2e3e 5e01 073e 8204 a7bd 8698 f03c
000002a0: e25b 38be 1fb7 a8bd 06f5 983c 6826 cabd
000002b0: 13b5 b3bd d311 bc3d 61aa e53d e780 c23d
000002c0: bb1e 363c 3a98 80bd 8e3f 03be c45f 083a
000002d0: 5545 733d d0d3 3ebd 86b8 903d 3af1 513d
000002e0: 257e c1bd e055 9b3b f74a bc3d f066 5a3d
000002f0: f57b 263e f6f3 073e 222c b53d c685 433d
00000300: 3efe adbd f6c3 bd3d 8916 08be e1a7 bf3d
00000310: a736 8abd 6b4a b73c 403a 36bd cbfe 26bb
00000320: d964 65bd f54e ef3c 56fb 343d b9da cebd
00000330: 21ec 483d 9a91 7a3c 1f3c d2bd 5331 e33c
00000340: 0174 cfbd 11f1 f7bd 0e01 03be febd 893d
00000350: 898e 9aba 6000 1d3d 8cdc f7bd 353e 1a3d
00000360: 5568 b13d 8340 2b3e 02be ffbc 2161 1a3d
00000370: 5ede 9d3c 2a1d 12be 492e 22bd 0f0a bb3d
00000380: f669 d7bc 5e76 233c e9f6 efbd ddb7 373e
00000390: fd6e c03d 12fc 993c 804d 02be 4a75 9dbd
000003a0: a159 91bd a36f a73d 1e15 a9bd fc39 0a3e
000003b0: a342 15be 6452 c1ba d8c9 e63d c278 da3d
000003c0: e726 30be 912f 22be 6476 80bd 72c6 e4bd
000003d0: d6f8 49bd 40c7 a13c faeb 873d ad3c e93d
000003e0: 28a2 633d 7020 b0bd 18cb d9bd 28f1 4b3e
000003f0: a92c 52be 1a85 d83c 5460 ab3d 852f 073e

actor.0.bias f4 [256]
-0.00820908 -0.074175194 -0.042951047 0.023210576 -0.023194226 0.04761465 -0.1157933 0.115901545
-0.064281695 0.068244524 -0.098740496 -0.04106807 0.09710332 -0.14574285 -0.11378749 -0.024872616
-0.037362434 -0.06391633 0.038737584 -0.10141326 -0.12132607 -0.050475262 0.059522144 0.011270066
0.13312194 0.09154857 -0.017162783 -0.02734155 0.049145214 0.06420156 -0.07512034 0.03337515
-0.061874505 0.10782883 -0.0073275827 -0.07405284 0.10079559 -0.08498949 -0.14276913 0.14336644
-0.11160093 0.0035243551 0.07787177 0.13074003 -0.026186747 0.057954557 0.05506997 0.07914419
-0.10857494 -0.045131017 -0.055906992 0.0394143 0.02059469 -0.026682064 -0.117075145 -0.019073334
0.116792284 0.079772875 -0.061252605 0.09389472 0.0062736734 0.045856025 -0.060183916 0.049402945
0.012580097 0.122391425 0.018107153 0.028335663 -0.06915359 0.081627235 -0.12323765 -0.021726234
-0.03243334 0.04769006 0.13178895 -0.10752769 -0.047100116 -0.10696625 0.11372915 0.1547569
-0.08141956 0.049472973 -0.093426324 -0.13845126 -0.022421926 0.1513489 -0.13015164 0.12637395
-0.029841037 0.013504259 -0.05143776 0.0892923 -0.017629908 -0.042664688 0.096573 0.105784595
-0.06286234 -0.036675915 -0.08462152 0.03039172 0.02315253 -0.069908164 -0.061473176 0.0309942
-0.09969867 -0.03277913 0.046179596 -0.13720417 -0.016464721 -0.1034511 -0.11153308 -0.009865012
0.04259608 0.073491275 -0.11505921 0.0725997 0.1326979 0.015093757 0.027375126 0.045467645
-0.09724639 -0.04128762 0.12506284 0.13152373 0.08013653 -0.077933535 0.11722371 0.0010774973
0.0639186 -0.14581978 -0.05939893 0.10367896 0.066688575 -0.03803069 -0.011928911 -0.08056812
-0.111226514 -0.0022192947 0.07960891 0.018319853 -0.047333866 0.08067059 -0.015589611 0.14899011
-0.10083275 0.014927978 0.038061302 -0.05462091 0.13497742 0.07340021 0.13415246 -0.070324205
-0.012407273 -0.11248064 0.123141795 -0.09896794 0.17841929 -0.12380005 0.035973214 -0.124805
-0.10023214 0.16278546 0.14442386 0.12654693 -0.079890445 -0.049431268 -0.038911615 0.13657758
0.10686225 0.026938522 0.0408858 -0.068748765 -0.0033046198 0.003725403 0.035518605 0.012688958
0.04646992 0.060855325 -0.09573176 0.15052524 -0.07193913 -0.016101576 -0.11885721 0.081460536
0.09311234 0.15739757 -0.00038500867 -0.14084332 -0.033804175 0.08325529 0.023076054 0.16290419
-0.11036656 -0.11748618 0.10997371 -0.111156166 -0.021649368 -0.11688009 0.06862689 -0.1137669
-0.068220995 0.14200844 -0.0060061496 -0.09209087 0.047880154 0.10254462 -0.07072741 -0.13685082
0.11586606 0.11199039 -0.04025329 0.09468103 0.14627649 0.08032682 0.02994208 0.1236929
-0.13700289 -0.03647252 -0.1065403 0.104684584 0.09579803 0.001096381 -0.013816976 0.060851447
0.024824034 0.027525606 0.12464931 -0.014035347 0.10289799 -0.059338924 0.08283368 -0.13857535
0.011342645 -0.01663025 -0.11581732 0.07899394 0.13360707 0.11802487 -0.090052195 -0.13438205
-0.06937872 -0.13454759 0.10391979 0.12304707 0.016032668 0.022783643 -0.011090842 0.11737822
-0.028548904 -0.048696894 0.1250151 0.04557751 0.022670016 -0.12349315 0.15630992 -0.13604023
00000000: 617f 06bc 2ae9 97bd 70ed 2fbd 1b24 be3c
00000010: d101 bebc 9407 433d 0a25 edbd ca5d ed3d
00000020: 1fa6 83bd c9c3 8b3d 7538 cabd fe36 28bd
00000030: 1bde c63d 9d3d 15be 6a09 e9bd a8c1 cbbc
00000040: 5a09 19bd 91e6 82bd 4dab 1e3d c1b1 cfbd
00000050: cd79 f8bd 26bf 4ebd 7ecd 733d 15a6 383c
00000060: 1e51 083e d17d bb3d f798 8cbc 63fb dfbc
00000070: 7e4c 493d 1c7c 833d b1d8 99bd 62b4 083d
00000080: 1f70 7dbd 5dd5 dc3d 381c f0bb 04a9 97bd
00000090: eb6d ce3d f80e aebd 1232 12be a7ce 123e
000000a0: 078f e4bd def8 663b 3c7b 9f3d b7e0 053e
000000b0: 9785 d6bc c261 6d3d 0d91 613d 5916 a23d
000000c0: 8a5c debd 4ddb 38bd bbfe 64bd e470 213d
000000d0: 32b6 a83c 5894 dabc 18c5 efbd ae3f 9cbc
000000e0: cb30 ef3d f65f a33d 03e4 7abd e04b c03d
000000f0: 6393 cd3b 87d3 3b3d 6983 76bd be5a 4a3d
00000100: c01c 4e3c 5ba8 fa3d 7455 943c 3120 e83c
00000110: 66a0 8dbd 2e2c a73d 0564 fcbd 37fb b1bc
00000120: d2d8 04bd a756 433d aff3 063e 7a37 dcbd
00000130: 0dec 40bd 1f11 dbbd d4ea e83d 9878 1e3e
00000140: 4cbf a6bd 2ca4 4a3d 4d56 bfbd 2bc6 0dbe
00000150: 30ae b7bc 35fb 1a3e 7946 05be 2c68 013e
00000160: 3175 f4bc f840 5d3c 67b0 52bd e2de b63d
00000170: 996c 90bc 2bc1 2ebd 11c8 c53d 98a5 d83d
00000180: f8bd 80bd 7c39 16bd 0c4e adbd 0ef8 f83c
00000190: 60aa bd3c 032c 8fbd 4ccb 7bbd 8ce7 fd3c
000001a0: d12e ccbd 6943 06bd d126 3d3d 407f 0cbe
000001b0: 06e1 86bc 2cde d3bd 756b e4bd dca0 21bc
000001c0: 3a79 2e3d 9882 963d 2aa4 ebbd 27af 943d
000001d0: f5e1 073e ce4b 773c cd41 e03c 483c 3a3d
000001e0: 1e29 c7bd 351d 29bd 7910 003e 28ae 063e
000001f0: 9f1e a43d 9e9b 9fbd fc12 f03d cf3a 8d3a
00000200: c1e7 823d c851 15be 4b4c 73bd a255 d43d
00000210: 0594 883d 12c6 1bbd 7b71 43bc e600 a5bd
00000220: baca e3bd 9671 11bb ff09 a33d 8413 963c
00000230: 28e1 41bd 9f36 a53d 916b 7fbc dd90 183e
00000240: 6781 cebd 7a94 743c 2be6 1b3d 2dba 5fbd
00000250: 8537 0a3e d952 963d 435f 093e 2306 90bd
00000260: e047 4bbc 405c e6bd c431 fc3d b4af cabd
00000270: 8cb3 363e e18a fdbd a658 133d c499 ffbd
00000280: 8246 cdbd 3bb1 263e d9e3 133e 8595 013e
00000290: 9a9d a3bd 7178 4abd c961 1fbd feda 0b3e
000002a0: 98da da3d 2dae dc3c de77 273d 27cc 8cbd
000002b0: 5292 58bb e425 743b f57b 113d 59e5 4f3c
000002c0: 3e57 3e3d 6f43 793d 030f c4bd 4a23 1a3e
000002d0: d354 93bd 74e7 83bc 696b f3bd c8d4 a63d
000002e0: afb1 be3d d42c 213e fdda c9b9 3b39 10be
000002f0: 3f76 0abd c081 aa3d fe09 bd3c 5bd0 263e
00000300: dd07 e2bd 989c f0bd e539 e13d d8a5 e3bd
00000310: 045a b1bc d45e efbd 418c 8c3d 9ffe e8bd
00000320: 73b7 8bbd a96a 113e 3ccf c4bb 239a bcbd
00000330: fb1d 443d ea02 d23d 88d9 90bd 9f22 0cbe
00000340: 2f4b ed3d 385b e53d a2e0 24bd 21e8 c13d
00000350: 81c9 153e 6382 a43d 1849 f53c b452 fd3d
00000360: 7c4a 0cbe 3664 15bd cd31 dabd df64 d63d
00000370: c231 c43d 71b4 8f3a 9960 62bc 5e3f 793d
00000380: c65b cb3c 617d e13c 2348 ff3d 83f4 65bc
00000390: 2ebc d23d 5f0d 73bd b4a4 a93d b2e6 0dbe
000003a0: 80d6 393c 293c 88bc a231 edbd 93c7 a13d
000003b0: 4bd0 083e 06b7 f13d 496d b8bd 739b 09be
000003c0: 6e16 8ebd d8c6 09be e6d3 d43d 1a00 fc3d
000003d0: f156 833c c3a4 ba3c 5db6 35bc fe63 f03d
000003e0: 64df e9bc 6576 47bd f503 003e 7caf 3a3d
000003f0: 78b6 b93c fae9 fcbd b50f 203e 214e 0bbe

actor.2.weight f4 [128, 256]
-0.035978172 -0.11146246 -0.024154061 0.05845035 0.013064126 -0.1584344 -0.101884864 -0.10588405
0.04891623 0.073564455 -0.029182874 -0.03522134 0.042358648 -0.037693106 0.12319432 -0.07399561
-0.08775574 0.017418498 0.0133480765 -0.001452898 0.09539206 -0.05982792 -0.0006336171 0.031688843
-0.094470166 -0.060699135 -0.027960844 0.041813765 0.033923574 0.030311558 0.07367663 -0.0207346
-0.16252391 -0.037263814 -0.029170875 -0.0073066996 -0.04347818 0.017899908 -0.03393332 -0.016660929
-0.07863109 -0.027943349 0.0017239212 0.062527984 -0.04543208 -0.10459669 0.1274351 0.015523761
-0.0046654395 -0.060456358 -0.17863977 0.106569864 0.07210751 -0.0028910537 -0.092009164 -0.16287547
0.08158811 -0.06291299 0.036936976 -0.105601415 -0.008686516 -0.031247443 -0.011372794 -0.094941095
0.13353017 -0.05326672 0.2169406 -0.09342835 0.17799415 0.087186955 -0.07690299 -0.006056241
0.07124177 -0.040454537 0.09392888 -0.19089168 0.0052740807 0.089774095 0.10200912 0.02021506
0.11251115 -0.1453427 -0.29679787 -0.07531373 -0.2955533 0.1026544 0.17902677 -0.04747896
0.05744504 -0.06774122 0.017976338 0.05221956 0.048787095 0.015191741 0.16555114 0.090306416
-0.0064175483 0.029021801 -0.13351338 -0.07545715 -0.077730626 -0.18945101 0.022393722 -0.004817037
0.11733918 0.004970323 0.008752916 -0.04087923 0.045026764 0.059070718 -0.001790911 0.074918605
-0.024088398 0.022038154 -0.06583912 -0.018680004 0.008966404 -0.011090804 -0.014683482 -0.058638602
0.03750533 0.19827887 -0.06896426 0.050052006 -0.039383523 0.0018489519 0.11907577 0.12776746
-0.097011544 -0.009957366 0.0060433308 0.06384393 0.018889045 -0.12108667 -0.007923584 -0.07956932
-0.114146955 0.10781924 0.12177981 0.075681105 -0.010740739 -0.13771385 0.16303398 -0.049342524
0.019039836 -0.05817426 0.09502123 0.10440811 0.05739147 -0.01867843 -0.18713197 0.10468526
-0.03869079 0.087773524 -0.03667555 0.052979533 0.06731832 -0.00083472836 -0.014711718 0.0016039542
0.015513578 0.01683327 0.14977917 0.09954969 0.08575832 0.073563896 -0.031255074 0.0122289555
-0.012832999 0.0033202965 -0.0024653522 -0.011934548 0.041304268 -0.07954046 0.029306378 0.19440316
0.057393134 0.11647874 -0.09417128 0.050056323 -0.07698429 -0.08317489 -0.030831348 -0.0777989
0.021165218 0.10234462 -0.059744895 0.055591386 -0.023981024 -0.177086 -0.0097643295 -0.0027551302
0.13162628 -0.015072819 -0.019240322 -0.13474986 -0.09125527 0.100356996 -0.034765143 0.15973747
-0.0927175 0.09338169 0.06588663 -0.041937362 -0.0077521256 0.0275778 -0.05606083 -0.06613848
-0.051705237 0.01187113 0.011755851 -0.06674159 0.0056181154 -0.097060576 -0.0049429345 0.061202798
0.020871144 -0.006007567 -0.051305704 0.023063902 -0.22472957 -0.08679593 0.027661331 -0.10041688
-0.15361072 -0.13554758 -0.052109547 -0.13267744 -0.11748412 0.11976639 -0.0671632 0.021493638
-0.093770266 0.0501992 0.057346866 0.036385596 0.022161165 0.0033594698 -0.019851359 0.118052684
0.07275376 -0.03425165 0.12691188 0.048154324 -0.1104481 0.12924846 0.11924882 0.11275937
-0.13840754 0.08756917 -0.01370255 -0.06467914 -0.12814733 0.0023234512 -0.055809896 -0.16259734
00000000: d95d 13bd 6e46 e4bd bdde c5bc a269 6f3d
00000010: ea0a 563c a13c 22be 03a9 d0bd bdd9 d8bd
00000020: 635c 483d f6a8 963d ec10 efbc 4044 10bd
00000030: 4380 2d3d 1664 1abd 4e4d fc3d 038b 97bd
00000040: 48b9 b3bd 3db1 8e3c e4b1 5a3c 2b6f beba
00000050: ea5c c33d 1f0e 75bd 5319 26ba 29cc 013d
00000060: 9379 c1bd a89f 78bd 240e e5bc e944 2b3d
00000070: 72f3 0a3d f24f f83c c6e3 963d 9cdb a9bc
00000080: ab6c 26be f1a1 18bd c2f7 eebc 0a6d efbb
00000090: 2d16 32bd d4a2 923c aafd 0abd 807c 88bc
000000a0: 5609 a1bd 73e9 e4bc 32f5 e13a ac0e 803d
000000b0: fd16 3abd ca36 d6bd 597e 023e 5f57 7e3c
000000c0: 8be0 98bb 16a1 77bd 58ed 36be 4d41 da3d
000000d0: 1aad 933d d577 3dbb 4d6f bcbd d4c8 26be
000000e0: ab17 a73d 87d8 80bd 3a4b 173d 8e45 d8bd
000000f0: e451 0ebc a3fa ffbc f554 3abc 7a70 c2bd
00000100: 22bc 083e 342e 5abd ad25 5e3e 5d57 bfbd
00000110: 1944 363e 138f b23d 517f 9dbd 6f73 c6bb
00000120: 35e7 913d a8b3 25bd c95d c03d 1c79 43be
00000130: 32d2 ac3b 7bdb b73d 28ea d03d 0e9a a53c
00000140: 3f6c e63d b7d4 14be e4f5 97be 163e 9abd
00000150: c352 97be 783c d23d cb52 373e 4c79 42bd
00000160: 7e4b 6b3d e9bb 8abd 1d43 933c 2de4 553d
00000170: fad4 473d c8e6 783c 3d86 293e 92f2 b83d
00000180: 4c4a d2bb 21bf ed3c bbb7 08be 4789 9abd
00000190: 3c31 9fbd 72ff 41be 0a73 b73c 3cd8 9dbb
000001a0: 864f f03d 17de a23b 6468 0f3c fb70 27bd
000001b0: fc6d 383d 23f4 713d 00bd eaba ed6e 993d
000001c0: 0855 c5bc 5c89 b43c a9d6 86bd cf06 99bc
000001d0: d3e7 123c 34b6 35bc fd92 70bc 082f 70bd
000001e0: 309f 193d 9e09 4b3e 223d 8dbd 5503 4d3d
000001f0: 9e50 21bd 8858 f23a ffdd f33d 79d5 023e
00000200: fdad c6bd 3824 23bc 2207 c63b 9bc0 823d
00000210: 33bd 9a3c 4afc f7bd ecd1 01bc 3df5 a2bd
00000220: e1c5 e9bd 55d0 dc3d b167 f93d b2fe 9a3d
00000230: edf9 2fbc dc04 0dbe 61f2 263e 631b 4abd
00000240: 6ef9 9b3c 2248 6ebd 7e9a c23d ebd3 d53d
00000250: 5113 6b3d 8203 99bc 869f 3fbe 3a65 d63d
00000260: 3c7a 1ebd 9bc2 b33d 1a39 16bd 1101 593d
00000270: 30de 893d acd1 5aba 6b09 71bc c63b d23a
00000280: aa2c 7e3c ede5 893c b65f 193e b5e0 cb3d
00000290: 0fa2 af3d aba8 963d 5205 00bd f55b 483c
000002a0: 8041 52bc 5599 593b bf91 21bb 1f89 43bc
000002b0: aa2e 293d 1ce6 a2bd ee13 f03c 9f11 473e
000002c0: 1015 6b3d 688c ee3d dfdc c0bd dc07 4d3d
000002d0: f0a9 9dbd 9957 aabd 0692 fcbc 0855 9fbd
000002e0: ae62 ad3c 0e9a d13d 10b7 74bd cbb3 633d
000002f0: da73 c4bc 0856 35be 91fa 1fbc 6a8f 34bb
00000300: 0ac9 063e fcf3 76bc e19d 9dbc defb 09be
00000310: 0be4 babd f887 cd3d e565 0ebd 3892 233e
00000320: ace2 bdbd e63e bf3d 92ef 863d 83c6 2bbd
00000330: 8b05 febb d7ea e13c 0aa0 65bd 9d73 87bd
00000340: dfc8 53bd 217f 423c 9d9b 403c d1af 88bd
00000350: 2b18 b83b b2c7 c6bd 57f8 a1bb c9af 7a3d
00000360: f6f9 aa3c 20db c4bb ee25 52bd 82f0 bc3c
00000370: 821f 66be 11c2 b1bd 049a e23c 5da7 cdbd
00000380: 214c 1dbe fccc 0abe d270 55bd 98dc 07be
00000390: 849b f0bd 1548 f53d dc8c 89bd 6d13 b03c
000003a0: a00a c0bd ad9d 4d3d 8ce4 6a3d 1009 153d
000003b0: 558b b53c 8d2a 5c3b 519f a2bc 9bc5 f13d
000003c0: ecff 943d 754b 0cbd 30f5 013e 783d 453d
000003d0: 9d32 e2bd b559 043e ba38 f43d 62ee e63d
000003e0: b5ba 0dbe 7757 b33d a980 60bc 7f76 84bd
000003f0: 0e39 03be 0b45 183b eb98 64bd eb7f 26be

actor.2.bias f4 [128]
0.04735883 -0.024572553 0.023143595 0.0586302 -0.03382276 0.053480346 -0.06513444 0.050354525
0.065582864 0.073103 0.032219138 0.044765998 0.051433917 -0.020587167 0.051543206 0.042256806
0.026178576 -0.015213614 0.065815695 -0.012622011 0.051289793 0.007381511 -0.019534862 0.03254525
0.0060870335 -0.014171917 0.044153854 -0.049170177 0.040886655 0.037896305 0.016581694 -0.02772727
0.0070571676 0.027017757 0.05511738 -0.037430003 -0.036708713 -0.06384828 -0.07888262 -0.01779639
-0.02877772 0.0019096513 -0.050600104 -0.059441116 -0.039821606 -0.020801693 0.03810029 0.012004031
-2.4554236e-05 -0.017545337 -0.042421926 -0.019263742 0.018776262 -0.053530883 -0.0136043485 -0.04571489
0.004428029 -0.02302238 -0.013667057 0.016324336 -0.009519612 -0.014485493 -0.031118628 -0.07518398
0.00775182 0.04882477 -0.025830021 -0.009863277 0.037357323 0.039910045 0.045543667 -0.05153799
-0.030434102 0.014790682 0.02497694 0.012276788 0.033785157 0.03158738 -0.0123451445 0.017680882
-0.014561643 0.033194643 0.032460745 -0.025389249 0.040708307 -0.01461561 0.025980458 -0.011948773
0.061417304 -0.052146986 0.0057429993 -0.046551134 0.03668776 -0.006442234 -0.02092939 0.022340605
0.065760106 0.00031683958 -0.03810895 0.0152394185 0.010550508 0.06945955 -0.0442874 0.043507554
-0.048379067 -0.0112984115 0.027066551 0.023144009 0.06199082 -0.028898017 0.050271716 -0.037598014
-0.0048165056 0.031691853 -0.014595405 -0.023264064 -0.008182608 -0.00024558502 0.003562523 0.032053545
0.048498314 0.009959825 -0.034865133 -0.024781372 0.057817306 0.04349095 -0.008389833 -0.013577417
00000000: 55fb 413d 614c c9bc a397 bd3c 3826 703d
00000010: bc89 0abd 350e 5b3d 3565 85bd 8c40 4e3d
00000020: 4f50 863d 07b7 953d 37f8 033d 8d5c 373d
00000030: 5fac 523d 6ba6 a8bc f81e 533d 7915 2d3d
00000040: 7474 d63c 8642 79bc 61ca 863d 8dcc 4ebc
00000050: 3f15 523d 9ae0 f13b 9307 a0bc 2b4e 053d
00000060: bd75 c73b 5431 68bc acda 343d ab66 49bd
00000070: c478 273d 2839 1b3d 55d6 873c 4d24 e3bc
00000080: d03f e73b 5854 dd3c c3c2 613d 3450 19bd
00000090: e05b 16bd e3c2 82bd 368d a1bd bcc9 91bc
000000a0: 41bf ebbc 444d fa3a 0e42 4fbd 8778 73bd
000000b0: fb1b 23bd 5068 aabc 0d0f 1c3d 8eac 443c
000000c0: d2f9 cdb7 3dbb 8fbc 9dc2 2dbd ffce 9dbc
000000d0: add0 993c 3343 5bbd c6e4 5ebc 893f 3bbd
000000e0: 0019 913b 6e99 bcbc cbeb 5fbc 9dba 853c
000000f0: 26f8 1bbc 9054 6dbc 7eec febc 0ffa 99bd
00000100: fb02 fe3b 7bfc 473d 7b99 d3bc 9599 21bc
00000110: fe03 193d b778 233d ff8b 3a3d 8019 53bd
00000120: f050 f9bc 9e54 723c 719c cc3c 9524 493c
00000130: 4e62 0a3d c561 013d 4a43 4abc 7fd7 903c
00000140: f593 6ebc 1bf7 073d 8ff5 043d 1dfd cfbc
00000150: c1bd 263d 5076 6fbc f8d4 d43c c9c4 43bc
00000160: b690 7b3d 1498 55bd c52f bc3b 67ac 3ebd
00000170: e845 163d 6019 d3bb 1d74 abbc a503 b73c
00000180: 3cad 863d 7d1d a639 2118 1cbd c1ae 793c
00000190: 0adc 2c3c cf40 8e3d b466 35bd fa34 323d
000001a0: 2129 46bd f91c 39bc acba dd3c 8198 bd3c
000001b0: 16ea 7d3d 89bb ecbc b7e9 4d3d 6000 1abd
000001c0: c7d3 9dbb 51cf 013d 9121 6fbc 4794 bebc
000001d0: 5810 06bc ddc1 80b9 3879 693b 944a 033d
000001e0: 2ba6 463d 892e 233c bece 0ebd 4e02 cbbc
000001f0: d7d1 6c3d 9123 323d 8375 09bc d073 5ebc
