CRL/slime_ppo_gpu.pth (torch, 371115 bytes, 11 tensors)

critic.0.weight f4 [256, 48]
000000 b7 90 73 3d 8e 97 2a 3d f2 6b 84 3c ac ec ac bc
       0.059464183 0.04164844 0.016164754 -0.021108948
000010 9f 3f 9a 3d d7 1c 0b be 07 db 23 3c 57 b6 3d 3d
       0.07531666 -0.1358522 0.010000951 0.04631647
000020 ce d8 72 3e 09 3e 09 be c1 45 8d 3b 54 53 6e bd
       0.23715517 -0.13402571 0.004311294 -0.058184937
000030 9e 62 1f be 76 1c 9a bd 1f 8d b5 3c 72 ce 9a bd
       -0.15564963 -0.0752496 0.022162018 -0.075589076
000040 25 ea 16 bd b5 e2 20 3e 90 45 60 3c 51 ac 04 bd
       -0.03684439 0.15711482 0.01368846 -0.032390896
000050 75 a7 67 3e 8d cf c4 bd c9 0a 87 3e ae bc 10 bd
       0.22622474 -0.096099 0.26375416 -0.03533619
000060 72 db 77 3d 73 97 4e 3e e9 2a ba 3c db 94 92 bd
       0.060512014 0.20174961 0.02272554 -0.07157298
000070 2b 94 f4 bc b5 be f2 3d 34 c1 74 3c 4b 04 92 ba
       -0.029855808 0.11852781 0.014938641 -0.0011140195
000080 a0 15 17 3e 56 22 af bd 8b 85 20 3e e5 75 22 be
       0.14754343 -0.08551471 0.15675943 -0.15865286
000090 bc 47 2e be 3a b1 72 3e 63 89 6f 3c f4 7f c3 bd
       -0.17019552 0.23700419 0.014620158 -0.095458895
0000a0 b9 b2 ec bd a3 8c 28 3e b9 a0 c2 3c cb f4 a4 3d
       -0.11557526 0.16459899 0.02375828 0.08054503
0000b0 60 92 ce 3d db 25 fc 3c 51 48 fc 3d 72 90 f8 3d
       0.100865126 0.03077977 0.12318481 0.12136926
0000c0 35 97 22 3d 83 aa aa be 60 85 e0 3a 23 4d a7 3c
       0.039694984 -0.33333215 0.0017129593 0.020422524
0000d0 a6 0c 8c 3d 8a a6 85 bd 71 b9 9a bc f1 a7 17 3d
       0.0683835 -0.065259054 -0.018887253 0.037025396
0000e0 67 5e 5b bd 84 82 2c be c7 d1 c0 bd b6 94 74 bd
       -0.053556826 -0.16846663 -0.09415012 -0.059712134
0000f0 bd 9b dd 3c 7f ee b5 be 12 80 10 3c 6b 09 e2 3c
       0.0270518 -0.3553352 0.008819597 0.027592381
000100 3d ae 45 bd a9 14 ad bc e1 56 ca bc 64 f6 fb 3c
       -0.04826187 -0.021128016 -0.02469963 0.030757137
000110 80 8e c5 bd 8f e9 83 be fe 7a 4a 3c 85 72 af be
       -0.0964632 -0.2576413 0.012358425 -0.3426706
000120 37 89 c5 3d 62 cf d9 be 0c 3e 02 3c bb b8 33 3b
       0.09645312 -0.42541033 0.007949363 0.002742334
000130 74 33 52 3e 07 27 b9 3d b1 85 06 bd 07 a4 87 3d
       0.2052744 0.09040647 -0.03284234 0.066230826
000140 6b 7c d0 3d 43 54 76 be fa 53 76 3d 79 fc 82 be
       0.10179981 -0.24055581 0.06013868 -0.25583246
000150 f7 d9 99 bc 7b b0 63 be ad e0 79 3c fd de 2b 3d
       -0.018780692 -0.2223529 0.015251321 0.041960705
000160 89 99 16 bd cd 57 18 3e 59 57 12 bd 20 ef 8e bc
       -0.036767516 0.14877243 -0.035727832 -0.017448008
000170 49 6e 27 be 79 93 72 be 9c 30 e0 3d c1 54 02 be
       -0.16350664 -0.23689069 0.109467715 -0.12727644
000180 bf 12 8a bd 10 05 cf be 22 24 33 bd f2 29 80 bc
       -0.06741857 -0.4043355 -0.04373563 -0.015645001
000190 31 1b 51 bc 80 3a d8 bd 83 1e 58 3d 19 81 60 3d
       -0.012762831 -0.10558033 0.052763473 0.054810617
0001a0 dd a7 8a 3e fd e4 1e 3f 6a 6e 86 bd de fd 08 be
       0.27081195 0.6206816 -0.065640286 -0.13378093
0001b0 3b b0 07 be 39 ca e6 be bb 1d 60 bd 58 74 56 bd
       -0.1325082 -0.4507616 -0.054715853 -0.052357048
0001c0 d4 c9 97 be a6 1d 53 be 3e 9c 76 3d 8b ad ce bd
       -0.2964617 -0.20616779 0.060207598 -0.100916944
0001d0 28 ef 2c 3e 44 c3 00 3f a4 8a 97 bd 7f e0 ff 3d
       0.16888106 0.5029795 -0.073994905 0.12493991
0001e0 2e 77 ce bd 14 d1 a5 be b5 20 94 bd 53 5b 1b be
       -0.100813255 -0.32386076 -0.07232801 -0.15171556
0001f0 fc 69 9b be 7c ab 4e 3d 1a 2d 75 3d 40 86 78 bd
       -0.30354297 0.05045651 0.059857465 -0.060674906
000200 ac bb de 3e 20 7e c0 3e fb aa 1a be 96 07 7f 3e
       0.43502557 0.37596226 -0.15104286 0.24905238
000210 d8 a6 0f be 77 b3 62 be 9d a1 c0 bd 03 1c 12 3b
       -0.1402849 -0.22138773 -0.09405825 0.0022294528
000220 0c c1 26 be e2 48 b2 bd dc 71 87 3d e9 b2 af bd
       -0.16284579 -0.087053075 0.06613514 -0.08579046
000230 0c 37 13 3f 75 88 ae 3e fa dc 8a bd b0 ef 6b 3e
       0.5750587 0.34088483 -0.06780429 0.23040652
000240 6e cd 47 be be 19 bb bd a6 76 97 ba 3e 08 a8 bc
       -0.19511959 -0.09135769 -0.0011555746 -0.020511743
000250 cb dc f2 bd f4 6f b2 3d 1f ec 66 3b bb 84 2d 3c
       -0.11858519 0.087127596 0.0035235954 0.010590727
000260 3f fb b7 3e bf 2d d2 3c 0c 80 8a bd e8 1c 38 3c
       0.35933873 0.025656579 -0.06762704 0.011237361
000270 e5 64 98 3d 6e 44 f0 bd 05 4a 06 bb 8e ca 7d 3c
       0.07441119 -0.11731802 -0.0020490896 0.015490187
000280 22 6a 9a 3d f1 17 71 bd 96 fa 42 38 d5 17 12 bb
       0.075397745 -0.058860723 4.648658e-05 -0.0022292037
000290 0a d7 a2 3e 26 db 0c 3e 81 7c 06 3e 62 80 3b 3e
       0.31804687 0.13755473 0.13133432 0.18310693
0002a0 dc 01 22 bd 1b db e2 3d df 2e 65 bb d3 b4 f8 bc
       -0.039552554 0.11076947 -0.0034970564 -0.030359661
0002b0 87 8c 14 be 90 b7 b5 3d c8 5b 64 3a 97 38 f1 b9
       -0.14506732 0.088729024 0.0008711186 -0.00046009265
0002c0 ea fe c9 3e 48 49 0e 3e d1 0a 49 3c 6f 2b 59 3e
       0.39452296 0.13895142 0.012270645 0.21207975
0002d0 47 a4 ca 3b cb 79 dd 3d 94 52 0d bb 20 a2 27 bc
       0.006184134 0.10814246 -0.0021564113 -0.010231525
0002e0 e1 50 a8 3d cd 6f 67 bd 4b 1f 53 bb 2d d6 70 3b
       0.082185514 -0.056503106 -0.0032214697 0.0036748752
0002f0 71 d5 c5 3e 64 f6 37 be ea 47 f4 3d b1 cb b6 bd
       0.38639405 -0.17965084 0.11927779 -0.0892557
000300 70 12 d0 3b 2c ba c4 bc ff 72 4e 3d 5d 98 01 bd
       0.006349854 -0.024014555 0.050402638 -0.031639446
000310 63 e5 96 bd 08 b9 99 3d cb ba 46 3c d8 b7 38 3d
       -0.07367971 0.07505995 0.012129496 0.045097202
000320 6c a1 0d 3e d8 8c 44 be 8a bf 19 3d 1f c6 ca bc
       0.13831109 -0.19194353 0.03753618 -0.024752675
000330 1e f2 bf bd a7 73 54 be ce 8a 5c 3d ad 94 68 ba
       -0.09372352 -0.20747243 0.053843312 -0.0008872252
000340 b1 86 c2 bd 91 40 92 bd 06 56 2a 3c 46 f7 f5 3c
       -0.094983466 -0.07141221 0.010396486 0.030025136
000350 4b b6 67 3d ae 7a 80 bd 67 c0 d2 3b 67 67 8e bd
       0.056570332 -0.06273399 0.0064316276 -0.06953316
000360 54 d7 eb 3d d1 2f 65 be e7 fa 56 3d f8 51 35 bd
       0.1151568 -0.22381522 0.052485373 -0.044267625
000370 02 a5 18 3b 3c ad 91 3c 72 43 59 3c bf 27 67 bc
       0.0023291712 0.0177828 0.013260709 -0.014108597
000380 6e ca 1f bd 26 ea a5 bd 8e 44 5b 3e 5b db 40 be
       -0.03901141 -0.08101301 0.2141287 -0.18833677
000390 c2 2c eb bd 1b 01 c4 bd 45 ee 89 3d a0 98 02 be
       -0.11483146 -0.09570523 0.067348994 -0.12753534
0003a0 6e 7b 5e be 3a c0 8c 3d ca 2f 60 3c bd 12 45 3d
       -0.21726772 0.06872602 0.013683269 0.048113573
0003b0 db 82 99 3d 22 b1 57 be 94 9f 93 3e 06 88 d6 be
       0.07495662 -0.21063665 0.28832686 -0.41900653
0003c0 78 62 33 be 02 7e 53 3e 0b c2 39 bc f1 f8 db bc
       -0.17518032 0.20653537 -0.011337767 -0.026852103
0003d0 de 7d 68 3d 43 ad 58 3d 2d 48 4a bb 79 27 08 3c
       0.05676066 0.05289961 -0.0030865774 0.008310192
0003e0 ac 92 34 be 05 db 07 be 65 f2 3d bd 64 d8 71 3e
       -0.17634076 -0.13267143 -0.046373744 0.23617703
0003f0 37 46 07 be 04 45 75 bd f6 67 8a bc 8c fb 8f bc
       -0.13210379 -0.05988027 -0.016895276 -0.017576002

critic.0.bias f4 [256]
000000 46 4f 4e 3e 1d cf ca 3c 65 0f bd be 45 5b 11 3e
       0.20147428 0.024756962 -0.36925808 0.14194973
000010 71 4b 87 3d a7 67 26 3e c2 09 f0 bd 80 bd 5e 3e
       0.06606186 0.16250478 -0.11720611 0.21751976
000020 c8 4c a7 3e c1 b0 24 3b 53 c3 68 3c 63 f4 c0 bc
       0.32675767 0.0025129768 0.014206725 -0.023554033
000030 2c 7b 1a bf ac 61 a4 bd ea c2 58 be a7 cc de 3d
       -0.60344195 -0.08026442 -0.21168104 0.10878878
000040 df dd 6e 3e fb dc 11 3e 7d f9 24 3e 09 dc 3e bc
       0.23326825 0.14244454 0.16110797 -0.01164914
000050 5a 30 8c bd 3e 7b 01 3f a6 7e b2 3d c3 b4 17 3e
       -0.0684516 0.5057868 0.087155625 0.14815049
000060 db 2d 78 3e 33 f9 98 be ee 35 d3 3d 01 9e 44 bc
       0.24236242 -0.29877624 0.10313021 -0.012000562
000070 bc 4b cb bb 85 b7 65 bd ce 2c 65 3e f5 20 bb 3d
       -0.0062040966 -0.05608322 0.22380373 0.091371454
000080 9d 52 eb 3d 8b e9 fb bd 21 a4 9b bd ae 44 b3 3e
       0.114903666 -0.12300404 -0.075996645 0.35013336
000090 e8 ec e7 bd 79 fe 3a bd bf 2b 8d be 05 db 00 bf
       -0.11324483 -0.04565284 -0.27572438 -0.503342
0000a0 ac bc 3d be 29 c5 2d 3e 50 3b c5 3e 6d 2f a9 3e
       -0.18529004 0.16969742 0.38521814 0.33043995
0000b0 a9 57 9a be 0e b0 59 be 37 ee 93 bd f5 d3 ca 3e
       -0.30145004 -0.21258566 -0.0722317 0.39614835
0000c0 9f db 99 bb 63 26 24 be 38 58 1b 3e 7b bf ef 3c
       -0.0046953703 -0.16030268 0.15170372 0.02926611
0000d0 f9 7d 7a bf 46 e2 b6 3d 02 ac 58 3d d9 6e 44 3e
       -0.9784847 0.08929877 0.052898414 0.1918291
0000e0 18 22 8f 3e 41 b1 9f bc 67 a1 03 bc bd 69 fd 3d
       0.279557 -0.019493701 -0.008034087 0.123736836
0000f0 7e 35 e4 be 7c b2 23 be 9c f8 ac 3c b3 a4 19 be
       -0.4457206 -0.15986055 0.02111464 -0.15004234
000100 47 b8 ab bd dd a9 93 3d 7e 33 22 3e 25 65 95 bd
       -0.083847575 0.07210133 0.15839955 -0.072946824
000110 57 26 b2 bd ae f8 15 be 8c 06 39 bf 9d 98 c2 bd
       -0.08698719 -0.14645645 -0.72275615 -0.09501765
000120 3e 2a 4d bd 35 3e 6e be 73 e8 fe bc c8 36 5a bd
       -0.050089113 -0.23265918 -0.0311167 -0.0532749
000130 e4 a7 1d be b8 60 34 be fc 41 12 bd bd fb 54 3e
       -0.15396076 -0.1761502 -0.03570746 0.20799156
000140 92 37 96 be 5e 15 b3 3d 02 10 0f bd e8 bd 8a 3c
       -0.29339272 0.0874431 -0.034927376 0.016936257
000150 7a be b9 3e 07 6e 4d 3f 46 c5 00 bf 9e f9 65 3d
       0.36278135 0.80246013 -0.50301015 0.056146257
000160 8c 63 1c bd b5 8a ae be 3f 7f a0 3e f5 29 b1 3d
       -0.038180873 -0.340902 0.3134708 0.08650581
000170 75 e8 88 3d 5a ae cb 3e 4b 33 82 be 6b 34 ee bd
       0.06684963 0.39781457 -0.25429758 -0.11631092
000180 a5 ad 0f 3f 9e d5 e2 be fa 94 0f 3e e5 7a 31 bb
       0.56124336 -0.44303602 0.14021674 -0.0027081307
000190 f2 29 f1 be 51 1e 24 bd 55 f8 75 be 74 4c a9 bd
       -0.47102314 -0.040067974 -0.24020512 -0.082665354
0001a0 0b fe 4d 3e 43 35 29 3e cf 71 ee bc 69 d3 c0 3d
       0.20116441 0.16524224 -0.029107003 0.09415323
0001b0 94 9a de 3d c4 76 fa bd b6 bd b3 3e 32 9e 3b bd
       0.10869327 -0.12229684 0.35105675 -0.045805164
0001c0 49 73 b3 3d 69 e6 a0 bd d7 66 ae bd ca d0 23 3e
       0.08762223 -0.07856447 -0.08515709 0.15997615
0001d0 d9 83 58 3e b1 a2 45 be 56 2f 0f bd 1d 68 95 be
       0.21144046 -0.19300343 -0.034957252 -0.29180995
0001e0 ff 3c 43 3d ad 50 c4 bd 0f 84 4a be 32 53 1e bd
       0.047665592 -0.095857 -0.19776939 -0.03865356
0001f0 b1 4c 6d 3d 24 53 a4 3d b7 78 ac be bf b0 8a 3d
       0.057934467 0.0802367 -0.33685848 0.06771993
000200 ea da 6f 3d b0 3d 44 3e 7e 57 59 bf 30 cc 9b be
       0.058558382 0.19164157 -0.8489913 -0.3042922
000210 13 e4 4c bf 28 51 c8 bd 20 e0 d1 bd 0c 53 f7 be
       -0.80035514 -0.09781104 -0.102478266 -0.48305547
000220 69 21 77 3e a4 e4 17 be 08 4a e0 be fb b5 22 bd
       0.24133839 -0.14833313 -0.4380648 -0.03972433
000230 54 88 73 3e 7e af 43 3e 98 67 c7 3d 8e 1d ab bc
       0.23782474 0.19109914 0.09736556 -0.020888116
000240 e4 50 e3 3c 90 28 f6 3c 30 de a4 3e 6e 22 9b bd
       0.027748533 0.030048639 0.32200766 -0.07574926
000250 21 b2 92 be bc 01 38 3e 50 21 55 be e0 7c 28 3d
       -0.28651527 0.17969412 -0.20813489 0.041134715
000260 e4 44 bc be 9e ba 30 3d b7 53 29 be 89 17 8f be
       -0.3677131 0.043146722 -0.16535841 -0.27947643
000270 a1 ef 3d 3e b9 49 e6 3e 43 15 e4 3e 74 6a 99 be
       0.18548442 0.4497812 0.4454747 -0.2996403
000280 8c 49 b3 bd 99 18 3d bd 0f be b0 bc b6 96 fc bc
       -0.08754262 -0.046166036 -0.021575002 -0.030833583
000290 05 13 96 3d 05 8f a3 3c 77 2f d2 3e d6 bc a8 be
       0.073278464 0.019965658 0.41051838 -0.3295657
0002a0 f1 d6 c7 bd 67 d4 80 bb 39 5a 7c 3e 6b e8 3e bd
       -0.09757794 -0.0039315703 0.24643792 -0.04660837
0002b0 f5 dc 9d 3e 0e bc be 3b 40 62 84 bd fe dd 21 be
       0.3083264 0.0058207577 -0.06464052 -0.1580734
0002c0 53 27 4a be 37 a8 47 3d 07 4d 29 be 89 42 67 be
       -0.19741563 0.048744407 -0.1653329 -0.22583975
0002d0 38 ab 51 3e 78 e7 3c 3c 04 73 52 3d bb 02 f8 3d
       0.20475471 0.011529796 0.05137922 0.12109896
0002e0 5b 03 5c 3b 3c 93 d3 be c2 36 cc 3e 70 d3 e7 3d
       0.0033571336 -0.41323268 0.39885527 0.113196254
0002f0 90 a2 7f be c6 e0 92 bc 7d b8 4b 3f b0 b7 df 3d
       -0.24964356 -0.017929446 0.7957838 0.109237075
000300 af 28 bb be a5 b1 9a 3e 41 08 3d be e7 5c 39 bd
       -0.36554477 0.30213657 -0.1846018 -0.045254614
000310 54 e3 ac be 95 17 71 be e7 58 01 3f f4 93 0e bc
       -0.33767188 -0.23544152 0.5052628 -0.008702267
000320 c9 84 83 3e 33 6f f0 bd 32 69 dd 3e 02 40 f4 bd
       0.25687245 -0.117399596 0.4324432 -0.11926271
000330 b7 12 bc be 44 f1 65 3d 0b 6e 19 3d be 9a 16 3d
       -0.36733028 0.056138292 0.03745846 0.036768667
000340 b6 f1 b3 bd 0c 39 1a 3e 7c 8e a8 3c 3b c5 81 bd
       -0.08786337 0.15060824 0.020575754 -0.06336447
000350 a6 72 00 3c 87 f6 e6 3e ef b3 d6 3e aa d5 a0 be
       0.007839834 0.4510996 0.41934153 -0.31413013
000360 79 fd 89 3c a7 13 a4 3d 8c 02 72 be 64 3b e2 be
       0.016844498 0.08011561 -0.23633784 -0.44185936
000370 8b 22 90 3e d4 49 3f 3e de 58 f3 3d a5 ab 36 bd
       0.28151354 0.18680507 0.118821844 -0.044597287
000380 6d 10 2c bd 08 7a 70 3e 65 96 17 3d c8 f0 70 bd
       -0.042007852 0.23484051 0.03700866 -0.058823377
000390 7e bc 4a bc 69 c4 bc 3e 59 ab d3 3e e4 cc f1 3e
       -0.012374042 0.368686 0.41341665 0.47226632
0003a0 d2 1e c8 be e9 6f 0e bc 00 cd 8a 3d 34 36 c1 3e
       -0.39086014 -0.008693674 0.06777382 0.37736666
0003b0 97 f3 80 3d 2f db d7 3c 82 70 a2 be 07 7d 93 3e
       0.06296461 0.026349632 -0.31726462 0.28806326
0003c0 7a e1 36 3d 73 f2 3b be 4a 3d fb be 8e 53 35 3d
       0.044648625 -0.18354206 -0.49070197 0.044269137
0003d0 33 06 a7 be 77 8c a3 3e 15 57 3e 3d 6a 00 56 3e
       -0.32621917 0.31943104 0.046469767 0.20898595
0003e0 ba 33 12 be 00 64 f6 3d d5 23 3f 3e 8e bb 54 be
       -0.14277545 0.12030792 0.18666013 -0.20774671
0003f0 f7 61 0d 3e 17 15 b2 bb 31 c8 69 3d 20 8a 1c be
       0.13806902 -0.005434643 0.057075683 -0.15287066

critic.2.weight f4 [128, 256]
000000 07 cb 1c 3d 9c 1d 6a bb 4b 23 6f bd 82 49 5c 3c
       0.03827956 -0.0035723215 -0.058383267 0.01344526
000010 32 8b 10 3c 67 b3 10 3c ea b8 e3 3c 1c 92 9d bc
       0.008822249 0.008831835 0.027798135 -0.01923471
000020 18 f9 5f 3d ec 07 53 3b bb af 8a bd 90 a2 42 bd
       0.054680914 0.0032200767 -0.06771799 -0.047518313
000030 95 83 ac be 82 08 49 3d b7 59 0a bf 3f 7b 16 3e
       -0.3369414 0.04908038 -0.54043144 0.14695452
000040 1d 1d 8d 3e 3c 64 86 bc 5b 89 48 be 2d b9 49 bd
       0.27561274 -0.016405217 -0.19583647 -0.049248863
000050 74 00 87 3d 63 39 bb 3d 39 5b 37 be f7 bb b1 be
       0.06591883 0.09141805 -0.17905892 -0.34713718
000060 51 3b 98 bd 8c c4 eb bd 21 26 fe 3c 7f ce 80 bd
       -0.07433189 -0.11512098 0.03102404 -0.06289386
000070 46 e2 f8 bd 8b 2c 94 bd 8b df 24 3e d8 c7 1f bd
       -0.12152533 -0.072350584 0.161009 -0.039008945
000080 c4 b0 dd be b4 98 08 3d d4 a6 49 bd 8d 0e b0 bd
       -0.43298924 0.033348754 -0.049231365 -0.08596525
000090 f1 d9 ff 3d f4 8c f1 3d 3c 2f 38 3d f1 a1 2c bd
       0.12492741 0.11794463 0.04496692 -0.042146627
0000a0 08 c1 3a bd 12 2f c3 bd 0c ca 56 3d a2 69 eb bc
       -0.045594245 -0.09530462 0.05243878 -0.028736893
0000b0 d4 1b 41 3c 2d 40 84 3e 6c 4c ff 3c 85 7f 03 3e
       0.01178642 0.25830212 0.03116437 0.12841614
0000c0 dc aa 10 3e bf 74 04 bf bc e2 21 bd cf a2 88 3d
       0.14127678 -0.5174064 -0.03952287 0.06671678
0000d0 16 6d ff be 9a d0 b4 3d e7 2f 1b 3e f2 85 31 3e
       -0.49887913 0.0882885 0.15154992 0.17336252
0000e0 bb fa 64 3d 3c de b5 3d 1e 36 0d 3c d5 e4 7e 3d
       0.055903178 0.088802785 0.00861886 0.06222995
0000f0 f2 c6 e2 bd 79 7e 1d 3e 6e 3e 08 bd 92 04 d7 3c
       -0.11073102 0.15380277 -0.033262663 0.026247296
000100 4b 09 aa bd 60 51 19 bd be 8b 90 ba b6 7a 44 bc
       -0.08302554 -0.03743112 -0.0011027975 -0.011992147
000110 3e 71 7a bd bd a4 2c 3c 49 e3 2c be 21 27 b1 bd
       -0.061143152 0.010537324 -0.16883577 -0.08650041
000120 c0 51 be 3d 34 5d 0a be 33 3a ec 3c d3 b0 d1 bc
       0.09292936 -0.13512117 0.028836345 -0.025597012
000130 c1 74 ba bb cf f2 93 3d 75 c6 45 3d 32 15 c6 bf
       -0.0056901877 0.072240464 0.048284966 -1.5475218
000140 4d e1 89 bd 85 36 28 bd ac d3 98 bc e6 15 b0 bd
       -0.06732426 -0.04106762 -0.01865562 -0.08597927
000150 87 59 ab bd 17 6f a6 3d d4 6e 8a be 72 02 07 bd
       -0.08366685 0.081266575 -0.2703768 -0.032961316
000160 c1 9d a2 3c b8 4f 9a bc 8f c6 8b 3d 54 de ac 3d
       0.019850614 -0.018836841 0.068249814 0.08440843
000170 c1 28 47 be a3 72 2e 3d b8 24 a0 3d 80 52 75 bc
       -0.1944914 0.042589795 0.078195035 -0.014973283
000180 4f ce 03 3e 78 24 a2 be 49 a0 40 bd 97 62 fd 3e
       0.12871669 -0.31668448 -0.04702786 0.4948928
000190 db 11 26 3d 62 39 c4 bd 0e 39 b4 bd 6e 7e 93 bc
       0.040544372 -0.095812574 -0.08799945 -0.018004622
0001a0 c2 37 a1 3d 99 e4 7d bd fd 94 2a be bf 87 f3 3b
       0.07871963 -0.061985586 -0.16658397 0.0074319537
0001b0 4b 8c a4 bc 3c 2e 35 3d 14 a5 43 3d 6d 0a e4 3c
       -0.020086428 0.044233546 0.047764853 0.027837003
0001c0 02 12 9a 3d 8b a3 b0 3d 9b 69 47 3c f6 9f a7 3d
       0.07522966 0.08624943 0.012171174 0.08184807
0001d0 61 75 47 3e 19 d1 98 3d 87 ee d7 3d 18 7a 92 bd
       0.1947837 0.07461757 0.10543542 -0.07152194
0001e0 a5 49 c2 3c d5 5a 1b be e7 bc 3f 3d bc f3 23 3c
       0.023716757 -0.15171368 0.04681101 0.010006841
0001f0 b6 cc 38 3e c3 93 1e bd 64 cf f6 3d 2f 04 31 be
       0.18046841 -0.038715135 0.12051275 -0.17286752
000200 40 6b 51 bb ab a8 05 bd 86 97 1f be d0 74 1a bf
       -0.0031954795 -0.032631557 -0.15585145 -0.6033449
000210 ca 02 7f 3e 17 7b ff bc 3f ea 20 bc b1 37 de 3c
       0.24903408 -0.031186623 -0.009821474 0.027126165
000220 5e ab 1b 3d 68 32 1c bf a9 df 36 3c 21 d0 cb 3d
       0.038005225 -0.61014414 0.011161723 0.09951807
000230 72 08 93 3c 9e 42 af bc 06 68 24 be 32 57 c0 bd
       0.017948363 -0.02139407 -0.16055307 -0.09391631
000240 a3 59 70 3e e0 23 74 3d 4e f1 91 3e e8 7b 52 bd
       0.23471694 0.059604526 0.28504413 -0.051387697
000250 12 b4 72 3b 92 4d 0b 3e 2e ef 93 bd 61 e1 30 be
       0.00370336 0.1360381 -0.07223354 -0.17273475
000260 18 40 ab bd 79 d8 43 3b b6 57 d4 3d c3 08 a0 bd
       -0.08361834 0.0029883666 0.10368292 -0.07814171
000270 46 74 3f 3e 30 c4 a1 3d bd 3d fc 3c fa 03 18 3d
       0.18696699 0.07898748 0.030791158 0.037113167
000280 b4 6a 89 bc b8 9d 35 bd b9 ec 82 3e dc 64 50 3b
       -0.016774513 -0.044339865 0.2557123 0.0031798398
000290 16 84 58 bd 16 fa 09 3d ae fb 60 3d 6c e1 09 3d
       -0.052860342 0.033685766 0.05492752 0.033662245
0002a0 f8 ce d0 3d e8 30 88 3d f3 52 7e 3d 40 52 90 3c
       0.10195726 0.06649953 0.062090825 0.017617345
0002b0 91 d4 37 3e 80 51 d3 bd eb ef c8 bd 35 50 38 bc
       0.17952181 -0.10318279 -0.09811386 -0.011249592
0002c0 68 2a 3a 3c 06 09 30 3d 29 13 b7 bd 8b ee 76 bd
       0.0113626495 0.042977355 -0.089392014 -0.060286086
0002d0 6d e5 99 3d e8 88 e1 3d ef 71 9c 3d bf 15 f7 bc
       0.075144626 0.11012441 0.076389186 -0.030161737
0002e0 51 3c 59 3d bb e0 62 bd 9a ec 68 bc d1 e6 56 bd
       0.053036038 -0.0553901 -0.014216566 -0.052466217
0002f0 f3 1a 4a 3e 0a f1 4c 3d 8c 0f 15 3d f9 8d ba bc
       0.19736843 0.05003456 0.03639178 -0.022772776
000300 f4 9b 53 be 6e ad 21 3d d0 ee 28 3d 08 74 ac bb
       -0.2066496 0.039472036 0.041243374 -0.0052628554
000310 c3 00 a9 3c 85 30 fe 3d bf a7 5f 3d 61 fb 80 bd
       0.020630246 0.12411598 0.054603335 -0.06297947
000320 7f 4a 4a 3d dc 95 59 be 32 0e 6b 3e 09 c8 0d be
       0.04938745 -0.21248573 0.22954634 -0.13845839
000330 ae 7e 3e be 89 fe bc bd 95 bf a8 bb b7 5b af bd
       -0.18603012 -0.09228236 -0.0051497915 -0.08562415
000340 d0 59 b1 bd 4f 79 49 3d 42 3a 37 3d 5b c4 5d 3c
       -0.086597085 0.049187955 0.044733293 0.013535584
000350 c8 ec 8f 3d 67 ed 6e b9 27 34 77 3c 2c ed 99 bd
       0.07027584 -0.00022785888 0.015088118 -0.0751594
000360 20 90 47 bd 26 54 79 3c 22 d0 66 bd 9a fa 89 be
       -0.048721433 0.015217816 -0.056350835 -0.26949006
000370 84 33 a2 3d 4a b8 7e 3d 27 8d 73 bc 4d 15 eb bd
       0.07919982 0.06218747 -0.014865196 -0.11478672
000380 74 36 ce 3a 18 4c ed bd 29 bc 25 3d 83 4c c3 bc
       0.0015732781 -0.11586779 0.040462647 -0.023840195
000390 e2 18 6e 3e a6 24 06 bd 11 3e 15 3d 35 67 c5 bd
       0.2325168 -0.032749794 0.036436144 -0.09638826
0003a0 0f 13 5d be 3f ce f3 3b c5 5f ac b9 bd 57 ef 3c
       -0.21589302 0.007440358 -0.0003287775 0.029216642
0003b0 6b 91 46 bd 9e a5 01 3e 02 6d 7d 3d 8e 01 50 3d
       -0.048478525 0.12660834 0.061871536 0.050782733
0003c0 22 12 18 3b b0 16 56 bc d1 17 64 bf 14 3a aa 3d
       0.0023204167 -0.013066933 -0.8909884 0.08311859
0003d0 7f 30 4e bd 8d 52 bb 3c 8f c7 17 3e e6 f6 ae 3c
       -0.05033922 0.022866512 0.1482222 0.021357965
0003e0 e9 27 28 be b8 7f c5 3c 6b 93 1b 3e 53 5c bc bd
       -0.16421475 0.024108753 0.15192954 -0.09197297
0003f0 0f dd 0c 3d 63 d4 30 3e 65 74 6f bd 49 6f 57 3d
       0.034390505 0.17268519 -0.05846061 0.052596364

critic.2.bias f4 [128]
000000 7d 4c 31 3d dd c0 da 3d 91 62 7d bd b0 d8 25 be
       0.043285836 0.10681317 -0.06186158 -0.16195941
000010 3d 56 17 ba 24 49 5a 3d 33 0b 27 3d 06 37 55 3d
       -0.00057730434 0.05329241 0.040782165 0.052054428
000020 e4 1a b9 bc b7 62 fa 3d e4 3f 5f 3d 08 56 f0 bc
       -0.02259583 0.122258596 0.05450429 -0.029337898
000030 64 20 96 3c 04 f8 b6 3d c3 67 7a 3c 71 5e 84 3d
       0.018325992 0.08934024 0.015283528 0.06463326
000040 58 3e 9e bd 82 bb 96 3b c1 fb ea 3d d4 ba 75 3a
       -0.07726735 0.0045999894 0.114737995 0.0009373848
000050 bb 68 eb bc e2 4b cf 3a cf 96 94 3d 5e 44 3b bb
       -0.028736463 0.0015815462 0.07255327 -0.0028574686
000060 34 5e 85 bd a7 ad 0d 3e 57 71 20 3e e3 e9 74 3d
       -0.065121084 0.13835774 0.15668236 0.059793364
000070 2f 3e b2 3d f0 39 9e 3d 16 ff dd 3d b9 04 b4 bd
       0.08703267 0.077258945 0.108396694 -0.08789963
000080 10 f4 21 bd a2 00 ac 3c 17 3d c2 bc 22 35 e4 3d
       -0.039539397 0.020996395 -0.02371077 0.11142947
000090 e2 62 50 3d 0e c7 b2 3d 2c b0 0d 3d b8 61 fe 3c
       0.050875552 0.08729373 0.03459184 0.031052455
0000a0 fc a9 0a 3d b0 37 2b 3e 13 71 38 3d ef ea 06 bd
       0.033853516 0.16720462 0.04502971 -0.032938894
0000b0 93 93 af 3c 13 6c 47 b9 a7 77 7d bc 6b 7d 60 3d
       0.021432674 -0.0001901838 -0.015470422 0.054807108
0000c0 b4 17 c9 bc 88 f9 82 3b 33 a0 db bc 76 c9 85 3d
       -0.024547435 0.0039970316 -0.026809787 0.06532566
0000d0 09 0e 66 3d 84 06 a7 3d 0b 27 28 3d 2b 1b 8a 3c
       0.05616573 0.0815554 0.04105286 0.016858658
0000e0 1d d9 75 3d 64 75 ab 3d a5 8e 95 3d 7a 6a a5 3d
       0.06002151 0.08372 0.07302598 0.080769494
0000f0 99 7b 4b 3d 15 f9 84 3d 3a f8 67 bd d8 03 06 3e
       0.04967842 0.06492821 -0.05663321 0.13087404
000100 6d e8 ed 3c a3 73 ee 3d 71 b2 30 bc 33 cd 1c 3e
       0.029041493 0.1164315 -0.010784731 0.15312652
000110 c7 da 3c bc e7 6a 70 3d 28 62 ac 3c 46 a1 fa bb
       -0.01152677 0.0586957 0.021042898 -0.00764862
000120 34 f4 36 bd 6b e2 13 3d a4 a8 97 bd be e8 e1 bc
       -0.044666484 0.0361046 -0.074052125 -0.0275768
000130 78 09 23 3d 52 42 4a bd 2f 5e 81 bd fc eb 9a bc
       0.039803952 -0.049379654 -0.06316792 -0.018911354
000140 0c 83 98 3c a8 4f 30 3e e4 71 49 3c 86 33 90 bd
       0.018617176 0.17217886 0.01229522 -0.07041077
000150 84 22 e5 3d 04 5a 88 bd 81 13 6a 3d c4 65 55 3d
       0.11188224 -0.06657794 0.057147507 0.052099004
000160 83 9c bc 3d 8d ad e6 3d f0 6c 1f bb 73 28 cc 3d
       0.0920954 0.11263571 -0.0024326406 0.099686526
000170 25 1b 35 bd 84 8a 9e 3d 00 cf 20 3d ae d6 da 3d
       -0.04421534 0.077412635 0.03925991 0.10685478
000180 22 49 0b bd b2 0b ad 3d cf f8 62 3c 54 ed 12 3d
       -0.03400529 0.08449496 0.013853266 0.035870865
000190 ea 76 55 bd 7a 6a 18 3e 2e 3a d2 3d cc a2 81 3c
       -0.05211536 0.14884368 0.10265003 0.015824698
0001a0 3f ce fa 3d 06 be 13 be 3e 12 24 3c 68 73 28 3e
       0.122463696 -0.14427957 0.010014115 0.16450274
0001b0 6f 11 2a bc 95 a8 2f 3d b1 6d b3 3c 78 aa a7 bd
       -0.010380133 0.04288538 0.02190289 -0.08186811
0001c0 22 3c aa bc 3e 18 4b be 9d 6c b2 3b f7 7d 87 3d
       -0.020780627 -0.19833466 0.0054450766 0.06615823
0001d0 e3 81 f4 3d a5 8f 3b bc b7 14 48 bd ed 49 95 3d
       0.119388364 -0.011447822 -0.04884788 0.07289491
0001e0 5c 44 a9 3c d5 d2 e8 3d 6c e7 3d bb ef df df bb
       0.02066248 0.11368338 -0.002897705 -0.006832115
0001f0 bd 4f 0e 3e a0 5b aa 3d 16 7c cb bc 03 f2 c1 3c
       0.13897605 0.08318257 -0.024839442 0.02367497

critic.4.weight f4 [1, 128]
000000 47 27 a4 be 99 16 9d bf 49 83 9d 3f d2 7f 8d bf
       -0.32061216 -1.2272521 1.230569 -1.1054633
000010 db 96 a7 3e 6d ce 0a be 5f 38 2e 3e c5 c0 df 3d
       0.3273228 -0.13555308 0.17013691 0.1092544
000020 28 07 89 3e 87 ed 9b be be 0f 6d bf f3 dd d4 be
       0.26763272 -0.30454656 -0.92602146 -0.41575584
000030 07 86 aa be 4a 21 70 bf 49 b0 61 3e 62 6f 2e be
       -0.3330538 -0.93800795 0.22039904 -0.17034677
000040 6c f5 2a be 5f 63 13 bf 95 58 a3 3f 94 64 75 bd
       -0.16695184 -0.57573503 1.2761408 -0.059910372
000050 08 7b 78 be 71 8b 30 be 2f d7 f0 3d d7 30 8d bb
       -0.24265683 -0.17240693 0.11759793 -0.0043088007
000060 90 7b a3 3e a4 eb 4c 3e 03 81 91 bf 29 ff 3a bf
       0.31930208 0.20011765 -1.1367496 -0.73045594
000070 f9 6d 97 be 88 92 14 be cb 85 cb bd 91 72 9f 3f
       -0.2957609 -0.14509022 -0.09937628 1.2456838
000080 bd 7f 54 3f 27 e0 9e 3d 37 10 c1 3f 40 5c 1b 3e
       0.83007413 0.077575974 1.5083073 0.1517191
000090 06 67 bc 3d 33 0e 26 be 45 7f a9 be f8 49 de bd
       0.09199338 -0.16216354 -0.3310491 -0.10853952
0000a0 22 87 12 be 41 d0 2a bf a0 14 df 3d 33 0e 8b bb
       -0.14309362 -0.6672402 0.10892606 -0.004243636
0000b0 3a af e2 bd e9 ac e1 bd 90 08 19 be 45 0a 64 bf
       -0.11068578 -0.11019308 -0.14944673 -0.8907817
0000c0 7a 96 d2 be 67 b9 1b 3d ea f9 8b 3e a9 2d bf be
       -0.4113043 0.03801861 0.27339107 -0.37339523
0000d0 98 5f c6 bd 2b 66 cd 3d 34 d5 a5 3d 08 1a 88 3e
       -0.09686202 0.100292526 0.08097306 0.2658236
0000e0 72 fa 2d 3e ac a2 b9 3d a4 71 8d be 04 80 18 be
       0.16990069 0.0906423 -0.27625763 -0.14892584
0000f0 a6 ea 7d be 92 e6 5c be 39 90 89 bd 4d 19 97 bf
       -0.24796543 -0.2157233 -0.067169614 -1.1804596
000100 ea 48 bf bd 82 9a 2a 3e d7 14 f8 3d 3d 1c 31 3e
       -0.09340079 0.16660503 0.1211335 0.17295928
000110 aa 5d 84 be fd b2 00 3e ff fb 42 3f 60 80 37 be
       -0.2585271 0.12568279 0.76165766 -0.17920065
000120 88 f7 68 3d c8 d9 58 be 46 4f 2f bf 98 5c b8 3d
       0.05687669 -0.21176827 -0.68480337 0.09002036
000130 11 31 a1 3d a6 30 74 3e d9 31 2d 3f 32 25 c2 3e
       0.07870687 0.23846683 0.67654186 0.37919003
000140 05 8c 81 3d 39 fe 17 bf e9 ea ac 3d 79 75 02 bf
       0.06325535 -0.5937229 0.08443243 -0.509605
000150 0d da d7 bd 04 43 1b be a5 2b 3e 3f 5d 45 22 be
       -0.10539637 -0.15162283 0.74285346 -0.15846772
000160 0e 26 c0 bf aa c5 17 3f 1f 69 1f 3e 96 ac a1 3d
       -1.5011613 0.59285986 0.15567444 0.07894246
000170 86 1b 1e 3e 64 c0 19 3e e9 16 e9 3e 10 51 30 be
       0.15440187 0.15014797 0.45525292 -0.17218423
000180 1c 13 32 bf d2 0c f9 bf 62 22 73 3f df bd 9b be
       -0.6956041 -1.9457037 0.9497434 -0.30418298
000190 51 a1 0d bf dc 88 3f be ca 15 b5 3d 68 ca 3d be
       -0.55324274 -0.18704551 0.088420466 -0.18534243
0001a0 19 0a 3e 3e 0c 5b 87 3e 21 40 0b 3e e1 8d fd 3d
       0.1855854 0.2643665 0.13598682 0.12380577
0001b0 d7 d4 cf 3d 0b 14 02 be 07 c3 f2 bd 11 1a a7 3e
       0.10148018 -0.12702958 -0.11853605 0.32637075
0001c0 6c 7f 8a be 21 ea 34 bf c7 e4 12 bf d7 8e 6a 3f
       -0.2705034 -0.7066975 -0.57380337 0.91624206
0001d0 97 14 05 3e 9e a1 b3 3d 63 a7 fa 3d 90 f0 d2 3d
       0.12996136 0.087710604 0.12238958 0.1029979
0001e0 e4 63 61 bf f3 b0 41 3e bc 2c e4 bd e3 9b 21 3e
       -0.88043046 0.18915157 -0.11141345 0.15782122
0001f0 b3 57 eb bf cd 89 b8 3d db 8a 13 be 78 a7 10 3e
       -1.8386139 0.090106584 -0.14408438 0.14126384

actor.0.weight f4 [256, 48]
000000 5b 37 d8 3d d8 a6 cf 3d 30 e4 44 3e 53 e3 83 bc
       0.10557433 0.10139245 0.19227672 -0.016099608
000010 18 1d 98 3d d9 a0 9d 3c 7f 9d af 3c b1 91 02 be
       0.07427424 0.019241737 0.021437405 -0.1275089
000020 f5 91 79 3e c5 d5 3c be d5 ff b7 3d c1 d3 ff 3d
       0.24372084 -0.18440922 0.08984343 0.12491561
000030 7b 2d 2e 3e 6a 52 6a 3c 06 3c 64 3e a2 0d a2 3d
       0.17009537 0.014301876 0.22288522 0.079127565
000040 d5 eb 66 3e 68 54 a5 3b 74 31 4d be 1d 84 b5 bd
       0.225509 0.0050454624 -0.20038396 -0.08863089
000050 23 8b d8 3e 1e 03 01 be aa 43 b1 3b 44 8e 05 3d
       0.42293653 -0.12598845 0.0054096775 0.03260638
000060 33 cb 43 3e d6 bf c8 3b 8c 7e 8d 3c c4 54 e0 3d
       0.19120483 0.0061263843 0.017272256 0.10953668
000070 6b 5e 9d 3d fd 85 ef bd 49 dd 90 be 02 ad 3e 3e
       0.076840244 -0.11695478 -0.28293827 0.18620685
000080 05 94 ad 3e 8a 0f 60 3c 79 99 92 bd c7 14 98 3e
       0.33901992 0.01367558 -0.07158179 0.29703352
000090 00 e2 0a bd 09 c1 b8 bd cd 7d 35 3e d1 77 ab bd
       -0.033906937 -0.090211935 0.1772377 -0.083724625
0000a0 b2 3f 14 bd df 5b bb bd bc 43 c7 bd 7d dc 88 3e
       -0.036193557 -0.091483824 -0.09729716 0.2673072
0000b0 32 5b 43 3e 67 ec a1 bd 8f 66 0d 3e f0 70 8a 3e
       0.19077757 -0.07906418 0.13808654 0.2703929
0000c0 48 c3 b9 bc 57 59 e4 3d 11 5a 08 3d d7 b7 05 3d
       -0.022676125 0.11149853 0.03328902 0.032646026
0000d0 8e 31 27 be 8b 5a e5 bd 42 37 91 bd 4d 99 a6 bd
       -0.16327497 -0.1119891 -0.07090618 -0.081347086
0000e0 12 5b 2f 3e c9 e3 40 3c 54 12 a5 3d e7 15 f9 bd
       0.17124584 0.011773058 0.080601364 -0.12162381
0000f0 30 36 ad bd c2 86 87 3e cf 7d 0c bc d1 a0 1c be
       -0.08457601 0.2647 -0.008574917 -0.15295722
000100 b9 2b 38 be 32 27 7e 3c fd c4 d4 bd 74 3f c1 3d
       -0.17985429 0.015512275 -0.10389135 0.09435931
000110 af 2b 89 3d 6f 79 65 bc d4 08 10 be 7c a5 a9 be
       0.06697785 -0.014006003 -0.14065868 -0.33134067
000120 fe 0a d8 3c b1 0e e9 3d ef d8 23 3e 19 a7 dd bd
       0.026372429 0.11379755 0.16000722 -0.10822887
000130 b8 1d 4e be ff 80 8e bd 58 78 86 bd 28 1a 37 3d
       -0.20128524 -0.06958198 -0.065659225 0.04470268
000140 8b f0 6d 3e 60 b6 97 bb 2b 9a 3e 3d 31 e8 90 be
       0.23236291 -0.004629895 0.046533745 -0.28302148
000150 df b0 b3 3d 10 c9 85 3e 27 9c 8f 3e 66 7a 29 3d
       0.0877397 0.2612996 0.28048822 0.041376494
000160 03 7e 47 be 5f 30 a4 bd f7 bd 43 3e d5 de 2b 3c
       -0.19481663 -0.080170386 0.19115435 0.010490139
000170 fa bd 18 3d 6c ea d3 bd ff 10 a4 bc b3 4d 1e be
       0.03729055 -0.10347447 -0.020027636 -0.15459327
000180 78 eb 82 3e 13 12 5e 3e 68 85 0c 3e ce 42 18 be
       0.25570273 0.21686582 0.13722765 -0.14869234
000190 d6 d0 94 3d da d6 da bc 18 b6 ec 3c 28 10 c2 ba
       0.07266395 -0.026713777 0.028895423 -0.001480584
0001a0 55 86 ff 3d 03 e3 14 bd 89 af d3 bd 2e a7 ec 3d
       0.12476794 -0.036349308 -0.10336215 0.115553245
0001b0 4d c6 82 3e e1 06 92 3c d0 b2 bf bc 38 46 cb bd
       0.25541916 0.017825546 -0.023400694 -0.099255025
0001c0 40 23 52 bd bf aa 14 3e e1 1d cb bc 0a 10 28 be
       -0.05130315 0.1451826 -0.02479452 -0.16412368
0001d0 6f a4 f9 3c bf b8 81 bd 1f ef c3 bd e8 ef 56 3e
       0.030473916 -0.06334066 -0.09567093 0.20989954
0001e0 75 af 7a 3d 97 74 53 3e c5 39 07 3e 9a 74 50 be
       0.061202485 0.20649944 0.13205631 -0.2035698
0001f0 f4 64 01 be 57 16 c6 bd f1 2d eb bd 40 28 22 bd
       -0.12636167 -0.0967223 -0.11483372 -0.039589167
000200 bb a0 af bd df 5e ba 3d a5 42 3b 3d c0 f3 16 be
       -0.08575579 0.091001265 0.045717854 -0.14741421
000210 c6 ef 8b 3e 56 be 4d 3d d0 d7 8b 3e 8b c0 63 3c
       0.2733137 0.050230347 0.2731309 0.013900886
000220 a2 50 00 3d 07 53 17 3e 8a b3 45 3e 60 e4 26 bd
       0.031326897 0.14777766 0.1930677 -0.04074514
000230 76 08 1a 3d cf 84 35 be 49 31 c2 3d 87 19 1f bd
       0.037605725 -0.17726444 0.09482057 -0.038842704
000240 b4 30 8e bc 24 d0 20 bd 0f c4 8b 3e a6 6d e7 3a
       -0.017357208 -0.039261 0.27298018 0.0017656579
000250 85 c5 d1 3d e8 68 b0 3d af 8a c8 bd c5 e5 14 3e
       0.10242752 0.08613759 -0.09792077 0.14540775
000260 92 16 5e 3e c2 44 aa 3c e8 a0 de 3d a7 0e e5 3d
       0.21688297 0.02078474 0.10870534 0.11184435
000270 bc 99 62 bd 92 89 a0 3d 3d 99 04 be ca c0 94 3d
       -0.055322394 0.078387395 -0.12949081 0.07263334
000280 e3 8e 0c 3e be 38 a0 3c 03 4c 18 bd 0e 16 c6 bc
       0.13726382 0.019558307 -0.037181865 -0.024180438
000290 4e 08 7f 3e 75 54 92 bd 1f 77 2c 3e 24 8e 9c 3e
       0.24905512 -0.07145015 0.16842316 0.30577195
0002a0 9d 62 78 bd 15 9f 8e 3c 12 c5 f5 bd e2 2a 7c 3e
       -0.06064092 0.01740984 -0.12000479 0.24625733
0002b0 f7 57 91 3c dd bf 4f 3e 26 56 5f be 5e 24 01 3b
       0.01774214 0.20288034 -0.21810207 0.0019705514
0002c0 02 9c 8b 3e eb d4 e4 bd e3 e2 51 3d 46 b3 2a 3e
       0.27267462 -0.111734234 0.051241767 0.1666995
0002d0 1a 00 48 3e 3e 18 2f bd 30 d4 3b be 8c bc 81 3e
       0.19531289 -0.04274773 -0.18342662 0.25339162
0002e0 02 b1 a0 bd 5f b5 ac 3c 07 74 01 3d 33 21 a4 3d
       -0.078462616 0.021082578 0.031604793 0.08014145
0002f0 60 31 23 3e df cc a3 bd 38 1d 60 3e 9b 8f bf 3e
       0.15936804 -0.079980604 0.21886146 0.3741425
000300 d4 13 48 bc b1 13 9f 3d 50 3b 04 3e 0b fd db 3b
       -0.012211759 0.07767428 0.12913251 0.0067135147
000310 a5 59 b1 bc 03 32 8b 3d 60 41 98 bd 2f bf 91 bc
       -0.021649191 0.06796648 -0.07434344 -0.017791359
000320 d1 e0 f0 3d c4 47 e1 3c ff 2c 16 3e 7f ba 99 bd
       0.1176163 0.02750004 0.14665602 -0.075062744
000330 5f 18 d3 3d 3d 25 0e 3e 9f ef 91 3c e4 ef 9c bd
       0.10307383 0.13881393 0.017814456 -0.07662943
000340 43 17 e2 3d 82 93 ea 3d 9c 86 8a 3d 20 00 13 3e
       0.11039593 0.11453916 0.06763956 0.14355516
000350 8b 56 20 bd ac 4d 2f be c0 40 27 3e 04 9f 9b be
       -0.039145034 -0.17119473 0.16333294 -0.30394757
000360 66 7c ec 3d b2 73 60 3d 1b 60 e7 bd 37 5f df 3b
       0.115471646 0.054797836 -0.112976275 0.0068167704
000370 c8 b0 ea 3c 0a 50 c3 bd e8 c4 be 3d 66 ba 0c 3e
       0.028648749 -0.095367506 0.09314901 0.1374298
000380 8a 28 b8 bd f9 05 5c be 0d 45 0f 3e ab e9 c4 be
       -0.08992107 -0.21486653 0.13991185 -0.38459525
000390 fc a6 a7 bd 1f 7d ac 3d 27 c6 63 bd e5 84 47 3d
       -0.081861466 0.084223025 -0.055608895 0.048710722
0003a0 0d 93 b1 3d 2d 6e c9 bd 90 a4 52 be 27 4e 15 3e
       0.08670626 -0.098354675 -0.20570588 0.14580594
0003b0 9a c1 e2 bd bd a8 0c be 85 2b 0e bd bd be 7d be
       -0.11072083 -0.13736244 -0.034709472 -0.24779792
0003c0 10 90 9c 3d 47 dd 4d be 69 4b 5e 3e 74 f1 12 3e
       0.07644665 -0.20103942 0.21708454 0.1434992
0003d0 f3 13 ca 3d 0e 03 1a 3e c4 19 c8 3d eb 9d 1e be
       0.09867086 0.15040228 0.097705394 -0.15489928
0003e0 b1 20 81 3e 01 82 2e 3e 6b 1d c6 3d 23 a4 0a 3e
       0.25220254 0.1704178 0.0967358 0.13539176
0003f0 75 35 c4 bd 4f c6 e1 bd d3 20 06 3e e9 e3 34 3e
       -0.095805086 -0.110241525 0.13098459 0.17665066

actor.0.bias f4 [256]
000000 b0 cb bc 3c a4 75 67 bd da 3c da 3d 65 cf 10 bd
       0.023046345 -0.056508675 0.10656138 -0.035354037
000010 09 04 ae 3d 51 5a 86 bd da e1 06 be de fd 67 3c
       0.084968634 -0.06560195 -0.13172093 0.014159648
000020 d2 38 02 3e 66 be df 3b 0d c8 03 3e 9d dd 1b be
       0.12716988 0.006828117 0.12869282 -0.15221258
000030 27 c6 06 3e 09 d5 68 bd 22 f7 8a 3d 4e 12 1d 3e
       0.13161527 -0.05684379 0.06785418 0.15339014
000040 55 d8 ab bd 6b f2 45 3c 1e 35 8f 3d 42 3c 93 bd
       -0.083908714 0.012081723 0.06992553 -0.07189228
000050 20 92 26 bd d0 6d 2a be 50 dc 04 3e 3b b6 3a 3e
       -0.0406667 -0.16643453 0.12974668 0.18233578
000060 25 65 3e bd 0a 84 0c 3d e9 47 04 3e 4c 89 89 3d
       -0.046483178 0.03430561 0.12918057 0.067156404
000070 5a e5 25 3e b8 09 1b 3c 4c 03 e7 3d 0c e2 7b bd
       0.16200772 0.009462766 0.11279926 -0.061494872
000080 7b 9d b7 bc fa e0 d7 bc 3f 90 93 3c c9 92 03 be
       -0.02241396 -0.026352394 0.018013118 -0.12848963
000090 d2 97 b6 bc ab 68 0c 3e 8e a7 03 be b7 7e 1f be
       -0.02228919 0.13711803 -0.12856886 -0.15575682
0000a0 b0 0d f1 bd 7c ef 0e be 19 2c 59 3d 74 4a 4a 3d
       -0.11770189 -0.13958544 0.05302057 0.04938741
0000b0 df c1 b7 3d 25 d5 ab 3c a4 66 8b 3d 32 50 08 bc
       0.08972525 0.020975659 0.068066865 -0.008319901
0000c0 9a 29 03 bc e6 f6 cc bc 39 5c 87 3c 2b bc ba bd
       -0.008005524 -0.025020074 0.016523467 -0.091179214
0000d0 e1 6f 8b 3d 1d 55 84 bd da 48 3f be 15 1c 74 bd
       0.068084486 -0.064615466 -0.18680134 -0.059597094
0000e0 3e 7a 34 ba 3d 12 9b 3d 63 b3 ea 3d 33 a3 81 3d
       -0.00068846706 0.07571838 0.114599966 0.06329956
0000f0 55 06 c3 3d 09 1d 25 bd 2f 5a af bd 90 d5 b5 3d
       0.09522692 -0.040310893 -0.08562123 0.088786244
000100 cb c6 08 3d ac a4 98 ba e7 a1 1a be a1 c4 a0 3d
       0.03339271 -0.0011645756 -0.15100823 0.07850004
000110 0a 0f a9 bd cf 37 0b 3e 11 c0 df 3c 6f 9f 23 bd
       -0.082548216 0.13595508 0.027313264 -0.03994697
000120 0b 45 25 bc 69 8f b6 3d 41 4f e3 3c 3d d5 5b 3d
       -0.010087262 0.08914072 0.027747752 0.053670157
000130 85 e7 03 3e 34 d6 8c bd fa f4 8f 3d fc fa 61 3c
       0.12881286 -0.068767935 0.070291474 0.0137927495
000140 b3 cf 7d 3d 75 e6 f2 3c d9 b2 61 bc 0a d5 3c bd
       0.061965656 0.029650906 -0.013775551 -0.046101607
000150 15 f9 0a 3e c6 c2 b2 3d af 5c bb bc dd 65 1f be
       0.1357158 0.08728556 -0.022871343 -0.15566202
000160 28 9c 22 be d9 17 29 3d 02 3f 60 be 9e 68 d1 3c
       -0.15879881 0.04128251 -0.21899036 0.02556258
000170 96 15 ad bc be ab d1 bd a6 14 74 bd ad 27 7a bd
       -0.021128457 -0.10237835 -0.059590004 -0.061072994
000180 3f df 48 bd d2 9d 05 be 6f 9f d7 bd 6c ab 86 3d
       -0.04904103 -0.13048485 -0.105284564 0.06575665
000190 c8 a9 25 3d 1e fb 06 be b8 72 81 3d ae 4c fc 3d
       0.04044512 -0.13181731 0.06320709 0.12319313
0001a0 c8 3f 15 3e 17 df a5 3d 2e cd 05 3e aa ea ab bc
       0.14575112 0.08099192 0.13066551 -0.02098592
0001b0 d6 78 2a 3d fb 24 90 3d e7 ce 65 3d 8c 8c e4 3c
       0.041619144 0.070383035 0.05610552 0.02789905
0001c0 65 78 02 bd 26 f3 22 3e 74 b7 3a 3c 86 91 0c 3e
       -0.0318531 0.15913066 0.011396278 0.13727388
0001d0 95 47 b7 bd 3b 34 05 bd 4c 9a ea bd 15 07 ed 3c
       -0.089492 -0.032520514 -0.11455211 0.028934041
0001e0 2f 4b 47 be 55 fe 10 3d 33 60 07 bc e7 fb c5 3d
       -0.19462274 0.0353988 -0.008262682 0.09667187
0001f0 54 4c 11 be f5 e3 3b 3e 3f 93 fe bd 15 3d 37 be
       -0.14189273 0.18348677 -0.12430429 -0.17894395
000200 b0 79 f3 bd ff 95 20 be 63 24 b6 bd 61 f0 17 3d
       -0.118884444 -0.15682219 -0.08893659 0.037094478
000210 22 6b 04 3d b5 8a d5 bc 9f cf 1e 3e 80 da a5 bd
       0.032328732 -0.026067117 0.15508889 -0.08098316
000220 75 79 14 be 7f bb 78 39 de f7 f3 3c bb 00 14 bd
       -0.14499457 0.00023720971 0.029781278 -0.03613351
000230 f3 76 e6 bc f9 ef 14 be 79 90 90 3c c2 ff fe bd
       -0.028132891 -0.14544667 0.017647015 -0.12451126
000240 9c 46 73 bd 9a 26 73 3d ca 07 5b 3d 21 e8 c7 bc
       -0.05939351 0.059362985 0.053474225 -0.02440268
000250 89 77 30 bd 9c 19 05 3e 81 97 58 bb 07 bf a9 3d
       -0.043082748 0.1299805 -0.0033049288 0.08288389
000260 b3 14 89 3c fb fe 80 bd 1c 35 80 b9 89 f2 f6 bd
       0.016733503 -0.06298634 -0.00024453632 -0.12057979
000270 d0 79 17 be e6 8e 8a bc 30 17 07 3d b5 8e 40 3d
       -0.14792562 -0.016913842 0.032981098 0.047011096
000280 a3 dd 06 bd 4e be b3 bd 0f e6 14 be 37 8e 82 3c
       -0.032926213 -0.08776532 -0.14540885 0.015936954
000290 2a 60 a7 bd 85 8f e4 bd 16 81 15 bc f0 e4 72 3d
       -0.08172639 -0.11160187 -0.009125015 0.059300363
0002a0 19 d3 2f 3d 94 d7 ee 3c 19 b6 e0 bc df 2e 6d bc
       0.042925928 0.02915553 -0.02743058 -0.014476507
0002b0 87 b4 3d 3d 7f ec fb bd db 46 52 bd e3 c9 1a 3e
       0.046314742 -0.123009674 -0.051337104 0.15116076
0002c0 d0 47 31 3e 5b c0 31 3d 24 46 2c bd 8a e4 31 bc
       0.1731255 0.043396335 -0.04205908 -0.010857711
0002d0 21 aa 90 bd d9 3c 30 bc d9 cb 19 be a3 48 d6 3d
       -0.070636995 -0.010756695 -0.15019168 0.10463073
0002e0 c7 6c e9 3d 5e f0 e1 bd 39 b5 0f be 33 64 d2 3c
       0.11397701 -0.110321745 -0.14033975 0.025682544
0002f0 5d 8d 0e 3e 9b 96 31 be e2 b2 19 3e f5 60 e3 3a
       0.13921113 -0.17342608 0.15009645 0.0017347621
000300 6c c5 8f 3d 13 1a 1c bc d7 8e 71 3d 49 a3 f9 bd
       0.07020077 -0.009527701 0.058974113 -0.12189347
000310 08 b1 5c 3c b6 92 72 3c 74 69 a7 bb 70 b1 5e 3d
       0.013469942 0.014805486 -0.0051090065 0.054368436
000320 ff 3e 0a 3e 2b 96 89 bd 45 46 9e bd 82 87 3c bb
       0.13500594 -0.067180954 -0.077282466 -0.0028767292
000330 56 45 33 be a9 81 0b 3d 41 07 19 3e c3 b5 16 3e
       -0.17506918 0.0340592 0.14944173 0.14717774
000340 3c 29 51 3d 03 8b c0 3d e1 a3 c4 bd 4a 03 00 be
       0.051064715 0.094015144 -0.0960157 -0.12501255
000350 21 3b 5d 3e a9 45 dc 3b 6e a5 1e 3e 04 31 03 be
       0.21604587 0.0067221713 0.15492794 -0.12811667
000360 71 ed 40 be 7c 2b 07 be 1c bd 02 3e fa 0b 1d ba
       -0.18840577 -0.13200182 0.12767452 -0.00059908594
000370 9a d0 2b bd ee 5f 19 be 01 39 f4 bd 70 45 89 b9
       -0.041946985 -0.14978 -0.11924935 -0.0002618241
000380 7b 6f aa 3c e0 71 86 3d e2 06 7a 3c 3e b4 de 3d
       0.020805111 0.06564689 0.01526043 0.10874222
000390 da 17 00 3e f8 65 df bd 92 1d f2 bc 43 8e 5a bd
       0.12509099 -0.10908121 -0.029555116 -0.053358328
0003a0 0f 8f 12 bd 42 8d 9f bd 53 2f de 3d 41 c4 9d 3d
       -0.035780963 -0.07790615 0.1084887 0.07703448
0003b0 b5 0d c6 3d 44 4e d7 3d 14 8f 3b bc 06 f5 3b bd
       0.09670583 0.10512975 -0.011447687 -0.04588797
0003c0 2c f2 4b 3d bd 61 c3 3d 9f 7a c5 3d ac d7 ae bc
       0.0497915 0.095401265 0.09642529 -0.021343075
0003d0 61 bc 12 3e 32 95 ad 3c 33 76 a0 3d c5 9d 80 bd
       0.14329673 0.021189306 0.07835045 -0.06280092
0003e0 3b fe 47 3c 71 8d 41 be c6 7a 8d bd fb 6e c3 3d
       0.012206609 -0.18901612 -0.06908183 0.09542652
0003f0 b4 2b d3 bc 5b 89 01 3e 11 72 18 3e a5 3e 91 bc
       -0.025777675 0.12650053 0.14887263 -0.017730067

actor.2.weight f4 [128, 256]
000000 e5 09 12 3e 57 26 12 3e b4 e6 91 bd ff 6e f7 3c
       0.14261587 0.14272438 -0.07124081 0.030204294
000010 1e 72 19 be 34 05 1a be 2f 66 37 be 3c 46 e3 bd
       -0.14984939 -0.15041047 -0.17910074 -0.110973805
000020 4b 30 86 3d 8d 58 cc bd 6a fd f8 3d 05 5e 2f 3d
       0.0655218 -0.09977827 0.1215771 0.042814273
000030 26 92 cb 3d 0e 24 d2 bd 27 ee 33 3e 07 72 8a 3d
       0.09939985 -0.10260783 0.17571317 0.0676003
000040 ce cd 0a 3d e8 ed 87 bd 51 72 a8 3d 20 1e f7 bd
       0.033887677 -0.06637174 0.08224929 -0.12066293
000050 0e c0 a9 3c 1c 93 35 be 74 29 20 3e 5a d6 a1 3b
       0.020721462 -0.17731899 0.15640813 0.004938883
000060 3d bf 31 be 40 29 d1 3c 16 86 13 be 56 31 55 3b
       -0.17358108 0.025532365 -0.14406618 0.0032530627
000070 12 f8 57 3d f7 6d d1 bb 0d c1 bf be 58 d1 e2 3d
       0.052726813 -0.0063912827 -0.37451974 0.110750854
000080 32 8a 71 3e 9b b2 1a 3d a6 38 5b 3c b4 bf f0 3d
       0.23587874 0.037767988 0.013380205 0.117553145
000090 92 24 47 bd e4 17 a8 3d 3a cf 6f bd c4 07 ed bc
       -0.04861886 0.08207682 -0.058547236 -0.028934367
0000a0 75 e9 c3 3d 15 48 81 bd b3 8f a0 bb 97 26 7a be
       0.09566013 -0.06312577 -0.004899943 -0.24428783
0000b0 34 69 98 3c c0 39 90 be 4f 2a bd bd 18 df 32 3c
       0.018604852 -0.2816906 -0.09236585 0.0109174475
0000c0 87 a8 29 3d 65 3f 49 be 5b 23 e0 3d 95 7f 94 bd
       0.041420486 -0.1965309 0.109442435 -0.07250897
0000d0 38 2c 8a 3e bc c4 23 bd 82 1c e9 bd 12 2e b0 3c
       0.2698686 -0.039982542 -0.113823906 0.021506343
0000e0 04 ac 4e 3c 8a ba 9d bd 80 27 84 3c 44 c0 1d be
       0.012614254 -0.07701595 0.016132116 -0.15405375
0000f0 ea b2 02 3e c5 37 9a bd 57 91 91 3d 57 14 f3 3b
       0.12763563 -0.075301684 0.071077995 0.007418196
000100 d8 e1 1c 3c 6a 63 a5 3d e3 e4 8e 3d e9 4d 1a be
       0.00957533 0.08075602 0.069772504 -0.15068783
000110 9b 4a d3 3c 60 d8 4d bc 8b 38 c7 bd 2a ed 73 bd
       0.02579241 -0.012563795 -0.097275816 -0.05955235
000120 00 99 08 be aa 06 bd 3d 51 af 34 3d a4 7c 11 3e
       -0.13339615 0.09229787 0.044112507 0.14207703
000130 83 e7 05 bd a7 75 59 bd d8 6e 9d be 98 9f 25 be
       -0.03269149 -0.053090718 -0.3074863 -0.16174161
000140 3d 76 0b 3e 75 f4 c1 bd fe 86 75 3e 3f cb 23 3d
       0.13619323 -0.094704546 0.23977277 0.039988752
000150 33 87 e9 3c 19 e5 38 3e 11 b3 12 3e 81 75 e7 bc
       0.02850685 0.18056144 0.14326121 -0.028254272
000160 5e 90 66 bd 26 b1 73 3d 02 cc 90 3d d7 04 05 be
       -0.056290023 0.059495114 0.070701614 -0.12990128
000170 f7 f4 cc 3d c7 d7 a1 bd cd 0c 04 3e ac cc 69 3e
       0.10007661 -0.079024844 0.12895508 0.22831982
000180 45 88 e2 3d 61 4a 86 3e 1c bc e9 bd ca ff f1 3d
       0.110611476 0.26228622 -0.11412832 0.11816366
000190 2c 03 f9 bc 61 f7 d4 bd 57 df 30 3d 47 47 55 3d
       -0.03039702 -0.10398746 0.043181743 0.05206993
0001a0 c5 62 12 bd 5d 3e e2 3d 46 72 25 3e 19 40 63 bd
       -0.035738725 0.11047051 0.16156873 -0.05548105
0001b0 1c 0d 48 bd 92 85 9e bd 33 73 6a 3e 71 f9 1a be
       -0.048840627 -0.0774032 0.22895508 -0.15134217
0001c0 0f cc 2a bd bc 1c 04 3c b0 cc 9e bd 96 d5 9a 3c
       -0.04169851 0.008063491 -0.07753885 0.018900674
0001d0 4c 31 2c 3e 04 f2 9c 3d 4f 04 5e 3e 15 d5 b9 ba
       0.1681568 0.07663348 0.21681331 -0.0014177883
0001e0 2a 0a 98 bd 26 6e 01 3d 6f bd 0a bd 5b 6c 83 3d
       -0.07423814 0.031599186 -0.033872064 0.064171515
0001f0 c2 bc 6c bd b3 35 85 be 49 98 ab bc f0 6f 11 3e
       -0.0577972 -0.26017532 -0.020946639 0.14202857
000200 66 88 4f 3d 12 57 b8 3d 73 40 d7 3c 70 10 11 bd
       0.05066719 0.09000982 0.026275849 -0.035416067
000210 34 42 0b bd 09 01 f7 bd e2 b8 c9 bd 66 08 49 3b
       -0.033998683 -0.12060744 -0.09849717 0.0030675172
000220 81 1f 9f 3d d7 7b 00 bd ca fb e2 be ec 5e bc 3d
       0.07769681 -0.031368103 -0.44332725 0.091977924
000230 d3 84 15 bd 79 33 d1 bd 82 9d ec 3d f2 12 d9 bc
       -0.036503624 -0.10214896 0.1155348 -0.026498292
000240 07 c7 f9 bd dc a4 0b bb 93 d6 a1 bc 2e 97 0b 3d
       -0.121961646 -0.002130798 -0.019755637 0.034079723
000250 c8 53 06 3d 2c 5d df bd ae 1d c5 3d f9 29 10 be
       0.032794744 -0.10906443 0.096248016 -0.14078511
000260 a1 53 64 3d 7d 07 94 be 68 8e 3a 3d 73 1b 40 3e
       0.055743817 -0.28911963 0.045545965 0.18760471
000270 6a 15 66 be 4c 66 e8 bc d5 00 11 3e 24 c7 14 3e
       -0.22469106 -0.028369091 0.14160474 0.14529091
000280 bc 2e 04 3e 0c 6b a8 3d db 6d 97 3d bf 25 40 3e
       0.12908453 0.082235426 0.07394 0.18764399
000290 ea 26 4f be fe 8e 07 3d 52 9e e6 bd 89 78 90 3d
       -0.20229688 0.033095352 -0.11260666 0.0705424
0002a0 ad 6f 94 bd 52 39 18 3b d4 2c 2e bd 79 2c df be
       -0.07247863 0.0023227525 -0.04252322 -0.43588617
0002b0 89 1c 5a bd d8 fe 25 3d da d9 0a be 97 73 ef bc
       -0.05324987 0.04052624 -0.13559666 -0.029229922
0002c0 8c 0b 2b bb a9 7f 5d be b4 aa dd bc f6 ef 28 bd
       -0.0026099412 -0.2163073 -0.027058937 -0.04124447
0002d0 e0 d5 53 3c ec a5 1b bc cf 54 21 3e be c3 76 be
       0.01292941 -0.009500008 0.15755008 -0.24098107
0002e0 55 60 96 be 48 8d 84 be 18 ba 5c be 2d d0 1b 3d
       -0.2937037 -0.2588904 -0.21555364 0.03804033
0002f0 fe 2d bc bc 0c b8 9c 3d 9e bf bd 3b 11 54 64 3e
       -0.02297115 0.07652292 0.005790665 0.22297694
000300 8f 1a f7 bd ea eb 86 be 50 13 43 3e 46 37 02 bf
       -0.120656125 -0.26351863 0.19050336 -0.5086559
000310 28 21 74 3d 4a 00 16 3d d8 2a af 3d 14 cc ca 3d
       0.059601933 0.03662137 0.08553094 0.09902206
000320 f6 ad 12 3e 1f 37 c9 bc e9 3c c3 bc 8c 69 35 be
       0.14324173 -0.024562417 -0.023832755 -0.17716044
000330 6f 5a b2 bd fc 1e 66 be 89 d3 78 3d 0d 29 02 bc
       -0.08708655 -0.22472757 0.06074861 -0.007944358
000340 b0 f7 39 bc 7e e1 fc ba 84 cb d1 3d c0 90 0f 3e
       -0.011350557 -0.0019293276 0.10243896 0.14020061
000350 a9 9a 61 3d 68 02 28 3d 17 e8 72 bc 12 41 1d 3e
       0.055079136 0.04101792 -0.014825842 0.15356854
000360 28 0b 94 3d 2b 82 c6 3d 73 7a 7a 3c cc 5b 23 bd
       0.072286904 0.09692796 0.015287983 -0.039882466
000370 cc 9e 13 bd 6e 9f 89 bb 3e 13 4b 3e 43 1c 37 bd
       -0.036040112 -0.0041999137 0.19831559 -0.044704687
000380 ec 28 ca 3d 64 25 ba bd 63 83 73 3e 1c a8 d6 bd
       0.098710865 -0.09089163 0.23780589 -0.10481283
000390 b3 b8 1e 3e fd 0e 73 3e b8 a5 89 3e 96 21 c2 3d
       0.15500145 0.23736186 0.26884246 0.09479062
0003a0 7f a4 96 3d a1 ec f7 bd 98 19 73 bc e3 90 3e 3d
       0.07355594 -0.1210568 -0.014837645 0.046524893
0003b0 05 4e 66 bd 1a af eb 3d f3 de 1d 3e 7f 12 dd bc
       -0.05622675 0.11508007 0.1541708 -0.026986359
0003c0 85 cb 7a 3c 44 86 43 be d9 81 4e bd 4d a0 4d 3d
       0.015307312 -0.19094187 -0.0504168 0.050201703
0003d0 bf 88 90 3d c9 f4 81 3c 3f f9 4d 3d 45 7b 7e bd
       0.07057332 0.015863793 0.050286528 -0.062129278
0003e0 0d b0 a2 bc 11 53 05 3e 6a 07 ae bb 98 d6 2d bd
       -0.019859338 0.13019969 -0.0053109424 -0.04244098
0003f0 8d c2 2f 3e a1 13 56 be f4 16 b2 bd 88 8a 57 be
       0.17164059 -0.20905925 -0.08695784 -0.21048939
