CRL/slime_ppo_gpu.pth (torch, 46251 bytes, 11 tensors)

critic.0.weight f4 [64, 12]
000000 37 de a2 be 97 f6 9f be 06 6d a2 3d ad 5f 22 be
       -0.3181016 -0.3124282 0.07930951 -0.1585681
000010 59 7a 26 be ff c8 10 bf 78 40 89 3d b2 3a 68 3e
       -0.1625761 -0.56556696 0.067017496 0.2267864
000020 03 27 fb bc 92 9c b4 bf 2d 91 eb 3f ad b6 51 bf
       -0.03065825 -1.4110281 1.8403679 -0.81919366
000030 3f e8 d0 3e 3e 99 0e 3e 8a 81 0c 3e aa db 70 be
       0.4080219 0.13925645 0.1372129 -0.23521295
000040 af e1 14 bf 2f f1 57 3c b9 4f 17 3d db 0a 86 3d
       -0.58156866 0.013180061 0.036941264 0.06545039
000050 41 81 15 be f9 44 c3 bf 64 91 86 be 37 32 4b 3f
       -0.14600088 -1.5255424 -0.262828 0.79373497
000060 f2 a2 a7 bc 2d 59 41 3d 35 a0 21 3e a4 24 19 3e
       -0.02046344 0.047204185 0.1578377 0.14955384
000070 72 c4 fc 3e 6f 07 96 3d 5c 14 ba 3d 7d 8e fb 3d
       0.49368626 0.073256366 0.090859145 0.12283037
000080 f6 3c 48 bf 5f cc 7c be 20 b0 ae 3e 99 6e a3 3f
       -0.7821802 -0.24687336 0.34118748 1.2768127
000090 fb 4f 71 be 93 f5 49 3e 82 a2 47 bd d3 df 24 3d
       -0.23565666 0.19722585 -0.048738964 0.040252518
0000a0 c5 4d 0c 3f b8 18 c8 3d 2e 25 eb bd 89 cb 84 bc
       0.54806167 0.0977034 -0.11481701 -0.016210334
0000b0 5c f4 62 bf 82 7b 21 bf 3e da a5 be 06 58 ef 3f
       -0.8865411 -0.6307908 -0.32393068 1.8698738
0000c0 ad a8 d7 3e 3f da 4f 3c 33 41 4b 3c 5f cd f6 3c
       0.42120877 0.012686311 0.012405681 0.030127225
0000d0 5a 38 25 bd 8c 7b a4 bc 12 be 90 3d 15 9a 03 3e
       -0.040336944 -0.020078443 0.07067503 0.12851746
0000e0 9f 8f 90 bf 31 1d a5 3e 66 79 87 bf e3 83 d3 bd
       -1.129383 0.32248834 -1.0583923 -0.1032789
0000f0 39 e7 c3 be 1f c7 b0 3e 7c 80 52 bd 8b a9 dc bb
       -0.38262346 0.34526917 -0.051392063 -0.0067340783
000100 43 cd b8 3e b1 f4 23 3e 95 b3 75 3a a3 44 f1 3c
       0.36094102 0.16011311 0.0009372768 0.029451674
000110 2a 15 f6 3d 37 35 40 3f 0d d1 a8 3f b8 eb 5b 3e
       0.120157555 0.750812 1.3188797 0.21476638
000120 f7 1e 88 3b e8 5a 11 be 30 ae 1d 3c f6 5b e5 bc
       0.004154082 -0.14194834 0.009624049 -0.027997952
000130 c4 ad f4 be d7 25 9c 3d 30 9e 44 bc d6 70 c5 bc
       -0.47788823 0.07624405 -0.012000605 -0.024101656
000140 43 f9 e1 3f d1 5b 4b 3d e0 1f 48 bd 8a 75 e1 3e
       1.7654194 0.04964811 -0.048858523 0.44034988
000150 5f ea 98 be 55 14 12 be 15 c8 91 bd 74 c1 de 3c
       -0.2986631 -0.14265569 -0.07118241 0.027191855
000160 4a 5d 16 be 8c 2e ae 3c e3 04 c5 3d a4 f7 32 3e
       -0.14684024 0.02126243 0.09620073 0.1747728
000170 d7 2f 2c bf ff 39 89 3f 2c 2e 9d 3f c2 83 76 3f
       -0.672605 1.0720824 1.2279716 0.96294796
000180 2e 5d ea be 20 6e 81 bc a0 74 31 3e de b8 20 bd
       -0.45774215 -0.015799582 0.17329645 -0.039238803
000190 a9 b8 68 3d c0 3d ea bc c4 2d bc 38 bc 18 84 bd
       0.05681673 -0.028593898 8.973063e-05 -0.0645003
0001a0 25 c0 af bf 74 62 f4 be cd e9 83 3e ae a0 2e bf
       -1.3730513 -0.47731364 0.25764313 -0.6821393
0001b0 a5 28 e5 3e 2a 19 91 bc c1 d5 29 3d d4 e4 d0 3b
       0.44757572 -0.017712194 0.041463617 0.0063749347
0001c0 da 25 67 bd e3 20 e8 be d9 48 de bc 7f b8 03 3e
       -0.056432582 -0.4533759 -0.027134346 0.12863348
0001d0 7a d1 dc bf 76 97 1e bf 10 1a a9 be 14 4f 6d bf
       -1.7251427 -0.6194986 -0.33027697 -0.9269879
0001e0 7e 82 4c bf e5 26 7a 3e 73 9a bf bd d6 b0 3e be
       -0.79886615 0.244289 -0.09355631 -0.18622145
0001f0 cb 37 03 bc c4 b0 1f 3e be 95 e4 bd 94 b9 44 3e
       -0.008008908 0.15594774 -0.111613736 0.19211417
000200 09 97 84 3f 02 26 3f 3e 23 2d d0 3d 6f 21 db be
       1.0358592 0.18666843 0.10164859 -0.42798945
000210 65 64 cf 3e 03 fa c9 3e 47 e8 be 3d 7a 19 a0 3e
       0.40506282 0.39448556 0.09321647 0.31269437
000220 33 d9 a2 be c8 9a 0a bc ea d5 57 3c e3 71 bf 3e
       -0.31806335 -0.008459754 0.01317356 0.37391576
000230 74 72 db 3e c1 b6 be be 0c 44 26 bf 12 cd d5 3f
       0.42860758 -0.37248805 -0.6494758 1.6703207
000240 70 64 8d bd 4d bf 5c 3e 11 c2 0c 3e 2f 29 6f 3e
       -0.069039226 0.2155735 0.13745905 0.23355554
000250 5f af 8a be 5e 6f 09 3e 47 15 47 bd 03 94 10 3e
       -0.27086923 0.1342139 -0.048604276 0.14118962
000260 df 1c e6 3f e4 f9 9c 3c 8a 3f c2 bd 8f 94 0d bf
       1.7977561 0.019162126 -0.09484775 -0.5530481
000270 af ed 43 bc 71 ce 36 bd 1a 75 eb bd bc 3e 6a bd
       -0.011958524 -0.04463047 -0.11496945 -0.057188734
000280 ee 06 8f 3e 34 de 82 be 06 41 77 bd 7e 79 d9 bd
       0.27934974 -0.25560153 -0.060364746 -0.10618876
000290 98 a9 d7 3f 77 7a c7 be e6 fc 83 be 03 b8 2d bf
       1.6848631 -0.3896062 -0.25778884 -0.67858905
0002a0 5e 71 80 be eb 94 51 3f dd 45 7b bb 66 ab cf 3e
       -0.25086492 0.81867856 -0.0038341202 0.40560454
0002b0 73 cb 35 3b b4 1a 97 3f 9d db ab bd a7 00 ca 3e
       0.0027739673 1.1805024 -0.08391497 0.39453623
0002c0 ef 52 24 3e a1 c2 a7 3f 86 00 74 3f ad 7d c3 3f
       0.16047262 1.3106271 0.953133 1.5272728
0002d0 07 03 6d 3e cb d7 4b bf 36 74 65 bd 46 2a 96 3e
       0.23145686 -0.7962615 -0.05601903 0.29329127
0002e0 2a 32 1e be dc 4c c4 be d6 95 91 3d 87 41 ab 3d
       -0.15448824 -0.3833989 0.07108657 0.08362108
0002f0 03 b3 5c bf 3c ca 45 3f 67 c5 45 3e d9 52 03 3f
       -0.8621065 0.7726171 0.19313584 0.5129829
000300 4c 45 e6 bd 7a ec 47 3f d1 d5 5e 3d c0 96 22 3e
       -0.11243686 0.7809521 0.05440313 0.15877819
000310 58 1c 12 be ec ab 72 3f c7 25 83 3d 3e e8 75 3e
       -0.14268625 0.9479358 0.0640369 0.24014375
000320 b6 37 e5 be 89 4a c9 3f e0 38 39 3f 4e 5d c6 3f
       -0.44769067 1.5725871 0.7235241 1.5497224
000330 db 23 b4 3e 53 c0 06 3e 08 a4 6e bc 63 b8 0e be
       0.35183606 0.13159303 -0.014565475 -0.13937525
000340 c8 ca 74 be 63 cb 6d be cc 0c 8f 3d a0 20 15 bd
       -0.2390548 -0.23222117 0.06984863 -0.036408067
000350 cc 95 9d bf 52 c4 e5 be 26 ab c5 bd df eb 09 3f
       -1.2311339 -0.44876343 -0.096517846 0.53875536
000360 a6 ac f8 3d a3 4e 69 be f2 28 8b 3d d6 68 9c bc
       0.12142305 -0.22783904 0.06794919 -0.019092958
000370 37 64 3f bb a8 85 8f be 75 f0 e5 3d c5 cf be bd
       -0.002920402 -0.2803166 0.11227504 -0.09316973
000380 66 06 e0 3f db 0b 02 3f bc a8 39 be 8b cd 3f 3f
       1.7501953 0.5079934 -0.18130773 0.7492301
000390 84 8f d8 3e 6b 00 00 bf a2 0c 14 3e ae 48 56 be
       0.42296994 -0.5000064 0.14457944 -0.20926163
0003a0 1b 13 c3 be 57 f8 7f be 0f 95 a8 3c 2b 15 3f 3d
       -0.38100514 -0.24997078 0.02057889 0.046651047
0003b0 dd 89 97 3f 03 44 5e 3e 42 c5 ee bd 14 a8 35 3f
       1.1838948 0.21705632 -0.11658718 0.7095959
0003c0 dd 78 c0 3e 2f 41 11 be 43 e1 06 bd a1 33 fe bd
       0.3759221 -0.14185022 -0.03292967 -0.12412191
0003d0 38 44 0e bd b4 82 9d 3d 9d 1d f0 ba 12 47 9d bd
       -0.034733027 0.07690945 -0.0018319372 -0.07679571
0003e0 87 3c 8d 3f ce 8e 81 3a 16 0c db bd 12 f3 25 3f
       1.1034096 0.0009884478 -0.106956646 0.6482402
0003f0 03 dd 05 be 7e 37 b2 3e a4 84 7e 3c 98 0e 3b 3e
       -0.1307259 0.34807962 0.015534554 0.18267286

critic.0.bias f4 [64]
000000 b9 5a 17 bb af ab 34 bd ed 08 80 3e b0 f8 2e 3e
       -0.0023094846 -0.044109043 0.2500681 0.17087054
000010 a6 9f 25 bf e9 ee 5d 3f 34 28 96 3c 69 6b a4 bc
       -0.6469673 0.8669267 0.018329717 -0.020070748
000020 95 d7 fe 3e 85 eb f3 be 28 03 5c 3e 01 c0 05 3d
       0.4977385 -0.47640625 0.21485579 0.032653812
000030 48 c2 e6 3e 92 de a1 bc 3e ae f5 bc 06 3c 8e bd
       0.450701 -0.01975945 -0.029990312 -0.06945042
000040 b0 61 21 be 27 5d a3 be 98 ac c3 be 50 06 f8 3d
       -0.15759921 -0.31907007 -0.38217616 0.12110579
000050 e4 2c 99 be fb 42 85 3d b6 9a 16 bf 38 22 e8 3e
       -0.2991706 0.06506916 -0.5882982 0.45338607
000060 9c 29 d8 3e bc 93 eb be 9c 9a 2d 3e 1d 7f c5 be
       0.42219245 -0.4601115 0.1695351 -0.38573542
000070 bc 24 8b be ba 77 35 be 00 1d 3b 3f 15 bc c1 3e
       -0.27176464 -0.17721453 0.73091125 0.37838808
000080 43 0a ec be 6d 94 3c be 92 78 bf bb 34 43 0d bf
       -0.4610158 -0.18415995 -0.0058432305 -0.5518067
000090 cf c7 96 be 75 a1 dc bc 24 c7 c3 3e c7 89 04 be
       -0.29449317 -0.026932457 0.3823787 -0.12943183
0000a0 0b ff 51 3d e6 ac c3 3d 77 7e f9 3e 79 d8 f1 3e
       0.05126862 0.09554462 0.48729298 0.47235468
0000b0 69 73 2b be fd a2 cf 3e 3d 47 5a be 2c de 8e 3c
       -0.16743244 0.40554038 -0.21316238 0.017439924
0000c0 00 8a 89 3e 82 b7 dd 3d cc 59 77 bd 47 5b e2 bd
       0.26863098 0.10826017 -0.06038837 -0.11052566
0000d0 bb 9a 08 3e ad a5 c9 be f7 7f 23 bf 73 88 3e be
       0.13340275 -0.39384213 -0.63867134 -0.18606739
0000e0 af 9d de 3e ff 67 11 3f 68 c6 1d be 21 72 fd 3e
       0.43479678 0.5679931 -0.15407717 0.49501136
0000f0 5a f5 97 be f4 3b 82 be 78 bc 09 3f 93 20 c8 3e
       -0.29679376 -0.25436366 0.53803205 0.39087352

critic.2.weight f4 [64, 64]
000000 0e 85 d5 be 0e fe 55 3c f6 6f 19 3f c6 31 55 3f
       -0.41703075 0.01306106 0.59936464 0.83279073
000010 22 4d 6c be 1f 88 19 3f 99 99 30 bf 3f 6e f2 3e
       -0.23076299 0.5997333 -0.6898437 0.47349736
000020 9a fa b4 3d 16 6d 46 3f 65 3b 8f be 35 0b 0b bf
       0.08836861 0.775102 -0.27975002 -0.54313976
000030 68 8f ed be 68 bc 5a 3e 37 be 21 3f 81 a6 a6 3e
       -0.46398473 0.21360934 0.6318087 0.32548907
000040 34 77 c5 3e 83 39 b7 bc af 9f 5e bd ec 1c 6c be
       0.38567507 -0.02236629 -0.054351505 -0.23057908
000050 5c 27 9b be 51 52 ae be f2 11 a2 be 18 3b 74 3e
       -0.30303466 -0.34047177 -0.31654316 0.23850667
000060 9e 2e 8c 3e 20 71 f0 be 09 11 cb be c3 fb e5 3e
       0.27379316 -0.46961308 -0.39661434 0.4491864
000070 40 90 c9 3e 55 76 ec 3e e1 69 3d 3e 8f 46 9c be
       0.39367867 0.4618403 0.18497421 -0.30522582
000080 31 22 69 3e ce c0 21 bf 3e e8 be bd 14 4f 11 bd
       0.22766949 -0.6318482 -0.093216404 -0.035475805
000090 3f 12 d7 3e 5d b6 c8 3e 8c e0 40 3f 96 73 e2 3e
       0.42006108 0.39201632 0.7534263 0.4422881
0000a0 1b 30 71 3e 44 8b 14 3f 5c f6 0b 3e 73 53 7a 3e
       0.23553507 0.58025 0.13668197 0.24445896
0000b0 dd ac fc be a1 ff bf 3e 41 ae 4e 3c ea 29 1e bf
       -0.49350634 0.37499717 0.012614788 -0.61782706
0000c0 15 c6 a9 be 96 31 18 3e 25 3c 45 3f 7c 61 24 be
       -0.33158937 0.14862666 0.770449 -0.16052812
0000d0 f7 05 87 bd f4 96 34 be 28 b6 51 bd b9 fa b3 3e
       -0.065929346 -0.17635709 -0.05119911 0.35152224
0000e0 64 d5 28 3d 69 99 ae 3e 04 28 90 3e c0 e1 09 3f
       0.04121913 0.34101418 0.2815553 0.5386009
0000f0 7e 95 a0 be fc a8 de 3e cb dc 3d 3e d1 b6 88 be
       -0.31364053 0.434883 0.18541257 -0.26701978
000100 73 f8 43 be 0f 40 6d bf 56 ad 13 bf 59 fe 7f bf
       -0.19137745 -0.9267587 -0.57686365 -0.9999748
000110 ff de 69 3e 8e f2 9a 3e ec 5d 8a 3d 17 19 36 be
       0.22838973 0.3026318 0.067561954 -0.17783009
000120 27 5a b6 bb 0f 85 14 3e 57 41 21 bd 62 da 3f bf
       -0.005564946 0.14503883 -0.039368954 -0.749426
000130 ea 02 8d 3d 5d cc b4 bd b8 18 01 bf 71 37 ae 3e
       0.068853214 -0.08828042 -0.5042834 0.34026673
000140 1c f8 e5 be 34 73 41 be 5e 40 7f bd 4d 9a bd 3c
       -0.44915855 -0.18891603 -0.062317245 0.023144865
000150 bd 52 c5 be 2b 63 2b bd 69 4a 5d 3e 03 23 e2 3c
       -0.38539687 -0.04184262 0.21610416 0.027604586
000160 54 ab 35 3f 88 9f b0 3e 9c c5 6c bf e7 00 75 3d
       0.7096455 0.34496713 -0.9248903 0.059815314
000170 f5 4b 1f 3e 52 cc 65 be 54 d1 1c 3f e8 94 76 be
       0.15556319 -0.22441223 0.6125691 -0.2408024
000180 d4 9a fe be 9d 47 c7 be 75 cb 10 be 13 31 c5 bd
       -0.497275 -0.38921824 -0.14140113 -0.09628501
000190 cd 50 88 be d1 69 8b 3d f5 02 25 3f 61 17 30 bf
       -0.26624146 0.06807292 0.6445764 -0.68785673
0001a0 44 74 27 be 16 2c 60 3e 56 fa 6b 3f 9c 8d ea be
       -0.16352946 0.21891817 0.9217886 -0.45811164
0001b0 38 3c 3e be 08 21 4c 3c 15 d3 1e 3d 66 38 11 3f
       -0.18577659 0.012459047 0.038775522 0.5672668
0001c0 ac 43 7d be 91 58 11 38 b0 e6 ca bc bd ec 8d 3e
       -0.24732846 3.4653178e-05 -0.024768203 0.2771968
0001d0 a4 dd de 3e 69 be 60 bf e4 d5 a3 bd 9c 54 95 3d
       0.43528473 -0.8779054 -0.07999781 0.072915286
0001e0 d2 35 72 3d f2 7e 6b be 2a 99 84 3e ba bf 06 bf
       0.05913336 -0.22997645 0.25898105 -0.526363
0001f0 dd 4a 33 3f aa be 21 3e df e7 3d bf dd dc f5 be
       0.7003611 0.15795389 -0.7418193 -0.48020068
000200 69 39 2a 3f 6b d3 f5 3e 77 5d 08 3e 9b 5d 83 be
       0.6649385 0.48012862 0.13316904 -0.25657353
000210 4b 22 7c be 85 e8 da 3e 20 81 61 3d 82 74 a0 3e
       -0.24622457 0.42755523 0.055054784 0.31338888
000220 b7 ed 9c bd 89 11 d4 3d 4d 67 98 bd 57 45 28 be
       -0.07662528 0.10354907 -0.07441578 -0.16432701
000230 a2 bf 9d bd e9 0e eb be 09 4b 1b be ca 4e 30 3f
       -0.07702567 -0.45909813 -0.15165342 0.6887022
000240 86 10 c0 be 20 14 78 3d 71 5f 18 3e ad 05 0d 3d
       -0.37512606 0.060566068 0.14880158 0.03442924
000250 b9 c3 a1 be 24 a6 bc be 7c 42 20 bf e1 8c 2c bf
       -0.31594637 -0.36845505 -0.6260145 -0.67402464
000260 c1 81 b2 3e 7b 4f 38 bd d8 dd 4a 3f a8 28 9d bb
       0.3486462 -0.044997673 0.79244757 -0.0047961064
000270 fb 81 0c bf be 7e de 3c 20 a3 1f 3f fb c1 ee be
       -0.54885834 0.027160045 0.62358284 -0.4663237
000280 f2 b8 75 be 1d 01 fb bc e1 7b ae 3e 75 5e 9f 3e
       -0.23996332 -0.03064018 0.34078887 0.31126752
000290 ab 4f 5f be cc 66 a7 3e e0 37 bc 3e 7b ae 24 bc
       -0.21807735 0.32695615 0.3676138 -0.010051365
0002a0 e0 1b f1 3d 18 00 18 3e b4 09 1f 3f fc 2c 00 3f
       0.11772895 0.14843786 0.6212418 0.5006864
0002b0 7e ac 01 bf 53 50 12 3e 61 e1 eb be 1d f3 aa bd
       -0.5065383 0.14288454 -0.46070388 -0.083471514
0002c0 d5 c6 2a be 8e 1f 16 bf e0 f5 ba 3d ea 4b 87 3f
       -0.16677411 -0.586419 0.09128928 1.0570042
0002d0 c2 04 cb 3e 1b 1a 60 bf 7d 6d 94 be 2d 76 80 3e
       0.39652067 -0.87539834 -0.28989783 0.2509016
0002e0 d5 e1 a8 bd 7e c1 71 bd 94 43 28 3e 39 98 10 3f
       -0.08246199 -0.05902242 0.16432029 0.56482273
0002f0 2c 89 a3 3e 23 bc a7 3e 0c 45 03 3f b8 75 fd be
       0.3194059 0.32760724 0.5127723 -0.49503875
000300 17 1a d7 3c 82 ba 11 bf 23 1f af 3d 09 2e d6 be
       0.026257558 -0.56925213 0.08550861 -0.41831997
000310 b1 f2 93 bf 71 b4 70 3f a9 71 44 3d 03 6f 38 3e
       -1.1558439 0.9402533 0.047959957 0.18011098
000320 62 e7 91 be f6 c9 e4 be d4 a3 4d 3e 0c 4f e8 be
       -0.28496844 -0.44685334 0.20082027 -0.45372808
000330 b2 90 a4 3e 4a ee f5 3d 02 81 46 3e 9c 4c d9 3e
       0.32141644 0.12008341 0.1938515 0.4244126
000340 a3 83 8d bd ea d2 4c bf 49 0f 7f 3d bf 2e ba bd
       -0.06909873 -0.8000933 0.062270436 -0.09090947
000350 52 8a 36 be 3e 7c 03 3e 42 7f 88 bf 26 53 11 bf
       -0.17826203 0.12840363 -1.0663836 -0.567675
000360 a2 af 39 3f fd cc e3 be 9d d8 ed 3c 4f e7 1f 3d
       0.7253362 -0.4449233 0.029033953 0.039038952
000370 07 ef 3c 3e d0 6e 92 be d8 48 a9 3f 07 a4 f0 bc
       0.18450557 -0.28600168 1.3225355 -0.02937509
000380 53 31 ea be 43 02 52 bd 98 2d f6 3e 60 9a d3 3d
       -0.45740756 -0.05127169 0.4808166 0.10332179
000390 d2 ad 0a bf 5c 80 da 3d bb 09 46 3e 75 b3 fa 3d
       -0.5417148 0.10669014 0.1933965 0.1224126
0003a0 4e 3b 19 3f 0d c0 b2 3d b4 f5 a5 3e 85 83 82 3f
       0.59856117 0.08728037 0.3241402 1.0196387
0003b0 06 7d a6 be ec 7c 4f 3e 08 39 b4 3d 0c d8 05 3e
       -0.3251726 0.20262498 0.0879994 0.13070697
0003c0 86 a7 e2 bb 01 bb bc be 0b f2 45 be 28 e4 0a 3f
       -0.006916943 -0.36861423 -0.19330613 0.5425439
0003d0 86 36 13 3f b6 a7 9b bf 1b a1 7a bf 8a e8 d1 3b
       0.5750507 -1.2160556 -0.9790208 0.0064058946
0003e0 a0 73 aa bd 18 a6 b3 3d da 0d 2a be cf 11 b0 3f
       -0.08322835 0.08771914 -0.16606846 1.3755435
0003f0 59 80 a8 3e cd a1 89 3d 61 cc 74 3f f6 6e 6b be
       0.32910421 0.06720314 0.9562436 -0.22991547

critic.2.bias f4 [64]
000000 03 12 c2 3c 13 18 78 3c 77 f1 e4 be 40 e4 f0 bd
       0.02369023 0.0151424585 -0.44715473 -0.11762285
000010 44 47 86 3b e4 d9 fa bd 5e 69 70 bd f2 39 1a 3f
       0.004097851 -0.122485906 -0.058694236 0.6024467
000020 6e 10 68 be 8b 2a d4 3d a7 61 4e be 38 d2 f8 3d
       -0.22662517 0.10359677 -0.20154439 0.12149471
000030 69 32 25 3e 98 ec 45 3e fe 92 d7 be 84 3c 4e bd
       0.16132511 0.19328535 -0.42104334 -0.05035068
000040 74 1d 2d 3e 24 ce 1e 3e c7 6a d4 3e c8 9a 2c 3e
       0.16905767 0.15508324 0.41487715 0.1685592
000050 91 db 47 bc 98 1f f7 3e 71 b6 22 be 71 6f f5 3c
       -0.012198345 0.48266292 -0.15889908 0.029960366
000060 86 b3 b9 3e a9 a2 b2 3c ef 69 a2 be 8f 3b 10 3f
       0.36269778 0.021806078 -0.31721446 0.5634088
000070 2c c5 ea 3d 95 ed 96 3d 3c 3f 1a bf 2e 5e a4 3e
       0.11463389 0.07369534 -0.6025274 0.32103103
000080 fe 60 98 be 81 ec 19 3f ca 5a 4c bd 94 90 18 3e
       -0.297615 0.601265 -0.04989127 0.14898902
000090 9b 44 a0 be 0e dd c6 3c af a5 cb bd a9 2c c9 3e
       -0.31302342 0.024275329 -0.09943711 0.39291885
0000a0 8f 0b 83 be 45 07 b9 3e 7e 2e b7 bd 93 f6 1f bf
       -0.25594756 0.3613836 -0.089444146 -0.6248562
0000b0 4a d2 0c 3e 6e 54 bf bc 93 2c 8c be 7d e7 5b 3e
       0.13752094 -0.023355689 -0.27377757 0.21475025
0000c0 cc 89 ae bd ce 76 1f be 9f d2 37 bd 88 13 4e 3d
       -0.085223764 -0.15572664 -0.0448786 0.050311595
0000d0 cd ce be bc 94 cd c2 3d 6b c9 19 bf 0c 92 02 be
       -0.02329197 0.09511867 -0.60072964 -0.12751025
0000e0 68 49 05 be 9d af 40 3f 45 82 c1 be 7a 07 71 3c
       -0.13016284 0.75267965 -0.377947 0.014711255
0000f0 81 56 6e 3e 13 11 86 be 4b f7 29 be 26 51 1a 3e
       0.23275186 -0.26184902 -0.16598241 0.15070018

critic.4.weight f4 [1, 64]
000000 d4 b8 51 40 68 45 8b be 90 4d e1 be b4 42 86 bf
       3.276906 -0.2720139 -0.44004488 -1.0489106
000010 34 1f 46 3f 98 f5 3c 3f 01 9a 43 bf b5 ae 2c bf
       0.7739136 0.73812246 -0.76406866 -0.6745408
000020 08 cf 54 3e ef de 1b 3f 8c d6 25 bf 0a 07 84 bf
       0.20782101 0.60887045 -0.647805 -1.0314648
000030 85 49 60 3f cc 43 2c 3f 76 a9 b3 be f6 56 12 3f
       0.8761218 0.6729095 -0.35090226 0.5716394
000040 ba 57 05 3f e9 70 43 bf d8 1a 4a c0 fd 44 e5 3e
       0.52086985 -0.7634416 -3.1578884 0.44779196
000050 79 75 04 3f 69 1c 35 3f e2 fd 79 3f 5f b3 3a 3f
       0.5174175 0.70746475 0.9765302 0.7292995
000060 20 4a 81 3f 06 56 93 3e 48 a1 58 be 0d ed 72 3f
       1.0100746 0.28776568 -0.21155274 0.9489296
000070 70 7e 55 3f 52 f4 27 3f 06 e6 45 3f 26 7d 3f 3f
       0.83396053 0.6560718 0.7730411 0.74800336
000080 00 fb 99 3f 1d 39 6f 3f ae ac 23 bf 5b 3b 5f 3f
       1.2029724 0.9344652 -0.63935363 0.87199944
000090 38 f8 b3 3e 76 b9 b5 3e 2f 25 29 c0 61 b0 d4 be
       0.35150313 0.35493058 -2.6428945 -0.41540816
0000a0 63 6c b2 3e 0f 0a de 3e a6 07 2b bf 6b f5 2b 3f
       0.34848318 0.4336705 -0.66808546 0.67171353
0000b0 f4 33 49 3f 61 1a d9 be ea 73 6c be 6d b1 d7 be
       0.785949 -0.42402938 -0.23091093 -0.42127553
0000c0 fa 95 f9 be 94 33 c3 3e 79 ae 24 3f 79 6c ca be
       -0.48747236 0.38125288 0.64328724 -0.39535883
0000d0 ac 7a 19 bf 2d c2 5b 3f 83 96 56 3f 0a b2 40 bf
       -0.5995281 0.85843164 0.8382341 -0.75271666
0000e0 7f 5a 9d 3e 41 a8 47 3f b2 53 77 bf 91 26 2c 3f
       0.30733106 0.7799111 -0.96612084 0.6724635
0000f0 11 4d ba 3e aa a9 25 3f d4 79 26 3f e3 eb e0 3e
       0.36386922 0.6471201 0.65029645 0.43929967

actor.0.weight f4 [64, 12]
000000 eb f2 6f be 78 be 83 3e fa b2 9f 3c 6d 59 6d bd
       -0.2343251 0.25731254 0.019494522 -0.05794661
000010 10 36 7b be 77 cf b6 bd db c0 9b 3e 64 06 6a be
       -0.24532342 -0.089262895 0.30420575 -0.22854
000020 3d c9 c4 bd 4d ca 6d 3e be 0a 8e bd 87 48 40 be
       -0.09608696 0.23221703 -0.06935643 -0.18777667
000030 96 fd 23 be a6 84 30 3e 9a 95 71 be fa 1d b0 bd
       -0.16014704 0.17238101 -0.23592225 -0.085994676
000040 d3 5d c7 bd 32 e0 1d be 9e 8d f1 bd bc b3 bb 3d
       -0.097346924 -0.15417555 -0.117945895 0.09165141
000050 26 66 0b bd d9 ee 29 3d a8 53 32 3e 42 d1 29 bd
       -0.034032963 0.04148755 0.17414725 -0.04145933
000060 0a 5d 85 3d 1c ed 16 3e af 91 6e be fe b8 98 3e
       0.065118864 0.14738888 -0.23297761 0.29828638
000070 26 09 6f 3e 5d 6f 8e 3d f3 5c a2 3d ed 6b d3 bd
       0.23343334 0.069548346 0.07927885 -0.103233196
000080 24 ee c2 3d e4 f0 8e be 1d e3 e8 3d 4d 9f 22 3c
       0.09518078 -0.2791816 0.113714434 0.009925676
000090 2b 25 61 3e d6 99 0e 3e 17 7e 8a 3c a5 ab c3 bd
       0.21986835 0.13925871 0.016905827 -0.09554223
0000a0 95 c9 0e be ac aa c8 bd 09 cf 95 be 87 e0 4a be
       -0.13944085 -0.09798178 -0.29259518 -0.19812213
0000b0 f9 48 95 bd 50 8b a5 bd 8b 4f 59 3e 93 9d 13 be
       -0.07289309 -0.080832124 0.2122175 -0.14415579
0000c0 bd 99 0f 3e 92 66 4c 3e 75 79 b7 be 8a 06 8b 3d
       0.1402349 0.19961002 -0.35834852 0.067883566
0000d0 0c 57 c9 bd 41 2c d0 3e 2b 03 00 3e ce 13 5e 3d
       -0.09831056 0.40658763 0.12501208 0.054218106
0000e0 72 05 58 be b8 7c 41 3e d8 b9 b3 3d 3f 1e 0e bd
       -0.21095827 0.18895233 0.08775681 -0.034696814
0000f0 da a3 93 3d 4e c9 4c be 3e 5d bd bd 57 7b aa 3c
       0.072089866 -0.19998667 -0.092463 0.020810766
000100 4f 9e 3d 3e 4e cc 60 be 5a 15 98 bc 21 16 c4 bd
       0.18517421 -0.21952936 -0.018564869 -0.09574533
000110 d9 c0 35 bc 7c f6 a4 3d 96 d8 f6 3d bf 39 2c 3e
       -0.011093342 0.08054826 0.12053029 0.16818903
000120 ef 21 07 bd f6 33 a7 be bc e9 17 3e 58 71 9b 3d
       -0.032991346 -0.3265683 0.14835256 0.07589978
000130 9f 29 08 be 99 62 89 be 2a a6 93 bd f5 8f c2 3d
       -0.13297127 -0.26833037 -0.07209428 0.09500114
000140 0b de 06 be 08 88 7a 3e 2e 52 2c 3d 55 3b d5 3d
       -0.1317064 0.24465954 0.04207056 0.10411707
000150 4b 39 8f 3d 25 c1 46 3e a4 9c a5 3c e0 dd 50 be
       0.0699335 0.19409616 0.020216294 -0.20397139
000160 50 c0 58 3e 23 fe 13 3e e1 52 4d 3e 9d 8d 49 3e
       0.21167111 0.14452414 0.20051147 0.19682927
000170 43 91 81 3e 63 d1 46 3e dd a0 cb bd cf 2f 00 be
       0.25306138 0.19415812 -0.099427916 -0.12518238
000180 33 6d 93 3d 46 58 ba be e5 aa ef 3c 2b 22 05 3e
       0.071985625 -0.36395472 0.029256294 0.13001315
000190 c9 71 87 3e 75 ee 6a 3e 5c 5f a3 be 27 df 55 3e
       0.26454 0.22942527 -0.3190869 0.20885907
0001a0 c3 d9 61 be c7 8d aa be f0 c8 b0 ba e9 3c 8d bd
       -0.22055726 -0.33311293 -0.0013487618 -0.06896383
0001b0 21 ba 86 3d 9f 55 71 3e 4c 3a 57 3e 1c f5 95 bb
       0.0657847 0.23567818 0.21018332 -0.0045763385
0001c0 8f a3 1d 3e 90 84 f2 3d d2 2e 82 be 3d fb 90 bc
       0.15394424 0.118416905 -0.25426346 -0.017697925
0001d0 cd c0 96 3e d3 96 71 bd c9 d7 38 3e bc cb 93 be
       0.2944397 -0.058981728 0.18051066 -0.28866374
0001e0 73 d5 9e be b7 7e 1b 3e 35 bc 81 be 0b 47 52 bb
       -0.31022224 0.15185057 -0.25338903 -0.0032085802
0001f0 e4 4b 79 be 1b 65 58 be 7c 65 04 3e ff 04 b3 bd
       -0.24345356 -0.21132319 0.12929338 -0.08741187
000200 80 54 73 3e 0c ed 9b 3e 65 33 d4 bd 65 6e 4b be
       0.23762703 0.3045429 -0.10361365 -0.19866331
000210 73 89 ee bd 4a e1 be 3c 5c 23 72 3e af 6f 3f be
       -0.1164731 0.023300786 0.23646301 -0.18694948
000220 12 f8 44 3c d7 9a 99 be 94 cc 45 bd 7c cc dd bd
       0.012022035 -0.30000946 -0.048290804 -0.10830018
000230 ae 1a 22 be 5f b1 94 3e 8d c8 29 3e b6 ea 1a 3e
       -0.1583049 0.29041573 0.1658041 0.15128598
000240 52 a4 b7 be d7 bc 48 3e d5 03 27 3e e3 43 35 3e
       -0.35867554 0.19603287 0.16310056 0.17701678
000250 2f 3b b6 3e af fe 4b 3e 62 8e bb bc 6e 40 04 be
       0.35592028 0.19921373 -0.022895042 -0.12915203
000260 dc 19 5d 3e 2f 81 7b 3d 94 ed 09 3d b8 85 6f be
       0.21591896 0.061402496 0.033673838 -0.23390853
000270 18 91 df 3d 57 6d 21 3e 32 84 aa bd ba 46 58 3e
       0.10916346 0.15764366 -0.083259955 0.2112073
000280 c3 4c ec 3d 74 1c 81 3e c7 90 8b 3e 8e b5 23 be
       0.11538079 0.2521702 0.27258894 -0.15987226
000290 30 a8 9b 3b 8b 2b 4c 3d 4b 69 0d be a8 ec f7 3c
       0.004750274 0.049846213 -0.13809697 0.030264214
0002a0 e5 1e 80 3e 80 2a 2c 3e 78 38 fa bd bd be e5 ba
       0.2502357 0.16813087 -0.12217802 -0.0017528158
0002b0 a5 27 6d 3d 7f ee dc bd 0d 8b 48 be 65 4f d9 3d
       0.057899136 -0.10787677 -0.19584294 0.106108464
0002c0 61 99 a0 3e c3 42 74 be 31 cf 15 3e 0f 8d be be
       0.3136702 -0.23853593 0.14629818 -0.37216994
0002d0 4f f5 17 be 12 07 b1 bd f0 48 db 3d 5f 63 35 3c
       -0.14839672 -0.08643927 0.10707271 0.011071055
0002e0 82 f3 a1 3e f9 f8 78 3e a8 f5 a5 bc 70 80 86 bc
       0.31631094 0.24313726 -0.02025874 -0.016418666
0002f0 32 2d 3d 3d 13 94 29 3e 8c a7 1c 3e 53 7c 79 3e
       0.04618568 0.16560392 0.15298289 0.24363832
000300 28 1a e2 bb b4 66 4a be 60 aa 29 3c 9e 40 a1 3e
       -0.0069000907 -0.1976574 0.010355562 0.31494612
000310 c6 56 2d 3d e6 02 4f 3e 52 c7 80 bd 88 1a 43 be
       0.04231908 0.2021595 -0.06288017 -0.1905309
000320 cc ff bf 3d 8a 16 ac be 23 81 1e be 10 41 bb 3e
       0.09374961 -0.33610946 -0.15478949 0.36573076
000330 28 a5 e8 3d a0 34 74 3e 12 1f b7 bd 4b 2b fc 3d
       0.11359626 0.238482 -0.08941473 0.12312945
000340 87 99 90 bc 3b 8a 1c 3e 78 22 07 3c 70 fd d3 3d
       -0.017651333 0.15287106 0.008247964 0.10351074
000350 db 53 47 3d f3 eb cd 3e d6 05 a6 3c d0 8a 2f 3d
       0.048663955 0.40219077 0.020266455 0.04285699
000360 75 65 f5 3d c7 8a 16 3e 0c b8 66 3c 34 8b 02 bc
       0.11982242 0.14701377 0.014081966 -0.007967759
000370 c9 3b 9d 3e 26 e4 5e be a2 f2 02 bd e1 40 17 3e
       0.30709675 -0.21766719 -0.031969674 0.14770843
000380 db c6 29 3e f0 f4 8e 3d 7c 92 29 be 53 5c 6f be
       0.16579764 0.06980312 -0.16559786 -0.23375063
000390 fa 0b db 3d 8d a0 ce 3e 16 bb b9 3d 2f 75 62 3e
       0.10695644 0.40356866 0.09068887 0.22115014
0003a0 15 93 23 be 34 a1 b3 bd be 1a 52 bd 9b 4e 14 be
       -0.15974076 -0.087709814 -0.051295035 -0.1448311
0003b0 53 da 2d 3e c1 24 41 3e 56 81 64 be e4 0f 92 be
       0.16977815 0.18861677 -0.22314963 -0.2852775
0003c0 4f 3e 49 be 6f 35 a3 be ce dd ef bd 79 90 ec 3c
       -0.19652675 -0.31876704 -0.11712228 0.028877484
0003d0 95 70 35 3e 6c c5 92 be 55 18 61 3d 77 e7 73 3e
       0.17718728 -0.28666246 0.054954845 0.23818766
0003e0 d8 b6 10 be 04 91 2d bd 0a 54 74 bc b4 f2 f9 3d
       -0.1413225 -0.042374626 -0.014912615 0.12204495
0003f0 da bb cc b9 29 47 11 3e 6a 7f df bd db 8e b3 bd
       -0.00039049872 0.14187302 -0.10912974 -0.08767482

actor.0.bias f4 [64]
000000 6c 7e 4f 3e 24 5d b3 be bf 2c ed bd ae 98 81 be
       0.2026307 -0.35031998 -0.115808 -0.25311798
000010 14 d3 d0 3d 1a ba 2e be cd ea 74 3e 40 ef 22 3e
       0.1019651 -0.1706318 0.23917694 0.15911579
000020 6f 03 62 bd c5 52 0a be f6 4d 14 be 80 de 9d bd
       -0.055179056 -0.13508137 -0.14482865 -0.07708454
000030 17 ba 10 be 98 b6 3b 3e 3c a0 26 be b5 d2 3f bd
       -0.14133488 0.18331373 -0.16272062 -0.046831805
000040 28 cd 0a be 23 c5 a3 3e 00 a3 2d 3e da 93 6c 3e
       -0.13554823 0.3198634 0.16956711 0.23103276
000050 c5 72 07 3e ac b5 0b 3e 23 85 8c be bc 2e 4b 3c
       0.13227375 0.13643521 -0.27445325 0.012401279
000060 e3 4f 5f 3d df 14 80 be 31 5f 25 bd fa 64 bb bd
       0.054519545 -0.25015923 -0.040373985 -0.09150119
000070 ec c8 b6 bd d7 f9 a2 bd 5d dc b7 bd dd 12 3e be
       -0.089250416 -0.079578094 -0.08977578 -0.18561883
000080 f2 59 ab be 36 c3 31 be b0 1e 8f 3e 70 a9 ad be
       -0.3346706 -0.17359623 0.279531 -0.33918333
000090 90 86 05 be 9f 0d b4 bd f0 2f 18 be 25 a5 ca 3d
       -0.13039613 -0.087916605 -0.14862037 0.0989478
0000a0 8e 19 39 3d bd b2 b6 3d 64 8f df bd 8d 8c 91 bd
       0.045190386 0.0892081 -0.109160215 -0.07106886
0000b0 0f 8b 31 be b0 da 1b be b3 98 52 be 8d d3 31 3d
       -0.17338203 -0.15220141 -0.20566063 0.04341464
0000c0 08 41 47 3e 03 1c 29 be 21 33 b0 3d 28 ca 3b 3e
       0.19458401 -0.16514592 0.08603502 0.18338835
0000d0 a1 94 38 be 3f d5 cd bd 8e 2c 3b 3c 6e 5f 15 bd
       -0.18025447 -0.10050439 0.011424197 -0.036467962
0000e0 44 7b af 3e fe 58 f4 3c 77 36 d4 3c 53 0d bb bd
       0.34273732 0.029827591 0.025904877 -0.09133401
0000f0 61 03 d8 3d a7 ba 2b be b6 97 19 3e ae f8 a0 3d
       0.105475195 -0.16770421 0.1499928 0.07859932

actor.2.weight f4 [64, 64]
000000 2a 1e 96 bd 28 9e 0f bd 1d 48 cd bd 19 20 17 3d
       -0.07329972 -0.03506294 -0.1002352 0.036895845
000010 d7 46 8d 3d 67 d9 00 3e 7e 60 0c 3d 16 48 12 be
       0.06898277 0.12582932 0.03427171 -0.14285311
000020 e6 4b b6 3d 92 6a 22 bd 72 c3 b7 3c 13 fa 49 3e
       0.08901195 -0.039652415 0.022432063 0.19724302
000030 ef a5 03 be 86 e1 c0 bd 01 39 c7 3d 7b 6f 10 bd
       -0.12856267 -0.09418015 0.097276695 -0.035262566
000040 53 89 e6 3d ae ca 9e 3a ef 6b 25 be c5 63 1b be
       0.11256661 0.0012114847 -0.16154455 -0.15174778
000050 a1 fa 8c 3d c9 14 d3 bc 54 98 85 3c fb be 50 ba
       0.06883741 -0.025766747 0.016307987 -0.00079630286
000060 37 01 03 be 3b 0c 85 3c d8 22 af bc a7 1e ba 3d
       -0.12793432 0.016241184 -0.02137892 0.09087878
000070 b4 9d a3 3d 5e 74 02 3c e4 5e af 3d 16 6b 2b bd
       0.07989064 0.007962314 0.08563021 -0.041850172
000080 29 50 03 3e ec ec a4 3d ec bd 61 bd 0b 4a 61 3e
       0.12823547 0.08053002 -0.055112764 0.22000901
000090 21 31 2b 3e 92 9b 9b bc 42 ca 13 3e 3d 0f a8 3d
       0.1671796 -0.01899508 0.14432624 0.082060315
0000a0 35 9c 00 be ab 5f a1 bd c1 7e 75 bb 91 b8 a8 3d
       -0.12559588 -0.07879575 -0.0037459584 0.08238328
0000b0 7e cb a3 bd 8d de 03 bb d1 fd 83 3d 65 52 8c 3d
       -0.079977974 -0.0020121664 0.06444896 0.06851653
0000c0 e7 28 32 3e a3 c0 de 3d e1 57 10 bd 9e 35 be 3c
       0.17398416 0.10876586 -0.035240058 0.023218926
0000d0 80 b9 0d be 0c f9 0c 3e 1b 01 22 be fd 0f b9 bb
       -0.13840294 0.13766879 -0.15820734 -0.005647658
0000e0 65 ae 4b bd 76 cf cc 3c b8 82 bb bd ee 1c cd bc
       -0.049726862 0.025001269 -0.09155792 -0.025038209
0000f0 82 03 ee bd 02 d7 b3 3d 77 f1 fa 3d 41 8c 0b be
       -0.11621763 0.08781244 0.12253087 -0.13627721
000100 6d 57 cf 3d 7a aa a6 bc 05 39 f0 bc 84 a0 5e 3d
       0.10124097 -0.020344961 -0.029324064 0.0543523
000110 bd c3 f1 3d fb 71 fe bd 67 f9 0f bd 0e 40 2e bd
       0.11804912 -0.12424084 -0.035149958 -0.042541556
000120 95 0c 72 3d 4b 85 99 bd 5d 39 fd 3d 17 d2 5a 3d
       0.05909403 -0.07496127 0.12364457 0.053423014
000130 65 36 cb bb cf 23 8f bd b6 57 94 3d 09 6f 90 bd
       -0.0062015527 -0.06989252 0.07243292 -0.07052428
000140 1d 09 76 bd d3 de 62 bc 69 34 cf 3a 6d d2 1f 3e
       -0.060067285 -0.013847071 0.0015808466 0.15607615
000150 67 43 a2 3d 5b f5 a6 bd 39 45 22 be f0 73 70 bc
       0.07923012 -0.081522666 -0.15846719 -0.014676079
000160 09 20 09 bc c5 89 3c 3d 52 9b 09 3e 55 88 f7 3d
       -0.008369454 0.046029825 0.13438156 0.1208655
000170 d2 ee 82 bd 08 cb 68 bc 25 31 b6 bb 79 f2 c6 bd
       -0.063932076 -0.014208563 -0.0055600577 -0.09714217
000180 ce 74 2e bd 2d 70 5c 3c 52 92 bb bd c7 95 45 3d
       -0.042591862 0.013454479 -0.09158768 0.048238542
000190 14 51 b2 bc 21 83 01 3c a1 d5 85 3d 3b 80 d3 bd
       -0.021767177 0.007904799 0.06534887 -0.103271924
0001a0 98 1b aa 3d fc b5 d4 3d 6d a9 f4 3d cf ba a9 bc
       0.08306044 0.10386273 0.11946378 -0.02071896
0001b0 42 eb a6 bc cb 33 54 bd 65 30 b6 3c 9b 6d 2e 3d
       -0.020375852 -0.051807206 0.022239873 0.042584997
0001c0 59 ba 2f bd 81 ec 0e 3d 70 ad 0d 3e 78 fb 18 be
       -0.042902324 0.034893516 0.13835692 -0.14939678
0001d0 df 22 9e 3d 14 df 14 bc 10 0f a5 3d 5a 8b bb bd
       0.07721495 -0.009086389 0.080595136 -0.091574386
0001e0 ca 50 b0 3d 63 7e 20 3e d8 a3 dc 3d 11 b0 ec bd
       0.08609159 0.15673213 0.10773438 -0.115570195
0001f0 0d 77 79 3d 83 93 8b bd 4a 84 58 ba ab 38 f8 3d
       0.06090455 -0.06815245 -0.00082594587 0.121201836
000200 86 51 ee 3c 61 34 54 bd e9 93 15 bd 48 5c 01 be
       0.029091608 -0.051807765 -0.03651801 -0.12632859
000210 8a 57 cc 3d 30 84 b6 bd ba e7 8b 3d 9d e8 74 3d
       0.09977634 -0.089119315 0.06831308 0.05979215
000220 70 d9 40 3d e2 71 38 3d dd 73 ce 3d 88 79 72 3d
       0.047082365 0.045030482 0.10080693 0.059197932
000230 d8 bb ef bc 3e 67 22 bd f1 f0 e4 3a b9 30 d9 3c
       -0.029264376 -0.03964924 0.0017466826 0.02651249
000240 84 71 f8 bc 4f c6 20 bd 9a 46 78 3d e5 39 31 3e
       -0.030327566 -0.03925162 0.060614206 0.17307241
000250 fc c2 dc bd ad 60 b9 3c 12 93 47 3d 06 20 d2 bd
       -0.10779378 0.022629106 0.04872424 -0.10260014
000260 08 8f 8b bd f5 7f be 3d eb 32 a1 3d 2b 24 d8 3d
       -0.068143904 0.093017496 0.0787104 0.105537735
000270 e6 b2 0a 3e 3c 65 f1 3d 74 94 c4 bd 15 1a 13 bc
       0.13544807 0.11786887 -0.09598628 -0.008978386
000280 64 31 0d 3c 60 28 b2 3c d3 e3 c7 bc eb 5b 15 3d
       0.008617733 0.021747768 -0.024400627 0.036464613
000290 56 d5 17 be 68 76 10 3e ac 5a 19 3e cb 5f 49 3d
       -0.14827475 0.14107668 0.14975995 0.04916362
0002a0 53 c5 a8 3d 33 d1 27 bd fe 2f a7 bc a0 9b 4b 3d
       0.082407616 -0.040970992 -0.020408627 0.049708962
0002b0 a4 9d a7 bd 51 aa 00 bd 13 c9 92 3d f9 f7 90 3d
       -0.081843644 -0.031412426 0.07167258 0.07078547
0002c0 7c 96 2e 3d ba 85 a2 3d ae 68 ec bd 66 8d d1 3d
       0.04262398 0.079356626 -0.115434036 0.10232048
0002d0 ae 96 d4 3d 39 bd 11 3e eb 63 cd bd 05 f2 c7 3d
       0.10380302 0.14232339 -0.100288235 0.097629584
0002e0 20 52 d1 3d 8e 81 8e 3d 3e cb 10 3e 64 29 cf 3d
       0.10220742 0.06958304 0.1414003 0.101153165
0002f0 23 4f 34 bc 16 58 29 3d 60 7d 0a 3d c8 3f 93 bd
       -0.011005196 0.04134377 0.033810973 -0.071899
000300 c6 7c 03 3d 7f 47 78 bd 0b f6 19 3e 7f 7d 09 be
       0.032101415 -0.06061506 0.15035264 -0.13426779
000310 31 54 ec bd 67 61 39 3d e5 83 0d 3e 36 f8 ee bc
       -0.11539496 0.045258906 0.13819845 -0.02917109
000320 9b c4 5e bd b5 82 bd bd 5b 8e 2c bd e0 46 cf 3d
       -0.054386716 -0.09253446 -0.04212795 0.1012094
000330 1f 00 e6 3d 13 2f cc 3d 7a b7 4d bc 60 69 bf bb
       0.11230492 0.09969916 -0.012555951 -0.005841419
000340 57 56 b3 3c 64 73 3a 3d b4 ca b7 3d 1d 6a 6c bd
       0.021891756 0.0455202 0.089742094 -0.057718385
000350 16 eb 8c bd 7b c9 8c 3d bb 9a a8 bd f1 25 a2 bc
       -0.068807766 0.06874367 -0.082326375 -0.019793482
000360 82 26 2a bd 17 a6 ac bb f7 2e e3 3d 66 d6 96 3d
       -0.04154063 -0.005268823 0.11092942 0.07365112
000370 4f 17 3e 3d ef b9 73 bd 4f 75 4a 3b 7d 3d 0f be
       0.046408948 -0.059503492 0.0030892675 -0.139883
000380 ca 2c da bd 67 c2 93 bd 7e af fb 3d 6d 55 6e 3d
       -0.10653074 -0.07214814 0.12289332 0.058186937
000390 64 e5 14 3d f2 72 78 3d 46 b8 bf bc 13 41 00 be
       0.036351576 0.060656495 -0.023403298 -0.12524824
0003a0 63 f7 19 3d f0 8b 53 bd c8 56 08 bd b0 91 84 3d
       0.037589442 -0.051647127 -0.033285886 0.064731
0003b0 8c 3d 69 bd dc ab 58 bd c2 e1 7f bc 60 a8 6b bd
       -0.05694346 -0.052898273 -0.01561779 -0.05753362
0003c0 55 75 e4 3d 1f 75 1c be 0e b5 86 bd 37 be 77 bd
       0.11155192 -0.15279053 -0.06577502 -0.060484137
0003d0 7f d0 b3 bd d2 ad dd bb 4c 5c 11 bd 92 c9 87 bd
       -0.08780002 -0.0067651058 -0.03548841 -0.06630243
0003e0 5a 13 a1 3d 0b 80 bb 3d 0d 02 7b bd c4 5f 22 3d
       0.07865019 0.09155282 -0.061281253 0.03964211
0003f0 7d da e9 bd 89 fe ce 3d 1f 8a b5 3d 4e b2 89 3d
       -0.114186265 0.101071425 0.08864235 0.06723462

actor.2.bias f4 [64]
000000 81 a4 2d 3c f2 43 1b 3d 99 8f bf 3d e1 d5 f5 3d
       0.010598303 0.037906595 0.09353561 0.12003685
000010 69 ef 4e bd 5a dd 42 bd 24 f3 ea 3d db cc df 3d
       -0.050521288 -0.04757438 0.11472157 0.10927745
000020 bf 5e cf 3c 48 e5 a5 3d 7e c4 d8 3d 5a 36 e6 bd
       0.025313733 0.081003726 0.10584353 -0.112408355
000030 a4 11 c2 3d ab 7c f7 3c 86 bf a1 bd 20 16 a5 bd
       0.09476021 0.030210814 -0.07897858 -0.08060861
000040 b5 7b 41 3d cd a0 e9 3c 46 a4 18 be be 8c 82 3d
       0.047237117 0.028519059 -0.14906415 0.06374501
000050 04 a3 56 3d 82 f4 34 3d 47 e9 51 3d 12 5b 6e 3c
       0.052401558 0.044178493 0.05124786 0.01454808
000060 45 a3 db 3b cb 4d f2 bd f9 ff 13 bd 80 c0 97 3c
       0.006702813 -0.11831244 -0.036132786 0.018524408
000070 71 a8 b1 bd 62 c5 be bd 95 93 9f bb 3f 0d 9c bd
       -0.08674706 -0.093149915 -0.004869888 -0.07619714
000080 05 6e 8f 3d e1 cb 1e 3d 08 d5 4e bd f5 6f 79 bd
       0.070034064 0.038768653 -0.05049613 -0.060897786
000090 db 6a 82 3d dd 58 9a 3d 68 31 40 3d a4 a8 06 bd
       0.06368037 0.075364806 0.046922117 -0.032875672
0000a0 c7 e6 c6 bc e1 a2 9e 3d ed f5 81 3d 78 90 6b 3d
       -0.024279965 0.077459104 0.06345735 0.057510823
0000b0 af 60 75 bd 15 53 84 3d 2f 94 a5 bd 09 22 b0 ba
       -0.059906658 0.06461159 -0.080849044 -0.0013437878
0000c0 27 eb 34 bb f3 53 2c bd fe e2 16 bd 70 30 08 bc
       -0.0027605982 -0.042072248 -0.03683757 -0.00831233
0000d0 e0 1e 23 3d f7 d1 15 bd 2c 28 19 3d c4 d8 07 bd
       0.039824367 -0.03657719 0.037391827 -0.03316571
0000e0 e2 93 f6 bc ea 4d da bb b2 fa 87 3d 4b 78 84 3d
       -0.030099813 -0.00666212 0.06639613 0.064682566
0000f0 ac a9 9a bd 1b 52 59 3d 00 95 09 be 91 3f c2 3c
       -0.075518936 0.053056818 -0.13435745 0.023711951

actor.4.weight f4 [4, 64]
000000 0a 3c 02 bd 4a 2e 51 bd 4c 99 fb 3c cc 57 4a 3d
       -0.03179554 -0.051069535 0.030712746 0.049400136
000010 41 42 de bc 68 3e 22 3d 6f f4 3e bc 3a ba f3 bc
       -0.027131202 0.039610296 -0.011654957 -0.029751886
000020 78 48 41 3b c7 29 24 bd 52 6e cc 3c 8f a8 06 3c
       0.0029492658 -0.040078904 0.024954949 0.008218898
000030 80 2c ef 39 25 12 71 bc ac 48 54 bd 6c 29 df 3c
       0.00045618787 -0.014713799 -0.051827118 0.027241431
000040 98 e1 3c 3b d1 fa e0 ba 1f 0f d9 b9 7e a1 26 bd
       0.0028820988 -0.0017164593 -0.0004140073 -0.040681355
000050 da 7b b7 bd fe 4a ed bd a5 a5 bb 3c 32 cc 28 3d
       -0.0895917 -0.11586569 0.022906134 0.04121036
000060 e8 53 81 bd 9d 87 0e 3d df d3 bf bc 33 fc d4 bc
       -0.06314832 0.0347973 -0.023416458 -0.025999164
000070 77 80 14 3c 70 26 39 3c c8 01 49 bd 49 9b 2b 3c
       0.0090638315 0.011300668 -0.049073964 0.010474035
000080 ef 21 c8 bc de 12 1b bc d0 8d a4 3d 0d 57 42 bc
       -0.024430243 -0.0094649475 0.08034861 -0.011861575
000090 6e 0e 88 3d 01 00 1f 3d 83 38 b9 bc 14 dd ca 3c
       0.06643377 0.038818363 -0.022609955 0.024763621
0000a0 c7 3e 51 3c 3b d0 3b bd ff 62 a8 bd fb 2d ae bc
       0.012771315 -0.04585288 -0.08222007 -0.02126216
0000b0 68 07 f1 3b 18 c6 b9 bc c8 d8 97 3c 61 de b2 bc
       0.007355619 -0.022677466 0.018535987 -0.021834554
0000c0 50 df 49 3d 5d 7e 9a bb 16 92 94 3c c9 54 54 bd
       0.049285233 -0.0047147707 0.018136065 -0.05183867
0000d0 ee 34 4e bd 92 5c 30 bc 7d fe ee 3c d8 27 a5 bc
       -0.050343446 -0.010764258 0.029174084 -0.0201606
0000e0 1f 37 3a bd c4 fe 67 bd 34 ff a7 b9 3c cf 27 3d
       -0.045462724 -0.056639448 -0.00032042863 0.04096912
0000f0 8c 67 66 3b 0d 8b 36 3d ee 69 42 3c ea 8c 1f bd
       0.0035156934 0.044566203 0.011866076 -0.038952745
000100 89 8b 80 bd 3d ec e4 bc 3e 5a 14 3d b4 75 4a 3d
       -0.06276614 -0.027944678 0.036218874 0.049428657
000110 8a d4 69 bc 6c 82 92 3c 5b a1 9a 3c 55 c8 54 bb
       -0.014271865 0.017884456 0.018875768 -0.003246804
000120 4b dc b5 bc 99 6e 9c bc ec ec 13 3d a9 87 4b 3c
       -0.02219977 -0.019095706 0.03611462 0.012422481
000130 22 f2 11 3b 22 29 77 bd e7 29 04 bd 24 9f d1 bc
       0.0022269567 -0.06034196 -0.032266524 -0.02558858
000140 96 8c 19 bd fb 23 6b bc 4f e8 fe bc a3 b6 6d bc
       -0.03748759 -0.01435184 -0.031116633 -0.014508876
000150 89 5a 2e bd a8 07 cf bd ad fe 7a 3c 62 c1 b4 3c
       -0.04256681 -0.10108882 0.0153195085 0.022064868
000160 c4 86 73 bd db 06 00 bb cc 7a 8b bd e8 d9 de bc
       -0.059454694 -0.0019535336 -0.06810531 -0.027203515
000170 c5 38 25 3c b4 ea 0b bd 4b 9e 66 bd cb 5a 5d 3b
       0.010084336 -0.034159377 -0.056303304 0.003377604
000180 da a9 35 bc 44 87 d7 bc de 7c 5a 3d 2b 38 05 3d
       -0.011087859 -0.026309617 0.05334174 0.03252427
000190 77 22 6d 3d dd a2 a8 3c c1 aa 0b bd a2 de a9 3d
       0.057894196 0.020585472 -0.03409839 0.08294417
0001a0 80 b6 01 3c bd d8 ef bc 77 05 ca bd 9e 62 95 3c
       0.007917047 -0.029278154 -0.098643236 0.0182355
0001b0 c4 6e 3f bc d5 5a e3 bb 7f f6 e5 bb f5 4b 2e bd
       -0.011684123 -0.0069383183 -0.00701791 -0.042552907
0001c0 55 02 16 3d 7e 15 da bc b3 c8 9d bc fa cb 1c 3d
       0.036623318 -0.026621576 -0.01926074 0.038280465
0001d0 99 eb 80 bd de 20 2e bc 40 34 0b 3d 6f d4 ad bc
       -0.06294937 -0.010627953 0.033985376 -0.02121946
0001e0 d0 44 42 bc 07 cd f7 bc 3a cc d8 3c db 40 29 3d
       -0.0118572265 -0.030249132 0.02646457 0.041321617
0001f0 2d 53 02 bd b6 e1 86 3d 4d f0 9a bc d8 1d 02 3b
       -0.031817604 0.0658602 -0.018913412 0.0019854214
000200 7d 66 42 bd a1 0d 6b bd a3 8d 16 bb 9c e2 82 3d
       -0.04746102 -0.057386044 -0.0022972606 0.063908786
000210 53 41 18 bd 4c b4 f8 bb f2 5a c8 3d aa d6 df bb
       -0.037171673 -0.0075898524 0.097829714 -0.00683101
000220 ad 76 3d 3c 6e 6a bf bc a8 2d 07 3d 8a 15 4b bc
       0.011563939 -0.02336618 0.033002526 -0.012395272
000230 95 1f bc b9 e2 53 9f 38 c9 9d 88 bd 74 b9 77 bd
       -0.00035881685 7.597335e-05 -0.0667072 -0.060479596
000240 46 44 9f 3c db fb b6 bb 12 7e b0 bc 56 47 5a bd
       0.019441735 -0.0055842227 -0.02154449 -0.053290688
000250 8e 7a 14 3c 58 c0 99 bd 8a 7d dc 3c 38 b8 91 3d
       0.009062422 -0.0750739 0.02691533 0.07115215
000260 a0 5c 9b bd 5c 45 cc 3c b0 a8 ae bd c6 f3 7b bc
       -0.07586026 0.024935417 -0.08528268 -0.015377944
000270 a5 2a 0a 3c 20 43 50 bd a2 fc 60 bd 63 e6 b1 39
       0.008433019 -0.050845265 -0.05492843 0.00033931722
000280 ea 7d 21 bd 4c b0 b0 3b 0d 4e aa 3d 1b b6 ff bc
       -0.03942672 0.00539211 0.08315668 -0.031214764
000290 9f 23 26 3d 7f 18 b4 bc 60 57 24 bc 9b f7 b3 3d
       0.040561315 -0.021984337 -0.010030597 0.08787461
0002a0 5d f2 9d 3c 34 bf b3 bd 13 ea 5b bd de 61 d7 3d
       0.019280607 -0.087767035 -0.053690027 0.105167136
0002b0 f0 29 34 bc 8e dc e5 bc f8 e4 43 3d a2 58 e6 bb
       -0.010996327 -0.02805927 0.047825783 -0.007029609
0002c0 60 86 6c 3d 8a 2a 92 bd 8a 08 2f 3d c6 73 a1 3a
       0.057745337 -0.0713702 0.042732753 0.0012317828
0002d0 85 50 30 bd 26 3a ba 3c eb 2e 3a 3d b4 50 1a bd
       -0.04304554 0.022732805 0.0454549 -0.03767462
0002e0 eb de 94 bc 6a 38 6b bd 46 81 ce 3c 5b 58 5e bb
       -0.018172702 -0.057426848 0.025208127 -0.0033927176
0002f0 88 e5 66 bc 1f 05 e0 3c e0 ad 48 3c 41 02 11 3d
       -0.01409281 0.027346192 0.012248486 0.03540254
000300 8d 05 21 3b f0 84 97 bd 87 5d 76 bc 99 a6 e6 3b
       0.002456996 -0.07398403 -0.015036947 0.007038903
000310 ed b9 a5 3b f1 7f 26 bd cb 9c 92 3d a0 96 8c bc
       0.0050575645 -0.04064936 0.07158812 -0.017161667
000320 6d 66 dc 3b f6 95 bd bd 88 a3 3e 3d 06 f9 99 bc
       0.0067260773 -0.092571184 0.046542674 -0.018795501
000330 02 77 04 bd d7 48 06 bd 95 70 a4 ba ff 86 fb 3c
       -0.032340057 -0.03278431 -0.0012545759 0.03070402
000340 b5 7d 60 bd 2f c9 63 3c 48 8b f6 bc d3 38 bd 3c
       -0.054807384 0.013902946 -0.030095711 0.023098385
000350 83 99 55 3c c6 2d 59 bd 75 f7 1d bd 85 58 a8 3d
       0.013037088 -0.05302217 -0.03856607 0.08220009
000360 a0 70 26 bd cd 78 4a 3d ca 95 4a bd 46 10 00 bd
       -0.04063475 0.04943161 -0.049459256 -0.03126552
000370 3f bb 45 3d 22 b3 b0 bc ec f1 10 3d a7 57 9c bd
       0.048274275 -0.021569792 0.035386965 -0.07633906
000380 02 66 d6 bb 06 f9 7f bd 4f 2c 6c 3d 51 c9 3e 3d
       -0.006542922 -0.062493347 0.057659443 0.04657871
000390 46 91 51 3c 72 25 38 bc cd 82 aa bd 26 81 92 3d
       0.012790984 -0.011239396 -0.083257295 0.07153539
0003a0 e2 0a bc 3c 72 13 c4 bd 04 13 47 bd 81 bd f9 bd
       0.022954408 -0.095740214 -0.04860212 -0.12194348
0003b0 d1 db 2e bd 02 ef 9d bd a6 2a 9c 3d 26 01 be bd
       -0.042690102 -0.07711603 0.07625322 -0.09277563
0003c0 7d 27 e7 bb a3 2c be bd ad ea 31 3d 63 14 5a bc
       -0.007054268 -0.092858575 0.043436695 -0.013310525
0003d0 e6 c5 91 bd 5c 19 88 3d 35 ed e9 3c a3 c3 27 bd
       -0.07117824 0.06645462 0.028555492 -0.040958058
0003e0 ee 5d 24 bb 3a 88 6a bd 47 af ea 3b 71 97 61 bd
       -0.00250804 -0.057258822 0.007162008 -0.055076066
0003f0 47 48 22 bd 35 70 a3 3d 59 2d 2e 3c 36 57 3d bc
       -0.03961971 0.07980386 0.010630929 -0.011556437

actor.4.bias f4 [4]
000000 3e a7 88 bb d4 2d ab 3d e2 2d 75 bd 83 12 a2 bd
       -0.0041703274 0.083583504 -0.05985821 -0.07913687
