CRL/slime_ppo_gpu.pth (torch, 371115 bytes, 11 tensors)

critic.0.weight f4 [256, 48]
-0.007134228 -0.03144329 -0.10320288 0.027214512 -0.0010965876 -0.097270034 0.025953356 0.04070102
0.096327424 0.22265431 -0.033287805 -0.020616565 0.056318168 0.057629425 -0.0307537 0.12652697
0.073935986 0.05720608 -0.025265533 -0.11243911 0.062091846 0.152982 0.01866538 -0.13277827
0.12605935 -0.010670312 0.05452111 0.08271139 -0.1482346 -0.0713009 0.09303702 0.11702873
0.045652516 0.12161406 -0.09809767 -0.12673643 0.09562412 0.12513795 0.05001967 -0.06641285
0.09341993 0.032198254 -0.03222434 -0.13869357 0.034664646 0.21821892 -0.13503332 0.092021935
0.14407359 0.006035747 0.027673922 -0.10705984 -0.11624368 0.07505758 0.012824411 0.06662485
-0.27278745 0.090474054 0.07001446 0.19996719 0.110902525 -0.07384094 0.012517129 -0.12112406
0.0725349 -0.10594179 0.02070499 0.017229522 -0.18755122 0.2535928 -0.08093966 0.17263268
0.19684702 -0.075819604 0.020434938 0.10285474 -0.070844606 -0.13030349 0.018545946 -0.03148176
-0.13683361 0.15673 -0.11820937 0.10852568 0.0802796 -0.026863018 0.04782336 -0.03415789
0.03608088 -0.12331644 0.0012089146 0.04052272 -0.18576568 0.18595049 -0.038681358 -0.049730904
-0.09907296 0.05992849 -0.00320133 0.1123189 -0.15152048 0.1293501 0.008623076 -0.054385334
0.043129984 0.258896 0.0027951554 -0.021168167 -0.08256411 0.05409967 -0.032517437 -0.04609146
-0.09412256 0.15118782 0.019160056 -0.06277275 0.12898873 0.21301799 0.0011716225 0.028744634
-0.1089384 0.09022197 -0.02740227 0.12583847 -0.11929811 0.10031982 0.020970797 0.005724263
0.11890488 0.25537124 0.19649738 -0.15847766 -0.19967715 -0.015120104 -0.022890346 -0.05796718
0.002992252 -0.00040197256 -0.0011455558 -0.050380785 0.12439456 0.19831052 -0.093540266 -0.117608085
-0.037982922 -0.018488254 -0.004664656 0.043413874 -0.025621384 0.05641772 0.009350937 -0.016783327
0.026979692 0.090947896 0.17021058 -0.0055535687 0.11719595 0.04699292 0.0065624495 -0.04630393
-0.049439948 -0.092212334 -0.0038450344 -0.006854112 0.16274223 0.07216122 0.20455022 -0.01587146
-0.16106193 -0.10343373 0.022489725 -0.08275347 0.00037997306 -0.09299278 0.0004823534 0.011863494
0.16156162 0.023640446 0.5030593 -0.08910727 0.028272633 0.1528628 0.011299602 -0.0057846233
-0.011651596 0.10670936 -0.030745871 -0.058991317 0.21001096 -0.11333648 0.4089781 -0.07862504
0.06802305 0.06072958 0.0011855675 -0.0097036045 -0.11983125 -0.047452606 0.0036062435 -0.03457622
-0.13863741 -0.14925438 -0.11491518 -0.08095052 0.21419661 -0.103509635 0.0021408435 0.114116356
-0.0476725 -0.026473138 0.0010361626 0.07267925 -0.04056755 -0.12243811 -0.24975967 -0.005601522
0.24832778 0.053843394 0.0068064355 -0.04452595 -0.18596536 0.10307056 -4.6465007e-05 -0.038042273
-0.15795423 0.08701568 -0.20844701 0.088609815 0.25386682 0.005614031 0.015823677 -0.018541569
0.052078936 -0.10391157 -0.0034793552 -0.004854689 0.057364743 0.10448458 -0.089725375 -0.01787391
-0.18237102 -0.08501206 0.025683727 0.05170903 0.006376785 -0.020366363 -0.04002734 -0.12797607
0.081308655 -0.33867592 -0.098176196 -0.17744476 -0.20324549 0.08846113 -0.06494131 -0.09612677
00000000: 3ec6 e9bb aeca 00bd 085c d3bd f8f0 de3c
00000010: 60bb 8fba 8335 c7bd 229c d43c 1db6 263d
00000020: 5047 c53d 7eff 633e cb58 08bd 12e4 a8bc
00000030: e1ad 663d d50c 6c3d 2fef fbbc 4990 013e
00000040: c06b 973d ec50 6a3d aaf9 cebc 7a46 e6bd
00000050: 0554 7e3d 50a7 1c3e 24e8 983c 07f7 07be
00000060: b415 013e 88d2 2ebc 8751 5f3d 9764 a93d
00000070: d0ca 17be 3506 92bd 318a be3d c2ac ef3d
00000080: 22fe 3a3d cb10 f93d 6ee7 c8bd 32c7 01be
00000090: 94d6 c33d 2a24 003e 6de1 4c3d 7603 88bd
000000a0: f352 bf3d 51e2 033d abfd 03bd b005 0ebe
000000b0: 84fc 0d3d c874 5f3e 2d46 0abe ff75 bc3d
000000c0: 0788 133e 84c7 c53b 6cb4 e23c 3042 dbbd
000000d0: 2b11 eebd cab7 993d 7a1d 523c 9c72 883d
000000e0: ccaa 8bbe 764a b93d be63 8f3d 33c4 4c3e
000000f0: dd20 e33d eb39 97bd a514 4d3c e40f f8bd
00000100: 2d8d 943d 02f8 d8bd 839d a93c ed24 8d3c
00000110: 6d0d 40be ead6 813e b1c3 a5bd 9fc6 303e
00000120: 4492 493e 4f47 9bbd 2c67 a73c 82a5 d23d
00000130: fa16 91bd 476e 05be abed 973c 05f3 00bd
00000140: 1c1e 0cbe d47d 203e c117 f2bd b642 de3d
00000150: a269 a43d d50f dcbc 6de2 433d 25e9 0bbd
00000160: 8bc9 133d 548d fcbd 7174 9e3a 27fb 253d
00000170: 5c39 3ebe ce69 3e3e 5870 1ebd a2b2 4bbd
00000180: c4e6 cabd 9477 753d 68cd 51bb 7407 e63d
00000190: 2f28 1bbe 5a74 043e cd47 0d3c 28c3 5ebd
000001a0: 11a9 303d 048e 843e ed2e 373b dd68 adbc
000001b0: 5f17 a9bd 9e97 5d3d 0131 05bd 66ca 3cbd
000001c0: 54c3 c0bd fbd0 1a3e 8df5 9c3c 008f 80bd
000001d0: 9f15 043e 6321 5a3e 2191 993a de79 eb3c
000001e0: 191b dfbd 4cc6 b83d ba7a e0bc cddb 003e
000001f0: 9152 f4bd 7a74 cd3d f3ca ab3c 9992 bb3b
00000200: 6784 f33d 05c0 823e 9c36 493e f847 22be
00000210: 2b78 4cbe 50ba 77bc 8984 bbbc fe6e 6dbd
00000220: a819 443b d8bf d2b9 7926 96ba 155c 4ebd
00000230: 93c2 fe3d ea11 4b3e 0a92 bfbd 82dc f0bd
00000240: fb93 1bbd ae74 97bc f8d9 98bb bfd2 313d
00000250: f0e3 d1bc 4416 673d ac34 193c 307d 89bc
00000260: 8404 dd3c e442 ba3d af4b 2e3e b6fa b5bb
00000270: 6e04 f03d a67b 403d d109 d73b 31a9 3dbd
00000280: 8b81 4abd d2d9 bcbd f9fc 7bbb 7598 e0bb
00000290: e6a5 263e 43c9 933d 9d75 513e dd04 82bc
000002a0: 6bed 24be 10d5 d3bd 5f3c b83c a77a a9bd
000002b0: 1f37 c739 0073 bebd 61e4 fc39 1a5f 423c
000002c0: 6970 253e 9ca9 c13c 7fc8 003f df7d b6bd
000002d0: 029c e73c 1188 1c3e f721 393c f08c bdbb
000002e0: 56e6 3ebc 708a da3d c4de fbbc e1a0 71bd
000002f0: 1d0d 573e f51c e8bd 9465 d13e 2a06 a1bd
00000300: ab4f 8b3d 94bf 783d 0b65 9b3a defb 1ebc
00000310: 166a f5bd aa5d 42bd ba56 6c3b cb9f 0dbd
00000320: f7f6 0dbe 24d6 18be a658 ebbd 63c9 a5bd
00000330: 5b56 5b3e dcfc d3bd 654d 0c3b d6b5 e93d
00000340: 3d44 43bd 32de d8bc d9cf 873a dcd8 943d
00000350: 292a 26bd d5c0 fabd 00c1 7fbe f98c b7bb
00000360: a349 7e3e e48a 5c3d 8508 df3b d860 36bd
00000370: b46d 3ebe a816 d33d 6ce3 42b8 37d2 1bbd
00000380: c1be 21be 4735 b23d 2273 55be 1079 b53d
00000390: d5fa 813e e8f5 b73b a8a0 813c 7de4 97bc
000003a0: b950 553d 97cf d4bd e505 64bb 1514 9fbb
000003b0: 4bf7 6a3d 03fc d53d f0c1 b7bd 4e6c 92bc
000003c0: 78bf 3abe ce1a aebd ae66 d23c d9cc 533d
000003d0: 5af4 d03b 5cd7 a6bc b5f3 23bd 290c 03be
000003e0: 2785 a63d ee66 adbe 9a10 c9bd 14b4 35be
000003f0: 961f 50be 1c2b b53d f3ff 84bd 1dde c4bd

critic.0.bias f4 [256]
0.15680055 0.05256779 -0.07249236 0.031643122 -0.09717863 -0.0420692 0.09033396 -0.048777137
0.08060702 -0.023170557 -0.036305316 0.13269952 0.022390723 -0.017894346 -0.0012395491 -0.14028665
-0.036490068 0.09915692 0.107530385 -0.15923879 0.07516884 0.037826315 0.04493072 -0.077308
0.028969256 -0.109499104 -0.11563843 -0.16284747 0.05609755 -0.0031608744 -0.11968214 0.16738766
0.0058581354 -0.06004691 0.056094635 -0.0515865 0.065198556 -0.074498236 0.019450832 0.11008347
0.122702494 0.009381916 -0.022426268 -0.08073529 0.09121591 0.021662582 -0.12234774 0.009512951
0.09257136 0.028322065 -0.11202448 -0.1349032 0.13110006 0.111245945 0.080490075 -0.13896695
0.09321975 0.13871652 0.047925048 0.12103717 0.017604697 0.0114407465 0.05485313 -0.001113208
0.18239395 0.069949724 -0.06623111 -0.069391295 -0.11766664 0.088014595 0.15554473 0.20101193
-0.19294864 0.16489805 -0.084625855 -0.11964752 0.01670862 -0.10186624 0.01141259 -0.12414494
0.1258775 0.0032333268 0.10765106 0.055880826 -0.18043086 0.09970072 0.06403314 -0.10854363
0.10922474 -0.037284806 0.015509627 -0.056726217 0.08497808 -0.2308801 -0.062438104 -0.064008944
0.027464671 -0.08101349 -0.02349991 -0.01640464 -0.00491282 0.026532033 0.07067048 -0.030341825
-0.087391995 -0.008886116 -0.0085415235 0.07520933 -0.052716605 -0.0056126756 -0.13285057 -0.008623585
0.10995548 -0.044033468 -0.03898062 0.12661655 0.1190563 0.12963095 -0.11383062 -0.13755716
0.10820072 0.111105025 -0.079544865 0.06907213 0.17542452 0.05536347 0.13461548 -0.08298362
0.12926061 -0.022393623 0.16361637 -0.09570853 -0.07814977 0.17155896 -0.1263139 -0.18056723
-0.12071282 -0.08019848 -0.041782476 0.093267515 -0.17849787 0.17072204 0.030849688 -0.07696785
0.08207657 -0.10722503 0.07173206 0.06334018 -0.009431249 -0.090266004 -0.17428347 -0.00090700376
-0.027944332 -0.035027225 0.2093354 0.14907734 -0.15657948 -0.053357214 0.06782424 0.04592469
0.25708517 -0.029415548 0.062469658 0.1286812 -0.03812896 0.14015682 0.07874155 0.011349223
0.036169007 0.10008994 0.07117754 0.022951465 0.055346202 0.13924243 -0.037735272 -0.14784485
0.09457177 -0.041787446 -0.068750136 0.13582982 -0.10368213 0.07747694 -0.14800099 0.1272629
0.04109158 -0.20905605 0.20958234 -0.015484176 0.14257851 -0.015753794 0.09488226 0.035715822
0.09046098 -0.069440864 -0.108541176 -0.108766384 -0.032531917 -0.07051386 -0.06787445 -0.13056399
-0.09384385 0.12584676 -0.02412155 0.1425164 0.14444776 0.18735203 0.032386634 0.044598233
0.093669996 0.02550423 0.08988741 0.098676175 -0.04654794 0.11199648 -0.05987352 0.0048249676
0.045925938 0.10041754 0.16516735 0.12412068 -9.3357434e-05 -0.015313076 0.18541983 0.115103886
-0.13448371 -0.061842017 0.12391873 0.13885525 -0.047311284 0.08384616 0.00075005996 -0.18936239
0.1407623 0.1654622 -0.032038905 -0.0043063946 0.046430156 -0.11215111 0.16984583 0.04160503
0.20785347 0.16637994 0.14534321 -0.0409909 0.081929885 0.11497435 0.007831729 0.034406353
0.0256469 0.17875555 0.14737195 0.06939769 -0.02649937 0.1776631 0.049191836 0.023136128
00000000: 5390 203e 5351 573d e076 94bd 389c 013d
00000010: 9705 c7bd c150 2cbd 0301 b93d 89ca 47bd
00000020: 4b15 a53d 2ed0 bdbc e2b4 14bd 62e2 073e
00000030: c06c b73c 2a97 92bc 5e78 a2ba 4ea7 0fbe
00000040: 9c76 15bd c912 cb3d e438 dc3d 7e0f 23be
00000050: 1ff2 993d c4ef 1a3d 4609 383d a853 9ebd
00000060: ef50 ed3c 1141 e0bd d7d3 ecbd 7dc1 26be
00000070: 8bc6 653d ac26 4fbb e91b f5bd ac67 2b3e
00000080: 9af5 bf3b c0f3 75bd 7dc3 653d 5e4c 53bd
00000090: d286 853d 8892 98bd 5a57 9f3c 7173 e13d
000000a0: 724b fb3d 9cb6 193c 4bb7 b7bc 8b58 a5bd
000000b0: 68cf ba3d ba75 b13c 7491 fabd 35dc 1b3c
000000c0: 0e96 bd3d ad03 e83c 176d e5bd 1124 0abe
000000d0: 183f 063e ead4 e33d fbd7 a43d 5a4d 0ebe
000000e0: ffe9 be3d b40b 0e3e 0e4d 443d 56e2 f73d
000000f0: ba37 903c f871 3b3c adad 603d 10e9 91ba
00000100: 7bc5 3a3e cd41 8f3d 2da4 87bd 061d 8ebd
00000110: 35fb f0bd ff40 b43d 1e47 1f3e 12d6 4d3e
00000120: 5494 45be 09db 283e 5250 adbd c209 f5bd
00000130: 84e0 883c 3f9f d0bd dffb 3a3c b43f febd
00000140: 08e6 003e 39e6 533b 2978 dc3d 4be3 643d
00000150: dec2 38be e42f cc3d cf23 833d 1f4c debd
00000160: 38b1 df3d f4b7 18bd 171c 7e3c c059 68bd
00000170: fd08 ae3d d56b 6cbe 19bf 7fbd 1f17 83bd
00000180: 97fd e03c 67ea a5bd e282 c0bc 0663 86bc
00000190: b9fb a0bb b559 d93c afbb 903d 6b8f f8bc
000001a0: 93fa b2bd 1297 11bc bff1 0bbc 5907 9a3d
000001b0: 5eed 57bd 89ea b7bb fb09 08be f049 0dbc
000001c0: 5730 e13d 705c 34bd 25aa 1fbd c5a7 013e
000001d0: cad3 f33d fabd 043e 0720 e9bd c9db 0cbe
000001e0: 5798 dd3d 088b e33d 6be8 a2bd b075 8d3d
000001f0: 7ca2 333e cec4 623d a4d8 093e 51f3 a9bd
00000200: e55c 043e d572 b7bc 0d8b 273e d502 c4bd
00000210: fd0c a0bd 27ad 2f3e 6e58 01be 9ee6 38be
00000220: 4838 f7bd 1a3f a4bd 1a24 2bbd 0a03 bf3d
00000230: 25c8 36be c2d1 2e3e 7cb8 fc3c 52a1 9dbd
00000240: c317 a83d cc98 dbbd 42e8 923d 7fb8 813d
00000250: 8785 1abc 62dd b8bd 5e77 32be fec3 6dba
00000260: 83eb e4bc b578 0fbd 055c 563e bba7 183e
00000270: 5f56 20be 188d 5abd 6fe7 8a3d 871b 3c3d
00000280: aba0 833e e0f8 f0bc 2fe0 7f3d 01c5 033e
00000290: 1d2d 1cbd 4585 0f3e 4043 a13d 17f2 393c
000002a0: f425 143d f4fb cc3d 88c5 913d b604 bc3c
000002b0: b3b2 623d 9195 0e3e 4d90 1abd a464 17be
000002c0: d8ae c13d 5029 2bbd dfcc 8cbd f916 0b3e
000002d0: 4c57 d4bd 3bac 9e3d 928d 17be 3551 023e
000002e0: a54f 283d ca12 56be c19c 563e 57b1 7dbc
000002f0: 1a00 123e 1a0e 81bc a151 c23d c14a 123d
00000300: 9b43 b93d 0337 8ebd d64a debd e9c0 debd
00000310: 3040 05bd 9269 90bd c201 8bbd 91b2 05be
00000320: 3431 c0bd f9dd 003e 8f9a c5bc d2ef 113e
00000330: 1dea 133e 36d9 3f3e d9a7 043d a3ac 363d
00000340: 0ed6 bf3d 3fee d03c e416 b83d bc16 ca3d
00000350: 0da9 3ebd 695e e53d f03d 75bd c31a 9e3b
00000360: d61c 3c3d b6a7 cd3d a121 293e fc32 fe3d
00000370: e4c8 c3b8 b2e3 7abc b2de 3d3e 96bb eb3d
00000380: 19b6 09be 0e4e 7dbd 1ac9 fd3d 1230 0e3e
00000390: 7ac9 41bd 89b7 ab3d ac9f 443a 37e8 41be
000003a0: fe23 103e ec6e 293e 3a3b 03bd a81c 8dbb
000003b0: 8c2d 3e3d 7baf e5bd 11ec 2d3e 096a 2a3d
000003c0: 8ad7 543e 815f 2a3e dad4 143e 13e6 27bd
000003d0: dbca a73d ac77 eb3d a750 003c aded 0c3d
000003e0: 7319 d23c b20b 373e ace8 163e 6020 8e3d
000003f0: 3515 d9bc 51ed 353e 617d 493d fa87 bd3c

critic.2.weight f4 [128, 256]
-0.060286406 -0.02798235 -0.035493243 -0.014267574 0.05787432 -0.0333618 0.021199448 0.034717202
0.0276086 -0.028495932 0.027520226 0.026994761 0.027077798 -0.046152953 -0.01475511 0.053695355
-0.018013187 0.05211739 -0.052900188 -0.017272856 0.02507269 0.054451216 -0.06337195 0.030968288
0.041094165 -0.027079914 0.011983122 0.03462788 -0.0047390466 -0.07313462 -0.05408583 0.01387614
-0.02109255 -0.0002331166 0.012344232 0.0127205495 -0.013108305 -0.019220047 0.012384119 -0.03758963
0.03891884 0.0019308699 0.014714488 0.0032258984 -0.06585539 -0.025914077 0.01539712 0.026818955
0.03605376 0.046718337 -0.015702454 0.04834926 -0.049310435 0.017068777 -0.043516513 -0.0494072
0.027710298 -0.019299073 -0.02375652 0.001273449 0.041639898 -0.06405023 -0.010515741 -0.019133871
-0.045610394 0.027332656 -0.03297066 0.04351582 -0.040045816 -0.03946538 -0.0049854014 0.012754683
-0.010922156 -0.04813347 -0.059305456 -0.058020633 -0.05514296 -0.0059143146 -0.04126019 -0.053315397
-0.011150605 -0.035998896 -0.023223713 -0.034035895 0.036740065 -0.059061687 -0.06557743 0.0056248913
-0.0018258387 0.019977175 -0.0006182676 -0.058391295 0.026797706 0.06466999 0.0062924353 -0.014114022
-0.038327876 -0.014788781 0.011621087 0.032334715 -0.007899598 -0.027704002 0.0033429323 0.047181375
0.044989716 0.017572496 -0.01647074 -0.024695719 0.044334408 -0.019117346 0.027993174 -0.063827366
0.023980375 0.050092235 -0.02541673 0.042956103 0.058957387 -0.0605657 -0.035755858 0.02928376
-0.034644343 -0.05987879 0.01445239 0.026542762 -0.023132011 0.011934235 -0.017750377 -0.044628866
0.017760377 0.05314589 -0.012110607 0.055349868 -0.05931578 0.03788352 -0.04521517 -0.05495738
-0.009913883 -0.000346886 -0.02963921 -0.060229387 0.01066992 0.011881773 -0.011393493 0.036524545
-0.028859464 -0.011437476 -0.051087942 0.04898368 0.041498058 -0.03278489 0.048704866 -0.06265384
-0.007465491 0.014755569 -0.051276434 -0.05601398 -0.05006121 -0.031059576 -0.049277704 0.023901563
0.022950534 0.04440142 -0.05099987 -0.05593545 -0.042412385 0.011529028 -0.004208495 -0.02566614
0.049998038 -0.06274842 -0.06556769 0.0286406 0.052799612 0.032679092 -0.031360522 0.046593234
-0.033960544 -0.05091407 -0.04421693 0.041634664 0.05788813 0.040236738 0.045576297 0.05380917
-0.049688593 0.055597994 0.04406457 -0.0045066373 0.019941142 -0.031155707 -0.0205218 -0.018703587
-0.06000376 0.0012268424 0.05647876 0.02734475 0.053906884 -0.0032141272 -0.06219117 -0.041722104
-0.060258627 -0.03285325 -0.00019229951 -0.057458635 -0.05000224 0.04903391 -0.034054693 -0.031373244
0.012150273 0.041923203 0.021596676 -0.003917398 -0.014513383 -0.053242154 0.0010482931 -0.02337077
0.025666058 -0.010261528 -0.028265111 -0.019986767 -0.050611228 0.03076255 0.054696634 0.022430554
0.0015804481 0.024604838 -0.004375351 -0.01956941 -0.010557599 -0.02059681 0.019734127 -0.06350756
-0.018997625 -0.048031285 -0.03134664 -0.048552178 -0.010112295 -0.010796829 -0.06427053 -0.043233357
0.0006675524 -0.037316367 -0.0680929 -0.054035157 0.014162361 0.027808167 -0.00087466836 -0.06595837
0.02720618 -0.04225112 -0.029963791 -0.0042566676 -0.036212366 -0.0555693 0.016761683 -0.065575466
00000000: e1ee 76bd 3e3b e5bc 5d61 11bd 8bc2 69bc
00000010: 9f0d 6d3d 62a6 08bd 77aa ad3c a033 0e3d
00000020: 6e2b e23c 4d70 e9bc 1972 e13c 1e24 dd3c
00000030: 42d2 dd3c e10a 3dbd 6bbf 71bc a9ef 5b3d
00000040: 6490 93bc 0b79 553d dead 58bd ce7f 8dbc
00000050: 3e65 cd3c 3d08 5f3d 27c9 81bd 35b1 fd3c
00000060: 5b52 283d b2d6 ddbc db54 443c f7d5 0d3d
00000070: 014a 9bbb 9bc7 95bd 1a89 5dbd c058 633c
00000080: 49ca acbc c370 74b9 763f 4a3c da69 503c
00000090: 37c4 56bc 5c73 9dbc c3e6 4a3c 95f7 19bd
000000a0: 5d69 1f3d 3e15 fd3a 0915 713c 9869 533b
000000b0: 31df 86bd c249 d4bc 3444 7c3c 6db3 db3c
000000c0: 1cad 133d ba5b 3f3d 6fa2 80bc e009 463d
000000d0: bdf9 49bd d2d3 8b3c 5f3e 32bd 345f 4abd
000000e0: b500 e33c 1719 9ebc 099d c2bc dce9 a63a
000000f0: 998e 2a3d c42c 83bd 374a 2cbc a3be 9cbc
00000100: f7d1 3abd bce8 df3c 3e0c 07bd a53d 323d
00000110: 1507 24bd 73a6 21bd 945c a3bb 05f9 503c
00000120: d8f2 32bc 9a27 45bd 47ea 72bd 0ba7 6dbd
00000130: 96dd 61bd decc c1bb 7200 29bd 3f61 5abd
00000140: 07b1 36bc 9473 13bd a83f bebc 3969 0bbd
00000150: c07c 163d abea 71bd 764d 86bd 0251 b83b
00000160: fb50 efba 2ca7 a33c 3c13 22ba b62b 6fbd
00000170: dd86 db3c b371 843d c630 ce3b 803e 67bc
00000180: b1fd 1cbd a54c 72bc 5f66 3e3c 6871 043d
00000190: 516d 01bc 81f3 e2bc 1915 5b3b 4241 413d
000001a0: 2347 383d 32f4 8f3c a5ed 86bc ad4e cabc
000001b0: ff97 353d fb9b 9cbc f151 e53c ecb7 82bd
000001c0: 7e72 c43c 842d 4d3d bf36 d0bc bdf2 2f3d
000001d0: 4d7d 713d bd13 78bd bc74 12bd 7fe4 ef3c
000001e0: 3ae7 0dbd 7643 75bd b8c9 6c3c 3570 d93c
000001f0: 587f bdbc cf87 433c 3d69 91bc c2cc 36bd
00000200: 367e 913c 81af 593d 916b 46bc 8bb6 623d
00000210: 1af5 72bd c02b 1b3d 8b33 39bd fd1a 61bd
00000220: d76d 22bc 40de b5b9 eecd f2bc 17b3 76bd
00000230: e3d0 2e3c c5ab 423c c6ab 3abc c39a 153d
00000240: af6a ecbc 4064 3bbc 9741 51bd 1ca3 483d
00000250: def9 293d 7349 06bd c17e 473d a850 80bd
00000260: 14a1 f4bb 58c1 713c 3d07 52bd ea6e 65bd
00000270: fc0c 4dbd a770 febc 6bd7 49bd 36cd c33c
00000280: c202 bc3c 43de 353d 3de5 50bd 921c 65bd
00000290: 9cb8 2dbd 40e4 3c3c 6ae7 89bb cc41 d2bc
000002a0: beca 4c3d 3e82 80bd 5a48 86bd b19f ea3c
000002b0: 6844 583d 83da 053d e473 00bd 8cd8 3e3d
000002c0: 361a 0bbd 468b 50bd d01c 35bd 1c89 2a3d
000002d0: 1b1c 6d3d 47cf 243d 36ae 3a3d 0167 5c3d
000002e0: 4486 4bbd b9ba 633d 0d7d 343d 6aac 93bb
000002f0: 9b5b a33c 413a ffbc 551d a8bc 4438 99bc
00000300: 81c6 75bd 00ce a03a 4656 673d 1902 e03c
00000310: 77cd 5c3d 1ba4 52bb 2bbc 7ebd cce4 2abd
00000320: c0d1 76bd 2191 06bd 02a4 49b9 bf59 6bbd
00000330: 26cf 4cbd c8d7 483d ef7c 0bbd 3b81 00bd
00000340: f011 473c aab7 2b3d 83eb b03c 845d 80bb
00000350: 8ac9 6dbc 7214 5abd e166 893a 0f74 bfbc
00000360: a041 d23c f81f 28bc 3c8c e7bc 4abb a3bc
00000370: b84d 4fbd be01 fc3c 9409 603d 48c0 b73c
00000380: 0a27 cf3a 1690 c93c 1b5f 8fbb 0750 a0bc
00000390: c8f9 2cbc a4ba a8bc 77a9 a13c 4010 82bd
000003a0: e8a0 9bbc 74bc 44bd 5665 00bd a6de 46bd
000003b0: 0aae 25bc 2fe5 30bc 45a0 83bd 7615 31bd
000003c0: affe 2e3a 0cd9 18bd 4a74 8bbd f853 5dbd
000003d0: 3f09 683c f4cd e33c 004a 65ba 2f15 87bd
000003e0: 7fdf de3c 830f 2dbd a076 f5bc 847b 8bbb
000003f0: 6b53 14bd a29c 63bd cc4f 893c 6e4c 86bd

critic.2.bias f4 [128]
0.0031177322 0.030720383 0.033376463 -0.058334168 0.041878242 -0.0010586948 -0.028938444 0.0051723383
-0.014393766 0.053392634 0.01841058 -0.042401936 0.08470997 -0.046227787 0.057988856 -0.006045569
0.065176554 0.0503831 0.0697763 0.08251186 0.015482454 -0.061470613 0.038892712 0.08246028
-0.045045592 0.06540044 0.0025091253 0.015441878 -0.061350446 0.031908184 -0.018313872 0.0659154
0.008479294 0.063726634 0.010955624 -0.019138642 0.034802902 0.06479088 0.022036837 -0.030493636
0.031785883 0.10870007 0.050607566 -0.049740434 -0.008805424 0.103693455 0.048268262 0.048301574
-0.077084295 -0.01741575 -0.025273073 0.060889468 0.038211953 0.044637132 0.022365047 0.014086402
-0.027831541 -0.093188785 -0.01780273 0.10554225 0.03490697 0.036129955 0.09191987 -0.0042908387
0.100585476 0.033035636 0.05263987 -0.016684877 0.008001695 0.019495156 0.046626557 0.043631207
0.060925398 0.10165205 0.08125322 0.05108176 -0.036422312 -0.0004933736 -0.017170673 -0.021803953
0.09003619 -0.041585203 -0.005793423 -0.012757568 0.008989505 0.022910234 0.0940853 0.043237705
-0.011348813 0.020787366 0.040615853 -0.0042882343 -0.06317932 -0.021811472 0.01175855 0.01093586
-0.03908454 0.08149792 0.059334084 0.010681901 0.029098589 0.03182626 0.03283672 0.004646916
0.020639587 -0.004817762 0.05146383 0.074444845 0.046458617 0.05219821 -0.024707006 -0.008314825
0.073990375 -0.05883313 -0.024732338 0.03350349 0.013521004 -0.07231938 -0.014630864 0.037981473
-0.04033097 0.040672556 -0.016219867 0.11091146 0.06895877 -0.014860368 -0.019764958 -0.15478438
00000000: de52 4c3b 50a9 fb3c c2b5 083d cfef 6ebd
00000010: 8588 2b3d e7c3 8aba 5110 edbc b87c a93b
00000020: d5d3 6bbc 3cb2 5a3d c9d1 963c a7ad 2dbd
00000030: 6c7c ad3d 5959 3dbd b985 6d3d e919 c6bb
00000040: 497b 853d 825e 4e3d e0e6 8e3d fafb a83d
00000050: 1eaa 7d3c 9cc8 7bbd f74d 1f3d efe0 a83d
00000060: ba81 38bd aaf0 853d 2370 243b eeff 7c3c
00000070: 9b4a 7bbd 28b2 023d f906 96bc a7fe 863d
00000080: bdec 0a3c 1c83 823d 387f 333c a4c8 9cbc
00000090: 7d8d 0e3d 15b1 843d 9986 b43c cacd f9bc
000000a0: ea31 023d 249e de3d e149 4f3d a0bc 4bbd
000000b0: a044 10bc 3c5d d43d f1b4 453d dfd7 453d
000000c0: 5fde 9dbd 7aab 8ebc 7a09 cfbc 3c67 793d
000000d0: 2384 1c3d 6dd5 363d e736 b73c a7ca 663c
000000e0: f9fe e3bc c3d9 bebd 08d7 91bc 8926 d83d
000000f0: 9cfa 0e3d 01fd 133d 7c40 bc3d 2a9a 8cbb
00000100: c2ff cd3d 6050 073d e89c 573d b9ae 88bc
00000110: 8b19 033c 4eb4 9f3c 7dfb 3e3d a3b6 323d
00000120: e98c 793d f32e d03d 1768 a63d 1c3b 513d
00000130: 902f 15bd be55 01ba 83a9 8cbc 349e b2bc
00000140: e564 b83d 3f55 2abd c1d6 bdbb 1e05 51bc
00000150: b748 133c 3eae bb3c cbaf c03d 051a 313d
00000160: 5ff0 39bc 444a aa3c cf5c 263d 5184 8cbb
00000170: 2964 81bd f9ad b2bc efa6 403c 522c 333c
00000180: 1c17 20bd 62e8 a63d 4c08 733d 2403 2f3c
00000190: 2a60 ee3c 415c 023d cc7f 063d 2845 983b
000001a0: 5a14 a93c 51de 9dbb bdcb 523d 8a76 983d
000001b0: 644b 3e3d cacd 553d 5966 cabc e73a 08bc
000001c0: 4488 973d 02fb 70bd 799b cabc f53a 093d
000001d0: 3387 5d3c 2f1c 94bd 4bb6 6fbc 7692 1b3d
000001e0: 1632 25bd 4498 263d 87df 84bc 8c25 e33d
000001f0: 413a 8d3d e778 73bc 1fea a1bc cc7f 1ebe

critic.4.weight f4 [1, 128]
-0.023040075 -0.07755341 0.24691623 -0.112876765 -0.12778656 0.21116678 -0.23632242 -0.0736641
0.33301637 0.12722293 -0.42108023 -0.13365984 0.16696835 -0.12442823 -0.17514297 -0.11842479
-0.17958684 -0.18688601 0.31405178 0.4104751 -0.5650354 -0.06505114 0.09241934 0.18604952
-0.14124331 0.16205539 0.13082944 0.09567703 -0.0060452386 -0.20339438 -0.12575188 0.11236064
0.675139 -0.12655751 -0.20379917 -0.10080123 -0.2015322 -0.23253803 0.26830673 -0.08384295
-0.18338117 0.15950534 -0.060171876 -0.044328745 -0.21670063 0.19074592 0.5701333 0.1592905
0.49174422 -0.27651417 -0.58626497 0.08166344 0.23289469 0.22367802 -0.28403777 0.10135162
-0.1885161 0.30339426 -0.18025331 0.22331676 0.082345985 0.07484769 0.2869251 0.115979955
0.17928998 0.15368876 0.13511539 -0.30528188 -0.21583286 -0.32445404 -0.09932163 -0.10973598
-0.085036285 0.23207271 0.08763941 0.20770805 0.1310825 -0.29840353 -0.28189883 0.063054495
0.34365705 0.61942 -0.08172973 -0.16511418 -0.16809052 0.11373114 0.2970574 0.12118765
-0.31648687 -0.16324303 -0.2018781 0.3722961 -0.6150771 -0.6451887 -0.10178617 -0.15224269
-0.19410431 -0.2421024 0.17620234 -0.15480012 0.22418466 0.15614721 -0.18324646 0.36912155
0.17462836 -0.30791283 0.18891898 -0.34325773 0.12248256 0.270594 -0.32788804 -0.07811263
0.31610188 0.0021827198 -0.303678 0.32443622 0.15994845 -0.2664132 0.06628164 0.133432
-0.026760582 -0.31242427 0.09327308 -0.27654123 -0.08850465 -0.3637812 0.16330793 0.39986822
00000000: 8abe bcbc 52d4 9ebd 9cd7 7c3e ef2b e7bd
00000010: 7bda 02be 1b3c 583e 81fe 71be 34dd 96bd
00000020: 1f81 aa3e ba46 023e d497 d7be 20de 08be
00000030: c0f9 2a3e 3ad4 febd ae58 33be b288 f2bd
00000040: 9de5 37be 0c5f 3fbe 65cb a03e cb29 d23e
00000050: 29a6 10bf 8839 85bd 5a46 bd3d c483 3e3e
00000060: 16a2 10be d9f1 253e 27f8 053e 52f2 c33d
00000070: 2317 c6bb 9e46 50be 1ac5 00be 561d e63d
00000080: e9d5 2c3f 4b98 01be bbb0 50be e070 cebd
00000090: 755e 4ebe 731e 6ebe 805f 893e dab5 abbd
000000a0: 46c8 3bbe 5e55 233e c976 76bd 0f92 35bd
000000b0: c5e6 5dbe e652 433e 42f4 113f 0d1d 233e
000000c0: e6c5 fb3e 4493 8dbe 7615 16bf 293f a73d
000000d0: f27b 6e3e da0b 653e 666d 91be 7091 cf3d
000000e0: 5d0a 41be 7e56 9b3e 5394 38be 26ad 643e
000000f0: 03a5 a83d bf49 993d d9e7 923e e686 ed3d
00000100: cb97 373e 9660 1d3e b05b 0a3e e84d 9cbe
00000110: 4a03 5dbe d71e a6be 2469 cbbd 42bd e0bd
00000120: 8127 aebd 78a4 6d3e 4a7c b33d 6bb1 543e
00000130: 7e3a 063e 59c8 98be 0b55 90be b722 813d
00000140: d1f3 af3e 4f92 1e3f eb61 a7bd b113 29be
00000150: ec1f 2cbe dfeb e83d e817 983e 3b31 f83d
00000160: 910a a2be 2e29 27be 22b9 4ebe 989d be3e
00000170: b175 1dbf 162b 25bf 4475 d0bd 82e5 1bbe
00000180: 48c3 46be b1e9 77be 636e 343e ec83 1ebe
00000190: aa90 653e 0ee5 1f3e f6a4 3bbe 80fd bc3e
000001a0: c7d1 323e c0a6 9dbe fa73 413e 7abf afbe
000001b0: 23d8 fa3d 4c8b 8a3e f1e0 a7be 84f9 9fbd
000001c0: 1bd8 a13e f60b 0f3b af7b 9bbe 811c a63e
000001d0: 87c9 233e 5067 88be abbe 873d 66a2 083e
000001e0: 0239 dbbc 13f6 9fbe f505 bf3d d096 8dbe
000001f0: ed41 b5bd 8841 babe 323a 273e 87bb cc3e

actor.0.weight f4 [256, 48]
-0.13256305 0.11356443 -0.057658 0.011599891 -0.14046386 0.16471446 -0.08071279 0.08213173
0.15845099 0.28916696 -0.032985844 0.13543688 -0.007897367 0.008011582 0.10379991 -0.0916456
-0.09801083 0.16568622 -0.010548361 0.13390975 0.014121855 0.018174222 0.07290193 0.050167944
0.02047602 0.06935506 -0.016466895 -0.010838606 -0.062191546 0.14089504 -0.037379365 0.0306148
0.06339656 0.039315216 0.09411047 -0.042750727 -0.072168015 0.061174024 0.12178146 0.0073527214
0.11037981 0.002157537 -0.115404956 0.13198592 -0.032604486 0.13444161 -0.09192462 -0.014317825
-0.03210642 -0.045000855 0.03182368 -0.017125165 -0.097104505 -0.14451025 0.0076730475 -0.0999193
-0.16187187 0.1445377 -0.1558012 0.055796545 -0.100775704 0.039180785 0.043691196 0.1435897
-0.12601413 0.0048101177 0.0007612663 0.10432125 0.030921845 0.17775644 0.024027603 -0.17744553
0.061521195 -0.07657749 0.08701106 0.053896878 -0.08244776 -0.085706405 -0.047046147 0.02040265
-0.09934919 0.11233863 -0.15630032 -0.20184372 -0.07448393 0.0059451885 0.029189803 0.09979836
0.055471063 0.054594383 -0.018261103 0.11303698 -0.22345152 -0.049424388 -0.1604907 -0.10315578
0.11830947 -0.15767682 0.22075406 -0.15962903 -0.17276406 -0.043906227 -0.100004695 -0.062449686
0.013528475 0.13070594 -0.019430734 0.2024423 -0.026310563 -0.13996051 -0.03271628 -0.13533907
-0.137327 0.0441878 0.13414016 0.07669628 -0.14537631 -0.04050763 -0.06963273 0.2191398
0.045749936 -0.023971517 0.10690013 -0.12990631 0.00076008483 -0.08798835 -0.10953539 -0.05742825
-0.08525909 0.12343024 0.096346155 0.11025803 -0.13177854 0.05443097 -0.13681664 0.051347367
0.033270285 0.026872233 0.12183458 0.042181615 -0.09276364 -0.022242477 -0.11283284 0.1844863
-0.08458034 -0.028417204 -0.027483482 0.07630922 -0.08580377 -0.05595915 0.049749583 0.014402939
0.023383131 0.28960416 -0.11806345 0.21866015 0.036275245 -0.058174476 0.0011931834 -0.060531348
0.051165566 -0.13235343 0.077305876 0.09080588 0.07295941 0.03488062 -0.15836035 0.12287491
-0.06453647 -0.16430676 0.066751085 0.14528206 -0.13023698 0.13209789 0.028790131 0.17975895
0.011952598 0.21793564 -0.06252136 0.18139854 -0.14549638 -0.014682971 -0.07291981 -0.009003544
-0.11717964 -0.0606133 0.1355502 0.009155963 -0.16132434 0.22993915 -0.15742005 -0.055522244
0.15018357 0.14822696 -0.057704266 0.066645116 -0.09342214 -0.0010184413 -0.14175695 0.037554845
-0.13453814 -0.30172932 -0.077617645 -0.15041709 0.08130823 0.14912592 0.025810624 -0.083212234
0.10805576 0.06048164 0.036916737 -0.080811836 -0.0068332683 -0.3917357 -0.021099137 -0.08671245
0.025761934 -0.008520825 0.08175384 0.03617226 -0.012620368 -0.10785245 -0.06040762 -0.12142988
-0.11155736 -0.26644382 -0.061040726 0.011454936 0.062373046 0.15450177 0.08827655 -0.0652592
-0.13195416 0.15919581 -0.07293948 0.015633652 -0.14412636 -0.3616649 -0.05973149 0.07780903
-0.004816307 -0.16354589 0.041627377 -0.07623874 -0.09887692 0.044902083 -0.047516022 0.022539495
-0.16630295 0.047678288 0.18055663 0.29169923 0.071428224 0.04536425 -0.020718906 0.11525199
00000000: 9cbe 07be 7894 e83d cc2a 6cbd 780d 3e3c
00000010: c2d5 0fbe e8aa 283e bf4c a5bd ae34 a83d
00000020: fa40 223e b10d 943e 2a1c 07bd f7af 0a3e
00000030: f563 01bc 0343 033c 0c95 d43d b0b0 bbbd
00000040: e7b9 c8bd a6a9 293e 08d3 2cbc a31f 093e
00000050: 5a5f 673c 1be2 943c 9b4d 953d e77c 4d3d
00000060: 54bd a73c 070a 8e3d 95e5 86bc 6994 31bc
00000070: 90bc 7ebd ca46 103e 1b1b 19bd e4cb fa3c
00000080: 0ed6 813d fe08 213d fdbc c03d 631b 2fbd
00000090: d3cc 93bd 9d91 7a3d 8f68 f93d 19ef f03b
000000a0: cf0e e23d 7765 0d3b 6f59 ecbd 5127 073e
000000b0: 488c 05bd 10ab 093e fa42 bcbd 5095 6abc
000000c0: 0582 03bd d152 38bd 8c59 023d 134a 8cbc
000000d0: bade c6bd 7ffa 13be 306e fb3b 7da2 ccbd
000000e0: bdc1 25be b101 143e 5a8a 1fbe eb8a 643d
000000f0: 7e63 cebd 087c 203d 8af5 323d 2e09 133e
00000100: d909 01be 319e 9d3b b78f 473a 61a6 d53d
00000110: cf4f fd3c c905 363e 89d5 c43c 48b4 35be
00000120: a6fd 7b3d a9d4 9cbd db32 b23d f9c2 5c3d
00000130: 5fda a8bd d786 afbd 76b3 40bd 7523 a73c
00000140: 9777 cbbd cc11 e63d 310d 20be 1fb0 4ebe
00000150: 088b 98bd dbcf c23b 741f ef3c 1563 cc3d
00000160: a035 633d 5c9e 5f3d 4f98 95bc ef7f e73d
00000170: 7ad0 64be 3a71 4abd ad57 24be 5643 d3bd
00000180: 3c4c f23d 0876 21be 5a0d 623e cb75 23be
00000190: 10e9 30be 04d7 33bd 43cf ccbd 3ecb 7fbd
000001a0: 89a6 5d3c c7d7 053e 342d 9fbc 094d 4f3e
000001b0: 4089 d7bc cf51 0fbe 8201 06bd 5396 0abe
000001c0: 739f 0cbe 44fe 343d 0a5c 093e f012 9d3d
000001d0: 87dd 14be 54eb 25bd 9b9b 8ebd 2f66 603e
000001e0: 4964 3b3d ea5f c4bc 75ee da3d 2906 05be
000001f0: 6e40 473a 3c33 b4bd 1754 e0bd e239 6bbd
00000200: 519c aebd fec8 fc3d 2251 c53d f6ce e13d
00000210: f4f0 06be 02f3 5e3d a919 0cbe 9e51 523d
00000220: 6c46 083d 2823 dc3c 6984 f93d a1c6 2c3d
00000230: ddfa bdbd db35 b6bc e714 e7bd fae9 3c3e
00000240: 7538 adbd 32cb e8bc 0a25 e1bc 0248 9c3d
00000250: e3b9 afbd 6c35 65bd 38c6 4b3d 4efa 6b3c
00000260: fb8d bf3c ff46 943e 40cb f1bd 72e8 5f3e
00000270: 5a95 143d 5c48 6ebd 9764 9c3a b8ef 77bd
00000280: fc92 513d a887 07be 8b52 9e3d 6ff8 b93d
00000290: be6b 953d fbde 0e3d 3729 22be d7a5 fb3d
000002a0: b22b 84bd 0840 28be cbb4 883d d2c4 143e
000002b0: d85c 05be ab44 073e 48d9 eb3c bb12 383e
000002c0: d4d4 433c 852a 5f3e 330b 80bd 8ac0 393e
000002d0: 01fd 14be d890 70bc fb56 95bd 9a83 13bc
000002e0: e1fb efbd a745 78bd accd 0a3e e402 163c
000002f0: 3532 25be 2b75 6b3e b932 21be 4b6b 63bd
00000300: b9c9 193e cfc8 173e 4f5b 6cbd 3c7d 883d
00000310: 1b54 bfbd 387d 85ba bc28 11be 1cd3 193d
00000320: 5ec4 09be 447c 9abe 00f6 9ebd f006 1abe
00000330: ee84 a63d 77b4 183e cd70 d33c 2d6b aabd
00000340: 574c dd3d 99bb 773d 0136 173d ad80 a5bd
00000350: 9ce9 dfbb 9591 c8be 19d8 acbc 4c96 b1bd
00000360: b10a d33c ee9a 0bbc 8f6e a73d 5d29 143d
00000370: a9c5 4ebc bfe1 dcbd fb6d 77bd 3bb0 f8bd
00000380: 2f78 e4bd 536b 88be d705 7abd 7cad 3b3c
00000390: e17a 7f3d b635 1e3e 56ca b43d 9ea6 85bd
000003a0: fe1e 07be 3a04 233e 4b61 95bd 2512 803c
000003b0: dc95 13be 242c b9be 02a9 74bd 575a 9f3d
000003c0: 1dd2 9dbb 9378 27be 7881 2a3d 0e23 9cbd
000003d0: fc7f cabd 3feb 373d 29a0 42bd bfa4 b83c
000003e0: 524b 2abe 4f4a 433d d6e3 383e 9a59 953e
000003f0: f648 923d ddcf 393d b2ba a9bc 3c09 ec3d

actor.0.bias f4 [256]
0.039199844 -0.009165703 -0.038888495 0.0385603 -0.09068112 0.12159854 -0.044369206 -0.054457422
0.038987227 -0.10863173 0.107096046 -0.007604464 0.09696781 -0.13583332 -0.0413228 0.107961714
-0.102407396 -0.02932771 0.0012065626 -0.12850352 0.042503998 0.06305955 0.12983023 -0.10912163
0.14718024 0.11870575 -0.14226128 -0.054773618 -0.12972297 -0.11072364 0.081063524 -0.07353088
0.11305352 -0.12409835 0.13234761 -0.028019467 -0.10539191 -0.019696955 -0.06809655 -0.05304124
-0.012354389 0.14676574 0.005507477 -0.019013695 -0.055301454 -0.093475185 -0.02689142 -0.04523521
-0.0066873217 0.032891925 -0.014425765 -0.111741096 -0.047887065 -0.015556272 -0.051062096 -0.03587192
-0.05032915 -0.11791185 -0.010210233 -0.10631467 0.103349194 -0.1094866 0.038501054 -0.09926818
-0.011065064 -0.081380785 0.12663771 -0.17856464 -0.028887602 0.007845517 0.13714786 -0.053862445
-0.034473684 -0.09185193 -0.025029706 -0.08907626 0.051485464 0.10432327 -0.09402122 -0.060204685
0.072433606 0.055563703 -0.13326122 0.12167415 0.014321136 0.03366837 0.12724319 0.057811823
-0.062130075 -0.15359274 -0.013421465 0.13571008 -0.15271519 0.18440075 0.07603669 -0.11729926
0.1485177 -0.027962822 -0.07433874 0.02395754 -0.060333423 -0.09156167 -0.07365689 -0.068220206
0.111531615 0.105317935 -0.09150519 0.06370922 -0.052371375 0.1392699 0.056144353 -0.06821585
-0.07531302 0.104803406 0.074962854 0.13789408 0.03452368 -0.09896488 -0.07281858 0.0009885718
-0.031491995 -0.037093792 -7.453353e-05 0.0053772763 0.020513333 0.09375386 -0.062085647 0.13838598
0.03158873 -0.03646138 -0.14366566 -0.13475782 -0.10327904 -0.08101971 0.091890834 -0.068846725
0.0077669276 0.087108515 0.023742512 -0.05988243 -0.08948333 0.11087743 0.031248247 0.028669799
0.06641992 -0.007309653 0.02498232 -0.065493464 -0.091351435 0.10481363 -0.01975797 -0.050001502
-0.13180304 0.12490904 0.055621155 0.09501583 0.05498183 0.1380642 -0.056190833 0.1046807
0.050549455 0.1514746 0.03539615 0.06657064 0.005621313 -0.03781957 0.14460874 0.099896304
-0.016944809 -0.10408525 -0.1158033 0.17148852 -0.10491757 0.07159724 -0.13850804 -0.07576071
0.10552608 0.061514877 0.005988168 -0.1312997 0.058083635 -0.060004003 0.10702168 0.11716824
-0.0941315 -0.05797199 -0.0634385 0.061209265 0.030932158 0.11841677 0.08095146 0.0494179
-0.10291888 -0.107399054 -0.13955945 -0.030206421 -0.06317204 -0.06128029 -0.09251768 -0.056391086
-0.12238072 -0.027493479 -0.06221906 -0.012330027 -0.026045443 0.10647501 0.091696694 -0.115737766
0.13911046 -0.09819429 -0.15250503 -0.100304365 -0.10638385 0.11976892 0.11667178 -0.069508165
-0.008752909 -0.11923271 0.003599796 0.07101707 0.06997068 0.074932866 -0.025526948 -0.0023679233
0.03521096 0.107110225 0.12683149 -0.13148971 -0.0863382 0.04395883 0.004999389 0.054034084
0.0110262 0.016602874 -0.077327736 0.020013059 -0.09116207 0.011452144 0.08446283 -0.029774794
0.025047846 0.10644979 0.1273483 0.09585123 -0.048416488 -0.104623295 0.15931988 -0.0043759854
-0.14940557 -0.14925615 0.09996257 -0.044116195 -0.064399324 0.06268611 -0.058228277 0.016090285
00000000: 0490 203d bf2b 16bc 8b49 1fbd 68f1 1d3d
00000010: 06b7 b9bd a808 f93d 7cbc 35bd bf0e 5fbd
00000020: 12b1 1f3d 507a debd 2c55 db3d de2e f9bb
00000030: 0f97 c63d e417 0bbe 1942 29bd 081b dd3d
00000040: f8ba d1bd aa40 f0bc 8625 9e3a 6d96 03be
00000050: ac18 2e3d 5e25 813d 37f2 043e 297b dfbd
00000060: 6bb6 163e 001c f33d f1ac 11be 4d5a 60bd
00000070: 19d6 04be 13c3 e2bd a204 a63d 5c97 96bd
00000080: 9b88 e73d 4727 febd 2286 073e 1589 e5bc
00000090: b7d7 d7bd 825b a1bc 3476 8bbd c541 59bd
000000a0: 106a 4abc c249 163e 1178 b43b 9cc2 9bbc
000000b0: c783 62bd eb6f bfbd 654b dcbc 8e48 39bd
000000c0: 5221 dbbb afb9 063d 0b5a 6cbc 84d8 e4bd
000000d0: 3a25 44bd bcdf 7ebc 7d26 51bd 6fee 12bd
000000e0: f025 4ebd c57b f1bd d248 27bc 81bb d9bd
000000f0: bea8 d33d 833a e0bd 48b3 1d3d 1e4d cbbd
00000100: 3e4a 35bc f8aa a6bd 51ad 013e a6d9 36be
00000110: b1a5 ecbc 7c8a 003c 7d70 0c3e de9e 5cbd
00000120: 4734 0dbd dd1c bcbd 190b cdbc 9d6d b6bd
00000130: 6ce2 523d 70a7 d53d 338e c0bd 3099 76bd
00000140: 1258 943d c496 633d a175 08be 4c30 f93d
00000150: 33a3 6a3c d8e7 093d 0a4c 023e 17cc 6c3d
00000160: 1b7c 7ebd 6a47 1dbe b4e5 5bbc 95f7 0a3e
00000170: 5f61 1cbe 8dd3 3c3e 20b9 9b3d 983a f0bd
00000180: 0615 183e 4a12 e5bc e93e 98bd 9a42 c43c
00000190: 2e20 77bd af84 bbbd 6cd9 96bd 09b7 8bbd
000001a0: b06a e43d eeb0 d73d 1367 bbbd fb79 823d
000001b0: 5e83 56bd c59c 0e3e 9ff7 653d c0b4 8bbd
000001c0: b63d 9abd 2ba3 d63d 2086 993d 1b34 0d3e
000001d0: b468 0d3d 19ae cabd e821 95bd f792 813a
000001e0: c0fd 00bd a9ef 17bd e24e 9cb8 dd33 b03b
000001f0: 940b a83c 0602 c03d 854d 7ebd 0eb5 0d3e
00000200: 2f63 013d 8758 15bd 171d 13be f4fd 09be
00000210: f683 d3bd a9ed a5bd 4331 bc3d 83ff 8cbd
00000220: b681 fe3b f365 b23d a87f c23c 4747 75bd
00000230: 0943 b7bd b513 e33d 53fc ff3c eddc ea3c
00000240: 2b07 883d d085 efbb b9a7 cc3c 7021 86bd
00000250: 7616 bbbd 87a8 d63d 77db a1bc 60ce 4cbd
00000260: 60f7 06be 50d0 ff3d 02d3 633d a997 c23d
00000270: a134 613d b460 0d3e 5c28 66bd d662 d63d
00000280: f20c 4f3d 281c 1b3e 8efb 103d 3056 883d
00000290: fe32 b83b b2e8 1abd 5014 143e 6f96 cc3d
000002a0: d7cf 8abc a62a d5bd 482a edbd b09a 2f3e
000002b0: 06df d6bd 93a1 923d 0dd5 0dbe 6e28 9bbd
000002c0: 0f1e d83d 06f7 7b3d 6538 c43b 6e73 06be
000002d0: 1be9 6d3d c2c6 75bd 2f2e db3d e7f5 ef3d
000002e0: 04c8 c0bd 0a74 6dbd 0bec 81bd 91b6 7a3d
000002f0: 7065 fd3c 7e84 f23d e1c9 a53d 6d6a 4a3d
00000300: 22c7 d2bd 09f4 dbbd ace8 0ebe 7573 f7bc
00000310: 5860 81bd 0b01 7bbd e979 bdbd 57fa 66bd
00000320: bea2 fabd 013a e1bc 6ad9 7ebd e203 4abc
00000330: 415d d5bc 920f da3d 7acb bb3d ec07 edbd
00000340: f972 0e3e 171a c9bd 472a 1cbe 606c cdbd
00000350: c7df d9bd 6849 f53d 9df1 ee3d 4c5a 8ebd
00000360: 5c68 0fbc 4730 f4bd 8eea 6b3b 6671 913d
00000370: ca4c 8f3d 6776 993d e41d d1bc 292f 1bbb
00000380: 5e39 103d 9b5c db3d 1de0 013e 3da5 06be
00000390: 15d2 b0bd 2d0e 343d ead1 a33b d852 5d3d
000003a0: 3ca7 343c c002 883c 015e 9ebd 6df2 a33c
000003b0: 2eb3 babd c6a1 3b3c d9fa ac3d 45ea f3bc
000003c0: 2431 cd3c 5902 da3d 9867 023e a64d c43d
000003d0: 5e50 46bd bd44 d6bd c024 233e 6d64 8fbb
000003e0: c6fd 18be 9bd6 18be 2db9 cc3d 2fb3 34bd
000003f0: cbe3 83bd 9361 803d c680 6ebd c6cf 833c

actor.2.weight f4 [128, 256]
0.12994263 0.08545134 0.06835683 0.06811483 0.066047646 0.09890947 -0.020418508 -0.073985025
-0.1019359 0.020521866 0.037306406 -0.022421435 0.0018888023 0.0051403735 0.085592926 0.025004398
-0.0022231017 0.039349295 0.14539577 0.021945842 0.046830036 0.044581555 -0.035818297 -0.13316156
-0.106436156 0.071941294 0.0024800145 -0.061929785 0.061739154 -0.09742637 -0.037662815 -0.02533075
-0.11021232 0.011926606 0.056466844 0.1606339 0.026812334 0.072939396 -0.027843753 0.06666415
0.069622405 -0.024148287 -0.07015387 -0.130549 -0.06619547 -0.12692244 -0.025448848 0.05299119
0.04651125 0.013341007 -0.03620858 0.043070927 -0.011882889 0.047077518 -0.40075684 0.07800896
-0.008315203 0.0038269423 0.08158017 0.022540735 0.0704455 0.24635915 0.032591715 -0.03823041
0.042304885 -0.00034734202 0.20408376 -0.050413147 0.0597278 0.043304022 -0.077883266 -0.02842202
0.11214637 0.02339355 0.079441234 -0.012912169 -0.018364018 -0.07966686 0.06375205 -0.008677361
0.02877814 -0.06462137 0.016967913 0.05024871 0.08788112 -0.0808781 0.0592083 -0.0032162657
0.06958532 0.09363287 0.019481959 -0.029510476 -0.06334646 0.07429846 0.17925814 -0.062412806
-0.28710604 0.02900789 -0.17888533 0.03308126 0.021375809 0.06676846 -0.10674054 -0.021015426
-0.056833357 -0.07596478 0.09892782 -0.013741957 -0.0042755343 -0.025124183 -0.013907955 -0.1311679
-0.04252569 0.06534341 0.052186813 -0.085276045 0.044609733 -0.016502023 -0.23838069 0.021431148
0.07900791 0.012626024 0.029609913 -0.023108525 -0.016413063 -0.03454507 -0.16750227 0.014319829
0.09305325 -0.00805623 -0.0009241424 -0.0030451578 -0.030320054 0.036138404 0.06312279 0.06386278
-0.08218795 -0.029072514 -0.0075163683 0.0833545 -0.011146982 -0.005362088 -0.0004082114 0.06530677
0.03757458 -0.013967332 0.07796144 0.039667726 0.08104436 0.003347051 0.08818631 -0.036133125
0.03974153 -0.04852218 0.007301567 -0.08368281 -0.17258431 0.024345743 0.013882119 -0.15512595
-0.104714535 -0.066577755 0.063782714 0.16365574 0.06616286 0.0090445215 -0.039771903 -0.02874263
0.008123172 0.14693256 0.12237017 0.033674166 -0.056131236 0.0008588107 0.0028682433 0.009161255
0.14113042 0.029026406 0.01425948 -0.16656132 -0.0841408 -0.06969491 -0.018111337 0.014049237
-0.11355247 0.007880342 0.07075084 0.046962503 -0.08067353 -0.121313274 -0.04850471 -0.02663401
-0.09063358 0.06410802 0.12342172 0.0071997484 -0.07506657 -0.13181363 0.05700402 -0.015182489
0.031669505 -0.040005915 0.05791174 0.037805837 0.04719396 -0.012435996 0.03062782 0.015564785
0.12074448 -0.0650027 -0.012011023 -0.022639297 -0.03785557 -0.077102534 0.102882534 -0.09054809
-0.02195589 0.08816541 0.18475859 -0.099264994 0.12103777 0.0011612116 0.06661718 0.014298397
0.08739114 -0.06586121 0.0102058295 -0.00038267262 -0.033801775 0.014272873 0.028368166 0.06436118
-0.0020257018 -0.081399105 -0.041637197 -0.041278645 -0.07665631 -0.06338115 0.030667268 0.02595955
-0.13580878 0.008603816 0.07151926 -0.21938612 0.19052246 0.0406182 0.1083321 0.09850242
-0.052746587 0.06315278 0.06992409 0.10476484 -0.001615432 0.01575611 -0.14253628 0.07142406
00000000: ae0f 053e 1d01 af3d aafe 8b3d ca7f 8b3d
00000010: fd43 873d 0c91 ca3d b744 a7bc 7685 97bd
00000020: c5c3 d0bd 791d a83c 9ace 183d 28ad b7bc
00000030: b091 f73a 9470 a83b 584b af3d 06d6 cc3c
00000040: 75b1 11bb ba2c 213d a1e2 143e c4c7 b33c
00000050: dad0 3f3d 269b 363d 35b6 12bd 815b 08be
00000060: 33fb d9bd f555 933d bd87 223b 16aa 7dbd
00000070: 32e2 7c3d 7a87 c7bd 5344 1abd 6f82 cfbc
00000080: ffb6 e1bd d067 433c c749 673d 377d 243e
00000090: 8aa5 db3c 4061 953d 9518 e4bc 3787 883d
000000a0: 3196 8e3d a1d2 c5bc d5ac 8fbd a3ae 05be
000000b0: 7e91 87bd f5f7 01be 1a7a d0bc 4a0d 593d
000000c0: 9582 3e3d 3d94 5a3c 734f 14bd 246b 303d
000000d0: 73b0 42bc 5bd4 403d 0030 cdbe 29c3 9f3d
000000e0: 7d3c 08bc 70cd 7a3b 8113 a73d 59a7 b83c
000000f0: bb45 903d 9345 7c3e e47e 053d 7e97 1cbd
00000100: e347 2d3d 751b b6b9 55fb 503e 047e 4ebd
00000110: 23a5 743d 8f5f 313d 4381 9fbd 4cd5 e8bc
00000120: ffac e53d d5a3 bf3c 16b2 a23d 908d 53bc
00000130: 2370 96bc 6128 a3bd 6f90 823d 7d2b 0ebc
00000140: 22c0 eb3c 3558 84bd 4b00 8b3c 97d1 4d3d
00000150: 04fb b33d 6ba3 a5bd 6784 723d fcc7 52bb
00000160: c082 8e3d 97c2 bf3d a198 9f3c f4bf f1bc
00000170: cabb 81bd ca29 983d 728f 373e 92a4 7fbd
00000180: 90ff 92be f4a1 ed3c b72d 37be 3780 073d
00000190: 521c af3c e7bd 883d c99a dabd 8b28 acbc
000001a0: 18ca 68bd 6c93 9bbd ab9a ca3d f225 61bc
000001b0: c819 8cbb 3bd1 cdbc 31de 63bc e150 06be
000001c0: 6b2f 2ebd c4d2 853d d7c1 553d 35a5 aebd
000001d0: b2b8 363d 402f 87bc 111a 74be 6090 af3c
000001e0: e6ce a13d 62dd 4e3c 7d90 f23c 174e bdbc
000001f0: b074 86bc 227f 0dbd b785 2bbe b79d 6a3c
00000200: b492 be3d 47fe 03bc 2642 72ba 4591 47bb
00000210: c361 f8bc dd05 143d 8546 813d 7dca 823d
00000220: 2852 a8bd 7b29 eebc de4b f6bb c4b5 aa3d
00000230: d5a1 36bc 74b4 afbb 3505 d6b9 8ebf 853d
00000240: cee7 193d 3dd7 64bc 3faa 9f3d a07a 223d
00000250: 96fa a53d 335a 5b3b 069b b43d 5400 14bd
00000260: 04c8 223d 32bf 46bd fc41 ef3b e561 abbd
00000270: f1b9 30be b970 c73c d471 633c 56d9 1ebe
00000280: 9374 d6bd eb59 88bd 83a0 823d 5f95 273e
00000290: 6580 873d 792f 143c dde7 22bd aa75 ebbc
000002a0: 0e17 053c 7d75 163e 369d fa3d eced 093d
000002b0: dee9 65bd cf21 613a 23f9 3b3b 1719 163c
000002c0: 7e84 103e c9c8 ed3c 98a0 693c 0d8f 2abe
000002d0: 0352 acbd 34bc 8ebd 3a5e 94bc c52e 663c
000002e0: 338e e8bd 8d1c 013c d1e5 903d c15b 403d
000002f0: 2a38 a5bd 1873 f8bd e0ac 46bd 912f dabc
00000300: 199e b9bd 114b 833d 87c4 fc3d deeb eb3b
00000310: 80bc 99bd 27fa 06be 0c7d 693d f9bf 78bc
00000320: e2b7 013d 3edd 23bd dc34 6d3d 4bda 1a3d
00000330: 744e 413d 59c0 4bbc 32e7 fa3c 7103 7f3c
00000340: e248 f73d 2320 85bd e2c9 44bc 0c76 b9bc
00000350: 710e 1bbd efe7 9dbd 14b4 d23d 4771 b9bd
00000360: d7dc b3bc 1190 b43d 5b31 3d3e 724b cbbd
00000370: a6e2 f73d cc33 983a 976e 883d d343 6a3c
00000380: 20fa b23d 3ee2 86bd 5a36 273c 73a1 c8b9
00000390: bb73 0abd c5d8 693c 5b64 e83c cbcf 833d
000003a0: a3c1 04bb 93b4 a6bd c48b 2abd cc13 29bd
000003b0: fcfd 9cbd facd 81bd ec39 fb3c 1fa9 d43c
000003c0: 7511 0bbe 05f7 0c3c b178 923d c1a6 60be
000003d0: 5218 433e 455f 263d 38dd dd3d a3bb c93d
000003e0: ce0c 58bd 3f56 813d 5c34 8f3d f38e d63d
000003f0: e7bc d3ba f512 813c 08f5 11be c746 923d

actor.2.bias f4 [128]
-0.05398571 -0.05968337 -0.027509455 -0.0018135515 0.02113327 0.02454503 -0.05439496 0.012635134
-0.012199725 -0.062244717 -0.027854688 -0.022223333 -0.03649142 -0.0556951 0.01029517 -0.048466127
-0.043322314 -0.066362865 -0.04467743 0.042672537 0.027477434 0.06971008 0.006166008 -0.0379878
-0.037109103 0.022332702 -0.031173319 0.041451685 0.052538406 0.0018716365 0.018373294 0.032514248
0.06055637 0.021009007 0.07899183 -0.004047095 0.02538563 0.05506338 0.07223472 0.028354589
0.0044112527 0.04404348 -0.041384175 -0.05256424 0.026211174 0.00095305446 0.034981336 -0.036977027
0.032394923 0.016325736 -0.035727546 0.009242851 -0.0073081274 -0.021437459 0.0725573 0.06231853
0.028728347 -0.04770672 0.035515584 0.04975041 -0.0007741143 0.010179994 0.040328033 0.054145228
-0.04815569 0.040022068 -0.06655573 -0.022837054 0.030569736 -0.032720413 0.0023399128 -0.009889468
-0.025974981 0.044475086 -0.015167533 0.03204939 0.06175331 0.0067015784 -0.017619621 0.031569704
0.03805023 0.04613558 -0.008562478 0.02935931 -0.010962647 0.030728875 -0.052718095 -0.026112013
0.057263065 -0.021448944 0.039528932 0.010177298 -0.027118688 0.011177686 -0.07431136 -0.010017054
-0.017283656 0.025568219 0.06519908 0.014635582 0.062008202 -0.007967913 -0.040460687 -0.029847363
0.04634301 0.0769787 0.02807537 0.072518736 0.053928822 0.07162417 -0.028437922 -0.022531876
0.011774327 0.049231913 0.032287486 -0.010829822 0.02203577 0.0026890982 -0.004320489 -0.009604109
0.031894773 0.037381407 -0.062862605 -0.044474903 0.040604018 0.037097886 0.06931112 -0.053182747
00000000: 1f20 5dbd 8d76 74bd 825b e1bc b1b4 edba
00000010: ae1f ad3c a912 c93c 40cd 5ebd 9803 4f3c
00000020: 5be1 47bc 51f4 7ebd 842f e4bc b50d b6bc
00000030: 0778 15bd 8c20 64bd 13ad 283c 6b84 46bd
00000040: bd72 31bd 41e9 87bd aeff 36bd 66c9 2e3d
00000050: 5b18 e13c 29c4 8e3d 390c ca3b 1899 1bbd
00000060: b7ff 17bd 12f3 b63c 305f ffbc 3ec9 293d
00000070: 8332 573d b351 f53a 9783 963c a92d 053d
00000080: f509 783d 151b ac3c 78c6 a13d 7e9d 84bb
00000090: 86f5 cf3c 248a 613d ccef 933d e247 e83c
000000a0: 458c 903b f066 343d 7482 29bd 9a4d 57bd
000000b0: d1b8 d63c 67d6 793a 9748 0f3d 3975 17bd
000000c0: 8ab0 043d 8dbd 853c 0c57 12bd 546f 173c
000000d0: 0479 efbb 9c9d afbc ec98 943d b741 7f3d
000000e0: b657 eb3c 1f68 43bd ca78 113d 16c7 4b3d
000000f0: eeed 4aba fdc9 263c 022f 253d 63c7 5d3d
00000100: e73e 45bd 2eee 233d 5f4e 88bd c614 bbbc
00000110: 626d fa3c d705 06bd 3959 193b 6f07 22bc
00000120: 7cc9 d4bc 822b 363d 3f81 78bc 3946 033d
00000130: 0af1 7c3d ea98 db3b 0657 90bc 3c4f 013d
00000140: 8fda 1b3d a9f8 3c3d a349 0cbc f082 f03c
00000150: ad9c 33bc 1fbb fb3c eeee 57bd dce8 d5bc
00000160: ad8c 6a3d b2b5 afbc 17e9 213d afbe 263c
00000170: 0328 debc 9d22 373c 8e30 98bd 921e 24bc
00000180: 7496 8dbc 7174 d13c 1887 853d 15ca 6f3c
00000190: 50fc 7d3d d98b 02bc 1bba 25bd 7582 f4bc
000001a0: 2bd2 3d3d 02a7 9d3d 51fe e53c b484 943d
000001b0: 78e4 5c3d b1af 923d a5f6 e8bc c594 b8bc
000001c0: 1be9 403c 67a7 493d e23f 043d 916f 31bc
000001d0: 5c84 b43c 953b 303b e392 8dbb 8e5a 1dbc
000001e0: 18a4 023d 3f1d 193d 1cbe 80bd 512b 36bd
000001f0: 6650 263d f4f3 173d fdf2 8d3d 27d6 59bd
