CRL/slime_ppo_vs_fixed.pth (torch, 371205 bytes, 11 tensors)

critic.0.weight f4 [256, 48]
-0.06986491 -0.019874608 -0.00057050923 -0.016108563 -0.051458787 0.170393 -0.041668713 0.048709273
-0.29931346 -0.035893917 0.10975351 -0.015705172 0.004184394 0.0163372 -0.04070304 -0.018810665
0.03170894 0.09233849 -0.10244055 0.07103104 -0.1339461 0.04991086 0.12996247 0.19451906
-0.04700718 0.06116483 -0.038064472 0.07822673 0.19857933 0.09229012 -0.115537815 -0.0188133
-0.2202815 -0.1659022 -0.04283057 0.118695565 0.14974129 0.13663429 -0.02626812 0.017422043
0.1681783 0.15256168 -0.018736864 0.032442216 -0.15470265 -0.18386182 0.19158281 -0.14863725
-0.080400094 0.17172752 -0.016169198 -0.056261394 0.038896114 0.06151982 0.007268982 -0.033908542
0.15175533 0.13044094 0.2127736 0.024897957 -0.14097595 0.15513994 -0.0010312805 0.00541488
0.06670205 0.01477232 0.00884761 -0.12670763 0.27356175 0.10856632 0.027656915 0.074003756
-0.12735325 0.13968529 -0.0055515994 0.018169347 -0.018776897 0.17566599 0.012267332 -0.02301704
0.2962043 -0.0848174 0.1889148 -0.011329976 -0.09426988 0.14360672 -0.0012325074 -0.021235175
-0.10068387 0.18649572 0.00618406 0.0106841 0.06043747 0.096937485 0.2213545 0.175947
-0.014948705 -0.013610536 -0.0051960857 -0.051419813 0.003267134 0.068887025 -0.0547952 -0.055519126
0.28245565 -0.33191338 0.020428192 -0.08897127 -0.0781854 0.123147964 0.0323231 0.03447756
-0.025244595 -0.07998943 -0.055204622 -0.050127808 0.25306618 -0.26600513 -0.13506943 -0.09999056
-0.024694063 0.1504531 -0.062077105 0.1116416 -0.17472365 0.061011944 -0.013315053 -0.02483647
0.14054981 -0.27376968 -0.082335494 0.120446794 0.10334058 0.18105616 0.045040265 0.07606112
-0.1727741 0.013213562 -0.012710929 0.09247651 0.33927158 -0.10720536 -0.038833015 -0.0050282134
-0.15415037 -0.13194616 0.013349413 -0.086892284 -0.098947234 0.1701713 -0.04763489 -0.03979571
-0.1469765 -0.2670318 0.16254185 -0.14694998 -0.082246974 -0.028516147 -0.062310632 -0.021873165
-0.08021779 -0.069699086 -0.055139232 -0.07609632 0.017648969 -0.14511712 0.124698676 -0.105983354
-0.14343789 -0.009884814 -0.013558076 -0.014183888 -0.056706034 0.15147951 -0.033226427 -0.054431148
-0.17283273 -0.39099148 0.09844343 -0.17086342 0.0017209308 -0.08501853 -0.01357872 0.111110225
-0.09213567 -0.027012672 0.0129859345 -0.024427556 -0.058149673 -0.4128191 0.17495637 -0.16071387
0.027059989 0.14707175 0.005555726 -0.047027994 0.24474376 -0.09246189 -0.04802151 0.05013046
0.098583184 -0.060337614 0.023228832 0.104788125 -0.040716507 0.18998156 0.025904318 -0.09514745
0.006486564 -0.05823489 -0.052588996 -0.039767694 -0.07611133 -0.032993127 0.11930087 0.015884686
0.12745017 0.15907967 -0.10166859 0.05756859 0.1384292 0.05444572 -0.08248899 0.035951477
0.00095553405 0.057640348 0.08437729 0.07121642 -0.00861695 0.17729977 -0.02003459 -0.0232722
0.18980108 -0.033500247 0.015532781 -0.15416978 -0.069482304 0.013060356 0.058661412 0.2737287
0.21102457 -0.03331195 -0.012828335 -0.010142102 0.03696753 0.11888805 0.007483853 -0.050828304
-0.22911534 -0.3426435 -0.043880124 -0.05815135 0.22988354 0.13242911 0.022858825 0.061051663
00000000: 5515 8fbd 13d0 a2bc 3a8e 15ba 1bf6 83bc
00000010: 73c6 52bd 817b 2e3e d0ac 2abd 6083 473d
00000020: 9d3f 99be 8005 13bd 73c6 e03d 22a8 80bc
00000030: 3e1d 893b 97d5 853c 3bb8 26bd d318 9abc
00000040: 3ce1 013d f61b bd3d 5acc d1bd b978 913d
00000050: 2b29 09be 546f 4c3d e214 053e 0130 473e
00000060: 9a8a 40bd f987 7a3d 7ee9 1bbd 5635 a03d
00000070: 6158 4b3e 9a02 bd3d 179f ecbd 5a1e 9abc
00000080: 7991 61be 44e2 29be 1c6f 2fbd a916 f33d
00000090: c855 193e dce9 0b3e 3e30 d7bc acb8 8e3c
000000a0: ef36 2c3e 2139 1c3e 0d7e 99bc 21e2 043d
000000b0: 5f6a 1ebe 4646 3cbe 492e 443e 5d34 18be
000000c0: cea8 a4bd 57d9 2f3e 4475 84bc 5972 66bd
000000d0: 8851 1f3d 35fc 7b3d a430 ee3b afe3 0abd
000000e0: c065 1b3e 4f92 053e 53e1 593e cdf6 cb3c
000000f0: 005c 10be 01dd 1e3e 082c 87ba 4e6f b13b
00000100: 169b 883d 9a07 723c 91f5 103c a5bf 01be
00000110: 4910 8c3e 0558 de3d c190 e23c 488f 973d
00000120: e468 02be a909 0f3e 31ea b5bb e2d7 943c
00000130: 02d2 99bc c9e1 333e ebfc 483c 3b8e bcbc
00000140: 17a8 973e bfb4 adbd e272 413e 5da1 39bc
00000150: 9110 c1bd a40d 133e 168c a1ba 64f5 adbc
00000160: 5833 cebd bcf8 3e3e a8a3 ca3b 5d0c 2f3c
00000170: 488d 773d 2987 c63d c1aa 623e 732b 343e
00000180: 6aeb 74bc bafe 5ebc ed43 aabb 959d 52bd
00000190: 6a1d 563b a414 8d3d ee70 60bd 0668 63bd
000001a0: 079e 903e 8df0 a9be 0659 a73c 9236 b6bd
000001b0: ab1f a0bd 0035 fc3d 3a65 043d 5838 0d3d
000001c0: c1cd cebc 80d1 a3bd 3e1e 62bd d152 4dbd
000001d0: e491 813e d331 88be a44f 0abe dac7 ccbd
000001e0: 344b cabc 6110 1a3e 9044 7ebd 5aa4 e43d
000001f0: c2ea 32be a9e7 793d 6127 5abc da75 cbbc
00000200: 4aec 0f3e 8a2b 8cbe 839f a8bd cfac f63d
00000210: 3aa4 d33d c966 393e 247c 383d efc5 9b3d
00000220: b2eb 30be b27d 583c 8041 50bc 5364 bd3d
00000230: 01b5 ad3e 7c8e dbbd 5e0f 1fbd b6c3 a4bb
00000240: 98d9 1dbe e51c 07be 7fb7 5a3c 95f4 b1bd
00000250: d9a4 cabd 6341 2e3e cd1c 43bd d400 23bd
00000260: 0281 16be 64b8 88be 5f71 263e 0e7a 16be
00000270: 1a71 a8bd b29a e9bc 6f39 7fbd 5a2f b3bc
00000280: 3a49 a4bd 65be 8ebd add9 61bd 63d8 9bbd
00000290: 9294 903c 9599 14be 0562 ff3d cd0d d9bd
000002a0: 62e1 12be eaf3 21bc b122 5ebc 8a63 68bc
000002b0: 9644 68bd 721d 1b3e 6f18 08bd 32f3 5ebd
000002c0: 10fb 30be 0930 c8be b69c c93d d2f6 2ebe
000002d0: db90 e13a 321e aebd 4879 5ebc c28d e33d
000002e0: a0b1 bcbd ae49 ddbc f5c2 543c 4c1c c8bc
000002f0: 5a2e 6ebd 065d d3be c327 333e 2d92 24be
00000300: e9ac dd3c fa99 163e cf0c b63b 6da0 40bd
00000310: 1c9e 7a3e a95c bdbd 34b2 44bd 9955 4d3d
00000320: fbe5 c93d 9324 77bd 644a be3c 289b d63d
00000330: 5ac6 26bd 878a 423e 4b35 d43c abdc c2bd
00000340: 3e8d d43b b587 6ebd 8f67 57bd 73e3 22bd
00000350: 42e0 9bbd cd23 07bd 0454 f43d 9a20 823c
00000360: 4c82 023e c8e5 223e 9f37 d0bd 0bcd 6b3d
00000370: 62c0 0d3e 7a02 5f3d fdef a8bd db41 133d
00000380: ce7c 7a3a 4918 6c3d 00ce ac3d ead9 913d
00000390: 1c2e 0dbc 128e 353e 951f a4bc 57a5 bebc
000003a0: 375b 423e 8e37 09bd 357d 7e3c afde 1dbe
000003b0: bd4c 8ebd 1afb 553c f346 703d 2b26 8c3e
000003c0: d316 583e 1c72 08bd f02d 52bc 0f2b 26bc
000003d0: 446b 173d 947b f33d 1c3b f53b 5731 50bd
000003e0: 369d 6abe f86e afbe a5bb 33bd 1c30 6ebd
000003f0: 9766 6b3e 7f9b 073e 6e42 bb3c 4f11 7a3d

critic.0.bias f4 [256]
-0.12151871 0.12024424 0.124671236 -0.13635914 0.06857285 0.04673591 -0.11569278 0.08471685
0.15522882 0.20068155 0.006438304 -0.2238174 -0.014092974 0.11505349 0.022248933 -0.09737041
-0.05025735 0.041482717 -0.06364387 0.094151124 0.15091467 -0.110180594 -0.08503882 -0.08354028
-0.03794152 -0.11411441 -0.0064945417 0.15242562 -0.13753028 -0.18129854 0.023311526 -0.1544114
0.005755625 -0.05438603 0.109622896 0.1653126 0.050180282 -0.11857044 -0.08150669 0.06794677
-0.07831972 0.014723057 0.14506374 -0.10372515 -0.115115374 0.05237374 -0.09650232 0.22771282
0.022715257 -0.0452668 -0.024310488 -0.14988272 -0.01071905 -0.028288327 -0.0016190128 -0.03605931
-0.04307843 0.043509167 -0.17024618 -0.10752682 -0.0802585 0.029500768 0.018152982 0.19077711
0.05626283 0.06878409 0.079107046 0.15953122 -0.18547171 0.17896554 -0.033569284 -0.06775944
0.17909144 -0.062490184 0.15135232 0.15040605 -0.13559674 -0.086351715 -0.054230887 -0.014063258
-0.047794793 -0.052306693 -0.10274714 -0.04332786 0.06012691 0.043868948 0.038500972 0.043210115
0.048274547 0.20455807 0.05968887 -0.16451108 0.06671316 -0.022556389 -0.108947985 0.14384645
-0.10156992 -0.1284699 0.12397423 -0.14197834 -0.13778992 -0.109654345 0.010349893 0.13323097
-0.109370075 -0.085617185 0.13916458 0.13192883 0.15216954 -0.15309955 0.15112855 0.027420668
0.10612416 0.11092566 -0.025105007 -0.04772301 0.09543875 -0.071804136 0.025999337 -0.038118735
0.0046322835 0.012827792 -0.13917042 0.079006016 0.147212 0.054282904 -0.0033009555 0.019869946
-0.18984962 -0.13325936 -0.0743177 0.03235448 0.01872232 -0.09740346 -0.064591154 0.08650503
-0.12059264 -0.089006975 -0.0057011484 -0.035739627 0.030245526 -0.06285024 0.008001178 0.050884124
0.20473811 0.105585 0.1323797 0.022455322 0.04778436 -0.1061849 0.09699832 -0.14059444
-0.00019961808 0.14636146 -0.12897648 0.014930313 0.07120035 -0.13819174 0.026023082 -0.10805116
0.19024728 0.17978306 0.082181536 0.19748686 -0.07230486 0.027194692 -0.09404707 0.17695417
0.18059847 0.011592473 -0.12140327 -0.05143352 -0.09883627 -0.034325927 -0.024454743 0.19124976
-0.0024870925 0.08313414 0.03937494 -0.012542864 0.010865652 0.016339857 0.085294664 -0.11044286
0.016840918 0.06899937 -0.028584424 -0.11120917 0.002333466 0.09605961 -0.081461534 -0.08870839
0.13153505 -0.16321583 0.08224148 -0.06639497 0.0469712 -0.056297306 -0.02818835 0.061086237
0.045787413 0.002031335 -0.055132817 0.16109017 -0.046310376 -0.016138475 -0.028692372 0.124744415
-0.04106489 0.11849991 0.1460721 -0.120922126 0.08668606 -0.039117966 0.051905308 -0.07772698
-0.075275 -0.10433694 0.017149152 -0.08466657 -0.1678829 0.116331145 0.046993338 0.028287547
0.10962435 -0.089347735 0.17854053 -0.05614371 0.09941671 0.07553443 -0.11393114 -0.07755451
0.07203122 0.01768695 0.14983219 0.09377248 0.049154975 0.0060487785 0.016296059 0.11697697
-0.0346604 -0.083299294 0.058943786 0.017825643 0.019483998 0.08252643 0.124381535 0.073656544
0.0048924014 0.025562748 0.059833314 0.105325334 0.053414803 -0.13883378 -0.08075687 0.137436
00000000: cdde f8bd 9d42 f63d a253 ff3d bba1 0bbe
00000010: ec6f 8c3d 276e 3f3d 56f0 ecbd 0780 ad3d
00000020: 4ef4 1e3e 777f 4d3e 69f8 d23b 6330 65be
00000030: 38e6 66bc 2aa1 eb3d 6543 b63c 236a c7bd
00000040: a7da 4dbd c8e9 293d b857 82bd 4ed2 c03d
00000050: 6089 1a3e 5da6 e1bd d528 aebd 2b17 abbd
00000060: 9168 1bbd d1b4 e9bd 2ad0 d4bb 7615 1c3e
00000070: bdd4 0cbe 53a6 39be d0f7 be3c 061e 1ebe
00000080: af99 bc3b e3c3 5ebd f881 e03d b547 293e
00000090: d789 4d3d 0fd5 f2bd fbec a6bd ad27 8b3d
000000a0: 1766 a0bd fa38 713c 978b 143e da6d d4bd
000000b0: 9cc1 ebbd d985 563d 02a3 c5bd 8d2d 693e
000000c0: 5915 ba3c ae69 39bd ca26 c7bc db7a 19be
000000d0: f49e 2fbc ecbc e7bc 0e35 d4ba edb2 13bd
000000e0: 0273 30bd ab36 323d 0455 2ebe 0537 dcbd
000000f0: 925e a4bd 98ab f13c 90b5 943c 135b 433e
00000100: da73 663d acde 8c3d e002 a23d 275c 233e
00000110: 4cec 3dbe be42 373e f27f 09bd 76c5 8abd
00000120: bf63 373e b5f5 7fbd 1afc 1a3e 0b04 1a3e
00000130: dfd9 0abe 2bd9 b0bd 3521 5ebd 9469 66bc
00000140: 79c4 43bd 8b3f 56bd 186d d2bd 8e78 31bd
00000150: a347 763d edaf 333d 32b3 1d3d 17fd 303d
00000160: 88bb 453d ac77 513e 517c 743d 9875 28be
00000170: e9a0 883d 2dc8 b8bc 1f20 dfbd 7c4c 133e
00000180: e403 d0bd 9d8d 03be 33e6 fd3d c562 11be
00000190: cd18 0dbe 7592 e0bd 9992 293c b36d 083e
000001a0: 6bfd dfbd 1058 afbd 2981 0e3e 5a18 073e
000001b0: 55d2 1b3e 21c6 1cbe 71c1 1a3e 4fa1 e03c
000001c0: a057 d93d fe2c e33d 04a9 cdbc 3479 43bd
000001d0: 6475 c33d 0c0e 93bd 90fc d43c 6422 1cbd
000001e0: 69ca 973b a92b 523c b182 0ebe e8cd a13d
000001f0: bebe 163e c057 5e3d d854 58bb 4cc6 a23c
00000200: f067 42be 2475 08be e133 98bd 2286 043d
00000210: 8d5f 993c 777b c7bd 5e48 84bd 8d29 b13d
00000220: 46f9 f6bd 4a49 b6bd b3d0 babb b763 12bd
00000230: 77c5 f73c a0b7 80bd 5f17 033c df6b 503d
00000240: dea6 513e f33c d83d 8b8e 073e 39f4 b73c
00000250: 88b9 433d 7877 d9bd 0ea7 c63d fdf7 0fbe
00000260: 9250 51b9 c7df 153e 6912 04be 469e 743c
00000270: 7dd1 913d 2382 0dbe 5c2e d53c ed49 ddbd
00000280: 2fd0 423e 0d19 383e cb4e a83d ff39 4a3e
00000290: 9214 94bd 67c7 de3c c09b c0bd 7933 353e
000002a0: ceee 383e 5bee 3d3c 47a2 f8bd f4ab 52bd
000002b0: ac6a cabd 5899 0cbd 5055 c8bc fad6 433e
000002c0: 7dfe 22bb 3b42 aa3d 9e47 213d 9680 4dbc
000002d0: d905 323c 2adb 853c f8ae ae3d de2f e2bd
000002e0: f7f5 893c 8b4f 8d3d e229 eabc a2c1 e3bd
000002f0: 10ed 183b e7ba c43d 4ed5 a6bd bfac b5bd
00000300: 20b1 063e 0d22 27be 396e a83d 16fa 87bd
00000310: df64 403d 0198 66bd 41eb e6bc 9035 7a3d
00000320: 958b 3b3d 2520 053b f3d2 61bd d2f4 243e
00000330: f3af 3dbd d634 84bc 440c ebbc 007a ff3d
00000340: a833 28bd 15b0 f23d ed93 153e 05a6 f7bd
00000350: 7688 b13d 293a 20bd a99a 543d 532f 9fbd
00000360: c729 9abd 9bae d5bd 617c 8c3c ab65 adbd
00000370: 7fe9 2bbe 063f ee3d 167c 403d 49bb e73c
00000380: bb82 e03d f2fb b6bd 54d3 363e f2f6 65bd
00000390: fd9a cb3d ccb1 9a3d bb54 e9bd e6d4 9ebd
000003a0: 1b85 933d 39e4 903c 9c6d 193e c90b c03d
000003b0: ba56 493d d534 c63b 507f 853c 9f91 ef3d
000003c0: 10f8 0dbd d298 aabd 0a6f 713d 1507 923c
000003d0: e89c 9f3c 9e03 a93d bfbb fe3d 3ed9 963d
000003e0: 7050 a03b f868 d13c c713 753d cfb4 d73d
000003f0: 7bc9 5a3d 712a 0ebe dc63 a5bd 06bc 0c3e

critic.2.weight f4 [128, 256]
0.009588334 -0.11341259 -0.050307818 0.016968785 -0.034291763 0.0077345218 -0.01995609 0.007395969
0.01943194 -0.05433579 0.12354634 0.110991545 -0.087184094 -0.019563919 -0.017696943 -0.2639099
0.14263903 0.015246055 0.13920623 -0.032266106 -0.09792869 -0.12557201 -0.06377601 0.0800042
0.08288887 0.0841404 0.12618236 -0.17167242 -0.029249271 0.11968795 0.07884377 -0.11362996
0.13123748 -0.22284149 0.14215526 0.014836593 0.03875652 -0.0114212455 0.2514194 -0.062115014
0.0697688 -0.049194217 -0.0335154 -0.11515214 -0.023553606 -0.059227373 -0.0081561925 -0.031159675
-0.17878906 -0.40701452 -0.008611454 -0.38444495 -0.025305726 -0.011339325 -0.021418277 -0.012206597
0.015736515 -0.11696222 0.06062574 0.023235805 0.04259045 0.056957368 -0.010184267 -0.015983323
0.016807029 0.10625359 0.067426056 -0.092412554 -0.007500791 -0.00079637376 -0.13263462 0.080490306
0.1163756 0.04113746 -0.10885064 0.0007550358 0.034018394 -0.05930411 0.17350794 -0.040911194
-0.5890685 0.070017226 -0.05006919 0.07680604 -0.018373411 0.21327774 0.02671474 -0.057359323
-0.032554425 -0.08970549 -0.0075220056 -0.014525961 0.15012766 -0.048960213 0.029303672 -0.030336278
-0.016664563 0.02746712 -0.06625272 -0.020695126 -0.26030728 -0.04300848 0.010655754 -0.032019313
0.035608098 -0.08091066 -0.10457984 -0.30250722 0.018163403 0.046120204 0.004589937 -0.14585741
0.043281198 -0.037401564 0.025074255 0.15619293 0.04319233 -0.06251654 -0.0609499 0.019141272
-0.04175307 -0.32270008 0.057574753 -0.22287777 0.03637383 -0.011208664 0.003475119 -0.4412529
-0.021275243 0.34449843 -0.044774044 -0.09125268 -0.09308308 0.014879241 0.029637804 -0.0074939537
-0.038254566 -0.061180193 -0.29061463 0.06526085 0.09156116 0.06286644 0.02352093 0.06902458
-0.042768814 -0.023565903 -0.06121113 0.08027152 -0.20205611 -0.107980214 -0.034299202 -0.0007002877
0.039265104 0.07576875 -0.06450353 0.07817698 -0.34307224 0.020155469 -0.12103903 -0.25328314
0.10703728 0.0045593325 -0.01113532 -0.35882792 -0.047600105 -0.0039652796 0.18057382 -0.107388966
-0.048123345 -0.0111069465 0.092630975 0.05992719 -0.10088328 0.14135623 -0.306266 -0.052201614
-0.13586965 0.032480147 0.0084741255 0.0313457 -0.010609819 -0.034022167 -0.061386075 -0.26480642
-0.26617566 0.00071801397 -0.08024031 0.09314575 -0.021823864 -0.02707947 0.008937653 0.045874123
-0.14802022 0.03489572 -0.09526209 -0.016187768 -0.1047921 -0.021504644 0.0014015494 -0.03658472
-0.06510663 0.010088144 -0.031279244 -0.048359685 0.039082095 -0.046893463 -0.06983856 -0.011499375
0.030608216 -0.014838053 0.06914371 -0.06101553 -0.07899777 -0.2282657 0.00016304095 0.043887082
-0.10958259 -0.06604595 0.03206345 -0.033191066 0.01939457 -0.06271726 0.048140015 -0.064940564
-0.04372354 -0.02421126 -0.032059364 -0.20387138 -0.07763852 0.0058702086 0.10464408 -0.0076326057
-0.060166363 -0.06933862 0.023549685 0.01337556 -0.0835165 0.019458419 0.112216726 0.012176735
0.00074139796 0.007877882 -0.10644426 0.18540275 0.01523897 0.066458106 -0.035353664 0.061181713
-0.0017091706 0.027177837 -0.11897732 0.04276188 0.013044591 -0.031441323 -0.16143727 -0.046308946
00000000: 6318 1d3c dc44 e8bd 920f 4ebd 1f02 8b3c
00000010: 8575 0cbd df71 fd3b f47a a3bc e259 f23b
00000020: bb2f 9f3c 358f 5ebd dd05 fd3d 894f e33d
00000030: 938d b2bd 8344 a0bc 2ef9 90bc 331f 87be
00000040: f70f 123e 97ca 793c 148c 0e3e 7729 04bd
00000050: d68e c8bd f395 00be ff9c 82bd 3ed9 a33d
00000060: a4c1 a93d cd51 ac3d f335 013e e5ca 2fbe
00000070: 2b9c efbc f51e f53d d878 a13d d3b6 e8bd
00000080: 1e63 063e 8f30 64be 2691 113e 2e15 733c
00000090: 28bf 1e3d 2d20 3bbc 0bba 803e 506c 7ebd
000000a0: f2e2 8e3d e07f 49bd 7247 09bd e3d4 ebbd
000000b0: 7ef3 c0bc 6798 72bd 8da1 05bc 9342 ffbc
000000c0: 7b14 37be 3564 d0be 0e17 0dbc f8d5 c4be
000000d0: f44d cfbc 94c8 39bc 6275 afbc 2efe 47bc
000000e0: dde9 803c e389 efbd b252 783d 0459 be3c
000000f0: 5373 2e3d 214c 693d e9db 26bc 75ef 82bc
00000100: e5ae 893c 7b9b d93d ac16 8a3d cb42 bdbd
00000110: 32c9 f5bb bdc3 50ba 5fd1 07be 1ad8 a43d
00000120: 5556 ee3d c17f 283d 16ed debd 98ed 453a
00000130: df56 0b3d dee8 72bd 11ac 313e 7f92 27bd
00000140: 31cd 16bf 3165 8f3d 5a15 4dbd 7c4c 9d3d
00000150: d683 96bc 7b65 5a3e dfd8 da3c 9cf1 6abd
00000160: ca57 05bd 83b7 b7bd 287b f6bb 4cfe 6dbc
00000170: 11bb 193e 818a 48bd 410e f03c c983 f8bc
00000180: 1f84 88bc ba02 e13c 82af 87bd d388 a9bc
00000190: ff46 85be a929 30bd 7995 2e3c af26 03bd
000001a0: ccd9 113d 7db4 a5bd f52d d6bd 3ae2 9abe
000001b0: 6bcb 943c 8ae8 3c3d 2f67 963b a55b 15be
000001c0: a047 313d 6232 19bd 8668 cd3c 0af1 1f3e
000001d0: 71ea 303d ac08 80bd 9aa6 79bd 28ce 9c3c
000001e0: 4405 2bbd f238 a5be 81d3 6b3d 123a 64be
000001f0: bafc 143d 8ba4 37bc d2be 633b e6eb e1be
00000200: 6b49 aebc 1962 b03e fd64 37bd afe2 babd
00000210: 58a2 bebd 0fc8 733c fbca f23c d78f f5bb
00000220: d2b0 1cbd 1598 7abd 71cb 94be 7ba7 853d
00000230: 6b84 bb3d 1fc0 803d f7ae c03c c25c 8d3d
00000240: 5a2e 2fbd 480d c1bc 86b8 7abd 6565 a43d
00000250: cce7 4ebe bb24 ddbd 527d 0cbd 8393 37ba
00000260: 72d4 203d a52c 9b3d 6d1a 84bd 411b a03d
00000270: 2aa7 afbe 151d a53c 50e3 f7bd 54ae 81be
00000280: 5d36 db3d 7466 953b eb70 36bc 4bb8 b7be
00000290: 54f8 42bd 2def 81bb 58e8 383e bfee dbbd
000002a0: fc1c 45bd e9f9 35bc 4fb5 bd3d 3776 753d
000002b0: e59b cebd b0bf 103e e6ce 9cbe 5cd1 55bd
000002c0: 6a21 0bbe e709 053d 0fd7 0a3c 5964 003d
000002d0: ced4 2dbc d45a 0bbd f76f 7bbd b594 87be
000002e0: 2d48 88be 1a39 3c3a 0855 a4bd 33c3 be3d
000002f0: f6c7 b2bc c4d5 ddbc 3c6f 123c 81e6 3b3d
00000300: 9d92 17be d1ee 0e3d c518 c3bd 369c 84bc
00000310: 3e9d d6bd 822a b0bc 32b4 b73a dcd9 15bd
00000320: a056 85bd be48 253c aa1e 00bd ce14 46bd
00000330: 8c14 203d 5c13 40bd 8507 8fbd e067 3cbc
00000340: 15be fa3c 4e1b 73bc 389b 8d3d 6ceb 79bd
00000350: 95c9 a1bd 7cbe 69be f9f5 2a39 f1c2 333d
00000360: d66c e0bd 1943 87bd f754 033d 5bf3 07bd
00000370: 5ce1 9e3c e871 80bd 772e 453d 8fff 84bd
00000380: 7417 33bd b156 c6bc ae50 03bd a9c3 50be
00000390: f200 9fbd e15a c03b a34f d63d f01a fabb
000003a0: 0171 76bd 6801 8ebd 45eb c03c 2a25 5b3c
000003b0: b30a abbd 4367 9f3c e2d1 e53d ee80 473c
000003c0: 605a 423a 3b12 013c 73ff d9bd 38da 3d3e
000003d0: dfac 793c 301b 883d 01cf 10bd ad99 7a3d
000003e0: 4006 e0ba 0ea4 de3c 62aa f3bd 1527 2f3d
000003f0: fbb8 553c 9ec8 00bd d04f 25be 73ae 3dbd

critic.2.bias f4 [128]
0.0016740493 -0.01928944 0.00311731 0.079114564 0.058324147 -0.031582966 0.021915343 0.07470448
0.0011391464 0.05163756 -0.009945001 0.0031703697 0.070315614 -0.017157355 0.06992822 -0.012405602
0.03070116 -0.0037043793 0.0096337395 -0.03923474 0.001042715 0.0011701032 0.014268895 0.027857207
-0.007394991 0.023521904 0.0011087019 -0.06632188 -0.010593533 -0.016268523 0.0002740008 0.012348435
0.046738908 0.08837209 -0.02647107 -0.008119621 -0.047206145 -0.000804332 -0.050577953 0.10474381
0.10929142 0.038014784 0.034984026 0.101217836 0.056892343 -0.0014590675 0.05532845 0.024683008
-0.03539347 -0.045337543 0.0720108 -0.0018404619 0.025479168 0.05324461 0.06914486 -0.035160158
0.04893365 -0.008334647 0.06061697 -0.046450384 0.054803945 0.005862333 -0.0036906132 0.029952833
-0.02137937 0.04868707 0.06796678 0.06875658 0.085114345 0.060031485 0.057800725 -0.05127213
0.019440621 0.036727607 0.049108177 0.003712158 0.022922147 0.033292297 -0.014252497 0.06445156
-0.031788386 0.006976107 0.050805014 -0.029338287 0.0405596 0.034101143 0.07494833 -0.04264004
-0.05195512 -0.042967632 0.024643753 0.017209336 -0.010353239 -0.037632756 0.018391933 -0.013668985
0.035601906 0.066047855 -0.022259256 -0.054185357 -0.050316036 -0.021815453 0.03936186 0.023404764
0.004465615 -0.06958065 0.0028653278 -0.017759096 -0.048069376 -0.026995348 0.048840843 0.04246626
-0.0051549417 -0.03308724 -0.057661418 0.009459641 0.112797804 -0.017211176 0.006376137 0.09315531
0.07112508 -0.0378278 0.009958744 0.032325298 0.00064005406 -0.0018734668 -0.010982349 0.016350247
00000000: c66b db3a e304 9ebc c94b 4c3b d106 a23d
00000010: 4de5 6e3d 245d 01bd ce87 b33c aafe 983d
00000020: 694f 953a e881 533d 5cf0 22bc fac5 4f3b
00000030: a201 903d 958d 8cbc 8736 8f3d de40 4bbc
00000040: 0081 fb3c 2cc5 72bb d5d6 1d3c 9bb4 20bd
00000050: b6ab 883a 265e 993a 15c8 693c cc34 e43c
00000060: ae51 f2bb 02b1 c03c dd51 913a c4d3 87bd
00000070: 7f90 2dbc 9145 85bc c4a7 8f39 1751 4a3c
00000080: 4c71 3f3d 6dfc b43d dbd9 d8bc 2908 05bc
00000090: 3b5b 41bd cfd9 52ba d42a 4fbd ec83 d63d
000000a0: 2ed4 df3d 64b5 1b3d 694b 0f3d 4c4b cf3d
000000b0: f207 693d 2e3e bfba 16a0 623d 0534 ca3c
000000c0: bef8 10bd dcb3 39bd 667a 933d a73b f1ba
000000d0: b0b9 d03c 0517 5a3d d29b 8d3d 1904 10bd
000000e0: a76e 483d 0b8e 08bc 8049 783d c242 3ebd
000000f0: 1a7a 603d d018 c03b 37de 71bb a55f f53c
00000100: ca23 afbc 186c 473d 2b32 8b3d 40d0 8c3d
00000110: 6e50 ae3d 93e3 753d 74c0 6c3d ba02 52bd
00000120: f041 9f3c b06f 163d a825 493d ad47 733b
00000130: 3ac7 bb3c 815d 083d 4e83 69bc 2eff 833d
00000140: 8a34 02bd d497 e43b eb18 503d d956 f0bc
00000150: d321 263d a4ad 0b3d 837e 993d 53a7 2ebd
00000160: e4ce 54bd d4fe 2fbd b2e1 c93c 98fa 8c3c
00000170: a2a0 29bc ce24 1abd aeaa 963c e1f3 5fbc
00000180: 4ed3 113d 1944 873d 0b59 b6bc 77f1 5dbd
00000190: 3018 4ebd 52b6 b2bc e739 213d 59bb bf3c
000001a0: 4b54 923b 4d80 8ebd 39c8 3b3b 867b 91bc
000001b0: 65e4 44bd 5925 ddbc 560d 483d 1af1 2d3d
000001c0: c9ea a8bb 7c86 07bd 612e 6cbd 9cfc 1a3c
000001d0: 8902 e73d 74fe 8cbc eaee d03b 36c8 be3d
000001e0: 07aa 913d 53f1 1abd 002a 233c 8867 043d
000001f0: 4dc9 273a 1d8f f5ba 4fef 33bc f4f0 853c

critic.4.weight f4 [1, 128]
0.32355723 -0.1872329 -0.16076966 0.23662935 -0.26793662 0.28270277 -0.07226487 0.16481282
-0.24887308 0.13312055 -0.78988063 0.18401718 -0.14145575 0.2521496 -0.015646089 0.072053716
0.2965063 0.42141792 -0.26646605 -0.22868352 -0.2561824 -0.10274229 -0.07537301 -0.17583114
0.1695951 -0.0008386294 -0.060162585 0.3179463 0.35255373 -0.06619423 0.19365117 -0.6076357
-0.030395424 0.1635402 0.0686943 0.33046487 0.7941075 -0.05398866 0.41958445 0.19664426
0.86376876 -0.08316448 0.6280859 -0.18941228 -0.20865604 0.6378567 -0.26982987 -0.1858411
-0.120062195 -0.11477245 -0.05943648 -0.018270206 0.13260727 0.12821056 0.65443146 0.19574815
-0.036151703 -0.107011035 0.31955907 0.26982695 -0.06271825 0.30712768 0.1352075 0.43641922
0.23208486 -0.04876079 -0.058348548 -0.15283415 -0.13853608 -0.1725397 0.26125482 0.03312307
0.2049891 0.22793613 0.102402575 -0.08512184 0.21961212 -0.08081304 -0.2245604 0.18121834
0.24069422 -0.09688114 -0.10174587 0.23872894 0.14534968 -0.025678713 0.08556077 0.18296771
0.20763902 0.296517 -0.019786982 0.21510081 -0.33659348 -0.06096511 0.21563195 -0.041228943
0.17754532 0.16793254 0.6700015 -0.06872924 0.41003293 -0.12397739 0.6578242 0.2397704
-0.15297306 0.49651146 0.36458835 -0.12956947 0.11934473 0.12290215 0.17641583 0.18006176
0.4812939 0.40548956 0.32232547 0.20985411 0.6203423 -0.04892443 -0.08870733 0.51405567
-0.21342243 0.40588728 -0.30265993 -0.019236118 -0.07081359 -0.26826528 -0.009596148 -0.31572312
00000000: 4ba9 a53e fbb9 3fbe cda0 24be f74e 723e
00000010: fd2e 89be 6bbe 903e 9bff 93bd b1c4 283e
00000020: 96d8 7ebe c150 083e 9e35 4abf 006f 3c3e
00000030: c7d9 10be c119 813e 3a2c 80bc e690 933d
00000040: accf 973e 17c4 d73e 3d6e 88be 032c 6abe
00000050: 572a 83be 8d6a d2bd 2a5d 9abd 140d 34be
00000060: 57aa 2d3e 77d7 5bba 0b6d 76bd dcc9 a23e
00000070: ec81 b43e d790 87bd 7e4c 463e 038e 1bbf
00000080: d3ff f8bc 1577 273e 99af 8c3d b132 a93e
00000090: a14a 4b3f 3723 5dbd c6d3 d63e 1d5d 493e
000000a0: f31f 5d3f 2452 aabd 3dca 203f 4bf5 41be
000000b0: eea9 55be 944a 233f 2427 8abe 214d 3ebe
000000c0: 2be3 f5bd d10d ebbd ab73 73bd 66ab 95bc
000000d0: 33ca 073e a149 033e d288 273f 3472 483e
000000e0: cf13 14bd 9a28 dbbd 3f9d a33e c226 8a3e
000000f0: 6d72 80bd d73f 9d3e d673 0a3e 5772 df3e
00000100: a7a7 6d3e 65b9 47bd e3fe 6ebd 8e80 1cbe
00000110: 67dc 0dbe 3fae 30be 31c3 853e 0eac 073d
00000120: aae8 513e 1768 693e 71b8 d13d 5c54 aebd
00000130: 00e2 603e 4f81 a5bd 29f3 65be 4d91 393e
00000140: 8c78 763e 9e69 c6bd 2460 d0bd 5c75 743e
00000150: 8cd6 143e 2a5c d2bc 7c3a af3d e35b 3b3e
00000160: 539f 543e 14d1 973e 4f18 a2bc 6343 5c3e
00000170: fb55 acbe 8db6 79bd 9fce 5c3e aedf 28bd
00000180: 71ce 353e 82f6 2b3e 3885 2b3f eac1 8cbd
00000190: d6ef d13e dce7 fdbd 2b67 283f 5f86 753e
000001a0: f8a4 1cbe c036 fe3e 53ab ba3e dcad 04be
000001b0: 036b f43d 1fb4 fb3d 5aa6 343e 1c62 383e
000001c0: 276c f63e 549c cf3e d807 a53e ffe3 563e
000001d0: c1ce 1e3f fc64 48bd 30ac b5bd 2799 033f
000001e0: 698b 5abe 75d0 cf3e 3ef6 9abe 1095 9dbc
000001f0: b706 91bd 115a 89be 2939 1dbc 76a6 a1be

actor.0.weight f4 [256, 48]
-0.1353351 -0.04171259 -0.07452272 -0.071292065 0.030774815 -0.055586778 0.017541043 -0.12644061
0.07835846 0.14718916 0.14337732 0.20420147 0.072077855 0.1092637 0.069767594 0.019657953
0.062076434 -0.13605149 -0.10510855 -0.10519196 -0.034951445 0.2786203 0.14322516 0.13544926
-0.11636553 0.0106876595 -0.081890896 0.036650185 -0.00060766836 0.081911184 0.007885514 -0.05436331
-0.08582067 0.117198646 0.041705627 0.009972036 0.08682975 -0.14703871 0.032862674 0.11176129
-0.004930191 -0.094221726 0.16933523 -0.04874229 -0.049830258 0.16216859 0.1215681 0.05383746
-0.12711772 -0.07301593 -0.019452026 -0.0024486238 -0.12579331 -0.02471728 -0.048206702 0.006933266
0.10349016 0.03541882 -0.1350022 -0.13297328 0.076526 -0.07903655 0.10655689 -0.054994415
-0.042370465 -0.12002842 -0.13910037 -0.024300572 0.017559005 -0.06612966 -0.020367526 0.104080565
-0.17002308 -0.022102205 -0.07839 -0.124484226 -0.110618144 0.11012883 0.08566374 0.059878245
0.1776828 -0.14871664 -0.13349654 -0.14233188 -0.15848793 -0.030662283 -0.032529376 -0.09373032
-0.09162802 -0.11825152 -0.056699786 0.023328304 0.14096047 -0.04422608 -0.020769123 -0.10743072
-0.14997812 0.11013402 0.03984303 0.13982648 0.09169651 -0.09529599 0.076847956 0.14552033
-0.039728213 -0.04384916 -0.059169956 -0.08070521 -0.07990597 0.12537307 -0.011726814 0.15563552
-0.13280115 0.15023221 -0.06808046 0.15109426 -0.15236463 0.20708647 0.07645755 0.053764585
-0.1364229 -0.08826587 0.14264575 0.019894999 -0.0833583 0.11585126 -0.023701549 0.098638974
-0.20074321 0.20499323 0.17778946 0.12817116 0.1185464 0.08504119 -0.072245024 -0.049403153
-0.02980481 -0.0909534 -0.13606143 0.1470826 -0.19807966 0.02793984 0.18783803 0.09072454
-0.11363955 -0.0005671474 0.03932503 -0.010230995 -0.14419433 0.1726238 -0.14257745 0.08575452
-0.08942833 -0.1617902 -0.17947857 -0.020470485 -0.07935078 -0.011201347 0.056102533 -0.13540116
-0.086774535 0.11292997 -0.07345507 -0.01693857 0.15913618 0.12334558 -0.08369354 0.04849859
-0.17494954 -0.085080296 0.027194725 -0.09238262 -0.09144431 0.09029993 0.12799312 0.10065793
0.0009948334 -0.078867406 -0.12770629 0.007327651 0.06495289 -0.0498958 0.08697966 0.055962566
-0.09845534 0.002798235 0.09447377 0.06186799 0.14993624 0.12138236 0.08757923 0.05685236
-0.07524114 0.08576784 -0.117650315 0.10617769 -0.07417852 0.0066200886 -0.04739181 0.01056356
-0.08555666 0.022049462 0.04137004 -0.089141615 0.058737572 0.0089067975 -0.09504149 0.04293158
-0.1080222 -0.1366345 -0.12196174 0.07852109 -0.030550752 0.031104546 -0.12095872 0.055825554
0.09582597 0.16097926 -0.037429824 0.04436668 0.013393234 -0.15818013 -0.010725638 0.104202665
-0.055151746 0.003585805 -0.116020225 0.19889759 0.10332478 0.012207868 -0.114533104 -0.076062545
-0.07695001 0.06655106 -0.07466082 0.1481067 -0.17389397 -0.008110288 0.12039982 0.12577617
-0.17768158 -0.1586439 -0.044304755 -0.12344156 -0.0488048 0.031137543 0.076039836 0.11098858
0.05421032 -0.114733234 -0.1065216 0.18534574 -0.2107063 0.025569085 0.08997999 0.12224124
00000000: 4995 0abe d2da 2abd 5e9f 98bd 9301 92bd
00000010: 771b fc3c f6ae 63bd 3cb2 8f3c a679 01be
00000020: 667a a03d c1b8 163e 81d1 123e 311a 513e
00000030: 8e9d 933d a6c5 df3d 50e2 8e3d b709 a13c
00000040: dc43 7e3d 1551 0bbe 2743 d7bd e26e d7bd
00000050: 3f29 0fbd 52a7 8e3e 9ea9 123e 36b3 0a3e
00000060: 0d51 eebd 4b1b 2f3c 6ab6 a7bd 811e 163d
00000070: ef4b 1fba 0dc1 a73d 3e32 013c 10ac 5ebd
00000080: bfc2 afbd d805 f03d 85d3 2a3d c061 233c
00000090: ccd3 b13d 5191 16be 039b 063d 1ae3 e43d
000000a0: 718d a1bb 52f7 c0bd 3766 2d3e ffa5 47bd
000000b0: d01a 4cbd 860f 263e b2f8 f83d ab84 5c3d
000000c0: 262b 02be 6089 95bd db59 9fbc 1779 20bb
000000d0: f6cf 00be e57b cabc 6474 45bd 7330 e33b
000000e0: a6f2 d33d 5313 113d 043e 0abe 262a 08be
000000f0: aab9 9c3d eadd a1bd 803a da3d d341 61bd
00000100: a78c 2dbd 76d1 f5bd 5470 0ebe fe11 c7bc
00000110: e7d7 8f3c fd6e 87bd ccd9 a6bc 3128 d53d
00000120: 881a 2ebe af0f b5bc f08a a0bd 96f1 febd
00000130: c48b e2bd 398b e13d 7970 af3d e442 753d
00000140: 7bf2 353e 2d49 18be 51b3 08be 73bf 11be
00000150: a94a 22be 782f fbbc 863d 05bd aff5 bfbd
00000160: 79a7 bbbd da2d f2bd 093e 68bd 001b bf3c
00000170: f157 103e 6826 35bd 0224 aabc a304 dcbd
00000180: dd93 19be f28d e13d 7232 233d ac2e 0f3e
00000190: 61cb bb3d 8b2a c3bd 7662 9d3d 4803 153e
000001a0: 0dba 22bd 2d9b 33bd 325c 72bd c648 a5bd
000001b0: bea5 a3bd cc61 003e d321 40bc eb5e 1f3e
000001c0: 06fd 07be 79d6 193e c56d 8bbd 74b8 1a3e
000001d0: 7905 1cbe 7a0e 543e c795 9c3d 4138 5c3d
000001e0: 72b2 0bbe bdc4 b4bd ba11 123e d6fa a23c
000001f0: c2b7 aabd 6d43 ed3d c029 c2bc 3b03 ca3d
00000200: a18f 4dbe bfe9 513e 710e 363e 4d3f 033e
00000210: 74c8 f23d 132a ae3d 33f5 93bd f65a 4abd
00000220: 3829 f4bc c745 babd b053 0bbe d29c 163e
00000230: 65d5 4abe 17e2 e43c 9d58 403e cacd b93d
00000240: dabb e8bd 9eac 14ba 4813 213d e79f 27bc
00000250: aea7 13be 4bc4 303e d3ff 11be 11a0 af3d
00000260: 3326 b7bd 55ac 25be 3bc9 37be b8b1 a7bc
00000270: a982 a2bd db85 37bc c5cb 653d 9aa6 0abe
00000280: d9b6 b1bd d447 e73d 9d6f 96bd c2c2 8abc
00000290: 98f4 223e 9c9c fc3d 8567 abbd 75a6 463d
000002a0: f925 33be 943e aebd 79c7 de3c 1933 bdbd
000002b0: 2847 bbbd 2bef b83d a110 033e bf25 ce3d
000002c0: 1265 823a 3c85 a1bd 70c5 02be cb1c f03b
000002d0: 0506 853d 8a5f 4cbd 6422 b23d 0139 653d
000002e0: f4a2 c9bd 9862 373b 777b c13d 4a69 7d3d
000002f0: e388 193e 5197 f83d bd5c b33d 05de 683d
00000300: 0718 9abd 0da7 af3d a6f2 f0bd b073 d93d
00000310: e8ea 97bd 54ed d83b ea1d 42bd c812 2d3c
00000320: 5538 afbd 13a1 b43c a273 293d e18f b6bd
00000330: cf96 703d d1ed 113c 1da5 c2bd 06d9 2f3d
00000340: be3a ddbd eae9 0bbe 14c7 f9bd aacf a03d
00000350: 9245 fabc f6ce fe3c 35b9 f7bd 56a9 643d
00000360: 6840 c43d bfd7 243e 0450 19bd d6b9 353d
00000370: 4c6f 5b3c f9f9 21be 96ba 2fbc 3568 d53d
00000380: cce6 61bd d3ff 6a3b 039c edbd cfab 4b3e
00000390: f19b d33d 8203 483c 5590 eabd aec6 9bbd
000003a0: f897 9dbd ec4b 883d c6e7 98bd 48a9 173e
000003b0: 4311 32be 03e1 04bc 2e94 f63d 78cb 003e
000003c0: 29f2 35be 8c73 22be e778 35bd eece fcbd
000003d0: 8be7 47bd 2914 ff3c c6ba 9b3d fb4d e33d
000003e0: a40b 5e3d 42f9 eabd ff27 dabd 46cb 3d3e
000003f0: 64c3 57be 4276 d13c 6e47 b83d 9e59 fa3d

actor.0.bias f4 [256]
-0.008953196 -0.071690165 -0.039745994 0.021392323 -0.033040307 0.05189852 -0.110514835 0.11686067
-0.06620162 0.06014362 -0.09581674 -0.044198867 0.09411768 -0.14581026 -0.12075184 -0.023052257
-0.03616152 -0.07019012 0.02684721 -0.10020527 -0.12353304 -0.049035296 0.062085956 0.02030049
0.138268 0.092242405 -0.01340393 -0.029069532 0.052840006 0.06358308 -0.08109089 0.034784447
-0.063333675 0.10690682 0.0079442095 -0.07520888 0.10159785 -0.087351024 -0.14841738 0.13647614
-0.113281086 -0.0007817634 0.073752366 0.13503535 -0.019945905 0.06171173 0.053879656 0.0793634
-0.107218385 -0.0430232 -0.04369602 0.04263337 0.017633023 -0.033253193 -0.117720895 -0.0081206625
0.116696894 0.08618118 -0.06476155 0.09839972 0.0017056948 0.053252723 -0.06276601 0.04623032
0.0048637367 0.12311054 0.016780667 0.030915624 -0.060839463 0.087965444 -0.14064774 -0.019781686
-0.03451295 0.042330183 0.12633574 -0.10696662 -0.05827232 -0.11597425 0.11844511 0.15255964
-0.081188776 0.051599722 -0.087228 -0.14247935 -0.018859198 0.14849962 -0.13126813 0.12907071
-0.033314608 0.012444604 -0.046787485 0.09454108 -0.0033156578 -0.04832497 0.09060123 0.1009756
-0.06829177 -0.035307318 -0.08451021 0.03872084 0.024908464 -0.07072761 -0.062034644 0.029745124
-0.1099075 -0.02443261 0.046888404 -0.11312277 -0.013486665 -0.11114637 -0.116985664 -0.014700333
0.042754788 0.06803911 -0.11332623 0.06635233 0.1321369 0.018818118 0.03200195 0.054363843
-0.09479545 -0.041518934 0.12878375 0.12389468 0.07735444 -0.08488639 0.11217016 0.008615036
0.07080598 -0.15682702 -0.06041817 0.10460236 0.06578345 -0.04449217 -0.0067360485 -0.08420071
-0.1109612 -0.005945032 0.071061924 0.020895729 -0.045897346 0.08206661 -0.012417003 0.14699791
-0.097180344 0.010141679 0.03203701 -0.054362826 0.14293666 0.06938535 0.13033156 -0.07015748
-0.010145692 -0.109355815 0.12493385 -0.10542009 0.17492929 -0.13450938 0.03580554 -0.12521417
-0.10412878 0.15496005 0.13769038 0.11664195 -0.07967045 -0.041068308 -0.045455784 0.14297603
0.10639086 0.037561294 0.030531267 -0.076897465 -0.0022508122 0.008742894 0.026910363 0.009350225
0.040372834 0.056955915 -0.09657297 0.14809752 -0.068226434 -0.011819146 -0.11893069 0.08077927
0.09324098 0.14676748 0.0031811711 -0.14083044 -0.034044445 0.07934471 0.012764155 0.15847115
-0.11098961 -0.124869935 0.10863306 -0.10759096 -0.01326937 -0.115398124 0.0707148 -0.11744171
-0.06560614 0.14031693 -0.011312811 -0.09126761 0.047412205 0.10594993 -0.06915424 -0.13571627
0.11658476 0.107860744 -0.03916858 0.10016249 0.14936054 0.08382121 0.034927048 0.13249394
-0.13955443 -0.040487908 -0.10387006 0.09837862 0.09756285 -0.0034039395 -0.013175577 0.06702519
0.04147906 0.030805692 0.12877938 -0.005781798 0.10103042 -0.06432833 0.08619396 -0.13896284
0.013365373 -0.018600719 -0.09438826 0.072665066 0.13321547 0.11647632 -0.09123104 -0.13230519
-0.07592429 -0.1344089 0.10593143 0.12389867 0.024962993 0.01757531 -0.017458333 0.10248274
-0.03367638 -0.046812076 0.12731645 0.043730203 0.027250351 -0.13197576 0.16266327 -0.13512877
00000000: 6db0 12bc 4bd2 92bd b2cc 22bd f43e af3c
00000010: 4655 07bd 8b93 543d 9a55 e2bd a654 ef3d
00000020: b794 87bd 2859 763d 913b c4bd df09 35bd
00000030: c5c0 c03d 494f 15be be4c f7bd 16d8 bcbc
00000040: 1a1e 14bd d6bf 8fbd aeee db3c 6c38 cdbd
00000050: e4fe fcbd 3cd9 48bd d84d 7e3d 374d a63c
00000060: 2096 0d3e 96e9 bc3d 289c 5bbc 3a23 eebc
00000070: c36e 583d d937 823d fb12 a6bd 237a 0e3d
00000080: 16b5 81bd f6f1 da3d 6e28 023c 1d07 9abd
00000090: 8912 d03d 18e5 b2bd bafa 17be 67c0 0b3e
000000a0: eaff e7bd 41ef 4cba 7b0b 973d b546 0a3e
000000b0: 9865 a3bc 70c5 7c3d eab0 5c3d 4789 a23d
000000c0: 5095 dbbd 1839 30bd 99fa 32bd 54a0 2e3d
000000d0: 2173 903c 8034 08bd a717 f1bd 870c 05bc
000000e0: c8fe ee3d c27f b03d b4a1 84bd cb85 c93d
000000f0: 9f91 df3a 871f 5a3d 778b 80bd 015c 3d3d
00000100: fb5f 9f3b 6121 fc3d 9c77 893c c342 fd3c
00000110: cd32 79bd 3a27 b43d f605 10be 340d a2bc
00000120: 735d 0dbd 6a62 2d3d 285e 013e 5111 dbbd
00000130: f5ae 6ebd e883 edbd 5a93 f23d 9838 1c3e
00000140: 4d46 a6bd 3b5a 533d 98a4 b2bd 1be6 11be
00000150: 9b7e 9abc 4910 183e 276b 06be 1d2b 043e
00000160: e674 08bd 74e4 4b3c 3ca4 3fbd c19e c13d
00000170: 824b 59bb 67f0 45bd 238d b93d 4ccc ce3d
00000180: 8edc 8bbd 689e 10bd b013 adbd be99 1e3d
00000190: d60c cc3c a3d9 90bd 0a18 7ebd 0cac f33c
000001a0: 2f17 e1bd e626 c8bc 0e0e 403d e9ac e7bd
000001b0: 2cf7 5cbc b5a0 e3bd 2e96 efbd aad9 70bc
000001c0: a51f 2f3d 1758 8b3d 9517 e8bd bbe3 873d
000001d0: e54e 073e 7428 9a3c 7a14 033d 9fac 5e3d
000001e0: 1e24 c2bd c20f 2abd e3df 033e 7ebc fd3d
000001f0: 016c 9e3d ead8 adbd 78b9 e53d 1426 0d3c
00000200: ba02 913d 4397 20be 0b79 77bd c339 d63d
00000210: 79b9 863d 6c3d 36bd 12ba dcbb 6c71 acbd
00000220: a03f e3bd 8bce c2bb ea88 913d 852d ab3c
00000230: dbfe 3bbd 8a12 a83d af70 4bbc 9f86 163e
00000240: 7d06 c7bd 4929 263c 3d39 033d 8eab 5ebd
00000250: fd5d 123e e819 8e3d a375 053e baae 8fbd
00000260: 1e3a 26bc f1f5 dfbd 51dd ff3d 7de6 d7bd
00000270: aa20 333e d4bc 09be d4a8 123d 2538 00be
00000280: 7841 d5bd d9ad 1e3e b5fe 0c3e fae1 ee3d
00000290: 432a a3bd 3e37 28bd d82f 3abd 4f68 123e
000002a0: 74e3 d93d dfd9 193d b51c fa3c 6b7c 9dbd
000002b0: 5d82 13bb 5b3e 0f3c 1f73 dc3c b031 193c
000002c0: fc5d 253d 9b4a 693d 0dc8 c5bd e0a6 173e
000002d0: 4dba 8bbd 17a5 41bc ef91 f3bd 9a6f a53d
000002e0: 20f5 be3d 374a 163e 327b 503b db35 10be
000002f0: 3072 0bbd 7b7f a23d bf20 513c 4346 223e
00000300: 854e e3bd cfbb ffbd 027b de3d a658 dcbd
00000310: c667 59bc da55 ecbd ecd2 903d 4785 f0bd
00000320: 835c 86bd 3eaf 0f3e 5e59 39bc 83ea babd
00000330: 4d33 423d 47fc d83d bda0 8dbd 35f9 0abe
00000340: fec3 ee3d 18e6 dc3d 3c6f 20bd fe21 cd3d
00000350: f8f1 183e 74aa ab3d aa0f 0f3d 7eac 073e
00000360: 5be7 0ebe a6d6 25bd d3b9 d4bd bb7a c93d
00000370: 08cf c73d a114 5fbb 60de 57bc 8144 893d
00000380: f2e5 293d 385c fc3c bede 033e 3d75 bdbb
00000390: 09e9 ce3d 92be 83bd 7586 b03d 464c 0ebe
000003a0: 70fa 5a3c 8960 98bc a24e c1bd 6cd1 943d
000003b0: a369 083e 238b ee3d 57d7 babd 037b 07be
000003c0: 327e 9bbd 7da2 09be 94f2 d83d 96be fd3d
000003d0: 317f cc3c 19fa 8f3c c704 8fbc 79e2 d13d
000003e0: 3ef0 09bd 05be 3fbd 3e5f 023e 711e 333d
000003f0: 213c df3c a724 07be 3391 263e 325f 0abe

actor.2.weight f4 [128, 256]
-0.011328554 -0.10507994 -0.019670151 0.062178362 0.02858546 -0.15948367 -0.123233214 -0.10050415
0.04917467 0.08014541 -0.020544054 -0.10207216 0.044704054 -0.05848592 0.14180662 -0.08131261
-0.09057586 -6.530008e-05 0.016567769 -0.0025285024 0.10001584 -0.060153775 0.0050248387 0.028854428
-0.10786406 -0.07573971 -0.049067736 0.0421715 0.036337093 0.030933753 0.05861535 -0.015830263
-0.1673646 -0.04102941 -0.021519538 0.0015036797 -0.04737126 0.015512152 -0.045285553 -0.014459397
-0.07819963 -0.026961826 0.010590891 0.06544513 -0.054752458 -0.10668517 0.12344865 0.010571692
-0.0029063143 -0.058454413 -0.21775271 0.106929444 0.07520213 0.0013511293 -0.10014376 -0.17452355
0.095079444 -0.06403709 0.07814338 -0.09284271 -0.0029159598 -0.037078667 -0.003742901 -0.08444523
0.14035855 -0.058699355 0.2230652 -0.09109522 0.17573489 0.08108202 -0.052745633 0.0036026791
0.07321226 -0.045068335 0.10238666 -0.20569476 0.012416766 0.09285264 0.10431709 0.019151533
0.121777095 -0.14975691 -0.30256945 -0.06811177 -0.33010352 0.10509477 0.18532866 -0.042993557
0.057243697 -0.07045071 0.017288819 0.04427428 0.04466458 0.014042689 0.20470867 0.10125603
-0.006106724 0.0260127 -0.13985145 -0.085416265 -0.1005903 -0.21394433 0.03731178 0.021117752
0.12921427 0.0074303504 0.0075520924 -0.05305528 0.027045297 0.060380157 0.001212895 0.07787609
-0.025314689 0.03048091 -0.07326788 -0.022583352 0.03369475 -0.067935735 -0.01729054 -0.06293207
0.03145492 0.25426295 -0.05644781 0.049543396 -0.04043612 0.0012987306 0.115727946 0.1339622
-0.09847359 -0.007517215 0.0120860925 0.069333315 0.026491044 -0.11000649 -0.0037984375 -0.0869483
-0.083412945 0.11441306 0.12753882 0.050248217 -0.012115711 -0.15189555 0.17120917 -0.04880113
0.02636975 -0.06492048 0.093324296 0.11552372 0.059759986 -0.016651507 -0.23371069 0.1124962
-0.0054101483 0.093039766 -0.03901486 0.05132478 0.06941064 0.0027143795 0.0054221717 0.0033747323
0.023938414 0.007467076 0.15792234 0.10443903 0.08125728 0.06807665 -0.03118418 0.0057166303
-0.010704858 0.013178293 0.0015172563 -0.0097474735 0.040266268 -0.0857141 0.02640077 0.19893973
0.057531174 0.12016776 -0.062183294 0.057358474 -0.08296974 -0.08638388 -0.021531703 -0.09054224
0.0053473045 0.10769238 -0.06503843 0.055284724 -0.022265162 -0.18329188 -0.01599853 -0.006048158
0.14355475 -0.012754314 -0.03549135 -0.14476675 -0.080137596 0.11297802 -0.037988037 0.16625892
-0.093121864 0.100917906 0.07136419 -0.03343877 0.00066145224 0.01619298 -0.058478456 -0.054655913
-0.04847412 0.01135701 0.0145651605 -0.091108166 0.0027308038 -0.09655945 -0.008177242 0.07734314
0.015750574 -0.0021598104 -0.05737158 0.028887566 -0.234393 -0.09354972 0.023168532 -0.11151651
-0.21768895 -0.1388382 -0.091998965 -0.13158754 -0.12880644 0.124828875 -0.07698994 0.035880666
-0.09699873 0.054082576 0.084736 0.039581813 0.020944377 0.0077083996 -0.0125811165 0.13342114
0.0956661 -0.03702736 0.118888736 0.055390116 -0.14789613 0.1414259 0.13351677 0.12927027
-0.13486025 0.08483366 -0.034963317 -0.06591029 -0.13534589 -0.0011286754 -0.07790539 -0.1717475
00000000: 669b 39bc 2734 d7bd 4c23 a1bc bdae 7e3d
00000010: 0e2c ea3c b04f 23be b261 fcbd 1fd5 cdbd
00000020: 616b 493d 4723 a43d 014c a8bc 350b d1bd
00000030: 991b 373d ef8e 6fbd c135 113e 3a87 a6bd
00000040: d67f b9bd b7f1 88b8 21b9 873c 3bb5 25bb
00000050: 1bd5 cc3d ce63 76bd 67a7 a43b 1f60 ec3c
00000060: d5e7 dcbd 6c1d 9bbd 40fb 48bd 06bc 2c3d
00000070: 34d6 143d c868 fd3c a616 703d 78ae 81bc
00000080: a061 2bbe 740e 28bd be49 b0bc 1e17 c53a
00000090: 5e08 42bd ae26 7e3c 587d 39bd 1be7 6cbc
000000a0: 2127 a0bd 0cdf dcbc 6b85 2d3c 1908 863d
000000b0: 1d44 60bd c17d dabd a5d2 fc3d e434 2d3c
000000c0: dd77 3ebb e56d 6fbd 91fa 5ebe d3fd da3d
000000d0: 9303 9a3d 6018 b13a 2c18 cdbd 4db6 32be
000000e0: 03b9 c23d e125 83bd a309 a03d 5224 bebd
000000f0: b019 3fbb cddf 17bd 754b 75bb 9ff1 acbd
00000100: 27ba 0f3e bc6e 70bd 346b 643e 2190 babd
00000110: d9f3 333e 550e a63d ce0b 58bd ed1a 6c3b
00000120: 4ff0 953d 9399 38bd 19b0 d13d a6a1 52be
00000130: b16f 4b3c 8629 be3d 33a4 d53d ade3 9c3c
00000140: 4566 f93d e059 19be 62ea 9abe 2f7e 8bbd
00000150: 5403 a9be ed3b d73d ccc6 3d3e 031a 30bd
00000160: 5e78 6a3d 7648 90bd 48a1 8d3c f358 353d
00000170: 35f2 363d 4f13 663c 269f 513e 525f cf3d
00000180: ea1a c8bb 9618 d53c 3835 0fbe b9ee aebd
00000190: 4a02 cebd 3914 5bbe 3dd4 183d 23ff ac3c
000001a0: bf50 043e 4c7a f33b 8b77 f73b 7e50 59bd
000001b0: 198e dd3c 2f51 773d 01fa 9e3a 807d 9f3d
000001c0: c060 cfbc 1ab3 f93c 780d 96bd b900 b9bc
000001d0: 8203 0a3d e421 8bbd e4a4 8dbc 87e2 80bd
000001e0: e0d6 003d c12e 823e d235 67bd 04ee 4a3d
000001f0: 58a0 25bd 2b3a aa3a c602 ed3d 632d 093e
00000200: 86ac c9bd f852 f6bb bf04 463c a0fe 8d3d
00000210: bf03 d93c 154b e1bd 35ef 78bb f311 b2bd
00000220: 68d4 aabd 6551 ea3d 8999 023e 13d1 4d3d
00000230: fa80 46bc 828a 1bbe 7551 2f3e b2e3 47bd
00000240: 6005 d83c 07f5 84bd cf20 bf3d b397 ec3d
00000250: e3c6 743d be68 88bc db51 6fbe 6864 e63d
00000260: 9d47 b1bb a28b be3d 0cce 1fbd ef39 523d
00000270: 2a27 8e3d bbe3 313b 79ac b13b 9d2a 5d3b
00000280: 7e1a c43c 60ae f43b 65b6 213e 21e4 d53d
00000290: 386a a63d c56b 8b3d f775 ffbc 9252 bb3b
000002a0: 6e63 2fbc c4e9 573c acde c63a deb3 1fbc
000002b0: 3eee 243d e08a afbd 6d46 d83c dbb6 4b3e
000002c0: cfa5 6b3d 841a f63d e9b3 7ebd b8f0 6a3d
000002d0: 0aec a9bd 08ea b0bd 4163 b0bc 366e b9bd
000002e0: 7138 af3b d38d dc3d de32 85bd 3c72 623d
000002f0: 6e65 b6bc deb0 3bbe 590f 83bc a02f c6bb
00000300: 0400 133e 78f7 50bc 615f 11bd bc3d 14be
00000310: 2e1f a4bd 0561 e73d 5899 1bbd c73f 2a3e
00000320: adb6 bebd 0cae ce3d 6327 923d 17f7 08bd
00000330: 4f65 2d3a 24a7 843c 1b87 6fbd e1de 5fbd
00000340: cd8c 46bd c112 3a3c b6a2 6e3c eb96 babd
00000350: 49f7 323b f6c0 c5bd d7f9 05bc 1566 9e3d
00000360: 5907 813c 9b8b 0dbb 76fe 6abd 9ea5 ec3c
00000370: b804 70be ff96 bfbd efcb bd3c c562 e4bd
00000380: dae9 5ebe 9a2b 0ebe f469 bcbd e2be 06be
00000390: d6e5 03be 48a6 ff3d e7ac 9dbd 9bf7 123d
000003a0: 45a7 c6bd b185 5d3d 118a ad3d 8a20 223d
000003b0: 8b93 ab3c be96 fc3b 0721 4ebc 8d9f 083e
000003c0: 97ec c33d 00aa 17bd f07b f33d bfe0 623d
000003d0: 1572 17be f3d1 103e 9fb8 083e 6d5f 043e
000003e0: ce18 0abe 45bd ad3d b235 0fbd f9fb 86bd
000003f0: 1d98 0abe 10f0 93ba dc8c 9fbd 94de 2fbe

actor.2.bias f4 [128]
0.044323802 -0.024994498 0.024088912 0.059278432 -0.03073004 0.052946895 -0.06791321 0.056599412
0.06665239 0.0733523 0.031029794 0.04088601 0.051138982 -0.014167037 0.05573888 0.04452332
0.024711205 -0.016596742 0.06420601 -0.01407498 0.051289793 0.017317161 -0.01486103 0.035334714
0.000989517 -0.0069815475 0.03875955 -0.049454045 0.047960326 0.037585303 0.014043405 -0.02297472
0.0018651986 0.021930223 0.05351802 -0.03916162 -0.03530643 -0.06421745 -0.07186098 -0.01919402
-0.026734931 2.6453266e-05 -0.056764826 -0.05091773 -0.04077052 -0.02009844 0.040109035 0.012004031
-0.0034331647 -0.015619605 -0.039819587 -0.016292784 0.024745876 -0.049944203 -0.01276046 -0.04622742
0.0007774428 -0.023722911 -0.012803755 0.021349749 0.0010980725 -0.01947608 -0.033473995 -0.06834064
0.0009985985 0.05194302 -0.028011104 -0.011406223 0.035825584 0.03973884 0.044286735 -0.04385616
-0.020195117 0.008862999 0.024735142 0.016164761 0.040821623 0.03207522 -0.014166321 0.02703181
-0.014561643 0.03470368 0.03827951 -0.025495572 0.041856647 -0.015090949 0.026023686 -0.015828526
0.0656781 -0.057519734 0.01219368 -0.05367548 0.03638147 -0.0011360224 -0.023456078 0.022430854
0.079201356 0.007012385 -0.03086753 0.015612179 0.011958997 0.072096005 -0.043395907 0.0428272
-0.05091456 -0.020522488 0.029373338 0.031410772 0.05528787 -0.031701557 0.05740993 -0.036177408
-0.0058549303 0.025989832 -0.015452807 -0.016666861 -0.008026127 0.0013043104 0.0014099674 0.03752633
0.044058397 0.013802077 -0.034865133 -0.022543732 0.056258954 0.043615863 -0.0073523503 -0.017099012
00000000: e08c 353d 43c1 ccbc 1c56 c53c f1cd 723d
00000010: 91bd fbbc d8de 583d 1516 8bbd c9d4 673d
00000020: 0c81 883d bb39 963d 3232 fe3c 1778 273d
00000030: 1c77 513d dc1c 68bc 744e 643d 165e 363d
00000040: 276f ca3c e4f5 87bc 717e 833d bf9a 66bc
00000050: 3f15 523d b8dc 8d3c ad7b 73bc 22bb 103d
00000060: aeb2 813a 77c5 e4bb 55c2 1e3d 5390 4abd
00000070: 0c72 443d 0cf3 193d 4f16 663c 7b35 bcbc
00000080: ae79 f43a 03a7 b33c b635 5b3d ef67 20bd
00000090: 7a9d 10bd 7084 83bd d92b 93bd c73c 9dbc
000000a0: 3703 dbbc f5e7 dd37 3c82 68bd 1c8f 50bd
000000b0: fdfe 26bd 7ca5 a4bc 5f49 243d 8eac 443c
000000c0: f2fe 60bb 5fe9 7fbc dd19 23bd 7278 85bc
000000d0: ddb7 ca3c 4b92 4cbd 4011 51bc f758 3dbd
000000e0: 4ecd 4b3a 8d56 c2bc d7c6 51bc abe5 ae3c
000000f0: 33ed 8f3a 4d8c 9fbc 071c 09bd 2df6 8bbd
00000100: 68e3 823a 34c2 543d 8b77 e5bc 2be1 3abc
00000110: d9bd 123d 32c5 223d 0266 353d 84a2 33bd
00000120: 3b70 a5bc 1d36 113c 5aa1 ca3c f66b 843c
00000130: 9334 273d 4e61 033d db19 68bc d071 dd3c
00000140: f593 6ebc 7225 0e3d faca 1c3d 17dc d0bc
00000150: e071 2b3d 0740 77bc a02f d53c d3aa 81bc
00000160: 3d82 863d d099 6bbd 00c8 473c d2da 5bbd
00000170: bc04 153d 96e6 94ba f626 c0bc e9c0 b73c
00000180: 5234 a23d 26c8 e53b e7dd fcbc 3aca 7f3c
00000190: abef 433c 12a7 933d e8bf 31bd 936b 2f3d
000001a0: c98b 50bd c71e a8bc 5ba0 f03c 95a8 003d
000001b0: 8975 623d 7ed9 01bd ad26 6b3d c32e 14bd
000001c0: b7da bfbb a1e8 d43c c52d 7dbc f188 88bc
000001d0: 0480 03bc 65f5 aa3a a8ce b83a 36b5 193d
000001e0: 9476 343d 1b22 623c bece 0ebd a2ad b8bc
000001f0: ca6f 663d 8ca6 323d fceb f0bb 3a13 8cbc
