CRL/slime_ppo_gpu.pth (torch, 370495 bytes, 11 tensors)

critic.0.weight f4 [256, 48]
0	0xbd8cd890	-0.068772435
1	0xbccef138	-0.025261506
2	0x3c85c0c5	0.016327271
3	0x3cc8e885	0.024524936
4	0xbd8ff51f	-0.07029175
5	0x3d8145db	0.06312152
6	0xbc7d9b1c	-0.0154788755
7	0x3dd0ee7c	0.10201737
8	0xbe255814	-0.1614688
9	0xbe67eb26	-0.22648296
10	0xbe020b0a	-0.12699524
11	0x3c483d08	0.012221582
12	0xbde4d180	-0.111727715
13	0xbc1304a0	-0.008973271
14	0x3da23334	0.079199225
15	0xb98425b0	-0.0002520508
16	0xbe073f49	-0.13207735
17	0x3cff30f0	0.031151265
18	0x3c30a815	0.010782261
19	0xbd48b983	-0.049005043
20	0xbb54e257	-0.0032483542
21	0xbe839d0d	-0.25705758
22	0xbd9d959f	-0.076945536
23	0xbe258fcf	-0.1616814
24	0x3deebfc4	0.1165767
25	0x3d816828	0.06318694
26	0xbd927d8d	-0.07152853
27	0x3ded4636	0.11585657
28	0x3d0876fe	0.033316605
29	0x3d07823a	0.033083178
30	0xbde17267	-0.11008149
31	0x3d922d7d	0.071375825
32	0x3e0b857b	0.13625138
33	0xbe7de195	-0.24793084
34	0xbca6d78f	-0.020366458
35	0xbe1010c2	-0.14068893
36	0xbc247dbf	-0.010039746
37	0x3dbce345	0.09223036
38	0x3d810356	0.062994644
39	0xbdb9f3dc	-0.090797156
40	0x3dd96e75	0.10616771
41	0xbd4b5ecd	-0.049650956
42	0x3d7a1483	0.061054718
43	0xbce73a2c	-0.02822598
44	0x3dfd80d5	0.123780884
45	0xbe26d749	-0.16293062
46	0x3e5fd1c3	0.21857361
47	0x3bbe5f9a	0.0058097364
48	0x3d87190c	0.06596574
49	0xbbe328ad	-0.006932339
50	0xbd6cfaa3	-0.057856213
51	0x3d27fb6b	0.041011255
52	0x3cbeb678	0.023280367
53	0xbd14638d	-0.03622775
54	0xbd26cfc7	-0.040725496
55	0xbe149e61	-0.14513542
56	0xbdfa95ca	-0.12235601
57	0x3d85fd1f	0.0654242
58	0xbd92b5a6	-0.07163553
59	0x3d8a1144	0.067415744
60	0x3d860a2e	0.0654491
61	0xbd2dccef	-0.042431768
62	0x3d106e60	0.03526151
63	0xbd811207	-0.063022666
64	0x3e2cc223	0.16870932
65	0xbd619c74	-0.055080846
66	0xbc912636	-0.017718416
67	0x3da85afd	0.0822048
68	0xbd945a52	-0.0724379
69	0x3e406c52	0.18791321
70	0xbde7fff4	-0.11328116
71	0x3d843962	0.064562574
72	0x3daa4882	0.08314611
73	0x3cac9b08	0.021070018
74	0xbd8f780b	-0.07005318
75	0xbde9ec71	-0.11422051
76	0xbd872037	-0.06597941
77	0xbd838cc8	-0.06423336
78	0x3c2ced39	0.010554605
79	0x3d1c595e	0.038171165
80	0x3e058268	0.13038027
81	0x3e83a648	0.257128
82	0x3d83e7c4	0.0644069
83	0x3c9e6f11	0.01934007
84	0x3c88cb6f	0.016698567
85	0x3dd99878	0.10624784
86	0xbd6b1c67	-0.057400133
87	0x3cab0d39	0.020880328
88	0xbdcbb068	-0.09945756
89	0xbd505fd0	-0.050872624
90	0xbcce5899	-0.025188731
91	0xbc8a2bff	-0.016866682
92	0x3c2961fd	0.010338304
93	0x3eacee9c	0.33775795
94	0xbcf1ca96	-0.029515546
95	0x3e5f1243	0.2178431
96	0x3ddaad85	0.106776275
97	0xbd045c75	-0.032314736
98	0xbdd7caea	-0.1053675
99	0xbd38ec31	-0.045147125
100	0x3d374c99	0.044750784
101	0xbcff6d9d	-0.031180197
102	0xbd4092fd	-0.04701518
103	0xbdbb1337	-0.09134524
104	0xbdb39096	-0.08767812
105	0xbe1b99d6	-0.15195403
106	0x3dfcdaad	0.123463966
107	0x3e34d363	0.17658763
108	0xb9cd29d4	-0.0003913181
109	0xbd7776d9	-0.060416076
110	0xbc6f1ffe	-0.01459503
111	0xbcd613ce	-0.02613249
112	0xbdb5c661	-0.088757284
113	0x3c119f58	0.008888088
114	0x3d314960	0.043282866
115	0x3e023dc0	0.12718868
116	0x3e306204	0.1722489
117	0xbcf8c2b3	-0.030366277
118	0xbd189246	-0.037248872
119	0xbe152348	-0.1456424
120	0xbd62e795	-0.055396635
121	0x3d99000b	0.07470711
122	0xbcf3cab6	-0.029759746
123	0xba8a0368	-0.001052958
124	0x3d79f516	0.061024748
125	0xbdac6dc7	-0.08419376
126	0x3d1745cb	0.036931794
127	0x3c90fa44	0.017697461
128	0x3cd1236d	0.025529588
129	0x3df70915	0.12062279
130	0xbdc5588d	-0.0963603
131	0xbe1a0a2b	-0.15042941
132	0x3db45dac	0.08806929
133	0xbe477b5c	-0.19480652
134	0xbdebde9f	-0.11517071
135	0xbc0f2b9a	-0.008738423
136	0xbd8272e6	-0.063695714
137	0xbe0ea2de	-0.13929316
138	0x3d57b08d	0.052658606
139	0xbdcc520c	-0.09976587
140	0x3df628ce	0.120195016
141	0x3e0388dc	0.12845176
142	0xbe014adc	-0.12626213
143	0xbd1a4c3a	-0.03767035
144	0x3da7bb7b	0.08190056
145	0xbdf801cd	-0.121097185
146	0xbdbad619	-0.09122867
147	0xbd23b217	-0.03996476
148	0x3b4475ec	0.0029977513
149	0x3dda0d78	0.106471
150	0xbe0aed81	-0.13567163
151	0xbd896c3d	-0.06710098
152	0xbde94eb6	-0.11391966
153	0xbd20b7be	-0.03923773
154	0xbe24d46c	-0.16096658
155	0xbdd77b0d	-0.10521517
156	0xbd814e0f	-0.063137166
157	0xbdf24689	-0.1182986
158	0xbdca813d	-0.098879315
159	0xbdafb6aa	-0.08579762
160	0xbd90edf3	-0.07076635
161	0x3e2cd621	0.16878559
162	0x3d06b9a4	0.032891884
163	0xb8220708	-3.8630358e-05
164	0x3dd0c763	0.1019428
165	0xbbdee7db	-0.0068025417
166	0xbda833dd	-0.08213017
167	0x3ceb350a	0.028711814
168	0xbdfcb228	-0.12338668
169	0xbcbb21b4	-0.02284322
170	0xbca540ae	-0.020172443
171	0xbe0a2d32	-0.13493803
172	0x3d8839dc	0.06651661
173	0x3a85669d	0.0010177676
174	0x3d1833b6	0.03715869
175	0x3e08951b	0.13338129
176	0xbdb93e68	-0.09045106
177	0x3e2e28ea	0.17007795
178	0xbd1ff06d	-0.039047647
179	0xbc7086e9	-0.014680603
180	0x3d173364	0.036914244
181	0x3d59f4b7	0.053211894
182	0xbd25cd3c	-0.04047893
183	0x3ddec237	0.10876887
184	0x3d414232	0.04718227
185	0x3dc0f173	0.09421053
186	0x3dfd4ee1	0.123685606
187	0x3da89d4b	0.08233126
188	0x3e241709	0.16024412
189	0x3ea1ba0f	0.31587264
190	0x3dc594a9	0.09647495
191	0xbdb87b77	-0.09007924
192	0x3d6356e0	0.055502772
193	0x3d762a81	0.06009913
194	0x3d287499	0.04112682
195	0xbdddd28f	-0.108311765
196	0x3e5e51e7	0.21710931
197	0xbe000087	-0.12500201
198	0x3d6c289a	0.05765591
199	0xbe0fdb01	-0.14048387
200	0x3d21bae1	0.039484862
201	0xbceb3b69	-0.028714852
202	0x3e6ab3cc	0.2292015
203	0xbd6a01e9	-0.057130728
204	0xbe1388ac	-0.14407605
205	0x3d65e36c	0.05612509
206	0xbd4c6b41	-0.049906973
207	0x3cb2a5c6	0.021807563
208	0x3e578633	0.21047287
209	0xbe0dd9af	-0.13852571
210	0xbbfac01f	-0.007652297
211	0xbdf79dbb	-0.120906316
212	0xbbe15338	-0.0068763755
213	0x3e003dd5	0.12523587
214	0x3e2899fb	0.16464989
215	0x3dce9976	0.10087864
216	0xbe0e29f2	-0.13883188
217	0x3da6bbb3	0.081412695
218	0x3d0d9f02	0.03457547
219	0x3d808e0e	0.06277095
220	0x3da6303b	0.08114668
221	0xbe199ad1	-0.15000464
222	0x3d02cd85	0.03193428
223	0xbcc6482d	-0.024204338
224	0x3e0d4f12	0.13799694
225	0x3d743f6e	0.059630804
226	0x3e82bae6	0.25533217
227	0x3dda36f0	0.1065501
228	0x3d616cd2	0.05503542
229	0x3d4c84ff	0.049931522
230	0xbd23512c	-0.039872333
231	0x3aac468f	0.0013143587
232	0x3d17abb6	0.03702899
233	0x3d151ff5	0.03640743
234	0xbd05a308	-0.03262618
235	0x3b127d83	0.0022352643
236	0xbc0ef48b	-0.008725296
237	0x3dc62e96	0.09676854
238	0x3e9a90a6	0.30188483
239	0xbd115523	-0.035481583
240	0xbd568622	-0.052374013
241	0xbd3bdd64	-0.04586543
242	0xbdd0a4b9	-0.10187668
243	0xbd8c68e3	-0.06855943
244	0x3d73e549	0.059544835
245	0xbe1e7401	-0.1547394
246	0x3beb93de	0.007189258
247	0x3d886a87	0.066609435
248	0xbce95fb4	-0.028488018
249	0x3e8582a1	0.26076224
250	0x3d982008	0.074279845
251	0xbe0a50f8	-0.1350745
252	0xbde3d166	-0.11123924
253	0xbd1da441	-0.038486723
254	0xbde0f9f7	-0.10985177
255	0xbcc7fac9	-0.024411576

critic.0.bias f4 [256]
0	0x3e216efd	0.15764995
1	0x3e3c3dde	0.18382975
2	0xbd2844e1	-0.041081313
3	0xbc54366f	-0.012952431
4	0xbd50eb17	-0.05100545
5	0xbe2b64f6	-0.16737732
6	0x3d7a39e0	0.06109035
7	0x3c821d5a	0.015883137
8	0x3d874d02	0.06606485
9	0xbc314a3d	-0.010820922
10	0x3e557dd9	0.20848788
11	0x3e3d367d	0.18477817
12	0x3ddedca6	0.10881929
13	0x3daf746f	0.0856713
14	0x3e024175	0.12720282
15	0xbe01a688	-0.12661183
16	0xbdc3c351	-0.09558738
17	0x3e48ce26	0.1960989
18	0x3d065f93	0.03280599
19	0x3defb451	0.117043145
20	0xbdc7a281	-0.09747792
21	0xbd45756a	-0.048207678
22	0xbdbfbc46	-0.09362082
23	0x3b92a783	0.0044755354
24	0x3ddff253	0.109348916
25	0x3e036353	0.12830858
26	0xbd306a5b	-0.04307018
27	0x3d827b16	0.06371133
28	0xbdad4209	-0.08459861
29	0xbded1cb4	-0.1157774
30	0x3e36cbb9	0.17851152
31	0x3d26e774	0.040748075
32	0xbe12e885	-0.14346512
33	0x3d9fa3c4	0.07794908
34	0x3d928716	0.07154672
35	0xbdf59107	-0.119905524
36	0x3dbf819f	0.09350895
37	0x3d0679b6	0.032830916
38	0x3e86d406	0.26333636
39	0x3cb7a59e	0.02241784
40	0x3e19a94e	0.15005991
41	0xbe0bbb26	-0.1364561
42	0xbd9811e2	-0.07425286
43	0x3e454352	0.19263962
44	0x3e16d6f1	0.14730431
45	0x3e27f7d5	0.16403134
46	0x3e017221	0.12641193
47	0x3c2890aa	0.010288397
48	0xbaaf8cff	-0.001339346
49	0x3e19aa95	0.15006478
50	0xbe356ab4	-0.17716485
51	0x3d7a019b	0.061036687
52	0xbe1ab593	-0.15108328
53	0xbdab01d9	-0.08349962
54	0x3e5c92d3	0.21540384
55	0xbcba7e82	-0.022765402
56	0xbbd7344b	-0.006567513
57	0xbdb635b1	-0.088969596
58	0xbea8d216	-0.32972783
59	0xbdee01db	-0.11621448
60	0xbdbe4042	-0.092896
61	0xbd2d20ff	-0.042267796
62	0xbe48d92a	-0.19614092
63	0xbe7d6cc8	-0.24748528
64	0x3c1355e8	0.00899265
65	0xbd8b04dd	-0.06788037
66	0xbddf5e4f	-0.1090666
67	0xbe047a6a	-0.12937322
68	0x3de954da	0.11393137
69	0x3e349024	0.1763311
70	0x3d9e9b58	0.07744473
71	0xbd7ed126	-0.06221118
72	0xbcd71d1c	-0.026258998
73	0xbdc1e481	-0.09467412
74	0xbdb7d24e	-0.08975659
75	0x3e085f3f	0.13317584
76	0xbeb4e4dd	-0.3533086
77	0xbc03ce68	-0.008044817
78	0xbb77be29	-0.0037802553
79	0xbd5f61f6	-0.054536782
80	0xbe35e228	-0.17762053
81	0xbd965f16	-0.07342355
82	0xba2c4b9b	-0.00065725454
83	0xbd40e847	-0.047096517
84	0x3de7f115	0.113252796
85	0xbd9c4f26	-0.07632284
86	0xbd933a34	-0.07188836
87	0xbd75f17b	-0.060044747
88	0xbd9d1e4f	-0.076717965
89	0x3de22248	0.11041695
90	0x3e314cba	0.17314425
91	0xbd637d3d	-0.05553936
92	0xbd9b7746	-0.07591109
93	0x3de08573	0.109629534
94	0xbe1b7710	-0.15182137
95	0xbdd0b8b7	-0.101914816
96	0xbd78201b	-0.060577493
97	0x3be47e5c	0.006973071
98	0x3c0cbc15	0.008589764
99	0x3e10e7b1	0.14150883
100	0x3da10222	0.07861735
101	0xbddef4f7	-0.10886567
102	0x3d9d7cbf	0.07689809
103	0xbc1a62de	-0.009422986
104	0x3dda465c	0.10657951
105	0xbdbaf7c5	-0.091292895
106	0xbd9e2da2	-0.077235475
107	0x3ce49202	0.027901653
108	0xbdad24e1	-0.084543
109	0xbdb12714	-0.08650032
110	0xbd14b62d	-0.03630655
111	0xbe4c8e3e	-0.19976136
112	0x3da63784	0.081160575
113	0xbc0326e7	-0.0080048805
114	0x3caf82dc	0.021424703
115	0xbd8572d4	-0.06516042
116	0x3cca742b	0.024713596
117	0xbe0952dd	-0.13410516
118	0x3d9daf3d	0.0769944
119	0xbddbc8c3	-0.10731652
120	0x3e0bcd71	0.13652588
121	0xbb9bd084	-0.0047550816
122	0xbccc5c1f	-0.02494627
123	0xbdc584d1	-0.09644473
124	0xbdabe6b5	-0.08393613
125	0xbd0257a2	-0.031821854
126	0xbd0f7488	-0.035023242
127	0xbdb0fd71	-0.0864209
128	0x3e143e37	0.14476858
129	0xbc5b7966	-0.013395643
130	0x3c7226a1	0.014779718
131	0x3e436331	0.19080807
132	0xbddad006	-0.106842086
133	0xbd56d3ca	-0.05244807
134	0x3cf721c8	0.030167475
135	0x3d597b8f	0.05309635
136	0xbd7fdd6a	-0.062467016
137	0x3bd3e9e9	0.0064670932
138	0x3e0ee94b	0.13956182
139	0xbde272c1	-0.11057044
140	0xbdac33ff	-0.08408355
141	0xbe879340	-0.2647953
142	0x3d10f378	0.03538844
143	0xbd066cdc	-0.03281866
144	0x3c8694d5	0.01642839
145	0x3e414b39	0.18876351
146	0xbdffc0d6	-0.124879524
147	0x3dd2ed7e	0.10299204
148	0x3e807e1b	0.2509621
149	0xbda43e4e	-0.08019696
150	0xbde90b2b	-0.11379083
151	0x3d000c51	0.031261746
152	0x3de4ffd8	0.11181611
153	0x3d9a4ea0	0.07534528
154	0xbc53d8de	-0.012930123
155	0xbe032238	-0.12806022
156	0x3d4bbd6b	0.04974119
157	0x3d9c31a5	0.076266564
158	0xbe177767	-0.14791642
159	0xbde36f6a	-0.11105235
160	0x3d0c4cac	0.034252807
161	0x3e47c8a4	0.19510132
162	0x3e1ead75	0.15495856
163	0xbe135f30	-0.1439178
164	0x3c9e5109	0.01932575
165	0x3c6f1206	0.0145916995
166	0xbe298f39	-0.16558541
167	0xbd924f42	-0.071440235
168	0xbdb031ca	-0.086032465
169	0x3da517a4	0.0806115
170	0x3e29d32a	0.16584459
171	0xbc94263e	-0.018084642
172	0xbde8116b	-0.11331447
173	0x3b692260	0.0035573468
174	0x3e283baf	0.16429017
175	0x3e5c794d	0.21530648
176	0x3e104de0	0.14092207
177	0x3ddbaf63	0.10726812
178	0xbb06652a	-0.0020507076
179	0xbd867a17	-0.065662555
180	0x3d409065	0.047012705
181	0xbd8feba0	-0.07027364
182	0xbdbeb17d	-0.09311197
183	0x3d6775de	0.05650889
184	0x3e53c9c2	0.20682433
185	0xbd2cd6ed	-0.042197157
186	0xbb771875	-0.0037703787
187	0x3d9e6def	0.07735812
188	0x3e10bb01	0.14133836
189	0x3e28db35	0.16489871
190	0x3d47a8d9	0.04874501
191	0x3e301f46	0.1719943
192	0xbd963b22	-0.073354974
193	0x3e13059e	0.14357612
194	0xbcce217d	-0.025162453
195	0x3b891164	0.0041829813
196	0xbcf25ff1	-0.029586764
197	0xbd48b307	-0.04899886
198	0xbd768b8f	-0.060191687
199	0x3dca54d0	0.09879458
200	0x3da16d1b	0.07882138
201	0xbdb50660	-0.088391066
202	0x3cfef3c8	0.031122103
203	0xbb1b469b	-0.0023693207
204	0xbd5162a0	-0.051119447
205	0xbe08facf	-0.13376926
206	0xbe0d602e	-0.13806221
207	0x3d3ee0e2	0.046601184
208	0x3e49cc2b	0.1970679
209	0xbdf0f542	-0.11765529
210	0x3dc50300	0.09619713
211	0xbd99368b	-0.07481106
212	0xbdaad3a8	-0.083411515
213	0x3d0a9a99	0.033838842
214	0xbdaedfd8	-0.085387886
215	0x3df83816	0.121200725
216	0xbd5dd72a	-0.054160275
217	0xbdb3e554	-0.08783975
218	0x3e07d87d	0.13266177
219	0x3dd44072	0.103638545
220	0xbcdb81c1	-0.02679527
221	0xbdedc531	-0.11609877
222	0xbce6cf3b	-0.028174987
223	0x3d979b58	0.07402676
224	0xbe0683f9	-0.13136281
225	0x3b60734e	0.0034248414
226	0xbe0cc29a	-0.1374611
227	0xbddceb66	-0.10787086
228	0x3df0cdae	0.1175798
229	0xbdafe74e	-0.0858904
230	0x3e0d2b17	0.13785969
231	0x3da2a5b9	0.07941765
232	0xbe4f104e	-0.20221063
233	0x3cb14b50	0.021642357
234	0x3d24b940	0.04021573
235	0xbe1d6c76	-0.15373406
236	0xbd174e56	-0.03693994
237	0x3e12b247	0.1432582
238	0x3d87d51d	0.06632445
239	0x3e445fab	0.1917712
240	0xbd5c9182	-0.053849705
241	0xbe333be1	-0.1750331
242	0x3da4eb7c	0.080527276
243	0xbc95151a	-0.018198539
244	0xbd43b5cd	-0.0477808
245	0x3e1d9dbc	0.15392202
246	0x3e1fe9ba	0.15616503
247	0xbe1e1358	-0.15437067
248	0x3e141e0a	0.14464584
249	0x3da757b0	0.08171022
250	0xbd59b5af	-0.053151783
251	0xbe21e35c	-0.15809387
252	0xbcc72369	-0.024308877
253	0x3c973625	0.018458435
254	0xbdac0fc7	-0.08401447
255	0x3e053a14	0.13010436

critic.2.weight f4 [128, 256]
0	0xbd7ec684	-0.062201038
1	0x3b1fcced	0.002438362
2	0xbbf332b2	-0.007421815
3	0xbd5219c5	-0.051294107
4	0x3caf1ff1	0.021377536
5	0xbd5c7875	-0.053825814
6	0xbd2ecacd	-0.042673875
7	0xbd762fb6	-0.060104094
8	0xbccc9d6a	-0.024977405
9	0xbd738233	-0.05945034
10	0x3c52f199	0.012874984
11	0x3d90cdf5	0.07070533
12	0xbbbe1138	-0.0058003925
13	0x3d9a585f	0.07536387
14	0xbca20f31	-0.019782634
15	0x3d180fc8	0.037124425
16	0x3c93c57a	0.0180385
17	0xbdbb1f6e	-0.09136854
18	0xbd203ddf	-0.039121505
19	0x3c81b136	0.015831571
20	0xbc4b2ab1	-0.012400315
21	0xbce56c34	-0.028005697
22	0x3d85b55d	0.06528733
23	0x3d7f1025	0.062271256
24	0x3da7e676	0.08198254
25	0x3c6d9959	0.014501893
26	0xbd2cb36c	-0.042163298
27	0xbd4648be	-0.048409216
28	0x3c81db8e	0.015851762
29	0x3d16cbe0	0.036815524
30	0xbd90fb01	-0.07079125
31	0xbf1333c8	-0.57500887
32	0xbd85a254	-0.06525102
33	0x3cff19dd	0.031140262
34	0xbdb9fe50	-0.090817094
35	0x3cea5800	0.028606415
36	0x3d1a4fc8	0.03767374
37	0xbac89555	-0.0015303293
38	0x3c918d04	0.017767437
39	0xbd866b99	-0.065634914
40	0xbcb4536f	-0.02201244
41	0x3c9a3042	0.01882184
42	0x3b4d2fe0	0.0031309053
43	0xbd06e1d8	-0.032930225
44	0xbfbb11f7	-1.4614857
45	0xbc47d72d	-0.012197298
46	0x3ce4e1da	0.027939726
47	0xbbed500b	-0.007242208
48	0x3c6e6bb8	0.014552049
49	0xbd6c54e0	-0.05769813
50	0xbd1569fc	-0.036478028
51	0x3d0b91b2	0.034074493
52	0x3da7b5ce	0.08188973
53	0x3b99b4af	0.0046907286
54	0xbd51d265	-0.05122604
55	0xbc6627ab	-0.0140475435
56	0x3d50900b	0.05091862
57	0xbbde6d67	-0.006787944
58	0xbc1ec355	-0.0096901255
59	0xbf3f942f	-0.74835485
60	0xbd16b94d	-0.03679781
61	0x3d2d2163	0.04226817
62	0x3d8926ef	0.06696879
63	0xc005fc1c	-2.0935125
64	0xbc48ac81	-0.012248159
65	0xbce86f1b	-0.028373292
66	0x3d6b96ab	0.057516735
67	0x3d00708d	0.031357337
68	0x3cde9b18	0.027173564
69	0xbd2c7472	-0.04210324
70	0xbdd63e05	-0.10461048
71	0x3c6274a0	0.013821751
72	0x3d295aae	0.041346245
73	0x3c31f862	0.010862442
74	0x3ce5e301	0.028062345
75	0x3d67d0ca	0.0565956
76	0x3c519f0a	0.0127942655
77	0xbc115379	-0.008869999
78	0x3d462612	0.04837615
79	0xbc091f51	-0.008369283
80	0xbd415abe	-0.04720568
81	0xbb795778	-0.003804652
82	0xbd6a1e4f	-0.05715781
83	0xbc81e789	-0.015857475
84	0x3c8142cf	0.015778927
85	0xbd14a1c4	-0.036287084
86	0xbb0c4ba9	-0.0021407402
87	0xbd16aa12	-0.036783285
88	0xbd2eb107	-0.042649295
89	0x3d6c637c	0.057712063
90	0xbd570812	-0.05249793
91	0x3d0b8e96	0.034071527
92	0x3d35dee6	0.044402026
93	0x3d70bb5a	0.058772422
94	0xbd4e510c	-0.05037026
95	0xbc8ebc10	-0.01742366
96	0x3be5aba0	0.0070089847
97	0x3af1e9ad	0.0018456482
98	0x3cd94dcb	0.026526352
99	0x3da0367b	0.07822891
100	0x3c86050d	0.01635983
101	0x3d2901af	0.04126137
102	0x3c6fa4d8	0.014626704
103	0xbd28edc6	-0.041242383
104	0x3d0b8432	0.03406162
105	0xbd857f0f	-0.06518375
106	0x3c41726b	0.0118070645
107	0x3d07e33b	0.03317569
108	0xbd9be43e	-0.07611893
109	0x3d16ed30	0.036847293
110	0x3cd9b1f8	0.02657412
111	0x3d17b9c7	0.037042405
112	0xbc87f630	-0.016596884
113	0x3dab23e7	0.08356457
114	0x3a5137bf	0.0007981024
115	0x3bcae02b	0.0061912737
116	0xbd88ddcb	-0.06682929
117	0xbbfdeff6	-0.007749553
118	0xbd599f0f	-0.053130206
119	0xbd90616e	-0.07049833
120	0x3ce9a179	0.028519379
121	0x3d2179ad	0.03942268
122	0x3ceb4697	0.028720183
123	0x3e053ef0	0.1301229
124	0xbe290a92	-0.16507939
125	0xbc3cb4a0	-0.011517674
126	0x3c1e3b00	0.009657621
127	0xbc530eba	-0.012881929
128	0xbaccb9ae	-0.0015619302
129	0xbd9ae6b0	-0.075635314
130	0xbd6b1b1a	-0.057398893
131	0x3d673213	0.05644424
132	0x3d23ec91	0.04002053
133	0x3d032038	0.032013148
134	0x3d0a9ed3	0.033842873
135	0x3dd384cb	0.103280626
136	0xbcf4aabb	-0.029866567
137	0xbd1e4173	-0.038636636
138	0x3c55a539	0.01303988
139	0x3d1b39fd	0.0378971
140	0x3de681ce	0.11255227
141	0xbd6b0a41	-0.057382826
142	0x3d9d80f6	0.07690613
143	0xbca75fc9	-0.020431416
144	0xbd3f4e9f	-0.04670584
145	0x3daed13d	0.08536003
146	0x3e24d889	0.16098227
147	0xbcfe89d3	-0.03107158
148	0xbd5f98f4	-0.054589227
149	0xbe3369d9	-0.17520846
150	0x3d0a98f1	0.033837263
151	0x3c4b626c	0.012413602
152	0x3da7991d	0.08183501
153	0xbb1a78bc	-0.0023570498
154	0xbfe3fde8	-1.7811861
155	0x3b2e324e	0.0026580277
156	0x3c0afe0b	0.00848342
157	0x3d3ede3b	0.046598654
158	0xbd4b4222	-0.049623616
159	0x3d59ba22	0.053156026
160	0x3d70b794	0.058768824
161	0xbd309cb5	-0.043118197
162	0xbd4a4d83	-0.049390327
163	0x3cc38e96	0.023871701
164	0x3d613c06	0.054988883
165	0x3b46071c	0.003021664
166	0x3cc2068a	0.023684759
167	0x3d8e6bab	0.0695413
168	0xbd5e3e06	-0.05425837
169	0x3d80589c	0.06266901
170	0x3d8bc41a	0.06824513
171	0xbd88340f	-0.066505544
172	0xbe1ca6eb	-0.15298049
173	0x3d51d131	0.05122489
174	0x3d094953	0.033517193
175	0xbcdf2495	-0.027239123
176	0xbcfe4fda	-0.031043936
177	0xbd282c05	-0.041057605
178	0x3b77c3b2	0.0037805852
179	0xbe723183	-0.236517
180	0xbd491b0a	-0.049098052
181	0x3cf3060d	0.029665971
182	0x3dd88e0f	0.105739705
183	0xbbcd4137	-0.0062638777
184	0xbcc123a5	-0.023576567
185	0x3d31c651	0.04340202
186	0xbc7a8496	-0.0152904
187	0xbcdcf117	-0.02697043
188	0xbc5bc460	-0.013413519
189	0xbd258f15	-0.040419657
190	0xbc991df3	-0.018691039
191	0x3d16c5eb	0.036809843
192	0x3c16f3c7	0.0092133945
193	0x3bf4f1c9	0.007475112
194	0x3d7d69fe	0.06186866
195	0x3b80eb9b	0.0039343364
196	0xbd4c95c3	-0.04994751
197	0xbd10cd0e	-0.035351805
198	0xba7de899	-0.0009685844
199	0xbe26f877	-0.1630572
200	0xbd056a0e	-0.032571845
201	0xbd4d1d4b	-0.050076764
202	0x3b4b2eb4	0.003100318
203	0x3d893d70	0.067011714
204	0x3d97a49d	0.07404444
205	0x3d3b1ff7	0.04568478
206	0x3d588394	0.052859858
207	0xbdb2938a	-0.08719547
208	0xbcbd5473	-0.023111558
209	0xbce80ede	-0.028327402
210	0xbd62f093	-0.05540521
211	0x3d55958c	0.052144572
212	0x3c7c3c99	0.015395307
213	0x3c38868e	0.011262549
214	0x3dd5d27f	0.104405396
215	0x3c69237d	0.0142296525
216	0xbd0f66e9	-0.035010252
217	0x3cc98cbd	0.024603242
218	0xbf061fff	-0.5239257
219	0xbd7936f3	-0.06084342
220	0x3d13909e	0.03602659
221	0xbd6b77d4	-0.057487324
222	0x3ce5e581	0.028063538
223	0x3c1205f8	0.008912556
224	0x3ceaf49c	0.028681092
225	0xbe3970c3	-0.18109421
226	0xbd4a2991	-0.049356047
227	0xbc8280d4	-0.01593057
228	0x3cb028fa	0.021503914
229	0xbd4e01f7	-0.050294843
230	0x3b5c8d2a	0.0033653476
231	0xbd4b1b72	-0.04958672
232	0xbc3b5ec6	-0.01143617
233	0xbce7d410	-0.028299361
234	0xbcd63569	-0.026148515
235	0x3d55e46c	0.052219793
236	0xbcf68502	-0.03009272
237	0x3c83808a	0.016052503
238	0x3c06d7e1	0.0082301805
239	0x3d9dee0f	0.07711422
240	0xbd710233	-0.058839988
241	0x3d42fac1	0.04760242
242	0xbc9a4cc1	-0.018835427
243	0xbd0690d9	-0.03285298
244	0xbc855b91	-0.016279014
245	0xbd6a45f8	-0.057195634
246	0x3aa5e577	0.0012656887
247	0x3d0150c0	0.03157115
248	0x3d389f45	0.045073766
249	0xbcdbd00c	-0.026832603
250	0x3e0ad16f	0.13556455
251	0x3ccda991	0.02510527
252	0xbd8c599e	-0.068530306
253	0x3b86faad	0.0041192384
254	0xbe56ec05	-0.20988472
255	0x3d613a3f	0.05498719

critic.2.bias f4 [128]
0	0x3d4dff30	0.050292194
1	0xbc8215eb	-0.015879592
2	0x3aa5a255	0.001263688
3	0xbc84cfce	-0.01621237
4	0x3d1e8247	0.03869846
5	0x3d959c2f	0.0730518
6	0xbd1a01fe	-0.037599556
7	0xbd40da5c	-0.047083244
8	0xbda61233	-0.0810894
9	0x3c46b3d7	0.012127838
10	0xbca032fb	-0.01955556
11	0x3d055b5a	0.032557823
12	0x3c459a43	0.012060705
13	0x3d67bd87	0.05657723
14	0x3ca0f4be	0.019647952
15	0x3d3f42d0	0.046694577
16	0x3d05ae5b	0.03263698
17	0x3d26560e	0.040609412
18	0x3d020291	0.03174073
19	0xbcd7f92c	-0.026363932
20	0x3d462159	0.048371647
21	0x3c3b50f4	0.011432875
22	0xbcfce00c	-0.030868553
23	0x3d3f4a12	0.0467015
24	0x3cfb3647	0.03066553
25	0x3aff777a	0.0019490563
26	0xbab65e47	-0.0013913595
27	0x3d02fde1	0.0319804
28	0x3d6e3521	0.058156136
29	0x3c58aaaf	0.013224288
30	0xbd2aceff	-0.041701313
31	0xbce8ae02	-0.028403286
32	0xbcd252e3	-0.02567429
33	0xbce0f537	-0.027460678
34	0x3da89eec	0.08233437
35	0x3c926763	0.017871564
36	0x3dc4913c	0.09598014
37	0x3ddc25d7	0.10749405
38	0x3d816ee8	0.06319982
39	0x3d59e9b7	0.053201403
40	0xbcde15fa	-0.027110089
41	0xba998069	-0.0011711243
42	0xbd7d669c	-0.061865434
43	0x3a8dd7f8	0.001082181
44	0xbc6fb0d0	-0.014629558
45	0x3d123470	0.03569454
46	0x3cbff27b	0.023431053
47	0xbd890dd6	-0.06692092
48	0x3d81e008	0.06341559
49	0x3d382f76	0.044967137
50	0x3d07c225	0.033144135
51	0xbd1a9663	-0.037741076
52	0x3d71a2f1	0.058993284
53	0x3c9ef1b5	0.019402364
54	0xbb449cb1	-0.0030000622
55	0xbd033efa	-0.03204248
56	0x3ce52aa4	0.027974434
57	0xbd06ff7a	-0.032958485
58	0x3cbf7a14	0.023373641
59	0xbd038cd0	-0.03211671
60	0xbc8111bb	-0.015755525
61	0xbd7810c9	-0.060562883
62	0xbd255ac2	-0.040369757
63	0xbd2ca1d4	-0.04214652
64	0xbd0539e2	-0.032525904
65	0x3bb25a21	0.005442873
66	0x3d260ee7	0.040541556
67	0xbd8548a3	-0.06507995
68	0xbc216385	-0.009850387
69	0xbcaab564	-0.020838447
70	0x3caa3caf	0.02078089
71	0x3cd49b0d	0.02595284
72	0x3c6d7b04	0.014494661
73	0x3da94e6b	0.0826691
74	0x3e09f638	0.13472831
75	0x3cfffbe8	0.031248048
76	0xb9db8692	-0.00041871198
77	0xbd6f880b	-0.05847935
78	0x3cf307f9	0.029666888
79	0xbd9310eb	-0.07180961
80	0x3b9bc62a	0.0047538476
81	0xbd8b50c2	-0.06802513
82	0xbc19d774	-0.009389747
83	0x3d4c1edb	0.049834114
84	0x3d2eee2a	0.0427076
85	0x3df616e2	0.12016083
86	0x3cdb7c43	0.026792651
87	0xbb742f66	-0.0037259697
88	0x3ccc7b24	0.024961062
89	0xbca2f518	-0.01989226
90	0xbcc743ad	-0.024324263
91	0xbcb9f134	-0.022698022
92	0x3de14f6f	0.11001479
93	0x3d64a1d9	0.055818412
94	0xbc5fa59b	-0.013650323
95	0xbd711b36	-0.05886384
96	0x3dd15126	0.10220556
97	0x3b889c62	0.004169033
98	0x3d054993	0.03254087
99	0x3c13ed07	0.00902868
100	0x3d03b19d	0.032151807
101	0x3c748714	0.014924783
102	0xbc0d5814	-0.0086269565
103	0xbd288165	-0.041139025
104	0x3c277540	0.010220826
105	0x3cdfe954	0.02733294
106	0xbd1d4766	-0.03839817
107	0xbba00350	-0.0048832074
108	0xbc84a394	-0.016191281
109	0x3c6cc9da	0.014452422
110	0x3cff5cb9	0.031172143
111	0x3d9ddabf	0.07707738
112	0x3d07f12a	0.033188976
113	0x3c3b2877	0.011423222
114	0x3de0a1f0	0.10968387
115	0x3b39067d	0.0028232627
116	0xbd259dd7	-0.04043373
117	0x3db3aa6b	0.08772739
118	0x3bfbb600	0.007681608
119	0x3b02b0f8	0.0019941907
120	0xbcdf7a67	-0.027280046
121	0xbcb0bd87	-0.021574749
122	0x3ca27a31	0.019833656
123	0x3bc0f52a	0.005888601
124	0xbcdf4800	-0.027256012
125	0xbbdd89b8	-0.006760802
126	0x3d491e6c	0.04910128
127	0x3e064a8f	0.1311438

critic.4.weight f4 [1, 128]
0	0x3e74172c	0.23836964
1	0xbe2620b6	-0.16223416
2	0x3e29bbe8	0.16575587
3	0xbd9d1585	-0.0767012
4	0x3c7655a3	0.015035066
5	0xbe22deef	-0.15905355
6	0xbd95704d	-0.0729681
7	0xbe1f330c	-0.15546817
8	0x3e99bffc	0.30029285
9	0xbddfba29	-0.10924179
10	0xbf0b1e23	-0.5434286
11	0xbf1631c6	-0.586697
12	0xbdaab5b7	-0.083354406
13	0x3dd50005	0.10400394
14	0x3f1be08b	0.608895
15	0xbf0d2d40	-0.5514717
16	0x3ef4faca	0.47847587
17	0x3da79dad	0.08184371
18	0x3eba2c9c	0.3636216
19	0x3e0d934e	0.13825724
20	0x3f1d096e	0.61342514
21	0x3dff3ca3	0.124627374
22	0x3ecead5e	0.40366644
23	0xbe3e85e3	-0.18605761
24	0x3e9e5cb0	0.3093009
25	0x3df9161f	0.121624224
26	0x3e616e5c	0.22014755
27	0xbe98a4d2	-0.29813248
28	0xbdad5fc2	-0.0846553
29	0x3e41f8f4	0.18942624
30	0x3eda71a2	0.4266482
31	0x3e2c0af0	0.16801047
32	0x3e049cfc	0.1295051
33	0xbe255699	-0.16146316
34	0x3f283a74	0.6571419
35	0x3e8aadb0	0.27085638
36	0x3e0fce54	0.14043552
37	0xbeb0f572	-0.3456226
38	0xbe0e21c0	-0.13880062
39	0x3f2d031e	0.6758288
40	0x3e9fd299	0.3121536
41	0x3f377611	0.7166453
42	0x3e420c7d	0.18950076
43	0x3ee5f3b3	0.4491249
44	0xba556b42	-0.0008141288
45	0x3e8ed50e	0.27896923
46	0xbddbdb4e	-0.107351884
47	0x3f19fc33	0.6015045
48	0x3efd9f5a	0.49535638
49	0xbe5825c0	-0.2110815
50	0x3f726251	0.9468127
51	0x3f195889	0.5990072
52	0xbedfc19c	-0.437024
53	0x3dedb222	0.11606242
54	0x3ee3fe92	0.4453016
55	0xbe9aad94	-0.30210555
56	0x3ec01d1d	0.37522212
57	0x3f0b8637	0.5450167
58	0x3efd9ac2	0.49532133
59	0x3f31a045	0.69385177
60	0xbdc90e26	-0.09817152
61	0x3c02206d	0.007942301
62	0x3f988048	1.1914148
63	0x3f3d5cef	0.7396993
64	0x3e406ee0	0.18792295
65	0x3e801170	0.25013304
66	0xbe723053	-0.23651247
67	0x3f1f3212	0.62185776
68	0x3ec61947	0.3869116
69	0x3ee91a37	0.45527813
70	0x3ef64636	0.48100442
71	0xbd3d2048	-0.046173364
72	0x3e655b89	0.22398199
73	0x3f0a4443	0.5401041
74	0x3f23194c	0.63710475
75	0x3f017b69	0.50578934
76	0x3f137d5f	0.57613176
77	0xbe885b1b	-0.26632008
78	0xbe87994b	-0.2648414
79	0x3e9aaf3e	0.30211824
80	0xbd9d8ba3	-0.07692649
81	0x3ccb5bc3	0.024824029
82	0x3f3071a2	0.6892339
83	0xbe5001e5	-0.20313223
84	0x3ec04619	0.3755348
85	0x3f04086a	0.5157534
86	0x3f567609	0.8377386
87	0x3ee3722b	0.4442304
88	0xbd4fe42f	-0.050754722
89	0xbe1a8aa8	-0.15091956
90	0x3d7212a1	0.059099797
91	0xbdb0cd60	-0.08632922
92	0xbf30f1b1	-0.6911879
93	0xbe0b5540	-0.13606739
94	0xbe6e6de1	-0.23284103
95	0xbee3de22	-0.4450541
96	0xbec413bc	-0.38296306
97	0xbdb7e163	-0.08978536
98	0x3f0ea5e7	0.55721897
99	0xbf54d532	-0.8313781
100	0x3f3459a5	0.70449287
101	0xbd851c75	-0.064995684
102	0xbc68bccd	-0.01420517
103	0x3e0c11a4	0.13678604
104	0x3e4d9b22	0.2007871
105	0xbe5139be	-0.20432183
106	0x3e300a47	0.1719142
107	0xbe4e9e4a	-0.2017757
108	0x3e70f4b2	0.23530844
109	0x3e5fe159	0.21863307
110	0x3ef4002c	0.4765638
111	0x3e9dd333	0.30825195
112	0xbdd677aa	-0.10472043
113	0x3d0f2664	0.03494872
114	0x3f7981e4	0.9746382
115	0xbe9b58de	-0.30341238
116	0xbf0e88c7	-0.55677456
117	0x3f002d20	0.50068855
118	0xbee32dad	-0.44370785
119	0x3f3c212c	0.73488116
120	0x3f153919	0.5829025
121	0x3d13eb2b	0.036112946
122	0xbe3e2950	-0.18570447
123	0xbf202c0d	-0.62567216
124	0xbc9d38a4	-0.019192047
125	0x3f3be381	0.7339402
126	0xbdd6e803	-0.104934715
127	0xbeaa797e	-0.33295816

actor.0.weight f4 [256, 48]
0	0xbd140aa6	-0.036142968
1	0x3cea0ea3	0.028571432
2	0xbd801220	-0.06253457
3	0x3d70c10e	0.05877786
4	0x3d066546	0.032811426
5	0xbe0bffbf	-0.13671778
6	0x3d325d51	0.043546025
7	0x3b4a9ed8	0.0030917432
8	0xbe106506	-0.14101037
9	0x3e2ff802	0.17184451
10	0xbd8b95fd	-0.06815717
11	0x3d1e84af	0.038700756
12	0x3cd1db75	0.02561734
13	0x3dbaf5bd	0.09128902
14	0xbdef56b4	-0.11686459
15	0xbd8cb428	-0.068702996
16	0xbd9232e4	-0.07138613
17	0xbdc1c533	-0.09461441
18	0x3d83c51c	0.0643408
19	0xbd2c68f2	-0.04209227
20	0xbe51a905	-0.20474632
21	0xbd367c09	-0.044551883
22	0x3e0013a8	0.12507498
23	0x389c0d72	7.441164e-05
24	0x3b3bd5a6	0.002866128
25	0xbd88427d	-0.06653307
26	0xbd6b3041	-0.057419065
27	0xbdb12e4d	-0.08651409
28	0xbbcce0d9	-0.00625239
29	0xbd6384fe	-0.055546753
30	0xbb4deab7	-0.0031420419
31	0xbe03c742	-0.1286898
32	0xbdb867b0	-0.09004152
33	0x3d53cbc7	0.05170801
34	0xbdd496b7	-0.10380309
35	0x3c00322a	0.00782446
36	0x3d393828	0.04521957
37	0xbb80dfb6	-0.0039329184
38	0xbdb3c598	-0.087779224
39	0xbe1c353f	-0.15254687
40	0x3dc24e19	0.09487552
41	0xbe1e09aa	-0.15433374
42	0x3d9cb206	0.07651143
43	0xbe06e35e	-0.13172671
44	0xbe834639	-0.25639513
45	0x3cf731a0	0.03017503
46	0xbdfaee6d	-0.12252507
47	0x3e05114a	0.12994877
48	0x3d9c12ac	0.07620749
49	0x3e16a116	0.14709887
50	0x3de49cde	0.111627325
51	0xbdeab4d5	-0.11460272
52	0x3d5b9dca	0.053617276
53	0x3de48a5f	0.11159205
54	0xbd51daa6	-0.05123391
55	0xbbd9ecc2	-0.006650538
56	0x3c835703	0.016032701
57	0x3d749844	0.059715524
58	0xbc19a28f	-0.009377136
59	0x3ce4f8af	0.027950613
60	0x3c7577ee	0.014982207
61	0x3e203908	0.15646756
62	0x3da23a7a	0.0792131
63	0x3d6ccbe4	0.057811633
64	0xbdf6b4d7	-0.12046211
65	0xbdfa6bcd	-0.122275926
66	0xbccf6394	-0.025316037
67	0x3d0c2409	0.034214053
68	0x3d9c7c4f	0.076408975
69	0x3c6cf62a	0.014462987
70	0xbdfc96fb	-0.12333485
71	0x3dbcc6cd	0.09217606
72	0x3df6a60a	0.12043388
73	0x3de193fa	0.110145524
74	0x3e5ff6b1	0.21871449
75	0x3d8a8e13	0.0676538
76	0xbd2d8d41	-0.04237104
77	0xbd3f969b	-0.046774488
78	0x3d341299	0.04396305
79	0x3d18ac5f	0.03727376
80	0xbc6f44fd	-0.01460385
81	0x3df3f6c6	0.11912303
82	0xbe10e22d	-0.14148779
83	0xbc82fc36	-0.015989404
84	0x3e6f132f	0.23347162
85	0x3dc2bdc8	0.09508854
86	0x3d6ae1d1	0.05734426
87	0xbdff7af6	-0.12474625
88	0xbe2bde83	-0.167841
89	0x3ce6f1c9	0.028191464
90	0x3d902b9a	0.07039566
91	0xbc35e0b3	-0.011100936
92	0xbd586453	-0.05283005
93	0x3e2f843d	0.17140289
94	0xbd3187ac	-0.043342277
95	0x3dbb3602	0.091411605
96	0xbd3387ac	-0.04383056
97	0x3c6dd00e	0.014514936
98	0xbe29baa8	-0.1657511
99	0x3d15bcc5	0.036556978
100	0x3e17439b	0.14771883
101	0x3e112b46	0.14176664
102	0xbd6f4dae	-0.05842369
103	0x3de78d38	0.11306232
104	0x3df1e56e	0.11811338
105	0xbdad5279	-0.08462996
106	0x3d46d671	0.04854435
107	0xbd82ae71	-0.06380928
108	0xbdcdce44	-0.10049108
109	0xbd5d1bc4	-0.053981557
110	0xbdee139b	-0.11624833
111	0xbe38ee16	-0.18059573
112	0x3de19ccd	0.110162355
113	0x3df9447b	0.12171265
114	0x3dfeb3a8	0.124366105
115	0xbc732d2e	-0.014842315
116	0x3e120095	0.14258035
117	0xbcc5127a	-0.024056662
118	0x3e0dfbba	0.13865557
119	0x3c97c0c9	0.018524544
120	0x3d7cbe40	0.061704874
121	0xbdc2f126	-0.09518652
122	0x3d85136f	0.06497847
123	0xbdbd2e37	-0.092373304
124	0x3df40626	0.11915235
125	0x3d1d2d0e	0.038373046
126	0x3cc0e51a	0.023546744
127	0xbd4faa31	-0.050699417
128	0x3e8130c3	0.25232515
129	0xbe7e31c3	-0.2482367
130	0xbdb8e3e1	-0.090278395
131	0xbe2cf2df	-0.16889523
132	0x3d13b9db	0.036065917
133	0x3d951491	0.07279313
134	0xbdc04ad7	-0.093892746
135	0x3db96952	0.090532914
136	0x3ce4155c	0.027842216
137	0x3c115f3d	0.008872804
138	0x3d9b04f9	0.07569308
139	0xbcfd0951	-0.030888231
140	0x3dcb6c5f	0.099327795
141	0xbe1dbe31	-0.15404584
142	0x3d8cb732	0.06870879
143	0xbd7149d8	-0.058908314
144	0xbe181071	-0.14850022
145	0xbd451f4e	-0.048125558
146	0x3e3fe423	0.18739371
147	0x3d1acdfd	0.037794102
148	0x3d1dac9d	0.038494695
149	0xbe058f3c	-0.13042921
150	0xbd58efc3	-0.05296303
151	0xbd256e3a	-0.040388323
152	0x3dc7817f	0.09741496
153	0xbd2e1106	-0.042496704
154	0xbe262a58	-0.1622709
155	0x3d1638d0	0.036675274
156	0xbe05bc7b	-0.13060181
157	0x3d6c1e7b	0.057646256
158	0x3cc2e212	0.02378944
159	0xbe2ee9d8	-0.17081392
160	0xbd3fa539	-0.046788428
161	0x3dc1e35a	0.09467192
162	0x3daad5c0	0.08341551
163	0xbdcf7709	-0.10130126
164	0xbdd63da1	-0.104609735
165	0xbd4b778f	-0.049674567
166	0x3d0734dd	0.0330094
167	0x3e30b984	0.17258269
168	0xbd7da592	-0.06192548
169	0x3a96d4f3	0.0011507556
170	0x3e0d69cb	0.13809888
171	0x3d3f8286	0.046755336
172	0xbdda2d11	-0.10653127
173	0x3d213496	0.03935679
174	0xbccaf157	-0.024773283
175	0x3d8f662d	0.0700191
176	0x3db3f4c8	0.08786923
177	0x3dc089a7	0.09401255
178	0x3e00e406	0.12586984
179	0x3ddf610c	0.10907182
180	0xbd1be586	-0.038060687
181	0x3dc6abb6	0.0970072
182	0xbd946519	-0.07245845
183	0xbc95580e	-0.018230464
184	0xbdb27727	-0.08714133
185	0xbd44ec21	-0.048076753
186	0x3dfe5926	0.124193475
187	0x3d331d94	0.04372938
188	0x3dcf05ab	0.10108503
189	0x3dce544c	0.10074672
190	0x3d87c773	0.06629839
191	0x3e7bb4cc	0.24580687
192	0x3d6e9ba6	0.058253907
193	0xbdc6c0c6	-0.09704737
194	0x3db52f63	0.08846929
195	0x3df09450	0.11747038
196	0xbdffcff8	-0.12490839
197	0x3d99d54c	0.07511386
198	0x3d024ec7	0.03181341
199	0xbd63316f	-0.055467065
200	0x3d673223	0.0564443
201	0xbde378c1	-0.11107016
202	0xbc8b3a6e	-0.016995635
203	0xbcd27020	-0.025688231
204	0x3de59321	0.11209703
205	0xbe167d22	-0.14696172
206	0xbc366968	-0.011133529
207	0x3e0bd914	0.13657027
208	0x3d9a4098	0.075318515
209	0xbdc09447	-0.09403282
210	0x3cc2e024	0.02378852
211	0x3d96a005	0.0735474
212	0xbca498d4	-0.020092405
213	0xbd956dcb	-0.07296332
214	0x3c35fd6d	0.011107785
215	0x3ceda9be	0.029011603
216	0xbd5a8fa0	-0.053359628
217	0x3c6ff716	0.014646312
218	0xbd298b5f	-0.04139268
219	0xbc4c0873	-0.012453186
220	0xbe162542	-0.1466265
221	0xbe151ef0	-0.14562583
222	0x3ca31729	0.019908505
223	0x3d184382	0.037173755
224	0xbdabb994	-0.083850056
225	0xbe1b7e3a	-0.1518487
226	0x3ce6468a	0.028109808
227	0xbc75045b	-0.014954652
228	0xbbcbb5e0	-0.0062167495
229	0x3df2bc6e	0.11852346
230	0x3e03a33d	0.12855239
231	0x3d819474	0.06327143
232	0xbc9e9493	-0.019357955
233	0x3d001a61	0.031275157
234	0x3d284b53	0.04108746
235	0xbe05d58a	-0.1306974
236	0x3dc7a1bf	0.097476475
237	0xbc5f17a2	-0.013616474
238	0x3dbe06b9	0.09278626
239	0x3dd9bf33	0.106321715
240	0x3d1921bc	0.037385687
241	0x3dd3f699	0.10349769
242	0x3e14de37	0.14537893
243	0x3d1da132	0.038483806
244	0x3d7980c7	0.060913827
245	0xbd4a661c	-0.049413785
246	0x3d11eb3c	0.035624728
247	0xbe240727	-0.16018353
248	0xbd08f212	-0.03343398
249	0xbd914033	-0.07092323
250	0x3d771da0	0.060330987
251	0x3d7b752c	0.06139104
252	0x3d8272a7	0.063695244
253	0xbb6fd162	-0.0036593308
254	0xbd70dd82	-0.058804996
255	0xbdf231b5	-0.11825887

actor.0.bias f4 [256]
0	0xbdc7e4ea	-0.09760459
1	0x3dc88d80	0.09792614
2	0xbd8f7483	-0.07004645
3	0xbd9d7ece	-0.07690202
4	0xbdc69591	-0.09696496
5	0xbd990380	-0.07471371
6	0x3d922082	0.071351066
7	0x3de5d9b7	0.112231664
8	0xbdb87ac2	-0.09007789
9	0xbd23f483	-0.040028106
10	0x3dd3e100	0.1034565
11	0x3d85acd5	0.06527106
12	0x3dcae2fc	0.09906575
13	0x3e0a8cc6	0.13530263
14	0xbd635a79	-0.055506203
15	0xbb44cfe7	-0.0030031146
16	0xbe10dd27	-0.14146863
17	0xbc00f1fb	-0.007870193
18	0xbcbf5a23	-0.02335841
19	0xbcc20057	-0.023681803
20	0xbe0f1ad3	-0.13975076
21	0xbe0b2f89	-0.13592352
22	0xbdaf538e	-0.08560859
23	0xbdee3d60	-0.116328
24	0xbe0a5636	-0.1350945
25	0x3d33d04e	0.043899827
26	0xbd62e53f	-0.055394407
27	0x3dbc0d10	0.09182179
28	0x3d0eeb20	0.0348922
29	0xbdf7638a	-0.120795324
30	0x3c998ada	0.018742967
31	0x3d7765a5	0.06039967
32	0xbdb03dd9	-0.086055465
33	0x3cde3d26	0.027128767
34	0xbd920dea	-0.0713156
35	0x3d1b11e3	0.037858855
36	0xbe08f698	-0.13375318
37	0xbd67bd19	-0.056576822
38	0x3d79548a	0.06087164
39	0x3d17fb41	0.03710485
40	0xbdfddcf3	-0.12395658
41	0x3c714886	0.014726764
42	0xbc89bca8	-0.016813591
43	0x3d1119c5	0.035424966
44	0x3d804dfe	0.06264876
45	0x3e0869ab	0.13321559
46	0x3d932bf5	0.071861185
47	0xbdc1d9bd	-0.094653584
48	0x3defe43b	0.117134534
49	0x3dc4d905	0.09611706
50	0x3c760616	0.015016099
51	0x3c2cec46	0.010554379
52	0xbd9a753c	-0.07541892
53	0x3e16a3d4	0.14710933
54	0xbde4e3a2	-0.1117623
55	0xbdf902f4	-0.121587664
56	0xbe0cd00a	-0.13751236
57	0xbd8d4b75	-0.06899158
58	0x3e05b7cd	0.13058396
59	0xbe2a09e0	-0.1660533
60	0x3df4fec8	0.11962658
61	0x3c120f8d	0.00891484
62	0x3c86629f	0.016404448
63	0xbd24703c	-0.040146098
64	0x3dcdc272	0.10046853
65	0xbe18db00	-0.14927292
66	0x3da9ebdb	0.08296939
67	0xbdeafa78	-0.114735544
68	0x3d40eb72	0.04709954
69	0xbd7e01a4	-0.062013283
70	0xbdd0758e	-0.10178672
71	0xbd466aee	-0.04844182
72	0x3c2a564f	0.010396554
73	0xbba002b8	-0.0048831366
74	0xbd2ed15e	-0.042680137
75	0xbda19af3	-0.07890882
76	0x3d2cbecb	0.04217414
77	0x3de0017d	0.10937784
78	0x3de29ffb	0.1106567
79	0x3cd8e367	0.026475621
80	0x3c7943e3	0.015213939
81	0x3d33cad1	0.043894593
82	0x3dc7d01b	0.0975649
83	0x3d63f3df	0.055652495
84	0x3dc46534	0.095896155
85	0x3d0f1800	0.034934998
86	0x3ddc753f	0.107645504
87	0xbd8a38f2	-0.06749143
88	0xbd901551	-0.07035316
89	0xbc2a1563	-0.010381076
90	0x3d99157f	0.07474803
91	0x3d43c0de	0.047791354
92	0x3ac98ea0	0.0015377589
93	0x3a7365ec	0.0009284902
94	0xbd889806	-0.06669621
95	0xbcd510fb	-0.026009073
96	0x3ddd8bca	0.10817678
97	0x3d954b05	0.072896995
98	0x3deea1af	0.116519324
99	0xbe1e9469	-0.15486301
100	0x3d502d19	0.05082426
101	0x3dc7774e	0.097395524
102	0xbd87348c	-0.066018194
103	0xbd71349c	-0.058888063
104	0xbc2fce3c	-0.010730322
105	0x3dc18fd7	0.094512634
106	0x3da726f9	0.0816173
107	0xbc3296da	-0.010900224
108	0x3e10aec8	0.14129174
109	0x3d0eb9a1	0.034845
110	0xbd1d5bc3	-0.03841759
111	0x3d67cc2f	0.05659121
112	0x3de63a7a	0.11241622
113	0x3cbf3732	0.023341749
114	0x3ce9d4ee	0.028543916
115	0x3d789a42	0.060693987
116	0xbdf81bac	-0.12114653
117	0xbd81629f	-0.063176386
118	0x3e0f25ad	0.13979216
119	0xbdb09c11	-0.08623517
120	0x3daf9fa3	0.0857537
121	0xbd145eac	-0.0362231
122	0x3d848563	0.06470754
123	0xbd9ece16	-0.077541515
124	0xbd5504c7	-0.05200651
125	0x3e06db98	0.13169706
126	0x3d1c6197	0.038179006
127	0xbd2e56ae	-0.042563133
128	0x3d96099b	0.07326051
129	0xbdea6b43	-0.1144624
130	0x3de3ed3f	0.111292355
131	0x3d8890d4	0.06668249
132	0xbd9f100a	-0.07766731
133	0x3ba47c7c	0.0050197225
134	0xbd1ce538	-0.038304538
135	0x3cc277d0	0.023738772
136	0xbd858976	-0.06520359
137	0x3e189362	0.14899972
138	0x3dec2747	0.11530929
139	0x3e11ffc1	0.14257719
140	0xbd953aa6	-0.07286577
141	0xbde98de3	-0.11404016
142	0x3c9d827e	0.019227263
143	0x3daf058c	0.0854598
144	0x3d540fe8	0.051772982
145	0x3d72b64a	0.059255876
146	0x3e07883c	0.13235563
147	0x3dec0358	0.11524075
148	0x3db666e7	0.08906346
149	0xbdd1d6bb	-0.10246035
150	0x3d946f7d	0.07247827
151	0x3c224255	0.00990351
152	0xbdca039c	-0.0986397
153	0x3deb871a	0.11500378
154	0xbd74fc13	-0.05981071
155	0xbd7441f9	-0.05963323
156	0xbd597611	-0.053091113
157	0x3c1f383d	0.009717998
158	0x3e046f78	0.12933147
159	0xbda50488	-0.08057505
160	0x3e05ab53	0.13053636
161	0x3da8d16f	0.08243071
162	0x3d0c6d4d	0.034283925
163	0x3df946f0	0.121717334
164	0xbda959cf	-0.08269083
165	0x3af355b2	0.0018564968
166	0xbda0b249	-0.07846505
167	0x3d3cef42	0.04612661
168	0x3e2e16b3	0.17000847
169	0xbd01a335	-0.031649787
170	0xbde14791	-0.10999978
171	0x3d11d7b0	0.035606086
172	0xbcc290ab	-0.023750624
173	0x3cce309e	0.025169667
174	0x3ced32b6	0.028954845
175	0xbcc9202d	-0.024551475
176	0x3e3e47c4	0.18582064
177	0x3da920bd	0.082581975
178	0xbdb3c29f	-0.087773554
179	0xbd57e861	-0.05271185
180	0xbd559e74	-0.052153066
181	0xbd97fc55	-0.074211754
182	0x3d5cccc4	0.053906217
183	0xbdca3124	-0.09872654
184	0x3d2b750c	0.04185967
185	0xbd9eefba	-0.07760568
186	0xbdae9ff7	-0.085266046
187	0x3e03bc6c	0.12864846
188	0x3d4bb6eb	0.04973499
189	0x3c12bde9	0.008956411
190	0x3c7d6b8d	0.015467537
191	0xbd560f64	-0.05226077
192	0xbe1210de	-0.14264247
193	0x3d862a49	0.06551034
194	0xbda28c35	-0.079368986
195	0xbb898cf9	-0.0041977135
196	0x3c7fb190	0.015606299
197	0x3d6f864d	0.05847769
198	0x3e0f43ed	0.13990755
199	0xbd1d9959	-0.03847632
200	0xbdf37f4d	-0.11889515
201	0x3e376605	0.17910011
202	0x3d2cecfa	0.042218186
203	0x3e10f046	0.14154157
204	0x3c15ab05	0.0091350125
205	0x3e287909	0.16452421
206	0xbdaf3851	-0.085556634
207	0x3dfecadc	0.12441036
208	0x3cea7a3b	0.028622737
209	0xbc8b8040	-0.017028928
210	0x3cdfa965	0.027302453
211	0xbd443db2	-0.0479104
212	0xbcbbd52f	-0.022928802
213	0x3e0e2aaf	0.1388347
214	0xbd905bc6	-0.070487544
215	0xbda10007	-0.07861333
216	0xbdf93bef	-0.121696346
217	0xbbb99cc7	-0.0056644413
218	0xbda5942c	-0.08084902
219	0x3b454fc8	0.0030107368
220	0x3cd6ea5d	0.0262348
221	0x3da16020	0.078796625
222	0x3d1d04d0	0.038334668
223	0x3cc850e8	0.024452642
224	0xbd5578f4	-0.052117303
225	0x3cffa713	0.031207597
226	0xbc981df1	-0.018568965
227	0x3bbba173	0.0057260334
228	0xbd8b1962	-0.06791951
229	0xbda69881	-0.081345566
230	0x3db1d53c	0.08683249
231	0xbe01cc1c	-0.12675518
232	0xbdc81f27	-0.09771567
233	0xbd98cdd7	-0.07461136
234	0xbd42dcc6	-0.047573827
235	0xbd7e4643	-0.062078726
236	0xbd273021	-0.040817384
237	0xbc7c9a5d	-0.015417662
238	0x3da8de51	0.082455285
239	0xbd01392c	-0.031548664
240	0xbbd0fb70	-0.00637763
241	0xbcb62854	-0.022236027
242	0x3dfbf27e	0.12302111
243	0x3deaa145	0.11456541
244	0x3e24c701	0.16091539
245	0xbce85d54	-0.028364815
246	0xbcab591b	-0.020916512
247	0x3d068849	0.032844815
248	0x3e2c0921	0.16800357
249	0x3dd0525b	0.10171958
250	0xbd56d930	-0.05245322
251	0x3dcafd8b	0.09911641
252	0xbdcfbd10	-0.10143483
253	0x3ce06e9d	0.027396495
254	0x3d5471f9	0.051866505
255	0x3e1dfa21	0.15427448

actor.2.weight f4 [128, 256]
0	0x3d4b2611	0.04959685
1	0xbd8f90db	-0.07010051
2	0xbe093110	-0.13397622
3	0xbe39c0c8	-0.18139946
4	0xb9943300	-0.00028266758
5	0xbdc5e92f	-0.09663617
6	0x3dbd29e0	0.09236503
7	0x3d61f202	0.055162437
8	0x3d27ef83	0.0409999
9	0xbd6e1c52	-0.058132477
10	0x3d2a7b89	0.04162172
11	0xbe2e759b	-0.1703705
12	0xbd8052e1	-0.06265808
13	0x3e30ca1b	0.17264597
14	0x3dc57124	0.096407205
15	0x3dd42952	0.10359444
16	0x3d3536ff	0.0442419
17	0xbd8736ad	-0.066022255
18	0xbe92b1e8	-0.28651357
19	0xbd7936ee	-0.0608434
20	0x3d59a2b7	0.053133693
21	0x3da3efab	0.080046974
22	0x3c34f732	0.011045264
23	0x3df52638	0.1197018
24	0x3d53a48b	0.051670592
25	0xbcff9d6f	-0.031203
26	0x3cac45e2	0.021029416
27	0x3d29a75c	0.041419372
28	0x3a8ed1bc	0.0010896246
29	0x3cd5bd5e	0.026091274
30	0x3e123d05	0.1428109
31	0xbdb6bd55	-0.08922831
32	0xbd596140	-0.05307126
33	0x3d1563e4	0.036472216
34	0xbe1fcc13	-0.15605192
35	0x3e02aeba	0.12761965
36	0xbd2d50a0	-0.042313218
37	0x3bb1f92d	0.0054313154
38	0xbe4ef079	-0.2020892
39	0x3e182df4	0.1486128
40	0x3c928ad3	0.017888462
41	0xbd8a4951	-0.06752265
42	0x3dd929ac	0.106036514
43	0x3d55b91c	0.052178487
44	0xbd37c721	-0.04486764
45	0xbdef5ab9	-0.11687226
46	0x3d945c83	0.07244208
47	0xbc130292	-0.008972781
48	0x3db93529	0.090433426
49	0xbe2769fb	-0.16349022
50	0xbdc0b70d	-0.09409914
51	0xbda94927	-0.08265906
52	0xbd48016d	-0.048829485
53	0xbe0a5436	-0.13508686
54	0xbdfc6c0d	-0.123252966
55	0xbde97ca7	-0.11400729
56	0x3dbc593f	0.0919671
57	0x3dac881a	0.08424397
58	0x3d12bfae	0.03582733
59	0x3d1f479a	0.038886644
60	0xbdccad81	-0.09994031
61	0x3dbd6e83	0.09249594
62	0x3dc2dbeb	0.09514602
63	0xbd27b527	-0.040944245
64	0x3d066566	0.032811545
65	0x3dfbdd91	0.1229812
66	0x3cc7cc76	0.024389487
67	0xbc64de8a	-0.013969073
68	0x3e484609	0.19557966
69	0xbd848f85	-0.06472687
70	0xbe056fcb	-0.13030927
71	0x3d33c424	0.043888226
72	0xb7f004dc	-2.8612492e-05
73	0x3d725d9f	0.059171315
74	0xbdb45c13	-0.08806624
75	0x3d285318	0.04109487
76	0xbd291743	-0.04128195
77	0x3da69a35	0.081348814
78	0x3d7a0b10	0.061045706
79	0x3bf607f0	0.0075082704
80	0xbdfb29a9	-0.122638054
81	0x3dd9aa3d	0.106281735
82	0xbd1a5af0	-0.03768438
83	0x3da84f63	0.08218267
84	0x3e2373f5	0.15962203
85	0xbd6d0e83	-0.057875168
86	0x3dd829d1	0.10554851
87	0xbe0960ce	-0.13415834
88	0x3d23beb5	0.039976794
89	0x3c8cef57	0.01720397
90	0xbcea1392	-0.028573785
91	0x3d9e88e1	0.07740951
92	0x3e08c3eb	0.13355987
93	0xbe9d42b4	-0.30714953
94	0xbd592e66	-0.053022765
95	0xbbc29b07	-0.005938891
96	0x3cfb6135	0.030686
97	0xbee085f9	-0.43852213
98	0x3e397215	0.18109925
99	0x3d68e14f	0.056855496
100	0x3d805ab8	0.06267303
101	0xbe35e47b	-0.1776294
102	0x3d8192c8	0.063268244
103	0xbdfa59da	-0.12224169
104	0xbd2ce46b	-0.042210024
105	0x3d10a864	0.03531684
106	0xbdaadb7c	-0.083426446
107	0xbd937177	-0.07199376
108	0xbe068db3	-0.13139991
109	0xbe3a61c5	-0.18201359
110	0x3dc356a7	0.09538012
111	0xbca980e9	-0.020691352
112	0xbb58091a	-0.003296441
113	0x3d04a9ee	0.03238862
114	0x3d0fbd71	0.035092775
115	0x3d3c001f	0.045898553
116	0xbe2f2b9a	-0.17106476
117	0x3e058187	0.13037692
118	0xbd2a9a84	-0.041651264
119	0xbd1d1876	-0.038353406
120	0xbb000758	-0.0019535627
121	0x3e38eba8	0.18058646
122	0x3db776ab	0.08958181
123	0x3b0d5d8c	0.002157065
124	0x3c2b00b9	0.010437184
125	0x3dbe3b15	0.09288613
126	0xbc18c082	-0.009323241
127	0x3c3953de	0.011311499
128	0x3cb15c49	0.02165045
129	0xbd53c5fd	-0.05170249
130	0xbd31737f	-0.043323036
131	0xbc4653d1	-0.012104944
132	0xbe21d0f1	-0.15802361
133	0xbda0b4af	-0.07846963
134	0xbe312b2d	-0.17301627
135	0xbcf444a7	-0.029817892
136	0x3d070104	0.032959953
137	0x3d94cc3a	0.072655156
138	0x3cb4b801	0.022060396
139	0xbdcd8658	-0.1003539
140	0x3c22e0eb	0.00994132
141	0xbd092079	-0.033478234
142	0x3e08e2c6	0.13367757
143	0x3b800cd8	0.003907781
144	0xbe2d7201	-0.1693802
145	0x3e12327e	0.14277074
146	0xbdb3504e	-0.08755551
147	0xbdee465b	-0.11634513
148	0x3cc0040c	0.02343943
149	0xbd901739	-0.07035679
150	0x3decf7c1	0.11570693
151	0xbe34e876	-0.17666802
152	0xbc765133	-0.015034008
153	0x3d8dc954	0.06923166
154	0xbd5fbc30	-0.05462283
155	0xbce931ed	-0.02846619
156	0x3dc8f42e	0.098121986
157	0xbd3766e0	-0.044775844
158	0xbd2aa923	-0.041665208
159	0x3da4ec62	0.08052899
160	0xbd2a0e71	-0.04151768
161	0x3d559baa	0.052150406
162	0x3db8483f	0.08998155
163	0xbae57bb9	-0.0017508186
164	0x3daa359c	0.083110064
165	0xbccc35d0	-0.024928004
166	0x3d8cd543	0.06876614
167	0x3cdcab6d	0.026937211
168	0x3cdd50cc	0.027016066
169	0xbe268e43	-0.16265206
170	0x3db18cf8	0.08669466
171	0x3d2ed8c0	0.042687178
172	0xbeae78db	-0.3407658
173	0x3c5bf9e8	0.0134262815
174	0xbe29148e	-0.16511747
175	0x3e3b5e72	0.18297747
176	0x3ccf5a08	0.025311485
177	0xbd493411	-0.04912192
178	0xbe1003ab	-0.14063899
179	0x3e064488	0.1311208
180	0x3dcdf289	0.100560255
181	0xbddc78e1	-0.10765243
182	0x3ca674ac	0.020319305
183	0xbdc291e1	-0.095004804
184	0x3cb18e78	0.02167438
185	0x3e139e13	0.1441577
186	0x3c10f2d8	0.008846961
187	0x3d616efc	0.055037484
188	0x3e3e68e5	0.18594702
189	0xbd5b3d30	-0.05352515
190	0x3da19c6c	0.07891163
191	0x3b906db7	0.0044076103
192	0xbda30af5	-0.07961074
193	0x3c1205b0	0.008912489
194	0xbddb410b	-0.10705765
195	0x3ac71915	0.001518997
196	0xbe25d68d	-0.16195126
197	0xbe7e58f9	-0.24838628
198	0xbdf70242	-0.120609775
199	0xbdb4a6b5	-0.08820859
200	0xbb2f8f48	-0.0026788283
201	0xbe9c95e4	-0.30583107
202	0x3cc93277	0.024560196
203	0xbe04cdf1	-0.12969185
204	0x3b89c924	0.004204886
205	0xbe15b075	-0.14618094
206	0x3c30ed95	0.0107988315
207	0x3bc231e5	0.005926358
208	0x3c8a8fbf	0.016914247
209	0x3d0f65a4	0.03500904
210	0xbe00aeee	-0.1256673
211	0xbde724d3	-0.112863205
212	0x3df5c8f1	0.12001217
213	0xbd690559	-0.056889866
214	0x3d0b0a6a	0.03394548
215	0xbd95e7c5	-0.07319597
216	0x3d58ddc1	0.052945856
217	0x3e1017c2	0.14071563
218	0x3dffc9b4	0.12489644
219	0x3e29cb72	0.16581514
220	0x3ce29d6c	0.027662955
221	0xbc860ad2	-0.016362581
222	0x3d5f6ae1	0.054545287
223	0xbd723246	-0.059129976
224	0x3d374656	0.044744812
225	0xbd4e6082	-0.050385006
226	0xbb85f449	-0.004087959
227	0x3dd402f6	0.10352127
228	0x3d072630	0.032995403
229	0x3d51c353	0.051211666
230	0x3db55d7e	0.08855723
231	0x3d9b8d9d	0.0759537
232	0xbd7b2320	-0.061312795
233	0xbda6d375	-0.08145801
234	0x3cd15855	0.025554815
235	0x3dc224be	0.09479664
236	0xbde105f2	-0.10987462
237	0x3dc72fb2	0.09725894
238	0xbdbff8a9	-0.093736
239	0xbe01078e	-0.12600538
240	0xbdefb10a	-0.117036894
241	0xbb03465b	-0.0020030949
242	0x3d072582	0.032994755
243	0xbd162120	-0.036652684
244	0xbdbfea06	-0.09370808
245	0x3c4a5873	0.0123501895
246	0x3dbff3d7	0.09372681
247	0xba8831c0	-0.0010390803
248	0xbe44678a	-0.19180122
249	0x3d7f73be	0.06236624
250	0x3bac5069	0.005258609
251	0xbda5f937	-0.081041746
252	0xbd9c9f25	-0.07647542
253	0x3e079e02	0.13243869
254	0x3c6d72e0	0.01449272
255	0xbd2699a3	-0.040673863
