CRL/模型集_opponent/train_20260124-152719/evolution_v1.pth (torch, 370495 bytes, 11 tensors)

critic.0.weight f4 [256, 48]
000000 e5 57 51 be f6 a3 49 bd 96 86 a3 3c 03 6d 42 3c
       -0.20443685 -0.04922863 0.019961637 0.011866811
000010 90 50 33 bd 2a ad 79 bd 7e 45 6c 3c 8f 78 03 3d
       -0.043778002 -0.060956158 0.014420865 0.032097396
000020 eb a4 a5 be ad 66 26 bd 69 23 4d be 0b 81 91 3d
       -0.32352385 -0.040625263 -0.20033039 0.07104691
000030 60 64 65 be a0 6a 43 bd 9c 60 b8 3c 40 79 bf 3a
       -0.22401571 -0.047709107 0.022507004 0.0014608279
000040 61 62 e0 bd 2a 25 c2 bd 03 9e a7 3c fa 85 f5 3c
       -0.10956264 -0.09479745 0.020461088 0.029971112
000050 6b 1c 1b be d8 49 13 bd 39 a8 55 be d6 63 2e be
       -0.1514756 -0.035959095 -0.20864953 -0.17030272
000060 be 98 f3 bb f5 65 42 3c 5a fe fa 3c 94 b8 22 3d
       -0.00743398 0.011865129 0.030638862 0.03972681
000070 84 44 6b 3d 60 2c bd bd ed c2 19 3d 19 cd c6 3c
       0.05743839 -0.092369795 0.03753941 0.02426772
000080 09 e9 17 bd 78 c5 83 3d 75 68 17 be 5b db 49 be
       -0.037087474 0.064341486 -0.14785941 -0.19712584
000090 d2 0d 17 be fd 90 9e 3d 1a 0c 08 3d 24 42 cb bc
       -0.14751366 0.07742498 0.033214666 -0.024811812
0000a0 23 fb 01 3e 84 56 15 be 29 78 48 3d 2f f8 aa bc
       0.12693457 -0.14583784 0.04894272 -0.020870296
0000b0 41 14 f1 bc a5 f5 f8 3d 15 0e 9d 3e 6f 03 91 bd
       -0.029428603 0.12156228 0.30674806 -0.07080733
0000c0 17 a8 f3 3d d7 aa d5 bd 91 dc dc bd d3 bc bb 3d
       0.11897295 -0.10432976 -0.10784257 0.09166875
0000d0 39 70 a1 3c 47 24 c5 bd 1d 3d 5b 3d 5d 86 13 bd
       0.019706832 -0.0962606 0.05352508 -0.03601681
0000e0 71 a9 be bd be 83 4c be d0 34 22 bd c7 32 b8 3b
       -0.09309662 -0.1997213 -0.039601147 0.0056212875
0000f0 02 91 f8 3d d9 4b 0e be 6e f1 f5 bd 60 13 d0 3c
       0.12137033 -0.13896121 -0.1200894 0.025399864
000100 2c 8b 30 3e b6 0d f0 bd e6 e2 84 3d bb a5 65 3d
       0.1724059 -0.11721365 0.0648859 0.056066256
000110 ff bd 93 bd 89 f8 47 3c 7b 6d b5 bd bf 1e b0 3d
       -0.07213973 0.0122052515 -0.08858772 0.08599614
000120 8d d9 11 3e 9e 13 88 bd 55 aa 06 be a9 5b 00 3b
       0.14243145 -0.06644367 -0.13150914 0.0019585884
000130 af 7e 7e bd b8 31 01 be ed 2c 92 3d 6f 67 3b 3d
       -0.062132534 -0.12616622 0.07137475 0.04575294
000140 7d 50 09 3e 0c f5 db 3d b8 4f a1 3c 53 21 e5 3d
       0.1340961 0.10740098 0.019691333 0.11187997
000150 03 f9 26 3d 1d 67 96 3d d2 ff 04 be 1b 30 aa 3d
       0.04076482 0.07343886 -0.12988213 0.08309957
000160 81 52 9a bd fa 7d 94 bd 44 93 96 3d 3e 74 c2 bc
       -0.075352676 -0.072505906 0.073523074 -0.02373707
000170 e3 ab 0a 3d cf 56 99 3e 9b 28 c8 bd f4 bc fe 3e
       0.03385533 0.29949042 -0.0977337 0.49753535
000180 9a 10 78 3e 9e a9 af 3d 6e 3e b6 bb 43 b2 d3 bc
       0.24225083 0.08577274 -0.0055616414 -0.025841838
000190 49 38 55 bd c8 4e 8a 3b f3 80 1a bd 40 03 f9 bc
       -0.05205563 0.0042208172 -0.03772063 -0.030397058
0001a0 50 ab 1c bd 03 b1 da be 65 9f 9e 3e c3 9b 58 3e
       -0.038249314 -0.42713174 0.30980983 0.21153168
0001b0 36 a5 0a 3e 94 5c 5b 3d cf 9f 34 bc ad a8 9a bc
       0.13539585 0.053555086 -0.011024429 -0.018879259
0001c0 c0 34 40 be 9e b3 17 3d 2c dd 24 bd 9f 6f c6 3d
       -0.18770123 0.03703653 -0.04024999 0.09689259
0001d0 37 84 5d 3e 67 42 65 be 27 7f bf 3d 30 e3 11 bd
       0.21632467 -0.22388612 0.09350424 -0.035617054
0001e0 34 72 b4 3d d6 04 47 3e 8f 23 21 bc b0 bf 97 bc
       0.08810845 0.19435439 -0.009835138 -0.01852402
0001f0 ef 1f e1 bc 38 b3 37 bd 64 ec 36 bd b6 b6 19 bc
       -0.027481047 -0.04484865 -0.044659033 -0.009381941
000200 7b b5 d9 3d 0d c5 30 bd 7a 14 99 bc cc db d7 bd
       0.10630318 -0.043156672 -0.018686522 -0.1053997
000210 95 28 79 3e 27 db a6 bd 12 c0 29 bb 22 76 83 bd
       0.24331887 -0.08147269 -0.0025901836 -0.064190164
000220 c2 8b 18 be c9 e9 eb bd f7 67 1f bd 97 95 5d be
       -0.14897063 -0.115192 -0.038917508 -0.21639095
000230 f2 8a 6f 3e ca 04 36 3d 48 9c f5 bd e5 7e 8e 3d
       0.23392847 0.04443816 -0.11992699 0.06957797
000240 c0 4b 8e 3e 1c 27 ae be 93 12 d0 bb 25 9c b8 3c
       0.27792168 -0.34014213 -0.0063498705 0.022535393
000250 75 f0 0e bd 5f a9 1f 3e 92 88 c1 bc f8 7b f5 bc
       -0.034897286 0.15591954 -0.023624692 -0.02996634
000260 50 ac 6a bd 08 b6 22 bf a3 09 d1 bd 1e 22 f2 3d
       -0.057293236 -0.6355901 -0.10206916 0.118229136
000270 b8 8e 11 3e 9f 87 ae be 9c 02 16 3c 8d 5e 6e ba
       0.14214599 -0.34087846 0.009155896 -0.00090930687
000280 67 74 f2 bd fd 76 66 3e d2 0f 0d bd c3 3d 8c bc
       -0.11838608 0.22506328 -0.034438916 -0.017119294
000290 7c 1c 23 3e 43 45 15 bf 1e e7 72 bc b6 a1 d2 3e
       0.15928835 -0.5830881 -0.01482561 0.41139
0002a0 78 c8 a1 3d c6 e7 70 be 71 90 bb 3b f7 20 b1 bd
       0.078995645 -0.23525915 0.005724006 -0.08648866
0002b0 7c 56 e8 3c b9 92 8a 3d a8 91 33 bd ec f3 67 bc
       0.028361551 0.067662664 -0.04384008 -0.014157277
0002c0 01 5e ae bc 05 7e bc be 40 95 88 bd 51 58 b5 3e
       -0.021285059 -0.36814895 -0.06669092 0.35418943
0002d0 f4 de 7b 3e 65 9a 27 be 95 b5 f2 3a fc 18 6b 3d
       0.24596769 -0.1636749 0.001851725 0.057396874
0002e0 14 82 a2 b8 56 ac 22 3e 8f 91 3f bd 23 5b 33 bd
       -7.748991e-05 0.15886053 -0.046769675 -0.043788087
0002f0 27 7e 80 3e be ae e8 bd e8 8d f7 3d 47 30 04 3e
       0.25096247 -0.113614544 0.12087613 0.12909041
000300 ce 49 a4 3d 42 f1 86 3b a6 a7 34 37 44 7d 9c bc
       0.080218896 0.0041181156 1.076787e-05 -0.0191027
000310 65 c7 d2 3e f4 3c a5 bc 28 76 f9 bb 69 f5 3b 3c
       0.4116775 -0.020170666 -0.0076129623 0.011472085
000320 c9 3c 25 3e 0b 51 22 be 87 bd 47 3c e2 ff 12 bd
       0.16136469 -0.15851228 0.012191183 -0.03588856
000330 d4 53 f3 bd ab 6b 76 b9 55 ee 14 bb cb ea 81 bc
       -0.11881223 -0.00023500498 -0.0022725065 -0.015859028
000340 f5 a4 d0 3e d9 3d e0 bc dc ed 26 3b 0e d2 c1 3b
       0.40750852 -0.027373241 0.0025471365 0.005914933
000350 fa 44 c6 3d 61 22 eb 3b d1 df b1 3e 54 88 e5 3d
       0.09681125 0.007175729 0.3474107 0.11207643
000360 21 8e ed bd bf 66 c5 3c 45 06 b5 3a e7 ae 07 3b
       -0.115993746 0.024096845 0.0013811073 0.0020703615
000370 b5 55 9b 3e c0 19 dc bc 5c 32 8e 3b 88 2e fc 3c
       0.30338827 -0.026867747 0.0043394994 0.030783907
000380 00 8b 6e 3e 0a 8e 85 bc b1 26 07 3f 29 40 07 3e
       0.23295212 -0.016303081 0.52793413 0.13208069
000390 a8 18 f3 3d de 29 af bc f7 22 7b bb f6 21 d7 bc
       0.11869937 -0.021382269 -0.0038320401 -0.026261311
0003a0 87 88 8d 3e fd 07 07 3e ea 90 72 bb e3 cf e0 bc
       0.27643225 0.13186641 -0.0037012645 -0.027442878
0003b0 6f 42 07 3e 88 75 a6 bd 6c 27 38 3f 5e 1e f0 bc
       0.13208936 -0.08127886 0.71935153 -0.029311355
0003c0 5f f9 73 bc 45 f4 e8 bc 8d 6e 00 bd 3b 5f 39 bd
       -0.014890998 -0.02843679 -0.03135543 -0.045256834
0003d0 93 dd 4d 3d 5f 15 ba bd 15 28 a5 3b f3 d1 d7 bb
       0.050260138 -0.090861075 0.0050401785 -0.006586307
0003e0 33 a2 6f 3d 58 09 04 3e c2 4c b3 3d e1 52 47 bd
       0.058504295 0.1289419 0.08754875 -0.048663024
0003f0 83 9f a5 bd 3e ab 17 bc 30 89 40 bd 1e 01 84 bc
       -0.08087065 -0.009257136 -0.047005832 -0.016113814

critic.0.bias f4 [256]
000000 09 03 54 3e cc 23 b1 3e 52 c8 64 3c b0 4c 72 3d
       0.20704283 0.34597623 0.013963776 0.059155166
000010 74 7b 75 bd 4e 1e 5e be 6c 13 8c 3d e0 f3 82 bd
       -0.059932187 -0.21691248 0.06839642 -0.06394172
000020 0e 7f 9e bc 0b f3 2a be a8 6b 20 3e f0 08 9e 3e
       -0.019347694 -0.16694276 0.15666068 0.30866194
000030 53 99 1a 3f 63 41 25 3f ff 1f f5 3d 85 34 74 be
       0.60390204 0.645529 0.119689934 -0.2384816
000040 1b f5 22 be eb 56 ea 3e 08 f7 4f bc e6 7c a0 3c
       -0.15913813 0.45769438 -0.012693174 0.019590806
000050 2c 86 cd be 58 8c 58 be 38 4c f8 bd 98 1b 25 3e
       -0.40141428 -0.21147287 -0.121239126 0.16123807
000060 d6 3e d8 3d 40 ce c3 3e d2 45 cf bd 77 4e 73 3e
       0.1055886 0.38243294 -0.10120739 0.237604
000070 63 44 a3 3c cc 37 d0 bd 52 43 8d 3e 88 d2 56 bd
       0.01993007 -0.101668924 0.27590424 -0.052446872
000080 86 f7 91 be 9e 38 9f 3e 52 50 c5 bb 89 88 3c bf
       -0.28509158 0.31097883 -0.006021538 -0.73645836
000090 63 00 7d 3e ce 47 bc 3e 37 61 06 3f 67 ee e0 be
       0.24707179 0.36773533 0.5249209 -0.43931887
0000a0 e4 a2 ad 3e a5 8c 2b be 0a b4 2b be 61 f9 0a 3f
       0.33913338 -0.1675287 -0.16767898 0.5428677
0000b0 4a ef 66 be 77 65 77 3e f5 35 af 3e ad 0f 57 be
       -0.22552219 0.241598 0.34220853 -0.21002074
0000c0 a6 08 12 bd 4a 3d 63 3e 00 d9 0e bf 9c 44 78 3d
       -0.03565278 0.22191349 -0.55799866 0.060612306
0000d0 0e 6b 08 bf 14 3c 1d bf d0 9c e7 3e 69 d6 7d be
       -0.5328835 -0.61419797 0.45236826 -0.24788822
0000e0 d3 3b a4 3d 2d a7 f5 be 94 d2 47 bf 11 d8 6a bd
       0.08019223 -0.47979107 -0.7805569 -0.057334963
0000f0 d4 69 80 be cf f2 4c 3d 46 44 5c be 51 c8 2a bf
       -0.2508074 0.050036248 -0.21510419 -0.6671191
000100 ec e0 35 3c af b5 a3 be b4 a9 0e be 6c 69 b2 be
       0.011100989 -0.3197455 -0.13931924 -0.34846056
000110 c7 9c cb 3e cf d4 3f 3e ab 6f 03 3e c0 af ff 3c
       0.3976805 0.18733524 0.12835567 0.031211734
000120 d0 c3 b2 3d 1f 1a 27 be 60 8e 84 bd 4a ee 2a 3e
       0.087287545 -0.16318558 -0.064724684 0.16692463
000130 46 0b 54 bf bb a2 81 3e 9c 18 6a be 4e 34 c4 be
       -0.828297 0.25319466 -0.2286095 -0.38321155
000140 f5 54 c7 be 07 13 19 be 5a 5f 1e 3d 0e 46 94 be
       -0.38932005 -0.14948665 0.038665153 -0.28959697
000150 57 23 ee 3d d6 79 99 be 46 5f 0c be e7 07 08 be
       0.11627834 -0.29975766 -0.13708219 -0.13284265
000160 d5 e6 60 be 88 95 06 3e 8c e2 bd 3e 47 26 b5 3e
       -0.21963055 0.13142979 0.37086904 0.35380766
000170 c7 50 42 bd 46 e9 db 3d 41 54 ab be 57 66 09 be
       -0.047440317 0.10737853 -0.33462718 -0.13417946
000180 48 83 df bd 63 3c 80 3d ea 51 5d 3e e0 32 6a 3e
       -0.10913712 0.06261518 0.21613279 0.2287097
000190 b4 67 1b 3e 9a f7 5c be 8a b4 29 3e 5c 85 fe bd
       0.15176278 -0.21578828 0.16572776 -0.1242778
0001a0 24 02 b3 ba f9 e2 5c be 7c 73 ca 3d 64 44 1e 3e
       -0.0013657254 -0.21570958 0.09885308 0.15455776
0001b0 34 cc 24 bd b7 53 af bd 41 c1 fe be a0 0c 9b be
       -0.040233806 -0.08560889 -0.49756816 -0.3028307
0001c0 15 d0 5b bc cc 14 92 be 35 e6 10 bd 02 6c 0e 3e
       -0.01341631 -0.28531492 -0.035375793 0.13908389
0001d0 92 7d 8f be 4d be ba be 46 1c 0c 3d 6a 2f 3c 3c
       -0.2802549 -0.36473313 0.03420665 0.011485914
0001e0 3a 19 47 3e 30 d5 9e 3c db a1 f5 3d 6f 3f ff 3d
       0.19443217 0.019388765 0.11993762 0.12463271
0001f0 84 17 3c 3e e1 b3 36 bd b5 04 8a be 92 18 1c be
       0.18368345 -0.04460514 -0.26956716 -0.15243748
000200 89 bb 6a 3e 93 a1 7d 3e e2 5a 03 be 98 c3 a2 3e
       0.22923101 0.24768667 -0.12827638 0.3178985
000210 b7 cc 91 bd bc ef 66 bc 3a 43 85 3d 39 e0 ad bc
       -0.071191244 -0.014095243 0.06506963 -0.021225082
000220 a4 0d 78 3d 1e 0e 41 bd 18 2b 1e 3f 48 d5 b6 be
       0.060559884 -0.047132604 0.61784506 -0.35709596
000230 68 39 1e be bd bc 93 bf b8 a6 1b bd 22 42 d0 3d
       -0.15451586 -1.1541973 -0.038000792 0.10168864
000240 7f a8 5f 3e 3e b8 e4 3e 41 00 81 be d2 41 1c bd
       0.2184162 0.44671816 -0.25195506 -0.03814871
000250 e7 0d 14 3f 27 3f 8b be 15 ef 52 be ee 8e 86 3d
       0.57833713 -0.2719662 -0.20599015 0.065702304
000260 fe 1e 8e 3d 8d 17 6b 3e 8a bc 43 be 7c 60 8e 3d
       0.06939505 0.22958203 -0.1911489 0.06951997
000270 e3 d7 dc 3d 13 58 e4 bd 29 e9 54 be ad d4 9d bd
       0.107833646 -0.11149611 -0.20792069 -0.0770658
000280 36 2e b4 bd 39 e1 8c 3e 79 e8 af 3e 62 97 50 be
       -0.087978765 0.2751558 0.3435705 -0.20370248
000290 8f 90 3a be d3 e7 a6 be b1 12 c2 be 6b f5 40 be
       -0.18219207 -0.32598743 -0.37904885 -0.1884362
0002a0 cf 8a bc be 68 9b 85 3e 5e 9f 88 3e 70 c8 a1 bd
       -0.36824653 0.26095128 0.26684088 -0.078995585
0002b0 44 dd e9 be e8 18 fb 3d f2 cd de 3e 87 20 6f 3e
       -0.45676625 0.1226061 0.435165 0.23352252
0002c0 2f aa 93 3e 29 2c 1d bd cb 2c fe 3d 08 d5 4b bd
       0.28840777 -0.038372193 0.12410887 -0.04976371
0002d0 71 13 9b 3c f9 ae e4 be 0b f6 26 be 67 e0 9a 3e
       0.018930169 -0.44664744 -0.16304795 0.3024933
0002e0 fc 68 ef 3e 37 49 35 3d 60 5a 2f be e2 93 8b 3d
       0.46759784 0.044259276 -0.17124319 0.06815316
0002f0 a7 25 94 3e 6d af d7 3e 71 09 d6 3e 61 5d 9c 3e
       0.28934976 0.42126027 0.41804078 0.30539992
000300 ec 9b 8f be 53 bb 77 3e 9f 91 0e bd 00 c3 d8 bd
       -0.28048646 0.24192552 -0.034806844 -0.10584068
000310 26 02 1e 3d 43 24 15 be 0a 54 98 3c c5 63 f1 3d
       0.038576268 -0.14564614 0.01859476 0.11786608
000320 0d 35 9e 3d a1 5d ef be 78 d0 08 bf fc 78 2e be
       0.077249624 -0.4675112 -0.534431 -0.1703834
000330 d9 68 da bd 4c d3 3a be 27 f2 10 be a6 4f 8c 3d
       -0.10664529 -0.18244666 -0.14154874 0.06851129
000340 df fe b0 3e 4e 86 3f 3d 47 35 0b 3e 1e a4 80 3e
       0.3456945 0.046758942 0.13594542 0.2512521
000350 bd 41 33 bd 3f 4c ce 3d f1 c0 61 bd 9b b0 29 3e
       -0.043763865 0.100731365 -0.055115644 0.16571276
000360 19 8e 29 be b0 21 cc 3e 81 2a db 3d 4a 32 86 be
       -0.16558112 0.39869452 0.10701466 -0.26210243
000370 aa a7 a3 bd 53 93 bf bc 8d 54 67 bb 94 df 96 3e
       -0.07990964 -0.02338568 -0.00352982 0.29467452
000380 12 a6 41 be b7 52 e2 bd 80 09 1e bf d6 a2 51 be
       -0.18911007 -0.11050933 -0.61733246 -0.20472273
000390 00 9f 3c 3d 87 4a 2a bf fa 77 9d 3e 71 26 61 bd
       0.04605007 -0.6651997 0.30755597 -0.0549683
0003a0 03 59 0c bf 20 26 89 bc 55 58 08 be dd e5 d0 be
       -0.5482332 -0.016741812 -0.13314946 -0.40800372
0003b0 f1 56 c7 bc c6 ef 95 3e ee b4 5d 3e 59 df 2b 3e
       -0.02433345 0.29284495 0.2165105 0.16784419
0003c0 47 76 4a bd e2 0b f8 be 63 3f 50 3d 68 7f 2f be
       -0.049429204 -0.48446566 0.0508417 -0.17138445
0003d0 79 b9 36 bf 60 3c 72 3e 8b 81 52 3e b8 ac cf be
       -0.7137676 0.23655844 0.20557229 -0.4056146
0003e0 6d c9 15 3f 26 ce e0 be 2f 4f 28 be 26 43 77 be
       0.58510476 -0.4390728 -0.16436456 -0.24146709
0003f0 c0 cf 10 3e c8 68 86 3e 02 c9 66 3b 8b a1 f7 3e
       0.1414175 0.26251817 0.0035215025 0.48365435

critic.2.weight f4 [128, 256]
000000 3a 82 2a bd 82 ad cb bc 85 cd c1 3d 41 ac ec 3d
       -0.0416281 -0.024863008 0.09463028 0.11556292
000010 1d 40 95 bc 83 4d df bd 7a 5a 94 bd 97 91 ad bd
       -0.018219048 -0.10903456 -0.072438195 -0.08475035
000020 db 3c c9 bc 10 f8 be 3c 5c cd be 3e d6 8f d1 3d
       -0.024565151 0.023311645 0.37266052 0.10232513
000030 82 7d 77 3c 41 87 93 3d a0 b4 02 3c 56 5b 02 3c
       0.015105607 0.07203532 0.007977635 0.0079563465
000040 f1 01 6b 3d 00 56 07 be 4b 51 a6 bd 83 63 c9 3d
       0.0573749 -0.132164 -0.08120974 0.098334335
000050 79 10 78 bd a7 a1 7d bd f9 98 06 3e 0d 3b 5c 3d
       -0.060562585 -0.06192174 0.13144292 0.053767253
000060 89 1a ec bd d0 a8 5e 3e c5 32 c9 3d f3 95 10 bd
       -0.11528499 0.21744084 0.09824137 -0.035299253
000070 19 58 85 3d 68 55 37 bd 19 a4 8b 3c 3d 4f 80 be
       0.06510944 -0.044759184 0.017046021 -0.25060454
000080 a6 c8 ae 3c 1b 29 50 3d 52 78 cf bd bf f1 b4 be
       0.021335911 0.05082045 -0.10130371 -0.35340688
000090 38 b3 9c bd b9 d6 28 bd 27 67 db 3c 5b e3 a2 bd
       -0.07651371 -0.0412204 0.026782585 -0.07953521
0000a0 31 9f e8 3c 82 fa dc bb ad 0a e8 3c 80 da 86 bd
       0.02839622 -0.00674373 0.028325403 -0.06584644
0000b0 b5 24 d3 bf 14 35 0d bd 81 4e ef bc b9 27 33 bc
       -1.6495577 -0.034474447 -0.029212238 -0.010934764
0000c0 24 37 68 3d c2 68 21 be bc ac 01 3e 94 4f 9e bd
       0.05669321 -0.15762618 0.12663549 -0.07730022
0000d0 e7 10 6b 3d 52 de 94 3c d7 be 77 bc c7 25 88 3d
       0.057389166 0.018172417 -0.015121183 0.066478305
0000e0 40 a4 85 bd 18 ce bf 3c f4 54 be bd ff 73 41 c0
       -0.06525469 0.023413703 -0.09293547 -3.0227048
0000f0 6d 73 7f bc 6b 5e e8 3c 20 77 7b 3e 21 9b a6 c0
       -0.0155914845 0.028365334 0.24557161 -5.2064366
000100 ba e7 c7 3d 45 f9 1d bd 50 36 48 ba f4 0c 69 be
       0.09760995 -0.0385678 -0.0007637488 -0.22758847
000110 71 21 04 3d a9 e5 02 bd 6e 39 26 be eb 68 82 3d
       0.032258455 -0.031957302 -0.16232845 0.06367668
000120 97 30 6f 3d 4d ed 69 be 84 ff 59 bd 06 60 db 3d
       0.05839595 -0.2284443 -0.053222194 0.107116744
000130 7e 2f ca 3d 01 37 9f bc b0 18 74 bd e9 0d 1d 3d
       0.0987234 -0.019435408 -0.059593856 0.038343344
000140 6c bb b8 bd 70 57 b0 3d 9a 39 62 3d 8e 86 64 bc
       -0.09020123 0.086104274 0.055230714 -0.013948096
000150 fa 3e d1 3d f4 e2 9a be 52 22 a1 3a 72 c1 5c be
       0.1021709 -0.30251276 0.0012293553 -0.21558169
000160 70 13 31 3e 11 7a f3 3c f0 e0 fd 3c 68 7a 1b 3e
       0.17292571 0.029721292 0.030991048 0.15183413
000170 6d a7 5e 3d 55 7e 9f 3c a6 ca d7 bd 9b 00 30 bd
       0.05435889 0.01946942 -0.10536699 -0.042969327
000180 5e c7 2d bd 55 2b 62 bd b0 8b 86 bd f4 7e 9e 3d
       -0.04242646 -0.055217106 -0.06569612 0.07739058
000190 06 aa 90 3d ca d2 2b bb 23 30 aa bc 12 81 87 bd
       0.070636794 -0.002621817 -0.020774907 -0.06616415
0001a0 54 a5 3b 3e 21 94 59 be c3 f9 7a bc 00 92 25 3c
       0.18324786 -0.21247913 -0.015318337 0.01010561
0001b0 87 bb b0 3e 07 f4 ef 3c 8e 5e f1 bc 7f 54 08 3e
       0.34518072 0.029291166 -0.029464033 0.13313483
0001c0 b8 e3 d1 3d 65 7f d2 bd 18 95 86 3c 9b 2d 45 3c
       0.10248512 -0.10278205 0.016428515 0.012034799
0001d0 fb 14 ab bd 36 23 d3 bc 39 43 0c 3e 59 de 67 bd
       -0.08353611 -0.025773626 0.13697518 -0.05660853
0001e0 53 23 64 bd 43 dc 39 3d 02 74 82 3d 36 4c ae 3e
       -0.05569775 0.045376074 0.06369783 0.3404252
0001f0 15 95 85 3e da 62 25 bc a2 89 e3 bc fd 20 9e 3d
       0.26090303 -0.010094369 -0.02777559 0.07721136
000200 14 d8 8d be d4 cb 1b be 14 d2 57 be ef 33 a8 bd
       -0.27703917 -0.15214473 -0.21076232 -0.082130305
000210 f2 b0 f0 3c e2 bc 5f bd 2e e3 89 bc ac ca d0 bd
       0.02938125 -0.054623492 -0.01683196 -0.101949066
000220 e8 5e ce bd a1 fa ea bc ac 85 f7 3b 4a fa e6 3d
       -0.10076696 -0.028683962 0.0075537767 0.112782076
000230 b2 2e e3 bd 46 8d 57 bd d9 4b 59 bd 20 ee 8c bd
       -0.11092891 -0.052624963 -0.05305085 -0.06881356
000240 40 0d c9 bd 51 82 97 3d 2e c4 0b 3e fe 1f 79 3c
       -0.0981698 0.07397903 0.13649055 0.015205381
000250 c4 0f da 3d 3b 81 35 be ec 16 cf 3d ff 78 e5 3c
       0.10647538 -0.17725079 0.10111794 0.028011797
000260 5c 63 df 3c 0d 0c 38 3d b3 e6 91 c0 eb 01 d2 bc
       0.027269058 0.044933368 -4.5594115 -0.02563568
000270 27 26 34 bd 77 73 b9 3d 28 49 83 bd ab d9 8c 3c
       -0.043981697 0.09055226 -0.06410438 0.017193636
000280 4a 94 25 bd bd 57 8a bd 6c a5 bc bc 1d 7d ff 3d
       -0.040424623 -0.06755016 -0.023028098 0.12475035
000290 d6 8b 9d 3d b8 dd 30 3d 19 58 85 be f7 fa 50 3d
       0.07692687 0.043180197 -0.26043776 0.05102059
0002a0 4f 21 33 be 67 ab 49 3d 48 18 3d 3d 7f f4 1f bd
       -0.17493175 0.049235728 0.046165735 -0.03905153
0002b0 63 bb b0 3d 3c 9d 70 3c d1 a3 95 3d 68 9a 78 3c
       0.08629491 0.014685925 0.07306636 0.015173532
0002c0 8f c3 e4 bc 7b 52 0c bd c9 24 49 be b2 3e b5 bd
       -0.02792528 -0.034258347 -0.19642939 -0.08849849
0002d0 22 bf 68 3d 73 c7 20 3e 32 f2 df 3d c6 8d 2a 3d
       0.056822903 0.15701084 0.10934867 0.041639112
0002e0 50 07 7b bd 3a 3d 24 3d 6d 4a 6d bc 31 ee e4 bc
       -0.06128627 0.040097453 -0.0144830765 -0.02794561
0002f0 3b cd b3 bc 98 75 c2 bc f6 04 99 3e ba 34 dc 3c
       -0.021948447 -0.023737714 0.29886597 0.02688061
000300 31 ff 37 3d 99 da 01 3d 0f da c2 3c fa 75 bc bd
       0.044921104 0.03170261 0.023785619 -0.0920219
000310 f3 87 a9 bc c3 e0 6d bd 0a 79 63 3d 2c 6a ae bc
       -0.020694708 -0.058075678 0.055535354 -0.021290861
000320 ef 17 37 bb 6a af f6 3c e5 8c ce 3c 32 16 4f 3d
       -0.002793785 0.03011294 0.025213668 0.050558276
000330 c7 9c cd bb e7 88 33 3b 6c b0 05 3e 4d 9e 12 bd
       -0.006274793 0.0027394833 0.13055581 -0.0357955
000340 b7 d3 e1 3b 56 25 c8 3c a6 bf d9 bc 88 97 4e 3d
       0.0068916935 0.024431866 -0.026580643 0.05043748
000350 6d 9f b8 bd ec b6 43 bd 13 98 06 be bc 6c 8c 3d
       -0.09014783 -0.04778187 -0.13143949 0.06856677
000360 c2 21 a8 bd ab 56 96 3c 0d 12 de be 34 9b 8d bd
       -0.08209564 0.018351873 -0.43373147 -0.06914368
000370 43 5f 68 3b d5 70 10 be c8 42 17 3c ab 0d 02 3d
       0.003545717 -0.14105542 0.0092322305 0.031751316
000380 c8 d7 43 bd ce 18 12 be 33 cd 6c bd e1 02 81 bc
       -0.047813207 -0.14267275 -0.05781288 -0.015748443
000390 92 29 e9 bd 29 83 80 be d9 7a 96 bc 9e e8 69 3c
       -0.11384882 -0.25100067 -0.018369125 0.014276652
0003a0 ff 53 05 bd 84 a6 77 bd 0c 7b 2c bd ca 2f 57 3d
       -0.032550808 -0.060461536 -0.042109534 0.05253581
0003b0 f0 8f 8e bc f6 a6 fe 3c e1 75 15 3d 25 b2 47 3c
       -0.01740262 0.031085473 0.03648937 0.012188469
0003c0 2a 25 38 bd 21 60 91 be ef d7 1f 3d 5d 92 87 3d
       -0.044957317 -0.28393653 0.03902429 0.066197135
0003d0 c5 20 c6 bd c9 96 c4 bd 17 80 b5 3c e8 64 61 3d
       -0.09674219 -0.095990725 0.022155805 0.055027872
0003e0 e0 a9 93 3d 5a d2 5b 3d 5e 32 c6 3c 26 ba 49 bc
       0.072101355 0.053667404 0.024193939 -0.012312448
0003f0 11 11 8d 3e 5b 6b 13 3e 71 ad 01 be 82 51 13 3e
       0.27552083 0.14396422 -0.12663819 0.14386562

critic.2.bias f4 [128]
000000 59 0e cd 3d 9c a9 69 bd 5e a5 81 bd 74 5b 97 3d
       0.10012502 -0.057046518 -0.063303694 0.0739049
000010 47 82 1e 3d 82 0a b9 3d 3d ed 82 bd 81 80 8e bd
       0.03869846 0.09035207 -0.06392906 -0.06958104
000020 42 d0 b5 bd e3 85 49 3c a2 23 7c be 89 67 ab 3d
       -0.08877613 0.0122999875 -0.24622968 0.08369357
000030 61 fc 15 3d ef 0b 32 3d 74 9e 1c 3e a0 5d 39 3d
       0.03661764 0.043468412 0.1529482 0.045255303
000040 de a1 c3 3c 4b 07 73 3d ae c1 c7 3d d0 a1 69 3c
       0.023880895 0.059333127 0.09753738 0.0142597705
000050 91 c0 26 3e fa 3b f0 bb 04 01 de bd 5f 93 a3 bd
       0.16284396 -0.0073313685 -0.108400375 -0.07987093
000060 7d 67 78 3d c4 31 79 bd 76 a7 2e 3c 4d 3f 09 3d
       0.06064557 -0.060838476 0.010660043 0.033507634
000070 93 25 4e 3c a4 9e b2 3d 81 3c 5d be 12 69 b5 bd
       0.012582201 0.087216645 -0.21605112 -0.08857931
000080 3e 3c d7 bc 8e 48 90 bd ec fa 38 bc a8 ed 44 3d
       -0.026273843 -0.07045089 -0.011290293 0.04807821
000090 15 67 25 3e 72 30 12 3e 1f b6 9f 3d f2 7c 47 38
       0.16152604 0.14276293 0.07798409 4.756166e-05
0000a0 07 5b 82 3b a0 57 3c bd 2d b2 72 bd 61 1c 4d bd
       0.0039781365 -0.045982003 -0.059251953 -0.050075892
0000b0 fa 3c 2e bb a5 39 31 bc 89 28 82 3c f9 9a fd bd
       -0.0026586638 -0.010816966 0.01588847 -0.12383074
0000c0 f5 b1 a3 3b ea f4 23 3d dd 34 dc 3c 5c 49 a9 bd
       0.0049955794 0.04002849 0.026880676 -0.08265945
0000d0 6e 56 3c 3d 98 6a 13 bb ed 8a 30 3c cd 52 1d bd
       0.045980863 -0.0022493955 0.01077531 -0.038409043
0000e0 c4 51 2a 3d 29 18 2d 3d 44 72 7d 3d 0a 58 3e bd
       0.041581884 0.04225937 0.06187655 -0.04647068
0000f0 4d 7f c0 bb b4 f2 90 bd 97 7f d2 bd 44 5c 24 be
       -0.0058745504 -0.07077542 -0.10278242 -0.16050822
000100 9f 7f 19 be cc 71 ba bd ad 44 80 3d da ca f3 bc
       -0.1499009 -0.09103736 0.06263099 -0.029759813
000110 19 4c 9c bd fa a2 03 3d 49 4b a7 3b 9b 70 82 bc
       -0.07631702 0.03213785 0.0051054102 -0.015922835
000120 26 49 36 3d f9 61 b6 3d 18 84 83 3d 4a 30 9b bc
       0.044503354 0.089054056 0.06421679 -0.018943924
000130 5a 91 11 3e 31 77 c4 bd 5a c1 e8 3d 2d a5 27 bd
       0.14215603 -0.095930465 0.11365004 -0.04092901
000140 66 ad c9 bd c2 50 8b bd 77 db 8d bc d1 24 83 3d
       -0.09847526 -0.06802513 -0.017316563 0.064035065
000150 c6 82 cf 3c d1 31 20 3e 91 de 18 3c 81 1c 34 be
       0.025330912 0.15644003 0.009330408 -0.17588998
000160 45 99 87 3c 86 2e 28 3c ad ec 86 bd e6 4a 10 bd
       0.016552577 0.010264998 -0.06588111 -0.03522768
000170 c3 2e d9 3d f6 50 01 bc 10 f2 32 bd ca 2a de bd
       0.10604622 -0.007892838 -0.04368788 -0.10848005
000180 d4 af ab 3d 1a 50 74 bd 8d 3e ae 3d 6b e7 4c bb
       0.08383146 -0.059646703 0.08508024 -0.0031265866
000190 56 dc 61 3d ec 96 a7 3c fa e1 d6 bd a6 c4 20 bc
       0.05514177 0.020457707 -0.1049232 -0.00981251
0001a0 08 2b ef 39 10 fb c0 bc 69 e7 ae bd bd fd a3 3d
       0.00045617693 -0.023557216 -0.08540232 0.08007381
0001b0 5e f7 10 3d 90 1b 71 3d d4 a6 af 3d 59 a9 a5 3d
       0.035392158 0.058864176 0.08576742 0.08088941
0001c0 35 41 c6 3c 67 a0 d3 3c 4b d9 be 3d 48 ba 3d bb
       0.024201015 0.025833322 0.09318789 -0.0028950144
0001d0 bb ab 33 bc 06 83 0c 3e 13 9a c6 3c 7c d3 de bd
       -0.010966237 0.13721856 0.02424339 -0.10880181
0001e0 2d 0b 0a 3d df 93 ea bc 88 60 3d bc 10 8d b5 3c
       0.033702064 -0.028634964 -0.011558659 0.02216199
0001f0 4e a8 09 bd 7e 19 2a 3d 4c 5c 93 3d bb 33 06 3e
       -0.033607773 0.041528217 0.071953386 0.13105671

critic.4.weight f4 [1, 128]
000000 fc c6 eb 3e 7a fe 3d be e1 04 91 3e 10 62 ab be
       0.4605025 -0.18554106 0.28324035 -0.33473253
000010 a3 55 76 3c fa b3 1b be 24 57 33 be 70 b6 11 bf
       0.015035066 -0.15205374 -0.1751371 -0.56919
000020 cb ec 97 3e ad 48 4a be 22 f7 92 bf 51 ab e8 be
       0.29672846 -0.19754286 -1.1481669 -0.45443204
000030 70 be 2a be 79 88 5e 3e 33 e9 89 3f 35 d3 25 bf
       -0.16674209 0.21731748 1.0774292 -0.647754
000040 c4 c2 10 40 07 86 f5 3d 79 05 c9 3e 01 b7 1f 3e
       2.2618876 0.11988454 0.39261988 0.15597154
000050 8b ec be 3f ce c0 ab 3e 15 f2 ba 3e 58 b3 33 bf
       1.4915937 0.33545536 0.3651282 -0.7019553
000060 81 68 b1 3e 7d 55 92 3f ec b1 b4 3e f9 eb 84 be
       0.34650043 1.1432339 0.35291994 -0.25961283
000070 f6 20 64 be 13 b4 5a 3e 47 c1 2d 3f 02 e0 01 3f
       -0.22278199 0.21357755 0.6787304 0.50732434
000080 62 db ae 3e b8 7d 0c bf 61 2b 3f 3f a2 e4 cb 3e
       0.3415175 -0.5487933 0.74675566 0.3982287
000090 58 ed 7d 3e 42 0a bf be 10 39 34 be fa a5 a3 3f
       0.2479757 -0.37312514 -0.17599893 1.2785027
0000a0 0b 65 57 3e be 13 0f 3f 3f 8a 7e 3e 05 55 c5 3f
       0.21034639 0.558895 0.24857424 1.5416571
0000b0 f0 72 4d 3e 84 20 56 3f 48 b6 91 be bd b0 1c 3f
       0.20063376 0.83643365 -0.28459382 0.6120718
0000c0 9a 31 91 3f 6f 7c 8b be 93 77 5a 3f 81 bd 84 3f
       1.1343262 -0.27243373 0.85338706 1.0370332
0000d0 3b ea f2 be 33 b3 49 3e 3b 87 39 3f c3 93 25 bf
       -0.4744433 0.19697265 0.7247197 -0.6467859
0000e0 26 76 35 3f 36 ab 10 3f da 15 ea 3e dd f7 41 3f
       0.70883405 0.5651125 0.45719796 0.75768834
0000f0 69 15 ad be a9 89 6a 3c 49 26 9f 3f ba 00 a6 3f
       -0.33805397 0.014315047 1.2433559 1.2968972
000100 2f 85 82 3f 2e 7e f5 3e 79 82 13 bf b3 3f 8a 3f
       1.0196894 0.4794783 -0.5762096 1.080069
000110 df 69 0e 3f bb 08 01 3f df 70 f1 3e b7 99 1f be
       0.55630296 0.50403947 0.47156426 -0.15585981
000120 c3 c0 8d 3e 70 a9 19 3f 7c 0b 32 3f 8a 0d db 3f
       0.27686128 0.60024166 0.69548774 1.7113507
000130 c1 4c 21 3f 25 3f 7a bf f2 f2 a9 be 3b 9c 6a 3f
       0.6300774 -0.977526 -0.33193165 0.9164464
000140 75 4a ab be c3 5b cb 3c cd 34 bc 3f 71 c3 7d be
       -0.33455244 0.024824029 1.4703614 -0.24781586
000150 b2 ed 2a 3f 57 3a 11 3f 89 20 89 3f 4f 15 93 3e
       0.66768944 0.56729645 1.0713054 0.28727195
000160 56 92 fe bd e4 0e 3b be 7a 85 c2 3e db 88 55 be
       -0.12430255 -0.18267399 0.3799246 -0.20852987
000170 eb 62 31 bf b5 f8 af bf 14 95 8d be 27 e7 a3 bf
       -0.6929156 -1.3747774 -0.276528 -1.2804917
000180 a3 19 03 bf 03 c1 2b be 2c 83 2c 3f ae 10 09 bf
       -0.51210994 -0.16772847 0.6738765 -0.53541076
000190 60 23 74 3f c5 ae 81 be 6f 51 d0 be f9 6e 53 3e
       0.9536648 -0.2532865 -0.4068713 0.20647801
0001a0 a9 22 3f 3e 3c 75 8a be c0 74 42 3e 8d 10 0e bf
       0.18665566 -0.27042568 0.18989849 -0.55494004
0001b0 bb 26 94 3e cb 16 87 3e bc fa 00 3f 6a bb c4 3e
       0.289358 0.26384577 0.5038259 0.38424236
0001c0 df 8c 8d be b0 18 eb 3d 08 6c 03 40 bf 07 8d bf
       -0.2764654 0.11479318 2.0534687 -1.1017989
0001d0 69 fd 0a bf 8f df f4 3e 47 fe 24 bf 72 56 0a 40
       -0.54292923 0.47826812 -0.64450496 2.1615262
0001e0 81 76 35 3f d3 b7 df 3c bc 54 5e be dc a9 88 bf
       0.7088395 0.027309334 -0.21712011 -1.0676837
0001f0 97 87 4e bc b7 e5 02 40 2f 92 9f be 85 0b 86 be
       -0.012605569 2.0452707 -0.31166217 -0.26180664

actor.0.weight f4 [256, 48]
000000 fe a9 70 3e 16 85 d8 3d 69 3b f5 bd 77 5d 39 3d
       0.23502347 0.10572259 -0.11974222 0.04525515
000010 1c 9f 39 3e 80 fe 27 be 3b 92 0c 3e 5d 8c 02 3c
       0.18127102 -0.16405678 0.13727657 0.0079680355
000020 36 fe 87 3b 83 c9 bf 3e 88 e0 04 3d 03 79 f3 bc
       0.0041501774 0.3745843 0.032440692 -0.029720789
000030 33 34 9d 3e d6 7c 1b 3e 21 75 42 bd 45 2f 9e bd
       0.30703887 0.1518434 -0.047474984 -0.0772386
000040 c4 d5 90 3d e8 0a 0e be 5c 05 87 3e eb cf 8c bc
       0.070720226 -0.13871348 0.26371276 -0.017188987
000050 2e e2 af bd 0c a4 44 3e c0 d2 4b 3e 02 e7 22 bd
       -0.08588062 0.19203204 0.19904613 -0.039771087
000060 f5 28 88 3e 23 a0 11 bb 4c e8 df bd 3a cc 9d bd
       0.26593748 -0.0022220693 -0.10932979 -0.07704969
000070 4c e0 10 3e 2e 2d b4 bd 2c 1c 11 bd 3a 28 af bd
       0.14148062 -0.0879768 -0.035427257 -0.085525945
000080 cf c3 e8 bb 2c dd 96 3e b5 81 0a be d0 0b 6d bc
       -0.0071034203 0.29465616 -0.13526042 -0.014468148
000090 12 82 94 3e 3c b4 ad 3d 56 9b 40 bd 44 c7 09 be
       0.29005486 0.084816426 -0.04702314 -0.1345492
0000a0 6f 4b 68 3e f9 56 30 be 79 a7 13 3d e1 37 f2 bd
       0.22685026 -0.17220677 0.036048386 -0.11827064
0000b0 96 fc 94 be 3f 3a 24 3e b5 39 46 be 2a 18 95 3d
       -0.29098958 0.16037844 -0.19357951 0.072799996
0000c0 99 2c 63 3e 06 8b a8 3e df 1c 06 3e 57 5d 27 be
       0.22184981 0.32918566 0.13096951 -0.163442
0000d0 80 c4 c4 bc 27 17 b6 3d fb 02 46 bd d2 44 53 bd
       -0.02401948 0.08891135 -0.048342686 -0.051579304
0000e0 bc 7b fb bd 88 62 98 3d ce 22 15 bd a0 bb f6 bd
       -0.1227946 0.07440668 -0.036410145 -0.120475054
0000f0 a2 fb 2c 3e 82 63 b2 3e 8f 14 36 3e fb ee 3e 3d
       0.16892865 0.34841543 0.1778128 0.04661463
000100 bf 3a 5d be 64 0d 10 be d6 a1 39 3c 42 d1 9f 3c
       -0.21604441 -0.14067608 0.011330089 0.019508962
000110 77 41 fb bd 8e 36 b6 3c ac 6c 35 be b7 e5 a9 3c
       -0.12268346 0.02224281 -0.17717236 0.02073942
000120 67 0c 8a 3e bd 95 9f 3e b6 5f 8e 3e 31 69 d2 3d
       0.26962587 0.3116893 0.27807397 0.1027397
000130 3e d4 15 be ca 15 87 bd f6 6f 89 bd 83 5d a8 3c
       -0.14631745 -0.06595953 -0.06710808 0.020552402
000140 a7 6e 63 be 43 a2 19 3e c5 d0 63 be cc bd 28 bd
       -0.2221018 0.15003304 -0.22247608 -0.04119663
000150 19 9e c6 3e 9c a3 9a 3e cf 53 57 3e f2 52 e3 bd
       0.38792494 0.3020295 0.21028064 -0.11099805
000160 8c 47 93 be e0 e4 dc 3b 65 3e 0d bc f4 6e af 3b
       -0.28765523 0.006741151 -0.008620833 0.005353803
000170 b1 fc a5 be 6c bd 6e 3e ae 8e 1f be 84 c7 2d 3e
       -0.3241935 0.23314446 -0.15581772 0.1697064
000180 b4 c6 cf be 2f 78 0f 3d 43 5b 23 bd 08 6a 9f 3b
       -0.40581286 0.035026725 -0.039881956 0.004864935
000190 bf 58 ca 3d 57 eb c7 3d f6 00 46 bd b2 f3 7e 3d
       0.09880208 0.097616844 -0.04834076 0.062244125
0001a0 6c 95 47 bc 6c de aa be fe 83 11 3d 65 f8 2b be
       -0.012181621 -0.3337282 0.03552627 -0.16793974
0001b0 48 88 e7 be b0 5c 62 bd 6d 7d 1d 3c 56 36 42 be
       -0.45221162 -0.055264175 0.009612423 -0.1896604
0001c0 1e 03 87 3d 37 2a 69 3d d9 3b 9f 3c a2 b4 cd bd
       0.065923914 0.056925025 0.019437717 -0.100442186
0001d0 40 69 40 3d c1 6d 4d be f5 02 ff 3d 40 ed bf bd
       0.046975374 -0.20061399 0.12451736 -0.09371424
0001e0 37 dc 95 be a5 be c7 bd bb 1b 10 3d e1 53 a3 bd
       -0.29269573 -0.097531594 0.035182696 -0.07974983
0001f0 1e de a4 3d dc ae 04 bd 1f 44 0a 3d c8 30 7b bd
       0.08050178 -0.03239332 0.03375637 -0.06132582
000200 3e 22 23 3e 79 4d d5 be d3 4d 8e bd 96 72 4b be
       0.15931031 -0.4166067 -0.069484375 -0.1986793
000210 8b ce a0 be 4f 7d 7c 3d e3 71 c8 bd 00 63 93 3d
       -0.3140758 0.06164294 -0.09787347 0.07196617
000220 9c 1d 64 bb aa b8 89 bd f2 cb 10 3e ac 99 c3 ba
       -0.0034807688 -0.06724675 0.14140299 -0.0014923117
000230 9b 1f 43 3c be a8 a2 be af 01 b6 3d fb bb 7d be
       0.011909391 -0.31769365 0.0888704 -0.2477874
000240 61 02 3d be 4e d1 04 bd 94 b9 0d 3e 2f b6 d6 bc
       -0.18457939 -0.03242617 0.13840324 -0.026209919
000250 fc e7 53 bc a3 b0 03 be 1b 38 4f bc a0 19 a7 bd
       -0.012933727 -0.1286035 -0.012647654 -0.081591845
000260 da 24 65 3e 67 e4 3a be 20 90 15 bd c7 f7 df 3c
       0.22377339 -0.18251191 -0.0365144 0.02733983
000270 47 a5 25 be 0e fa 91 3d 4c 07 b4 3d 30 06 2d be
       -0.1617633 0.07127772 0.08790454 -0.16896892
000280 f0 ae cd bd af 76 c1 3d 0b 29 1d 3d 2e 62 ff bd
       -0.10043132 0.09446465 0.03836922 -0.12469898
000290 a4 aa 95 3c b6 52 21 be 04 d0 37 3e 22 86 3e 3e
       0.018269844 -0.15754208 0.17950445 0.18605855
0002a0 37 17 c4 bd 98 f6 5d 3c b7 87 1b 3e f3 62 1a 3d
       -0.095747404 0.013547562 0.1518849 0.03769202
0002b0 8a 9f 23 be 22 ea 13 3d 06 b2 f4 ba 6d f7 a4 3d
       -0.15978828 0.03611196 -0.0018668778 0.08055005
0002c0 07 f5 56 3e 90 7d 1a 3d 9d 19 75 3e dd 54 47 3e
       0.20991908 0.037717402 0.23935552 0.19465967
0002d0 22 66 8b bd a2 9e e5 3d 28 7e 59 3c 5c 8b d8 bc
       -0.0680659 0.112118974 0.013274707 -0.02643364
0002e0 31 57 0b be 25 20 54 bd 8d 1f 82 3e 84 7c 86 3d
       -0.1360748 -0.051788468 0.25414696 0.06566718
0002f0 c6 e0 33 3e bf 1c 0a 3d 89 a6 32 3e 6a af ad 3e
       0.17566213 0.03371882 0.1744634 0.33922893
000300 a6 9b 6e 3d c6 c0 c6 bd 63 2f b5 3d 50 94 f0 3d
       0.058253907 -0.09704737 0.08846929 0.11747038
000310 f8 cf ff bd 4c d5 99 3d c7 4e 02 3d 6f 31 63 bd
       -0.12490839 0.07511386 0.03181341 -0.055467065
000320 23 32 67 3d c1 78 e3 bd 6e 3a 8b bc 20 70 d2 bc
       0.0564443 -0.11107016 -0.016995635 -0.025688231
000330 21 93 e5 3d 22 7d 16 be 68 69 36 bc 14 d9 0b 3e
       0.11209703 -0.14696172 -0.011133529 0.13657027
000340 98 40 9a 3d 47 94 c0 bd 24 e0 c2 3c 05 a0 96 3d
       0.075318515 -0.09403282 0.02378852 0.0735474
000350 d4 98 a4 bc cb 6d 95 bd 6d fd 35 3c be a9 ed 3c
       -0.020092405 -0.07296332 0.011107785 0.029011603
000360 a0 8f 5a bd 16 f7 6f 3c 5f 8b 29 bd 73 08 4c bc
       -0.053359628 0.014646312 -0.04139268 -0.012453186
000370 42 25 16 be f0 1e 15 be 29 17 a3 3c 82 43 18 3d
       -0.1466265 -0.14562583 0.019908505 0.037173755
000380 94 b9 ab bd 3a 7e 1b be 8a 46 e6 3c 5b 04 75 bc
       -0.083850056 -0.1518487 0.028109808 -0.014954652
000390 e0 b5 cb bb 6e bc f2 3d 3d a3 03 3e 74 94 81 3d
       -0.0062167495 0.11852346 0.12855239 0.06327143
0003a0 93 94 9e bc 61 1a 00 3d 53 4b 28 3d 8a d5 05 be
       -0.019357955 0.031275157 0.04108746 -0.1306974
0003b0 bf a1 c7 3d a2 17 5f bc b9 06 be 3d 33 bf d9 3d
       0.097476475 -0.013616474 0.09278626 0.106321715
0003c0 36 43 54 3d d1 cb 8f 3d 52 57 5c 3e c1 95 c9 3d
       0.05182191 0.07021297 0.21517685 0.098430164
0003d0 08 db 54 3b d1 7f bd bc b7 38 b2 3d 21 eb 74 be
       0.0032479186 -0.023132237 0.08702224 -0.2391782
0003e0 41 a0 6e 3e 80 6f 9c 3d 89 0f 69 3d 20 a4 aa 3c
       0.2330332 0.076384544 0.05689958 0.020830214
0003f0 f4 72 6e 3d b6 15 de bc dd 15 02 3e ca f3 d5 bd
       0.058215097 -0.027109962 0.12703653 -0.1044689

actor.0.bias f4 [256]
000000 9d 46 3d be 11 25 13 3e 1b 75 c5 bd f6 bb 69 bd
       -0.18483968 0.14369608 -0.09641477 -0.05706402
000010 91 95 c6 bd d4 76 14 bd 7f 38 ae bd f8 b1 b9 3d
       -0.09696496 -0.036246136 -0.085068695 0.09067148
000020 61 f4 8c bd b9 47 44 be ad 9b 80 3d 8f 08 9c 3d
       -0.06882549 -0.19167985 0.06279693 0.0761882
000030 7b bf 70 3e aa c3 d6 3d a7 f6 a5 bd 3a ca f8 bd
       0.23510544 0.10486539 -0.08103686 -0.12147947
000040 b4 eb 66 be 95 8a 1d bd 55 11 e4 3c c3 d8 ae bd
       -0.22550851 -0.03846224 0.027840296 -0.08537438
000050 f2 6d 21 be 58 b5 2a bc 83 ea 00 be 59 f2 22 be
       -0.15764597 -0.010419212 -0.12589459 -0.15912761
000060 eb 81 44 be 6c df 58 3d d0 bb 24 be c1 ad a0 3d
       -0.19190185 0.052947447 -0.1608727 0.07845641
000070 dc b2 86 3d 5f b7 8e be 71 cc d1 bb a3 d2 ce 3d
       0.065770835 -0.27874276 -0.006402545 0.100987695
000080 5f 38 03 bd 42 26 8a 3d 98 7b 7f bd e0 9b fb 3d
       -0.03203618 0.06745578 -0.062373728 0.1228559
000090 1a 4c 7c be c7 d1 a2 bc ab 22 23 3e e2 6b 81 3d
       -0.24638405 -0.01987542 0.15931194 0.06319405
0000a0 b9 22 05 be 07 91 37 3d d0 dd 64 bd 4d 0a 9f bd
       -0.13001527 0.044816043 -0.0558756 -0.077656366
0000b0 a2 3b 1c 3d 70 de 4a 3e 9e 54 20 3e 12 72 63 bd
       0.038142808 0.19811416 0.15657279 -0.055528708
0000c0 2d d8 27 3e a1 f2 53 3d 95 e9 bd 3d 87 21 a4 bd
       0.16391058 0.05174506 0.09273068 -0.08014207
0000d0 56 00 96 bd 49 b5 1f 3e 00 d5 2f bd 46 49 5e bd
       -0.07324283 0.15596499 -0.042927742 -0.054269098
0000e0 05 93 37 be 1b 1f 28 bd 07 5a 02 3e ee 46 c4 bd
       -0.17927177 -0.04104529 0.12729655 -0.09583841
0000f0 6e 7c 37 3e 87 b1 1c bd 6f ec aa bd 95 1e 5b 3b
       0.1791856 -0.03825524 -0.083458774 0.0033434976
000100 91 81 ba 3d e6 4d 95 be 99 e6 cf 3d 14 cb 0a be
       0.09106744 -0.29160994 0.10151405 -0.1355403
000110 28 82 0f bc 4b f9 71 bc ff 89 22 be 07 39 15 bd
       -0.008759059 -0.014768909 -0.15872954 -0.03643134
000120 61 79 d9 bd 2d 00 38 3d 4f 00 1c 3d 8e 6a 2c 3d
       -0.10618854 0.044922043 0.03808623 0.042093806
000130 6a f9 fd 3d bc 7f 10 3d 6a c4 cc 3d f8 38 39 3d
       0.124010876 0.035278067 0.099984005 0.045220345
000140 00 dc 2c 3d 90 1d 80 3d 69 c8 9a 3d f0 42 6c bd
       0.042201996 0.062556386 0.075577565 -0.057681024
000150 e2 f1 50 bc 0d 41 eb 3c 27 78 0c 3d 69 1e ac bd
       -0.012752982 0.028717542 0.034294274 -0.08404238
000160 83 f2 41 be c1 5f 19 bc da cf 89 3c bf 7d d7 bc
       -0.18940167 -0.009361208 0.016822744 -0.026305078
000170 83 f9 cf bd 17 df 20 3b 23 a0 a2 bd 86 b6 5b bc
       -0.101550125 0.0024547034 -0.079407 -0.013410216
000180 7b 21 0e 3e f7 7a 03 3e e5 b0 0e 3e e7 2d 1e be
       0.1387996 0.12839876 0.13934667 -0.15447198
000190 a9 d0 c6 3d e2 fa f2 3d 0f 47 a1 bd 23 6d 6e bd
       0.097077675 0.11864258 -0.078748815 -0.05820955
0001a0 f0 70 58 3d 40 b5 18 3d 78 28 b1 3d 9e d5 aa bd
       0.05284208 0.03728223 0.08650297 -0.083415255
0001b0 32 45 69 3e 0a 66 b8 3c b7 10 1d be aa 39 17 3d
       0.22780302 0.022509594 -0.15338407 0.036920227
0001c0 d0 8d 48 3e a1 a9 05 3d fe 0f 2f bd 92 e9 b6 3c
       0.19585347 0.032632474 -0.04273986 0.022328172
0001d0 f2 c7 10 be a3 89 1b bd ab 94 d7 3d f0 f6 40 be
       -0.14138773 -0.037973057 0.10526403 -0.18844199
0001e0 2e 5d 9b 3a 19 42 27 bd 83 46 ae 3d e0 ed f5 bd
       0.0011853331 -0.04083452 0.08509543 -0.12008262
0001f0 59 94 f1 ba 2a ef b5 3d 3d 0e d1 bd 62 1e 1a be
       -0.0018431052 0.088835075 -0.10207794 -0.15050653
000200 69 d7 b9 bd 78 60 55 be 3e 84 c1 3d 1f 67 02 3e
       -0.09074289 -0.20837581 0.09449051 0.1273465
000210 cd 65 2f bd 8b 65 8d 3d bd 7d 00 3d eb 62 9b 3d
       -0.042821694 0.069041334 0.031369913 0.075872265
000220 3b db f4 bc c8 44 88 3e 49 0e 7f 3d 57 2b 2a 3e
       -0.029889693 0.26614976 0.062269483 0.16618095
000230 8e 59 02 bd 84 fa 42 bb 0b 6f b3 3d 22 eb 0a 3e
       -0.031823687 -0.002975137 0.08761414 0.13566259
000240 db 05 fc 3a f5 ff 9a 3d c5 8b 42 3e e9 28 26 3e
       0.0019227819 0.07568351 0.1899863 0.16226543
000250 76 c7 81 3d b6 b4 9a bd d3 a2 7c 3d 35 ed 35 3e
       0.06336872 -0.07553999 0.06167872 0.17766269
000260 7c 2f ff bd 16 73 88 3d 6b ae 16 be ed f5 30 3a
       -0.12460229 0.06662576 -0.14714973 0.0006750513
000270 27 61 09 be 30 74 8c bd e3 87 85 3e ab 87 bb bd
       -0.13415967 -0.068580985 0.26080236 -0.09156736
000280 f4 df 89 3e 16 87 f6 bb f8 a3 66 bb 69 4e 53 3e
       0.26928675 -0.0075234277 -0.0035192948 0.2063538
000290 be 02 a5 bd 9c 01 0c 3d a8 e2 1c be e0 5b 78 bd
       -0.08057164 0.034181222 -0.15320837 -0.060634494
0002a0 be e9 e4 3d 74 fd 30 3c 77 1c 10 be 18 43 5a bd
       0.11177395 0.010802615 -0.14073358 -0.05328664
0002b0 8e 4e d6 3b 36 06 c0 3d 24 e7 15 3c 4c 52 99 bd
       0.006540126 0.09376185 0.0091493465 -0.074864
0002c0 6f 22 50 3e b2 51 7b 3e e0 5f 61 be f5 7b 6e bd
       0.20325635 0.24542883 -0.2200923 -0.058223683
0002d0 7b cb 82 bd 03 18 df bb 7b 48 9a bd e8 f9 bd bc
       -0.06386467 -0.0068082823 -0.07533356 -0.023190454
0002e0 3a f6 ab 3a a0 3e 0e bc 23 68 c5 bd 2d ab 61 3e
       0.0013119646 -0.008681923 -0.09639003 0.22037955
0002f0 d3 22 85 3d c7 46 04 bc e3 df be 3d 7c 88 16 be
       0.06500783 -0.008073515 0.09320047 -0.14700502
000300 2f 2e 78 bc 46 27 75 3d 88 da 16 be 5a 70 06 3e
       -0.01514773 0.059851907 -0.147318 0.13128796
000310 b7 8a 03 bb c2 7a 84 3b dc 51 34 3e 5f 87 9d 3c
       -0.0020071694 0.004042954 0.17609352 0.019229589
000320 b5 da 48 be 7c 1a 61 3e fa f0 7a 3c 49 c2 2d 3e
       -0.1961468 0.21982759 0.015316242 0.16968645
000330 9e 2e 22 bb 2c 6a 93 3e 66 bc 43 be ac ea 96 3d
       -0.0024747024 0.2879194 -0.19114837 0.07368979
000340 2d 17 64 3d 9b cf f7 bd 8a 71 e1 3c b3 e6 5e bd
       0.055686165 -0.121001445 0.02751996 -0.05441923
000350 04 33 20 be 53 d8 01 3e 55 79 da bd 75 47 ac bd
       -0.15644461 0.12680177 -0.106676735 -0.08412067
000360 17 fc e3 bd 82 5c 92 bd a8 bb 22 be c9 32 8c 3c
       -0.11132067 -0.07146551 -0.15891898 0.01711406
000370 fa c4 18 bd 3f f9 1e 3e 68 9c 0f 3d 96 fd 8a 3d
       -0.037297226 0.15524767 0.03506127 0.06786649
000380 3d e3 d3 bd c7 4f b3 3d 76 66 f4 bb 22 ef 88 3d
       -0.10346077 0.08755451 -0.0074585034 0.06686236
000390 ed 43 3c be 96 7b 7b bd 07 23 d6 3d cb 07 5e be
       -0.18385287 -0.061397158 0.104559 -0.2168266
0003a0 93 c9 29 be bd 0f e6 bc 0a cc 39 bd 2a 40 12 be
       -0.165808 -0.028083676 -0.045360602 -0.14282289
0003b0 1e ba 5b 3d 91 c3 21 be 3a e5 fa 3d 06 ae 26 bc
       0.053644292 -0.15797259 0.12250753 -0.010173326
0003c0 11 b2 1f 3d c6 aa b6 b8 6c da bd 3d 3d d2 c9 3d
       0.038988177 -8.710245e-05 0.09270176 0.09854553
0003d0 a7 73 89 3d 3c 6d 59 bc d2 62 0b 3c fe 32 a6 3d
       0.06711512 -0.013270672 0.008507447 0.08115195
0003e0 29 58 42 3e f6 bf 04 3d 28 e9 a5 3b cf 74 ac 3d
       0.18978943 0.03240963 0.005063195 0.08420717
0003f0 58 e0 20 be fa 65 d3 bc 59 03 0d 3d 6d 6f fe 3d
       -0.1571058 -0.025805462 0.03442702 0.124235965

actor.2.weight f4 [128, 256]
000000 d9 84 0c bc 4e a6 75 be 4d 04 07 be b1 af 41 be
       -0.008576595 -0.23989221 -0.13185234 -0.18914677
000010 00 33 94 b9 82 a0 bf bd d8 80 a1 3e ed b4 34 3e
       -0.00028266758 -0.09356786 0.31543612 0.17647143
000020 52 d4 da 3d a3 e1 a9 3c ec cc 2c bd 60 13 7d bd
       0.10685028 0.020737475 -0.042187616 -0.061786056
000030 68 9d e1 bd 0e a9 9b 3e 0d 36 8f 3c 3a 60 c3 bd
       -0.11016351 0.30402416 0.017481828 -0.09539838
000040 32 bc 41 bc eb 06 5e bd a5 16 d9 be 5e d5 1a be
       -0.011824654 -0.054205816 -0.4240009 -0.15120456
000050 1c d1 af bc b5 64 f9 3c 2f f9 37 be 8f 63 57 3e
       -0.021462016 0.030443529 -0.1796615 0.21034072
000060 b8 47 32 3e e7 6a 2e 3e 46 4f 83 bd 48 38 01 3d
       0.17410171 0.17032968 -0.064116046 0.031547815
000070 28 d9 fd 3d ea 5b 07 3c a2 11 6d 3d 9c 43 2f be
       0.12394935 0.00826166 0.057878144 -0.17115635
000080 a8 47 3a be 83 ff 17 be e4 ed 9c bd a6 5f 1a 3e
       -0.18191397 -0.14843564 -0.076625615 0.1507555
000090 38 bb 54 3e 77 ca d2 be b7 9a 80 be 0a 4c 67 bc
       0.20774543 -0.41170093 -0.25118038 -0.01411725
0000a0 5f 00 89 3d 73 55 81 bc 57 74 83 bc ff 8a 8b bd
       0.06689524 -0.015787816 -0.016046686 -0.06813621
0000b0 f7 10 3f 3d 48 c5 2c be 8d b1 a3 3d 3d ba f5 3c
       0.04664704 -0.16872132 0.079928495 0.029996032
0000c0 a2 c4 b4 3e 07 2c 1c be 84 48 08 be 29 97 58 3c
       0.3530627 -0.1525117 -0.13308913 0.013219633
0000d0 66 ce 49 bd 6c 4b 6a be 2e b6 6b be b7 ba e9 bd
       -0.049269103 -0.22880334 -0.23018715 -0.11412566
0000e0 ee 6f 09 3e b1 e6 fa 3d f0 59 eb 3d 5e 27 c8 bd
       0.13421604 0.12251032 0.114917636 -0.09773134
0000f0 a3 6a a7 bd c7 76 22 bd 3c 07 45 3e 26 92 08 bb
       -0.08174636 -0.039664056 0.19241041 -0.0020839064
000100 e5 2d 27 3d ac 9d e4 3d cd 6b 32 3e 8d 97 eb bd
       0.040815253 0.11162886 0.17423935 -0.115035154
000110 cf fa cd 3e e1 2b ab 3d 24 89 c3 bd b2 1b 18 bb
       0.40230414 0.083579786 -0.09547642 -0.0023209867
000120 f5 e7 0b 3e ad 89 42 be af 63 53 be 5d 5e b5 3d
       0.13662703 -0.18997832 -0.20643495 0.08855889
000130 5b c3 0e bd 89 07 a2 3e 3d 6b a7 3d 47 f5 5f 3c
       -0.034854274 0.31646374 0.08174751 0.0136693185
000140 e9 d1 c5 bc c5 50 24 3d 0d d2 0d be ca b7 b6 bd
       -0.024147945 0.04011609 -0.1384966 -0.08921774
000150 2e f8 09 3e b1 b7 51 3e de af 2d 3e 5e 84 e1 bc
       0.1347358 0.20480229 0.1696162 -0.027528938
000160 43 b4 c5 bc ff 5b ac 3c cb 7c e1 bd c4 ce 95 3c
       -0.024133807 0.02103996 -0.110101305 0.01828707
000170 15 bd 27 3e 78 d9 b9 be 22 b2 12 3e 46 7b 2c 3e
       0.16380723 -0.36298728 0.14325765 0.168439
000180 87 92 2c bd 28 15 cf be 6a 5c 65 3c dc 73 c8 bd
       -0.042131927 -0.40445828 0.013999084 -0.097877234
000190 8b 75 16 3d eb 57 98 be 81 55 c9 3d 96 2f 27 be
       0.03673319 -0.29754576 0.09830762 -0.16326746
0001a0 4e 2d 0d 3d f8 c0 b8 3d b9 b9 e3 bc 47 1e d3 bd
       0.034467034 0.09021181 -0.02779852 -0.10308509
0001b0 bf 8a f4 3d bf 6f c5 3d 5e f1 11 3e c9 8e 9a 3d
       0.11940526 0.096404545 0.1425223 0.07546765
0001c0 a7 db e8 3d b4 db 28 3d 30 49 08 be 7e e7 ac 3c
       0.1137002 0.04122515 -0.13309169 0.021106478
0001d0 ce 26 1b bd fa a0 e8 3d a5 d7 00 3e 24 55 6b bd
       -0.037878804 0.11358829 0.12582262 -0.057454243
0001e0 ce e4 e0 3d a8 4e 4c 3e 9b 0c 0b 3e 4e 6d f5 3d
       0.10981141 0.1995188 0.13579027 0.11983739
0001f0 af d4 a2 bd 00 19 93 bc fc 9f 0d 3e 2c 27 ec 3d
       -0.079507224 -0.017956257 0.1383056 0.11530909
000200 40 af dd bc 25 8c 06 be 1c 3f 72 3d 56 ec 20 be
       -0.027061105 -0.13139398 0.059142217 -0.15715155
000210 24 f5 04 be f3 eb 89 bd 32 ed 56 bf 2e 73 e0 bd
       -0.12984139 -0.06734457 -0.8395568 -0.10959469
000220 ae 5d db 3e d3 e5 9f 3d 58 e1 06 3e 3d b2 e8 bc
       0.4284491 0.07807507 0.131719 -0.028405303
000230 93 93 81 be 3a f1 06 be 2f a8 1c 3e 91 44 7a 3d
       -0.25307903 -0.13177958 0.15298532 0.061100546
000240 8e 78 29 bd 88 b6 98 3e cc a5 e9 bd f9 8a 03 be
       -0.041374736 0.2982676 -0.11408576 -0.12845983
000250 19 e2 67 bd d2 f8 4c be 32 bb d8 3d 70 77 1b be
       -0.056612108 -0.20016792 0.1058258 -0.1518228
000260 b8 77 bd 3c 2b 38 c5 3c 87 2a 8e 3e e5 f6 17 bd
       0.023128375 0.024074635 0.2776682 -0.03710069
000270 f6 48 8c 3e e1 8f 39 bd 26 b8 2b 3e 90 ca bf 3d
       0.27399415 -0.04530323 0.16769466 0.093648076
000280 e1 da b8 bc 4e ba ab 3c 27 71 90 bd 88 fc 8e 3d
       -0.022565307 0.02096286 -0.07052832 0.0698176
000290 b7 16 3d 3e 58 4d 88 bd 3b e7 17 3e 33 39 6b 3e
       0.18465696 -0.06655377 0.14834301 0.22971039
0002a0 c7 de 31 bb e1 57 2e be 47 92 73 bc 44 31 b3 3d
       -0.0027140842 -0.1702571 -0.014866418 0.08749631
0002b0 8c 99 b3 be ad 61 b8 3d 52 dc 07 bf 9a 9d 76 3e
       -0.35078084 0.09003005 -0.5307056 0.24083558
0002c0 42 16 c4 bc 6b 3d 69 bd 4a 48 6c 3d 76 c5 b0 3d
       -0.023936395 -0.05694334 0.057686128 0.08631413
0002d0 88 36 ad 3d cd bc 41 bd be 65 6f 3d 7f e5 8d 3c
       0.08457667 -0.047299195 0.05844664 0.017321346
0002e0 28 e9 90 bd 51 5b 21 3d 54 84 b5 ba 1e c6 c3 3b
       -0.07075721 0.039393727 -0.0013848641 0.005974545
0002f0 a6 6c 17 3e 6c c3 ea 3d 51 da fc 3d a6 41 47 3e
       0.1478754 0.11463055 0.12346328 0.19458637
000300 c8 f4 a7 bd ca 45 37 3d 82 09 b6 3e 1b d5 09 be
       -0.08200985 0.04474429 0.3555413 -0.134602
000310 8b 86 49 be 82 e2 aa be 9f 9d a0 be ad 01 4a be
       -0.1968023 -0.33375937 -0.31370255 -0.19727202
000320 96 71 2b bd b5 43 2a bf 5b 39 ba 3c c2 98 1d 3d
       -0.04185637 -0.6650956 0.022732427 0.03847576
000330 33 09 f4 bd 2a 01 04 be 63 65 83 be 77 c3 18 be
       -0.11915817 -0.12891069 -0.2566329 -0.14918314
000340 3f 8c 40 3d 84 c2 22 be 1c c8 04 be 3f 56 1f be
       0.04700875 -0.15894514 -0.1296696 -0.15560244
000350 27 05 23 3e ba 3a 1a be 6c ff 2b 3d b3 aa 28 3d
       0.15919934 -0.15061465 0.041991636 0.041178416
000360 4c 12 60 bd a7 e7 25 3e 0f 89 ae bd 79 f2 33 3e
       -0.05470495 0.1620165 -0.085222356 0.17572965
000370 b7 e4 e1 bd be 3b 27 3d 70 04 a8 bb 29 da 34 bd
       -0.11029952 0.04082846 -0.005127482 -0.044153366
000380 eb 27 d4 be 11 0e 31 bc ee 28 b4 3d 48 8f 16 3e
       -0.41436705 -0.010806576 0.08796869 0.14703095
000390 4f 61 f8 3d 0b c2 88 3d 67 cc b1 bc 5b 0d e7 3d
       0.12127935 0.06677636 -0.021703912 0.11281844
0003a0 38 85 32 3e 6b 81 94 bc 5e 32 d1 3d 7c ca 5e bc
       0.17433631 -0.018128118 0.10214685 -0.013598081
0003b0 cc a4 00 be 56 ed 80 3d 7d 6e e4 3d 85 a8 fe bc
       -0.12562865 0.06295268 0.111538865 -0.031086216
0003c0 ae e0 4b 3d 19 7b b8 be 11 bc 19 3d 2e 8d 69 bd
       0.049774818 -0.36031416 0.03753287 -0.057019405
0003d0 68 06 6a bc 9c 97 e9 bd 9d 93 ce bb bd d0 37 3d
       -0.014283754 -0.1140587 -0.006304218 0.044876803
0003e0 97 cd e5 be ad 10 c0 3d 5f d7 dd bd 9a af ce bd
       -0.44883415 0.09378181 -0.108320944 -0.10092087
0003f0 be 2b b4 3b f1 07 db 3d a8 b6 cb bd f7 99 da bd
       0.0054983785 0.10694874 -0.09946948 -0.10673898
