CRL/模型集_opponent/train_20260124-152719/evolution_v8.pth (torch, 370495 bytes, 11 tensors)

critic.0.weight f4 [256, 48]
000000 f6 44 4c be 84 ba 26 bd ca f5 ac 3c 1d 68 18 b8
       -0.19948182 -0.04070522 0.021113295 -3.6336587e-05
000010 b9 e2 69 bd 4a eb 5d be 61 e9 31 3c 8f 1c 44 3d
       -0.057100985 -0.21671787 0.0108588645 0.047878798
000020 52 76 72 be d7 17 a7 bd ca 63 4c be ce 40 0c 3d
       -0.23677948 -0.08158844 -0.19959942 0.03424149
000030 75 4c 63 be d2 1b 62 bd 43 ab 92 3c ce 7d 55 ba
       -0.22197135 -0.055202313 0.01790393 -0.00081440515
000040 32 35 ff bd 23 cb 87 be 2f 03 5c 3c 78 34 1f 3d
       -0.12461318 -0.2652217 0.013428493 0.038868397
000050 38 bd 9f bd 64 ad 1f bd 6e 22 4b be 9f 3e dc bd
       -0.077997625 -0.038983718 -0.19837353 -0.107541315
000060 79 6c 38 3c 21 ff d1 3b 3b bb 59 3c cd e8 a9 3c
       0.011256331 0.0064085876 0.013289268 0.02074089
000070 45 ba 41 3d 17 b5 83 be 79 73 99 3c 1a 7d 20 3d
       0.04729678 -0.25724098 0.01873182 0.039181806
000080 1c c2 36 3d 59 63 51 3d 66 03 10 be 75 16 40 be
       0.04461871 0.051120136 -0.14063796 -0.18758567
000090 ad 94 1c be 8b 71 ed 3d 62 6c 3a 3c 22 4e b2 bb
       -0.1529109 0.11593922 0.01137838 -0.005441443
0000a0 0d 51 17 3e be f0 86 be 59 4f 8c 3c 9a 96 c7 3c
       0.14777012 -0.26355547 0.01712768 0.024363805
0000b0 72 24 47 3d ad d8 1e 3e a6 26 a3 3e 8b 11 4f bd
       0.04861874 0.15512343 0.31865424 -0.05055384
0000c0 6b f1 16 3e f5 fb ba be 92 47 5b 3d d6 b4 5c 3e
       0.14740531 -0.36520353 0.05353505 0.21553358
0000d0 8c eb 72 bd 18 8d ec 3c b2 c9 ce 38 0e 9f 3b bb
       -0.059306666 0.028875872 9.860414e-05 -0.002862874
0000e0 d3 2a bd be d3 61 20 bd 77 fb 42 be a4 16 a6 bd
       -0.36946735 -0.039155792 -0.19041239 -0.08109787
0000f0 32 b6 22 3e 26 12 c7 be 20 11 8f 3d 1f d5 0a 3e
       0.15889814 -0.38881034 0.06985688 0.13557862
000100 3c 22 be 3d 71 e7 2a 3c ae ca 1c 3b 2d 1f 12 bc
       0.092838734 0.0104311565 0.0023924517 -0.008918566
000110 63 53 b6 be 6d 4d 1d 3e 77 79 6d be 10 92 92 3d
       -0.35610494 0.15361567 -0.23190866 0.071567655
000120 8d c8 42 3e 74 0d 9d be 7d 8a a4 3d a9 3b 2c 3e
       0.19021817 -0.30674326 0.08034227 0.16819634
000130 2e 52 11 be 37 26 b0 3b af a2 a3 bb 9f 33 09 3c
       -0.14191505 0.0053756493 -0.0049937586 0.008374124
000140 8e 7b 20 be 6f 01 71 3e 7b d0 03 be 49 bb 0e 3d
       -0.15672132 0.23535703 -0.12872498 0.034846578
000150 b8 b1 d6 3d fe 6a 23 be 93 c8 c8 3d 2e 73 d0 3e
       0.10483116 -0.15958783 0.098038815 0.40712875
000160 7a 4f 28 be 16 c9 81 3d b8 1f 49 bc 2c 7d 1a bd
       -0.16436568 0.06337182 -0.012275629 -0.03771703
000170 25 20 87 be e4 c7 cc 3e 7f 87 4e be bd 3d bb 3e
       -0.26391712 0.39996254 -0.20168875 0.3657054
000180 de 41 c4 3e 94 0c 1b 3e 88 4e a2 3b 0c 00 03 3c
       0.38331503 0.15141517 0.0049532093 0.007995617
000190 0a 69 7e be 21 f4 ed 3d 44 b1 b6 ba 42 b5 57 3c
       -0.24844757 0.116188295 -0.0013938327 0.013165774
0001a0 65 43 97 3d 35 1a 42 bf 87 5b 78 3e cf 6f a6 3d
       0.07385901 -0.7582124 0.24253665 0.081267945
0001b0 2f af 95 3e 1e 9b e8 3d fb fc 37 3c a3 98 77 3c
       0.29235217 0.11357711 0.011229749 0.015112075
0001c0 86 1a c9 be f5 b4 13 3e bd f1 e7 bb 0c 24 1d 3d
       -0.39278048 0.14424498 -0.007078378 0.038364455
0001d0 1d 19 91 3e 86 6f ed be cf 83 5f bc 5b ba c9 3c
       0.28339472 -0.46374148 -0.013642265 0.024624994
0001e0 60 0f 82 3e bc 75 82 3e 6e 06 3e 3c 88 f6 a6 3c
       0.25402355 0.2548045 0.011598213 0.020381227
0001f0 3f bd 74 be 22 e3 72 3d 70 b7 1a bc f2 72 24 3d
       -0.23900317 0.059298642 -0.009443149 0.040148683
000200 e1 ce 2b 3e c4 d7 7a be da ab df bd 58 94 bc bc
       0.16778137 -0.2449637 -0.1092145 -0.023019955
000210 9b 30 d1 3e f9 cc 7e bc 65 62 b1 3c fb 67 c3 3c
       0.40857396 -0.015551799 0.021653363 0.023853293
000220 ec 7b b6 be 93 f3 96 bb 92 82 88 bb 03 69 5d bd
       -0.3564142 -0.004606673 -0.004165956 -0.054055225
000230 b5 bb 9a 3e 51 26 09 be c8 af 49 be 75 f6 35 3e
       0.30221334 -0.13393523 -0.19695961 0.17769797
000240 5b d1 80 3e 7c ff f2 be 13 8d f3 bc 81 97 0c 3d
       0.25159726 -0.47460544 -0.029730355 0.034324173
000250 f5 4c 4f b9 61 af e7 3d 68 8b a2 ba ea 80 04 3d
       -0.00019769727 0.11312748 -0.0012401165 0.032349505
000260 78 e3 f5 3d b5 37 1e bf 18 d0 11 be 33 03 9b bd
       0.12006277 -0.6180375 -0.14239538 -0.075689696
000270 bb 51 b7 3d 12 d9 ea be a2 39 a7 bc af 6b 00 3c
       0.08951136 -0.45868737 -0.020413224 0.007838174
000280 ff cf 80 bd b7 f9 4d 3e 26 f7 39 3c ee 7d 1c 3d
       -0.06289672 0.2011479 0.011350429 0.038206033
000290 54 20 b8 3e ef 31 1b bf d2 6d a2 bd 25 90 38 3e
       0.35962164 -0.6062307 -0.07931103 0.18023737
0002a0 ec 03 e0 3c 97 ff b3 be d4 05 8c bc 49 04 1e bd
       0.02734562 -0.35155937 -0.017092623 -0.038578305
0002b0 6c 6f af 3d 7d 6c 40 3d 0e e1 7e 3c 2a 9d 30 3d
       0.08566174 0.046978462 0.015556587 0.043118633
0002c0 da c1 33 3e 4e 3c cc be f6 94 99 bd 9b 57 03 3e
       0.17554417 -0.3988976 -0.07499115 0.12826388
0002d0 82 94 47 3e ca 95 93 be db 71 fb bc b6 66 8d bd
       0.19490245 -0.28825217 -0.030693939 -0.06904356
0002e0 5c ad 70 3d 19 7e 11 3e 63 ff 88 3c 28 50 46 3d
       0.05875908 0.14208259 0.01672334 0.048416287
0002f0 d2 2f e4 3e 15 91 1a be df 6e 8f 3d 1b a2 cd 3d
       0.44567734 -0.15094407 0.07003569 0.10040685
000300 ab 3e c2 3c 59 19 2f bd 1e 11 fb 3a 1f 84 5f bc
       0.023711523 -0.042748783 0.0019154882 -0.01364234
000310 4d ea c8 3e 73 35 64 3d e1 a1 b5 bb 22 9d 5d bb
       0.39241257 0.055715036 -0.005542979 -0.0033815582
000320 6d 3e 8b 3e 8d 1e b9 bd bd f1 17 bd 6d 47 39 bd
       0.27196065 -0.0903903 -0.037095774 -0.045234133
000330 8e 13 31 be c4 4e 0e bd 08 00 6e bb c7 8e d1 3a
       -0.17292616 -0.034743086 -0.0036315937 0.0015987986
000340 b7 17 c9 3e 9c cc 67 3d b4 7c 44 ba eb 9f 93 3b
       0.39275905 0.056591615 -0.0007495389 0.0045051477
000350 e7 4e 58 3e 87 32 a0 3d 15 98 69 3e 4a 5e 8a 3b
       0.21123849 0.07822137 0.22811921 0.004222666
000360 b0 01 2a be 74 27 ed bb b7 0e 37 bb 08 18 26 bc
       -0.16602206 -0.007237369 -0.0027932355 -0.010137565
000370 c7 68 95 3e 57 f7 74 3d 41 72 25 3c dd d7 81 3c
       0.291815 0.059806194 0.010098041 0.015850002
000380 3b 80 ae 3e e1 ca 24 3d 66 9c c7 3e be 32 f9 3d
       0.34082207 0.040232543 0.3898651 0.121678814
000390 2f 21 9b 3d 78 5a 40 bd 5c 5e 8d bb 9e d4 7c bc
       0.07574689 -0.046961278 -0.004314227 -0.015431551
0003a0 85 21 91 3e db 0d 64 3e 3b ee 62 3c ac c7 4e 3c
       0.28345886 0.2227091 0.013850744 0.012620848
0003b0 3b 8d 8b 3e 0d d7 11 3d 38 89 36 3f 04 fd 17 3d
       0.27256188 0.03560548 0.7130313 0.03710653
0003c0 59 55 45 3d 45 6e fa 39 23 34 11 bd 63 9d 3e bd
       0.048177097 0.00047765873 -0.035450112 -0.046536814
0003d0 9f 19 8f 3c 67 7b 47 bb 07 ea b4 3b d3 dd c6 bc
       0.017468272 -0.0030438544 0.0055210623 -0.024275696
0003e0 5b f2 00 3d fa fc 24 3e 70 6f ae 3d 57 23 6e 3d
       0.03148113 0.16112128 0.08517349 0.05813917
0003f0 03 89 68 3c 4e 31 87 3c 63 70 3e bd 03 ed da bc
       0.014192822 0.016503002 -0.0464939 -0.026724344

critic.0.bias f4 [256]
000000 61 f7 6a 3e 50 28 c9 3e 4c d7 81 3c f3 9d 9e 3c
       0.2294593 0.39288568 0.015849732 0.019362425
000010 e6 76 24 3d 53 b5 79 be 59 77 6c bc 46 74 00 be
       0.040152453 -0.24385576 -0.014432752 -0.12544355
000020 d9 78 8b 3d db 27 88 be c0 94 ce 3d 02 a1 c4 3e
       0.06810159 -0.26592907 0.100869656 0.3840409
000030 03 c4 6e 3f 32 75 37 3f 4d 34 09 3e e3 01 b0 be
       0.9326784 0.716632 0.13398857 -0.3437644
000040 36 a7 65 be 77 19 02 3f 30 38 96 bd 10 a0 2a bc
       -0.22427067 0.50820106 -0.07334936 -0.010414138
000050 8c 58 0b bf 57 ac 82 be c4 9d 2a be fc e0 46 3e
       -0.54431987 -0.2552211 -0.16661745 0.19421762
000060 94 c1 1d 3e 89 fa bb 3e 15 3d 4e be 31 b2 8a 3e
       0.15405875 0.3671458 -0.20140488 0.27089074
000070 b3 cd 6f bc 1c 65 8f be 79 1c 9b 3e 1a d2 14 be
       -0.014636445 -0.28006828 0.3029516 -0.14533272
000080 07 73 9e be e9 59 bc 3e 9d 6c 4e 3e 58 24 7e bf
       -0.30947134 0.36787346 0.2015862 -0.99274206
000090 f7 15 1b 3e 2b 1a 0a 3f cb bb 14 3f 03 a4 0f bf
       0.15145098 0.5394618 0.5809905 -0.5610964
0000a0 07 5b bf 3e 3c e1 7a be a2 20 9b be 34 c4 f8 3e
       0.37374136 -0.24499983 -0.30298334 0.4858719
0000b0 13 24 73 be 8a 5e 5c 3e 99 f9 c8 3e 9f c5 68 be
       -0.2374423 0.21520439 0.39252928 -0.22731636
0000c0 0e 16 2c be 1e ed 54 3e c3 bf 27 bf 16 ce b8 bd
       -0.16805288 0.20793578 -0.6552698 -0.09023683
0000d0 54 48 58 bf 45 a9 50 bf 5d 6d ee 3e 7c 73 b9 be
       -0.84485364 -0.81508285 0.46567813 -0.3622092
0000e0 a1 08 d9 3d 6a 96 45 bf ab a8 6e bf ee 01 c1 bc
       0.10597349 -0.7718264 -0.93226117 -0.02356049
0000f0 b7 a0 d4 be 11 bc e3 3c ba 15 af be e7 e9 1d bf
       -0.41528866 0.027799638 -0.34196264 -0.6168503
000100 93 88 70 3d af ef a6 be ce b1 19 be 4a bf fc be
       0.058723997 -0.3260474 -0.15009233 -0.49364692
000110 e1 74 f3 3e b9 0c 74 3e 8e 64 16 3e be e9 27 3e
       0.4755011 0.23832978 0.14686796 0.1639776
000120 61 62 c2 3d 3c 67 f9 bd d8 f3 e5 bd 2c f4 23 3e
       0.094914205 -0.121778935 -0.1122815 0.16011113
000130 56 2f 7b bf 4e 2c 88 3e 29 d1 b7 be dd 4b 0c bf
       -0.98119104 0.26596302 -0.35901764 -0.5480326
000140 64 a0 f2 be af 56 16 be 1e bd 0c 3e 8d e0 08 bf
       -0.47387993 -0.14681505 0.13744017 -0.5346764
000150 52 2a 76 3e 5c 65 0b bf 6a 2a 1c be 82 6f 09 be
       0.24039581 -0.5445154 -0.15250555 -0.13421443
000160 72 e0 a2 be 93 17 28 3e ad ba fe 3e f2 1a 0f 3f
       -0.31811863 0.16415243 0.49751797 0.5590049
000170 ca 79 9f bd 3c e3 86 bc 3d a0 e6 be 52 73 39 bd
       -0.07786901 -0.016465776 -0.45044127 -0.045275994
000180 e0 29 03 be 26 83 a4 3d 92 04 c1 3e 0b e5 58 3e
       -0.12808943 0.08032827 0.376988 0.21181123
000190 98 ac 4f 3e f0 8e 97 be 13 ee 57 3e ec 3a 7d be
       0.20280683 -0.2960124 0.21086912 -0.24729508
0001a0 f7 1c 0f bd d3 de 9e be e9 fe 26 3e 2c ec 1d 3d
       -0.034939732 -0.31029376 0.16308178 0.03855531
0001b0 8f 38 32 3d 0b c1 a3 bd 77 5c 4f bf d0 37 b3 be
       0.04351097 -0.079958044 -0.81000465 -0.3500352
0001c0 2c 3b 8d be 0d 29 bc be 35 96 69 bd f1 cc 7d 3e
       -0.27584207 -0.3675007 -0.057028014 0.2478521
0001d0 b6 e7 09 bf 69 78 25 bf 29 f5 e9 3d 24 8f bc 3d
       -0.5386919 -0.64636856 0.11423714 0.092069894
0001e0 60 f9 1b 3e 7b a5 e0 bb 80 29 06 3e 02 dd 03 3e
       0.15231848 -0.0068556643 0.13101768 0.12877277
0001f0 d2 f2 83 3e e1 b3 36 bd 6a 0a af be e6 ea 23 be
       0.25771195 -0.04460514 -0.34187633 -0.16007575
000200 c9 f9 5d 3e d3 89 b7 3e b0 79 96 bd 83 82 c3 3e
       0.21677317 0.3584734 -0.07347429 0.3818551
000210 98 d3 bc bd 18 80 1e 3d d0 6e dc 3d 59 99 89 3c
       -0.09220046 0.03869638 0.10763323 0.016796755
000220 9f 99 7b 3d 8e dd 2d be f5 82 44 3f ee 0c 2c bf
       0.0614258 -0.16979048 0.76762325 -0.6720723
000230 08 68 d7 be ee 9b a6 bf 39 a0 a7 bd 2b f4 01 3e
       -0.42071557 -1.3016336 -0.08184857 0.12690799
000240 eb 43 76 3e 79 fd 00 3f 76 a7 cc be 61 7a 41 be
       0.24049346 0.5038677 -0.39971513 -0.1889434
000250 00 01 34 3f 73 39 c2 be 3c e7 b6 be 03 0b 87 bd
       0.70314026 -0.37934455 -0.35723293 -0.06593897
000260 ea 09 29 bc f8 9e 80 3e c3 84 7e bd 82 d4 ac 3c
       -0.010317305 0.25121284 -0.06213833 0.021097425
000270 34 26 f6 3d e6 04 67 be 03 8c 8a be c3 e1 86 bd
       0.120190054 -0.22560462 -0.27059945 -0.065860294
000280 9a 11 5c be 4c 3a c5 3e ed 4d f2 3e 32 ce 15 be
       -0.2149109 0.3852104 0.47325078 -0.14629439
000290 ef f5 51 be 6b c7 a9 be 5f fe ec be 1a c7 82 be
       -0.20503972 -0.33159956 -0.4628782 -0.25542527
0002a0 45 89 e5 be 80 22 92 3e a1 87 b3 3e bf 83 11 be
       -0.4483129 0.28541946 0.35064414 -0.14210413
0002b0 f3 ba 1c bf 39 26 35 3e 13 94 1d 3f 8a 82 82 3e
       -0.6122276 0.17690362 0.6155407 0.25490218
0002c0 96 b0 c0 3e ee a3 79 be bd e7 7f 3d 13 fd a1 bc
       0.37634724 -0.2437894 0.062476862 -0.019773996
0002d0 9c 71 52 bc 9d c8 0e bf 6c f5 4c be 47 c3 91 3e
       -0.012844469 -0.5577486 -0.20015496 0.28469297
0002e0 64 87 3b 3f 41 62 fe 3d 7d e4 ac be 89 5f d6 3d
       0.73253465 0.12421084 -0.33768073 0.10467441
0002f0 9e 75 a5 3e bf 91 f3 3e 3d ca 06 3f 71 2b 87 3e
       0.32316297 0.47572133 0.5265234 0.2640033
000300 47 81 66 be a0 28 7f 3e 3f dd 67 bd bf 89 00 be
       -0.22510253 0.24917841 -0.05660748 -0.12552546
000310 bc ef 40 3d bb b4 93 be 83 18 c6 3d ed a8 b1 bd
       0.04710363 -0.28848824 0.09672644 -0.08674798
000320 75 00 60 bc a3 69 30 bf 30 1a 1e bf bc 3c d1 be
       -0.013671984 -0.6891119 -0.6175871 -0.4086665
000330 1e e4 00 be 65 45 b3 be 93 55 13 be 2f ce b8 3d
       -0.1258702 -0.3501388 -0.14388113 0.090237014
000340 9b 40 e1 3e cc b8 1f 3e 27 de 0c 3e 69 b2 a8 3e
       0.43994603 0.15597838 0.1375662 0.32948616
000350 5f 8a 9b 3c 03 db 26 3e 91 bc 74 3c ac f5 67 3e
       0.018986879 0.16294484 0.014937536 0.2265231
000360 df 35 3a be 79 5b ef 3e 89 02 0f 3d 18 11 d7 be
       -0.18184613 0.46749476 0.034914527 -0.4200523
000370 d3 3c ae bd b8 c0 80 3d 09 98 01 3e 92 81 b0 3e
       -0.08507695 0.06286758 0.12655653 0.34473854
000380 57 c2 e9 bc 7d ea fa bd 30 09 7e bf 18 dd 86 be
       -0.028535051 -0.12251756 -0.9923277 -0.26340556
000390 1c 3d 90 bc 87 3e 50 bf 17 9e c4 3e cf 5e 3e bd
       -0.017607264 -0.8134541 0.38401863 -0.046477135
0003a0 85 08 33 bf 59 f9 52 be d6 56 4e be 81 6c e6 be
       -0.69934875 -0.20602931 -0.20150313 -0.45004657
0003b0 14 89 40 bd e8 03 e0 3e 03 70 60 3e 90 9c 8e 3e
       -0.047005728 0.4375298 0.21917729 0.27853823
0003c0 40 43 73 3c 9b 80 fd be a4 61 21 bd 1f 9c 8d be
       0.014847577 -0.4951218 -0.039399758 -0.27658173
0003d0 0d 87 80 bf ac 93 34 3e 5b 61 50 3e 8c 2d 05 bf
       -1.0041214 0.17634457 0.20349638 -0.52022624
0003e0 14 45 27 3f fb 52 03 bf 0d 3a 1a be 2a b5 e4 be
       0.6533978 -0.51298493 -0.15061207 -0.44669467
0003f0 cf b1 03 3e 77 b0 93 3e 33 56 f1 3d e3 a0 12 3f
       0.12860797 0.2884557 0.11784019 0.57276744

critic.2.weight f4 [128, 256]
000000 92 97 af bc 91 dd 4b be b4 aa 0f be 85 56 53 3e
       -0.021434579 -0.1990874 -0.14029962 0.20638473
000010 8c 13 c1 bd d5 98 69 bc 8b 38 87 3d 23 b1 91 3d
       -0.094275564 -0.014257629 0.066025816 0.07113864
000020 56 78 08 be 49 f0 f6 bd 45 3d 88 3e f6 e8 5b 3d
       -0.13327155 -0.120575495 0.26609245 0.053688966
000030 2d b5 33 3d bd 06 eb 3d f5 e9 94 3b 52 14 8d bb
       0.043873955 0.114758946 0.0045444914 -0.004305401
000040 f1 1e 50 3b d4 6c b9 be 5f 2d 8d bd 53 55 72 3d
       0.0031756724 -0.36215842 -0.068934195 0.059163403
000050 a2 ea 0c bd ab 12 8c bc 78 b7 f3 3d 6f 5f ad bc
       -0.03440345 -0.017098745 0.11900228 -0.02116367
000060 38 29 43 3d 0c 6a 1c 3e 23 24 6d 3d 6d d1 c8 bc
       0.04764673 0.15274829 0.05789579 -0.024513924
000070 e8 44 96 3d b0 04 9c bc b2 3b 15 3d 1a 0c ab bf
       0.073373616 -0.019045204 0.036433883 -1.3363068
000080 62 b4 09 bf 4e d9 1c bc b3 c7 db 3d 34 4d 96 bf
       -0.5379087 -0.009573294 0.10731449 -1.174231
000090 15 31 a0 3d 0d 56 d9 3c bf c8 87 be 30 a4 b5 be
       0.07821862 0.02653029 -0.26520345 -0.35476828
0000a0 0b 17 35 3d c9 ad e9 3d 92 f3 7b bc 6f f1 70 be
       0.04421143 0.114101 -0.015377896 -0.235296
0000b0 1b d6 9b bf 3d 27 b3 bb 99 38 f3 bd f1 11 89 3c
       -1.2174715 -0.005467324 -0.118760295 0.016732188
0000c0 a1 d3 92 3c 43 c3 2c be bd e3 54 bf 78 f8 0a be
       0.017923178 -0.16871361 -0.8316 -0.13571346
0000d0 4c 86 83 3c 7f 2c bd 3d 45 3f 28 3e 08 75 91 bc
       0.016055249 0.092370026 0.16430385 -0.017756
0000e0 4b 57 1a bd ed a2 04 be 7a 95 d5 bd 02 10 ca c0
       -0.037680905 -0.12952776 -0.10428901 -6.314454
0000f0 bf 7b 1f 3e 19 57 f3 3d b4 01 8c 3d d2 5b ac c0
       0.15574549 0.11881847 0.06836262 -5.3862085
000100 13 a9 91 3e 5e 8e 34 bd 15 df 58 3c 90 73 42 bd
       0.28449306 -0.044081084 0.013236781 -0.04747349
000110 bd 18 35 bd b7 e7 9c bc f9 42 6f be 67 67 cb bd
       -0.044213045 -0.019153459 -0.23365392 -0.09931832
000120 79 93 e6 3d df 83 3f be ea c1 e0 bc 40 03 fb 3d
       0.11258597 -0.18702649 -0.027436215 0.12256479
000130 69 ad 48 3b e9 bf 9d bd dc cb 23 be 4f f2 be 3d
       0.0030620939 -0.077026196 -0.15995735 0.093235604
000140 79 a2 0f be fd 83 f6 3d 54 31 7f 3e fc d3 4d bf
       -0.14026822 0.120368935 0.24921161 -0.8040159
000150 b6 63 44 bc 9d 87 97 be 67 a8 04 bd b9 a7 fc be
       -0.011986664 -0.29595652 -0.032387163 -0.49346712
000160 e5 88 fd 3c 86 38 83 be f8 91 8a 3d 29 ff c7 3d
       0.030949065 -0.2562906 0.067661226 0.09765465
000170 a6 52 82 be 73 7d a6 bd 58 40 89 3c 94 fc 55 bd
       -0.2545368 -0.08129396 0.016754314 -0.05224283
000180 f5 89 c8 bd 09 41 c1 bc e6 bb 5e bd b6 f1 a8 3e
       -0.09791938 -0.023590581 -0.054378413 0.3299691
000190 96 9f 88 3c e6 45 95 be 71 3b ee 3b f8 94 f9 bc
       0.016677659 -0.2915489 0.0072702696 -0.030466542
0001a0 2a 87 94 3e bc 48 a3 bd 0f e7 24 be de a8 52 3c
       0.29009372 -0.07972857 -0.16103767 0.012857644
0001b0 35 49 21 bd 18 e2 b4 3d df 83 93 3d a6 bc d6 39
       -0.039376456 0.088321865 0.07202887 0.00040957815
0001c0 01 7a 9a 3d 20 08 93 be f8 10 16 3d 3a 8c e3 be
       0.07542802 -0.28717136 0.036637276 -0.44442922
0001d0 78 49 95 bd f1 46 86 bd b5 58 61 3e 75 9f 01 be
       -0.07289404 -0.065565 0.22006495 -0.12658484
0001e0 30 45 ad bb 1a 84 64 3d 6a 01 55 3e f9 12 44 3e
       -0.005287789 0.055790044 0.2080132 0.19147862
0001f0 aa 58 47 3e da 62 25 bc 0f c1 15 bc 97 11 3e bb
       0.19467416 -0.010094369 -0.009140267 -0.0029002184
000200 a2 03 46 bf a0 4b 53 be 48 ce 36 be b4 c4 b3 3b
       -0.77349293 -0.20634317 -0.17852128 0.0054860953
000210 c5 cf 80 bc ba 80 00 be 64 be 14 bd d1 43 b9 3c
       -0.015724072 -0.12549105 -0.036314383 0.022615345
000220 6f c4 32 be 34 16 0e 3e 4d 28 ad be 0f 3f 4c bf
       -0.17457746 0.13875657 -0.3381981 -0.7978372
000230 ef 81 6d be 35 a7 c6 bd da e4 1a be 82 c5 9b bd
       -0.23194097 -0.09699861 -0.15126362 -0.07606031
000240 51 18 04 bb 58 33 13 3d cf fe 2b bd 11 44 c6 3d
       -0.0020156095 0.035937637 -0.04199105 0.096809514
000250 75 06 43 3e 82 1b 8a be 2f ba 94 3d 9d 9b 5b 3d
       0.19045432 -0.26974112 0.07262074 0.0536152
000260 d9 76 63 3d 9c 9c c2 3d b1 28 b2 c0 af 82 d7 bc
       0.055533264 0.09502527 -5.567467 -0.026307432
000270 e6 e4 7c bd aa 66 d2 3d ef dc 58 3d 71 12 25 3d
       -0.061741732 0.10273488 0.052945074 0.04030079
000280 eb 6f 67 be 43 51 73 3d cb fd 14 bc e0 70 01 3e
       -0.22601287 0.05940367 -0.009093712 0.12640715
000290 09 94 a1 3e 5e aa 5b bd 61 bc b9 bc 0c f5 f7 3d
       0.31558254 -0.05362927 -0.022672834 0.12107286
0002a0 ba cb 01 bf 3d 57 3f 3d d9 6e e0 3d bc e7 c6 bc
       -0.5070149 0.046714056 0.109586425 -0.024280421
0002b0 62 73 85 3d 0c 48 d3 bd 13 94 4b bd d7 9f 85 3c
       0.06516148 -0.10316476 -0.04970176 0.01631157
0002c0 60 41 93 be 46 4e c2 bc 03 fc 96 bd b5 4d 1c 3e
       -0.28760815 -0.023718964 -0.07372286 0.15264018
0002d0 ef 55 93 bd c7 23 02 3e d5 5d 48 39 f5 b2 e8 3c
       -0.07194125 0.1270896 0.00019108441 0.028405646
0002e0 dd c9 0b be 68 f7 d6 3c b2 a5 25 bc f4 e5 47 bd
       -0.13651223 0.02624102 -0.010110306 -0.048803285
0002f0 51 f0 ec bc 2b ee 17 be 84 b2 92 be 52 9b 16 bd
       -0.028923186 -0.14836948 -0.28651822 -0.03676922
000300 aa 7a 27 3d 6b 4b 3e 3d 0f 0b b0 3d b2 c1 bc bd
       0.040888466 0.046458643 0.08595859 -0.09216632
000310 a6 88 5b bd e7 7c af bd 0d 3a 0a 3e 61 ec e2 be
       -0.053597115 -0.08568745 0.13498707 -0.44320968
000320 05 92 f2 3c de 4a 89 3e 85 eb d3 3c 4f 68 e3 bd
       0.029610643 0.26814932 0.02586914 -0.1110388
000330 b2 77 60 3c 3f d8 45 be 61 be af bd 77 4e 4d be
       0.013700413 -0.19320773 -0.08581234 -0.20049463
000340 f1 69 20 3d 0a ce 9c 3d d2 9f 75 3c 78 44 9c 3c
       0.039163534 0.07656486 0.014991717 0.019075617
000350 20 98 7e be ff b9 c1 bc 29 1a 3a be 25 6c a2 3d
       -0.24862719 -0.02364826 -0.18174042 0.07930783
000360 a9 95 91 bd 6e 9e 59 3e b0 d7 09 bf 7a 14 6b bd
       -0.071086235 0.21251842 -0.5384474 -0.057392575
000370 5c 30 da bd d0 03 10 3e c8 b1 ff 3d 7e 6b 33 3d
       -0.10653755 0.14063954 0.12485081 0.043803684
000380 cf fe 79 3e 7d 93 23 3d de 0b 8e be 85 74 cf 3c
       0.24413608 0.039935578 -0.2774343 0.025324116
000390 ff 30 2e be 07 a1 8a be 1d 70 e9 bd 47 1a 8d 3d
       -0.17010878 -0.2707598 -0.11398337 0.06889778
0003a0 18 f6 07 bf 22 6b 0f bd d1 d8 32 bd e3 7e 93 3d
       -0.53109884 -0.03501428 -0.043663803 0.07201936
0003b0 47 c9 36 bd 6e 1e 41 3d 2b eb 6e bd 34 62 a0 bd
       -0.044625547 0.04714816 -0.058329742 -0.07831231
0003c0 cd 09 1e bd b6 63 8d be 74 04 28 3c 55 52 c0 3b
       -0.038583566 -0.27615136 0.010254968 0.0058691897
0003d0 24 2e fc bd be 01 15 3b a2 4a 94 3d 45 28 f2 3d
       -0.12313488 0.0022736634 0.072407976 0.11824087
0003e0 1e de c9 3d fd 0a b5 3c 1e f4 02 3e 24 17 87 be
       0.098568186 0.022099966 0.12788436 -0.26384842
0003f0 c4 0e 97 3d 65 9e bf be 80 a0 95 bb 22 eb 8e 3d
       0.07375863 -0.37425533 -0.004566252 0.06978442

critic.2.bias f4 [128]
000000 03 b6 f4 3d 33 d0 70 bd 51 0a 94 be 33 ec 8c 3d
       0.119487785 -0.058792304 -0.2891412 0.06880989
000010 47 82 1e 3d 22 e1 a5 3d a3 3e 0d be 43 a7 99 bd
       0.03869846 0.08099581 -0.13793425 -0.07502606
000020 42 d0 b5 bd 2f b3 20 bb b7 23 ae be 65 6d d1 3d
       -0.08877613 -0.0024520864 -0.34011623 0.102259435
000030 52 b6 41 3d 67 6b 4e 3d 6c 52 2c 3e ad cb fb 3c
       0.047293015 0.050395396 0.16828316 0.030736769
000040 02 42 b6 bb 3d 87 28 bc 04 d4 0c 3e 0f 2b c1 bc
       -0.005562068 -0.01028615 0.13752753 -0.023580102
000050 05 6e bc 3d 03 c9 99 ba 2c 70 4b be 7b 90 6a bd
       0.09200672 -0.001173288 -0.19867009 -0.057266694
000060 ed 7a 32 3d ec e0 aa bd 8c 37 30 bd 60 49 17 3d
       0.043574262 -0.08343682 -0.043021724 0.03693521
000070 50 8f df 3c 24 14 bb 3d 93 66 4f be 41 2d d2 bd
       0.027290016 0.09134701 -0.20253973 -0.10262538
000080 03 8e 3c 3c df d0 90 bd 9f 38 dc bc fd 5b 32 3b
       0.011508468 -0.07071089 -0.026882468 0.0027215474
000090 60 43 28 3e 93 45 e0 3d c8 03 c8 3d c7 08 b8 bc
       0.16431952 0.1095077 0.09766346 -0.022465123
0000a0 49 2f 61 3c 5a ff 71 bd 88 bc 79 bd 45 66 8d bd
       0.013744184 -0.059081413 -0.060970813 -0.06904272
0000b0 f2 88 ff 3b e0 ce 1d bd 78 47 17 bd 07 20 e1 bd
       0.0077983076 -0.03852737 -0.036933392 -0.10992437
0000c0 06 7f 52 bc 04 35 02 3d 5f 8c 25 bb 7d 94 a1 bd
       -0.012847668 0.03178884 -0.002526067 -0.0788965
0000d0 49 98 13 bd 0c 50 8f 3b 93 f1 33 3c 4d d8 77 bd
       -0.036033902 0.004373556 0.010982889 -0.060509015
0000e0 32 f7 09 3d 4e 11 1f 3d aa aa 96 3d 3a c7 51 bd
       0.03368301 0.038834862 0.0735677 -0.051215388
0000f0 e8 fa 8e 3c b4 f2 90 bd 2b 91 20 be 9a f2 ba be
       0.017453626 -0.07077542 -0.15680377 -0.36513215
000100 8c cf 30 be cd 37 55 bd fa 3a 79 3d 94 c0 42 bd
       -0.17266673 -0.05205517 0.06084726 -0.047546938
000110 28 c2 2b be dc fa 5c 3d 49 4b a7 3b e7 b2 0a 3c
       -0.16773283 0.053950176 0.0051054102 0.008465505
000120 09 0d 63 3d 4e 09 7d 3d 83 4a ad 3d 68 7c 89 bd
       0.055432353 0.06177645 0.084614776 -0.06713182
000130 f9 ce 2a 3e 26 9d 93 bd 67 36 b1 3d d3 42 0b be
       0.16680516 -0.07207708 0.086529545 -0.1359971
000140 de af 03 be cf f6 8e bd df 28 fc bc dd 6c 0c 3d
       -0.12860057 -0.06980669 -0.030781208 0.034283508
000150 e5 59 5b 3d 26 55 0d 3e 2a 93 c2 3c 12 54 53 be
       0.053552527 0.13802013 0.023751814 -0.20637539
000160 68 2e fd 3c 07 82 91 3c e8 f3 22 be b1 7d 71 bd
       0.030905917 0.017762197 -0.15913355 -0.05895776
000170 0f 19 f4 3d 9b 58 30 bd 66 34 69 bd ef 48 df bd
       0.11918842 -0.04305325 -0.056934737 -0.10902583
000180 e6 5a bb 3d b0 11 c1 bd 9c bb d1 3d d7 7f 94 bc
       0.09148197 -0.09427202 0.10240862 -0.018127365
000190 d9 73 7b 3d 35 4f 93 3c 90 4e 23 be 72 eb 4c 3a
       0.061389778 0.017982105 -0.15947938 0.00078170665
0001a0 ff 7e 0a bc ae 69 00 bc 54 25 f6 bd 5d 53 b1 3d
       -0.00845313 -0.007837696 -0.120188385 0.086584784
0001b0 ef d6 07 3d 64 81 1f 3d 05 92 da 3d 64 57 85 3d
       0.03316396 0.038941756 0.10672382 0.06510809
0001c0 3c 9e f3 3c 24 6f e2 3b c3 99 02 3e 32 8c e6 ba
       0.029738538 0.0069102217 0.12753968 -0.0017589389
0001d0 0f 44 33 bc 15 23 2b 3e 07 bf 53 3d f2 41 11 be
       -0.010941519 0.16712601 0.05169585 -0.14185312
0001e0 27 33 8e 3d ff 53 19 bc ad 37 f2 bc b5 e0 32 3c
       0.0694335 -0.009358405 -0.029567564 0.010917832
0001f0 9f dc 9c bd b0 db 98 3c 4e 25 aa 3d e5 15 06 3e
       -0.07659268 0.018659443 0.083078966 0.1309429

critic.4.weight f4 [1, 128]
000000 31 c8 35 3f 0a 04 7b be d3 56 20 3f b5 6e f7 be
       0.7100859 -0.2451326 0.62632483 -0.4832665
000010 a3 55 76 3c 10 1b 2c be d8 1f 67 be 30 cb 17 bf
       0.015035066 -0.16807199 -0.22570741 -0.59294415
000020 cb ec 97 3e cf b4 5e be d4 4e b1 bf 62 cd cb be
       0.29672846 -0.2174866 -1.3852181 -0.39805132
000030 34 d2 50 be e8 5e 89 3e 52 54 ac 3f 09 be 24 bf
       -0.20392686 0.2683022 1.3463233 -0.6435247
000040 9b 9e f8 3f 37 db 23 3e e2 f2 dd 3e 42 21 82 3e
       1.9423403 0.16001593 0.43349367 0.25416
000050 59 ef a1 3f fe 02 c7 3e cb f5 bb 3e 55 3d ae bf
       1.2651168 0.3886947 0.36710963 -1.3612467
000060 65 f4 0d 3f ab 14 85 3f c8 f3 bd 3e dc 3a 64 be
       0.5545104 1.0396932 0.37100053 -0.22288078
000070 01 d2 61 be 2d 53 58 3e a4 b7 6d 3f d0 1b 02 3f
       -0.22052766 0.21125479 0.9285834 0.5082369
000080 ec 5d 0e 3f 79 a7 0b bf 4f 21 64 3f 8f 8b 1c 3f
       0.55612063 -0.5455242 0.89113325 0.6115045
000090 85 00 91 3e 7b 84 d1 be 2a 9f 42 be 7d a2 bf 3f
       0.2832071 -0.40921387 -0.19006029 1.4971462
0000a0 b8 89 2e 3e 7b b2 d3 3e 5a d5 8a 3e d2 cc c3 3f
       0.17044723 0.41347107 0.271159 1.5296881
0000b0 be 4c 55 3e 8c da 26 3f 19 95 ca be c0 13 0a 3f
       0.20830056 0.65177226 -0.39566877 0.53936386
0000c0 99 71 a5 3f 46 43 93 be 7c 1d a9 3f b8 b3 87 3f
       1.2925292 -0.28762263 1.3212123 1.0601721
0000d0 19 4b e8 be 46 c8 65 3e 42 a8 84 3f 00 25 08 bf
       -0.45369795 0.2243968 1.0363848 -0.5318146
0000e0 6d 5d 68 3f ad 9d 03 3f 7a 8b eb 3e 9b 0c 4e 3f
       0.90767556 0.5141247 0.4600485 0.80487984
0000f0 dd eb cd be a9 89 6a 3c 96 20 bb 3f 80 24 8a 3f
       -0.40219012 0.014315047 1.461932 1.0792389
000100 8e 1c 82 3f e4 30 bd 3e 3a 3c 5f bf fb 99 e1 3f
       1.0164964 0.36951363 -0.87201273 1.7625116
000110 b1 ee f5 3e 7c e8 df 3e df 70 f1 3e 44 4a 3f be
       0.4803367 0.4373206 0.47156426 -0.18680674
000120 4b cc 8f 3e 76 13 86 3f 92 cc 51 3f a0 19 92 3f
       0.2808555 1.0474689 0.81952775 1.141407
000130 c0 e4 28 3f 4d 78 9e bf 77 de 9e be 8b 7b 99 3f
       0.65974045 -1.2380463 -0.31029102 1.1990827
000140 35 42 b0 be c7 27 c9 3c 62 ba ba 3f 8a ee 80 be
       -0.34425512 0.0245551 1.458813 -0.2518199
000150 50 9a 38 3f c6 5d 14 3f a6 37 83 3f b5 b4 d0 3e
       0.7211046 0.57955587 1.0251358 0.4076287
000160 0a ff 3f be c9 46 2f be bc 0b 84 3f eb 1b f9 be
       -0.18749633 -0.17116846 1.0316081 -0.48654112
000170 84 fd 2f bf 1d dc ee bf 54 df c1 be b5 c2 92 bf
       -0.6874621 -1.8660923 -0.37865698 -1.146567
000180 ec 35 1b bf 33 a1 3d be f2 1d 3e 3f 8e e0 00 bf
       -0.60629153 -0.18518524 0.7426444 -0.50342643
000190 87 50 84 3f 82 fb dc be cc e4 de be 4c 02 67 3e
       1.0337075 -0.43160635 -0.43533933 0.2255947
0001a0 2a 88 28 3e 94 dd 94 be 5b e0 4b 3e cd bc e6 be
       0.16458192 -0.290753 0.19909804 -0.4506592
0001b0 b9 5d 89 3e f7 34 87 3e af 3d e6 3e 57 2f b6 3e
       0.26829317 0.26407596 0.44968936 0.35582992
0001c0 6c f3 8e be 9a 76 af 3e f0 58 0b 40 fa 03 8e bf
       -0.2792009 0.34270173 2.1773033 -1.1094964
0001d0 0d 45 f3 be ba 98 0a 3f 50 9e 0a bf 8b aa 27 40
       -0.4751362 0.5413929 -0.54147816 2.619784
0001e0 4c 78 31 3f f3 4a 59 3e 40 25 3f be 4a 03 93 bf
       0.69324183 0.21219997 -0.18666553 -1.1485379
0001f0 d9 b1 46 be 46 63 e7 3f bd 05 a7 be 7d 9d 5a be
       -0.19403781 1.8077171 -0.32621565 -0.2134914

actor.0.weight f4 [256, 48]
000000 ca 4e a1 3e 58 ad 20 3e 9c 9f c3 bd 87 c0 de bc
       0.31505424 0.15691125 -0.095519274 -0.027191414
000010 15 00 98 3d 5c a5 13 be 9f 5c 53 3e ad 94 4b 3c
       0.07421891 -0.14418548 0.20640801 0.012425584
000020 82 ac c4 3d b4 8a 03 3f 04 96 a3 3d b3 47 4d 3d
       0.09603216 0.5138352 0.079875976 0.050117206
000030 d9 89 c7 3e 79 c9 49 3e 99 1e 16 3c 11 60 26 be
       0.38972357 0.19705762 0.0091625685 -0.16247584
000040 0e 2b 27 bd 13 dc eb bd c3 80 6a 3e 1c d1 25 bc
       -0.040812545 -0.11516585 0.22900681 -0.010120656
000050 26 cb 67 3c e5 1a 9b 3e 1f bb 93 3e 08 3b 1a bd
       0.014147555 0.30293956 0.288537 -0.037653953
000060 84 31 b0 3e 0c fa 02 3d 80 93 ef bd 03 27 02 be
       0.34412777 0.031976745 -0.11698055 -0.12710194
000070 a7 64 f9 3c d9 de 8a bd b7 32 28 bd b4 29 c9 bd
       0.030443503 -0.06780786 -0.04106399 -0.09822407
000080 70 85 bb 3d f4 86 d0 3e 56 6b be bd 2c b3 90 3c
       0.091563106 0.4072796 -0.092978165 0.01766356
000090 6e dd bc 3e 2f d4 ee 3d c4 6a 2c 3c 75 4f 27 be
       0.36887687 0.116615646 0.010523502 -0.16338904
0000a0 a0 aa fd 3d 8c 11 1a be 36 3b 29 3d 71 de 26 be
       0.1238606 -0.15045756 0.041316234 -0.16295792
0000b0 1f 2c 2c be b2 c0 b5 3e c9 08 1d be 3f be 01 3e
       -0.16813706 0.35498577 -0.15335383 0.1267023
0000c0 cf 14 73 3e 84 75 c0 3e eb 13 f3 3d b2 9a 09 be
       0.23738407 0.37589657 0.118690334 -0.13437918
0000d0 65 af c0 bd bf 6d f9 3d 34 a6 9d bd 14 c4 f1 bd
       -0.09408454 0.121791355 -0.07697716 -0.11804977
0000e0 d1 54 3a be cd d1 3b 3d 41 2d 71 bd 2b 9d 3a be
       -0.18196417 0.04585438 -0.058881048 -0.18224017
0000f0 a7 31 43 3e 83 df cc 3e d3 3e 0b 3e 53 02 4a bb
       0.1906191 0.40014276 0.13598184 -0.003082414
000100 b7 f0 8e be d1 c9 d8 bd 72 b0 f6 3a c0 45 3c bd
       -0.27918026 -0.105853684 0.0018820895 -0.045964956
000110 99 28 38 be 8a b6 9f 3a f2 7a 27 be 24 16 d3 3c
       -0.17984237 0.0012185138 -0.16355494 0.025767393
000120 cd 12 98 3e 63 63 bb 3e 11 55 79 3e 90 8a 4b 3d
       0.29701844 0.36599264 0.24348857 0.04969269
000130 23 e2 4d be 05 6d 10 bd 9a 81 56 3d 90 67 61 bd
       -0.20105796 -0.03526022 0.05236969 -0.055030406
000140 b8 cd 92 be 44 72 2a 3e 09 48 5b be 0b a1 12 bd
       -0.28672576 0.16645151 -0.21414198 -0.035798114
000150 fa df d7 3e 38 a1 ba 3e 56 30 06 3e 9a 20 14 be
       0.42163068 0.36451125 0.13104376 -0.14465562
000160 d6 83 ad be b9 3e 1c 3d 2f 42 c9 3d 9e cf 6e bd
       -0.33889645 0.038145754 0.09827077 -0.058303468
000170 f8 73 cd be a8 8b 8a 3e 03 e8 48 be fc 97 9a 3e
       -0.4012754 0.27059674 -0.19619755 0.3019408
000180 04 79 dc be bb e4 21 3a 14 ab b9 bd 98 2e 13 bd
       -0.43061078 0.0006175746 -0.09065834 -0.035933107
000190 e6 15 f6 3d cf 21 d0 3d 7c 41 73 bd 65 4f e9 3c
       0.120158955 0.101626985 -0.059388623 0.028480241
0001a0 b2 a5 ab bd e0 db ed be 49 54 6f 3d 5f 0b 3e be
       -0.08381213 -0.46456814 0.05842999 -0.18559025
0001b0 5f a7 f7 be ee e5 bf bd b3 7b 28 3c 51 8d 21 be
       -0.48369882 -0.093700275 0.010283398 -0.15776564
0001c0 6e 73 aa 3d ee 65 58 3d 84 2e eb 3c cd 53 0f be
       0.08322798 0.052831583 0.028708704 -0.13996811
0001d0 ac ab 95 3b 89 60 88 be 0d 7e 0d 3e 33 ce 61 bd
       0.004567584 -0.2663615 0.13817616 -0.055128288
0001e0 1e 13 a6 be 12 c1 0e be 4b 52 b0 3d b5 cd b8 bd
       -0.3243646 -0.13940838 0.08609446 -0.090236105
0001f0 5e 61 ce 3d b6 f6 26 bd bc 37 46 3d b0 c8 c7 bd
       0.10077165 -0.040762626 0.048392996 -0.09755075
000200 c0 4e f5 3d 5b d6 f5 be 6f 0a 4c bd 1e ff 24 be
       0.11977911 -0.48015103 -0.049814638 -0.16112944
000210 03 d4 b0 be ff 1a a1 3c 94 e3 8e bc bc 65 e8 3c
       -0.34536752 0.019666193 -0.017442502 0.028368823
000220 9e 68 99 3c 34 f7 93 bd cd 4d f6 3d 17 9c 1c bd
       0.018726643 -0.07224885 0.12026558 -0.038234796
000230 56 57 f5 bc f0 ac d6 be 35 1d dd 3d 01 ae a4 be
       -0.029948872 -0.41928816 0.107965864 -0.32164004
000240 46 ad 33 be 9b 64 6b bd 0e c9 a0 3c 5d 1a 25 bd
       -0.17546567 -0.05746899 0.01962712 -0.040308345
000250 ae d5 57 3d ab c6 c9 bd f6 e9 3f 3e 89 cc f7 bd
       0.052694015 -0.09852346 0.18741593 -0.12099559
000260 10 c1 8b 3e 30 eb b0 be 8f 13 53 3d a6 f1 9d bd
       0.27295732 -0.34554434 0.051532324 -0.077121064
000270 da 76 1b be cf b5 40 3d ff 64 9e 3d c2 ac 0e be
       -0.15182057 0.047048386 0.07734107 -0.1393309
000280 0a ae 07 bd bb 56 03 3e 8a 74 f1 3d 0f 40 d1 bd
       -0.03312496 0.12826054 0.11789806 -0.10217296
000290 47 d4 8a 3d 18 be 9c be c3 90 81 3e a2 d4 b0 3d
       0.0677877 -0.3061378 0.25305757 0.086343065
0002a0 dd 56 a8 bd 86 49 33 bc 63 4f 1d 3e d8 ba 52 3d
       -0.08219693 -0.010942822 0.15362315 0.05144772
0002b0 00 ef b4 bd 2e 75 93 3d bf 5e 42 3e 68 ca d3 3d
       -0.08834648 0.072000846 0.18981455 0.1034134
0002c0 0e a3 84 3e 2a b7 c4 bd 4b c2 bf 3e 49 7a 00 3e
       0.2590565 -0.09605248 0.3745292 0.12546648
0002d0 d9 0c 5b bd 5c f2 b9 3d 38 de 69 3d a3 c8 e3 3b
       -0.05347905 0.090794295 0.05709669 0.006951408
0002e0 fa 8f 83 bd 75 0d 1b bc 52 43 ce 3e ee f5 a7 3d
       -0.06423946 -0.009463658 0.40285736 0.08201204
0002f0 bb 02 6b 3e f9 65 a1 bd 0c 7e a6 3e 42 69 93 3e
       0.2295026 -0.07880778 0.3251804 0.28791243
000300 a6 9b 6e 3d c6 c0 c6 bd 63 2f b5 3d 50 94 f0 3d
       0.058253907 -0.09704737 0.08846929 0.11747038
000310 f8 cf ff bd 4c d5 99 3d c7 4e 02 3d 6f 31 63 bd
       -0.12490839 0.07511386 0.03181341 -0.055467065
000320 23 32 67 3d c1 78 e3 bd 6e 3a 8b bc 20 70 d2 bc
       0.0564443 -0.11107016 -0.016995635 -0.025688231
000330 21 93 e5 3d 22 7d 16 be 68 69 36 bc 14 d9 0b 3e
       0.11209703 -0.14696172 -0.011133529 0.13657027
000340 98 40 9a 3d 47 94 c0 bd 24 e0 c2 3c 05 a0 96 3d
       0.075318515 -0.09403282 0.02378852 0.0735474
000350 d4 98 a4 bc cb 6d 95 bd 6d fd 35 3c be a9 ed 3c
       -0.020092405 -0.07296332 0.011107785 0.029011603
000360 a0 8f 5a bd 16 f7 6f 3c 5f 8b 29 bd 73 08 4c bc
       -0.053359628 0.014646312 -0.04139268 -0.012453186
000370 42 25 16 be f0 1e 15 be 29 17 a3 3c 82 43 18 3d
       -0.1466265 -0.14562583 0.019908505 0.037173755
000380 94 b9 ab bd 3a 7e 1b be 8a 46 e6 3c 5b 04 75 bc
       -0.083850056 -0.1518487 0.028109808 -0.014954652
000390 e0 b5 cb bb 6e bc f2 3d 3d a3 03 3e 74 94 81 3d
       -0.0062167495 0.11852346 0.12855239 0.06327143
0003a0 93 94 9e bc 61 1a 00 3d 53 4b 28 3d 8a d5 05 be
       -0.019357955 0.031275157 0.04108746 -0.1306974
0003b0 bf a1 c7 3d a2 17 5f bc b9 06 be 3d 33 bf d9 3d
       0.097476475 -0.013616474 0.09278626 0.106321715
0003c0 59 76 94 3d 92 72 e0 3d c9 21 68 3e 94 7a 47 3e
       0.072491355 0.109593526 0.22669138 0.19480354
0003d0 92 cb 84 bd 64 fb b0 bc 07 81 52 3c b2 16 6c be
       -0.064841405 -0.021604247 0.012848145 -0.23055533
0003e0 7f c3 80 3e da 3b 85 3d 97 78 9a 3d 50 41 81 3b
       0.25149152 0.065055564 0.07542532 0.0039445534
0003f0 62 5b c3 3d 5b a9 30 3c 9f a0 88 3e 73 8a 0d 3d
       0.09538914 0.010782565 0.26685044 0.034555864

actor.0.bias f4 [256]
000000 33 68 3c be e8 45 60 3e d4 66 d3 bd e3 c6 48 bd
       -0.18399124 0.21901667 -0.10322347 -0.0490178
000010 91 95 c6 bd 20 89 f6 3a 73 ab dd bd 70 0c 16 3e
       -0.09696496 0.0018809177 -0.10823717 0.14653182
000020 78 75 b7 bd 4d 25 78 be d6 a4 cc 39 22 c0 9a 3c
       -0.08957952 -0.24232979 0.00039032724 0.018890444
000030 ea 28 8a 3e 04 0e 07 3d b2 04 7e bd 06 ee ea bd
       0.2698434 0.03297235 -0.062016197 -0.114711806
000040 02 a8 75 be 9d e7 12 bd a7 bd ac 3c ea 78 8c bd
       -0.23989871 -0.035865415 0.021086527 -0.06859
000050 84 3f 18 be c0 9f a2 3d 25 c1 16 be 4a df 17 be
       -0.1486798 0.07940626 -0.14722116 -0.14831272
000060 a7 3c f4 bd a5 d9 e0 3c f4 30 55 be 86 fd 20 3e
       -0.11925631 0.027447531 -0.20819455 0.15721712
000070 02 4a 9e 3d 07 af a9 be 2d 28 99 bd bd c7 88 3d
       0.077289596 -0.33141348 -0.07478366 0.06678722
000080 19 c9 ee bd f2 3f ab 3d 0d 33 61 bc af dd 09 3e
       -0.1165945 0.08361806 -0.013745082 0.13463472
000090 6f 8b 94 be f5 29 6e bc 77 cc 42 3e 29 c6 6e 3d
       -0.2901263 -0.0145363705 0.1902331 0.05829445
0000a0 d3 2c 0d be 8e a3 c8 3c 37 bc f3 bd 2f 94 db bd
       -0.1378663 0.024492051 -0.119011335 -0.10721623
0000b0 c3 f8 5b 3d 0b 08 50 3e f2 17 3e 3e 85 94 90 bd
       0.053704035 0.20315568 0.18563822 -0.07059578
0000c0 f2 2f 5c 3e 97 20 ac bc 8a 90 d9 3d 8a 14 06 be
       0.21502665 -0.021011634 0.10623272 -0.13093773
0000d0 fe 9c 06 bc 02 45 60 3e ca 61 77 3c fd 84 3e bd
       -0.008216141 0.21901324 0.015098998 -0.046513546
0000e0 e5 9f 37 be e2 20 e1 bc d7 ed f6 3d dd 60 ad bd
       -0.17932089 -0.0274815 0.12057083 -0.08465741
0000f0 87 52 44 3e e2 6c 69 3d 3c 86 26 be 9e 9e 38 bd
       0.19172107 0.056988604 -0.16262144 -0.045073144
000100 32 1a b8 3d f9 9a a9 be 42 88 fd 3d 7d 7b 1b be
       0.08989371 -0.33126047 0.12379505 -0.15183826
000110 a8 8e a0 bc 8a e1 ef bc 47 bd 2e be 7e a5 f1 bc
       -0.019599274 -0.02928235 -0.17064391 -0.029497858
000120 db 54 bb bd 04 b8 f7 3d 6c 85 06 3d ba b7 12 3e
       -0.09147044 0.12095645 0.032842085 0.14327899
000130 6d 78 08 3e 02 7b 8f 3d 32 1c ea 3d a6 6c b8 bc
       0.13327189 0.07005884 0.11431159 -0.022512745
000140 35 dc 37 3d 8f f1 a7 3d e1 13 76 3d 9b 8b 00 be
       0.04488774 0.082003705 0.06007755 -0.12553255
000150 65 ff 01 bd 48 af a7 bc 26 59 02 3d ce d7 b5 bd
       -0.031737704 -0.020469323 0.0318233 -0.08879052
000160 b9 32 61 be 9d 26 e9 3c 46 79 1c bd e2 60 00 bd
       -0.21992005 0.028460795 -0.038201593 -0.031342395
000170 a4 60 9a bd 86 71 95 bc 01 47 be bd e6 a6 a4 bd
       -0.07537964 -0.018242609 -0.09290887 -0.08039646
000180 da 38 17 3e 17 49 e5 3d 46 ab 15 3e fb e6 32 be
       0.14767781 0.111955814 0.14616117 -0.17470925
000190 8d 76 e2 3d a4 8c 22 3e 80 22 53 bd 59 a9 4a bc
       0.11057768 0.15873963 -0.051546574 -0.012369477
0001a0 48 d9 d3 3d de 37 c4 3b 4c ee 53 3b d7 04 ba bd
       0.103441775 0.005988105 0.003233808 -0.090829544
0001b0 e1 76 85 3e 24 0a 3c bc ce 32 31 be 9f 23 8f 3d
       0.2606726 -0.011477027 -0.17304537 0.06989216
0001c0 a0 ba 67 3e 62 ec cf 3c 11 0d 84 bd 68 73 82 3d
       0.22629786 0.02538127 -0.06447805 0.06369668
0001d0 8b 96 2a be 98 55 a8 bc 89 fd 03 3e 42 da 32 be
       -0.1665899 -0.020548627 0.12889685 -0.17466071
0001e0 26 ef 2c bb f2 fc c1 bd db 86 a5 3d 56 57 f5 bd
       -0.002638766 -0.094720736 0.08082362 -0.11979549
0001f0 54 c7 20 bc 39 49 05 3e 6f a6 ff bd c5 57 45 be
       -0.0098131485 0.13016213 -0.124829166 -0.19271763
000200 84 90 11 bd f5 f4 6d be 8d 54 54 3d b5 a0 d9 3d
       -0.03553821 -0.23237975 0.051838446 0.106263556
000210 8e 18 2c bd 03 8f 72 3d 76 3c 98 3d 1d be 1a 3d
       -0.042015605 0.059218418 0.07433407 0.037778962
000220 16 5c 4c bc a4 b2 b5 3e 7c 90 b7 3d cf 63 56 3e
       -0.012473127 0.35487854 0.08963105 0.20936511
000230 9b 46 6d bd 48 1a cc bc b6 fe 0b 3e c8 b2 14 3e
       -0.057928663 -0.024914876 0.13671383 0.14521325
000240 37 41 5d bc 74 8b a9 3c 40 0d 83 3e 5f e5 6e 3e
       -0.013504318 0.02069638 0.25596046 0.23329686
000250 95 d7 da 3d a6 f1 01 be 47 45 99 3d b6 73 38 3e
       0.1068565 -0.12689838 0.07483917 0.1801289
000260 20 4c 00 be c9 c9 ad 3d 00 67 1d be 12 27 b3 bc
       -0.1252904 0.08485753 -0.15371323 -0.021869216
000270 59 4c 27 be 2b 72 06 bd 5d 56 76 3e 01 55 3a bd
       -0.16337718 -0.032823723 0.24056382 -0.045491222
000280 e3 57 dd 3e a7 4f 37 bc 06 88 01 bc c7 a0 81 3e
       0.43231115 -0.011188424 -0.007905966 0.25317976
000290 ce 9d 96 bd 7a 79 72 3d 2e 5a 43 be 99 30 d2 bd
       -0.073543176 0.05919788 -0.1907737 -0.102631755
0002a0 9c bf b6 3d c1 b0 ea bb 63 82 49 be 49 25 fe bc
       0.08923265 -0.007162184 -0.19678645 -0.031023638
0002b0 f6 38 68 3d bc a4 0c 3e cf 23 73 3d d6 67 07 be
       0.056694947 0.13734716 0.05936032 -0.13223204
0002c0 d5 0b 78 3e b0 fa 7e 3e ca 60 44 be 29 6e b3 bd
       0.24223264 0.24900317 -0.19177547 -0.08761246
0002d0 75 f3 13 3c 6a 32 6b bd df 9d 8d bd f2 10 23 bd
       0.009030213 -0.057421125 -0.06914877 -0.039811082
0002e0 7d 68 cf 3c 62 ec b8 bb d0 cd 8d bd d4 4d 75 3e
       0.025318379 -0.0056434134 -0.06924021 0.2395547
0002f0 2c 21 02 3e 5e 4d 51 bd ee 2d 1c 3e 29 f3 2e be
       0.12707967 -0.051099174 0.15251896 -0.17084946
000300 c4 20 17 3d 0c e0 75 3d d8 7e 2c be 9e 2c 39 3e
       0.036896482 0.06002812 -0.16845262 0.18083426
000310 15 c1 9e 3c c2 7a 84 3b ab 77 71 3e fc 18 d3 3d
       0.019379178 0.004042954 0.23580806 0.103075
000320 e6 9e 6e be 94 28 88 3e d0 9f aa bb 5b 3c 15 3e
       -0.23302802 0.2659346 -0.0052070394 0.14573805
000330 35 82 7b 3d b6 c4 a6 3e b6 f3 2e be 53 29 3c 3d
       0.061403472 0.32571954 -0.17085156 0.045937847
000340 05 1c dc 3d a8 d3 eb bd 0b b4 b0 3c 3a da 3d bd
       0.10747532 -0.115149796 0.021570226 -0.046350695
000350 99 c4 47 be 93 28 48 3e c6 39 ad bc 69 22 de bd
       -0.1950859 0.19546728 -0.021145713 -0.10846407
000360 85 50 c7 bd 4a 2c af bd 3b 73 00 be 3c ce 6b 3c
       -0.09732155 -0.08553369 -0.12543957 0.014392432
000370 9e 50 a9 bc e9 87 53 3e 51 f1 84 bc 12 14 8b 3d
       -0.020668324 0.20657314 -0.01622835 0.067909375
000380 0c 4f 29 be 9b dd bf 3d fa ee d4 bc 6f 83 9a 3d
       -0.1653406 0.0936844 -0.02599286 0.075446
000390 e7 0f 50 be 8e 76 fa bd d8 7f eb 3d 61 ed 64 be
       -0.20318566 -0.12229644 0.11498994 -0.22356178
0003a0 2e 97 0f be 48 f3 c5 3c 13 0e b2 bd ee 6e bd bd
       -0.14022514 0.024163857 -0.08694091 -0.09249674
0003b0 50 02 0f 3c 27 a6 37 be a6 31 1a 3e 1a d1 89 bc
       0.008728579 -0.17934476 0.15058002 -0.01682334
0003c0 4f 24 27 bc 7c db c6 3c 33 cf d1 3c 59 38 ce 3d
       -0.010201528 0.02427458 0.025611496 0.10069341
0003d0 2a d2 03 3d 8a e8 7f bd ff 31 cb 3c 28 fa ea 3d
       0.03218285 -0.062477626 0.024804113 0.11473495
0003e0 db d0 51 3e c8 e3 1c bb 5c 45 97 bd 16 71 92 3d
       0.20489828 -0.002393948 -0.07386276 0.07150476
0003f0 88 77 dd bd a8 9a 5f bd 78 17 22 3d 92 27 45 3e
       -0.108138144 -0.05459085 0.039573163 0.19253376

actor.2.weight f4 [128, 256]
000000 a6 54 ab 3e 71 b8 9a be 80 75 fd bd b8 a0 17 bf
       0.3346302 -0.30218843 -0.12375927 -0.5922961
000010 00 33 94 b9 77 ba d7 bc 23 91 ce 3e c7 53 36 3e
       -0.00028266758 -0.02633403 0.40345106 0.17805396
000020 54 a7 d4 3d ba 40 6e 3d f4 2d 1d be b0 31 a4 bd
       0.10383478 0.058167197 -0.15349561 -0.0801729
000030 5c 71 b0 bd bd f6 8d 3e cb 93 50 be 92 5f 11 3e
       -0.086153716 0.2772731 -0.20368879 0.14196613
000040 92 57 58 3d f7 57 62 bd 89 d1 ce be 9c f8 2b be
       0.05281789 -0.05525967 -0.40394238 -0.16794056
000050 e2 e9 38 be 07 ee b2 3d 33 47 6d be 91 43 1a 3e
       -0.18057969 0.08736806 -0.23171692 0.15064837
000060 83 fd 98 bd 47 bc 79 3e 0a f8 a9 bd 9a 84 78 be
       -0.074702285 0.24388228 -0.08299263 -0.24269333
000070 33 6f ae 3d a6 18 0e 3d f7 38 85 bd 3f cc b0 be
       0.08517303 0.034691475 -0.06505006 -0.34530827
000080 d4 45 f6 bc c5 f2 61 be 63 31 d4 bd 29 8c 4d 3e
       -0.030062594 -0.22065265 -0.10360982 0.20072998
000090 4b 88 eb 3d 86 39 a7 be 98 e7 89 be d7 7d 87 bd
       0.11500605 -0.32661074 -0.26934505 -0.06615799
0000a0 a2 21 ce 3d 9b 6a 92 be 5b 90 12 bc 15 22 0e be
       0.10065009 -0.2859696 -0.00894555 -0.13880189
0000b0 a8 4e 7a 3d 24 f3 e6 bd 9c a4 8f 3d 18 66 e3 3d
       0.06111017 -0.11276844 0.070138186 0.11103457
0000c0 bb 7d 4f 3e d5 9b 3e be 08 c1 35 be 05 05 e3 bd
       0.20262806 -0.18614133 -0.17749417 -0.11084942
0000d0 34 da b6 bd 48 f6 a7 be 62 b4 af be 3c 95 3b bd
       -0.08928338 -0.32805085 -0.3431731 -0.045796618
0000e0 63 47 0b 3e 5b e0 ae 3e 53 da cb 3d 55 b3 bb be
       0.1360145 0.34155545 0.099537514 -0.36660257
0000f0 b7 f4 a3 bd d0 dc 82 ba 46 90 78 3e 61 9c 2b bd
       -0.0800566 -0.000998402 0.24273786 -0.04189718
000100 53 73 13 be 94 66 14 3e 66 31 fa bc b4 04 73 bd
       -0.14399461 0.14492255 -0.030541133 -0.059330657
000110 a4 09 99 3e 6b 6d 24 be b1 2b e1 bd c8 6f a3 3d
       0.29890168 -0.16057365 -0.109946616 0.07980305
000120 6d ee c6 3c 82 65 6b bc e5 df 14 be 82 d0 b1 3d
       0.024283612 -0.014367463 -0.14538534 0.08682348
000130 1c f0 42 bb 5b ed 05 3f 0b 80 9c bd f0 04 2c be
       -0.0029745167 0.523153 -0.0764161 -0.16798759
000140 f2 b8 58 be 92 64 5d 37 ad 9b c2 be e0 21 24 be
       -0.21164301 1.3196042e-05 -0.38009396 -0.16028547
000150 97 ea 81 bc ea 82 85 3e 5e d1 26 be be 3b 10 be
       -0.015858931 0.26076442 -0.16290805 -0.1408529
000160 a7 a4 e4 bc bd a2 93 bd 79 c1 5a bd 61 e9 da bc
       -0.027910544 -0.07208774 -0.053407166 -0.026722612
000170 98 9c b7 3c 68 f4 38 bf 89 87 92 3e 58 01 2c 3e
       0.022413537 -0.72247934 0.2861903 0.16797388
000180 a3 db 96 bd 69 3f c7 be d9 40 2a 3c 48 f9 66 bd
       -0.07366111 -0.38915566 0.010391437 -0.056390077
000190 84 d8 8c 3e ba 9c 95 be ae 81 e4 3d 1d 05 35 be
       0.27508938 -0.29221135 0.11157547 -0.17677732
0001a0 dd 19 33 bc 1b ea 2a 3e e2 59 ce bc 73 d3 58 bc
       -0.010931459 0.16690867 -0.025189344 -0.013234007
0001b0 b9 02 8b 3d 8c 6d 65 3e 02 fb 46 3e 0e 0a e2 3d
       0.06787629 0.2240507 0.1943169 0.11037074
0001c0 93 e5 a1 3c d6 bb 54 3d 97 49 59 bd b1 bd 1e 3d
       0.01976279 0.051936947 -0.053048696 0.038755123
0001d0 5d 1b 8c be fa 40 ce 3d 06 4e 91 37 a2 a5 c9 3c
       -0.27364627 0.10070987 1.732168e-05 0.024615113
0001e0 8f 1e f4 3d 99 6f aa 3e da 40 62 3d 56 6b a4 bd
       0.11919891 0.33288267 0.05523763 -0.08028285
0001f0 cf a2 80 bd 94 4a ea 3d 82 45 4a 3e 76 a4 0c 3e
       -0.06281053 0.11440006 0.19753078 0.13734612
000200 83 99 b2 ba a6 ed 90 be fb a6 e3 3b 09 95 1b be
       -0.0013626072 -0.2830631 0.006947396 -0.15193571
000210 5a a3 18 be 54 a9 f5 bd 39 88 73 bf a4 cb d4 3c
       -0.14906064 -0.119951874 -0.95129734 0.02597601
000220 19 02 c5 3e ce 29 8b 3c 71 ac 99 3c 8c 1a 35 bd
       0.38478163 0.016987707 0.018758984 -0.04421477
000230 6d 7c cc be e5 41 07 be 38 c1 63 3e fd 2c 93 3d
       -0.3993868 -0.1320873 0.22241676 0.07186315
000240 dc 94 6e 3c 43 80 80 3e ca 3b c8 bd 9f 2d c6 bd
       0.014561858 0.25097856 -0.09777029 -0.0967667
000250 9b b2 a0 be 8e af d4 bd 75 0c 22 bd 88 12 06 bf
       -0.31386265 -0.10385047 -0.03956266 -0.52372026
000260 4d 41 33 bd 08 b8 e3 3d 87 2a 8e 3e 89 d3 69 be
       -0.043763448 0.111190856 0.2776682 -0.228346
000270 27 f8 a1 3e a4 ef 56 bd 9f 9c 19 3e d1 03 45 3b
       0.31634638 -0.052474633 0.15001152 0.003006209
000280 09 30 b3 bc 6d d5 d6 3c 28 72 07 be 58 15 b0 3d
       -0.02187349 0.026224816 -0.13227141 0.08597821
000290 58 0d 6c 3e 96 1a 31 bc d8 05 08 3e 96 a7 12 3e
       0.23051965 -0.010809561 0.13283479 0.14321741
0002a0 88 22 81 bd cb 34 06 bf d8 a8 3a bc fd f5 1c 3e
       -0.063054144 -0.52424306 -0.011392795 0.15328212
0002b0 ed 58 b7 be 21 a9 09 3e d4 89 e5 be 78 fb a1 3e
       -0.35810032 0.13443424 -0.44831717 0.31637168
0002c0 ab 25 65 bd 09 d9 c8 bd 8a ad d6 3d f5 37 c2 bd
       -0.055944126 -0.09807021 0.10482319 -0.09483329
0002d0 11 47 0d be e3 bb 03 3c eb 47 07 3e 33 3f 68 3c
       -0.13796641 0.008040401 0.13211028 0.014175224
0002e0 f7 85 1e bd ba 88 95 3c 22 6b e5 be f2 8a 91 3d
       -0.038701978 0.018253673 -0.44808298 0.0710658
0002f0 a8 94 66 3d fc b7 59 3e 15 f1 45 3e c1 bd 86 3e
       0.056294113 0.2126159 0.19330247 0.26316646
000300 d9 2c dd bd 74 08 eb 3d 6b cd 97 3e 72 24 73 be
       -0.1079957 0.11476222 0.2964891 -0.23744372
000310 f0 97 36 3d 82 e2 aa be f8 0b 1a bf b6 67 89 bd
       0.044578493 -0.33375937 -0.6017451 -0.067092344
000320 26 5e 17 3c 55 80 20 bf a9 02 57 bb 3e b6 29 3c
       0.009238755 -0.6269582 -0.0032807982 0.010358391
000330 56 8d 54 be 57 23 39 be f6 08 61 be c3 83 09 be
       -0.2075704 -0.18079887 -0.21976075 -0.1342917
000340 e3 1a a1 3d a7 c0 38 be e5 0d f8 bd fc 2a a9 be
       0.07866456 -0.18042241 -0.12112025 -0.33040607
000350 2d ee 38 3e 68 84 88 bd 6f 4b 24 3d 6a 15 eb 3d
       0.18059607 -0.066658795 0.040111 0.11478694
000360 5b 6c 80 bd 84 86 31 3e 78 a4 8a bd 76 2a 9c 3e
       -0.06270667 0.1733647 -0.06769651 0.30501145
000370 8c 45 25 be 2e 31 2d 3e 16 51 d9 3d 65 72 7d be
       -0.16139811 0.16913292 0.10611169 -0.2475067
000380 cd 61 0e bf 3c c3 47 bd e0 bd 2d be 04 db 30 3e
       -0.5561798 -0.048770174 -0.16966963 0.17271048
000390 99 60 2c 3e 72 28 19 3d 8e 91 1c 3e 4b 20 18 3e
       0.16833724 0.037392087 0.152899 0.14856069
0003a0 b4 0a f6 3e 61 6e ae bd 23 27 19 3e 98 21 12 be
       0.4805504 -0.08517147 0.14956336 -0.14270627
0003b0 51 9e 82 bd 49 9a 38 be 55 04 5b 3e a5 56 3a bd
       -0.06377853 -0.18027605 0.21388371 -0.045492787
0003c0 49 9d 8c 3c fd bb ec be 44 d3 ea bd 52 ad 08 be
       0.017164843 -0.46237174 -0.11466077 -0.13347366
0003d0 f4 d5 16 be a1 7b d3 bd 9f fe 1a be 6a 6d 09 3e
       -0.14730054 -0.10326315 -0.15136193 0.13420644
0003e0 1d 20 4d be 8f b9 9a 3e 19 db f0 bd 85 b8 1c bd
       -0.20031781 0.30219695 -0.117605396 -0.03826191
0003f0 1b cb 20 3d 25 2c e1 3d 76 8b 51 be 63 13 35 be
       0.039256196 0.10994748 -0.20463356 -0.17683177
