CRL/模型集_opponent/train_20260124-152719/evolution_v7.pth (torch, 370495 bytes, 11 tensors)

critic.0.weight f4 [256, 48]
00000000: fb62 13be ab09 06bd ba45 d13c 74a2 cd3b
00000010: 3384 77bd 6117 5bbe e990 1e3b a624 143d
00000020: 114f 81be 4f51 90bd 8820 47be 8808 d23c
00000030: b896 2dbe fc48 23bd fe3d be3c 6360 353b
00000040: acfc fbbd 99ae 82be fea2 e53b 560b 0b3d
00000050: 9f82 c1bd c009 13bd b611 49be 23ea c8bd
00000060: f4d5 813d 95ef a73c bf1e 603c 61d4 9f3c
00000070: f406 443d f431 7fbe 039f 2c3c 2139 1d3d
00000080: b19b ea3c 51d8 7d3d aebd 16be e23b 36be
00000090: 79a5 cebd de73 033e 5ee9 883c b040 09bc
000000a0: adda 173e b930 84be dfca b53c 77a6 603c
000000b0: 3b12 0a3d 808d 293e e28d 9e3e 7c9e 00bd
000000c0: e0f9 1d3e e869 b5be 7183 c9bb 7fe8 663e
000000d0: 01ff 4dbd 149f 133d 707a 223d 57ef f1bb
000000e0: aee9 bfbe fb77 8cbd 3a0e 41be 18e6 9dbd
000000f0: 5646 293e fa06 c1be 876b ef3c 5756 183e
00000100: e370 d33d e276 933c f452 143d b30f 23bc
00000110: c2ea b8be f8a6 033e 7a55 71be 3fbb 963d
00000120: 9c16 493e 6486 96be aeb9 743d 2c94 383e
00000130: 593c 05be 5630 643c 9de0 d83c da74 613c
00000140: ff47 24be 8689 593e ef95 ffbd 0487 d13c
00000150: 6df0 e53d e1e7 15be 8d2c 983d e9fb d13e
00000160: e355 1abe 6f2b 943d db6f 943b 2429 0fbd
00000170: 4576 7dbe 26f0 c33e 33c4 53be 26c2 bb3e
00000180: d1eb af3e 3027 0f3e 9bde f93b fd32 ff3c
00000190: f2fd 67be e4e3 e93d 6122 78bc e821 56bc
000001a0: 915d dcbc b973 38bf 8ae7 8a3e d6b8 0a3e
000001b0: 1fa5 7d3e fad6 d53d 7779 633c afcd e83c
000001c0: 967d bcbe 6ea6 123e c2e1 a7bc 947a c63c
000001d0: 5ac4 403e 15e3 d9be 55b2 b43b 0f88 7d3d
000001e0: aab1 543e 42c3 7b3e e560 723c 32ce db3c
000001f0: 8e8a 5cbe 4a39 683d e0ea cbbc 0265 aa3c
00000200: b2c1 933d f224 52be fadb aebd 8e1f c53b
00000210: 286d b83e ea15 ccbc 5224 993c 791d b93c
00000220: 1e05 abbe f297 17bc 7bf8 9cbc 663e c0bd
00000230: 1b5c 533e ad29 c0bd f1f5 35be cec2 4c3e
00000240: f595 5e3e b3ee e8be e37e 963c d73f 6c3c
00000250: 20c8 5abd 53fa f63d 1a15 3b3b f79f 2f3d
00000260: 9a47 d33d aa07 21bf 02be ffbd f8e2 29bd
00000270: 6592 833d 4c77 e4be 73b7 403c e0bd 1fbc
00000280: 873a f6bd f11b 513e 2882 843b 77ea 1c3d
00000290: f9c1 ab3e 411b 1bbf 6f56 82bd e9db 683e
000002a0: bd10 403b 71f3 adbe 12f7 903c 926c 62bd
000002b0: 04f2 e63c 24a2 473d a720 8b3a 39f6 a73c
000002c0: e3ff 1c3e c315 cabe bbdf 84bd 47bb 373e
000002d0: 62d7 2f3e 6cc3 8dbe e9aa 6e3c c8d6 98bd
000002e0: 159c 913a b041 113e f809 163b a98c 2a3d
000002f0: b890 d93e 9ce0 11be 4b4c 953d 6b74 173e
00000300: 6539 3f3d b8cd 53bd bd7f 6c3c d76d 73bc
00000310: 033a ca3e 7dc1 5f3d b0ae 14ba 82c1 b7bb
00000320: 1f82 7e3e 0668 aebd 41cf 1ebd 914b 2ebd
00000330: cec6 18be 0718 3dbd 3b22 6c3c 402c 30bb
00000340: 62a4 c93e 5b6a 5c3d 5a7c 053c 8691 bc3a
00000350: b5e2 3d3e dd4d ae3d f6f9 5f3e 7dc8 063d
00000360: 3241 12be 2716 99bc 1a05 703c e5de 01bc
00000370: df1b 963e a0ac 6a3d e529 6d3c 3636 a53c
00000380: 43ac a13e c00e 453d c042 c83e a951 063e
00000390: 2785 ca3d c1dc 71bd 9321 653c ffc9 56bc
000003a0: 6b99 903e abe0 613e 0633 983c fdab e73c
000003b0: 2fb3 793e 0100 033d 7a04 2f3f 0537 003d
000003c0: 352d dc3c 6356 82bb 8183 43bd 4f01 30bd
000003d0: 0dc2 df3b 7fa6 e7bb 3505 2d3c 2e7b aebc
000003e0: 7eb3 07bc 3186 1c3e 1a0a b93d 4ac4 793c
000003f0: 83ed 5dbc 2bfc 833c 564f 62bd 3a0f bcbc
-0.14393227 -0.032724064 0.025545944 0.0062754694 -0.06042881 -0.21395637 0.002419526 0.036167763
-0.25255635 -0.070467584 -0.19446003 0.025638834 -0.16952026 -0.039864525 0.02322292 0.002767586
-0.12304053 -0.25523832 0.0070079556 0.033946358 -0.09448742 -0.03589797 -0.19635662 -0.09810283
0.063396364 0.020499984 0.013679205 0.01951045 0.047858194 -0.249214 0.010535958 0.03838456
0.028638693 0.061973874 -0.14720795 -0.17796281 -0.10090155 0.12837169 0.01671284 -0.008377239
0.14829512 -0.25818422 0.022191463 0.013711563 0.033708792 0.16557884 0.30967623 -0.031401142
0.15427351 -0.35432363 -0.0061497022 0.22549628 -0.05029202 0.03604038 0.039667547 -0.007383268
-0.3748297 -0.06858822 -0.18853083 -0.077099025 0.16530737 -0.37700635 0.029226078 0.14876686
0.10324266 0.018001024 0.036211923 -0.009952473 -0.36116606 0.12856662 -0.23567763 0.07359933
0.19637531 -0.29399407 0.05974739 0.18025273 -0.13011302 0.01392754 0.026474291 0.01376077
-0.1604309 0.21243867 -0.124797694 0.025577076 0.11227498 -0.14639236 0.074303724 0.41012505
-0.15071826 0.07234847 0.004529936 -0.034951344 -0.24752147 0.38269156 -0.20680313 0.3667156
0.343596 0.13979793 0.0076254136 0.031152243 -0.22655466 0.1142042 -0.015144915 -0.013069607
-0.026900085 -0.7205158 0.27129775 0.13547072 0.2477002 0.10441394 0.01388394 0.02841839
-0.36814564 0.143213 -0.020493392 0.024228372 0.18824902 -0.42556062 0.005514423 0.061897334
0.20770898 0.24586204 0.014793609 0.02683172 -0.2153723 0.05669526 -0.02489227 0.020800117
0.07214679 -0.20521906 -0.08538051 0.0060157245 0.3602078 -0.024912793 0.018694077 0.022597061
-0.33402342 -0.009252535 -0.019161453 -0.093869016 0.20640604 -0.09382949 -0.177696 0.19996187
0.21736892 -0.45494613 0.018371051 0.0144195175 -0.05341351 0.12059464 0.0028546513 0.042877164
0.10316391 -0.6290232 -0.12487413 -0.04147622 0.06424407 -0.44622266 0.011762488 -0.00974986
-0.12022882 0.20420815 0.004043836 0.03830954 0.33546427 -0.6058846 -0.06364142 0.22740139
0.0029306852 -0.33974794 0.017695937 -0.055279322 0.028191574 0.048738614 0.001061459 0.02050315
0.15331988 -0.39469728 -0.06487986 0.17942534 0.17172006 -0.27688158 0.014567115 -0.07462841
0.0011109138 0.14185214 0.0022894125 0.04163805 0.42493224 -0.14245838 0.07289942 0.14790504
0.046685595 -0.05170986 0.014434752 -0.014857731 0.39497384 0.054627884 -0.00056717824 -0.0056077847
0.24854325 -0.08515935 -0.03877187 -0.042552534 -0.14919588 -0.046165492 0.014412458 -0.0026881844
0.39383227 0.053812366 0.0081473235 0.0014386631 0.18543513 0.08510945 0.21872696 0.032906044
-0.14282683 -0.01868732 0.014649654 -0.007926677 0.2931814 0.057293534 0.0144753205 0.020167451
0.31576738 0.04810977 0.39113426 0.13117088 0.09888678 -0.059048418 0.0139850555 -0.013109683
0.2824205 0.2205836 0.018579017 0.028280253 0.2438476 0.031982426 0.68366206 0.03130247
0.026877025 -0.0039775833 -0.047732834 -0.042969998 0.0068285526 -0.0070694084 0.0105603235 -0.021298971
-0.00828254 0.15285565 0.0903513 0.015244553 -0.013545397 0.016111454 -0.055251442 -0.02295648

critic.0.bias f4 [256]
00000000: 2713 6e3e 7db8 cb3e 7e75 1b3c 29c2 d63c
00000010: d6e7 dd3c 5d79 7ebe 7ae6 87bb 86cb 10be
00000020: db02 503d 3130 89be af77 bc3d 035c c23e
00000030: 6d55 6f3f ab6d 343f 4491 003e 2ea2 b6be
00000040: d04b 69be fe85 043f 09fc 8bbd 3d56 dc3b
00000050: 3599 09bf 6044 83be 7be8 2ebe af47 453e
00000060: cb38 2d3e b455 be3e 6366 44be 48ab 803e
00000070: 1466 6cbc 5f3d 7abe e67a 993e 51a3 1cbe
00000080: 2405 99be 8f52 bc3e 5325 4f3e 33fe 7bbf
00000090: b637 1d3e 7456 063f c01a 143f 0e7c 0dbf
000000a0: 1a27 b43e 901b 79be ce02 96be fa05 fa3e
000000b0: e0be 84be e5cf 583e 2016 c73e c8d7 68be
000000c0: 855a 28be 6c0a 5d3e 6e0d 28bf 2aec afbd
000000d0: ca63 54bf 5ee4 4fbf aafa f03e fed1 bfbe
000000e0: c716 ce3d 2400 3fbf ba90 69bf f7ea dbbc
000000f0: 0258 c0be 9a2f 9f3c 5a24 a3be 8659 1dbf
00000100: 48ec 423d 0b73 a8be 67ac 17be 685c fcbe
00000110: b343 ee3e 1507 653e f78b 253e 9d15 2b3e
00000120: ddd8 a93d 5c54 04be 70bc 06be 10ea 133e
00000130: 6307 75bf 109a 883e 76d3 b5be d22d 0bbf
00000140: a449 ebbe a1e2 22be e730 1d3e dea8 ffbe
00000150: e7dc 743e fff8 05bf 12a1 29be 77dc 02be
00000160: 5add 99be 9c37 133e 4c9b ff3e 3d0f 0e3f
00000170: 12b2 68bd 1eb9 313d e2f6 e7be f127 62bd
00000180: 7aa9 cebd 7f17 ac3d 4ca3 bb3e 588e 683e
00000190: f924 533e 1cfe 93be 6187 5e3e 5dfa 88be
000001a0: 5288 24bd 1653 9cbe 13b3 2e3e d664 8f3d
000001b0: 81ac 953c 1382 a0bd 268f 48bf 216d b8be
000001c0: d0c1 84be 6be6 b9be eddf 87bd 79c5 7e3e
000001d0: 0133 05bf 973e 22bf 9786 013e 24b8 ab3d
000001e0: 97cc 223e 89f1 28bd 22ca 013e e808 ec3d
000001f0: dbff 893e e1b3 36bd 585b aabe 5c8c 18be
00000200: aa44 573e 8a15 b43e d0de 94bd 4958 ba3e
00000210: dea9 acbd cb95 2d3d 4282 fa3d f6de a23c
00000220: b9d2 823d e3e4 18be 88e5 493f e0cc 1dbf
00000230: 0d72 ccbe 087e a7bf ef82 9cbd cc34 df3d
00000240: 1045 833e c6c6 f53e 0d3b cfbe 67a4 32be
00000250: ccc6 2c3f 0e1f bebe a18e b5be 6065 83bd
00000260: e57a fc3b 5acb 863e 278c a1bd 4d10 883c
00000270: def5 053e b994 6abe 2b7e 95be 7ead 8abd
00000280: 59ed 54be ae82 b43e a7db e33e 4808 0fbe
00000290: b713 44be 4b10 afbe aa94 eabe f818 6cbe
000002a0: 76e4 dbbe b4f1 8a3e 25bd ae3e fbbe 03be
000002b0: 789e 1abf 68b1 293e 6054 1c3f f32b 733e
000002c0: 637a bb3e d5b0 81be cfc0 6b3d 1741 a7bc
000002d0: c86a 49bc 1ad7 08bf 5025 4fbe afca 903e
000002e0: 91dc 323f 4edb f63d 9b44 aabe 7ce6 db3d
000002f0: 2623 9d3e a0de e13e e0ed 093f 6163 923e
00000300: 8e30 78be d136 763e c138 6cbd 340d eabd
00000310: 277c 3b3d d927 91be 93f8 f83d acd5 2fbd
00000320: 49b5 37bc 71a5 29bf 4ebe 1cbf 103e c9be
00000330: facd 08be 1a87 b1be 454c 1dbe 8a21 c53d
00000340: d77f d93e 04a1 253e 94bd 0c3e af61 a83e
00000350: ff53 c2bb 6659 2a3e 3dfe b73c 2f0a 4a3e
00000360: fb4c 2ebe 020b f63e 26e6 203d f3a7 cfbe
00000370: 7bbb 92bd d990 663d cd1d 013e 9ed4 ab3e
00000380: 99b4 0dbd 9d35 e2bd 7898 71bf bbd6 82be
00000390: 7483 2fbb 0fe0 47bf fe36 bd3e ab72 2dbd
000003a0: 02f8 2fbf 511d 4bbe 052c 3ebe 0dff e7be
000003b0: e33e 7bbd df05 df3e d282 4f3e c1a6 893e
000003c0: 3849 773b 2f35 f6be b324 9dbc 0e0b 86be
000003d0: 2b69 80bf a179 2b3e 77b6 353e d1bb 02bf
000003e0: 522c 243f d31d 03bf affb 15be 10b1 e9be
000003f0: dbce f43d 6710 993e e37b ed3d f156 113f
0.23249494 0.3978919 0.009488462 0.02621563 0.027088087 -0.24850984 -0.004147348 -0.14140138
0.050783973 -0.2679458 0.09202515 0.37960824 0.93489724 0.7047984 0.12555414 -0.35670608
-0.22782826 0.51766956 -0.06835181 0.0067241476 -0.537494 -0.25638103 -0.17080872 0.19265626
0.16916196 0.3717476 -0.19179682 0.25130677 -0.014428634 -0.24437474 0.29976577 -0.15296675
-0.29886734 0.36781737 0.20229082 -0.9843475 0.15353283 0.52475667 0.5785332 -0.5526742
0.35186082 -0.2432692 -0.29299015 0.48832685 -0.25926876 0.21173055 0.38884068 -0.22738564
-0.1644078 0.21586007 -0.6564549 -0.085899666 -0.82964766 -0.81207836 0.47066242 -0.374649
0.10062938 -0.7460959 -0.9123646 -0.026845438 -0.37567145 0.019431878 -0.31863672 -0.61464727
0.047588617 -0.3290027 -0.1481186 -0.4928925 0.46536025 0.22365983 0.16166674 0.16707464
0.082933165 -0.12922806 -0.1315782 0.14444757 -0.95714396 0.2668004 -0.35512894 -0.5436679
-0.4595462 -0.15906765 0.15350686 -0.49933523 0.23912393 -0.5233306 -0.1656535 -0.12779413
-0.3005169 0.14376682 0.4992317 0.55492 -0.056810446 0.043389432 -0.45305544 -0.055213872
-0.10090919 0.08402919 0.36648023 0.2271055 0.20619573 -0.28904808 0.2173133 -0.26753512
-0.040169068 -0.3053214 0.17060499 0.07001655 0.018270733 -0.0783731 -0.7834343 -0.3602076
-0.25929117 -0.36308607 -0.06634507 0.24880017 -0.5203095 -0.63376755 0.12648998 0.083847314
0.15898357 -0.04124597 0.12674764 0.11525136 0.26953015 -0.04460514 -0.33272815 -0.14897293
0.21022287 0.35172683 -0.072690606 0.3639548 -0.08430837 0.04237918 0.12231876 0.019881707
0.063878484 -0.14931063 0.7886586 -0.6164074 -0.39930764 -1.3085337 -0.07642161 0.10898742
0.25638628 0.48003215 -0.4047474 -0.17445527 0.6749084 -0.37133068 -0.3546038 -0.0641582
0.00770508 0.2632702 -0.0788806 0.016609335 0.13082072 -0.22908296 -0.2919782 -0.06771372
-0.20793666 0.3525595 0.4450352 -0.13968003 -0.19148146 -0.34192118 -0.45816547 -0.230564
-0.4294774 0.2713753 0.3412868 -0.12865822 -0.60398054 0.16571581 0.61066246 0.23747234
0.3661681 -0.25330225 0.057556923 -0.02041678 -0.012293525 -0.5345322 -0.20229077 0.28279635
0.6986781 0.12053548 -0.33255467 0.10737321 0.3069088 0.44115162 0.53878593 0.28591445
-0.24237272 0.24044348 -0.057671312 -0.114282995 0.045772698 -0.28350714 0.12156787 -0.042928383
-0.011212655 -0.6626807 -0.6122788 -0.39305162 -0.13359824 -0.34673387 -0.15361126 0.09625538
0.42480347 0.16174704 0.13744193 0.32887027 -0.0059304233 0.16635665 0.022460097 0.19730447
-0.17021553 0.48055273 0.039281987 -0.40557823 -0.07164665 0.05629048 0.12609024 0.33560652
-0.03459606 -0.11045382 -0.94373274 -0.2555445 -0.0026781233 -0.7807626 0.36956018 -0.042345684
-0.68737805 -0.19835402 -0.1857148 -0.45311776 -0.06133927 0.43559167 0.20264748 0.26885036
0.003773285 -0.4808745 -0.019182539 -0.2618031 -1.0032095 0.16745616 0.17745386 -0.51067835
0.6413013 -0.51217383 -0.14646791 -0.456429 0.11953517 0.29895326 0.11595895 0.5677329

critic.2.weight f4 [128, 256]
00000000: 895c 8fbc 0617 8abe 9aec 2dbe 7bf2 1d3e
00000010: 2095 94bd e9f0 20bc aa59 b23d 23b1 913d
00000020: 9beb f3bd f94f 08be 9722 713e 18aa 8c3d
00000030: 9f6b 173d 7054 663e 36d0 343c b356 283c
00000040: 1b15 51bb 83cf 9dbe 0133 51bd 06fc 6b3d
00000050: 499c ddbc be9c da3c dc07 093e 2d40 f5bc
00000060: 525a fc3d fa74 d63d 977b 853d c0f8 17bd
00000070: cb0e 953d 53b0 55bd a3c9 243d dd9a a1bf
00000080: 8255 f6be fd38 26bb fa6d ff3d 35a5 93bf
00000090: de1d a63d 163d d93c 8f79 81bd fcd0 abbe
000000a0: ddb1 533d 4acf 083e c241 c7bb f40c 60be
000000b0: 5f66 a9bf b0d8 953c b4d7 8ebd b46d be3b
000000c0: 6a23 1b3b 3cd2 a8be 1da2 71bf 0a98 01be
000000d0: 5aec 1a3d e0cf 2f3e 68f7 1a3e 2bf3 f0bc
000000e0: 80a8 7cbd eeb7 28be 470f dcbd 5392 c8c0
000000f0: a7d4 293e b0d1 663d 87e6 323d 9329 aec0
00000100: 7c02 a43e 33d5 27bd 7d77 b73c 4de4 473d
00000110: 8b48 c8bd 3101 c5bc 3716 94be e063 0fbb
00000120: b80e b93d ebcc 45be 5727 b1bc 4a45 063e
00000130: 1a21 263c 34f7 8abd 7847 0ebe b05f 963d
00000140: fe32 1fbe ad9b 4d3e ee26 753e e33e 2ebf
00000150: b754 25bd 5c96 a7be b1a0 b0bc 4005 eabe
00000160: 9253 9a3d 65bf 58bd 7700 473d a48e ba3d
00000170: 463b 87be 20a3 87bd 9e1a 0b3d 1ce1 7cbd
00000180: d342 d6bd 8af2 c1bc 2022 92bd 6f38 ce3e
00000190: 634c 873c 2f96 49be 9bcc ec3c d282 9ebc
000001a0: 0870 873e a4b3 d6bd c014 1abe c10f 2fbd
000001b0: 7554 8d3b 9de3 d53d 599d 743d 111e 343d
000001c0: caf2 893d f67c 95be fe55 113d 112d bdbe
000001d0: fe6e d1bd 5c0b 8abd 679e 813e 9921 cbbd
000001e0: f83e 8fbc 9739 8f3d 2d9b 513e 43bd 0d3e
000001f0: e7f9 633e da62 25bc 8ae7 52bc dc34 8c3c
00000200: 04a4 57bf a70a 55be 8ad5 34be a72d 4abc
00000210: 82ba d23b 7a28 03be 9f52 e6bc d143 b93c
00000220: e470 02be ca0d c23d 7d5c bcbe 593f 4cbf
00000230: 2603 93bd 6d49 d3bd cf2f 2cbe 1a2b 50be
00000240: 9ea2 f8bd 0582 7b3d 41af 23bc a840 a43d
00000250: 35cf 023e 17ec 69be f2d0 2c3d 9493 4b3d
00000260: a8f0 2f3e 6d9a d23d b1ca b6c0 6830 1bbd
00000270: 5593 cfbd 9c29 e13d f4fe f2bc 4a40 853d
00000280: 3d41 20be 489a 4a3d c4a2 133b f558 1e3e
00000290: d68b 903e f198 c4bc 5bc9 d83b 9218 cd3d
000002a0: cece 0abf d51a 1a3d eb68 f33d b335 c7bc
000002b0: 0042 823d db8c d2bd 90f2 a93d cd94 073d
000002c0: bd6e 92be f7c0 fc3b c08f a1bd 4df6 823d
000002d0: f9fc 96bd 3259 103e c3fd b2bc 9203 443d
000002e0: c359 16be 082a 023d 3a6a 4b3c 2c37 39bd
000002f0: 00e0 adbc dbea 0bbe 6b2e 6cbe c25f 2c3d
00000300: cf38 693d 6b4e 253d c51a ad3d 66e8 b4bd
00000310: 3e28 6dbd e1d2 a3bd b5ba 023e 61ec e2be
00000320: ed77 523b 3c2c 5d3e 9140 f03c 034a c6bd
00000330: ebed f73c 3905 6cbe 8706 c8bd ce7c 1bbe
00000340: 82a1 d13c 6327 203d 5e18 6d3c 2948 b43c
00000350: 49d3 6bbe e5c0 89bc 942b 4cbe c551 ba3d
00000360: 9016 9cbd b342 e33d a81a 23bf dd22 aabd
00000370: 0c3e 13be 1de5 263d 778c dcbb 06f2 8f3d
00000380: 14ba 643e 31ab 643e 2e0c 82be e6bf d9bc
00000390: 30f0 17be f5bc a2be 9b7f dbbd ee17 bb3d
000003a0: 5870 fdbe 7f77 0cbd 53d4 87bd fcc6 a33d
000003b0: 31e7 70bd 205f a43d 61fd 15bd 22ec 0bbd
000003c0: 5f29 1dbd ab6b 8abe 1583 c53c 98fd e33b
000003d0: be24 e0bd 580c 68bc afb1 c53d e5bd 033e
000003e0: 2726 b73d 52ff a13b 8336 a83d 1218 89be
000003f0: 6ca7 a03d 81d9 babe 94eb 18be 0736 f73c
-0.017500179 -0.2697069 -0.16984788 0.1542453 -0.07255006 -0.009823062 0.08708508 0.07113864
-0.119101726 -0.13311757 0.23548351 0.0686838 0.03696787 0.22493148 0.0110359695 0.010274577
-0.003190345 -0.3082238 -0.05107403 0.057613395 -0.027052062 0.026686069 0.13381904 -0.029937828
0.12321915 0.1047153 0.065177135 -0.03710246 0.07278212 -0.05217011 0.04023136 -1.2625386
-0.48112112 -0.0025363558 0.12472148 -1.1534792 0.081111655 0.026518386 -0.063220136 -0.3355788
0.051683296 0.13360325 -0.006080837 -0.21879941 -1.3234366 0.018291801 -0.06974736 0.0058114175
0.0023672231 -0.32972896 -0.9438799 -0.12655655 0.03782306 0.17169142 0.1513344 -0.029412827
-0.06168413 -0.16476414 -0.107451014 -6.267862 0.16585027 0.056352317 0.04367688 -5.442575
0.32033145 -0.040974807 0.022395844 0.04880171 -0.097794615 -0.02404842 -0.289232 -0.0021879598
0.090360105 -0.19316451 -0.021625204 0.13112369 0.010139728 -0.067854315 -0.1389445 0.0734247
-0.15546796 0.20078917 0.23940632 -0.6806471 -0.040363993 -0.32731903 -0.021560999 -0.4570713
0.07535471 -0.052916903 0.048584428 0.09109238 -0.2641241 -0.066229105 0.03396093 -0.06173812
-0.104619645 -0.023675222 -0.07135415 0.4027743 0.016515916 -0.19686197 0.028906157 -0.01934949
0.2645266 -0.104834825 -0.15046978 -0.042739633 0.0043130466 0.104438044 0.05972037 0.043973986
0.067357615 -0.291969 0.0354824 -0.36948445 -0.10226248 -0.06740448 0.25316164 -0.099185176
-0.01748608 0.06993406 0.20469351 0.13841729 0.22263299 -0.010094369 -0.012872586 0.017115049
-0.84234643 -0.20804845 -0.17659584 -0.012339986 0.006430925 -0.1280841 -0.028115569 0.022615345
-0.12738377 0.09475286 -0.36789313 -0.7978416 -0.07178335 -0.10316739 -0.16815113 -0.20328942
-0.12140392 0.061403293 -0.009990514 0.08020145 0.12774356 -0.22843967 0.042191453 0.04970129
0.17181647 0.10283361 -5.7122426 -0.03788796 -0.10135523 0.109942645 -0.029662587 0.06506403
-0.15649886 0.04946354 0.0022527436 0.15463622 0.28231686 -0.02399871 0.0066158003 0.10014452
-0.5422181 0.037623245 0.11885246 -0.024317598 0.06360245 -0.10280772 0.08298218 0.03310089
-0.28600112 0.007713433 -0.07888746 0.063946344 -0.073724695 0.14096525 -0.021849519 0.047854967
-0.14682679 0.031778365 0.012415463 -0.04521863 -0.021224976 -0.13663809 -0.23064582 0.04208351
0.056938943 0.04035799 0.084523715 -0.08833389 -0.057899706 -0.07999206 0.12766536 -0.44320968
0.0032114938 0.21598905 0.029327663 -0.09682085 0.030264815 -0.23048867 -0.0976687 -0.15184328
0.025589708 0.039100062 0.014471142 0.022007065 -0.23029818 -0.016815612 -0.19938499 0.090976276
-0.07621491 0.11096706 -0.6371255 -0.08307431 -0.14379138 0.040745843 -0.006730612 0.07028584
0.22336608 0.2233093 -0.25399917 -0.026580762 -0.14837718 -0.31784788 -0.10717698 0.091354236
-0.49499774 -0.034293648 -0.066322945 0.07996938 -0.05881423 0.08025956 -0.036618594 -0.03416074
-0.038369533 -0.2703527 0.024110356 0.006957721 -0.10944508 -0.014163099 0.09653031 0.12865408
0.08942824 0.0049437666 0.08213522 -0.26776177 0.07844433 -0.36494067 -0.14933616 0.03017713

critic.2.bias f4 [128]
00000000: b437 003e 7ab6 4fbd d765 8bbe 9991 683d
00000010: 4782 1e3d 8bf4 9c3d bd98 0cbe 9cd1 9abd
00000020: 42d0 b5bd 3264 a43b cfa6 a4be 7c03 bb3d
00000030: 4d70 233d c27a 243d 1e7c 253e 160d fe3c
00000040: a479 343c 917b 78bc ec75 023e 4007 1dbd
00000050: 2d9e f03d 3ce7 67bb 94b6 44be 75d7 6abd
00000060: a551 2e3d 1610 90bd 8c37 30bd abaa 2c3d
00000070: dff8 b63c 8878 b23d 2005 60be ae6f ccbd
00000080: 1708 04bc a04d 82bd d9d8 0fbd 27fe 8f3c
00000090: fd0e 2e3e c08b d53d a00e bf3d 7619 9abc
000000a0: 99bd c93b 5e19 8cbd 3b01 98bd eef1 73bd
000000b0: 9eca 1bbc 6cd1 efbc 21e9 d2bc bf68 e2bd
000000c0: 778b 52bc 1413 113d f8f2 0a3c 9901 bebd
000000d0: 8046 17bd a80a 993b e6c5 da3c 10ad 88bd
000000e0: 0d90 073d dba2 083d 8287 a33d e98f 38bd
000000f0: bc07 283c b4f2 90bd 57e6 19be a153 adbe
00000100: 8ccf 30be 586b 59bd 20d2 683d ee4d 6fbc
00000110: 2d58 29be 7e47 3d3d 494b a73b 84f4 833c
00000120: 420a 493d 50ed 1d3d 5355 ab3d 4b33 79bd
00000130: 5df3 223e a503 9ebd 36e5 b83d 7fc2 18be
00000140: f977 03be c250 8bbd df28 fcbc e163 1d3d
00000150: 700a 423d 7eb8 123e 20ce aabc 13cf 57be
00000160: 01b1 113d c01b 0f3c a1fe 29be 3959 88bd
00000170: bb75 fa3d 3f69 26bd 7b05 83bd d713 e3bd
00000180: a07f c93d 95fc adbd 7741 ea3d 3125 7fbc
00000190: 2ddb 5e3d cb29 28bc 4584 10be 4de5 aa3b
000001a0: 94d4 64bc b582 d9ba 25dd f9bd 8618 af3d
000001b0: 6dc2 fc3c 9f69 393d b0c4 d73d 9077 693d
000001c0: 30c2 ab3c 9eb0 bc3b 87e5 f03d ffa2 013d
000001d0: 48f1 12bc 5d64 223e 365e 413d a882 11be
000001e0: dad1 7c3d 63f4 0fbc f443 cfbc 7ee1 a73c
000001f0: c233 86bd d445 d73c c3d2 953d c2c2 013e
0.12521249 -0.050711133 -0.27226135 0.056779478 0.03869846 0.0766383 -0.1373014 -0.07559511
-0.08877613 0.005016827 -0.32158515 0.09131524 0.03990202 0.040156133 0.16160628 0.0310121
0.0110153295 -0.015166179 0.12740296 -0.038336992 0.1174892 -0.003538563 -0.19210273 -0.057334382
0.04255833 -0.07034318 -0.043021724 0.04215495 0.022335468 0.08714396 -0.21876955 -0.09982239
-0.008058569 -0.06362462 -0.03511891 0.017577244 0.16997905 0.10427046 0.09328961 -0.018810969
0.006156635 -0.06840776 -0.0742211 -0.059556894 -0.009508757 -0.029274665 -0.02574593 -0.11055135
-0.012850634 0.035418585 0.00848078 -0.092776485 -0.03693247 0.00467046 0.026705693 -0.06673634
0.033096362 0.033358436 0.079848304 -0.04505912 0.01025575 -0.07077542 -0.15029274 -0.33852866
-0.17266673 -0.053080887 0.056841016 -0.014605982 -0.16537543 0.04621076 0.0051054102 0.016107805
0.04908205 0.038556397 0.08365884 -0.060839932 0.15913148 -0.07715539 0.090280935 -0.14917944
-0.12838735 -0.06802513 -0.030781208 0.03842533 0.047373235 0.1432819 -0.020850241 -0.21075086
0.035569195 0.008734643 -0.1660104 -0.06657643 0.122294866 -0.040627714 -0.0639753 -0.110877685
0.09838796 -0.08495442 0.11438268 -0.015572832 0.05440824 -0.0102638705 -0.14112957 0.005215323
-0.013966698 -0.001659474 -0.12200383 0.08549599 0.030854428 0.045266744 0.10535562 0.05699879
0.02096662 0.005758359 0.11762529 0.031649586 -0.008968659 0.15858598 0.047208987 -0.14209998
0.061723568 -0.008786294 -0.025300957 0.020493265 -0.06552841 0.026278414 0.0731559 0.1267195

critic.4.weight f4 [1, 128]
00000000: 9e91 303f 8056 80be e2e0 1b3f 935d f5be
00000010: a355 763c 3da1 38be effa 63be 341e 18bf
00000020: cbec 973e 7d0a 66be cdcb aebf ed6d cabe
00000030: a759 4fbe 1e4c 7b3e 38b9 a73f 0a6f 29bf
00000040: 0374 ec3f 79b7 2b3e 215a dc3e 1a27 823e
00000050: 0f4c a73f b88d b03e a619 b23e 6094 a1bf
00000060: 01cc 093f 082f 8b3f c8f3 bd3e 5d52 6abe
00000070: 2334 5ebe 1ac4 513e 6518 213f 9dfb 083f
00000080: 23f5 053f 5c8e 0cbf 15de 623f 09f8 fc3e
00000090: 1d95 983e 4b5c cdbe efa3 4bbe 4421 bf3f
000000a0: b808 3c3e a0a3 d53e 51d6 8c3e 7155 c43f
000000b0: 4e51 553e 50b9 273f 0dc0 bfbe f112 083f
000000c0: 62d6 a33f cb28 94be 87d9 9b3f c0d5 873f
000000d0: 6c8c e6be a687 6a3e 2f87 863f 8209 09bf
000000e0: 8661 653f 3a70 043f 0dd5 ec3e 7e8a 543f
000000f0: 28d0 ccbe a989 6a3c cb00 b13f 24f0 7d3f
00000100: 8e1c 823f 1d71 c03e 6576 5dbf 648d e43f
00000110: 1e2d 033f 7305 e33e df70 f13e 09e6 48be
00000120: 9bba 903e 62eb 9c3f b05e 513f 9e57 9c3f
00000130: 0319 303f e6c3 9dbf a201 a0be 2ac0 9b3f
00000140: be4f bfbe c35b cb3c 62ba ba3f 82a3 82be
00000150: d49c 383f 7e95 153f 9a30 923f eead aa3e
00000160: 07cd 39be cbae 37be afcb 713f 0b6b a5be
00000170: 16fc 31bf 175a eebf ad9c c1be ed60 94bf
00000180: 884e 19bf e5d6 44be 7550 513f b026 03bf
00000190: 9107 833f 4edc afbe b394 dbbe e74a 6b3e
000001a0: fbf3 263e 0d48 94be 7e18 513e 0d13 ebbe
000001b0: 1a0d 853e f5cc 5d3e 2cf9 ed3e d70d ba3e
000001c0: be5c 8abe e30c aa3e e2b2 0a40 16fe 93bf
000001d0: 2c5d 02bf 1073 0a3f f388 10bf d677 1e40
000001e0: e4f5 433f 8a1f 583e b884 36be dd59 92bf
000001f0: ba70 2dbe 4513 e63f 8c95 a2be c246 66be
0.68972194 -0.25065994 0.6089002 -0.47922954 0.015035066 -0.18030258 -0.22263692 -0.59421086
0.29672846 -0.22464938 -1.3655945 -0.39536992 -0.20249043 0.24540755 1.3103399 -0.6618506
1.8472904 0.16769208 0.43037513 0.25420457 1.3070086 0.34483123 0.34785193 -1.2623405
0.5382691 1.0873728 0.37100053 -0.22882982 -0.21699576 0.20484963 0.6292785 0.5350893
0.52327174 -0.54904723 0.8862012 0.49407986 0.29801264 -0.40109476 -0.19886754 1.4932027
0.18362701 0.41726398 0.2750726 1.5338575 0.20831797 0.6551714 -0.3745121 0.531539
1.27998 -0.28937373 1.2175759 1.0612106 -0.45029008 0.22903308 1.0510005 -0.5353013
0.89601934 0.51733744 0.46256295 0.8302382 -0.4000256 0.014315047 1.3828367 0.9919455
1.0164964 0.375863 -0.8650878 1.7855649 0.5124072 0.44340095 0.47156426 -0.19619001
0.2826737 1.2259333 0.81785107 1.2214239 0.68788165 -1.2325408 -0.31251246 1.2168019
-0.37365526 0.024824029 1.458813 -0.25515372 0.721143 0.5843123 1.1421082 0.33335823
-0.18144618 -0.17937772 0.9445142 -0.3230823 -0.6952528 -1.8621243 -0.37814847 -1.1592079
-0.59885454 -0.19222601 0.8176339 -0.5123091 1.0236684 -0.34347767 -0.42886886 0.22977792
0.16304009 -0.2896122 0.204195 -0.45912972 0.25986558 0.21660216 0.46479166 0.36338684
-0.27023882 0.33212957 2.1671681 -1.1561916 -0.5092342 0.5408182 -0.5645897 2.4760642
0.76547074 0.21105781 -0.17824066 -1.1433674 -0.16937533 1.797463 -0.3175472 -0.2248793

actor.0.weight f4 [256, 48]
00000000: 191a 983e 58c6 1c3e 8854 b5bd d465 7bbc
00000010: db92 f03d 7dd1 11be 3a50 3c3e 3ef2 52bc
00000020: 8860 e83d 032c ff3e ba9f 633d 2277 d13d
00000030: 19fd bd3e 5b71 473e 454a 243a 2f59 25be
00000040: 141a 673b 181a e9bd 7021 763e 6898 b2bc
00000050: 959d 013d 58b2 963e 0550 863e ff3c ae3c
00000060: 1d75 a83e 243f 003d ff09 adbd deb7 09be
00000070: 26cc 983d 3dbd 86bd fddd 59bc e2c4 d6bd
00000080: d0bf c03d be2c ce3e be62 cabd 0517 3c3d
00000090: 460a b73e b2f2 e93d ae1f 7f3b ffdb 2abe
000000a0: 937a 283e eb60 1abe da4d 2a3d dce1 39be
000000b0: 67b3 37be 6bc4 bb3e cf22 32be af83 233e
000000c0: 5fc0 8b3e c490 b53e 5eb5 d13d c8dd bcbd
000000d0: 8f47 02be 5710 df3d 2817 2bbd 5e78 86bd
000000e0: 9f77 40be a06b a83d 49ea 85bd fa3c 0bbe
000000f0: c008 6b3e d66e c03e afec 253e 97e8 ea3c
00000100: 63d8 9dbe 372a f2bd 9382 bd3c 1a8d 8d3c
00000110: bba0 22be a20d 823d abae 27be 0823 443d
00000120: bcf2 ab3e c0f2 ae3e 33a9 803e a839 b63d
00000130: 5829 6dbe 16a5 3cbd 07ac 8b3d 5a8e 63bc
00000140: 79aa 86be 89bd 683e 7e88 55be a1a0 4cbb
00000150: 4b79 ec3e 6ae9 ad3e a0fd 403e 26aa dbbd
00000160: 4f26 bfbe 34bb d73c b849 8a3d 284f 1fbd
00000170: 2bff bebe 73c8 ad3e 37e0 47be ffb3 a63e
00000180: dc26 dfbe c7cf 103c 88d9 d4bd af16 f9bc
00000190: 680e ed3d 2c76 bb3d 52a7 39bd 7b6b 283d
000001a0: e1cc b8bd bcd8 fdbe 3a91 5a3d 32de 37be
000001b0: 0ee2 fabe bf7a afbd 04b2 c83c 9160 1fbe
000001c0: 707a a23d 5eff 343d 50d7 3e3d 7bb7 fbbd
000001d0: 9681 f7bb 3a76 96be 8682 023e bafb 52bd
000001e0: a4eb a8be 05fb 07be 2504 ad3d 8a80 cebd
000001f0: 15ce c43d 4196 4bbd d6cc 8c3d f31d b3bd
00000200: bc01 da3d e3f4 01bf 835f 8fbd ab0c 31be
00000210: 99df b3be f343 d63c fff5 dfbc 8e0e 0a3c
00000220: e4cf 773c 20ea a2bd 6c27 063e 9efc d5bc
00000230: b1e2 13bd 4d19 e3be 9063 983d eb12 a6be
00000240: 402b 2abe 558b 1cbd 2c3c 4dbc e048 6cbd
00000250: b2bb 8c3d 0fca babd 47f4 3d3e a7f1 ebbd
00000260: 96cc 8f3e 45b7 9fbe f925 e13d 2623 b7bd
00000270: bb7c 13be 8a84 873d 4e4c d33c a304 1dbe
00000280: 95be 99bc d7df 0b3e 3f8b f33c 03f9 ccbd
00000290: 77d1 9c3d 2b4d 8cbe 93ee 9f3e f537 933d
000002a0: 9ad7 97bd 9900 093c 4bee 143e 1ef3 233d
000002b0: b37d 97bd b887 a53d e11b 483e 7825 d03d
000002c0: fe7f 893e 405c 87bd 9d5f dd3e 797c f23d
000002d0: 9c7f 3abd 6044 e23d 4dba 343d 324c 6fbc
000002e0: 0fdc 4ebd a135 e0b8 1875 a43e 95e4 903d
000002f0: 62e5 753e 6801 52bd 10ac 9e3e 72c9 8f3e
00000300: a69b 6e3d c6c0 c6bd 632f b53d 5094 f03d
00000310: f8cf ffbd 4cd5 993d c74e 023d 6f31 63bd
00000320: 2332 673d c178 e3bd 6e3a 8bbc 2070 d2bc
00000330: 2193 e53d 227d 16be 6869 36bc 14d9 0b3e
00000340: 9840 9a3d 4794 c0bd 24e0 c23c 05a0 963d
00000350: d498 a4bc cb6d 95bd 6dfd 353c bea9 ed3c
00000360: a08f 5abd 16f7 6f3c 5f8b 29bd 7308 4cbc
00000370: 4225 16be f01e 15be 2917 a33c 8243 183d
00000380: 94b9 abbd 3a7e 1bbe 8a46 e63c 5b04 75bc
00000390: e0b5 cbbb 6ebc f23d 3da3 033e 7494 813d
000003a0: 9394 9ebc 611a 003d 534b 283d 8ad5 05be
000003b0: bfa1 c73d a217 5fbc b906 be3d 33bf d93d
000003c0: 0a00 1b3d d9ed d83d a2c8 5f3e b6e3 263e
000003d0: 66d1 67bd 6ac7 0e3c 8cd0 353b cf0c 83be
000003e0: 5662 973e ca07 803d 3b3e c33d 8778 133c
000003f0: 5855 683d 7dc8 063b aa01 6e3e fd16 233b
0.2970741 0.15310037 -0.08854014 -0.015344102 0.117467605 -0.1424007 0.18389979 -0.012875138
0.11346537 0.49838266 0.05557225 0.10227801 0.3710716 0.19476835 0.00062671705 -0.16147302
0.0035263347 -0.1138193 0.24036193 -0.021801189 0.031644423 0.2943294 0.26232925 0.02126932
0.3290185 0.031310216 -0.08449172 -0.13449046 0.07460813 -0.06579063 -0.013297555 -0.10486771
0.09411585 0.4026851 -0.09882115 0.04592039 0.35750026 0.114232436 0.0038928795 -0.16685484
0.16453008 -0.15076034 0.04157815 -0.18152565 -0.1793953 0.36673293 -0.17396091 0.15968202
0.27295205 0.3546201 0.10239671 -0.09221989 -0.1272261 0.108917885 -0.04177013 -0.06565927
-0.18795632 0.08223653 -0.06538827 -0.1359748 0.22952557 0.3758456 0.16203569 0.02867536
-0.30829152 -0.11824458 0.023133552 0.017279197 -0.15881626 0.063502565 -0.16375224 0.04788497
0.3358363 0.3416958 0.2512909 0.08897716 -0.23160303 -0.046055876 0.06819921 -0.01388892
-0.26301935 0.22728552 -0.20852849 -0.0031223672 0.4618629 0.33967143 0.1884675 -0.107258126
-0.37333915 0.026334383 0.06752342 -0.03889385 -0.37304053 0.33941993 -0.19519125 0.325592
-0.43584335 0.0088386005 -0.10393053 -0.030406324 0.115750134 0.09153399 -0.045325585 0.041118126
-0.090234526 -0.49579418 0.053361155 -0.17955855 -0.4900059 -0.08568334 0.024498947 -0.15564181
0.07933509 0.04418885 0.046592057 -0.122908555 -0.0075532896 -0.29387075 0.12745103 -0.051509596
-0.3299228 -0.1327935 0.08448056 -0.10083111 0.096096195 -0.04970384 0.06875007 -0.08745947
0.10644862 -0.5076429 -0.07000639 -0.17289989 -0.3513153 0.026155448 -0.02733898 0.008426322
0.015125249 -0.07954812 0.13100976 -0.026121434 -0.03610486 -0.4435524 0.07440865 -0.32436308
-0.16618061 -0.038218815 -0.012526553 -0.057686687 0.068717375 -0.09120571 0.18550216 -0.11520701
0.28085774 -0.3119451 0.10993571 -0.08942251 -0.1440305 0.06617077 0.02579322 -0.153338
-0.018767634 0.13659607 0.029729484 -0.10008433 0.0765714 -0.27402624 0.31236705 0.07188407
-0.074141696 0.008361959 0.14544027 0.040026776 -0.07397022 0.08082527 0.19541885 0.101633966
0.26855463 -0.06609392 0.4323701 0.118401475 -0.045531854 0.11048198 0.044122983 -0.014605569
-0.050502833 -0.000106911415 0.32120585 0.070748486 0.24013284 -0.051270872 0.30990648 0.28083378
0.058253907 -0.09704737 0.08846929 0.11747038 -0.12490839 0.07511386 0.03181341 -0.055467065
0.0564443 -0.11107016 -0.016995635 -0.025688231 0.11209703 -0.14696172 -0.011133529 0.13657027
0.075318515 -0.09403282 0.02378852 0.0735474 -0.020092405 -0.07296332 0.011107785 0.029011603
-0.053359628 0.014646312 -0.04139268 -0.012453186 -0.1466265 -0.14562583 0.019908505 0.037173755
-0.083850056 -0.1518487 0.028109808 -0.014954652 -0.0062167495 0.11852346 0.12855239 0.06327143
-0.019357955 0.031275157 0.04108746 -0.1306974 0.097476475 -0.013616474 0.09278626 0.106321715
0.037841834 0.10592241 0.21853879 0.16297802 -0.056596182 0.008714536 0.0027742712 -0.2559571
0.29567212 0.06251486 0.09533354 0.009000904 0.056722015 0.0020566278 0.23242822 0.0024885528

actor.0.bias f4 [256]
00000000: 475c 36be 2680 433e 7929 ddbd 2594 0dbd
00000010: 9195 c6bd 979f 263c 7f04 bebd 0346 003e
00000020: ef0e a2bd 1368 6abe f85a aa3b 575e ad3c
00000030: 2f76 873e bb4d 083d 4ef3 74bd f5ac 00be
00000040: a032 78be 77ec 41bc 4e74 993c 3013 90bd
00000050: 75f5 06be 1e51 973d d641 17be 74bc 19be
00000060: 0cb4 07be 533a 9e3c 51b1 56be b822 1a3e
00000070: 1605 803d 1b06 acbe c543 7ebd ca4e c13d
00000080: 309d cbbd 48b9 6e3d 0196 df3b 1e27 fe3d
00000090: 4a18 8ebe 2e70 7dbc 0b4b 413e 10e9 5d3d
000000a0: cfab 12be 455f 3a3d bab0 03be e2ca f6bd
000000b0: 19ac 833d a94b 423e 9cac 2d3e dcb5 8fbd
000000c0: 7002 5a3e 9720 acbc 76e5 d33d 7600 03be
000000d0: 4f80 48bc 722e 4b3e b9cd 6b3c f36c 43bd
000000e0: 1cb4 3dbe 0a3b 29bc 0580 fb3d 2be7 bebd
000000f0: ca68 4b3e 82b6 4a3d d59a 15be c9bf cdbc
00000100: 6d0a ae3d 2bcc acbe f82f f33d 7c8a 1ebe
00000110: 458a 1abc a2d9 b4bc 991a 20be 700f e3bc
00000120: b66d 91bd 5c80 af3d db89 f73c f87a 0f3e
00000130: 78a3 113e 20f4 853d 82c9 ed3d 47dd 8fba
00000140: 1ffb 323d f89c 983d d9e8 553d f9c1 f1bd
00000150: 921b 32bd 0f78 68bc 2eaf 2a3d 2c4c bcbd
00000160: 108a 70be c2aa ae3c cec7 fe3a 45eb 76bc
00000170: 8b25 a2bd 2a26 6ebc b9b8 dabd f231 aebd
00000180: 59a9 233e a529 ef3d 68d0 263e 88f3 31be
00000190: 9aff 033e 8783 263e 5989 81bd 7e69 99bc
000001a0: 2550 e43d 03fe 8b3c 2bc3 1d3c 2858 acbd
000001b0: d08e 823e b82b a4bb 6d19 36be 261c 583d
000001c0: 7772 663e ad4d 173d 9f8b 45bd 7751 7d3d
000001d0: 17ad 2cbe beb4 f9bc ba09 f73d 56c8 3abe
000001e0: 9e0a a43b 4aee b0bd 04cb c53d 8ef7 f1bd
000001f0: 01e8 b7bc 3429 fc3d 9554 f3bd 07e9 3fbe
00000200: 4a30 76bd aef4 6abe 0784 243d e0d6 f13d
00000210: a7ae f0bc 123d 973d 7f08 863d f2be 2c3d
00000220: 62b8 55ba acfa b53e a90f bd3d b692 4e3e
00000230: 87c3 15bd de26 c1bc 87af 123e eb4f 093e
00000240: 8a6c 4cbc 0c3a b13c 7c68 753e b41d 563e
00000250: 493d db3d b698 16be 1640 8a3d cd50 2d3e
00000260: 0cdc eabd 6d0f 423d 0067 1dbe 5332 493a
00000270: f850 12be 40d5 f1bc 8801 803e 05db 5cbd
00000280: 710d d73e 2d3c 0ebc 958c dabb 669d 773e
00000290: 52ea cfbd fb9c 9c3d deb5 3cbe 6b38 e3bd
000002a0: d0f9 d83d 95be 81bc 2990 45be 63c1 03bd
000002b0: 5b15 543d 873f ef3d 046a 653d 6246 09be
000002c0: 189d 693e bbc2 7f3e f2f4 4bbe 6522 a0bd
000002d0: ead5 9e3c 9792 6cbd 7dda 71bd 9a18 e1bc
000002e0: 0d90 8e3c 5a83 d2bb 0b2a cdbd 8507 743e
000002f0: 139a e23d a044 4abd aa81 163e df26 26be
00000300: 027b c43c 9311 8a3d 7c81 2dbe 0255 2d3e
00000310: bfb9 c23c c27a 843b 1504 773e 9277 e13d
00000320: ee1a 86be 005b 873e f6d0 df3a 3124 243e
00000330: d12b 533d 9919 a33e a323 21be ba7b 683d
00000340: 54e3 cf3d 6a3b f6bd 6efb 953c cb96 37bd
00000350: ac06 42be c98d 4a3e 7ec5 fcbc 2a27 cebd
00000360: e6b9 f2bd ae1f b3bd 0242 08be 477f 6a3c
00000370: 1538 e1bb 5aae 513e 7a9d e43b 0080 5f3d
00000380: a76c 08be 7a3a c43d f78f 1abc 7390 943d
00000390: 39a1 55be 43e4 e1bd bcc0 d83d afd8 67be
000003a0: 0175 1dbe cae6 ba3c 03cd b5bd 709f babd
000003b0: 2324 fc3b 108b 36be 9e66 0b3e 98a6 92bc
000003c0: f2ee e63c 5f25 e63c 3a41 eb3c fc44 aa3d
000003d0: ae10 e63c 565b 6ebd b05b ae3b be9c d43d
000003e0: f707 553e 0f62 0cbc 2101 9cbd 0efb 993d
000003f0: 06d1 fabd e810 34bd 4918 573d 326d 323e
-0.17808639 0.19091853 -0.10798926 -0.03456511 -0.09696496 0.010169885 -0.09278201 0.12526707
-0.079130046 -0.22891264 0.0051988326 0.021163149 0.26457354 0.033277255 -0.059802346 -0.12565978
-0.24238062 -0.011836163 0.018732216 -0.0703491 -0.13179572 0.07388519 -0.14771208 -0.15013295
-0.13252276 0.01931492 -0.20966078 0.15052307 0.0625097 -0.33598408 -0.06207635 0.09438856
-0.099420905 0.058282167 0.006823302 0.12409805 -0.27752906 -0.01546864 0.18876283 0.054177344
-0.14323352 0.045501012 -0.12860385 -0.120504156 0.064293094 0.18974175 0.16960377 -0.07017109
0.21289992 -0.021011634 0.103465006 -0.12793145 -0.012237622 0.19841936 0.01439231 -0.047711324
-0.18525738 -0.010329017 0.12280277 -0.093214355 0.19864193 0.04949046 -0.14609845 -0.025115864
0.08498082 -0.33749518 0.11874384 -0.15482515 -0.00943238 -0.022076432 -0.15635146 -0.027717322
-0.07101004 0.085694045 0.030217102 0.14011753 0.14222515 0.06540704 0.116107 -0.001097598
0.04369652 0.074518144 0.052224014 -0.118045755 -0.043483324 -0.01418878 0.04167097 -0.09194216
-0.23490167 0.021321658 0.0019438209 -0.015070741 -0.07917317 -0.014535466 -0.10679764 -0.0850562
0.1598257 0.11677865 0.16290438 -0.17378056 0.12890473 0.16261111 -0.06325025 -0.01872706
0.11148099 0.017088896 0.009629051 -0.08415252 0.25499582 -0.0050100945 -0.17783137 0.05276122
0.22504602 0.03693931 -0.048228856 0.06184527 -0.16862904 -0.030481692 0.12062402 -0.18240485
0.0050061485 -0.086392 0.09657863 -0.118147954 -0.022449495 0.12312546 -0.11881367 -0.18741237
-0.060104646 -0.229449 0.040164974 0.11808562 -0.029380156 0.07384695 0.06544589 0.042174287
-0.00081527804 0.3554281 0.092315026 0.20173153 -0.036563423 -0.023578104 0.14324771 0.13409393
-0.01247705 0.021634124 0.23965639 0.20909768 0.107050486 -0.14706692 0.06750505 0.16925354
-0.11467752 0.047377992 -0.15371323 0.00076750404 -0.142887 -0.02952063 0.25001168 -0.05391981
0.42002442 -0.008681339 -0.0066695907 0.24181136 -0.10152115 0.07647129 -0.18428752 -0.11094745
0.10594523 -0.015837947 -0.19293274 -0.03216685 0.05177818 0.11682039 0.056009308 -0.13405755
0.22813833 0.24976628 -0.19917658 -0.0781906 0.019389112 -0.057756986 -0.059046257 -0.027477551
0.017402673 -0.0064243497 -0.10017785 0.23830993 0.110645436 -0.049381852 0.146979 -0.16225766
0.023984436 0.06741633 -0.16943926 0.16926959 0.023770211 0.004042954 0.24122651 0.11009134
-0.2619242 0.26436615 0.0017075825 0.16029431 0.05155546 0.31855467 -0.1573625 0.05675862
0.10150781 -0.12023051 0.018308368 -0.04482154 -0.18947858 0.19780649 -0.03085589 -0.10066064
-0.118518636 -0.08746277 -0.1330643 0.014312572 -0.0068731406 0.20476666 0.0069767805 0.05456543
-0.13322698 0.09581466 -0.009433738 0.07254114 -0.20862283 -0.110298656 0.10583636 -0.22641252
-0.15376665 0.022815127 -0.088769935 -0.091124415 0.0076947375 -0.17826486 0.13613364 -0.017901704
0.02819011 0.028093992 0.028717626 0.08313939 0.028084125 -0.058192573 0.0053209886 0.10381459
0.2080382 -0.008568301 -0.07617403 0.07518588 -0.12246899 -0.043961436 0.052513395 0.17424467

actor.2.weight f4 [128, 256]
00000000: d66e 8e3e 17b8 a8be 7631 e8bd 1ce3 09bf
00000010: 0033 94b9 6dcb 43bd 47ab c33e 4bbe 423e
00000020: 9108 e73d 04cc 703d 332c b2bd f4c7 4dbd
00000030: 8c15 98bd f6d2 903e 1aee 6ebe 669d 903d
00000040: 18af 6b3d f5a4 19bd bb32 d8be 931a 20be
00000050: ea53 d7bd 5d6d ca3d 8437 74be 4c6a 173e
00000060: b73f a8bd 5271 5b3e e926 22be 4003 50be
00000070: 9130 993d 64a5 5a3d 6a91 75bd 9131 b2be
00000080: 2329 8dbd 6426 6abe 4e3c 16be 8b83 633e
00000090: 2f9f da3d 1255 c3be ff1a 74be 1d08 5ebd
000000a0: e2fe 023e ec16 a8be 5811 5abd 47ac 1fbe
000000b0: 4865 8e3d f01c f1bd a831 c63d 8900 aa3d
000000c0: 3fe7 763e d59b 3ebe 0960 45be 9e4a 0dbe
000000d0: fa91 89bd 6a93 c0be bc89 9dbe 08e0 74bd
000000e0: 47f2 163e fd52 9b3e b431 d03d e78f 8dbe
000000f0: 76d7 8dbd 9bb5 c63b b38c 6f3e 7888 a93c
00000100: 2469 9fbd 9e61 153e 0609 a1bc ba2b 8cbd
00000110: 3c66 733e 8df1 77be 7b3c 06be 8a9d cd3d
00000120: 1c6a 41bc b4e2 aabd 464c 4bbe 194e d83d
00000130: 0c45 2dbd 5ee3 043f 0031 a9bd 12c0 e1bd
00000140: 036a 07be 7539 623c 9f39 85be 6dc1 d3bd
00000150: 3a61 ddbc 35eb 663e 35b4 4bbe 5170 50bd
00000160: 0127 39bd 5df7 f6bd 4285 edbc 56a5 82bc
00000170: 245e 9a3c 583d 2dbf 8357 933e df6b 183e
00000180: ce41 c3bd 29cf dfbe 1114 72bd 8dc2 31bd
00000190: b60c 453e 1257 9bbe f898 e23d 4f0d 34be
000001a0: ca25 903c 2a77 013e 1709 5ebd b034 31bc
000001b0: 8c58 d03d 547c 5c3e 46c1 1c3e 1d4a 0c3e
000001c0: 6f7f 2c3d 749b b33d c848 95bd 59ae 1a3d
000001d0: cbde 87be 8cb2 a03d 2491 9c3b 1959 e33d
000001e0: 0b4e 043e f862 743e ca5e 8a3c 4eef 93bd
000001f0: daff 1fbd 998c fc3d 93f3 453e 109e 073e
00000200: 2f4b 6d3c 3e9e afbe 73ea 7dbb 1400 0dbe
00000210: 1914 06be 2523 02be 320f 83bf 41c5 213c
00000220: c7e6 c83e 3580 4e3d 5c5d dc3d 54aa d9bc
00000230: d427 c5be 8cef fabd c1e6 883e 2860 a43d
00000240: 4a1b 513d 5147 6b3e 7e77 81bd ace2 e1bd
00000250: e9be 93be c919 afbd bc8d 0fbd 5608 f8be
00000260: 58d6 a8bd 106d 9d3d 872a 8e3e 001b 99be
00000270: ca8d 963e d835 a3bc ba2a e83d 2f1b 103d
00000280: 3c1e 12bc 4bd6 403c 2f89 2dbe 5238 b63d
00000290: 26e6 533e d374 b2bb 27de 1d3e 36a8 f23d
000002a0: bc03 47bd 4fea 05bf 1331 10be 1a7c 0b3e
000002b0: e41f c9be e210 1e3e 75f5 c8be 8f61 4e3e
000002c0: 8702 9fbd ea90 b2bd b4ec e13d d142 00be
000002d0: 7104 26be 5c57 173d 2c61 0c3e 759d a03c
000002e0: 459f b9bd 5c5e b23c ce3f cabe 7c2d 2b3d
000002f0: a3ec 0fbd ec70 7c3e 3220 443e 750e 863e
00000300: 085b 6dbd 3b4b d93d c49e 7c3e 290d 84be
00000310: 8d58 183c 82e2 aabe 516c 11bf 6ff8 a6bd
00000320: d611 37bc 02bb 3dbf 9b18 9cbc a186 f73b
00000330: 7e38 66be bcdf 26be 920f 68be c443 35be
00000340: f2b1 a93d 6ed6 d1bd 753c efbd 4c0a 96be
00000350: 9435 283e e99b a5bd 0f52 e83c 579c c23d
00000360: e8b4 56bd 0d06 363e 8b09 2ebd 6d3e 923e
00000370: 98e1 dfbd 700f 233e b375 8c3d 48a0 51be
00000380: c040 12bf 572c 69bd 76c9 19be db35 3c3e
00000390: 719d 203e 174d 4d3d 2363 293e e453 1e3e
000003a0: a9e0 f43e bc61 d8bd d9d2 973d 4e0e fdbd
000003b0: 8a2d 83bd c1b8 1cbe 6ac6 323e 8276 9ebd
000003c0: 2858 273d 18ed 02bf 8783 15be 7e96 07be
000003d0: e6bc 15be 8f84 1ebe 2f82 40be 5214 103e
000003e0: 8f01 8ebe b114 623e 249b b7bd c8ab b6bd
000003f0: 8360 013c 7562 5d3d c058 2fbe a6ce 16be
0.27818936 -0.3295295 -0.11337559 -0.53862166 -0.00028266758 -0.047801424 0.38216612 0.19017904
0.11280931 0.058788314 -0.086998366 -0.05023952 -0.07425985 0.2828595 -0.23333016 0.07061271
0.05754003 -0.03751083 -0.42226204 -0.15635137 -0.10514052 0.09884141 -0.23849303 0.14786643
-0.08215278 0.21429947 -0.15835156 -0.2031374 0.074799664 0.053380385 -0.05995313 -0.3480344
-0.06892612 -0.22866207 -0.14671442 0.22218148 0.10674893 -0.3815084 -0.23838423 -0.054206956
0.12792543 -0.32829988 -0.053239197 -0.15593062 0.069529116 -0.117730975 0.0967744 0.08300883
0.24111651 -0.18614133 -0.19274916 -0.13797995 -0.06717296 -0.37612468 -0.30769145 -0.059783965
0.14740859 0.30336753 0.1016573 -0.2764885 -0.069258615 0.0060641295 0.23393516 0.020694956
-0.07783726 0.14588019 -0.019657623 -0.06844278 0.23769468 -0.24213238 -0.13109009 0.10039814
-0.011805084 -0.083440214 -0.19853315 0.10561771 -0.042302176 0.51909435 -0.08261299 -0.11022963
-0.13224034 0.013807644 -0.26020524 -0.103396274 -0.0270239 0.22550662 -0.19892962 -0.050888363
-0.045203213 -0.120588996 -0.028994206 -0.015947979 0.018843718 -0.6767173 0.28777704 0.148849
-0.095340356 -0.43712738 -0.059101168 -0.04339843 0.1924313 -0.30339867 0.11064333 -0.17583202
0.017596144 0.12643114 -0.054207888 -0.010815784 0.10173139 0.21531802 0.15308103 0.13700147
0.042113718 0.08769885 -0.072892725 0.037763927 -0.26537165 0.07846555 0.0047780443 0.111009784
0.12920396 0.23865879 0.016890902 -0.07223378 -0.03906236 0.123315044 0.19331197 0.1324389
0.014483257 -0.34300417 -0.003874448 -0.13769561 -0.13093604 -0.12708719 -1.0239012 0.009873689
0.3923857 0.050415237 0.107599944 -0.026570477 -0.3850695 -0.12252721 0.2673855 0.08026153
0.051051416 0.22976424 -0.063216195 -0.11029562 -0.2885659 -0.0854984 -0.035047278 -0.4844386
-0.08244008 0.07686818 0.2776682 -0.29903412 0.2940505 -0.019923136 0.113362744 0.035182174
-0.008918341 0.011769841 -0.16946863 0.08897461 0.20693263 -0.0054460554 0.15416776 0.1184849
-0.048587546 -0.5231065 -0.1408122 0.1362156 -0.39282143 0.15436128 -0.3924977 0.20154403
-0.07764154 -0.087190464 0.11031476 -0.12525488 -0.16212632 0.036948547 0.13708943 0.019606331
-0.090635814 0.02177351 -0.39501804 0.041791424 -0.035137784 0.24652451 0.19152907 0.26182905
-0.057948142 0.10610052 0.2466994 -0.2579129 0.009298456 -0.33375937 -0.568059 -0.08152854
-0.011173686 -0.74113476 -0.019054702 0.007553891 -0.22482488 -0.16296285 -0.2266219 -0.17701632
0.082858935 -0.10245977 -0.11681453 -0.2930473 0.16426688 -0.08086378 0.028359441 0.09502476
-0.05241862 0.17775746 -0.04248957 0.28563252 -0.109317005 0.15923858 0.06858387 -0.20471299
-0.5713005 -0.05692705 -0.15018257 0.18379919 0.15685059 0.050122347 0.16541724 0.15461689
0.47827652 -0.10565516 0.07413263 -0.12356244 -0.0640517 -0.15304853 0.17458501 -0.07737447
0.040855557 -0.51143026 -0.14600955 -0.13241002 -0.1462284 -0.15480255 -0.18799661 0.14070252
-0.27735564 0.22078206 -0.089651376 -0.089194834 0.007896545 0.054048974 -0.17123699 -0.14727268

actor.2.bias f4 [128]
00000000: ed19 2f3d 17e6 d8bd 04c6 4abd 7b8c 203b
00000010: e3d8 d1bc 2231 eebd 54e4 79bd f081 bbbd
00000020: 5a6f 0fbe 005e e63d b235 7abc 1542 a7bd
00000030: e7a6 923d c3da b4bd 29ee 9b3d cf54 a43d
00000040: 7d57 963d ad37 be3d b52f 3fbd 3c29 f03d
00000050: 460e ea3c c039 ad3d 18a5 073c 00b4 d8bd
00000060: fc89 883c 6fee 42bd e15f 0b3e 98aa 99bd
00000070: c729 35bd 646d 6b3c 20e4 78bd a3ce 89bd
00000080: 1613 533d 4c06 ebbc 1010 6e3c 7bf1 e7bd
00000090: a984 9cbd 00da bfbd ab8d 653c f2c7 01bd
000000a0: 6ebf 883d 2ccb b13d 26e9 a9bd 10a9 a5bb
000000b0: 8284 383d ee3d 183d b55a f43d 46bd 533e
000000c0: 9f76 7cbd 01c9 db3d 1d6a 0dbd 9d1e 6dbd
000000d0: fd3a c7bd dd11 cf3c 20e5 dabc 17a4 c73d
000000e0: 60c4 6abc f122 713d 07d1 7bbd be89 b53d
000000f0: 9bcd d4bd c2f2 303d f129 9cbc 112a 033d
00000100: b089 b2bd e0ef f63c ea66 febd c72e a0bd
00000110: 17be a23c cf54 06bd 8904 1f3e b071 6fbd
00000120: 2fc9 8f3d 1f6e 6ebd dc25 b13d 52fa 463e
00000130: 43c1 34bc c2c2 afbd b7c3 c93c 482f 503d
00000140: 1557 083e d5c4 34bd d268 80bd 284b 15bc
00000150: 33b4 bebb 705f 8f3d e797 07bd 39f5 393d
00000160: caca f43d cd12 eebd 6e6a c5bd 69bf ecbd
00000170: 4fb5 a03d 466f 333c 867d 1a3e 3b32 e93d
00000180: cb83 393d 7008 5fbc 669b 05be c876 87bc
00000190: 2fe6 553e 2b55 2b3d 94fd 7a3d 13d0 29bd
000001a0: e8e3 023e c50d f33d 8040 1b3c 5583 59bd
000001b0: cf15 733d 398e 503d 4a9c 8a3c f771 06bd
000001c0: fd97 38bd d60c b4bd 930b d13c 9bb6 9bbd
000001d0: 15a4 d03d b151 613e 82d4 dbbd 59b7 1dbe
000001e0: 856a 033e 7d02 413d 552c 5b3d 7f54 00bd
000001f0: f4ab 083e c020 21be 10c5 e2bc 71ba 953e
0.042749334 -0.10590761 -0.04950525 0.0024497795 -0.025616115 -0.11630465 -0.061008766 -0.09155643
-0.14007321 0.11248398 -0.015271591 -0.08166901 0.0716074 -0.08830788 0.07613785 0.080239885
0.07340906 0.09287963 -0.046676356 0.11726615 0.02857126 0.084582806 0.0082791075 -0.10581207
0.016667359 -0.04759067 0.13610794 -0.07503241 -0.044229295 0.0143693425 -0.060764432 -0.06728866
0.051531874 -0.028689526 0.014530197 -0.113253556 -0.076424904 -0.09367752 0.014010827 -0.031684823
0.06677137 0.0868133 -0.08296423 -0.005055554 0.045048244 0.037168436 0.119313635 0.20677671
-0.061636563 0.10731698 -0.034525026 -0.057890523 -0.09728048 0.025277073 -0.026720583 0.097480945
-0.014329046 0.058871213 -0.06147864 0.08864163 -0.10390779 0.043200262 -0.019062968 0.03202254
-0.08717668 0.030143678 -0.12421973 -0.07821422 0.019866033 -0.032795724 0.15529074 -0.05845803
0.070207946 -0.05821049 0.08649799 0.19431427 -0.011032405 -0.08582069 0.024629457 0.05082634
0.13314469 -0.044133026 -0.06269993 -0.009112157 -0.0058198213 0.07000625 -0.03310385 0.04539988
0.119527414 -0.1162468 -0.096394405 -0.11559946 0.07847082 0.010951823 0.15086946 0.11386534
0.045291703 -0.0136128515 -0.13047561 -0.016536132 0.2088859 0.04182927 0.061276987 -0.0414582
0.12782252 0.11867861 0.009475827 -0.053103764 0.05934697 0.050916884 0.016920228 -0.03282353
-0.045066822 -0.08791511 0.025518214 -0.076031886 0.10187546 0.22003819 -0.10733892 -0.15401973
0.12833603 0.047121514 0.053509075 -0.03133058 0.13346845 -0.1573515 -0.027681857 0.29243806
