CRL/模型集_opponent/train_20260124-152719/evolution_v2.pth (torch, 370495 bytes, 11 tensors)

critic.0.weight f4 [256, 48]
000000 8c 90 44 be c2 71 36 bd 3d 03 90 3c c9 75 4f 3c
       -0.19195765 -0.04454208 0.01757967 0.0126623595
000010 8a fc 27 bd 2f 5c af bd c7 30 e6 3c 86 22 19 3d
       -0.041012324 -0.085625045 0.02809943 0.03738644
000020 c0 f1 9f be 52 23 24 bd 26 35 56 be 2a 9a b4 3d
       -0.31239128 -0.040072747 -0.20918712 0.08818467
000030 fa 33 5f be ce 6e 28 bd 1d bf 9d 3c 4b 80 cf bb
       -0.21797171 -0.041121297 0.019256169 -0.0063324324
000040 0e 15 d0 bd e3 8f f6 bd 8e f9 d2 3c 78 79 1f 3d
       -0.10160266 -0.12039163 0.025753763 0.0389342
000050 35 45 19 be d2 e9 59 bd 0e b1 56 be 0f 8e 1b be
       -0.14967807 -0.053201504 -0.20965979 -0.1519091
000060 75 79 58 bb dc 60 92 3c f0 25 ec 3c 11 6b 35 3d
       -0.0033031378 0.017868452 0.028826684 0.04429156
000070 44 3d 85 3d 5f ec ef bd 32 3c f4 3c 97 78 15 3d
       0.06505826 -0.11715006 0.02981386 0.036491957
000080 4f 06 2e bd 77 19 11 3d c6 33 1b be 9d f6 3f be
       -0.042486485 0.035424676 -0.15156469 -0.18746419
000090 10 69 12 be 4b 94 b2 3d 23 c7 11 3d 9d f2 c3 bc
       -0.1429789 0.08719691 0.035590302 -0.023919398
0000a0 49 4c 0b 3e 57 f2 28 be 2d f0 11 3d 60 ec 8f bc
       0.13603319 -0.16498695 0.03562944 -0.017568767
0000b0 ee b6 1a bd d7 13 c7 3d bb a0 9b 3e ad 0d 87 bd
       -0.03777211 0.09720581 0.30396065 -0.06594405
0000c0 e8 3c fa 3d 8f 43 02 be 28 75 ad bd 40 3a e1 3d
       0.12218648 -0.12721084 -0.084696114 0.109974384
0000d0 b7 ca 04 3d fa e0 b5 bd 2a 20 4c 3d 66 33 d5 bc
       0.032419886 -0.088808015 0.04983536 -0.026025485
0000e0 32 df 54 bd 43 9d 27 be 3b 5a 2c bd 9d be 3b 3c
       -0.051970668 -0.16368584 -0.042078238 0.01145902
0000f0 7f 74 00 3e 48 6c 22 be 84 2e e3 bd fb c7 81 3d
       0.1254444 -0.15861619 -0.110928565 0.06336971
000100 4a ef 3d 3e 2b d0 de bd 7b 83 88 3d 16 f3 6d 3d
       0.18548313 -0.10879549 0.06665703 0.058093153
000110 64 61 fe bc 38 57 3d 3d 3c cc ae bd 81 5a d3 3d
       -0.031052299 0.046225756 -0.08535048 0.103199966
000120 ec 93 16 3e f4 2c aa bd 1c 6b 06 be 2b 4a 1e 3d
       0.14704865 -0.083093554 -0.13126796 0.03864495
000130 87 88 45 bd 24 d7 ef bd 08 17 bb 3d 64 47 35 3d
       -0.048225906 -0.11710957 0.09135252 0.044257537
000140 c0 a8 33 3e 90 d8 0e 3e c7 95 bf 3c 3f 8a d8 3d
       0.17544842 0.139498 0.02338685 0.10573243
000150 ff e9 3f 3d 5d 0f 70 3d 69 30 03 be 35 4e 01 3e
       0.046854015 0.0586084 -0.12811436 0.1262749
000160 fa e1 77 bd 79 ab 7f bd bf 62 be 3d a2 04 bc bc
       -0.060518242 -0.06241939 0.09296178 -0.022951428
000170 4a c7 99 3d d9 f1 a8 3e b3 47 aa bd 84 79 f2 3e
       0.075087145 0.32997015 -0.08314457 0.47358334
000180 6a a7 64 3e 1e a6 d0 3d 0d 41 97 bc 10 a2 2a bd
       0.22329488 0.10187934 -0.018463636 -0.04165846
000190 4a f5 95 bd 49 e7 1c 3c 6b 15 85 bc 93 93 d2 bc
       -0.07322176 0.009576627 -0.016245564 -0.025705134
0001a0 ea 79 81 bd 51 33 d5 be 1e 16 ae 3e 39 be 1a 3e
       -0.063220814 -0.41640714 0.3400125 0.15111627
0001b0 4c cf e8 3d 3c f2 8c 3d 27 bb 3b bc b5 51 14 bd
       0.11367664 0.0688214 -0.011458195 -0.036210734
0001c0 d5 79 58 be 34 9f 2f 3d 94 68 99 bc 98 d3 a1 3d
       -0.21140225 0.042876437 -0.018726625 0.079016864
0001d0 8a 26 38 3e 8a c5 5e be 1e c4 d1 3d e3 95 95 bd
       0.17983451 -0.21755043 0.102424845 -0.07303979
0001e0 7e 87 8a 3d d0 2d 54 3e 93 7b ac bc 8c 47 3d bd
       0.06764124 0.20720601 -0.021055019 -0.04621081
0001f0 8e 0f 51 bd 55 ff 24 bd 07 95 c9 bc 18 d7 ce bc
       -0.051040225 -0.040282566 -0.024607195 -0.025249049
000200 18 aa a0 3d 38 63 f3 bc e5 1b 13 bd 61 6f fe bd
       0.07844943 -0.029710397 -0.035915274 -0.124235876
000210 ac b3 66 3e 37 52 92 bd cd 5e 60 bc 05 5d a5 bd
       0.22529477 -0.071445875 -0.013694477 -0.08074383
000220 d0 5e 31 be 4a 99 e4 bd 5f 60 b8 bc bf cc 63 be
       -0.17321324 -0.1116205 -0.02250689 -0.22246073
000230 ff b3 62 3e 93 cf 87 3d d2 d0 18 be 3a d0 26 3d
       0.22138976 0.066313885 -0.14923409 0.040725924
000240 f5 e0 97 3e 0e 68 b7 be a7 eb d4 3b 4f 39 9f 3c
       0.29663816 -0.35821575 0.0064978185 0.019436507
000250 98 27 d2 bc 7c 2f 25 3e c1 91 01 bd 23 6a a6 bc
       -0.025653645 0.16131395 -0.031633142 -0.020314282
000260 c4 7b 9a bd 65 32 25 bf c6 3a aa bd ba 34 f0 3c
       -0.07543138 -0.6453002 -0.083119914 0.029322017
000270 8a d1 24 3e d0 08 b8 be e6 63 24 3c 91 a4 a6 ba
       0.16095558 -0.35944223 0.010033583 -0.001271384
000280 7a 1e e0 bd e2 84 6c 3e ef 89 47 bd da e7 28 bc
       -0.10943313 0.23097566 -0.048715528 -0.010309184
000290 cd f5 11 3e 46 c5 18 bf e4 bc 6d ba d0 cf a6 3e
       0.14253922 -0.59676015 -0.00090689794 0.32580423
0002a0 3a b5 c8 3d cd 1c 82 be 15 7a b0 3b 25 0a b0 bd
       0.09800191 -0.25412598 0.005385647 -0.08595685
0002b0 53 49 16 3d a1 f6 98 3d 9a 0a 8d bd 4f ee f1 ba
       0.03669102 0.07468916 -0.06886788 -0.0018457862
0002c0 80 61 17 bd 59 3e c5 be 6a 84 5d bd 43 ab 8c 3e
       -0.036958218 -0.3852413 -0.054081358 0.27474412
0002d0 22 7a 87 3e f4 0b 3b be d5 70 70 bc 94 73 70 3d
       0.26460367 -0.18266279 -0.014675339 0.058703974
0002e0 d7 0e f5 3b 0a 94 2a 3e ca 31 9c bd b2 8e 17 bd
       0.0074785757 0.16658035 -0.07626684 -0.03700132
0002f0 c3 01 72 3e a4 e8 08 be dc e2 06 3e 36 74 9e 3d
       0.23633485 -0.13369995 0.13172477 0.07737009
000300 8c b2 a2 3d 71 17 cb 3b c5 8f 8a 3b 6c 08 40 bc
       0.07944211 0.006197863 0.0042285644 -0.011720758
000310 6f 1a d1 3e 5d f5 f6 bb c3 c7 85 3b 62 2e cb b9
       0.4084048 -0.007536574 0.0040826513 -0.00038753735
000320 2f 71 0a 3e f7 a2 25 be b3 b4 a6 3c f9 d5 4d bd
       0.13519739 -0.16175447 0.020349836 -0.05025289
000330 7a 69 f3 bd dc bf 81 3b 81 59 f4 3b 2a 12 67 bb
       -0.118853524 0.003959639 0.0074569588 -0.003525863
000340 4f 4b cf 3e 48 c5 6d bc 60 90 17 3c 2e 7b 03 bc
       0.40487143 -0.014512368 0.00925073 -0.008024974
000350 22 98 90 3d 32 f5 9d 3b 36 3c aa 3e b4 10 c1 3d
       0.07060267 0.0048204893 0.33249062 0.09427014
000360 50 f9 ed bd 57 3d ff 3c f4 9d 30 3c 7b 4a 64 3c
       -0.11619818 0.031157179 0.010779846 0.013933773
000370 3d 5c 9a 3e 87 97 5b bc cb 8f 69 3c 44 1b 55 3c
       0.30148497 -0.013402826 0.014255474 0.013006989
000380 a6 2d 52 3e 33 ad be bc 7c cd 02 3f c6 65 d6 3d
       0.20525226 -0.023275947 0.51094794 0.104686305
000390 e5 49 f5 3d bb 04 4e bc 4e d3 c2 3b d4 6e 04 bc
       0.11976985 -0.01257437 0.0059455996 -0.008083064
0003a0 4a c8 8c 3e da f3 14 3e 27 3f 95 3c 1c 4b 11 bd
       0.27496558 0.14546147 0.01821859 -0.03547202
0003b0 3c 3b d8 3d 7b a2 ca bd f7 76 39 3f 24 07 56 bd
       0.10558173 -0.09894272 0.7244715 -0.052252904
0003c0 f6 07 6d bc b4 1c 9d bc d1 ce 1a bd 43 cf 60 bd
       -0.01446723 -0.019178726 -0.03779489 -0.05488516
0003d0 2c c2 47 3d 26 bb 8e bd 8c d7 84 bb 31 9b bb bc
       0.04876916 -0.069692895 -0.0040540155 -0.02290115
0003e0 19 5c 9e 3c c9 53 08 3e ff 85 ad 3d af e0 49 bd
       0.019331025 0.13313212 0.08472823 -0.04928654
0003f0 19 6d 8f bd 71 1c 06 bb 6f 2e 60 bd 22 15 ec bc
       -0.070032306 -0.002046373 -0.054731783 -0.02881867

critic.0.bias f4 [256]
000000 b9 be 54 3e f6 bc b5 3e 92 8f e6 3c 66 24 6e 3d
       0.2077588 0.35495728 0.028144632 0.05814018
000010 fc a9 31 bd 74 db 5a be 27 c8 52 3d 01 8d 85 bd
       -0.043375 -0.21372777 0.05146041 -0.06521035
000020 6f 1b b2 bc 65 74 2f be 41 cb 1d 3e 03 fc a0 3e
       -0.021741597 -0.17134245 0.15409566 0.3144227
000030 ff f0 1f 3f 45 ec 26 3f 9d b0 e9 3d 0f 8d 7b be
       0.62477106 0.6520427 0.114106394 -0.24565528
000040 88 47 21 be c5 46 e5 3e cf 1a 59 bc c6 79 83 3b
       -0.15749943 0.44780555 -0.013251021 0.0040123193
000050 b5 6c df be 0d 09 4d be e1 ad f2 bd e1 15 34 3e
       -0.43637624 -0.20022984 -0.11849571 0.17586471
000060 48 3f ca 3d 93 14 cb 3e 09 4b de bd ab c6 80 3e
       0.09875351 0.39664134 -0.108541556 0.25151572
000070 57 71 f2 3c 65 86 bd bd 0c dc 8d 3e 3e 24 9e bd
       0.02959506 -0.09254149 0.27706945 -0.077217564
000080 a3 b9 90 be fd e4 a0 3e 0f 0d ad 3c ff dd 44 bf
       -0.2826663 0.31424704 0.02112439 -0.7690124
000090 7e 23 72 3e f2 89 ca 3e 44 1d 04 3f 40 b8 ee be
       0.23646352 0.3955837 0.51607156 -0.46624947
0000a0 e6 ef aa 3e 1a ec 2d be af ec 21 be fc 76 08 3f
       0.33386153 -0.16984597 -0.15812944 0.53306556
0000b0 87 18 6b be f3 91 81 3e 56 e6 aa 3e 4a b3 6d be
       -0.22958575 0.25306663 0.33378857 -0.23212925
0000c0 00 b4 09 bd 7d 03 5b 3e cf 86 10 bf 07 d2 33 3d
       -0.033618927 0.2138805 -0.564557 0.04390147
0000d0 ac 20 0e bf fa 79 1c bf 19 07 ea 3e 7b cc 74 be
       -0.55518603 -0.6112362 0.4570854 -0.23906128
0000e0 76 a9 b8 3d f7 28 02 bf 8e d7 44 bf dd 4b 14 bd
       0.09016697 -0.5084376 -0.7689141 -0.03620516
0000f0 91 c9 73 be 4b 01 a5 3d e8 8f 6f be 34 79 2b bf
       -0.2380736 0.08056887 -0.2339474 -0.66981816
000100 61 bc 75 3c 3a 8e a1 be c4 53 df bd 09 50 bf be
       0.014998526 -0.31553823 -0.10904649 -0.3736575
000110 9f 34 d1 3e 33 18 3d 3e c2 1f 07 3e e2 6e bb 3c
       0.4086046 0.18466263 0.13195708 0.022880021
000120 73 a2 c7 3d da b1 26 be c4 dd 9d bd 3a 0e 33 3e
       0.097477816 -0.16278782 -0.07708314 0.17485896
000130 4d 43 56 bf 3d 89 89 3e 1d 68 7e be a3 78 cf be
       -0.8369644 0.26862517 -0.24844404 -0.40521726
000140 1e 37 ca be ed 21 0f be 90 a6 92 3d bc 9a 96 be
       -0.39495176 -0.13977785 0.071606755 -0.29414928
000150 66 8d 1b 3e 4f 7e a3 be 5e 44 10 be 62 1b 0c be
       0.15190658 -0.31932303 -0.1408858 -0.1368232
000160 09 72 69 be 93 e8 08 3e 13 c5 c8 3e 41 59 c7 3e
       -0.22797407 0.1336997 0.39212856 0.38935283
000170 f2 bf 69 bd cc ca d5 3d 79 57 a5 be ae 1a 12 be
       -0.05706782 0.10439071 -0.322933 -0.1426799
000180 d7 6a ef bd 88 fa 89 3d ce 99 6b 3e 2b 15 6f 3e
       -0.116903 0.06737238 0.2300789 0.23347919
000190 c2 90 23 3e b3 dd 5d be 7b 2d 3d 3e 48 aa 03 be
       0.1597319 -0.21666603 0.1847438 -0.12857926
0001a0 8d 12 7b 3b 78 f1 6a be ef 73 d7 3d ea 0c 09 3e
       0.0038310618 -0.22943676 0.105201595 0.13383833
0001b0 99 d6 32 bd c9 c5 c4 bd d0 82 04 bf 46 6a 9b be
       -0.043661688 -0.09608037 -0.51762104 -0.30354518
0001c0 c0 aa 0c bd 8d c1 95 be aa e0 ec bc 8e 37 18 3e
       -0.034342527 -0.2924923 -0.028915722 0.14864942
0001d0 b8 01 98 be 49 7f ca be b4 48 76 3d 02 d3 d2 3c
       -0.2968881 -0.39550236 0.06012793 0.025735382
0001e0 26 44 47 3e 12 c2 bd 3c 4f 09 ea 3d 25 0f 06 3e
       0.1945959 0.023163829 0.11427557 0.13091715
0001f0 3c 6f 47 3e e1 b3 36 bd 78 5a 8c be 1d 5a 2f be
       0.19476026 -0.04460514 -0.27412772 -0.17124219
000200 6d 9b 5f 3e da 76 83 3e e1 08 08 be bb 94 a4 3e
       0.21836634 0.25676614 -0.13284637 0.32144722
000210 f4 2a 60 bd 28 6b af bc 2d a5 74 3d 91 e5 86 bc
       -0.054728463 -0.0214134 0.059727836 -0.016466888
000220 d0 b8 9c 3d 1e 3d 5b bd 2d 79 1b 3f 4c fe b7 be
       0.07652438 -0.053525083 0.60731775 -0.359362
000230 2e 28 15 be c5 84 97 bf 45 19 40 bd 8b 1b d1 3d
       -0.14566109 -1.1837393 -0.0468991 0.102103315
000240 7a 73 57 3e c9 13 e8 3e 46 0e 7b be 77 95 49 bd
       0.21040145 0.45327595 -0.24517164 -0.049214806
000250 29 87 13 3f 58 0e 93 be d1 81 46 be 2d 3f 5a 3d
       0.57628113 -0.2872188 -0.19385459 0.053282905
000260 f2 ed 84 3d 56 a7 7d 3e 53 bc 49 be af 90 93 3d
       0.06490697 0.24770865 -0.19700746 0.072053306
000270 98 fa d2 3d 7d b8 fb bd d6 7f 56 be b6 2b a0 bd
       0.10301703 -0.12291048 -0.20947203 -0.07820837
000280 c5 83 cd bd e2 92 89 3e a7 51 c0 3e 90 02 47 be
       -0.10034899 0.26869875 0.37562296 -0.19434571
000290 d8 81 39 be 5e b6 a3 be 95 9a c0 be 77 80 37 be
       -0.18115938 -0.31975073 -0.37617937 -0.17920099
0002a0 bf 88 c5 be 6e de 88 3e 03 88 8b 3e 14 bd c8 bd
       -0.3858089 0.267322 0.27252206 -0.09801689
0002b0 97 b2 eb be 42 76 f7 3d 9c ca e0 3e 8d c7 6c 3e
       -0.4603469 0.12083103 0.4390458 0.23122998
0002c0 f4 a1 9d 3e fc cf fc bc 22 95 df 3d 1a e6 65 bd
       0.30787623 -0.030860893 0.10917117 -0.056127645
0002d0 0c f0 c4 3c cd 46 ef be 35 63 1f be 5a ba 9f 3e
       0.024040245 -0.46733704 -0.15565188 0.31196862
0002e0 2a 3d ff 3e bc ab 62 3d a2 5f 3d be 19 0d 7d 3d
       0.49851352 0.05533956 -0.18493512 0.06178007
0002f0 5a 08 8d 3e 11 db d9 3e 8c b2 e0 3e 4b e3 9c 3e
       0.27545434 0.42549947 0.4388622 0.3064216
000300 2d 1f 89 be 2a 65 7c 3e b9 7f eb bc e6 61 ea bd
       -0.26781598 0.24647966 -0.028747426 -0.11444454
000310 18 09 15 3d 3c b5 21 be 17 f2 1b 3d d0 b2 bb 3d
       0.036385626 -0.15791792 0.03807267 0.09164965
000320 8c 19 88 3d ae 5f e9 be b4 41 09 bf e2 fc 28 be
       0.06645498 -0.4558081 -0.5361588 -0.16502717
000330 95 8f ee bd a9 8b 3e be 78 85 fd bd 26 9b 84 3d
       -0.1164848 -0.18607964 -0.12378973 0.06474905
000340 a3 80 b2 3e c9 87 8d 3d 28 3b fe 3d 1a 4e 82 3e
       0.34863767 0.069106646 0.12413627 0.25450212
000350 bb b4 45 bd 07 1c c9 3d 9c c4 a7 bd 36 d0 2d 3e
       -0.04826806 0.09819799 -0.08191797 0.16973957
000360 f0 7b 3d be f1 e4 d7 3e 59 7c 9c 3d 52 cd 8b be
       -0.1850431 0.42166856 0.07640905 -0.27305084
000370 05 2a b5 bd 4f 55 ce 3b a0 20 10 3c 32 2a 92 3e
       -0.08845905 0.0062967907 0.008796841 0.28547817
000380 68 6b 33 be 35 27 e0 bd dd d0 1f bf 39 84 53 be
       -0.17521441 -0.10944978 -0.62428075 -0.20655908
000390 f4 95 ac 3c 03 fc 2b bf 24 fc 9d 3e 04 05 41 bd
       0.021067597 -0.67181414 0.3085643 -0.047123924
0003a0 c7 96 10 bf 9b 32 0b bd e7 ba 10 be 87 a4 d0 be
       -0.5648007 -0.033983808 -0.14133798 -0.40750524
0003b0 b5 70 52 bc 84 e4 9d 3e 3f cd 63 3e a6 c8 4f 3e
       -0.012844254 0.30838406 0.22246264 0.20291385
0003c0 66 71 29 bd f6 f0 f7 be f2 5d 5a 3d 92 c6 28 be
       -0.04136791 -0.48426026 0.05331225 -0.16481999
0003d0 95 81 39 bf e0 e2 80 3e 56 24 3b 3e 1f 86 d9 be
       -0.7246335 0.25173092 0.1827558 -0.4248514
0003e0 31 16 1b 3f fd 3f d6 be 1a 2c 2e be 55 80 7d be
       0.60580736 -0.41845694 -0.17009011 -0.24755986
0003f0 a9 b3 09 3e f2 0e 87 3e bb 9a 49 3c 96 78 f6 3e
       0.13447441 0.2637859 0.012304957 0.48138875

critic.2.weight f4 [128, 256]
000000 93 c5 11 bd c4 62 3f bd 54 87 3b 3c 5b 67 dd 3d
       -0.035588812 -0.04672505 0.011445839 0.10810729
000010 38 98 aa 3c 58 a4 ca bd 71 f7 7b bd 7e 0a 18 bd
       0.020824537 -0.09894627 -0.061515275 -0.03711938
000020 f3 c6 10 bc 1d d7 50 3b 45 1f bd 3e 5b 88 bc 3d
       -0.008836496 0.0031866499 0.3693792 0.09205695
000030 ed 77 dd 3b 88 ab 39 3d 00 0a 83 bc 69 10 3b 3b
       0.006758681 0.0453296 -0.01599598 0.0028543717
000040 8c d2 7c 3d 9f ea c8 bd 1f 9f 8c bd 66 86 94 3d
       0.06172423 -0.098103754 -0.068662874 0.07252197
000050 cd c2 77 bd aa 76 11 be bd b7 1e 3e c9 af 8e 3c
       -0.06048851 -0.14205423 0.15499778 0.017417805
000060 7a 6a 08 3b 0c b2 65 3e b3 7e a8 3d b3 15 41 bd
       0.0020815418 0.224312 0.08227291 -0.047139835
000070 ce 62 a0 3d fe 95 eb bc 58 60 e0 3b 81 77 82 be
       0.078313455 -0.028758045 0.0068474226 -0.254818
000080 30 b6 1e 3d 5b ae 6e 3d f4 3f 5f bd 67 56 b0 be
       0.038747966 0.058271747 -0.05450435 -0.3444092
000090 c1 8d 95 bd 64 35 b9 bd 51 98 80 bc e5 40 90 bd
       -0.07302428 -0.090433866 -0.01569763 -0.07043628
0000a0 52 b5 07 3d f3 85 65 3b fa 09 3f 3d 35 61 9d bd
       0.033131905 0.0035022467 0.046640374 -0.076845564
0000b0 46 af d2 bf 1b 7c 09 bb 1d 09 17 bd 0e 91 00 3c
       -1.6459739 -0.0020978514 -0.036873925 0.007847084
0000c0 d9 0d 5f 3a 01 71 3f be 2a ec eb bd 59 db be bd
       0.00085088384 -0.18695451 -0.11519654 -0.09319181
0000d0 68 da 8c 3c b8 9a a4 3d c0 47 bf 3c bf 4d bb 3d
       0.017193988 0.08037323 0.023349643 0.09145688
0000e0 f7 a9 6e bd 8e fd 2b 3d fb a2 db bd 8c 3c 62 c0
       -0.05826756 0.041989855 -0.107244454 -3.5349455
0000f0 7e e4 27 bd 06 d8 95 3d a8 65 66 3e 36 7d b0 c0
       -0.04098939 0.07316594 0.22499716 -5.5152845
000100 cc 26 ed 3d fd 1c 2a bd f5 eb 5c 3c 84 47 92 be
       0.115796655 -0.04153155 0.013483991 -0.28570187
000110 5a 0c 8f bd 2f fd 02 bd bd d5 74 be 0b ec 0e 3d
       -0.06984778 -0.031979736 -0.2390966 0.034893077
000120 13 50 a7 3d cb fa 57 be 2a d3 23 bd 1a b9 f1 3d
       0.0816957 -0.21091764 -0.039996304 0.118028834
000130 f7 0a 87 3d 30 92 3e bd 76 6c 03 bd 70 53 3a 3c
       0.06593888 -0.046526134 -0.03208586 0.011372432
000140 58 db cd bd 08 be c4 3d fa 92 3b 3e 20 71 15 3d
       -0.10051602 0.09606558 0.18317786 0.036484838
000150 b7 15 a8 3d ce db 0d bf 38 0b 84 3a cf 3b 8f be
       0.08207267 -0.5541352 0.0010074144 -0.27975318
000160 6f b7 e7 3d 89 58 87 bd 5a 8d ae 3c 86 c4 db 3d
       0.11314284 -0.066086836 0.021307636 0.10730843
000170 f6 8f 3d 3d 6d 19 18 3d 42 c0 c0 bd 98 12 c0 bc
       0.04627987 0.037133623 -0.0941167 -0.023446366
000180 df cf 20 bd 71 06 45 bd a4 41 73 bd 86 5a 58 3c
       -0.03926074 -0.048101846 -0.05938877 0.013205176
000190 9f 0e eb 3c c3 44 dd 3c f4 c8 19 be 3a ca 39 bd
       0.028693495 0.027010327 -0.15018064 -0.045358874
0001a0 e7 5d 4b 3e 6c fe 4f be ba c0 6d bd 5f fd 47 3c
       0.1986004 -0.20311898 -0.058045126 0.0122064045
0001b0 c0 25 80 3e 33 65 8b 3c 87 60 8e 3c 33 d9 15 3e
       0.250288 0.017016029 0.017380012 0.14633636
0001c0 d1 85 c8 3d 74 a3 cf bd 36 4f 00 ba 7f ed 3f bd
       0.097911485 -0.10138598 -0.0004894616 -0.046857353
0001d0 48 88 a3 bd 6b 29 1d bd 46 eb b5 3d c7 9e 8c bd
       -0.07984978 -0.038369577 0.088827655 -0.06866222
0001e0 97 b3 6b bd f8 e0 7c 3d 1f 17 84 3d 9e 95 c0 3e
       -0.057544317 0.061737984 0.064497225 0.3761415
0001f0 ae 55 aa 3e da 62 25 bc 62 d3 f7 bc a9 b5 da 3c
       0.33268493 -0.010094369 -0.030252162 0.02669795
000200 d2 c4 3f be 90 85 37 be 57 38 7a be 4e a0 a3 bd
       -0.18727425 -0.17922044 -0.24435554 -0.0798956
000210 73 4e e4 3c 58 dc ee bd 69 94 06 bd cd 43 f7 bd
       0.027869439 -0.11663121 -0.03285638 -0.12073479
000220 64 98 c8 bd 3f 03 cf bb 89 1b 35 3c 8f d6 9e 3d
       -0.09794691 -0.0063175256 0.011053928 0.077557676
000230 fa 9a 4a be 7a de d9 bd cd 33 6b bd 31 46 98 bd
       -0.19785681 -0.10638137 -0.057422448 -0.07435263
000240 ff 7f c2 bd b2 4d 5a 3d 87 e5 12 3e b7 e0 34 3b
       -0.094970696 0.053296752 0.1434537 0.002759976
000250 a9 77 04 3e 14 ce 55 be 5a c1 0a 3e 6f 7b a5 3c
       0.12936272 -0.20879394 0.1355032 0.02020046
000260 d6 60 62 3c 71 09 a4 3d d9 b3 98 c0 7e 58 53 bd
       0.013817033 0.08009613 -4.771954 -0.051598065
000270 34 f0 73 bd ed fe c8 3d e0 8d 68 bd 3f 2b 9d 3c
       -0.059555247 0.09814248 -0.056775928 0.01918566
000280 92 39 03 be 82 d4 80 bd 5f 88 ae bb 10 25 77 3e
       -0.1281493 -0.06290533 -0.0053263153 0.24135232
000290 48 33 e1 3d 60 e2 02 3d c1 5a 8a be a1 ac 9b 3d
       0.10996109 0.03195417 -0.27022365 0.07601286
0002a0 a3 5f f4 be 09 fc 63 3d 8d 8a 96 3d 30 7e 23 bd
       -0.47729215 0.05566028 0.07350645 -0.039915264
0002b0 11 6c f6 3d c7 1c 01 3c 35 4b 88 bb fe c4 01 3d
       0.12032331 0.007880396 -0.004159356 0.031682007
0002c0 e5 f4 00 be 8d 58 39 bc fe e9 47 be ea 2b 95 3c
       -0.1259342 -0.011312616 -0.19522855 0.018209416
0002d0 70 8e a0 3c b8 73 4d 3e d5 1a db 3d ce 29 44 3d
       0.01959917 0.20063674 0.10698477 0.04789143
0002e0 1a 3b 7e bd bb 60 18 3d 65 7b 2c bc 92 c3 b7 bc
       -0.062068082 0.037201624 -0.010527466 -0.022432122
0002f0 c0 8c 83 bc e5 95 fd bd fa 09 57 3e fd 56 c3 bb
       -0.016058326 -0.12382106 0.209999 -0.0059612975
000300 83 1a 60 3d 77 c7 26 3d 08 fb 13 3d 75 d2 b6 bd
       0.054712784 0.04071757 0.036128074 -0.0892686
000310 e7 54 cc bc 58 25 98 bd 61 70 a3 3d 82 13 ae bd
       -0.024942828 -0.07428998 0.07980419 -0.084998146
000320 33 fd 40 bd 90 42 0f 3e 2d 67 a1 3c 72 b0 1a 3d
       -0.04711647 0.13990235 0.019702518 0.037765928
000330 51 27 44 bb 87 91 1e 3c 98 67 23 3e 6d 7b a1 bd
       -0.002993066 0.009678251 0.15957487 -0.0788487
000340 3c 05 32 3c 43 8c af 3b 16 e1 66 3b 7d 35 5a 3d
       0.010865506 0.0053572967 0.0035229377 0.053273667
000350 ee 32 10 be d7 21 90 bd 13 4e 0b be 04 fb 59 3d
       -0.14081928 -0.070377044 -0.13604002 0.053217903
000360 4f 41 bc bd 20 75 c1 3d 7b 30 e3 be cb 16 87 bd
       -0.09192144 0.09446168 -0.44372925 -0.06596144
000370 a3 be d5 bc 13 e1 df bd 65 ed 91 3d 0d 9e 40 3d
       -0.02609188 -0.109316014 0.071253575 0.04702573
000380 9d 18 4f bd 84 42 0a 3d 2c e7 32 3c 71 d8 cd bd
       -0.050560582 0.03375484 0.0109193735 -0.100510485
000390 78 2f e3 bd 5c 18 5e be 54 04 d3 ba f5 ed d4 3c
       -0.11093038 -0.2168898 -0.0016099312 0.025992373
0003a0 3e b5 98 bd 77 8d 71 bd 14 5d b7 3b 35 f5 36 3d
       -0.07456444 -0.058972802 0.0055958126 0.04466744
0003b0 20 45 44 3d 77 10 a1 3d 6f 17 01 3d 11 9d a6 bb
       0.047917485 0.078644685 0.03151649 -0.0050846417
0003c0 0d 70 2e bd 8e ba 94 be fc 53 96 3d 02 1d 7e 3d
       -0.04258733 -0.2904858 0.073402375 0.062039383
0003d0 51 ee b0 bd 2d bb ab bd 9d 7a 06 3d da 92 68 3d
       -0.08639205 -0.0838531 0.032831777 0.056780674
0003e0 3e e6 5d 3d 39 72 54 3d 49 5b 46 3d e6 2d 72 bd
       0.054174654 0.051866744 0.0484269 -0.059125803
0003f0 59 9e 96 3e f1 aa 8f 3d 80 c1 43 be 02 e2 1e 3e
       0.29417685 0.07015026 -0.19116783 0.15515903

critic.2.bias f4 [128]
000000 31 82 de 3d c0 b0 8f bd c9 88 7e bd 1c 40 88 3d
       0.10864676 -0.07016134 -0.062142167 0.06652853
000010 47 82 1e 3d 3b 89 b3 3d 58 d9 98 bd 95 4c 98 bd
       0.03869846 0.08766409 -0.0746333 -0.07436482
000020 42 d0 b5 bd f8 d9 07 3b 3c db 80 be 1b 9b ae 3d
       -0.08877613 0.0020729285 -0.25167263 0.08525678
000030 73 48 e5 3c 05 8f 4d 3d 4f 48 15 3e 1e 28 2e 3d
       0.027988648 0.050185222 0.14578365 0.042518727
000040 84 d0 d1 3c 7b bb 94 3d 27 c0 ce 3d 25 38 92 3c
       0.025612123 0.072623216 0.10095244 0.017849037
000050 69 8f 22 3e fc 94 43 bb cd b3 00 be cf 1b 90 bd
       0.15875019 -0.002984344 -0.12568589 -0.07036554
000060 96 56 60 3d 4c 5a 31 bd 8f 32 68 3c 69 31 0e 3d
       0.054770075 -0.043299004 0.01417221 0.03471509
000070 0e 33 e0 3b 1b 8d bf 3d 87 8f 54 be ab a9 d0 bd
       0.0068420237 0.093530856 -0.20757876 -0.101886116
000080 31 39 a7 bc 46 df 89 bd 02 8b bb bc 7f 8f 85 3d
       -0.020413013 -0.06732039 -0.022893433 0.0652151
000090 db 01 2a 3e a9 6a 0a 3e 37 68 9e 3d 9e 88 fe bb
       0.1660227 0.1351725 0.07734721 -0.007767751
0000a0 b0 41 47 3c 87 1a 2e bd 3e 6e 69 bd 61 1c 4d bd
       0.012161657 -0.042505767 -0.0569899 -0.050075892
0000b0 6c 65 3c 3a a5 39 31 bc 27 77 e1 3b 96 65 f6 bd
       0.0007186744 -0.010816966 0.006880659 -0.12031095
0000c0 58 81 f2 bb c3 4a 06 3d a8 e3 3e 3c 7d cf a6 bd
       -0.007400673 0.032786142 0.011650957 -0.08145044
0000d0 3f 68 0f 3d bb 7c 42 3c 8f 2c 99 3b ed 70 28 bd
       0.035011526 0.011870558 0.0046745013 -0.04112332
0000e0 d9 bb 57 3d 84 ea 2f 3d 6a 89 71 3d 69 78 5c bd
       0.05266938 0.04294826 0.05896894 -0.05382577
0000f0 54 2b eb ba b4 f2 90 bd ed df dc bd fa 46 46 be
       -0.001794199 -0.07077542 -0.10784898 -0.19363013
000100 2e 6b 24 be bc 68 bf bd b3 e9 8e 3d a5 06 09 bd
       -0.16056511 -0.09346148 0.06978168 -0.033453602
000110 73 a3 b1 bd d1 f5 ee 3c 49 4b a7 3b 6e 1e 8f bc
       -0.086737536 0.029169949 0.0051054102 -0.017470565
000120 22 7a 45 3d 1e 41 a0 3d 53 6b 90 3d c3 65 96 bc
       0.048212178 0.0782492 0.070517205 -0.01835907
000130 32 81 1c 3e ea 33 b1 bd a2 c5 e9 3d 05 ae 3a bd
       0.15283659 -0.0865248 0.114146486 -0.045576114
000140 60 d7 ec bd c2 50 8b bd 77 db 8d bc a9 a1 6d 3d
       -0.11564517 -0.06802513 -0.017316563 0.0580155
000150 80 39 b7 3c f3 ba 1d 3e 1e 2f cb b8 eb b6 2a be
       0.022366285 0.15403347 -9.6885706e-05 -0.1667134
000160 a0 52 6f 3c 1b 1a 24 3c c9 43 e4 bc 11 9e 13 bd
       0.014607102 0.01001599 -0.027864354 -0.036039416
000170 ac 09 de 3d 5a f6 aa bc 12 9d 13 bd 5f a4 d9 bd
       0.108416885 -0.020869423 -0.036038466 -0.106270544
000180 70 3a a5 3d a7 db 6f bd d9 73 aa 3d d4 9a f6 b9
       0.08067787 -0.058559086 0.083228774 -0.00047036132
000190 f1 b5 86 3d 60 bd 91 3b 40 32 e8 bd b2 c3 8c bc
       0.06577671 0.004447624 -0.113377094 -0.017183159
0001a0 f7 ec d4 bb 98 20 ba bc c8 84 a2 bd 14 bb ac 3d
       -0.006497975 -0.02272062 -0.07935482 0.0843412
0001b0 f7 6b 0a 3d 60 52 8b 3d 99 ac bc 3d a5 3c 96 3d
       0.03379437 0.06802821 0.09212608 0.07335786
0001c0 fa bd 91 3c 8f c4 27 3d c1 f6 ae 3d 1d f1 e0 bb
       0.017790783 0.040958937 0.08543158 -0.0068646804
0001d0 19 a9 d5 bb 68 b1 0d 3e ae 0b 9a 3c 27 6a e3 bd
       -0.006520402 0.13837206 0.018804397 -0.11104231
0001e0 e5 b7 e2 3c 4c 91 cf bb 61 d3 90 bc 31 75 72 3c
       0.027675578 -0.0063344594 -0.017678918 0.014798448
0001f0 4e a8 09 bd 44 4c 28 3d 75 71 8f 3d 70 0f 00 3e
       -0.033607773 0.041088358 0.07004062 0.12505889

critic.4.weight f4 [1, 128]
000000 2b 81 14 3f 1f 41 4a be 08 d8 a4 3e 00 6c a1 be
       0.58009595 -0.19751404 0.3219607 -0.3152771
000010 a3 55 76 3c da 93 22 be d2 50 67 be 88 43 18 bf
       0.015035066 -0.15876713 -0.22589424 -0.59478045
000020 cb ec 97 3e 38 5b 4b be ba 24 95 bf 5e 42 e6 be
       0.29672846 -0.19859016 -1.1651833 -0.4497251
000030 26 4c 33 be b6 ee 71 3e f7 3f a5 3f a3 d0 28 bf
       -0.17509517 0.23626217 1.2910146 -0.65943354
000040 d1 58 0e 40 77 2c 07 3e 61 8c ca 3e 40 a5 24 3e
       2.224171 0.13200556 0.39560226 0.16078663
000050 22 99 b5 3f 44 3e af 3e 98 c5 c2 3e 1d 49 4f bf
       1.4187357 0.34227192 0.38041377 -0.80970937
000060 c9 35 cf 3e b0 7b 98 3f 29 26 c4 3e 23 78 84 be
       0.40470722 1.1912746 0.38310364 -0.25872907
000070 41 9b 70 be 16 09 60 3e 59 9f 1a 3f cf e4 09 3f
       -0.23496725 0.21878466 0.60399395 0.5386476
000080 23 0d ba 3e d8 09 10 bf d3 5e 43 3f df f6 ba 3e
       0.36338148 -0.5626502 0.76316565 0.36516473
000090 4e 49 84 3e 50 cf c3 be 8c 13 36 be 02 af a9 3f
       0.25837177 -0.38244104 -0.17780894 1.3256533
0000a0 27 9e 69 3e 01 b9 19 3f c7 8f 7d 3e 05 55 c5 3f
       0.22814237 0.6004792 0.24761878 1.5416571
0000b0 58 43 54 3e 84 20 56 3f c6 aa 93 be e7 15 19 3f
       0.20728815 0.83643365 -0.28841227 0.59799045
0000c0 b8 3d 93 3f 1c 22 8d be 32 90 6c 3f 7e 08 86 3f
       1.150321 -0.27565086 0.92407525 1.0471342
0000d0 ce 67 fc be 26 87 54 3e 84 8e 28 3f a6 1f 25 bf
       -0.49297947 0.2075468 0.6584246 -0.64501417
0000e0 ea d5 41 3f 0c 63 0f 3f 51 40 f5 3e ed 5d 50 3f
       0.7571703 0.5601051 0.47900632 0.8139332
0000f0 bf 66 ac be a9 89 6a 3c 7b 83 af 3f da 60 8c 3f
       -0.3367214 0.014315047 1.3712 1.0967057
000100 90 6b 82 3f 9f 18 ee 3e 87 3a 1a bf 95 e2 86 3f
       1.0189075 0.4650316 -0.60245556 1.0537897
000110 b8 3e 0f 3f 1f 41 0b 3f df 70 f1 3e 00 e2 1d be
       0.55955076 0.5439624 0.47156426 -0.15418243
000120 1b cc 8e 3e 6d 54 0d 3f da 8e 40 3f 23 bd ed 3f
       0.27890095 0.5520695 0.75217974 1.8573345
000130 bc 58 57 3f 38 e3 87 bf 26 3f ab be b1 a3 6b 3f
       0.8411977 -1.0616217 -0.33446616 0.9204665
000140 50 98 bf be c3 5b cb 3c cd 34 bc 3f 73 41 6f be
       -0.37420893 0.024824029 1.4703614 -0.2336481
000150 25 a1 33 3f 63 f3 16 3f f7 d9 8d 3f 56 99 85 3e
       0.7016776 0.5896513 1.1082143 0.2609355
000160 11 39 0d be 5c 91 43 be 0f b0 4d 3f 71 a9 98 be
       -0.137913 -0.19098419 0.8034677 -0.29816774
000170 e2 92 32 bf 38 dd b8 bf 50 c7 8a be 98 eb a7 bf
       -0.69755375 -1.4442511 -0.27105188 -1.3118773
000180 b6 65 06 bf cd 9a 39 be 66 64 2f 3f 21 bd 0d bf
       -0.5249895 -0.18125458 0.6851257 -0.5536671
000190 60 1e 80 3f 51 92 b6 be c2 59 d2 be 06 b6 5e 3e
       1.000927 -0.35658506 -0.41084105 0.21749124
0001a0 ef f4 43 3e 76 09 95 be 27 67 4a 3e b2 b1 13 bf
       0.19136404 -0.2910878 0.19765912 -0.57693017
0001b0 20 d8 93 3e 69 82 8a 3e e4 fc fe 3e 9b fa cf 3e
       0.28875828 0.2705262 0.49802315 0.40620884
0001c0 dd 07 8c be a6 c2 0c 3e a4 77 05 40 06 3f 9d bf
       -0.2734975 0.13746127 2.0854273 -1.2284858
0001d0 77 df 12 bf 20 09 fc 3e cb 6c 23 bf ba b4 10 40
       -0.5737223 0.49225712 -0.6383788 2.2610307
0001e0 db 2f 32 3f 47 18 f4 3d e0 a2 5d be 27 7d 8d bf
       0.6960427 0.11918693 -0.21644163 -1.1053818
0001f0 97 87 4e bc 17 37 ff 3f cd 7d a7 be e6 ec 8d be
       -0.012605569 1.9938687 -0.32713166 -0.27719802

actor.0.weight f4 [256, 48]
000000 55 1b 87 3e 11 02 ce 3d 59 75 e0 bd e9 9c 2b 3d
       0.2638804 0.10058988 -0.10959882 0.041897688
000010 12 f5 2b 3e 7a 7c 31 be fc ad 27 3e 94 e4 e7 3c
       0.16792706 -0.1733264 0.16374964 0.028307237
000020 c3 48 8f 3b 46 02 c2 3e 42 43 a2 3c c6 26 09 bd
       0.0043726875 0.3789236 0.019807462 -0.033484243
000030 64 92 ac 3e ee c1 14 3e 72 e1 03 bd 55 d7 8c bd
       0.33705437 0.14527103 -0.032197423 -0.06877009
000040 e0 ad 6c 3d 65 08 16 be 6d 6e 89 3e fc 65 14 3b
       0.057783008 -0.1465164 0.2684206 0.0022643795
000050 4e 52 a7 bd 1a 7a 4e 3e 36 9b 3a 3e 7e 41 26 bd
       -0.08169995 0.20163766 0.18223271 -0.040589802
000060 ab 9f 98 3e 63 53 38 bc e6 19 c1 bd 28 b1 9d bd
       0.29809317 -0.01125035 -0.09428768 -0.076998055
000070 01 e9 04 3e 50 81 c4 bd 22 b5 a1 bb f2 48 77 bd
       0.12979509 -0.09594977 -0.004934923 -0.0603723
000080 55 cf 94 bb c4 2c 9f 3e d3 9f 0d be be 4c 46 bc
       -0.0045413175 0.3108884 -0.138305 -0.012103258
000090 52 ac a6 3e 7e 69 92 3d 8e e1 65 bc 1f da ee bd
       0.32553345 0.07149027 -0.014030827 -0.11662697
0000a0 1b 44 5e 3e df 8e 3c be a5 9a 91 3d ed 21 c4 bd
       0.21705668 -0.18413876 0.07109574 -0.09576783
0000b0 7a 27 8a be f7 21 56 3e 17 ea 32 be f8 09 e6 3d
       -0.26983243 0.20911394 -0.1747211 0.1123237
0000c0 c1 16 69 3e d4 4a ae 3e a3 7c d6 3d c5 89 27 be
       0.22762586 0.34041464 0.10472991 -0.16361149
0000d0 90 3a 63 bd a6 98 a5 3d d7 bc 8a bd eb 26 8f bd
       -0.05547577 0.08085756 -0.067742996 -0.06989845
0000e0 9e ec d0 bd a0 5a f5 ba 9b ac 40 bd 68 54 e5 bd
       -0.10201381 -0.0018719025 -0.04703961 -0.1119774
0000f0 b7 19 32 3e dd 42 ba 3e 90 6c 01 3e a0 d9 64 3d
       0.17392622 0.36379138 0.1263907 0.055871606
000100 d2 cd 79 be 80 a1 16 be 13 21 d0 b7 fe 69 3d bb
       -0.2439492 -0.14710045 -2.4810934e-05 -0.0028902288
000110 fe 06 ed bd e5 45 90 bd aa 52 3f be 45 01 00 3c
       -0.11573599 -0.07044581 -0.18683878 0.007812803
000120 4d 78 8c 3e 25 6c a7 3e f3 33 83 3e 75 18 ce 3d
       0.27435532 0.32699695 0.25625572 0.100632586
000130 d2 71 32 be 96 72 9b bd 6d b2 ab bd 59 9f 1f bc
       -0.17426232 -0.07590215 -0.083836414 -0.009742581
000140 25 f2 63 be db 13 75 3d e5 38 65 be 97 00 36 bd
       -0.2226034 0.05983339 -0.22384985 -0.044434156
000150 71 8f c9 3e 32 ea a3 3e d3 60 41 3e 0e 5e dc bd
       0.3936725 0.32014614 0.18884592 -0.10760127
000160 8c 77 a0 be 18 52 39 bb 8a 68 d0 bc 5e cd c8 bc
       -0.31341207 -0.0028277691 -0.025440473 -0.02451199
000170 e8 b7 a8 be 7c 3d 0a 3e c1 2f 16 be 30 b1 45 3e
       -0.3295281 0.13500017 -0.14666654 0.19305873
000180 c4 cc cf be 1e af f5 3c 64 4c 1b bc 28 71 e8 3b
       -0.4058591 0.029990729 -0.009478662 0.0070935674
000190 c3 1b cd 3d d7 cf c7 3d 50 84 b6 bc b1 42 97 3d
       0.10015061 0.09756439 -0.022279888 0.07385767
0001a0 59 76 84 bc 7b b7 a6 be 6d a8 1e 3d 62 19 1d be
       -0.016169714 -0.3256186 0.038734842 -0.15341714
0001b0 fd eb e8 be f5 fa 73 bd 50 ec a5 3a d1 4b 3b be
       -0.45492545 -0.059565503 0.0012658928 -0.1829064
0001c0 24 2b 88 3d dc c0 69 3d 53 5a d3 3c d4 97 bc bd
       0.066488534 0.05706869 0.025799906 -0.092086464
0001d0 d8 ea 2e 3d ed 37 4a be 74 c9 0b 3e 7d af c4 bd
       0.042704433 -0.19747896 0.13651067 -0.09603784
0001e0 8f b8 95 be 82 c9 d2 bd 7f af 9b 3d 5e 39 85 bd
       -0.2924237 -0.10292341 0.076018326 -0.065050825
0001f0 9c 8d a6 3d fa 9f 07 bd d9 9f 49 3d 7c f9 50 bd
       0.081324786 -0.03311155 0.04922471 -0.051019177
000200 46 98 25 3e a9 ba ce be 47 0c 7d bd ef 18 57 be
       0.16171369 -0.40376785 -0.061779287 -0.21005605
000210 b0 73 a0 be ba 8d 69 3d 73 e3 97 bd 27 68 ab 3d
       -0.31338263 0.057019927 -0.07416429 0.08369475
000220 b9 1c 21 bb 03 ba 8a bd ee fa 2c 3e 7f 8f ba 3b
       -0.002458377 -0.0677376 0.16892597 0.0056933756
000230 d8 3c 9f 3c eb 80 9b be 3f 45 b7 3d d8 39 91 be
       0.019438192 -0.30371794 0.089487545 -0.28364444
000240 30 63 3a be bb f9 b8 bc de 88 f5 3d 44 e4 83 bc
       -0.182019 -0.022580018 0.11988996 -0.016100056
000250 1a 03 19 bb 80 86 ec bd 14 5b 49 3d d4 41 9f bd
       -0.0023347796 -0.11549091 0.049159124 -0.077762276
000260 09 a9 84 3e 67 03 4a be 5f 65 32 bd ab af 3e bc
       0.25910214 -0.1972786 -0.043553706 -0.011638562
000270 ca d4 23 be 10 d9 a7 3d a3 a9 4f 3d b8 17 25 be
       -0.15999141 0.08195698 0.050698888 -0.16122329
000280 20 9a b6 bd 01 fe dc 3d 8a 66 79 3d e0 9f f2 bd
       -0.08916116 0.10790635 0.060888804 -0.118469
000290 78 93 56 3d 69 89 30 be 0c f1 3c 3e b4 22 19 3e
       0.05238673 -0.17239918 0.18451327 0.14954644
0002a0 da b6 c0 bd c7 e4 cc 3c 42 e5 03 3e cb d6 38 3d
       -0.09409876 0.025011433 0.12880424 0.045126718
0002b0 f0 da 16 be e1 e0 4c 3d 3a 42 ad 3c 3e 0d af 3d
       -0.14731956 0.05001915 0.021149743 0.085474476
0002c0 e9 d4 78 3e 51 53 bb 3c f6 68 7f 3e 5b 15 23 3e
       0.24299969 0.022866877 0.24942383 0.15926115
0002d0 04 e3 87 bd bf 08 fe 3d 6a d2 02 3c 20 59 a3 bc
       -0.06635097 0.12404012 0.007984737 -0.019939959
0002e0 6b 96 fa bd 2d 91 1b bd 68 9c a1 3e cf ff 81 3d
       -0.12235721 -0.037980247 0.3156464 0.0634762
0002f0 1d c6 54 3e d7 8b 9e 3c 45 32 46 3e 06 e2 9a 3e
       0.20778699 0.01935379 0.19355114 0.30250567
000300 a6 9b 6e 3d c6 c0 c6 bd 63 2f b5 3d 50 94 f0 3d
       0.058253907 -0.09704737 0.08846929 0.11747038
000310 f8 cf ff bd 4c d5 99 3d c7 4e 02 3d 6f 31 63 bd
       -0.12490839 0.07511386 0.03181341 -0.055467065
000320 23 32 67 3d c1 78 e3 bd 6e 3a 8b bc 20 70 d2 bc
       0.0564443 -0.11107016 -0.016995635 -0.025688231
000330 21 93 e5 3d 22 7d 16 be 68 69 36 bc 14 d9 0b 3e
       0.11209703 -0.14696172 -0.011133529 0.13657027
000340 98 40 9a 3d 47 94 c0 bd 24 e0 c2 3c 05 a0 96 3d
       0.075318515 -0.09403282 0.02378852 0.0735474
000350 d4 98 a4 bc cb 6d 95 bd 6d fd 35 3c be a9 ed 3c
       -0.020092405 -0.07296332 0.011107785 0.029011603
000360 a0 8f 5a bd 16 f7 6f 3c 5f 8b 29 bd 73 08 4c bc
       -0.053359628 0.014646312 -0.04139268 -0.012453186
000370 42 25 16 be f0 1e 15 be 29 17 a3 3c 82 43 18 3d
       -0.1466265 -0.14562583 0.019908505 0.037173755
000380 94 b9 ab bd 3a 7e 1b be 8a 46 e6 3c 5b 04 75 bc
       -0.083850056 -0.1518487 0.028109808 -0.014954652
000390 e0 b5 cb bb 6e bc f2 3d 3d a3 03 3e 74 94 81 3d
       -0.0062167495 0.11852346 0.12855239 0.06327143
0003a0 93 94 9e bc 61 1a 00 3d 53 4b 28 3d 8a d5 05 be
       -0.019357955 0.031275157 0.04108746 -0.1306974
0003b0 bf a1 c7 3d a2 17 5f bc b9 06 be 3d 33 bf d9 3d
       0.097476475 -0.013616474 0.09278626 0.106321715
0003c0 6a 8b ad 3d c7 9c 76 3d 8f 36 4f 3e 56 78 06 3e
       0.08473857 0.06020811 0.20235656 0.13131842
0003d0 7b 8b 22 3b 92 f5 43 bd 04 53 b9 3d c4 cc 67 be
       0.0024802375 -0.047841616 0.09049037 -0.22636706
0003e0 01 68 88 3e 81 94 8d 3d 29 53 61 3d 1f 24 59 3c
       0.2664185 0.069130905 0.05501095 0.013253241
0003f0 10 d1 c1 3d f8 95 14 bd 42 12 19 3e 7a 72 a5 bd
       0.09463704 -0.036275834 0.14948371 -0.08078475

actor.0.bias f4 [256]
000000 2c 21 49 be 7e f9 17 3e 43 7a cd bd 62 c0 71 bd
       -0.1964156 0.14841267 -0.10033085 -0.05902136
000010 91 95 c6 bd 69 3d 48 bd 10 2c 8c bd c7 45 de 3d
       -0.09696496 -0.04888669 -0.06844342 0.10853153
000020 a0 b9 6a bd d7 37 47 be 90 d5 55 3d 09 11 97 3d
       -0.057305932 -0.19454895 0.052205622 0.07376296
000030 da e4 76 3e af 92 d4 3d 24 9e 9c bd da 89 ff bd
       0.24110737 0.1037954 -0.076473504 -0.12477465
000040 c7 79 61 be 8f fe a2 bc 01 64 cd 3c e2 8f 9a bd
       -0.2201911 -0.019896774 0.0250721 -0.07546975
000050 4f e2 29 be 00 ea 29 bc cb 4b 05 be fb 3f 0e be
       -0.16590236 -0.010370731 -0.13017194 -0.13891594
000060 94 cc 2d be f3 62 6f 3d 83 a5 22 be a4 0f b7 3d
       -0.16972572 0.058443975 -0.1588345 0.0893853
000070 7a fb 63 3d 3f 10 95 be 65 fe 42 bb e6 9a b5 3d
       0.05565975 -0.29113957 -0.0029753682 0.08867435
000080 ef 58 11 bd 95 ab 09 3d d6 23 6b bd cb 5a 01 3e
       -0.035485204 0.0336109 -0.057407223 0.12632291
000090 13 1e 75 be d6 d4 7c bc 48 31 1b 3e e6 ba 92 3d
       -0.23937254 -0.015431603 0.15155518 0.07164554
0000a0 63 fd e4 bd 90 76 d7 3c 76 81 3b bd 5e ff 97 bd
       -0.11181142 0.026301652 -0.04577776 -0.07421754
0000b0 70 fa 36 3d 9e 3f 4b 3e 12 d1 29 3e 41 89 65 bd
       0.04467243 0.19848487 0.1658366 -0.0560391
0000c0 83 d3 3a 3e 92 6f ef 3c 1b cb dd 3d f8 fb b8 bd
       0.18244748 0.029228006 0.10829755 -0.09032434
0000d0 9d 34 99 bd 3e 4e 32 3e 17 e0 b7 bc e6 07 69 bd
       -0.07480738 0.1741266 -0.022445722 -0.0568923
0000e0 ba e7 30 be 19 c3 e0 bc 47 9f ef 3d f8 40 b3 bd
       -0.17275897 -0.02743678 0.117003016 -0.08752626
0000f0 07 7a 3b 3e 8c 40 fd bb d5 96 bc bd 33 21 94 bb
       0.18308268 -0.007728642 -0.092084564 -0.004520559
000100 ba e2 db 3d 8e cd 8b be 85 83 d6 3d 43 e9 13 be
       0.10736604 -0.27305263 0.10474304 -0.14444451
000110 9a f0 4b 3a 51 de 62 bc 1c 36 20 be e3 6c 56 bc
       0.0007779688 -0.01384695 -0.15645641 -0.013087484
000120 a9 30 a3 bd 84 38 6b 3d 59 2b f6 3c 36 3f 2e 3d
       -0.079682656 0.057426944 0.030049967 0.04254075
000130 f1 e1 fc 3d 27 56 d4 3c 41 cc d1 3d e2 93 c4 3c
       0.123477824 0.025919987 0.102440365 0.023996297
000140 6f 1e 43 3d 72 28 8f 3d e4 50 82 3d 08 ea a3 bd
       0.047636446 0.06990136 0.06363085 -0.08003622
000150 6a 9b 3e bc 49 3c 57 3c 79 67 0b 3d cc 56 b3 bd
       -0.011633733 0.013136932 0.034034226 -0.087567896
000160 3a 30 4e be 0c d5 08 3b 3b 45 38 3c fd 9b f9 bc
       -0.20135584 0.002087894 0.011246975 -0.030469889
000170 0f 17 b8 bd e7 bd 33 bb a8 c4 9d bd ad a8 92 bc
       -0.08988773 -0.0027426423 -0.07703525 -0.017902697
000180 5b db 05 3e 59 be ef 3d 61 a5 1d 3e 60 34 16 be
       0.13071959 0.11706228 0.15395118 -0.14668417
000190 6d 5a c9 3d 76 19 01 3e 11 44 a7 bd 2c 37 30 bd
       0.098317005 0.12607369 -0.081672795 -0.043021366
0001a0 eb 30 a1 3d 53 79 9f 3c 93 75 88 3d 46 78 db bd
       0.078706585 0.019467032 0.066630505 -0.107163
0001b0 6f d6 71 3e f7 89 93 3c 8b f9 23 be 0e 0b 24 3d
       0.23616956 0.018010123 -0.16013162 0.040049605
0001c0 d8 84 53 3e 60 0b 36 3d 86 02 23 bd 98 a5 b8 3c
       0.20656145 0.04444444 -0.03979733 0.022539899
0001d0 ea 99 10 be b7 ee 03 bd d1 b4 db 3d 7b d5 51 be
       -0.14121214 -0.032210078 0.10727847 -0.20491593
0001e0 44 a5 54 3c 60 bd 2a bd e7 2a cf 3d 4e e6 fb bd
       0.0129788555 -0.04168451 0.10115605 -0.122997865
0001f0 16 b8 81 3b 6a ef d9 3d 80 de d8 bd 31 eb 17 be
       0.0039587123 0.10641368 -0.105893135 -0.14835812
000200 fc 4b 6c bd 3c 70 56 be c6 6a b1 3d 39 04 01 3e
       -0.05768965 -0.20941252 0.086629435 0.12599267
000210 3c 43 3e bd 5a c1 7e 3d 2c 54 0f 3d b7 15 8b 3d
       -0.04645084 0.062196113 0.034992382 0.06791251
000220 35 44 ce bb 7c 62 8b 3e 92 bb 88 3d ed d3 2c 3e
       -0.006294752 0.27223575 0.06676401 0.16877718
000230 94 75 a9 bc a9 63 fa bb ed 71 c1 3d 11 a4 10 3e
       -0.020685948 -0.007641275 0.09445558 0.14125086
000240 17 91 ef 3b f3 1e a1 3d 8d 66 50 3e a1 1e 2b 3e
       0.007310997 0.07867231 0.2035162 0.16710903
000250 0c 48 51 3d 62 3c bf bd 49 fe 61 3d d4 28 39 3e
       0.0510941 -0.09337689 0.055174146 0.18081981
000260 53 b0 f0 bd 30 d4 8d 3d 00 67 1d be 8f 37 c9 bc
       -0.11752381 0.06925237 -0.15371323 -0.024562625
000270 40 0a 03 be dd 54 8f bd 12 c8 80 3e db 0d ad bd
       -0.12796879 -0.06998608 0.25152642 -0.08449908
000280 1e 49 8d 3e fa 79 f8 b9 b7 38 ff bc 3a fd 55 3e
       0.27594846 -0.00047393126 -0.031154973 0.2089738
000290 b5 2b 91 bd 23 36 d6 3c 0d e3 17 be 88 2a 4f bd
       -0.070884146 0.026148861 -0.14832707 -0.05057767
0002a0 82 a4 ff 3d 9f 69 02 3c d5 e1 17 be 52 90 1a bd
       0.12482549 0.007959752 -0.14832242 -0.03773529
0002b0 e7 78 b1 3c 04 15 d7 3d 11 39 7f 3c 05 e1 a0 bd
       0.021664096 0.10502055 0.015577571 -0.07855419
0002c0 df 36 48 3e ff 9d 86 3e 58 a0 54 be 4d 41 70 bd
       0.19552182 0.26292416 -0.20764291 -0.058656026
0002d0 8a 46 7d bd 81 13 3c bc ec 02 b9 bd f4 2b c7 bc
       -0.06183485 -0.0114792595 -0.090337604 -0.02431295
0002e0 0b 19 4e 3b 6e cb 09 bc 23 45 cf bd 0c e2 6a 3e
       0.0031448032 -0.008410318 -0.10120609 0.22937793
0002f0 cf 77 c7 3d 20 bf 50 bc 4b 36 c5 3d 34 cd 24 be
       0.097396486 -0.01274088 0.09629496 -0.16093904
000300 1c 1a 7d bc 22 d2 7e 3d dc f4 1b be 09 29 04 3e
       -0.0154481195 0.062212117 -0.15230125 0.12906279
000310 fa bc 36 3a c2 7a 84 3b 43 ed 24 3e 0e 45 d6 3c
       0.0006970909 0.004042954 0.16106133 0.026155975
000320 c4 12 4e be 0e 6e 63 3e 68 34 72 3c 8a 3d 31 3e
       -0.20124346 0.22209951 0.014783002 0.17308632
000330 6e 1b 18 3c 06 ff 97 3e 57 60 43 be 5d 5c a9 3d
       0.0092838835 0.29686755 -0.1907972 0.0826957
000340 21 7c 6b 3d 92 ac 01 be 47 73 bc 3c d6 4f 45 bd
       0.057491425 -0.12663487 0.023004187 -0.04817184
000350 74 01 24 be cb ec 1d 3e 9a 66 c2 bd fe 6a c5 bd
       -0.1601618 0.1542236 -0.09492226 -0.09639548
000360 4d e2 dc bd 43 c3 87 bd 20 4b 1c be 87 40 b7 3c
       -0.10785351 -0.0662904 -0.15263033 0.022369636
000370 3e 0b 6e bc cf 71 21 3e a4 91 a6 3c 60 e9 69 3d
       -0.0145290475 0.15766071 0.020333119 0.05710733
000380 a7 28 9e bd e7 80 c0 3d 4e e6 50 bc 6f d4 8a 3d
       -0.077225976 0.09399586 -0.012750221 0.067788
000390 b3 5f 36 be be cc 92 bd 57 7f a6 3d 3b 25 55 be
       -0.17809944 -0.07167958 0.08129757 -0.20814984
0003a0 f1 c4 38 be 30 93 09 bc 25 01 41 bd 75 4b 1d be
       -0.18043877 -0.008396909 -0.047120232 -0.15360816
0003b0 39 96 85 3d 42 c5 40 be 9c 58 fb 3d 0d a1 72 bb
       0.06522793 -0.18825248 0.1227276 -0.0037022263
0003c0 a3 f3 60 3d 9d ca f5 3b 48 44 8c 3d 4f d7 c0 3d
       0.05491985 0.00750096 0.06848961 0.09416067
0003d0 8e d8 6f 3d 73 ee b8 bc 33 f0 87 3b 49 2f 84 3d
       0.058556132 -0.022574639 0.004148507 0.064543314
0003e0 09 8b 48 3e 36 2d 06 3d ef 51 be bb 13 ed d0 3d
       0.19584288 0.03275796 -0.005808107 0.10201468
0003f0 3f 88 07 be 67 8b 3c bd 88 a4 f5 3c 6d c4 ff 3d
       -0.13235568 -0.046031382 0.029985681 0.12488637

actor.2.weight f4 [128, 256]
000000 fa 9c 7a 3d 77 2b 5c be 3d 0e 0c be c5 c8 0a be
       0.06118486 -0.21500956 -0.13677306 -0.1355315
000010 00 33 94 b9 47 0d c3 bd f5 c3 a7 3e d8 ff 41 3e
       -0.00028266758 -0.09524017 0.3276669 0.18945253
000020 d9 c4 ce 3d cb 7f 45 3d 95 b3 6d bd 76 37 51 bd
       0.100961395 0.048217576 -0.05803259 -0.051078282
000030 10 b4 c2 bd cc 90 9e 3e b4 fe cc bc 9b 94 ad bd
       -0.095070004 0.30969846 -0.025023796 -0.0847561
000040 33 79 97 3c ef 09 b6 bc 11 c9 da be a4 aa 46 be
       0.01849041 -0.022221534 -0.42731526 -0.19401032
000050 89 f4 57 bd 4f 2f ad 3d 7e cc 46 be 3c f2 5d 3e
       -0.05272344 0.08456289 -0.19413945 0.21674436
000060 73 31 f8 3d 65 8c 30 3e 2e 5a 54 bd 49 80 2a 3d
       0.12118807 0.17241056 -0.051843815 0.04162625
000070 4c d0 e2 3d 37 bb 8f b9 10 36 64 3d 05 2c 4f be
       0.11074886 -0.0002741457 0.05571562 -0.20231636
000080 69 39 18 be b4 02 37 be 30 a5 bf bd ac 21 1e 3e
       -0.1486565 -0.17872125 -0.09357679 0.15442532
000090 4d 1c 3d 3e 15 a4 b5 be e7 26 83 be 75 6b 0d bd
       0.18467827 -0.35476747 -0.25615618 -0.034526307
0000a0 12 08 96 3d b1 7e fe bc 6a b5 b8 bc 7f 01 15 bc
       0.07325758 -0.03106627 -0.022547442 -0.009094595
0000b0 c2 d5 3d 3d 36 f1 2f be f0 46 98 3d 71 6f df 3c
       0.046346433 -0.17181858 0.07435405 0.02727482
0000c0 5a 73 b7 3e 31 a5 2f be 33 65 11 be 65 ba ec 3c
       0.35830194 -0.1715286 -0.1419876 0.028897474
0000d0 d9 ed 0f bd 7a b8 2d be 8e 57 6c be d3 29 01 be
       -0.03513894 -0.16964903 -0.23080274 -0.12613611
0000e0 06 87 18 3e 36 0b 09 3e 1b 28 e3 3d 2d 4e e1 bd
       0.14895257 0.13383183 0.11091634 -0.11001239
0000f0 08 26 c1 bd 1f 9f ba bd be 75 49 3e 24 4f 75 bc
       -0.09431082 -0.09112381 0.19673821 -0.014972482
000100 82 f2 90 3d 89 b9 f5 3d cb 2a 46 3e b5 a6 9a bd
       0.07077505 0.11998279 0.19352262 -0.07551328
000110 07 c5 b6 3e 19 f4 a2 3d 0b 3c 1b be 6e 48 bf 3b
       0.35697195 0.07956714 -0.15159623 0.0058374917
000120 4e 76 b1 3d 46 17 38 be 06 bc 4a be 13 6e a0 3d
       0.08665143 -0.17977628 -0.19798288 0.07833495
000130 c3 c2 1a bd d2 89 99 3e 8a 10 70 3d f5 c1 56 bb
       -0.037783395 0.2998796 0.058609523 -0.0032769416
000140 d8 9c 11 3a 05 73 3b 3c f7 8c 08 be 74 2b d6 bd
       0.00055546826 0.011440997 -0.13335024 -0.10457507
000150 36 6b 40 3d 64 27 4d 3e 7c d5 29 3e 36 a4 84 bd
       0.046977244 0.20034558 0.16585344 -0.06476633
000160 53 b4 2f bc 05 49 47 bc 79 27 ac bd 76 fa 38 3c
       -0.010724145 -0.012163405 -0.08405966 0.011290183
000170 f5 79 24 3e 61 45 c5 be 89 1a fe 3d c5 e5 ef 3d
       0.16062148 -0.38529494 0.12407405 0.11713747
000180 dc 1c 7f bc 52 06 cb be c9 4c 42 3c 2c 96 07 be
       -0.015570845 -0.3965326 0.011859127 -0.1324088
000190 8d b7 e6 3a 7f b7 8d be c1 19 c1 3d db f9 29 be
       0.001760231 -0.2767906 0.0942874 -0.16599219
0001a0 29 b9 aa bb be da ae 3d c3 5b d9 bc 24 11 98 bd
       -0.005210061 0.085378155 -0.026533013 -0.07425144
0001b0 35 64 03 3e b0 61 16 3e 38 47 23 3e 4d 1e be 3d
       0.12831195 0.14685702 0.15945137 0.09283123
0001c0 f6 81 e2 3d ee 45 bb 3d 81 4a 0c be 82 8f ea 3c
       0.11059944 0.091441974 -0.13700296 0.028632883
0001d0 31 6f e5 bd 72 a6 d8 3d b7 c2 00 3e 39 88 3f bd
       -0.11202849 0.10578622 0.12574278 -0.04676077
0001e0 68 40 f1 3d c7 90 4f 3e 78 95 ff 3d af dc b8 3d
       0.11779863 0.20270072 0.12479681 0.09026467
0001f0 56 e4 4c bd 6e 2b 84 bc 0b 7f f2 3d bb 96 e9 3d
       -0.050022446 -0.01613399 0.11840638 0.11405703
000200 99 83 03 3d ac 81 22 be ed 0e bc 3b 85 e3 16 be
       0.032107923 -0.15869778 0.005739084 -0.1473523
000210 56 34 1a be 70 e8 80 bd 91 a6 5d bf 38 e0 ab bd
       -0.15059027 -0.06294334 -0.86582285 -0.08392376
000220 6b 4c d5 3e b4 20 4d 3d fa a1 0a 3e 73 98 91 bd
       0.41659865 0.050080016 0.13538352 -0.071091555
000230 b9 f0 93 be 04 40 08 be 75 0c 4a 3e f0 66 69 3d
       -0.28894594 -0.1330567 0.19731314 0.056982934
000240 c9 c4 25 bd 1c b9 97 3e 58 94 d9 bd 71 db 07 be
       -0.040470872 0.29633415 -0.106239974 -0.13267304
000250 4c 9f 76 bd 1b 25 19 be b1 90 03 3e 76 e9 20 be
       -0.06021051 -0.14955561 0.12848164 -0.15714058
000260 59 18 1e 3d 17 19 7d bb 87 2a 8e 3e c7 8c 22 bd
       0.03859744 -0.003861969 0.2776682 -0.039685037
000270 51 82 89 3e e9 b5 ee bc b0 1a 39 3e 65 c1 7c 3d
       0.26857236 -0.029139476 0.18076587 0.061707873
000280 4b ee 05 bd cb d3 2c 3c 5a d9 9d bd c6 0a 41 3d
       -0.032697957 0.010548542 -0.07707472 0.047129415
000290 37 b8 3e 3e 91 69 c3 bd 76 5c 06 3e 07 3e 79 3e
       0.1862496 -0.095416196 0.13121209 0.24340068
0002a0 de 8c ce 3a 0c d6 b7 be 1b 66 d0 bb 2f 8b c2 3d
       0.0015758534 -0.35905492 -0.006359828 0.094992034
0002b0 f6 fa be be 64 5c bd 3d 3a 63 08 bf 38 cd 70 3e
       -0.37300843 0.09246138 -0.5327641 0.23515785
0002c0 7d 49 ac bc 3f fd 9b bd 57 de 5f 3d fa 76 83 3d
       -0.021031136 -0.07616662 0.0546554 0.06419177
0002d0 07 44 ba 3d 12 da 8d bd b5 ff 8d 3d 1e 27 4f bb
       0.090950064 -0.06926359 0.06933538 -0.003160901
0002e0 21 ae 88 bd bb 1d 27 3d 9f eb 13 bd a3 cb 54 3d
       -0.066738375 0.040799838 -0.036113378 0.051952016
0002f0 e7 6e c4 3d 1c d6 47 3d 4e 96 d3 3d f7 a8 8a 3e
       0.095914654 0.048788175 0.10331403 0.27082035
000300 aa cb b0 bd c0 7a 99 3d d0 14 ea 3e b5 62 28 be
       -0.08632596 0.07494116 0.45719004 -0.16443904
000310 4e 35 55 be 82 e2 aa be a0 d4 a3 be 2c 3f 3c be
       -0.20821115 -0.33375937 -0.31998158 -0.18383473
000320 14 20 ae bc 6b 28 2f bf d1 92 13 3d 1b e8 ce 3c
       -0.02125553 -0.6842105 0.036028687 0.02525716
000330 f5 d8 f3 bd 82 cb 00 be 00 34 84 be c0 56 f0 bd
       -0.11906616 -0.12577632 -0.25820923 -0.11735296
000340 15 93 ce 3d a5 00 0a be 5b f1 d1 bd 17 eb 1c be
       0.100866474 -0.13476808 -0.10251113 -0.15324055
000350 83 28 15 3e 3f 53 2a be a4 f4 1e 3d 66 d8 91 3d
       0.14566235 -0.16633318 0.038807526 0.07121353
000360 ca 2f 88 bd 6e 36 18 3e 38 6b cc bc a1 88 18 3e
       -0.0664974 0.14864513 -0.02495347 0.1489587
000370 f4 12 01 be b4 be 17 3c aa 3b d4 bc 86 74 8f bd
       -0.12604886 0.009261776 -0.025907356 -0.07004647
000380 b3 a1 dc be 7c b2 26 bd cb 99 b0 3d 69 8d 1a 3e
       -0.43092117 -0.04069756 0.08623084 0.15093006
000390 a8 d2 f9 3d 38 8f 68 3d b4 b3 5c bc bf 13 f6 3d
       0.121983826 0.05677721 -0.013470579 0.12015485
0003a0 80 47 22 3e f3 0e 6a bc 1d 41 e1 3d 27 f8 31 bd
       0.15847588 -0.014285791 0.109987475 -0.043449547
0003b0 2b f2 f3 bd 4e 14 64 3d f2 71 bc 3d d4 9b 1d bd
       -0.11911424 0.055683427 0.09201421 -0.038478687
0003c0 1f d9 45 3c ef ea e6 be 82 d6 40 3d bd 31 ae bd
       0.0120756915 -0.45101115 0.04707957 -0.085055806
0003d0 9a b7 a9 3b 23 5b b9 bd 5e 4d 10 bd 4f 06 e7 3c
       0.0051793577 -0.09050586 -0.035230033 0.02820125
0003e0 52 1d e2 be 11 0e d4 3d 3d f0 25 be 5f ab f4 bd
       -0.44162995 0.103542455 -0.16204925 -0.11946749
0003f0 33 8c 6f 3d 55 45 f2 3d 09 f5 cc bd 69 ce 01 be
       0.058483314 0.1182963 -0.10007674 -0.12676395
